results/Hopper-2d/cmorl-ipo/1/final/EP_policy_76.pt (torch, 85897 bytes, 13 tensors)

base.actor.actor_logstd f8 [1, 3]
000000 5f 3e 30 ec a7 99 eb bf 11 71 4d 47 f3 75 eb bf
       -0.8625068295531938 -0.8581482308032112
000010 fe 41 4f 56 f6 1d f5 bf
       -1.3198150035351541

base.actor.actor_fc1.weight f8 [64, 11]
000000 e7 5f ed 42 78 1d c6 3f 5a 23 fb 3b 4b fd d3 bf
       0.17277434604579797 -0.3123348317863496
000010 e1 de b3 c8 54 75 db 3f ab 9b 68 31 6d 15 b0 bf
       0.42903632736077496 -0.06282694298043505
000020 53 3e dd f3 de d7 dd 3f 6d 75 fc 84 17 da db bf
       0.4663007146345752 -0.43518627154283857
000030 d7 6e 4e 40 83 5f c5 3f b5 b8 5d c8 04 12 98 3f
       0.16697731628379728 0.023506235818268013
000040 e2 06 5d 03 e1 24 a1 3f d0 30 e7 01 a1 df c1 3f
       0.03348448911721193 0.13963711350368735
000050 c7 d6 01 2c bf e6 bd bf 9b 5c 0c c6 0e 09 c1 3f
       -0.11680216621774796 0.13308891935659947
000060 6c cc 15 5c b4 a2 c8 bf 30 90 13 66 f4 11 d4 bf
       -0.19246534820885886 -0.313595866855624
000070 a5 35 79 ba db a1 b8 3f 96 c7 db 29 95 6f d2 bf
       0.09621976187300747 -0.28806046569581534
000080 0d 61 b4 49 a2 09 c6 3f fa db da 24 52 fd 93 bf
       0.17216900442941388 -0.019521029948659653
000090 18 7b 4f 4d fa 03 d9 bf b9 e6 98 54 d8 6e d4 bf
       -0.39086778211451323 -0.31926544438793375
0000a0 84 dc 8b 03 ea 83 9b bf 8e 6e 49 03 c6 54 bd bf
       -0.026870399919940016 -0.11457479076619334
0000b0 8f 17 d6 2f 52 78 bd bf 99 3a 6d 64 39 6d b3 3f
       -0.1151172034061274 0.07588537885497217
0000c0 fe f1 dc 02 67 b4 e0 bf cc 3b 76 cc cc 30 ac 3f
       -0.5220217758101737 0.05505981441375915
0000d0 21 66 39 36 6d 39 d6 bf cd fe 9b cc 0d 6c d7 3f
       -0.34725504203160723 0.3659700868738412
0000e0 88 8b 58 07 fc 44 9d 3f 16 2b 58 64 3a 41 a7 bf
       0.028583467434269788 -0.04541952586085622
0000f0 14 ed 38 46 57 bb c1 3f 91 40 62 7e 35 4e a0 3f
       0.13852969101740398 0.03184668700953453
000100 50 82 55 45 a8 06 9f 3f 7c 32 87 18 ad 17 d1 bf
       0.030298833114445423 -0.2670700778515209
000110 f5 35 ba fd 3b 89 c8 bf 14 2f f8 59 e3 30 c9 bf
       -0.1916880597022296 -0.19680444615402648
000120 5c 7a 7a 94 ab 0e 8a 3f 9c e2 ca ff 56 e5 ad 3f
       0.01272329375143249 0.05839034912555016
000130 a9 5b 20 99 71 e5 c8 3f 42 9c ef 59 db 57 cd bf
       0.19450206734538014 -0.22924367801098994
000140 e8 af 3b 0e 48 1a bc 3f 73 5d e1 ea af 5d a4 bf
       0.10977602336396297 -0.03977727644149356
000150 41 52 82 f3 89 88 cb bf 9e a6 48 77 c6 72 a4 3f
       -0.21510433569041434 0.03993816572285634
000160 93 83 9c 11 a6 7c a5 bf 55 98 99 81 b7 27 c5 bf
       -0.04196661915762614 -0.16527456119655662
000170 1c 03 a9 bd 10 b0 d2 bf 3e cf 13 71 f8 63 d3 3f
       -0.29199617883209483 0.3029767135878848
000180 72 3f fe 6f 55 b0 d7 3f 5c c5 83 b1 09 50 9d bf
       0.37013755738097764 -0.028625632724417968
000190 ba 0f c1 91 1e 6a e3 bf 73 85 1b 63 41 70 ab bf
       -0.6067040297279995 -0.05359081587608729
0001a0 b3 71 33 19 0f 36 c2 bf 4f e4 b2 dc cd 97 c2 bf
       -0.14227474909320179 -0.14525769497211846
0001b0 2a d5 5f 6d 2c b5 c5 bf 2b 71 0b 8c 76 66 b0 bf
       -0.16959147778076417 -0.0640634624391551
0001c0 f7 0b 81 a6 09 bc 93 3f a2 5f 3c 1c a2 76 b0 3f
       0.019271994388201787 0.06431019963599607
0001d0 56 7d d3 f3 a9 14 c3 3f 7f f2 de 96 6f 2a b8 3f
       0.14906811147282423 0.09439752038356096
0001e0 a4 68 4d ac 1a 2e 95 bf f7 6d c8 8c c7 1c c1 3f
       -0.02068368603372818 0.13369078039328006
0001f0 09 69 99 69 2e 1f d0 3f ba e1 81 c8 39 7d b0 3f
       0.2519031554453624 0.06441079278182019
000200 db f2 d0 9f d7 78 c2 bf b9 9e 26 0c c7 6a c2 bf
       -0.1443128137924735 -0.14388359158805544
000210 12 27 8b e4 29 f4 a6 3f 32 53 26 19 80 58 d5 bf
       0.04483157076681556 -0.33352663475061484
000220 d3 a4 af 91 49 85 b8 3f 29 24 db 08 b5 99 d4 3f
       0.09578380400457158 0.3218815409168792
000230 50 3f ce 79 19 78 9a 3f 9e a4 32 9d cc 58 c0 bf
       0.025848768290927027 -0.1277099387710096
000240 3e 50 85 25 ae 4e 89 3f 61 08 32 c7 63 9f 83 bf
       0.01235710193638095 -0.009581355587446607
000250 df 18 c0 f9 32 4f cc bf b7 fb d4 d4 fe 5c b3 3f
       -0.22116696543543576 0.07563774772732655
000260 b6 a9 c0 b3 0d 09 97 bf 53 3e b5 94 f3 bd a2 bf
       -0.022495473953463928 -0.03660546484263407
000270 85 d6 74 a3 2d be c6 3f c2 55 27 96 4b a4 b3 bf
       0.17767878037709664 -0.07672569671497967
000280 1f 2e 6b 53 ae 7d cb bf d6 a2 aa 15 08 bb c7 bf
       -0.21477297852685326 -0.18539525087296366
000290 29 37 1d d5 56 6c c1 3f 85 7c 11 8a c3 21 96 3f
       0.1361187496753982 0.02161317377283158
0002a0 a4 0b f3 f9 3b 89 c3 3f 18 60 2d 09 79 db 85 bf
       0.15262555794296617 -0.010672517387931221
0002b0 25 bb 2f 0d 4a 3d c1 bf fe 76 4b df f1 c3 b6 bf
       -0.13468289989347074 -0.08892738057644675
0002c0 f4 b3 cc b3 85 99 a2 bf 1a 85 03 3b 17 0b 92 3f
       -0.03632753200358954 0.017620432831681666
0002d0 a5 f9 6f 6c 70 3b b0 bf 49 8e ab 68 9c e9 c4 bf
       -0.06340696952245269 -0.163379241093127
0002e0 f3 32 38 c2 55 b0 cc bf 47 13 80 6e 89 6b a5 3f
       -0.22413131698012698 0.04183606599693817
0002f0 ab 21 be 1b 30 51 95 bf e1 d8 72 91 c4 0d 79 3f
       -0.020817519849090676 0.0061166456645677944
000300 aa d8 04 ea a0 c3 78 bf 84 d1 e5 76 9e eb 8c bf
       -0.006045940943570619 -0.014121282580824575
000310 46 44 50 08 28 bb c0 bf 13 70 fe 58 32 6b b7 3f
       -0.1307115593522516 0.09147944138243273
000320 16 bf ba 5c 25 4c d2 bf 39 75 80 97 9c 0c d7 3f
       -0.2858975797234832 0.36014475627037573
000330 38 a9 ed 50 a2 a2 c0 bf 43 56 e1 5b 62 d5 cf bf
       -0.12996319724636307 -0.24869946943606366
000340 61 90 5f d6 24 c9 b3 bf 7b 48 f5 3e bc 37 ce bf
       -0.07728796228144709 -0.23607590746047777
000350 82 7b 21 3f c2 55 ba bf 74 90 32 39 03 3a 9f bf
       -0.10287107507018159 -0.030494737974223488
000360 8c 07 fe 12 a7 f4 c8 bf 30 ed 51 af 15 f5 be bf
       -0.19496620585783508 -0.12092719583772715
000370 42 89 83 a5 f4 7c d9 3f 11 1e b9 01 e6 96 c7 3f
       0.39825168765505137 0.18429255565773464
000380 67 82 8b c7 ae 40 88 3f b5 22 0c fe 12 c0 b3 bf
       0.011842122521046506 -0.07714956953362669
000390 22 29 de cb a0 60 b4 3f 40 7a 11 a6 8b 9b d1 bf
       0.07959942795983868 -0.2751187440643754
0003a0 06 e3 1f 0f 31 37 cb 3f b2 77 a8 27 3e a4 a1 3f
       0.21262181509498407 0.034456198063920765
0003b0 48 22 f6 9f 87 da b4 bf f7 9d 97 c4 0b 52 b8 3f
       -0.0814594998865995 0.09500192212691859
0003c0 1c eb 65 6c fb be 85 3f 03 34 f5 43 ec 2b c4 3f
       0.010618175740764672 0.1575904208970372
0003d0 e3 07 b4 78 98 6b d3 bf 5f 4b d9 1a af b4 a8 3f
       -0.30344211375643065 0.048253509547655275
0003e0 4b 06 46 ab 73 d2 c2 bf 2f bc 3d f0 a9 ea c4 3f
       -0.14704748023000244 0.16341137152218851
0003f0 3e 62 74 b4 07 04 c4 bf 16 96 a0 45 1e 38 a4 bf
       -0.1563729888082594 -0.03949064826910502
000400 66 60 d5 21 1d 93 b1 bf d6 01 5c 8d 2a 01 aa 3f
       -0.06865102840436207 0.05079014754847193
000410 34 96 ac 72 68 28 bb bf fd ac 8a 47 fb 1f c6 bf
       -0.10608532714521673 -0.17285099976775334
000420 b6 8e 0e 2e f1 39 a4 bf 08 54 dd fc 7f e7 c8 bf
       -0.03950456320970146 -0.1945648178758861
000430 1b 90 17 fe da b9 c3 3f 1a 79 1d 40 d0 07 b9 bf
       0.15410935789907473 -0.09777547421751756
000440 13 3a ef 64 61 1a cd 3f f2 28 d3 72 87 30 ba bf
       0.22736756733361627 -0.1023029952367869
000450 67 dd c4 eb de f4 b2 3f 35 45 30 62 3e 34 9c bf
       0.07404893165663894 -0.027543043845132693
000460 44 38 e3 d2 00 64 c8 bf c1 56 99 e0 49 a1 c5 bf
       -0.19055185601468072 -0.16898463694331237
000470 30 97 21 46 68 bb cd 3f 1a 79 31 86 c0 04 b0 3f
       0.2322817175328793 0.0625725104923486
000480 f6 91 84 ee 15 1e b5 bf 5d 93 95 d3 0d 9d d6 bf
       -0.08249032090368033 -0.35333581602599456
000490 66 df 84 91 ec d6 8b 3f 7a b6 e1 cd 30 dc c6 bf
       0.013593528929604037 -0.17859468510453153
0004a0 09 41 78 d2 e8 0b c7 3f 8a 39 82 63 f6 24 d9 bf
       0.18005094792216195 -0.3928810092701488
0004b0 7f 4c 37 8f 9f 6b a0 3f a9 5f 65 24 c5 6a b9 3f
       0.0320711004566414 0.09928543222974774
0004c0 98 f6 cb 9a 43 0e 8a 3f 82 ae 05 46 12 c3 b8 bf
       0.012722519074937197 -0.09672655305410596
0004d0 7e 78 77 a3 e9 51 c1 bf c1 5a d8 b6 de 6b c1 3f
       -0.13531227571269605 0.13610443046555612
0004e0 77 0d 18 2a b7 ae b5 3f ac 7d c5 ce 3b 89 d5 bf
       0.08469719674763164 -0.3365010756733351
0004f0 b4 5f b7 aa 8d 1a b5 3f 22 2c 4c 16 e4 48 cc bf
       0.08243642251852529 -0.22097445572612268
000500 a6 9a 17 0a cb d0 c3 bf df 0f 84 ee b8 1a c8 3f
       -0.15480936043532728 0.1883155026081331
000510 3e 56 ab 65 4d e5 d0 bf 58 98 7a e5 4f 60 8c 3f
       -0.2639955036987408 0.01385557574333178
000520 31 be da ec 40 17 bd 3f ab 05 20 5d 73 8b c8 3f
       0.11363607199268057 0.191755695792421
000530 9c f9 6d 3b 09 de c2 3f ff 66 40 47 c5 eb 99 3f
       0.14740100290141533 0.025313456033564382
000540 17 55 f7 d7 a1 2b c8 3f 18 d2 e2 6e 81 33 b2 bf
       0.18883154912206443 -0.07109841305902653
000550 82 5e 68 3a 2e 48 d6 3f 8e 11 14 0c 98 c6 bb 3f
       0.34815555290104083 0.10849905295260084
000560 66 7f 23 8d 0b 96 a0 3f ef 99 1b 1d 6f 33 d0 bf
       0.032394753435936605 -0.2531392845397979
000570 cb 17 33 91 66 ff 91 bf d0 82 cb d0 1b 85 ad bf
       -0.01757583867290417 -0.05765616344229374
000580 40 61 96 85 7b 56 c6 bf ea 25 6c ca a3 cb aa bf
       -0.17451423666785537 -0.052334898433468016
000590 cb 19 aa 25 12 d2 bd 3f d9 91 a4 fe d2 c5 d7 3f
       0.1164866773561705 0.3714492308374964
0005a0 d7 b2 c5 67 75 64 cf 3f 98 c6 59 65 92 98 cd bf
       0.24525325362210168 -0.23121862362636558
0005b0 f9 ab 6d db 5b 7d d5 3f ac e8 f2 6e 5c 4c c3 bf
       0.33577629498057565 -0.15076785485672894
0005c0 86 1e 7a 6f fe ae a3 3f 70 21 83 d6 9f 06 9a bf
       0.038444472415958095 -0.025415894954478657
0005d0 40 23 98 f0 db 39 b5 bf b4 bb c9 9f 5d 19 bb bf
       -0.08291411041149122 -0.10585580016207424
0005e0 21 b9 ab ab 6f 58 94 bf 48 22 27 1c a2 3e ab bf
       -0.01986860738082286 -0.05321222871458936
0005f0 4b f5 2a 82 2f 74 b3 3f 71 d3 d5 d8 ad 4c 9e bf
       0.07599160125660835 -0.029589382514547184
000600 51 c9 7f b1 97 48 c2 bf f3 64 6f d3 cd 6f b7 3f
       -0.14284034888221211 0.09154974376669482
000610 db 74 43 85 70 0a c4 3f 35 c7 c2 ec f9 f0 d4 bf
       0.1565685892773335 -0.3272080242269227
000620 43 f0 64 27 c1 b6 d0 bf 48 53 07 e9 d9 99 d3 3f
       -0.2611544499120592 0.3062653327627243
000630 da e8 3c bd 67 9a a0 3f a3 83 3e 7f 61 43 8d 3f
       0.032428018427212726 0.01428867501800985
000640 14 39 77 5c b7 0c d3 bf 61 d2 10 45 8a 80 b8 bf
       -0.29765113859038306 -0.09571136652159275
000650 a4 07 e8 3d 2d 1b d5 bf 0a f1 8f eb 6b bc c1 3f
       -0.3297837357096063 0.13856266977371262
000660 d6 f8 47 bd 98 5d ca bf f4 8d 24 88 9d b8 ce bf
       -0.20598134271853635 -0.2400090136298868
000670 af c5 3e af ed 8c c5 3f b0 2d 2a 9c fa 15 9f 3f
       0.16836329514403078 0.030357280522861962
000680 e8 3e fc b6 94 ae c3 bf 1d 89 ab 26 0c d7 c1 bf
       -0.1537652867777901 -0.13937522781549996
000690 e2 88 c5 dd 98 6c d0 bf 8b 20 2e 82 bb 93 af bf
       -0.2566282430399395 -0.06167398418534827
0006a0 37 73 e6 40 49 52 99 bf 84 5d 58 0a cd 02 95 3f
       -0.024727959238236976 0.02051849723474454
0006b0 38 79 7e dc 1a 2c c1 3f 8d d8 ee 32 51 e2 c6 bf
       0.1341584755545655 -0.17878165232622614
0006c0 63 c6 8c 52 0f c1 ce bf 9e bd dd 59 2a 24 cd bf
       -0.24026671915776196 -0.22766618144985967
0006d0 3b d4 43 fa 9f d4 cf bf a9 bf 3d 08 60 57 98 bf
       -0.24867629737824068 -0.023770809653285294
0006e0 78 c5 40 3c 7b 84 b5 bf 2b 6e 5f a8 7b b1 79 3f
       -0.0840527555563052 0.006272776639856962
0006f0 18 12 c8 e1 1e 6b b4 bf 24 86 5b 65 8f 09 c1 bf
       -0.0797595311378888 -0.13310425232980194
000700 d9 a9 6b fd 0b a2 d9 3f 0e c7 dd 45 80 2b c5 bf
       0.4005155539331589 -0.16539004718247735
000710 6c fb 94 2d 9a 10 ba bf da 78 5d 99 17 84 c5 bf
       -0.10181583035317282 -0.16809363354236134
000720 ed 65 c6 ac 21 d5 a1 3f 4c a2 b8 30 97 20 b6 bf
       0.03482918962545143 -0.0864347928951556
000730 07 98 fe 05 9d 46 c3 bf 62 44 cd cf 58 80 bc bf
       -0.15059244911861944 -0.11133341859137283
000740 e4 b9 18 d9 9d d2 ac bf d8 2a 3e bd dc 65 ab 3f
       -0.05629437708954635 0.05351152238934781
000750 c9 4b c0 b7 94 ee b0 bf bc 39 4f cb 5b 33 a9 bf
       -0.06614045606720177 -0.04921995980076896
000760 7c 85 4b 2e c4 46 c9 3f e0 28 01 57 4c 68 bc 3f
       0.19747211704729384 0.11096646427282364
000770 9e 2c 97 a5 16 7a df 3f 85 c5 f6 94 0a 88 b0 bf
       0.4918266884894339 -0.06457582604232044
000780 59 ba 68 ac b3 d1 b9 bf 39 10 93 23 60 ac be 3f
       -0.10085604628759749 0.11981774204747432
000790 5a b6 3a 84 14 29 d0 bf bd 23 ff 58 9a 80 b4 3f
       -0.252507332926006 0.08008732483644017
0007a0 4a 62 10 96 55 d9 b5 bf b2 0c 41 a1 e1 21 c5 bf
       -0.08534750856086606 -0.1650964772580657
0007b0 da a9 a6 53 15 c7 d8 3f be 32 5b c5 51 e7 ac bf
       0.38715108079000304 -0.0564523271001227
0007c0 e3 ae e5 ed b9 d1 d2 bf 6e fa ac 06 65 d2 c2 bf
       -0.2940506766524164 -0.14704573465310794
0007d0 52 9f 2d c2 b7 33 b1 3f 5b 5a 58 29 d1 b7 c3 bf
       0.06719540110281955 -0.15404715079121697
0007e0 1f ec ba c8 3e db cc bf dd 45 77 c3 3c 9c d1 3f
       -0.22544083405759438 0.27516097153156044
0007f0 b7 b7 2f 4d 4d c9 c2 3f 36 d6 36 d5 a8 c8 91 bf
       0.1467682482611374 -0.017367017758905777

base.actor.actor_fc1.bias f8 [64]
000000 5d dd 86 ef f8 57 c8 3f ad bd 4d a3 0f 36 b0 3f
       0.19018470473904872 0.0633249067011465
000010 38 48 a8 12 73 e3 b5 3f 3a 6e 82 d8 ba 92 da bf
       0.08550185399533994 -0.41520568030839267
000020 bd 42 d4 e5 70 0d b3 bf 51 02 0c 6d e2 a0 cb bf
       -0.07442384348929472 -0.21584730457836313
000030 de 21 bb 98 0b 4c bf 3f 82 a8 87 9d 2d 2e c9 bf
       0.1222541091802962 -0.19672174636736278
000040 f9 8d 6b 9f b9 8b c1 3f bd 1b 73 c3 71 ae cb bf
       0.13707657131372722 -0.21626112025680114
000050 4c a4 b6 11 59 16 d1 3f d0 07 6e 98 1d 8a d0 bf
       0.26698900918797075 -0.258429907662614
000060 a8 a8 14 99 1d 88 c0 3f b4 48 7a bd be c0 cf bf
       0.1291539189781521 -0.24806961299743124
000070 6a cf 0f 84 cc 5a 9c bf 1f b7 ac 66 c9 57 a9 3f
       -0.02769012027779586 0.049497884543923336
000080 51 dd 89 fd b2 fc 95 bf 53 f0 0f 15 92 7c d7 bf
       -0.021471783375514978 -0.3669781881033078
000090 5e 8a 4c 09 40 f2 d2 bf 6b c9 61 22 1d 78 98 bf
       -0.2960357752619184 -0.023895697806844234
0000a0 75 d6 bd b0 a4 70 c8 3f 87 1e b8 44 17 1d b3 3f
       0.1909376013751857 0.07466264178958158
0000b0 4f 8e f9 47 dc cf 97 3f 96 e5 d1 3f da 75 a8 bf
       0.023253862278933387 -0.047774143496052066
0000c0 d8 0a 46 6e b8 ae d1 bf 9b 03 c3 ff ce 92 d0 3f
       -0.2762890889063505 0.25896048523650855
0000d0 cf 04 df 4a 5c 7c c0 bf a4 03 12 0a 2a 09 b9 3f
       -0.12879518180674274 0.09779608484133334
0000e0 d8 16 df dc b9 b7 d8 bf 37 67 86 33 f5 ef c3 3f
       -0.3862137467334441 0.15576043144101856
0000f0 c0 36 70 ee 0d 78 a4 bf 8c f9 55 32 d7 bf d3 3f
       -0.039978442531816594 0.30858402171716004
000100 b5 92 91 4d 54 8f c1 bf 9d 7c 33 61 e0 8e d0 bf
       -0.13718656337291227 -0.25872048847481627
000110 45 40 d0 94 4b bf b6 3f 9d cc b9 0c fd 51 b2 bf
       0.08885643370763414 -0.07156354485214185
000120 f6 55 36 79 75 a0 bb bf 49 ef 05 0d b0 3c a9 3f
       -0.10791715821536471 0.04929113539671321
000130 38 03 95 97 49 8f c8 3f 07 6c 47 cc a9 e1 b6 bf
       0.19187278653591888 -0.08938084828643876
000140 92 59 a1 cd b8 9f 85 bf 51 74 74 96 05 32 c6 bf
       -0.010558551574075623 -0.1734015450137201
000150 bd 88 a0 14 8d 7f 81 bf 5e 4a 31 54 22 6d c9 3f
       -0.008544065658558581 0.19864300833667675
000160 23 a6 62 e8 dc 94 b9 bf 84 55 c8 00 c9 d8 b6 bf
       -0.09992771790953063 -0.0892453791533026
000170 5c be 7a 8c 77 71 b2 bf 42 3a 96 20 64 62 a3 3f
       -0.07204386882471553 0.03786003968990716
000180 a3 d7 f4 14 71 2f cf 3f 0d 70 a2 9a 7f 7e c8 3f
       0.2436353065801856 0.19136042643083365
000190 70 91 4c ca 84 b0 c4 3f 10 28 40 6a bb 5c d2 3f
       0.16163692357907733 0.28690991760288487
0001a0 92 ec 9c e8 b4 85 c3 3f e3 47 48 9f 50 55 b1 3f
       0.15251790388160608 0.06770805252770588
0001b0 59 0a d1 da 5f 4a c2 3f 56 8b 5f b8 cb c1 90 bf
       0.14289472755816027 -0.01636427223992184
0001c0 8c 0c ca 88 e1 a5 c8 bf e9 c0 e1 6d e6 fb a7 bf
       -0.192562286178234 -0.04684372035342383
0001d0 e3 d5 0f 5b a2 4d 82 3f ea 1d 77 0a 25 e4 97 bf
       0.008937137989032123 -0.023331240428687318
0001e0 c6 5e 37 92 92 25 d0 3f a0 1b ca f9 f2 9a c9 bf
       0.25229324606833037 -0.20004117199661398
0001f0 db 64 38 19 66 76 c8 3f ec d7 26 7a a3 59 a4 bf
       0.1911132453103964 -0.03974638811216366

base.actor.actor_fc2.weight f8 [64, 64]
000000 d4 b5 f2 ef 98 ba 80 3f a7 f7 e7 ea 04 22 d3 bf
       0.0081684063173623 -0.2989513677601913
000010 1a a6 f0 43 0c 0c dd bf e0 0f ab 83 35 e4 a4 bf
       -0.4538603461720371 -0.040803596804408704
000020 56 d3 a9 ad 92 47 b2 3f f8 12 f7 c4 76 d5 b1 bf
       0.07140461673573148 -0.06966345127791473
000030 d2 0b 5a 3f 54 fe ab bf 56 d2 de 8a f4 44 b4 bf
       -0.0546747519811316 -0.0791771735228591
000040 34 13 62 25 fe 09 b0 3f 16 7f 1f 4d 1f 9e 7b bf
       0.06265247738526797 -0.006742594023279277
000050 8e e0 b5 e8 3b 7d b1 3f 5a 0a 87 3b 0a c4 d2 bf
       0.0683171694889799 -0.29321533025009716
000060 4e 68 11 c0 c1 d0 a4 3f dd 84 7e 04 8a e4 d9 bf
       0.0406551882703786 -0.40457392157447974
000070 dd fd 18 ef 6c 3d ca 3f be 01 d6 58 26 07 a4 bf
       0.2049995582074037 -0.03911704859183683
000080 50 03 56 bb dd e4 ca 3f ab 92 97 e2 ce 5c a4 3f
       0.21010944030060807 0.03977056995407698
000090 68 d9 d6 46 4e bd e1 bf 6e 92 2d 5d e9 82 93 bf
       -0.5543586143092343 -0.019054075538763753
0000a0 62 c5 b1 09 1a 91 86 3f 98 c3 82 f3 06 f5 cc 3f
       0.011018947048998032 0.22622763528991352
0000b0 bc 63 00 4a e8 bb a0 3f c5 3f da a4 20 b4 6a 3f
       0.032683619531048674 0.003259719617581399
0000c0 15 77 cc 23 45 39 90 bf 42 8a 7f 65 52 42 d2 3f
       -0.01584346800802113 0.28529796516355443
0000d0 cd d5 9a 41 42 07 d4 3f 24 99 60 0c 10 02 cf 3f
       0.3129430428192251 0.24225044826852937
0000e0 51 5a 6f 2b df e4 b3 3f 62 5b 0c 12 70 20 d3 3f
       0.07771105585502737 0.2988548446896201
0000f0 e2 39 77 36 9b 97 cb 3f cd f9 a1 cf d8 52 d1 3f
       0.2155641570993359 0.27068157459862335
000100 c4 f8 a5 8a 78 aa cd bf 6a 2f 0d f1 a5 1b d2 bf
       -0.23176485795915458 -0.28293751278100976
000110 00 9e 95 09 47 f7 80 3f 4a 02 12 c1 22 5e 95 3f
       0.008284144382471048 0.020866911920622656
000120 b4 d7 9d e3 56 22 a1 3f c2 b1 8f c1 a0 69 b7 bf
       0.033465113911844396 -0.09145550466173005
000130 90 3c 05 b5 0e 65 aa bf 1d 71 08 aa c6 d0 cb bf
       -0.051552257153724246 -0.21730883886710553
000140 70 ea d1 9c 80 fd c2 bf 5f d1 6c 47 00 38 bb bf
       -0.14836127907968288 -0.10632325881744496
000150 10 e6 05 ba 3d 36 b8 bf 07 9d 1a 3a 5b 42 bd 3f
       -0.09457765380457084 0.11429376762918163
000160 9b 96 3e 18 99 98 a7 3f 31 ec 72 ae 94 87 b8 bf
       0.046086105546504906 -0.09581879862791777
000170 46 c0 07 c9 38 13 b5 3f db 2e 15 c3 34 94 d0 bf
       0.08232455165830385 -0.25904578257607874
000180 ad af 68 71 98 2d bf 3f b9 d3 f8 12 16 cc b3 3f
       0.12178948181889267 0.07733285868819352
000190 c0 30 3b bb 3a 07 a4 3f 26 a4 c9 b3 78 c3 d2 3f
       0.03911765609299911 0.2931806331385495
0001a0 17 21 43 6f b8 3f 9b 3f 77 42 fd f1 2c 54 c3 bf
       0.02661026171770783 -0.15100633445628706
0001b0 91 cc ae 44 37 6f c1 3f 59 73 04 10 a5 35 c9 3f
       0.13620653966572552 0.19694960863207703
0001c0 75 0f eb 8d bd f3 96 bf 2b 84 68 7e 5f 63 ac bf
       -0.022414171015739243 -0.05544565599507963
0001d0 55 13 36 99 69 96 bd 3f ba c4 db 56 c6 67 cf 3f
       0.11557636251934629 0.24535445443283327
0001e0 9a 3b 67 1d 58 69 c1 3f 70 a9 49 72 00 31 d2 3f
       0.1360273498125622 0.2842408290950038
0001f0 4d 03 d3 ab 3d 56 72 3f 50 95 94 af db 14 c7 3f
       0.004476776984291342 0.18032404015790826
000200 94 fc 0c d0 7a 41 bb 3f 1f 03 08 fc 67 20 cd bf
       0.10646789149631025 -0.22755145841804222
000210 1e eb 4a c5 18 e1 c9 bf ff 72 04 51 1a 04 ce 3f
       -0.20218190797262364 0.23450020748068565
000220 12 30 c3 45 d4 bd cf bf bf 33 f5 9a 8c f7 a5 3f
       -0.24798062712068308 0.04290427581381761
000230 02 85 8b 7e 27 eb cc bf f2 28 33 5c 14 de c8 3f
       -0.22592633894877429 0.19427732946343884
000240 dd 30 4c 5d 29 a3 8a bf 4b 50 4e 10 8c 0c 98 3f
       -0.013006518516271043 0.023485363478883674
000250 fc ed 2c 4d a3 0d 33 bf b7 67 4e 7f bb 75 cb 3f
       -0.0002907298741552098 0.2145304080593726
000260 6d 16 72 8e 3e 2b bf bf 70 22 11 cb dc 15 c4 3f
       -0.12175360658337704 0.156917189744735
000270 d7 18 a6 68 b8 2c 90 bf a4 1d 71 cf 02 aa c8 bf
       -0.015795594584709995 -0.192688323297472
000280 60 8d 9c 7f 61 5f a9 bf e6 2d 66 b6 40 45 b5 3f
       -0.04955582316167795 0.0830879636106868
000290 40 c8 3a b6 e1 87 c5 bf 48 ab fc b5 b4 c0 ca bf
       -0.16820927999430246 -0.2090059174164145
0002a0 64 78 45 ef d6 f6 b9 bf 38 5c ab 35 e4 39 8b bf
       -0.10142272321306361 -0.013294012916430828
0002b0 d4 8b b9 e7 a9 c1 ca 3f fa d6 8f b5 84 81 d2 3f
       0.20903514685332303 0.2891551755013634
0002c0 2e 68 54 69 ed 96 b1 bf cb fa b3 ce 36 bf d2 3f
       -0.06870921918417203 0.29292078195423404
0002d0 e7 7a 7e 91 86 24 bd bf ea ab d5 24 f1 cd b1 bf
       -0.1138385873041262 -0.06954867505343967
0002e0 d7 1e dd 57 cc c7 99 bf 9a 6e 95 3e d3 b3 d7 3f
       -0.025176232207086393 0.37035065757457064
0002f0 98 a6 ef fd 36 25 b6 3f 25 21 34 2b c4 d2 ac bf
       0.08650535297024431 -0.056295519136315066
000300 0b 96 c6 2e dc 1f c0 3f 07 1b 6e 42 16 c3 88 bf
       0.1259722927472214 -0.012090848829541935
000310 e4 f2 5c b9 58 f8 c8 3f bc 18 9e d3 5c 39 b1 bf
       0.1950789361088915 -0.06728153387493568
000320 4b 58 db 27 a2 17 d7 bf 0d 72 1f b4 55 ae bb bf
       -0.36081746952311694 -0.10812888762979629
000330 13 e8 09 76 20 64 ab 3f 3a d5 7d 5c e2 6d c8 bf
       0.053498281868954355 -0.19085340038479065
000340 c6 90 9b 7a e3 5f b0 bf 2c 80 00 62 89 7e c4 bf
       -0.06396314376212606 -0.16011159215213533
000350 3f 9b 18 90 9a f9 9d bf 4f 68 c7 c5 4d 5d c2 bf
       -0.029272475285462504 -0.14347240597891406
000360 a8 94 30 f7 e4 fe b3 bf b5 54 ae 3f 41 b7 cb 3f
       -0.07810812983423665 0.21652999505446294
000370 63 0f 14 c4 a3 02 a6 3f b5 dc 8b dd 37 b4 c0 bf
       0.04298888939413705 -0.13049982373897753
000380 77 7c fd 1f 1c b9 b1 bf fa 08 f2 7b 21 05 9d bf
       -0.06923080235491051 -0.028339884939222217
000390 b1 00 63 4e 62 62 99 bf a1 de d7 a0 bb c7 b6 bf
       -0.024789367708536406 -0.08898518254124578
0003a0 9a 0a f9 5d 6a f1 a8 3f 60 5c ca 89 c8 34 ce bf
       0.0487168540680802 -0.23598582008409874
0003b0 f5 ad f1 8a 8a 61 69 3f 26 4c f4 32 41 5b c9 bf
       0.003098269072827393 -0.19809737194063465
0003c0 bd cf 77 dd 8f a3 c7 3f a8 81 8a 71 b6 b5 d2 3f
       0.18467901529186107 0.292340861205981
0003d0 4b 91 14 b6 9f 3e c2 bf ac 73 e8 b9 de 1f cc 3f
       -0.14253612890855502 0.21972259595432087
0003e0 60 17 c4 12 f7 a2 c4 bf 0a 41 38 92 99 5b cc 3f
       -0.16122330108936023 0.22154540671954975
0003f0 8c d8 08 61 fc 4d 7e 3f b4 3a 04 28 f8 0c 86 bf
       0.007398591857557101 -0.010766924592215822
000400 c9 49 c2 9a bf 81 ba bf 29 21 cb 52 d7 36 cf bf
       -0.10354230430883783 -0.24386111776971944
000410 9d ed 8c 76 b3 8d 90 bf 8c 46 fc ba a5 12 aa 3f
       -0.01616554652285417 0.05092351825272798
000420 46 7f af 2e 44 43 a8 bf 4c d4 02 48 b9 da b0 3f
       -0.04738820142642779 0.06583745964128801
000430 99 25 a8 1b ff 19 c1 3f 86 4a c2 9b 46 9a d6 3f
       0.13360585070067257 0.3531662484248631
000440 3b 3c e1 67 fe 23 bf bf 1f 82 05 df 95 8b a4 3f
       -0.12164297138336704 0.04012745234900116
000450 95 79 5e 0c 15 15 c4 3f 36 64 0d 91 1f 5e 4d bf
       0.1568933782954899 -0.0008962301381912955
000460 00 91 d3 22 9d d6 97 bf 7e f2 a1 82 8e a1 be bf
       -0.023279624224316287 -0.11965265931389443
000470 16 5b fb de 4b d5 c0 bf 00 33 79 33 2b 2b ad 3f
       -0.13150928867136064 0.05696997645700286
000480 72 62 dd 7a 9a e0 cc 3f 1d cb 18 03 ae ed cc bf
       0.22560435294396403 -0.22600340987408965
000490 b7 9e dd aa bc 6e b6 3f 81 39 cd 23 bb 5f c2 bf
       0.08762721225286439 -0.14354647873046747
0004a0 96 56 c1 1b 8f b3 d8 bf c1 73 25 14 25 93 b0 bf
       -0.3859594126746314 -0.06474525205471961
0004b0 e8 0a 0b 64 d2 6a ad bf fb fb 27 3d 7c 40 ba 3f
       -0.05745561095456769 0.10254646771498692
0004c0 2d a4 a2 b4 ae 21 bd 3f d9 be 66 27 04 a7 ad 3f
       0.11379520330469069 0.057914857682929095
0004d0 9a 27 a9 37 b3 cc c3 bf 67 02 71 f1 70 05 75 bf
       -0.154684450319391 -0.005132142242530869
0004e0 8c d5 57 38 a8 1e b1 bf 29 e1 7c 38 37 b2 b5 bf
       -0.06687404037059802 -0.08475060586068096
0004f0 a4 03 04 73 7a a6 cd bf 6d 7a 5a 37 f2 13 c6 bf
       -0.23164301506042506 -0.17248370840839602
000500 44 c6 63 32 12 53 d2 3f b5 95 1d fa 6a c5 be bf
       0.28632025643228 -0.12019985777222682
000510 48 4e 38 1c 67 ba c6 3f c8 3f 50 12 ed a9 a9 bf
       0.1775635612290094 -0.05012455795815601
000520 fc 2d 93 fb 53 76 c3 bf 38 57 d7 3f 2a fc bc bf
       -0.152048585738484 -0.11322273310301234
000530 1b a6 91 8a d7 e5 a2 3f 87 99 00 02 42 20 b1 bf
       0.036909804978517445 -0.0668984656227619
000540 8a 59 73 4e ff 81 c8 bf cf a6 6c e9 72 08 99 bf
       -0.19146720247836085 -0.024446292397590604
000550 cc 5c e5 f7 12 63 b5 3f 05 68 62 cb eb 01 9d bf
       0.08354300071856641 -0.028327640808676353
000560 ca 71 eb 61 79 2e c8 bf c1 fc f8 ba ca 37 a8 3f
       -0.18891827851520154 0.04730065853481725
000570 c4 00 9e f9 05 2f ab 3f b6 21 e7 84 ef 5b c3 3f
       0.053093134613847265 0.15124315251729364
000580 6b 2a 52 fc ca fc cf bf 79 4a 44 39 50 f0 be 3f
       -0.2499021274600922 0.12085439108003894
000590 1c 1b 0b b4 20 4c b2 bf 5a 03 ee 1f 77 4c be 3f
       -0.07147411723699942 0.11835426835569987
0005a0 3d 19 0f 55 fb 5e c0 bf 73 53 06 4c 0c 2f 7c 3f
       -0.12789861348410084 0.006880806002659823
0005b0 4b 38 91 79 27 df b4 bf ac e0 1b b8 e2 01 c3 3f
       -0.08153006284666835 0.14849504460994944
0005c0 91 f1 80 97 2b 01 ae 3f 5d 2b 22 a5 b2 54 b1 bf
       0.058602678531744286 -0.0676986363561531
0005d0 a6 fa 41 59 06 09 63 bf 36 fb 8e 57 96 84 c0 3f
       -0.00232363929723019 0.12904624247854607
0005e0 87 4b cf 63 31 e5 a4 3f 98 f2 9a 6f cc 87 ce 3f
       0.04081110328083697 0.23851924371219435
0005f0 81 1c 6d 38 1f d3 98 3f 96 91 ef 1e 0c e0 c0 bf
       0.024242866343481943 -0.13183738241708615
000600 8b 7e 10 47 6e e1 cb bf cb 75 dc 8d 91 4f b3 3f
       -0.21781710119192996 0.075432870039058
000610 84 e9 43 31 28 c0 74 3f 75 3d 17 c8 2a ad a5 bf
       0.005066067697266145 -0.04233678524507926
000620 8b 01 eb 5c e2 35 d4 bf ce 90 33 d5 ce f4 78 bf
       -0.31578883241675076 -0.006092842045493719
000630 b4 38 a6 de bc 90 a0 bf c5 1e 63 d6 d9 26 cb 3f
       -0.03235426156889912 0.21212313621639659
000640 fd eb c9 bc 75 66 b7 bf 72 94 7c 16 69 b5 c6 3f
       -0.09140716418362156 0.1774112090871856
000650 f6 a3 66 99 ad b4 a9 3f 90 f1 4a fd d3 36 a3 3f
       0.050206589675617794 0.03752768008186813
000660 63 c2 61 fb 81 b8 c1 bf 08 f2 09 5f 15 98 ce 3f
       -0.13844322943215834 0.2390162195259935
000670 78 21 e7 79 80 05 d2 3f 28 f7 06 79 7d e2 d6 bf
       0.28158580689025525 -0.3575738603502594
000680 35 5b 19 c5 97 6c da bf 79 3b b6 9b 1c 4e cc 3f
       -0.41287798164323714 0.2211337814628356
000690 f3 91 7c cd c6 71 d1 3f 21 2f d6 ff 12 e1 cf bf
       0.27256937090922334 -0.24905621997856378
0006a0 2d eb a0 bd 88 ca d1 bf 2f 58 3a 50 aa 16 c4 bf
       -0.2779867030946431 -0.15694168965700458
0006b0 e2 55 23 20 40 de d2 bf 05 ad f5 0c 62 92 b1 3f
       -0.2948150934074346 0.0686398774757216
0006c0 22 22 ad 48 4f 23 e7 3f 54 c4 71 89 15 0f ba 3f
       0.7230602664431596 0.10179266553474636
0006d0 8b fc 08 f3 1e f4 cf bf 37 6e ff be a4 cd ac bf
       -0.24963747851322568 -0.056256435694845335
0006e0 4c 59 7e a9 ff bb 8c 3f 5d 03 07 80 8c f5 d6 bf
       0.014030454025299698 -0.3587371111171274
0006f0 b9 48 cc 23 16 23 d1 3f 85 c0 b4 99 ee 24 c1 bf
       0.2677665090169615 -0.13393957619837607
000700 5c b5 b9 af b2 e7 99 3f 98 7e dc db 7b 74 a2 3f
       0.02529792020361775 0.03604495104650346
000710 f2 d7 70 b3 b6 47 b6 bf 7d 18 59 d2 dc cf d8 3f
       -0.08703176384810243 0.3876869253330211
000720 0b e1 de f4 9f 04 b6 3f 90 84 68 82 21 e1 da 3f
       0.08600806930815368 0.4199908994215287
000730 a6 0c 56 1b b3 ea e6 bf 9e e9 9e 85 dc 5f d6 bf
       -0.7161498578938292 -0.3496009163751753
000740 e5 1e 80 92 33 ca b6 3f 8f 3d 38 a6 9b 39 4e bf
       0.0890228493373076 -0.0009223947531057807
000750 49 b1 af 0f db 59 a6 3f a0 e2 a8 a1 a6 16 aa bf
       0.04365429464800969 -0.05095406268487079
000760 c7 7a 10 88 af f2 ce 3f c7 f2 5a 46 84 a4 62 bf
       0.24178117889183268 -0.0022757133000069515
000770 9f 2b a9 72 49 c5 d2 bf 9b 0a ad bd 88 d1 bb bf
       -0.29329143712373623 -0.10866598730812387
000780 62 ec 7b 9f b4 61 d1 3f 73 81 63 b5 3c f8 ab bf
       0.27158847403160824 -0.05462827409951645
000790 35 6e 54 39 9b 45 d1 3f f9 17 27 06 7f 9b cb 3f
       0.26987343405355385 0.2156828670542266
0007a0 a5 dc 7f 55 ff 39 d8 3f 0b 23 59 5f 65 cf d4 3f
       0.3785398802714986 0.32515844642016195
0007b0 c3 98 ef fa 39 ef b6 bf 64 87 b2 a0 8f d2 d2 bf
       -0.08958780647626256 -0.2941016263304077
0007c0 56 b6 d3 54 bc 32 c8 bf 41 ac 1f a7 aa 1c d1 bf
       -0.18904832975333602 -0.26737467117954244
0007d0 12 22 8e 37 5f 7b c4 bf 8a 66 50 54 ee 88 d3 3f
       -0.1600150128617917 0.3052326033954179
0007e0 d9 19 62 ce 7b df b2 bf 41 64 b8 e3 a2 91 b2 bf
       -0.07372258938457978 -0.07253473338677542
0007f0 5f 02 06 62 82 5f df bf c5 ae 72 07 2b ef c7 bf
       -0.4902044255505071 -0.1869863306395613

base.actor.actor_fc2.bias f8 [64]
000000 bf 4d e4 38 22 aa d1 3f 17 3e 3a 6a 6e 97 c0 bf
       0.27600913577881764 -0.1296213167847646
000010 fc 48 be d4 2c 04 b0 bf 39 34 18 94 a5 3f d0 bf
       -0.06256370729377986 -0.2538846918330964
000020 a9 28 d3 52 93 42 c0 bf 39 ad 10 c4 5d aa 6b 3f
       -0.1270317224901352 0.003377135406955081
000030 5d 32 f2 d0 bb 1d c0 bf 0c 87 ac f1 f4 99 b7 bf
       -0.12590739920087204 -0.09219294452898569
000040 68 50 9f 64 d7 c4 a5 bf d9 c5 9b 17 7f 75 ca 3f
       -0.042517405541418196 0.2067107072139567
000050 0a 49 26 ff 16 f2 94 3f 45 aa 4b 60 a0 38 94 3f
       0.02045474941548612 0.01974726283780572
000060 74 47 c9 fb 51 41 95 bf cf 80 52 e4 df bc 57 bf
       -0.020756989472210788 -0.0014488398021868414
000070 28 9c ea 2c 34 66 c5 3f 1a d8 80 e7 4e 13 ba bf
       0.16718151276765636 -0.10185712005554173
000080 3b 2e b1 c5 7b 92 c3 3f d4 23 b1 d5 7c 1e 64 3f
       0.15290782120642796 0.0024559438875581905
000090 83 ac d0 31 2d 79 80 3f 04 49 51 07 fe 7c c8 3f
       0.00804362591050834 0.19131446225453186
0000a0 4a 0f 92 48 b0 4d b7 bf d5 07 f8 9a 11 6f c0 3f
       -0.09102918407193986 0.12838954989280063
0000b0 16 3d 2f 54 7e 25 d8 3f 5b 7e fc 95 4a 4d bc bf
       0.37728841992516615 -0.11055437242293335
0000c0 aa d6 be 64 83 64 d2 3f 91 c5 bf 14 2a aa 9c bf
       0.2873848422853863 -0.027992875591683456
0000d0 9f ba 09 b2 16 c3 ae 3f 89 a6 fa 1a f0 e8 b0 3f
       0.060082158311037796 0.06605435045880816
0000e0 b3 b7 67 a0 ba 41 5c bf ea fb 61 55 5c 14 d1 bf
       -0.0017246553921910046 -0.26686771715316004
0000f0 b8 eb cd 8c 07 0b c9 3f ff 86 a7 04 82 b9 c6 3f
       0.1956490933915498 0.1775362513281422
000100 52 1e 1f 49 ab 8c ae bf bd de fd e7 d5 c8 c3 bf
       -0.05966696994397282 -0.15456651523321865
000110 52 dc 9d 4a 45 3c a6 3f 21 ac b2 91 18 7c c1 3f
       0.04342857871864027 0.13659960855633904
000120 f9 91 b4 8d 1b 5e b9 bf 1d 93 20 c0 48 74 b3 bf
       -0.09909221849063234 -0.07599310579878389
000130 90 2b e0 db b5 86 ab 3f b8 97 c3 90 a1 af c4 bf
       0.05376213368443594 -0.161609836278499
000140 b3 78 cb 6a 18 fb 82 3f d0 ca 20 1f 23 30 c2 3f
       0.009267988928908321 0.14209403057028291
000150 34 36 e1 35 ed 21 b4 3f 5f 95 ad f0 94 e4 c8 3f
       0.07864267888472726 0.19447576286180898
000160 9c f9 86 9a 3d f2 c0 3f d5 46 ca 43 e4 9c c8 bf
       0.132392597630269 -0.19228795347276298
000170 0d 32 98 2b a8 63 a0 bf e7 f1 ae 43 c9 82 79 bf
       -0.03201032192382423 -0.006228243054405592
000180 96 6c 1b 72 8c 1b c6 bf 54 b3 38 0e 2c 71 b8 3f
       -0.17271571704518313 0.09547686907963043
000190 c7 75 f1 f6 c1 6d ba bf 98 01 3e 95 bd ed b4 bf
       -0.10323726920019914 -0.08175263303383529
0001a0 94 90 8f 76 b5 80 d8 3f 03 e2 19 37 cb 69 d0 3f
       0.38285576418116674 0.2564571416947105
0001b0 44 2c 49 58 5f 77 bb bf 26 8a 80 48 aa d3 c2 bf
       -0.10729022889533818 -0.14708450832502357
0001c0 63 dc cf ea a7 8d ab bf d6 b3 d1 37 9a 93 b9 3f
       -0.05381512395245449 0.09990848410389161
0001d0 7a a6 02 f4 7f a7 bd bf 7e 06 27 54 fd f0 a5 bf
       -0.11583709437641146 -0.0428542294716978
0001e0 33 93 a3 ea 44 1f b5 3f 07 25 8b f6 ac bc c5 3f
       0.08250838020792343 0.16982042349108203
0001f0 c3 e6 0d 1a db 74 a9 bf 75 dd 64 69 d8 15 c7 3f
       -0.049719664507347903 0.18035416742507562

base.actor.actor_fc3.weight f8 [3, 64]
000000 57 37 ba d7 a6 9d c1 bf 1a 86 25 06 75 ec c1 bf
       -0.13762364896359244 -0.14002859878660062
000010 9d bd 82 46 b2 86 ae bf db 92 d3 6c fb 0d b4 bf
       -0.059621401889099014 -0.07833835036178576
000020 1e a2 8a 5b 54 6f bc 3f 16 b2 7f 02 e2 1e ac 3f
       0.11107375368977343 0.05492311745169702
000030 8c cd 45 d7 0a 8a a9 3f 7b 28 96 a2 ae bb a0 bf
       0.04988130452957326 -0.032681901309005355
000040 8b 5c b6 20 98 28 bd bf ab 1a b8 e6 27 ae c1 3f
       -0.11390066908494327 0.1381273151930221
000050 f8 ed 3a d4 88 73 ac 3f d6 cf b0 0d b4 2d bc 3f
       0.05556895819378477 0.11007237753147989
000060 7a 82 9b ab 23 d8 b6 3f ac fc 8a 8d a9 a6 b6 3f
       0.08923552455554243 0.08848056512487074
000070 3f ce 4f 45 61 ff a4 3f 35 b8 12 16 1d 75 b5 bf
       0.04101089449968897 -0.08381826199431049
000080 5e 0b 96 87 d6 81 95 bf d4 8c 0e 84 61 f9 ac 3f
       -0.02100310518791148 0.05659012543699196
000090 91 89 41 81 22 aa c1 3f e9 c9 e7 29 3f fa c9 3f
       0.13800460158661257 0.2029494242302257
0000a0 46 53 b5 82 63 9d b2 bf 7f ef 06 20 30 b6 b3 3f
       -0.07271406117554333 0.07699871808921264
0000b0 8c a2 d1 b0 bd 5b b8 bf 4b dd 6c f6 04 8f c1 3f
       -0.09514985625140521 0.13717710525973312
0000c0 89 f0 da f9 47 e2 aa bf cb c5 34 8e ba 41 c8 bf
       -0.05250763821592936 -0.1895058817258771
0000d0 3b b4 0b da 39 ef b0 bf b8 fa 72 dd 72 de a6 3f
       -0.06615029881841476 0.044665898830762385
0000e0 fa f8 8b 3a 64 38 b7 3f db dc e5 dd 20 2a bd 3f
       0.09070421628345918 0.11392407815388898
0000f0 fb 21 59 20 f3 c2 8e 3f 3b d8 82 b9 9c 7b 72 3f
       0.015020274567306471 0.004512417035746503
000100 09 18 c1 0d ad 99 8c 3f 66 82 e3 dc 9d 22 bd 3f
       0.01396498869156561 0.1138094581870149
000110 40 7b 86 63 5f 0a c0 3f 1c 78 b7 0e ff 9d b4 3f
       0.1253165470088451 0.08053583249372348
000120 30 d5 27 22 18 8c ab bf 1a a7 aa 6d ea da c2 bf
       -0.05380320946634709 -0.14730577807250073
000130 26 db 44 47 79 3d b0 3f 74 34 27 e0 a2 35 b4 bf
       0.06343801488843023 -0.07894342396248694
000140 d9 8e 52 f8 48 f3 84 bf 7d cd 17 0e 15 38 b8 3f
       -0.010229654386712127 0.09460574716631771
000150 93 7c 90 21 f2 b9 b6 bf 00 82 d8 65 58 52 cc 3f
       -0.0887748081154192 0.2212629792493459
000160 26 4c 0c 4e a8 28 b8 bf fd 19 3e 76 61 d1 b7 bf
       -0.09437038331479694 -0.09303864609510266
000170 8f 08 a2 9f 4d c6 c5 bf 10 8a 0f 41 62 0c cd 3f
       -0.1701142339189272 0.22694042374412549
000180 41 8a 4b 74 52 ea bd bf c6 44 12 95 c7 4b aa 3f
       -0.11685672129855453 0.05135940260618947
000190 99 3c 3c 92 b8 7e c1 3f 19 76 6a cc 33 10 ab bf
       0.13667971744914523 -0.05285798902808043
0001a0 35 5d c7 a2 7b ba c4 bf dc e3 64 45 37 e0 8a 3f
       -0.16194100807363446 0.013122970395317006
0001b0 38 dd 5a e6 ef 54 b1 3f 3f be 99 da c8 ec 86 bf
       0.06770228742503981 -0.011193818255576747
0001c0 8f 2a 93 38 f4 9b b9 3f 03 7f de b9 85 42 b4 3f
       0.10003591901037566 0.07914005077190826
0001d0 7d 3e 4d 39 29 75 c1 bf c3 71 00 86 ca 60 b0 bf
       -0.13638797090469615 -0.06397691508795504
0001e0 1c b3 ff 6a 05 a9 c1 3f 6e 97 a0 7f f2 99 c2 bf
       0.13797061657478416 -0.14532309753229405
0001f0 d1 40 a8 97 b2 60 b6 3f a6 6c ce 90 01 97 bc 3f
       0.0874129886872226 0.11167917046843687
000200 cc 83 93 18 52 c6 c6 3f 87 21 63 75 f4 87 b2 bf
       0.17792726707469197 -0.07238700738810709
000210 4d 4d ea 41 fe 54 b3 bf f6 9f 9b 40 d3 36 c5 3f
       -0.07551564320811117 0.16573563246424755
000220 25 4a 33 cc 12 19 b0 bf 9b c7 65 b6 35 50 a6 3f
       -0.0628825901542674 0.04358070231945917
000230 00 8f 4b 3f d1 8d 94 3f 95 a3 d2 71 7d 66 b1 bf
       0.020072240341405312 -0.0679701235664097
000240 b0 d9 7c 91 f2 0e b0 bf 87 ac 52 df 04 aa 9d 3f
       -0.0627280812449047 0.028968883638907286
000250 b4 8e 25 b9 c6 48 c9 bf 04 7f 82 85 e3 4c cd bf
       -0.19753345527998578 -0.22890895861655036
000260 a1 05 1b 7f 85 96 c1 3f a7 48 fa 17 3d ee bf 3f
       0.13740605074239645 0.12472898326294289
000270 2e c3 f8 75 80 28 be 3f 93 bf f9 6a 0d e8 a8 bf
       0.11780550842446466 -0.04864541941503755
000280 12 45 ed 17 6f 70 95 bf e1 05 c5 6c a7 b3 bd bf
       -0.020936714015367626 -0.11602255254276585
000290 ac c2 5d e9 52 fb 93 3f 0b 22 a1 6c b2 d2 ad 3f
       0.01951341199259342 0.05824811531107706
0002a0 c6 af d8 ce 52 3b b5 bf 51 bf 38 f3 b3 bb a8 3f
       -0.082936454295747 0.04830705970778005
0002b0 99 30 db 95 31 db b4 bf 41 9a 9c f1 61 95 b6 bf
       -0.08146963032339939 -0.08821689747547003
0002c0 22 e9 6d 77 cb ac b5 bf ad f5 50 f6 99 ed a7 bf
       -0.08466788926844918 -0.04673462993421693
0002d0 84 4f 19 64 6d ec 94 bf 74 d6 d6 af 7a 39 8d 3f
       -0.020433148607778687 0.014269789210497687
0002e0 35 b9 fd 49 a3 a7 b8 bf 14 42 e8 98 57 0c cb bf
       -0.09630795055793302 -0.21131415334868164
0002f0 eb 94 1e 13 6f a1 c6 3f f5 1a 70 12 0e 7b a5 3f
       0.1768015712124574 0.04195445990631256
000300 23 6a e6 ba 6e c0 b8 3f f3 25 54 6f 07 57 ae bf
       0.09668628752698587 -0.059257728900842375
000310 85 4f 4e a2 80 a3 7d 3f c6 db c2 09 6a 89 b9 3f
       0.007236006237594132 0.09975302446660725
000320 67 7d 35 fd 20 6a ce 3f 7a 70 3b a8 0d 0f bd 3f
       0.2376137958881188 0.1135109458659275
000330 74 38 3a 88 0a 01 c5 3f de f5 ae 79 d9 ab ab bf
       0.1640942731068581 -0.05404548273461861
000340 50 3c d5 9f e8 08 ac bf b4 04 0f 9a 4d 08 a9 3f
       -0.05475546790204844 0.04889147286986298
000350 d4 fc 2c 14 ad ae c6 3f 40 36 ce 02 9b 60 a6 bf
       0.17720569119590002 -0.04370579156157506
000360 57 9e d6 8b 35 dc be 3f f9 c0 24 de 30 1d d3 3f
       0.12054762519857697 0.298656670510368
000370 bd 9d dc 06 b7 ff 89 bf c7 95 23 83 82 d5 a8 bf
       -0.012694768807320561 -0.048503950603656025
000380 03 1f 13 03 d3 86 90 3f 2a 12 56 92 9b 42 b0 3f
       0.01613931375757628 0.06351635286962024
000390 dc 75 6a ec 71 b5 b4 bf 27 e6 a6 2c fd 75 c8 3f
       -0.08089363119002918 0.19110073738356556
0003a0 88 b5 5b 35 28 c7 9e bf be fb de c3 1b da d3 bf
       -0.030056598908165394 -0.31018728378324656
0003b0 1b 6f bf c0 33 a6 cd bf 86 b2 6a 17 54 e2 d0 bf
       -0.23163458739770068 -0.26381399428172647
0003c0 da 29 ad 68 e2 28 c3 bf d2 de 82 5e ad 26 c2 bf
       -0.1496851931681949 -0.14180533518605515
0003d0 70 9e 8b 8b 70 01 9a bf 12 89 13 85 dd 04 a8 3f
       -0.025396116749929865 0.04691211938349417
0003e0 08 e2 07 5e bf 75 b9 3f df 37 f4 8a 6d 48 a4 3f
       0.09945293470071459 0.03961508103576227
0003f0 81 da 25 76 84 53 c9 3f 38 85 e1 db 5c 29 ba 3f
       0.19786124962748278 0.10219364517390239
000400 4f cd 69 9e 8e d7 b3 bf ad 5c 3e 59 7c 9e a8 bf
       -0.07750789039146365 -0.04808415021323618
000410 30 3a a0 52 50 2e 75 3f 9f 0e 94 10 f7 d5 d0 3f
       0.00517112136914348 0.2630593931100779
000420 14 e1 32 b6 6c 59 d0 bf b0 fb 0c c8 44 1a ba 3f
       -0.25545804779859904 0.10196332820940657
000430 5a ac 18 e4 c2 c3 8d 3f 16 3f 68 4b 3a 51 ae bf
       0.014533541284512608 -0.05921346827028466
000440 0d 3a 0a 13 2a 1a a1 bf 5f 03 26 49 9d bd c5 bf
       -0.03340274317189449 -0.169849072186504
000450 2b e0 23 5e 9c e1 af 3f 65 c6 2f 49 01 58 87 3f
       0.06226814889117834 0.011398325010279107
000460 d3 19 2f 47 b3 4e a4 3f b6 23 f9 90 8b c6 c1 bf
       0.039662935676051746 -0.13887161806840503
000470 bc 38 5f 06 e3 06 aa bf c0 95 65 c7 71 ce b1 3f
       -0.05083379223616322 0.06955634229742369
000480 9c ae 50 c0 b1 f2 b3 bf 09 68 2c af 92 90 b3 bf
       -0.07792197175211374 -0.07642475868888722
000490 39 9f a7 96 2d 42 bc bf 2f ff ae 76 71 c6 a9 bf
       -0.11038479736418773 -0.05034212659620462
0004a0 cd 36 15 d0 bc 06 8b bf 14 bc 8d 3b 51 a4 9b 3f
       -0.013196444606957592 0.02699400831209793
0004b0 62 cb cc df 08 67 c8 3f 88 91 eb 1c 6b 22 b7 bf
       0.19064436843617744 -0.09036893325862227
0004c0 5e 0f 10 e5 fe 46 d0 3f 57 25 4f ae 56 71 71 bf
       0.2543332325878874 -0.004258478734251745
0004d0 50 4d 11 13 6b d5 d4 3f b5 28 38 df c7 0d 90 3f
       0.3255260168272871 0.015677569388608165
0004e0 e4 be 78 b2 cc 06 a3 3f e0 29 b8 66 79 06 c4 3f
       0.03716125181779065 0.15644757762522854
0004f0 ff dc 56 ad f9 6e c7 bf 55 19 f4 7d 49 bc b8 bf
       -0.1830741974242542 -0.09662303280865576
000500 4c dc b9 27 02 e8 b7 bf b2 f7 d6 d7 36 0f ca bf
       -0.09338391752122382 -0.20358930148171123
000510 6b 51 c9 0b 96 ca d0 bf 03 67 9f c3 7a 95 a6 3f
       -0.2623648753263043 0.04410918844196312
000520 81 80 43 9c bd 86 a2 bf 92 5c cd 61 3d 42 8c bf
       -0.03618423969760532 -0.013798217341600503
000530 e6 76 84 7d 96 d2 66 bf d5 29 d9 ab 1b 08 bb 3f
       -0.0027859629882546087 0.10559246964945797
000540 4c 97 7c 1a f8 ff 75 bf f3 45 83 52 28 8b 91 bf
       -0.005371064333109587 -0.017132406269245903
000550 cb 50 6d 0a 1d 56 bc 3f 68 a1 6c 8c 0c bd b7 3f
       0.11068898682180188 0.09272840908363877
000560 37 9d 76 54 36 68 b5 bf f3 1a 03 6c c4 1c a8 bf
       -0.08362140237897085 -0.04709447687632986
000570 e4 7b cc 9e 36 aa 20 bf 46 4c c5 b2 9a 95 a6 bf
       -0.00012714306594660476 -0.04411014015445196
000580 8d 5e 8b f7 6b 43 b7 3f 89 50 31 1a f5 b9 d7 bf
       0.09087252420010312 -0.37072494085192226
000590 54 da 1e 6f 99 d6 bc bf 46 08 12 69 17 b8 c1 3f
       -0.11264952624228758 0.13843052511589543
0005a0 73 40 c2 41 52 78 d5 3f 1c 9e 04 68 6a 23 b3 3f
       0.33546883031613745 0.07475914992812033
0005b0 a3 69 ce 0b 68 44 c1 bf f2 a4 fe 1d d7 d6 b0 3f
       -0.13490009857634985 0.06577820284168803
0005c0 eb e2 eb 9f 2b 6a b0 3f be 37 6e fb 89 d9 a1 3f
       0.06412003187496011 0.03486281580181537
0005d0 0f f0 6b ef 9f d3 94 3f 80 2d f8 a6 ef 53 bd 3f
       0.020338534343849853 0.114562013877892
0005e0 40 9f 19 59 da 0d 91 bf 3c 36 1f 62 69 18 99 3f
       -0.01665440720390099 0.024507185567747877
0005f0 c7 5d 32 fd 10 c3 68 3f b5 39 8e 09 3f 4d b0 bf
       0.0030227023904207703 -0.0636786840752624

base.actor.actor_fc3.bias f8 [3]
000000 9f ae 21 51 7f 5d ae 3f 05 6c 64 7d c8 0e a0 3f
       0.05930707803130741 0.031362786585496884
000010 b9 46 1d 7c 41 1a 88 bf
       -0.011768828964395227
