results/lunar/cmorl-ipo/0/final/EP_policy_44.pt (torch, 84361 bytes, 13 tensors)

base.actor.actor_logstd f8 [1, 4]
0	0x0000000000000000	0.0
1	0x0000000000000000	0.0
2	0x0000000000000000	0.0
3	0x0000000000000000	0.0

base.actor.actor_fc1.weight f8 [64, 8]
0	0xbfc41687c517569f	-0.1569375717505652
1	0xbfa512f14c182584	-0.04116014531980297
2	0xbfbb6285cf38453c	-0.10697208699300104
3	0xbfb7624f93c994b8	-0.09134385450450366
4	0xbfc7bad3981e1524	-0.18538899352658078
5	0xbfa0b6754ed42340	-0.03264204585327102
6	0xbf630593ae41ffaa	-0.002321995200020373
7	0x3fbc14d8d120fa53	0.10969309907611917
8	0x3fc0579f2e74a46d	0.12767400520650388
9	0xbfcd89121972eea3	-0.2307455658209295
10	0xbfc483992de69e1b	-0.16026606312992517
11	0xbfd8f2e86ce1d22a	-0.38982592232722146
12	0x3fc45db1c038011a	0.15910932431871389
13	0xbfa2a583f6b07e99	-0.036419032920318624
14	0x3fc1cac9f1463053	0.13900112420049257
15	0x3f9722643cddbdbe	0.022592130866028397
16	0x3fc5f6b75601aea7	0.17159167956866847
17	0xbfb5ba88457fd713	-0.08487750717889879
18	0x3fcad8f620d7fe69	0.2097461376542811
19	0x3fade7428bb6aeba	0.058404998354800466
20	0xbfaff1b0fb310846	-0.06239083353331458
21	0xbfd45158771cd93a	-0.3174649394235477
22	0xbfab678f7054b856	-0.05352447744586246
23	0xbfb658e2ee967a24	-0.08729379963777056
24	0xbfc92c889f0d5e69	-0.19667155996534127
25	0x3fc4f27ceb71a685	0.1636501454952858
26	0xbf8beb0ec4f0f4c5	-0.013631930718583605
27	0xbfa1e1be3706f8e6	-0.03492540761679823
28	0xbfb05aae328b24e7	-0.06388367399189897
29	0x3fc56acd52fe0404	0.1673218398318853
30	0xbfdbf5d0a90927f2	-0.4368783617725277
31	0xbfc333ff7952fcd3	-0.15002435134917977
32	0xbfadb567996e9eef	-0.058024632911210954
33	0x3fcf2cf178e83fb1	0.2435590591780943
34	0x3fb79b4b7a6a536c	0.09221336115508699
35	0x3f979f6c808481d6	0.02306909117135255
36	0xbfd32bdfa008efb8	-0.299552828106012
37	0xbfcbdcc7d9cc55a1	-0.21767519125630222
38	0xbfb5340682e69e14	-0.08282509513684772
39	0xbfb666aa8e88022a	-0.08750406245963718
40	0xbfd8a5518c79b0c5	-0.38509024351402515
41	0xbfb28654ec096bca	-0.07236223948113643
42	0xbfd6eb28f4b190f7	-0.3581030263506046
43	0xbfc0a6cbc41dbe41	-0.13009020877824365
44	0xbf84181a1fa48577	-0.009811596003205676
45	0x3fc808be9317525d	0.18776685888464587
46	0x3fc6d4098db634ba	0.17834586543577818
47	0x3fb7b63fa54dded0	0.09262464318987473
48	0x3faebd1c20b7a081	0.06003654384022728
49	0xbfc38bd2d82ec4ed	-0.15270457797809148
50	0x3fb22e942731f8f7	0.0710232349101466
51	0x3fce2c68dee2e120	0.23573027499311028
52	0xbfcebb8aa998b325	-0.24009831696584985
53	0xbfaf0b21c12a1933	-0.06063180430378381
54	0x3f7ffd231ac1fbbb	0.007809769751587699
55	0xbfcc1d8a49d7da31	-0.21965149503349005
56	0xbfd36147d240a238	-0.3028125336882428
57	0x3f7467092d96381d	0.004981075145577688
58	0xbfe13a20d53130c9	-0.5383457340153878
59	0xbfbc0f6da8c84001	-0.10961041803989248
60	0x3f9d3ef2d67b653b	0.02856044229597397
61	0x3fd08f1afe556169	0.2587344630933531
62	0x3fbe9fe59c21b5e6	0.11962733327683103
63	0x3fa17442bd547a7f	0.03409012375981479
64	0xbfc7ec9d4b7924a7	-0.18690839944091417
65	0x3fcc0ffbd274d1ab	0.21923778320491513
66	0x3fc472e74e0109e0	0.1597565775756058
67	0xbfd496a308764626	-0.3216941435467525
68	0xbfa939846a272a60	-0.04926694675267096
69	0xbfad8f09b9dd8b4f	-0.057731918276451404
70	0x3fa7b5011cc59610	0.04630282856195944
71	0xbfba7ea0d757ba09	-0.10349469430341442
72	0x3fa06526c02cff86	0.03202172370811156
73	0x3fb6b61f64e8dec2	0.08871647084822157
74	0x3fc317b3414483ab	0.1491607731523151
75	0xbfc660377bac2869	-0.17481130160041694
76	0xbfd82a6fa19923c5	-0.37759009152483386
77	0xbfb16bad255f0a9e	-0.06804926073440717
78	0xbfd57e0b8fe2faf8	-0.335818186296748
79	0x3fc549ecc87a7cf0	0.1663185099505209
80	0xbf86be0f4d7b3550	-0.01110469775394543
81	0x3f70f35ab332ebfd	0.004138330742700977
82	0x3fda6d603b363314	0.41292577536005237
83	0x3fc6dd293921053f	0.17862429894925388
84	0xbfbe4fbd75e684d1	-0.118404237064641
85	0xbf5983d0865654bc	-0.001557305943923822
86	0xbfd106c9f417fb2a	-0.2660393604018504
87	0x3fb5c168028bba38	0.08498239576486177
88	0x3fb0b4004fac31fb	0.0652466005814815
89	0x3fb47d9897c98135	0.08004144387951302
90	0x3fd59d1d3a11f423	0.3377144877520683
91	0xbfb1828c4bf52280	-0.0683982549136406
92	0x3fc79724d3bb7685	0.1843000444268236
93	0x3fa219e7662fcd35	0.03535388109585328
94	0x3f8f759364299edf	0.01536097669050157
95	0xbfb496f3fa52b0e4	-0.08042836057092334
96	0xbf9c96dd1d87acff	-0.027919249465338854
97	0x3fb36f90992f2974	0.07592109432076716
98	0x3fbc3c5254d8d2d9	0.11029543467959559
99	0x3f9b7fa80f851bb0	0.026854158351195145
100	0xbfc822eb0e4b933a	-0.18856561849602277
101	0xbfb2ffda5c681ea1	-0.07421650653861402
102	0x3fcc7a300fe37844	0.22247887397583288
103	0xbfb333679eb7b8b5	-0.0750031244749348
104	0x3fc516ec7e7915d3	0.16476207900465897
105	0x3fcfe53156b24ade	0.24918190701699577
106	0xbfd53ee72b84ddf0	-0.3319642949095103
107	0xbfb59d6b00de3513	-0.08443325778189985
108	0xbfa6c3a200c9c3d8	-0.04446131000157266
109	0x3fb26bad34860303	0.0719555142623101
110	0x3fb085c3ecccd408	0.06454109698536581
111	0x3fa78eb0b121586b	0.04601051485285342
112	0xbfcae7a708566852	-0.2101944723806946
113	0xbfa0d07212a8baed	-0.03284031369945759
114	0xbfceb0271423531a	-0.23975075228977333
115	0xbf7821c1bf5189a6	-0.005891568017519699
116	0x3fa5567932d30712	0.04167536492742675
117	0xbfcfcb7a2f2a0264	-0.24839713385519524
118	0xbfaf108725169463	-0.060672972943657276
119	0xbfb46390b4dd30e0	-0.07964424529672298
120	0xbf967680493558ef	-0.021936420887265603
121	0xbfc18039f4bb6cb3	-0.13672565889178187
122	0x3fc0d295d3ca5f85	0.13142655221303925
123	0x3fc7bf9035d3d813	0.1855335486249606
124	0xbfcf940dbd6c5d1b	-0.24670573949035987
125	0x3fc9c1e8aaf31fad	0.20123012873795912
126	0x3fbf87bb76c18093	0.12316486024201571
127	0x3fb40d9dec36475f	0.07833277718444041
128	0xbfc8e4ab99f00761	-0.19447846428380003
129	0x3fc4cfb5e77308cc	0.16258882333028735
130	0x3fb1a3798b76dcfa	0.06890067725077023
131	0xbfa69a1975b6c5a5	-0.04414443551957995
132	0x3fcb463df7050da5	0.21308111726294246
133	0xbfc90e656f46d093	-0.1957518380492088
134	0xbfa3d7e6a5e6d178	-0.03875656867186
135	0x3fd1e017b6e6210d	0.2793025289652327
136	0x3fb53b0ed77642d9	0.0829324031858606
137	0xbfc64b806e456b62	-0.17417912849745237
138	0xbfd9b82a8b5727c5	-0.40186561210122945
139	0x3fa9516ba2e5d41a	0.04944931376932278
140	0xbfc073b3bfe1616e	-0.12853094929847536
141	0xbfba9ea95436df69	-0.10398348146452253
142	0xbfc7f77921682ca9	-0.18723978167722535
143	0x3fc42b8f2400469e	0.15757931955208887
144	0x3fba14d3dcc137f0	0.10188030375977042
145	0x3fb70f1abe619738	0.09007422588328218
146	0xbfd469661c192a79	-0.3189330362699035
147	0xbfc0cc72ae2123b4	-0.13123925688185312
148	0x3fba0773ac83c5da	0.1016762062243041
149	0xbfcd1faece44c482	-0.22752938338956957
150	0x3fade1f7bff9b546	0.058364622292041576
151	0xbfabd1a63d3ca3a6	-0.05433387277145778
152	0xbfc2e84480e94c4f	-0.14771324438570096
153	0x3fc12c54ca1d517b	0.13416538113473195
154	0xbfc6c2a6434c3648	-0.17781523023625057
155	0x3fb82436ec8c63fe	0.09430259013278428
156	0x3fbf5b9c694602fb	0.12249162264016526
157	0xbfc48bd371f4bd6b	-0.160517149584375
158	0xbfa93152e426dc76	-0.049204435682832434
159	0x3f890212128d288d	0.01221098059763317
160	0x3fc32add00e957ce	0.14974558395868914
161	0x3fd3e0136c15a5d5	0.31055150561459516
162	0xbfbd3dda69310a0e	-0.11422505443719208
163	0x3fb0004672b2623b	0.0625041990300667
164	0xbfcc243e3ce0cf24	-0.21985605213705484
165	0x3fd00dbd1acc370e	0.2508385431000172
166	0x3fc509135b1d4864	0.16433946560806867
167	0xbfac19a08e838298	-0.054883019825642865
168	0x3fa45b4d7c8c02b3	0.03975908418033693
169	0x3fbc014e326dc4c2	0.10939491969272111
170	0x3fa8f76b4055384e	0.04876265678704837
171	0xbf8c46bf4f9da827	-0.013806814782317002
172	0x3fd0c6c8d3d6e039	0.2621328419440974
173	0x3fad5470e8b46bc4	0.05728485909113304
174	0x3fc332fb12d2b56b	0.14999330920310724
175	0xbfd6182966f9fd18	-0.3452247148160992
176	0x3fc70263e1aaffcb	0.1797604419607509
177	0xbfb492f280a19ceb	-0.08036723747646916
178	0x3fc887a549da8e75	0.19163957697047676
179	0xbfc0b9ad91f63ac3	-0.13066644312899287
180	0xbfccdbc8643c5386	-0.22545723814314672
181	0xbfc1f40b17f7cdf1	-0.14026011152564835
182	0x3fbf49a6fb9dfa3b	0.12221759455676644
183	0xbfacd3ec97df7f63	-0.056304353274525785
184	0x3fb0cb5b6ba27d8a	0.06560298326302508
185	0x3fb7e99ee9422301	0.09340851969512799
186	0xbfd51840656def5e	-0.32960519700258384
187	0xbfb683946583bd4c	-0.08794524649032559
188	0x3fd36eb563f4b44f	0.30363211404148144
189	0xbfb2710b3a1efa0d	-0.07203741234750556
190	0xbfc0dcfa4209b3f8	-0.13174370026118232
191	0x3fb143fae1e1024c	0.06744354261992064
192	0xbfc500a309c40f08	-0.1640819356617771
193	0xbfbe90bcd81d67cf	-0.11939602161638095
194	0xbfc8d3f8a768e431	-0.19396885084441487
195	0x3fc142e0286e7d41	0.13485338186453968
196	0xbfbf28c69bb39838	-0.12171593953425563
197	0x3f6530412ba5adc8	0.002586486135603503
198	0xbfc2205bd71d2ed4	-0.14161251071560932
199	0x3fbd3bd2b03471db	0.11419407655598184
200	0x3fb22391c73f930e	0.07085524668179863
201	0x3f973182a01ef9c5	0.02264980413723962
202	0x3fdd6a3dcb9dca4b	0.45960945972834527
203	0x3fba0e2dc92171a1	0.10177885208526628
204	0xbfd0d0091876f87d	-0.26269748105176643
205	0xbfd802d2cc9ee4ca	-0.3751723287819685
206	0xbfca28834c8c08c1	-0.2043613551869097
207	0xbfc1a4d6145ba413	-0.13784290308038347
208	0xbfc3abf71b623145	-0.15368546330535984
209	0x3fb19761ebf09db3	0.06871616373302096
210	0xbfc21a1479baa6ce	-0.14142089790157403
211	0x3fc0843f0bf4148b	0.12903583606399524
212	0xbfc24322cb4e55d9	-0.1426738255219522
213	0xbf85af9f01e9696e	-0.010588876958696782
214	0xbfc500e8cb08c2f5	-0.16409025110035427
215	0xbfc229929ec727fa	-0.14189369919614575
216	0xbf9accdc5a94ff41	-0.026172106770217644
217	0x3fc3392951ffe6f0	0.15018192771804406
218	0x3fc533448697abbe	0.16562706539056465
219	0xbfb79102492b997b	-0.09205641065964258
220	0x3fd0247c1dbff60f	0.2522268572355139
221	0x3fb4ebf2eadeb3f1	0.08172529443864086
222	0xbfc3dddb13dd0015	-0.15520800084959832
223	0xbfa07e3848889486	-0.03221298108500385
224	0x3fc4e075b98589b5	0.16309997137711965
225	0xbfd49e9fba74ab6c	-0.3221816368920176
226	0xbfd1af2c63712c20	-0.276316735373884
227	0xbfd2979fbadf74b1	-0.2905043911867536
228	0x3fa85398cad83707	0.047512793313314865
229	0xbface16e8341d0b5	-0.05640740730533037
230	0xbfbe51c87da2f3d4	-0.11843541209505243
231	0xbfbfc3ab3fa731db	-0.12407942108183738
232	0x3fc428dc868aeba0	0.15749699182000843
233	0xbf872fdb42ccddb5	-0.011321747757036297
234	0x3fd1463b6599d1ee	0.26991162225684107
235	0x3fbe2b2c9e378355	0.11784628737178811
236	0xbf7d7be73d567866	-0.00719824150055901
237	0xbfacb20c2fe627e4	-0.05604589543061403
238	0xbfcdb0e1f3a87ad1	-0.23196052930230462
239	0x3fcd70c1f0636319	0.23000358808237634
240	0xbfb0c346491714b5	-0.06547965320995071
241	0x3fb90278a53024ea	0.09769395859634114
242	0xbfd1f9f697d29543	-0.28088154627251444
243	0xbfca62f9d0f0f924	-0.2061455030652236
244	0x3fcbee12b488bd9c	0.21820291342872344
245	0x3fd10695f12aa3ee	0.2660269599096513
246	0x3fc2dcc8f510f1ba	0.14736282316324695
247	0x3fd645ed764784b5	0.34801804114074325
248	0xbfc8db41ca222b29	-0.19419119233892815
249	0x3f8581eaf20071f3	0.010501704702670067
250	0x3fc9f4eaf403a983	0.2027867976642704
251	0x3fce6ba65c56f1ee	0.23766021260043096
252	0xbfd03e1c8c6f3d57	-0.25379098619756263
253	0xbfb4c4241caaa421	-0.08111787509791714
254	0x3fb37d08c016aa75	0.07612662019406875
255	0xbfb13e587802c58a	-0.06735756807281326

base.actor.actor_fc1.bias f8 [64]
0	0x3fc9addf627e8095	0.20061867055210728
1	0xbfc50c40db07f2a9	-0.1644364423263103
2	0xbfbef07daad32e46	-0.12085709972887412
3	0x3fca177ca34f5279	0.2038417622958553
4	0x3fd1445b9d7b9a5f	0.2697972333830076
5	0x3fb805c7da5b68a5	0.09383820610983891
6	0xbfc24dde5e18c4e0	-0.1430013617951209
7	0xbfb3b99a34ff5bd4	-0.07705081743129877
8	0x3fa161175de78130	0.03394387265484722
9	0x3fcb2cd6a7436e55	0.2123058621135551
10	0x3fc774071f293890	0.18322838803800723
11	0x3f6252e361e47c9b	0.002236789804683404
12	0xbfc397a034e6f67a	-0.15306475241770895
13	0x3fb131cb34e7b139	0.06716604272486827
14	0xbfb6a5e685f3d8e0	-0.08846894045186415
15	0xbfa4e25acbfca931	-0.0407894491202846
16	0xbfcacdd72f5b58e3	-0.20940675556511854
17	0x3fc3ce562ef79656	0.15473439496342917
18	0x3fb66f300180ccc2	0.08763408695886013
19	0xbfc1e72e53d4ac4d	-0.1398675832109312
20	0x3f9784a6f0d52267	0.022966965150120446
21	0xbfa15cb7dec61053	-0.03391050905614237
22	0xbfc79908087943d4	-0.18435764707331137
23	0xbfc529379ab90acd	-0.16532034926247832
24	0x3fc0257fd0f555ae	0.1261443872742069
25	0xbfc356619192d55e	-0.1510736428078116
26	0x3fb542e7d69c384d	0.08305214871890705
27	0x3fb1248bc382bcc3	0.06696389697275422
28	0x3fcee5114ef0fde7	0.24136558870848931
29	0x3fc90bd83bd6fc9f	0.19567397043099263
30	0xbfb54da3692f533e	-0.08321591680517046
31	0x3fc533198393e92e	0.1656219379872907
32	0xbfc3343e9b161559	-0.15003187725612113
33	0xbfae1b1c7a483cc2	-0.058800592352889605
34	0xbfb5f61d611653c9	-0.08578666324895247
35	0x3fc0447c594c1f0c	0.12709001884672266
36	0x3fa908a296364a34	0.04889400561946325
37	0xbfc225867aa0895d	-0.14177018153811619
38	0x3fc67fb4d41a89bf	0.17577228886245952
39	0xbfb04292a9a6f164	-0.0635158218564747
40	0xbfd325cf39dc98de	-0.2991827073150385
41	0x3fbac3492cec60aa	0.1045423254657886
42	0xbfb77cf4df44af99	-0.09175043536077822
43	0xbfd3021e853cdfaf	-0.29700434695723293
44	0xbfc716480ea51429	-0.18036747660713218
45	0xbf88949dd69248bd	-0.012002213583660265
46	0xbfa3cdf45dcb3bfe	-0.03868068356461406
47	0x3fbc025a10e9c0ef	0.10941088593404279
48	0x3faeef6e5cc0dbc9	0.06042046434634291
49	0xbfbe0a01f8531b84	-0.11734020531285522
50	0xbfc27f8a9dcdd2d2	-0.1445172567870459
51	0xbfb881f0357e58b0	-0.09573270135874412
52	0x3fcb0bfd3fd4f4d0	0.2113033830336577
53	0xbf9a9484d6d72a2b	-0.025957179653952316
54	0xbfc6282f012413bd	-0.17310130649289404
55	0xbfd07012611420ba	-0.2568403194459382
56	0xbfb2bb682c5e6064	-0.07317210276812741
57	0xbfd12e55440ba500	-0.26845294613902126
58	0x3f87584abfc10ed6	0.011398872353431438
59	0x3fb98d6bb1cddae0	0.09981415835305141
60	0xbfc2d5c82a294f22	-0.14714910563145006
61	0xbfc2366f2709bfeb	-0.1422861996284149
62	0x3fbc361e2df6b04a	0.11020077345045923
63	0xbfba1121464d27b4	-0.10182388273565729

base.actor.actor_fc2.weight f8 [64, 64]
0	0xbfb4f654b3f83759	-0.08188371080197267
1	0xbfb6a44a8979f544	-0.08844438415868178
2	0x3fdc64fd626d0ba4	0.4436639271918301
3	0xbfc376a817880e39	-0.15205861233708776
4	0x3f90a039198be3cd	0.01623620241568684
5	0x3fc5606fe06c4c3d	0.16700552423626105
6	0x3fd14a31de371b41	0.2701534910269637
7	0xbfd5b8ade7a2d97d	-0.33939693089214257
8	0x3fbdf123779e12d6	0.11696073217724332
9	0x3fa84c340a49f6da	0.04745638490292743
10	0xbfa4f93ed3014f91	-0.04096409154649828
11	0x3fa5577b026a7c8a	0.041683048291127525
12	0x3fdcc9fc9975f489	0.4498282908096561
13	0x3f77ebd5ab7248c9	0.0058401438210628565
14	0x3f7b2a58970b86ab	0.0066321812198297065
15	0x3fd1324919b78863	0.2686941863195271
16	0xbfb3a2826049b8db	-0.07669844485073744
17	0xbfd3e3346545e235	-0.31074247255267845
18	0xbfd8b447f78542d0	-0.3860034863655928
19	0xbfb3dff534ccdbf0	-0.07763607539241923
20	0xbfc9937ea7fb19a2	-0.19981368257704185
21	0xbfafaed7efcb57cb	-0.061880825063482435
22	0x3fcbb75ddec840c2	0.21653340700186702
23	0xbfc2d4c904c5cad4	-0.14711868985212695
24	0xbfc1d1552b01f63f	-0.13920082664474084
25	0x3fd9414b01753f58	0.3946101679075489
26	0xbfc9a36e6198be77	-0.20030002370321018
27	0xbfc634878f82fbee	-0.17347807414441213
28	0xbfc4e0da21476664	-0.16311194062182033
29	0xbfb8b2d47ff4abd9	-0.09647873042983636
30	0xbfd71c4a5e27f263	-0.3611017150395012
31	0x3fb2df1245c7839a	0.07371629909131486
32	0xbfc6108a921f8bc0	-0.1723798001758876
33	0x3f99db035cb8d8c0	0.02524953130178953
34	0xbfa87c6c528dc840	-0.04782427318322435
35	0xbfb1fc883bdd2a19	-0.07025958501359532
36	0x3f85702ad583043e	0.010467848435270818
37	0x3fb75466d695e387	0.09113161791709788
38	0xbfbb4bd7b4bcbe5a	-0.10662601625949134
39	0x3fc9b3785783fc05	0.2007894923517314
40	0x3fa3ebcfc839e337	0.03890847510496658
41	0x3fa24a553e23b7d3	0.0357233656267081
42	0xbfb5b1c909461789	-0.08474403835688639
43	0xbf95bfa913d0a202	-0.02123893912735931
44	0xbfc21c42fdee99dd	-0.14148747824692878
45	0xbfc04579ad43661d	-0.1271202178966612
46	0xbfb1f23b0266ec41	-0.07010239418643584
47	0xbfc2b36850dba1b9	-0.14610008190289905
48	0x3f712c59653807e1	0.004192685318686857
49	0x3fa7254fca3bdc76	0.0452065405242416
50	0x3fd0f32e47089d66	0.26484257637863207
51	0xbfbde53742168a4b	-0.11677880633809783
52	0x3f8cf648209c279d	0.014141620154550167
53	0xbfd343f0b2db7397	-0.30102174250151265
54	0x3fcf918405a1640f	0.2466282870762204
55	0x3fbbaa682326792f	0.1080689512077455
56	0x3f6412e56b345bcf	0.0024504166446024165
57	0x3fccf69c86c41d5d	0.22627598362326298
58	0xbfcea3025c7d158f	-0.2393496467213194
59	0xbfe2b92f4c57c8f1	-0.5851055613586863
60	0x3fb8a454c9b3c461	0.09625749515886774
61	0xbfb4654b9c1de21b	-0.0796706443924297
62	0xbf81405da488fe66	-0.008423549255098094
63	0x3f85e75b320f6783	0.010695183243956801
64	0xbfaf0ae2f2ac942d	-0.06062993252115976
65	0x3f9081b76d392209	0.016119829217389667
66	0x3fc1529a720a9971	0.13533335274150773
67	0x3fcbebf10a9b6a62	0.21813786523746886
68	0x3fb6b32af3876288	0.08867138333824631
69	0xbfc4b69e5a411f05	-0.1618230763144696
70	0xbfcfca4b5795dd89	-0.24836103226310183
71	0xbfd28ff427d70e19	-0.290036238580997
72	0x3fc53f756b7e53d8	0.1659991049642986
73	0x3fd0d34f9488f685	0.26289739137050844
74	0x3fc9f9e75d5e243c	0.20293895777675341
75	0x3fc04e6cd1879836	0.12739334326687562
76	0x3fbc4bbdd38028a0	0.11053072370137551
77	0xbfc21f1dddfe59e4	-0.1415746053650785
78	0xbfd0820d2dd9827b	-0.2579377124548398
79	0x3fc4025bb3b5cc9f	0.15632196688566055
80	0xbfb18f85dbf2920f	-0.06859623546422021
81	0xbfb6c244847fe13a	-0.08890178904392068
82	0x3fc38859b9912ae4	0.1525985866631664
83	0xbfcad06b56668dd1	-0.20948545187739723
84	0x3fa05565f04bb5f7	0.03190153654382393
85	0xbfbc27a133ad3865	-0.1099797011531521
86	0x3fc37e4c3398cd6d	0.15229179877642754
87	0xbfd22453e72c527e	-0.2834672696638235
88	0x3fb49ebf7d47abc8	0.08054730232804197
89	0x3fd1575e0338fc6c	0.2709574729414672
90	0x3fc9d873f1f74039	0.2019181186174153
91	0xbfb6dc4668777998	-0.08929863024193307
92	0xbfc7f96ff7f62081	-0.18729972465030545
93	0x3fd9a278bde22996	0.40054148238473297
94	0xbfd422912691e889	-0.314609801927539
95	0x3fb61d11b8a7bdbf	0.08638106115517184
96	0xbfa6792d4df80e9c	-0.04389325691957177
97	0x3fc5b748ec2c1595	0.16965590984197534
98	0x3f9c3ac9756cf31a	0.027568004409874815
99	0x3fc097c897ab6235	0.12963206678138453
100	0x3fb874c63e195c23	0.09553183570948014
101	0xbfb6b54ca2144994	-0.088703908510331
102	0xbfc53722be18be28	-0.1657451084333712
103	0xbfc0e1d615d784ae	-0.13189197603700137
104	0xbfb68423b2f66f22	-0.08795378798680223
105	0x3f92d07670371ca6	0.018373346900059893
106	0x3fcb703c13a6ce3c	0.21436263045835513
107	0xbfc5959d4bb195ef	-0.1686283702467075
108	0xbfce2c9a34c8eda1	-0.2357361562479641
109	0xbfbc3403319f833c	-0.11016864739896176
110	0xbfd4a9d44a842054	-0.32286555554356267
111	0xbf4eb469addff26d	-0.0009370342265807137
112	0x3fc485a9ea88263b	0.16032909347295451
113	0xbfc9d17764a6793a	-0.20170490660252388
114	0xbfb230ffafde7915	-0.07106016200711836
115	0xbfe50009f77a77c3	-0.6562547524988463
116	0x3fc84f2595bd2cdd	0.18991536914322796
117	0xbfcbfcd9fa5206f2	-0.21865391466786083
118	0xbfc64f79a5ab8616	-0.17430039014202298
119	0xbfa84619242826cb	-0.04740980688445758
120	0x3f8b3836f167c80c	0.013290814630611457
121	0xbfcb26f2cec6bbd8	-0.2121261129045411
122	0x3fbb07286b21fdca	0.10557797065302235
123	0xbfc1479260ab48ef	-0.1349966976181984
124	0xbfc536b3ee137175	-0.16573189854433293
125	0x3f4a65cb5e00933a	0.0008055918697250427
126	0xbfcb427e01e8ec28	-0.21296668141607822
127	0xbfb8c16138069534	-0.0967007409841088
128	0x3fcbacca4f0d4621	0.2162106405253761
129	0xbfb5542058b81c0d	-0.08331491628642614
130	0x3fb5095fe3b99d5f	0.08217429456418789
131	0x3fcbdc2dde612a3c	0.21765683515907763
132	0x3fac05ba938ed025	0.05473120738261653
133	0xbf4626a6463339f3	-0.0006759940992198662
134	0x3fd32f74dd8bf139	0.2997715152303218
135	0x3fc3ed05daa3fc98	0.15567086387452345
136	0xbfc7d36e6694d894	-0.1861398697744262
137	0x3fd092b1252a0efa	0.2589533675129442
138	0x3fd2e6abdf4942d3	0.2953290634659826
139	0xbfc4facc99ac7979	-0.1639037847862246
140	0xbfada68cbd6b9596	-0.05791129886874129
141	0x3f904be4acfe1b4d	0.01591450982916891
142	0x3fc3b585c53aacc4	0.1539771283181378
143	0x3fb384c000e42ae7	0.07624435445556409
144	0xbfc2fb5b136d9909	-0.1482957692016458
145	0x3fc80ad33efdea11	0.1878303582742125
146	0x3faca630ecfab1c6	0.05595543759168069
147	0xbfc5add79a5abe7a	-0.16936774288977913
148	0xbfbb051063a23a5a	-0.10554602081740808
149	0xbfd6cfcce2af2b06	-0.3564331258500463
150	0x3f83469a99637250	0.009412010007900623
151	0xbfc205a84baa8343	-0.14079765028602695
152	0x3fbd6d5b811f9efa	0.11494991209439923
153	0xbfa2205aa8436528	-0.03540309242243672
154	0x3fd315ddef9d0b64	0.2982096519446513
155	0xbfc7364da35a162a	-0.18134470440070177
156	0x3f7d5bfd420e17b3	0.007167805947465955
157	0xbfa3f26947389e7b	-0.03895882601164843
158	0xbf9241e42fba4a30	-0.01782948056513528
159	0x3fb9ead2bebd7b89	0.10123936802618351
160	0x3fd0e01387e56882	0.2636765315161328
161	0xbfcb51f6635cd4db	-0.2134387955826814
162	0xbfc0593779793df6	-0.12772267752960403
163	0xbfc678eb921f4b47	-0.17556519160151593
164	0x3fd1a0771bfdf09c	0.2754190228804505
165	0x3fc5753e9f29e764	0.16764052173294453
166	0x3fb604017dce1e53	0.08599862405218887
167	0xbfa45235b8baa68e	-0.03968971137994713
168	0xbfcdf989ec512399	-0.23417781866944834
169	0xbf8d1f83d1671fd5	-0.01422026617809983
170	0xbfa3959c67e6d0f2	-0.03825081604318993
171	0xbfb46cbf66e33abe	-0.07978435766129174
172	0xbfbc3fc0b92f7cf0	-0.11034779091959357
173	0x3fc190cf336130a7	0.13723173149845033
174	0xbfaed39b9353bc4a	-0.06020818875719465
175	0xbfc12176f7b25f5a	-0.13383376211708758
176	0xbf9e1b5938a8c53a	-0.02940120132752109
177	0x3f9be36989393216	0.02723469638867656
178	0x3fd1ee91ac08e327	0.2801860981012844
179	0xbfa674adb86bdc53	-0.04385893703686663
180	0x3f76a8cc0c317e80	0.005532071171813535
181	0x3fbe7b31a5ba1920	0.11906729026859297
182	0x3fb4fefab0e813b5	0.08201567477233491
183	0x3fc653910ad23788	0.17442524937035508
184	0xbfaae51d536ee719	-0.052529255327909925
185	0x3fd138f4a7a95eda	0.2691012990303371
186	0xbfa0293faf5e0388	-0.03156470313752552
187	0xbfb0be3b7918b04d	-0.06540271479087885
188	0xbfb501e782daa6bb	-0.08206030792885148
189	0xbfcb11fe4df98f13	-0.21148661429753499
190	0xbfa70ae9b4a7e61b	-0.04500513391753832
191	0xbfbb54b9d7c692f1	-0.10676156537972382
192	0xbf64d33e9c484248	-0.0025421355114832213
193	0xbfb7e8e5c0c406f3	-0.0933974834079228
194	0x3fc1393fb8158152	0.13455959785916122
195	0x3fa4b4f40b93b4dd	0.040443064130025276
196	0x3f85b13f405dcf18	0.010591978217895412
197	0xbfc9c1dfb8c6aa36	-0.201229062292741
198	0x3fa9529cbf3a5797	0.04945840677571239
199	0xbfd89f64080eac21	-0.38472843920561856
200	0xbf81c4b665edba63	-0.00867598055421332
201	0x3fc50145a2a9e5c2	0.16410131876527428
202	0x3fd1028a90608a7c	0.2657801065380807
203	0x3fd1a67a4c605eb7	0.275785994135258
204	0x3fb66495df825ee5	0.08747231203812651
205	0xbfc674f602978304	-0.1754443657546504
206	0xbfabe571ad0bf575	-0.054484894155374976
207	0x3fa18e65ea04340c	0.03428953630109541
208	0xbfa37bdfa21e1759	-0.038054455318202236
209	0x3fadb8c0e962158f	0.05805018280902196
210	0x3fa028a119eb0aa8	0.03155997697242202
211	0xbfbc692da51e330f	-0.11097989350509983
212	0x3fc3079038b38e99	0.14866831558821472
213	0xbfb8c85340d1939c	-0.09680672008978636
214	0x3fd9552fe08d2d69	0.3958244030843248
215	0xbfbefd4f83e73b0b	-0.12105271311086711
216	0xbfbb7d0a83dff088	-0.10737672538374643
217	0x3fb31cb1af253814	0.07465658689508842
218	0x3fa971cacd51eb94	0.049696290553547545
219	0xbf93401e39f0c93d	-0.018799278532420905
220	0xbfa512183c35bdc6	-0.04115367636665783
221	0x3fd22a28ecea862d	0.28382323395098547
222	0xbfd16d1c281ded9b	-0.2722845451132458
223	0xbfa849acfb5894b1	-0.04743710106075961
224	0x3fa9ef76de41ddca	0.0506550928411645
225	0xbfcf59e0b02a8d84	-0.24493034936777403
226	0x3fbdcd2da1df6818	0.11641202165574815
227	0x3fe01b75a68557f2	0.5033519985543065
228	0x3fab189385634de8	0.05292187693853717
229	0xbfc31cc6a68d6f99	-0.1493156731838752
230	0xbfc292098b018026	-0.14508170401950443
231	0x3fce3f5b28440557	0.23630847421740483
232	0xbf885de0f9e11d52	-0.011897809625351616
233	0xbf8573916551cef5	-0.010474334625747409
234	0x3fcdcf737c6b875a	0.23289340567776656
235	0xbfca2049ad74c4a3	-0.20411034554993987
236	0xbfc5e941207d62f7	-0.17118085943618386
237	0xbfc2d5eadb88ac65	-0.1471532413428093
238	0xbfca05e4d2d3a45d	-0.20330486578248755
239	0xbfd055526f6ee834	-0.2552076423850196
240	0x3fd07e639fb288e5	0.25771418185662603
241	0xbfe0d54ddadd363f	-0.5260381006898526
242	0x3fc5415a35ad2ae3	0.1660568964092227
243	0xbfb53956b8ba01e6	-0.08290616998602438
244	0x3fd34415fb737478	0.30103063159715004
245	0xbfd68e8d52805cee	-0.35245068604258634
246	0x3fa9a0f62472abfa	0.05005616373940565
247	0xbfd67a68750f9f95	-0.35122119361630527
248	0x3fc5f30da10a1a17	0.1714798961949817
249	0xbfbcfe16ffc12d60	-0.11325210327156787
250	0x3fbf17347a5f2481	0.12144783008183603
251	0xbfd60ba9eb880023	-0.34446189881419026
252	0xbfd4454b3ad70a08	-0.31672936197369994
253	0xbfb3eedf0910b7ab	-0.07786363574334014
254	0xbfcb291cb2a72b84	-0.212192141755022
255	0xbfb8aca50edcb96a	-0.09638434994551451

base.actor.actor_fc2.bias f8 [64]
0	0xbfce05f979d6eaf1	-0.234557327739672
1	0x3fc634bb94c1e5ca	0.17348427547021422
2	0x3fa0ad1f3c6b4cf5	0.03257081615961425
3	0x3fa62dab0d4eb9cf	0.043317170500234085
4	0xbfc8268a6f557c66	-0.1886761706946089
5	0x3fcec70e00096e0e	0.2404496669940816
6	0x3fc6cfeeab943f76	0.17822059038052956
7	0x3fcf120d62f9f811	0.2427384122165113
8	0x3fb385ed3ff71a5b	0.07626231013919364
9	0xbfb3bb8224b12622	-0.07707990070152751
10	0x3fa64890ef927cb3	0.04352238583055037
11	0xbfb9be6cd9fe5260	-0.10056190797906472
12	0xbf9bcbc7151b3f2b	-0.027144537604555524
13	0x3f963158e025b0df	0.021672619515286647
14	0x3f8ebe43c02e4dbb	0.01501133852233393
15	0xbfbaee7c2398c8e3	-0.10520149106085656
16	0xbfb6c02ed7154d77	-0.08886997939162265
17	0xbfad0381393fb1cd	-0.05666736434782003
18	0xbf3b0297bb6fb1d2	-0.0004121418418765707
19	0xbfc35c2f62bba499	-0.1512507660002356
20	0xbfc6cd051b1303a5	-0.1781317121695142
21	0x3fb91e012366943c	0.0981140815188874
22	0x3fca2fe3d620ebf2	0.20458648639200266
23	0xbfbd4d4ee48f88ae	-0.11446087913603506
24	0xbfc0c2a00a437106	-0.13093948842186637
25	0xbfc1c499c8447141	-0.13881227759055473
26	0xbfca89c2c039c91e	-0.20732912431737643
27	0xbfbeb5d24d7c7455	-0.11996187583686553
28	0xbfb22f5d622a34b0	-0.07103522917369065
29	0x3fbdeff79c6039a0	0.11694285934229365
30	0xbfc0cc022e5e2503	-0.1312258459477463
31	0xbf80c185105ed3d5	-0.008181609689794126
32	0xbfbf98fa30c2d6bd	-0.12342799845176962
33	0x3fc5b6a3cc17fc5b	0.16963622537147924
34	0xbfad0b573ec4975f	-0.0567271484490408
35	0xbf76e80533b6f77a	-0.005592365570405872
36	0x3fb8c57170715e77	0.09676274295031272
37	0x3fb503cdb8fb2cf0	0.08208928838864771
38	0xbfaab511caab9c9f	-0.05216270064357186
39	0xbfc02bbcf734eee8	-0.1263347823204335
40	0xbfc07619204d1eb9	-0.12860406949243045
41	0xbfa644f8eacd1900	-0.04349496713853007
42	0x3fb7e175995d5f13	0.09328398699051048
43	0xbfb0098d42cf2a9c	-0.0626457489117151
44	0x3fbcda271404e195	0.11270374525782352
45	0xbfcdcda3f9c2ac17	-0.23283815093358903
46	0xbfc5403f7aeda898	-0.16602319242821717
47	0xbf99490d433dff5f	-0.024692733029496036
48	0x3fc70e692a93c157	0.1801272828956921
49	0xbfb3f3ce0f49b79b	-0.0779389178585163
50	0x3fb75c84cf7e869a	0.09125547471787812
51	0xbfc1e44202fd99a6	-0.13977837701822898
52	0x3fc3c278e4733a39	0.15437232165136708
53	0x3fb056a67787c440	0.06382217806073331
54	0x3fbcf22f09820668	0.11307043058516231
55	0x3fcc231fbb2a4224	0.2198218978778793
56	0xbfc023509582890d	-0.1260777215985133
57	0x3faa36fb0ca86558	0.05120071916116825
58	0x3fd2d9d4911a9f96	0.29454530878364815
59	0xbfb3d59469292d41	-0.0774777180424069
60	0xbfb56e1611d94d4f	-0.083711032254816
61	0x3f9ddadda107fe7c	0.02915521903378114
62	0xbfa69b50e407d5f7	-0.04415371688439145
63	0xbfb1d13d452a33d8	-0.06959898890109117

base.actor.actor_fc3.weight f8 [4, 64]
0	0x3fbeb26d2f91b608	0.1199100724349692
1	0xbfad94f0fe5c29a6	-0.05777695755940053
2	0xbfbd5563ca6431e9	-0.11458419505306207
3	0x3f8cc8219ae62612	0.014053595103876968
4	0x3fb1f26bae0a4470	0.07010529517198605
5	0xbfb668074e1d1bae	-0.08752484948227732
6	0xbfc1c39dc0fc3726	-0.13878223345857882
7	0xbfb5dead878add09	-0.08542904433385358
8	0xbfa36e4354bfab3b	-0.03795061502008542
9	0x3f9286546f33c7d6	0.018090552603957942
10	0x3fb40f73e4aaaabf	0.07836078961069413
11	0x3fa1204ad0bc61d6	0.03344949529690992
12	0xbfb371bd61624aa4	-0.07595428111589314
13	0xbfaac4397fe1f33c	-0.052278324947997196
14	0x3f8de7a10bf29fa4	0.014601953675381037
15	0xbf8ec50fcdb56944	-0.015024302926282325
16	0x3f6defe6b26c6e64	0.0036544328498971258
17	0xbfa3a0d142219c1a	-0.038336314509074224
18	0x3f8aad2df839ec7f	0.013025626313938552
19	0x3fb2f77862af0cbd	0.07408859643242045
20	0x3fc4096ba5c83e4f	0.15653749079545995
21	0xbfa163abff070065	-0.033963560944813044
22	0xbfba955b79276841	-0.10384151180133562
23	0x3fa553aa7512dfe8	0.0416539447700755
24	0x3f916441521177af	0.016984005579039948
25	0x3fa1a65f1cd59369	0.03447243906956638
26	0x3fb64edec283a77c	0.08714096306689884
27	0x3fa6f79be1f7bb5f	0.04485785611529169
28	0x3fad5462f74f6c69	0.0572844435589211
29	0xbfb606bf9522e64f	-0.08604047194503404
30	0x3fa3577892772e04	0.037776725653738935
31	0xbfb44b4c57e33d91	-0.07927395959563045
32	0x3fb691b6d42caf2f	0.08816092186014822
33	0xbfa879efb836f317	-0.0478053009387393
34	0x3fa879bf343de5e0	0.04780385506360196
35	0x3f6b651aafc8f333	0.0033441086982563205
36	0xbfb9489aba180a5a	-0.09876410525615978
37	0xbf9e08d248791c11	-0.029330526040464436
38	0x3f9afad6e9460628	0.02634750174320835
39	0x3fb19bf9217ba92f	0.06878621165711672
40	0x3fa958b658fd38df	0.049504946101124984
41	0x3fa1d0a0d6ccaa7a	0.03479483244003219
42	0xbfa9f250e4b2fb64	-0.05067684928643848
43	0x3fb6e432308e2ed1	0.08941949544367424
44	0xbfaf878e16b60c1c	-0.06158107783542041
45	0x3fb83ee27dcc86d3	0.0947095448614406
46	0x3fac99eec4452563	0.05586191316485658
47	0xbf75648e1107a012	-0.005222849795679012
48	0xbfb0169796d938f9	-0.06284472878289539
49	0x3f95bf2dda2cba0f	0.021237102929427872
50	0xbf430ba993eb0d39	-0.0005812242523791984
51	0x3fc0ac261136043b	0.1302535614050003
52	0x3fb9fc884e544611	0.10150958931287614
53	0xbfa3dff06a94a9a7	-0.03881789494546988
54	0xbfbd780d989ec2f5	-0.1151131150825327
55	0xbfab8df4368c052c	-0.05381739774567004
56	0x3fbb66b0c1671ebd	0.10703568193195685
57	0xbfa9e9d673357b2d	-0.05061216503485464
58	0xbfb99fb83a804b8c	-0.10009337833643722
59	0x3fa21081726fcbac	0.03528217813427345
60	0x3f6fb4893fb6a514	0.0038702660219384153
61	0x3fad34cbe35a9dcc	0.05704342985455532
62	0x3fa1083dfc5f3a91	0.03326600747788178
63	0x3f988328cd08b81e	0.023937833322797634
64	0x3fb0ad354c8dd299	0.06514294737810146
65	0x3f702632bab2f12c	0.0039426786053662725
66	0xbfa4269a32267aae	-0.03935701238809962
67	0xbf82f14bfa5cd449	-0.009249299600563659
68	0x3fa001177132ec04	0.03125832802603415
69	0xbf9937ed3aa8ba0c	-0.02462740583922067
70	0x3faf5ede697c7929	0.061270666481720255
71	0xbf9cced796dfdf0b	-0.028132790168426996
72	0x3fa8c59653f112b4	0.04838247084311345
73	0xbfc025f31f705dc0	-0.1261581328878787
74	0x3faa5fefb6100539	0.05151318643039322
75	0x3f6e6c49224345b5	0.003713744010476384
76	0xbfc664bee34b5b40	-0.17494951341969944
77	0x3fb42a950a0e10c1	0.07877475257379542
78	0xbfbc3ff4a8797bb2	-0.11035088647029914
79	0xbf98027eb8b65c0f	-0.023447017692515056
80	0xbfb2a8b044b78484	-0.07288648297937256
81	0xbfc53d8663b1ba86	-0.1659400927341787
82	0x3fb4400ae293bcfb	0.07910221130054033
83	0x3f69b62113efc9b4	0.00313860378764127
84	0xbf9e4f218fea9178	-0.029598736199333925
85	0xbfa6c3e7e02c1866	-0.04446339236714962
86	0x3fab82507f217125	0.053728595274807035
87	0x3fa950b251153f75	0.049443790815188494
88	0xbf7e5064c4414bf2	-0.007400888080229416
89	0xbf9174fec61d53c6	-0.01704786380954084
90	0xbfa5bc441c78dd2a	-0.04245198104438892
91	0x3f8b56f677a4178a	0.013349462057259637
92	0x3fcd22b67a75f8db	0.22762185077221528
93	0xbf9d775b3f4f0306	-0.02877562116532586
94	0xbfa0d3d3bdbf5397	-0.03286611262561861
95	0xbfc0501332ae2d0c	-0.12744369482639006
96	0xbfc39a4cd74bbfe6	-0.15314636719222036
97	0x3f81db0f3fdee759	0.008718604218177427
98	0x3fb08e28bace9ea1	0.0646691757270852
99	0xbfb6951701324b46	-0.08821243075571514
100	0x3fb9d7e4533b25e8	0.10095049888618457
101	0x3f8422ce45294a1c	0.009832011685976964
102	0x3fbbae1e39f2b699	0.10812558092831139
103	0xbfb3a86700c418b2	-0.07678836601926056
104	0xbfa2f2647994e8b9	-0.03700555786277122
105	0xbfb64f25ae4b0458	-0.08714519028855372
106	0xbf8f09ab5518c416	-0.015155161413618539
107	0xbfb1591e7c1cacb4	-0.06776609926298499
108	0x3fb44b4cb4cfb27e	0.07927398123110582
109	0xbf8be783a2a5cb87	-0.013625172043907131
110	0xbf34b6062b89ab2e	-0.00031602526318035256
111	0xbf56ba6e15829956	-0.0013872218169495762
112	0x3fb984e8032c4f84	0.09968423917263008
113	0xbfc3d25a9aed6c4c	-0.1548569923860178
114	0x3fa8d52bdf1f539b	0.04850136850988137
115	0xbf863f7d7acd740d	-0.010863285360466457
116	0x3fbd5cdc511adb57	0.11469819049930884
117	0xbfca33d8b9120845	-0.2047072318710567
118	0x3f91dd0a0122b5e7	0.01744475967341499
119	0xbfa0bd2fe5f6bc84	-0.03269338304686989
120	0x3fabb21d3aed2cca	0.05409327835385509
121	0xbfa40a0d290d8c40	-0.039139186154692585
122	0xbfa88f30f6494cef	-0.04796746260094575
123	0x3fc101a5d1747abb	0.13286278464598475
124	0xbf67b2a6e86ac8d5	-0.002892805091812093
125	0xbfb3b4ed0de6ae83	-0.0769794615686639
126	0xbfc5559ab91fae86	-0.1666749385761827
127	0xbf950775ad089bcd	-0.02053626888860176
128	0xbfcaed2e470bf7d4	-0.21036318272666554
129	0x3fbd66fead80bd31	0.11485282646093677
130	0x3fb2075a9a68809a	0.07042471189243074
131	0x3fb2e26049165205	0.0737667253909607
132	0xbfb9a4d790db3b11	-0.10017154013187858
133	0x3fbdf7bafe46cb0e	0.11706131656573524
134	0x3f92223f0af57718	0.0177087641180754
135	0x3fbd307fee873e1e	0.11402129720158213
136	0x3faff8cf91d4d3b2	0.0624451509014884
137	0x3fab2cbb6ab65b25	0.053075653816611536
138	0xbf5287081bd40115	-0.001130826872497497
139	0xbfb8d7cb652a0132	-0.09704276294542494
140	0x3fbd9737cb86a055	0.11558865279096271
141	0xbfb1d34e532d2961	-0.06963052302049767
142	0x3fb3d67daffcf5ea	0.07749162241540089
143	0xbfb0f6524e5455f7	-0.06625856792773975
144	0xbf75db6989c98ace	-0.0053362009608430416
145	0x3fa4695f45b61401	0.03986642576186484
146	0xbfb4908d28d0ac19	-0.08033067938292539
147	0xbfba978142a23f08	-0.10387428166199808
148	0xbfa2a1231482c1b3	-0.03638562798858249
149	0xbf97cd142dccf444	-0.023243251128622924
150	0x3f6ad753bd0b6e5b	0.003276504089041938
151	0xbfb336735e0cdc05	-0.07504960104130028
152	0xbfb0ecff2398bad0	-0.06611628169114714
153	0xbfae43ae43824ed4	-0.059110112896772954
154	0xbfa28c62dfe45b7a	-0.03622731192643065
155	0xbf9121d1d781b592	-0.016730574396594707
156	0xbfc3af366816d387	-0.15378456194380538
157	0x3fac6139c1e64156	0.05542927257477241
158	0x3fb3a5d7103bbad8	0.0767492689735535
159	0x3fc3ac650a0ea305	0.15369856825898168
160	0xbf94930fb45cd9d8	-0.02009224451395561
161	0x3fbf1e816ca96e8e	0.12155922797085791
162	0xbfc03a684ab0cef7	-0.12678245207791125
163	0xbf7a35bc191bf952	-0.006398901708733655
164	0xbfab70afc20acbf5	-0.053594105183400055
165	0x3fb9031c0647f69a	0.0977036967596753
166	0xbfb9f49a80c538d2	-0.10138860362824012
167	0xbfa05bf57e097e0b	-0.03195159114397591
168	0xbf987d9328c23b7f	-0.023916530001368393
169	0xbfa6c52d1133af2f	-0.04447308382972747
170	0x3fb94347646aca75	0.09868284417715663
171	0x3faf89d37730b83d	0.0615984042163835
172	0xbfa02a80c89a4124	-0.031574272620789295
173	0xbfc056ca6984f825	-0.1276486411315442
174	0xbfb4acedeeb6309a	-0.08076369359895566
175	0xbfb23f86ab6bc323	-0.07128183064538667
176	0xbfa77448ec531d6a	-0.045809058044649145
177	0x3fb1b24c5ee451d5	0.06912686649986395
178	0x3fb185f812a59b2f	0.06845045523878633
179	0xbfc123d8bb172d57	-0.1339064515617376
180	0xbfa66f7e45fad2be	-0.043819376032308
181	0x3fbb58af5be509c7	0.10682197564623329
182	0x3fa0c6e013732892	0.03276729810166147
183	0x3fc024283c9f4b0a	0.12610342941351177
184	0xbfc01e079bb7b6f1	-0.12591643432045133
185	0x3fa589a2db2f7ba3	0.042065705543556285
186	0x3fc47e9666d76d64	0.1601131441264939
187	0xbfb411c0f32383ec	-0.07839590011600678
188	0xbfa81384f45d1b31	-0.04702392085032726
189	0x3fb00d05d9955ab8	0.06269871294112306
190	0x3fa8e946d1d91101	0.04865475951786103
191	0xbf96c1af56f27dec	-0.022223224336469657
192	0x3fa74a2d5981fe66	0.0454878017198979
193	0xbfb3e44ee677c508	-0.07770245672852039
194	0x3fa38cfff646516d	0.03818511849672999
195	0xbfbc3862f66b7372	-0.1102353908167524
196	0x3f8f8eedfffc5668	0.015409335493625068
197	0xbf8b674672f65b34	-0.013380575545665609
198	0x3fa9591b5f1af1a9	0.049507956847694
199	0xbf726e14832bac83	-0.004499511839394124
200	0xbfba8d5799bf7886	-0.10371921065913811
201	0x3fae43bb7fb7eff8	0.059110507336271156
202	0xbfb3b29a9c5b4d3a	-0.0769440299730392
203	0x3fb75b6b9c4ae9f2	0.09123871389139263
204	0x3fb33b162bf1d595	0.07512034008853725
205	0x3fa9dd4049f4a5db	0.05051613714961053
206	0x3f97a8f753a7f2fc	0.023105492096862953
207	0x3fbc72f3c78021f9	0.11112903233163952
208	0x3fab9e03d8002f0e	0.053939933888697764
209	0x3fbfb01c29e3cb35	0.12378097555828733
210	0x3f5f7a67e8c52228	0.0019212736834380937
211	0x3fa994b5f6435b86	0.04996269827977699
212	0xbfb3a71c7beb4501	-0.07676866555563679
213	0x3fbc0caf214b4e46	0.10956854403348712
214	0x3fa03668adefbe01	0.03166510699508863
215	0xbf692e7a4c76eb99	-0.003073920120838247
216	0x3fae80bc0eeee890	0.059575917075066376
217	0x3fab78c56692e369	0.05365578534242028
218	0xbf8fb56fe5a93dfe	-0.015482782551003101
219	0xbfb05e0a58e13629	-0.06393494291224812
220	0xbfb307b84764cb47	-0.07433654540072353
221	0x3faa4476bb71ced3	0.051303587323585774
222	0xbfb80cb84adb3e7f	-0.09394409015225767
223	0x3f7c442d62dc3203	0.006900956430183405
224	0x3fbc9f2554ac75b7	0.11180337254741955
225	0xbfb6b226cb4badb3	-0.08865587676307633
226	0x3fa37f7270ea71f6	0.03808171871535031
227	0x3fbe0c5832978412	0.11737586245682533
228	0x3fa55dbcfb1bce5b	0.041730790760905655
229	0xbfbd27c92695d643	-0.11388833229087773
230	0x3f77d3d17a8e418c	0.005817240024854075
231	0x3face4da1f3754a8	0.05643350249344198
232	0x3fa3a610ce5881ed	0.03837635535115056
233	0x3fb98c271ccfeee9	0.09979481175826845
234	0xbfb22fed0205173e	-0.0710437898570406
235	0xbfb149bb91034a6a	-0.06753132143357168
236	0x3f43972ef97f45c2	0.000597856461349071
237	0x3fb1e0741fa848b4	0.0698311402595973
238	0x3f9d136074b74d7a	0.028394229053288346
239	0x3fb094a247b33a99	0.06476797342768705
240	0x3f85f8e2a513d988	0.010728617346541083
241	0x3fa779b5ccba31a1	0.04585044979203024
242	0xbfc1aa14a0a2a2a2	-0.13800294726867884
243	0x3fa27125bca5263d	0.036019496229141336
244	0xbfbdad626b4e52a1	-0.1159268867471135
245	0x3fb7b77c1625dc63	0.09264350453109808
246	0x3fa6225ca68503d5	0.043230910613153796
247	0xbfa3f71b6db2503d	-0.03899465288228086
248	0xbf91690a326a877d	-0.017002257659107557
249	0x3f71ecee3e8c47d6	0.0043763452929556825
250	0xbf9285ae7b844a57	-0.0180880797279975
251	0xbfa9f1f083514ba9	-0.05067397692678039
252	0x3fb1f6b9ac116e88	0.07017097903138325
253	0xbfa1781e16c17121	-0.03411954906252591
254	0x3fb9a946b373fd95	0.10023919945887479
255	0x3faa775263cbeb65	0.05169160335750326

base.actor.actor_fc3.bias f8 [4]
0	0xbfc26aa18505c4b8	-0.1438791179203116
1	0x3fba8ba44cd7b1e8	0.10369326473273299
2	0x3fa885776978bfb1	0.04789326822753937
3	0x3f88e3a35356343a	0.012152935009703925

base.critic.critic_fc1.weight f8 [64, 8]
0	0xbfcbc5c925e9d9b8	-0.21697344161266385
1	0x3fcd5ed90983cc78	0.22945702519027456
2	0xbfb92a398f5f25b4	-0.09830054998669518
3	0x3fb189a3cab2608f	0.06850646685268401
4	0x3fdbda589554a51d	0.4352017839724612
5	0x3fd27e540aadb79f	0.28896046679335
6	0x3fc4dda0efda7699	0.16301356994238317
7	0x3fd335e899f51366	0.30016531977553595
8	0x3f8cdfbbb1b490b8	0.014098612175594702
9	0xbfb8d1e5e2cd2897	-0.09695278918403215
10	0xbfc278b67f2ae2ff	-0.1443088646826922
11	0xbfc14e8f8de83a1e	-0.13520998410281576
12	0xbfce725b65afb41e	-0.2378648993029921
13	0xbff1f10e70cdce96	-1.1213516622928288
14	0xbf9c7f2434c1cc8f	-0.027828756065400525
15	0xbfaaae9a4db59e74	-0.052113363252655726
16	0xbfc9fbc96e2ebb5d	-0.20299642448432112
17	0x3fc03ada7fc9abaa	0.12679606666219218
18	0xbfdc483cc0963d2a	-0.44190901572524643
19	0xbfd2e9237cce16c0	-0.29547965229026474
20	0xbfa99869f17df24c	-0.04999095032596709
21	0xbfc6d47d2f485c4a	-0.17835964974139734
22	0x3fd2f3b322d4f238	0.29612425233407036
23	0x3fc6294a6ee89035	0.17313509383632356
24	0x3fb3dcd23d2612cd	0.07758821480644969
25	0x3fd8ba289eba7e88	0.386362223633093
26	0xbfcb74d2b09fa29e	-0.214502655260067
27	0xbfcdfc09a6f24a6d	-0.2342540803116039
28	0x3fcd1dd32b536621	0.22747268310085736
29	0xbfb400246b16aa80	-0.0781271707007054
30	0x3f8daa4b6d86ad22	0.014484967498751337
31	0x3fc15c31227bff58	0.13562597450072178
32	0xbfb4be5d56478798	-0.08102973324233032
33	0x3fbfb3bdb569b879	0.12383638075854887
34	0x3f800a22dc12dba7	0.00783183321105503
35	0xbfb1d9e7af6b01cf	-0.06973121674219061
36	0xbfc3d5a2ea9c262b	-0.154957165294307
37	0xbfa4dcaa752fc5d3	-0.040746046833998094
38	0xbfcc68b11572357b	-0.22194493815588232
39	0x3fca1a802f43b21d	0.20393373782953086
40	0xbfc11b3530717906	-0.1336428152598687
41	0xbfa9b7840f7e73f3	-0.05022823990950789
42	0xbfdc91290e54b27b	-0.4463598861646358
43	0xbfd15de4bb6083f9	-0.271355803475728
44	0x3f9c4fe9ca1fcf4a	0.02764859481972274
45	0xbfbbe923366ebc31	-0.1090261466876974
46	0x3fd13f4b23872d60	0.2694881293252447
47	0x3fd66de5cdac0702	0.350457621432824
48	0xbfa86d84b9fc24dd	-0.04771055956195778
49	0xbfd3c328e126f913	-0.3087866019012761
50	0xbfd892cb7602e0f1	-0.383959641690594
51	0xbfd9900ef358a073	-0.3994176269939153
52	0x3fd0e7dc657abd52	0.2641516676912562
53	0xbfb3eccfe63e37d7	-0.0778322159878536
54	0x3fc56aba2296defe	0.16731955231602308
55	0x3fb2e74e485097e2	0.0738419462728355
56	0xbfb89ce031e41f3a	-0.09614373415035696
57	0xbfaa2459251fd312	-0.05105856493165652
58	0xbfc00f5c95c42124	-0.12546880066680288
59	0xbfb03ce239d772a3	-0.06342901146076456
60	0xbfaac1e57aa2a516	-0.05226056215298962
61	0x3fa9d3aeb9f6bc8d	0.05044313449922653
62	0x3fa2286a4502783e	0.03546459286120339
63	0xbfbff7c98b4614c6	-0.12487468385923525
64	0xbfb7a7c53d2bb71e	-0.09240372413088635
65	0xbfb5dde5017cf9bd	-0.0854170921929613
66	0x3fb9d4465920cc0d	0.10089530635814033
67	0x3fcd0896c41e169a	0.2268246133427752
68	0x3fd776f257ea41c5	0.36663492761092825
69	0x3fe2a3153400ed59	0.5824075713821159
70	0x3f92740cb9153d65	0.01802081946999347
71	0x3fd55e405a3cd1b3	0.33387764751685295
72	0x3fb43b13e9f25985	0.07902645551289396
73	0x3f886e6f039995ac	0.011929385468827679
74	0x3fd060de9f4bd384	0.25591245228070414
75	0xbfba7b40af40e4a3	-0.1034431865563357
76	0xbfa35caceff16d4a	-0.03781643322937585
77	0x3fc466301e769b75	0.1593685292002324
78	0xbfc7e6ceb05eb6ae	-0.18673118221106705
79	0xbfa92b256cac5cc7	-0.0491573043020082
80	0x3fb332ae831aabb9	0.07499209118638718
81	0x3fbfa07056a44c4d	0.1235418521430784
82	0xbfd0d6d50b601fc3	-0.2631123171890943
83	0x3fb4b5b278d6272b	0.08089747858153078
84	0xbfba5c4cb319d362	-0.1029708802469265
85	0x3fc1eb767d2d32c6	0.1399982558454182
86	0xbfa402e7472be75b	-0.03908465141098701
87	0xbfa9fef3c785d86b	-0.05077325640279259
88	0x3fbee0018c071383	0.12060556095737067
89	0xbfb7056b0fd705d1	-0.08992642533032515
90	0xbfd0c1049981fe36	-0.26178088179583214
91	0x3fb69b192d3ea902	0.08830411295517496
92	0xbfd04b4bdc6d1f04	-0.2545957234001295
93	0x3fc5172c29c2e721	0.16476966895225423
94	0x3fb9a1bee69eac5b	0.10012429361693036
95	0x3f8e9984a82706e7	0.014941250211339475
96	0xbfc01f56d60706e1	-0.12595639658507365
97	0xbfca2cf9ab87260d	-0.2044975364245122
98	0xbfd53f0b5e1405fc	-0.33197292506528675
99	0xbfc0dad4a3165244	-0.1316781803440269
100	0xbfa4f2563fd10eb9	-0.040911383905521466
101	0xbfbedc1e8a6eed98	-0.1205462539646106
102	0x3fca80866fd07fc3	0.2070472761124603
103	0x3fc952e1d072414e	0.1978418605617755
104	0xbfb0feb0704585b2	-0.06638624897961767
105	0x3fc1a3d1870fc5e6	0.1378118428688559
106	0x3fd84106abad3e0a	0.37896887555413683
107	0xbfbd03e7fc32a841	-0.11334085375952531
108	0xbfda03d47eccc076	-0.40648376829904664
109	0x3fbd40110d66eec4	0.11425882889937627
110	0x3fd850eb4c32856d	0.3799389118303996
111	0xbfc0f1c857564f44	-0.13237861885556346
112	0xbfc0257c289b164e	-0.12614395125108263
113	0xbfc871c3eb273b1f	-0.1909718416413506
114	0xbfd0844cf20c9e59	-0.2580749858629808
115	0xbfa986a42de93652	-0.04985535679280119
116	0x3fe8d0eb858aae84	0.7755029304730248
117	0x3fe41e6dc2a35aaf	0.6287144471669616
118	0x3fc9fd7989e42060	0.20304793580021663
119	0x3fde54c4034b1b0f	0.47392368623370457
120	0x3f9c8925a125e486	0.027866924248404
121	0xbfcc0663c412bb46	-0.2189449984921003
122	0xbfab2eeafc19268c	-0.05309233023997448
123	0x3fa260017478e3d0	0.03588871523647408
124	0x3fd218fa05411a5b	0.2827744532882314
125	0x3fc5319786352f7f	0.16557592442620359
126	0x3fb4aa6da417290b	0.08072552925219527
127	0x3fa1d6a5d45c210c	0.034840757534825156
128	0x3fc25a77eecc9f01	0.14338587913629655
129	0x3fcc9b6b63dfd439	0.22349302651096695
130	0xbfb514e58a09bdb9	-0.08235010738439187
131	0x3fdab755bda62b4a	0.4174398757974599
132	0x3f8d431ee62709a1	0.014288178824135413
133	0xbfe0fe17c718c564	-0.5310171974762565
134	0x3f5e4d974d78e48a	0.0018495538296419444
135	0x3f83c32cffa9d799	0.009649611999730289
136	0xbfc17fd425c9aabd	-0.13671352238755743
137	0xbfb4516dd806cbcd	-0.07936750911794306
138	0x3fdc0dde2c3270c9	0.43834642711750554
139	0x3fc6705ae6631e92	0.17530380486845282
140	0xbfe719ab90252063	-0.7218835654575851
141	0xbfc27f0461738dc1	-0.14450125463836908
142	0xbf930300e5c2aec7	-0.01856614496561695
143	0xbfb18a42e3a454f3	-0.06851594979919522
144	0x3fb7ef57193efde9	0.09349579206808979
145	0xbfb19ccaef7fd532	-0.06879871699478171
146	0xbfb86fbcbea77d53	-0.09545497564930842
147	0xbf820bad60bfc479	-0.008811335101173367
148	0x3fbad824adf66e84	0.1048605847085416
149	0xbfa1ee042a2e7b1b	-0.035019045018307625
150	0xbfc7eda16fe386ea	-0.18693941081351478
151	0xbfbfb565ca0f12e3	-0.12386165793493435
152	0x3fcaab93890ad02d	0.2083610934402044
153	0x3f8108557513f521	0.008316676745830311
154	0x3fca32fe7a5d9b14	0.20468121504674086
155	0x3fb7e992e4086436	0.09340780322271844
156	0x3f9f24eaac079aab	0.030414263486728526
157	0x3fd14d8d05b834e4	0.2703583293776559
158	0xbfe6c247bf354a4e	-0.7112158522161935
159	0xbfcd41d56a4d123f	-0.2285715836570876
160	0xbf94d2253532082d	-0.020332890865127396
161	0xbfc2d4da5f9df778	-0.14712075871278407
162	0x3f9459b94976d34e	0.019873519047638503
163	0x3fa653e387a738e1	0.04360877066538805
164	0x3f905bf0270f2e7e	0.015975716003409073
165	0x3fd6f25d4d5813e9	0.35854275277261977
166	0xbfd03716687960cc	-0.253362276101609
167	0xbfb5dfe51dcf0551	-0.08544761636496402
168	0xbfc6f6d54c4a82d9	-0.1794077513232171
169	0x3fe1e4eeec0e4328	0.5591959581816797
170	0x3fe1b5fabd1f5c5c	0.5534642881201637
171	0xbf956199ab2a0f90	-0.020880127975501817
172	0xbfd430aab90eeb31	-0.31547039100739754
173	0x3fcae9b10f83a69d	0.21025670297176627
174	0xbfb720e690a6901f	-0.09034577399739917
175	0xbfb113f9961c94ab	-0.06671104349932715
176	0x3fb69e0999d4566b	0.08834896092988635
177	0x3fdb68b78af9fe02	0.4282664162819573
178	0xbfc5232a3951a931	-0.16513564871576983
179	0x3fc3b6a4682a9703	0.15401129804848077
180	0x3fb7087f3cd933f6	0.08997340426977005
181	0x3fae0a56d6c2d905	0.0586726319465232
182	0xbfc915e054a25687	-0.1959801114323236
183	0x3fbc8932e79322d5	0.11146848825149942
184	0xbfa44b7b8b7726e7	-0.03963838651141121
185	0x3face3492e3e7ca2	0.056421553511648584
186	0xbfde4f0f9317e9b9	-0.4735754906138499
187	0xbfb26fe002571aaa	-0.07201957757124924
188	0x3fea33bed5a4c3f8	0.8188165829398022
189	0x3fe4332a0598a144	0.6312456235218993
190	0xbfba656294b1e81b	-0.10310951357124092
191	0xbfabe512b157182b	-0.05448206343457714
192	0x3fbe94e5c2247056	0.11945949544718934
193	0x3fbb585735185c38	0.10681672140377507
194	0xbfcd7c04a750bb23	-0.23034723443694202
195	0xbfd56955d78187b5	-0.33455415769105495
196	0x3fce75d58920c41c	0.23797101207449678
197	0xbfb32953ecb25652	-0.07484936264730749
198	0x3fa05a173a01d642	0.03193733771415143
199	0xbfa8a8bd8046ac70	-0.04816238585348109
200	0x3fc321158a83ee3c	0.14944714797444358
201	0x3fc26252671b9549	0.1436255458312792
202	0xbfca4a28b59b1bf8	-0.20538815371966712
203	0x3faded2ae1a19697	0.05845006946837577
204	0xbf8b2ff0f279d53d	-0.013275034332063224
205	0xbfd485a8e7e59222	-0.3206579460732276
206	0x3fcdccd1cd3a1816	0.23281309624525254
207	0xbfadaa31a4018cf1	-0.057939101476927386
208	0x3fa72ad82e736771	0.04524875227953274
209	0x3f91cfe966e66f26	0.01739468279411862
210	0xbfbf003c1bb6b1cc	-0.1210973327312736
211	0xbf8d03371a713eb8	-0.014166288847405326
212	0x3fc8a43de221db33	0.19251225988019768
213	0xbf720906f7790dc7	-0.004403140271793621
214	0xbfac2ae66f577b29	-0.05501480206634419
215	0xbfd170fee97d9c35	-0.27252171327421887
216	0x3fab48949e530e7e	0.053288120581354
217	0xbfd50f5d48fc6d9f	-0.3290627682451603
218	0x3fc2eb0d11c6e2c7	0.1477981888581523
219	0x3f83245161bd6898	0.009346614642414416
220	0x3fc296d07ca48b19	0.1452274902922788
221	0xbfc61c19bf5ac518	-0.17273256152615413
222	0x3fc946a2f44c0037	0.19746815613325605
223	0x3fc8c9a9ac7f2ca9	0.19365425989812948
224	0xbfc256cdb9c0c462	-0.1432740361210874
225	0x3f9c2f9a2cfa678a	0.027525338168380688
226	0x3fd02d1d0f977ecc	0.25275351069101926
227	0x3fad16ae718ef762	0.05681367050372789
228	0xbfd3cf6591dd2f3b	-0.3095334934666771
229	0xbfc4b0d5daeaa2ba	-0.1616465872696347
230	0x3facd9f3d4e4ec2e	0.05635034536177162
231	0x3fc6677c7a5bc76e	0.17503314947640142
232	0x3fadddf1efd87d1d	0.058333931472811275
233	0xbfd5a473d84b89ff	-0.33816238520208225
234	0xbf8057f1ba801939	-0.007980240348854127
235	0x3fb84ef62c31bf2e	0.09495485857928251
236	0xbfbc90f1b3d556ba	-0.11158667221510657
237	0x3f8b71fae2a4d0f9	0.01340099338686017
238	0x3fa76dc6983935e8	0.04575939758488429
239	0x3fd6eb7a3833cb06	0.3581224011278866
240	0xbfd095b7e1cbed09	-0.25913807917068304
241	0xbfcf556cd5e52cfa	-0.24479446834661883
242	0xbfc707b9a45ddb65	-0.17992325330461792
243	0xbfd53f921bacb741	-0.3320050497303449
244	0xbfd0ffe105c57959	-0.265617614399067
245	0xbfbd41d564f915c6	-0.11428579058800556
246	0xbfc62c932fbcd94c	-0.17323531943265846
247	0x3fc088a8dfe29e73	0.12917052204032906
248	0xbfb25fb0e14b2cc5	-0.07177262783368395
249	0x3fc2431857ef8435	0.14267257970553407
250	0x3fd0e5df1403497a	0.26403023676279924
251	0xbfc81776bc4d58a6	-0.18821605867805608
252	0x3fba13bb9d53e665	0.10186359969147814
253	0x3fe30676ed60e19c	0.5945391308114725
254	0xbf8450137aa480f8	-0.009918358021025572
255	0x3f9a0bb9ca250f8b	0.025435355151116872
