results/lunar/cmorl-ipo/0/final/EP_policy_196.pt (torch, 84376 bytes, 13 tensors)

base.actor.actor_logstd f8 [1, 4]
0	0x0000000000000000	0.0
1	0x0000000000000000	0.0
2	0x0000000000000000	0.0
3	0x0000000000000000	0.0

base.actor.actor_fc1.weight f8 [64, 8]
0	0xbfc3e1de121e2d33	-0.1553304279771993
1	0x3f945268c2d5456f	0.01984561623732389
2	0xbfbfac55f22d0b67	-0.12372338449953944
3	0xbfbb8c1c04454257	-0.1076066503931171
4	0xbfc1f71c4e947d8e	-0.14035371624866538
5	0xbf9a02efd4970a88	-0.025401828146423472
6	0x3f7cd85cb9becc6c	0.007042276582001166
7	0x3fbc5b6ea6835bb4	0.11077014508496924
8	0x3fb9f47a2147a38a	0.10138667404647897
9	0xbfd014f74f5c1473	-0.25127966642350613
10	0xbfc7875ab0122239	-0.1838181838723061
11	0xbfd76b96bf6b1dde	-0.36594170277791516
12	0x3fc2c52d07ac6037	0.14664233088183362
13	0xbfac08093636b682	-0.054748809688459424
14	0x3fb901042e67030c	0.09767175801153999
15	0x3f98bcab81a25f6f	0.024157218730209203
16	0x3fc773da5c578c68	0.18322305210958523
17	0xbfba84e6b4ff1f82	-0.10359041136609728
18	0x3fc9dc76941808db	0.20204050284525618
19	0x3fa459432450ea91	0.03974351709662927
20	0xbfb17ec6559e776c	-0.06834067907626967
21	0xbfd40de32caa1699	-0.31334761964567687
22	0xbf9d300c2bc524f1	-0.02850359933043917
23	0xbfb03b5f3085ea6c	-0.06340594229360769
24	0xbfc9b05de0ca91e8	-0.20069478489052917
25	0x3fc4d1b1b3fe7269	0.16264935768858216
26	0xbf93340a21d77fce	-0.018753202739276102
27	0xbf85c1dcdf195a07	-0.010623670156900479
28	0xbfb83732cc676b3a	-0.09459226122218647
29	0x3fc1bcc428bac934	0.1385731886744651
30	0xbfdb80b174be31d4	-0.4297298088138437
31	0xbfc45c0afa3d7936	-0.15905892580753694
32	0x3f76e734e17482a1	0.005591589512989132
33	0x3fd02e736e63e881	0.25283513813304387
34	0x3fbe86213e46bd9c	0.11923415918749075
35	0xbfabdcb2a3b247c2	-0.054418165667029963
36	0xbfcf14cb279b16aa	-0.2428220694911734
37	0xbfca5114f82599b9	-0.20559942356631014
38	0xbfa49c1f41c9abc1	-0.04025361707757425
39	0xbfb6154f9262dcee	-0.08626267742043911
40	0xbfd897683b5ff939	-0.3842411594231581
41	0xbfa14aa91b177901	-0.033772739941683845
42	0xbfd691a11471fec7	-0.35263850208864905
43	0xbfc1f6fb4318405d	-0.14034977699384657
44	0x3f9016b56ca6bd01	0.015711626774359114
45	0x3fca74581dc8ccae	0.20667554334941002
46	0x3fc8c624a8b1a241	0.1935468505573841
47	0x3fbc76c4649212e5	0.1111872430356687
48	0x3fafca742bd96d71	0.06209147486944289
49	0xbfc072be9e149746	-0.1285017272832027
50	0x3fb61cc41e44ef23	0.08637643565174051
51	0x3fc8165b2370488a	0.1881822512664864
52	0xbfd1a9f096ba5fd9	-0.2759973022416467
53	0xbfb8dec8bfd5bb26	-0.09714941676587027
54	0x3fb2ddb0c82b572d	0.07369522940583968
55	0xbfc2f5cc76c8456a	-0.14812618064801636
56	0xbfd3863d96638260	-0.30506839453122403
57	0x3fa7254b35bf3f0e	0.045206404028816136
58	0xbfe1b8b01dfa6bcf	-0.5537949166786066
59	0xbfba88bb4d63426c	-0.10364885939930851
60	0x3faabcc3c7cd6253	0.05222141088478751
61	0x3fd0d3f4795fafda	0.2629367051401893
62	0x3fbf864b27621cc2	0.1231429072523609
63	0x3fa8b57ac862205d	0.04825957962117464
64	0xbfc7c3cbe834b9fb	-0.18566273534948138
65	0x3fcdee7cf9e2809d	0.2338405819073203
66	0x3fc231412cc8f00c	0.14212813078654596
67	0xbfd5420c8ff00498	-0.3321563153877576
68	0xbfa47056a9861aa1	-0.03991957492239818
69	0xbfafa05b3895c844	-0.0617702967237084
70	0x3fb2d1958f57f845	0.07351050138092415
71	0xbfb436ae378300ae	-0.07895935874239754
72	0x3fab75f73d361fb9	0.05363438245973335
73	0x3faaa286d3a58171	0.052021230064158604
74	0x3fc4e08f15224148	0.16310299426960229
75	0xbfc887d8c5de3cdd	-0.19164571439293968
76	0xbfd75f32ab7cae03	-0.36518542048244756
77	0xbfb31b2e67531096	-0.07463350317545045
78	0xbfd618c2a2f9de19	-0.3452612487376157
79	0x3fc219c5ff9b5769	0.1414115427093592
80	0x3f74d42e835cc64a	0.005085164730006373
81	0xbfa23060bad47292	-0.035525343710309035
82	0x3fdb5417c9af8382	0.42700762458667196
83	0x3fc5b0ac5bd354b1	0.1694541405073884
84	0xbfbfa6befc220b85	-0.12363809257116827
85	0xbf689c165fc0bed8	-0.0030041157715671
86	0xbfd1f194d0fb6d8a	-0.2803699532357419
87	0x3fad2d2c2924d28a	0.0569852638458644
88	0x3fb4b24699c8eb46	0.08084527258408256
89	0x3fa737e03389e770	0.04534817341932651
90	0x3fd6341a5916ccf8	0.3469301099787141
91	0xbfb45cea69b4f143	-0.0795427806924112
92	0x3fbe3d28eef98102	0.11812072595921921
93	0xbf8cea49474e30a3	-0.014118740547722835
94	0x3fad8bab9a223fce	0.05770622498050636
95	0xbfb2ea51bb53ea84	-0.0738879282325034
96	0xbf91b4747c853092	-0.017289943790544778
97	0x3fb6044a22caf994	0.08600295400080987
98	0x3fbc8923374fdbdb	0.1114675531424462
99	0xbf84b2f92d475ffd	-0.010106989568996022
100	0xbfc9d7a7215c487c	-0.20189370278291452
101	0xbfb40052ea329a73	-0.07812994210926565
102	0x3fd3702b11f09931	0.30372120620667703
103	0xbf940543dcb23701	-0.01955133471033488
104	0x3fc6cab62e46fba0	0.17806126842148462
105	0x3fd0b509a2fb33b5	0.2610496608365865
106	0xbfd448a180cf5a1a	-0.31693303660486694
107	0xbfb48ac431692909	-0.08024240690534525
108	0xbf989459b8c0fa68	-0.02400341215274651
109	0x3fbcccbbd2d6db8d	0.11249898812717003
110	0x3fa51b989592a4f3	0.041226166017915754
111	0x3f96ee86fccf8801	0.022394284420336422
112	0xbfce5733b9458cab	-0.23703619524449002
113	0x3f87a10766341ec3	0.011537607008463074
114	0xbfd19eb3a6f97626	-0.2753113871202423
115	0xbf97b6b255f4d4d0	-0.023157869812355625
116	0x3fb61f69d846c26f	0.08641683130441334
117	0xbfccfc8cb7bc1fdb	-0.22645720454624904
118	0xbfbd018397d044ec	-0.11330435234437503
119	0xbfba015304699527	-0.10158270700192827
120	0xbf9448d27e7c10f2	-0.01980904480935037
121	0xbfbcb5e086c538fc	-0.11215022363942134
122	0x3fbdc3bb12efac1a	0.11626786434469275
123	0x3fc2a6f8f221b3d3	0.1457205946238945
124	0xbfd197f2671a5b90	-0.2748991019120064
125	0x3fc55c0bbd7ccbf9	0.16687151672667236
126	0x3fca6409ee7759ad	0.20617794174058926
127	0x3fc24ea40277875d	0.14302492256598046
128	0xbfc831aa905b115d	-0.18901569412822541
129	0x3fcab0d585cb9146	0.2085215476319126
130	0x3fa8564e480fa612	0.04753346089985312
131	0xbfab9fcfe941909c	-0.053953644965788444
132	0x3fcf5211e0231405	0.2446920723361076
133	0xbfc68631a2c51e28	-0.17597027251962172
134	0xbfa2465df65e6d7b	-0.03569310791427945
135	0x3fd252fa31c59426	0.2863145338108687
136	0x3fb30354ddc31b40	0.07426958479036916
137	0xbfc718507a6ac1d4	-0.18042951562303122
138	0xbfda3ffe313b3a5b	-0.410155819013118
139	0x3fab5853f5f0636b	0.05340826394257799
140	0xbfb3978d6397acdb	-0.07653125459153236
141	0xbfb1e9691c708f29	-0.06996781296089395
142	0xbfd0325be86844fe	-0.2530736703493658
143	0x3fc1aff7a47f64b4	0.13818259746657235
144	0x3fb4e50fc1d8ea06	0.08162020189858063
145	0x3fb162083b67c95e	0.06790210199668453
146	0xbfd5c9b670ca46fa	-0.3404365636316552
147	0xbfb9d73ee8878af9	-0.10094063927639842
148	0x3fc0e6add32711a6	0.1320397645014399
149	0xbfca3551d16f3deb	-0.20475218511863544
150	0xbf9bd88190e76560	-0.027193092793685536
151	0xbfba2258b11d173b	-0.10208658527434704
152	0xbfc2c3a6e95e890b	-0.14659582514747913
153	0x3fc741658c2b8870	0.18168324798813584
154	0xbfc9db3a0fb0f1ed	-0.20200277105494938
155	0x3fb58e5b631564dc	0.084203445139241
156	0x3fc413b88d3068ba	0.15685183423994947
157	0xbfc2e48d6075634f	-0.14759986123933763
158	0xbfb0404cd81f1324	-0.0634811427726843
159	0x3f90b786f8fca232	0.01632510084815148
160	0x3fc14cc5b4ac98e8	0.13515540430052586
161	0x3fd46935398e93aa	0.31892138119502056
162	0xbfbc43108f3435a3	-0.11039832588377023
163	0x3fad37b6207086bb	0.05706566949835464
164	0xbfcf6d775ea6d40b	-0.24552814599670145
165	0x3fcd7ca796851079	0.2303666577300907
166	0x3fc534de3ac64147	0.16567590589375866
167	0xbfa00c6b54e9bc79	-0.031344751468048444
168	0x3fa17a081434537c	0.0341341519034932
169	0x3fbf9502cc5f5755	0.12336747636376562
170	0x3f9217c36ef13d9e	0.01766877522123666
171	0xbf493f8a2e015b9d	-0.0007705139833075085
172	0x3fca7dff00658c08	0.20697009581917336
173	0x3f936176c6b4ab6f	0.018926483037982885
174	0x3fc4d31e61aee2c8	0.16269283075032193
175	0xbfd60fc9fe3fd19e	-0.34471368626625487
176	0x3fc639907d1394a3	0.17363172633409815
177	0xbfa70b1e8fd44ed0	-0.04500670915345284
178	0x3fca82e526a03749	0.20711960207011718
179	0xbfc2f871c31083ad	-0.1482069208587097
180	0xbfcd14d872e516c7	-0.22719865427114014
181	0xbfc1ac6cf51fb4ee	-0.13807451218546113
182	0x3fc3eb398a13f19e	0.15561599008641464
183	0xbfae445de84fe494	-0.0591153474887928
184	0x3fb0a1badffb540c	0.06496780365280602
185	0x3fbd59abdc36210d	0.11464952589279083
186	0xbfd2da8e3db27e61	-0.29458957696076565
187	0xbfadeba4e300f4b5	-0.058438446722428074
188	0x3fd4ed6fd3a9f819	0.3269919936209376
189	0xbf675d09847db3f7	-0.0028519807710183326
190	0xbfc838ad4ff88bbb	-0.1892296448214362
191	0x3fab72bd6ab020c0	0.0536097710356116
192	0xbfc45ce7c156d161	-0.1590852445639355
193	0xbfbda684dc4306b0	-0.11582212808118686
194	0xbfc9ec47961044a8	-0.20252318217584286
195	0x3fc1fa5fb3a67f8b	0.14045330306998624
196	0xbfab8eee8c4f399d	-0.05382485831033821
197	0x3fa5a1d3e2488c8c	0.04225027215240926
198	0xbfca088ef192c360	-0.20338618083544713
199	0x3fb9fb81555ea073	0.10149391493053077
200	0x3fb9a9330aaac8c0	0.10023802767207979
201	0xbf93c9fb56bf6f97	-0.019325186891236603
202	0x3fdd452dd92da1d5	0.4573473568803171
203	0x3fa231e914e5ed39	0.035537036706012555
204	0xbfd1edfc1ab8fc82	-0.280150438400547
205	0xbfd7e7d5eebcf879	-0.3735251265933424
206	0xbfc4457941bc4336	-0.1583701678250919
207	0xbfbfc8500db5d1c4	-0.12415027937624418
208	0xbfc3ae254ee3ae68	-0.15375200607319361
209	0x3fb4fe1bd59655b8	0.08200239147693977
210	0xbfc3372c0ec10a8b	-0.15012121887601312
211	0x3fc04615b30e14bc	0.12713881724281417
212	0xbfb87da5521f557b	-0.09566720251981124
213	0x3f78d571749cd13d	0.0060629302841344575
214	0xbfcaea6e2ebed3f4	-0.2102792480706338
215	0xbfc4b00d851f1586	-0.16162270546025698
216	0xbf84e3b0c660118e	-0.010199910215313659
217	0x3fb82496e6448879	0.09430831071634484
218	0x3fc97965a45946d0	0.19901724362221396
219	0xbfba34cdd05ff399	-0.10236822449947026
220	0x3fc6a6d703bc6f22	0.17696654970574693
221	0x3fa5ebb38e3d00e2	0.042813883889268003
222	0xbfc15bcb8cac1df0	-0.13561386460081293
223	0xbfa10534ef21a6d8	-0.03324284953198536
224	0x3fc1b06dace6387c	0.13819666807507136
225	0xbfd7fe872b368734	-0.3749101564409216
226	0xbfd200f9a449d68c	-0.2813095192317199
227	0xbfceccecd930fdb7	-0.24062882046744757
228	0x3fa169cd3df3c229	0.03401032811405386
229	0xbfb014791e35e02d	-0.06281239497718678
230	0xbfc70df215d61eeb	-0.18011308733206674
231	0xbfbf45c5448165c1	-0.12215836451050334
232	0x3fc46dbbef1dd035	0.15959881950004876
233	0xbfa5762be3c575f0	-0.04191720157062295
234	0x3fd2211db8cf5a0b	0.2832712464127389
235	0x3fc04c95fd5426ad	0.12733721608701867
236	0xbf9e9feaa1cf0715	-0.029906908155459783
237	0xbfb1e0269c1042e7	-0.06982652006287147
238	0xbfd035460dbd8bac	-0.25325156537854343
239	0x3fcb0859d641be8d	0.21119235002287376
240	0xbfb94c346af573a4	-0.09881904231356359
241	0x3fc0e5c2a524ccd8	0.13201172889384938
242	0xbfd21512e60d9503	-0.2825362440692773
243	0xbfc8d34f8dc1e7aa	-0.19394869252920205
244	0x3fc90bc2ef4a6df9	0.19567143138998214
245	0x3fd0f069f51b0c03	0.26467369972323257
246	0x3fc38c5624c5299c	0.15272023005884428
247	0x3fd6dd7a2f46983f	0.35726790062688346
248	0xbfc626df4b75e479	-0.17306128677936153
249	0x3f9a7597a16dd3d6	0.025839204051823682
250	0x3fc4cd8e5f998aa6	0.16252307575185404
251	0x3fc5666c76bef75a	0.1671882228674189
252	0xbfcf3f2e69486b1a	-0.24411564007535774
253	0xbfc322c2de873e09	-0.149498327881233
254	0x3fc1e96b433cbc62	0.1399358824068911
255	0xbf83dd66502ab66d	-0.009699630090234746

base.actor.actor_fc1.bias f8 [64]
0	0x3fc496411826edee	0.16083539656925389
1	0xbfbeb96174c7278f	-0.12001618481659036
2	0xbfc4ac31e0421bea	-0.161504969121068
3	0x3fc92c903d489e23	0.1966724681126247
4	0x3fce9731d1497558	0.23898909300889204
5	0x3fb2c0c2f2dbc555	0.0732538073459826
6	0xbfcc693fe59771f0	-0.22196196280027847
7	0xbfb7c123983f511a	-0.09279081789947377
8	0x3f75bf546598d539	0.005309419322249647
9	0x3fcc668c6f36284c	0.22187953405620175
10	0x3fc97f4c3b456f4a	0.19919731992819784
11	0xbfa93bc2e3aa4ef5	-0.04928406743161232
12	0xbfcb980a9c329de1	-0.2155774367031276
13	0x3fbe4e3ede7345bc	0.1183814328280936
14	0xbfb61d93bb666580	-0.0863888103980539
15	0xbfc1cb18ae3f1938	-0.13901051052216373
16	0xbfcb6025a7b4f068	-0.21387167633827464
17	0x3fcc87467d8e43ed	0.2228782761635836
18	0x3fc6ac459be78f8f	0.17713232147718513
19	0xbfc2c59b9935555c	-0.14665551167369528
20	0xbf9bb8ecc3eb0063	-0.027072619874843783
21	0xbfb346efa687297b	-0.07530114951729232
22	0xbfcb2609c9a0dda0	-0.21209833474288775
23	0xbfba6c60b96d736d	-0.10321621443786251
24	0x3fc50a087f4890bf	0.16436868872654561
25	0xbfc4204215635c41	-0.15723444027273284
26	0x3fbbe4ff290bb3b8	0.10896296264736705
27	0x3f9694dbe659f3f8	0.022052226957828908
28	0x3fd2231d694a410d	0.28339324266654914
29	0x3fcb502c30c628a6	0.21338417417093075
30	0xbfb7e007fe3d8b51	-0.09326219517747104
31	0x3fa7d7bfe87630db	0.046567914129896436
32	0xbfbca0af496120ec	-0.11182685414781063
33	0xbfa81486ca895b95	-0.04703160498018303
34	0xbfacea10da12065d	-0.05647328054420762
35	0x3fc13f6f0115462b	0.13474834015737377
36	0x3fb9cac724a77686	0.10075039524914517
37	0xbfc3df00614efb5d	-0.15524296523468709
38	0x3fc883cb06d323ae	0.19152200539818182
39	0xbfa8d27ab40a0ec5	-0.04848082969422544
40	0xbfd5fda864e8e7da	-0.3436070428321024
41	0x3f675752e3fbb797	0.002849256415962519
42	0xbfb8ce24c9392404	-0.09689550316501544
43	0xbfd371e46c6ba71e	-0.3038264330667618
44	0xbfc8712e5abc65c9	-0.19095401220765343
45	0x3fab0e0c755edf92	0.0528415578150422
46	0xbfa1abad5e657608	-0.03451291825579622
47	0x3fc7d22d818d9843	0.18610161615214524
48	0x3fb33917262f9cb7	0.0750898807742598
49	0xbfbaff7326daca8f	-0.1054603547916406
50	0xbfcb313587b2997f	-0.21243924260961575
51	0xbfb95ecdb99266a4	-0.09910283833087391
52	0x3fcc7b387d2e3373	0.22251039612128984
53	0xbf8a2ffc6028d63c	-0.012786838230662949
54	0xbfcc07207a308ce2	-0.2189674946431302
55	0xbfd258544e53dd5d	-0.28664119385890335
56	0xbfb6b06e95b69301	-0.0886296382437415
57	0xbfd25b27d6b40233	-0.28681369750123337
58	0xbf617fdae1671887	-0.0021361613282549516
59	0x3fc238bb5cf3ac36	0.14235631979622249
60	0xbfc8f56b6cfd99ca	-0.19498961278732302
61	0xbfb30a0fb038b82e	-0.07437227299007595
62	0x3fbb2b80eafad6dc	0.10613256203472637
63	0x3f8063df53b0e984	0.008002991429852065

base.actor.actor_fc2.weight f8 [64, 64]
0	0xbfbab3fcf5e6b617	-0.10430890086600929
1	0xbf9b552ac2a76946	-0.02669207394669939
2	0x3fdc0bab52ad000a	0.4382122332935984
3	0xbfc66876deb5e0f6	-0.1750629985288083
4	0xbf98465e3aa36be8	-0.023705932930948054
5	0x3fc52ac7b465de5b	0.16536804493420018
6	0x3fcf92f896f37e4f	0.2466727006021636
7	0xbfd31528920b39ae	-0.2981664110383474
8	0x3fc5047b5fdbfb22	0.16419927769308013
9	0x3fa75c29d8642ae3	0.04562502638335333
10	0xbfb739c84caf682e	-0.09072543976017819
11	0x3fb5853b9b8aee54	0.084064221834461
12	0x3fdf9a0d90e1cb9a	0.49377764843591765
13	0x3f960dd2626eb218	0.021537101037823886
14	0xbf8e2b863a195c6a	-0.014731453559916303
15	0x3fd25db5cfc808ac	0.2869696168055593
16	0xbfab419abc69d52b	-0.05323489713638659
17	0xbfd6eb13d487713a	-0.35809798960487493
18	0xbfd9f21c61b2ad67	-0.405402274521029
19	0xbfb7f0cfd3ba962e	-0.09351824683343388
20	0xbfc529de5da57c02	-0.16534022877291937
21	0xbfa49d089b9b7c5b	-0.040260571475066974
22	0x3fd33f8e37024624	0.30075412151299674
23	0xbfc14dba6aa86ed8	-0.1351845761099557
24	0xbfc932e6405dd10c	-0.19686582701582045
25	0x3fd872a800aabc18	0.38199806275491843
26	0xbfd02b0a78cf7966	-0.25262700841803676
27	0xbfc1ef72ffd6e97b	-0.14011991016543476
28	0xbfc2c140f9b96394	-0.14652263825953737
29	0xbfc30e3fb248e02c	-0.14887233929926091
30	0xbfd3fe9abe4c7c4c	-0.31241482337822357
31	0x3fa697f4a1b7b356	0.04412807916728549
32	0xbfc105e6ffe3d3ae	-0.1329926251852646
33	0x3faf74b6173ea577	0.06143731149434022
34	0xbfa93a26532208d7	-0.04927177204901206
35	0xbfb19caa85f17851	-0.0687967850694531
36	0xbfa0267c2c311c76	-0.03154361762477091
37	0x3fc11af681faf23b	0.13363534304325406
38	0xbfbdc385a992c9a6	-0.11626468076682403
39	0x3fc462a7a37afba9	0.15926070673409967
40	0x3fb823df794e0b5b	0.09429737769646122
41	0x3fa7f9510bde9fc6	0.04682400960820092
42	0xbfa13b281a15d924	-0.03365445440697304
43	0x3f7491d057b2c008	0.005021871412438379
44	0xbfbd6a56b49fa938	-0.11490384969480238
45	0xbfc95c1271cbd620	-0.19812231594521368
46	0xbfb339750579f771	-0.07509547599508239
47	0xbfc038d652dd063f	-0.12673453374923047
48	0x3f997cc7b69a1692	0.024890060920844954
49	0x3fac268162967e91	0.05498127296891398
50	0x3fd3cdad27645b4c	0.30942849013211027
51	0xbfbb89063feeee4b	-0.10755957661506803
52	0xbf84da95bef747b4	-0.010182542696302345
53	0xbfd11ce409264eb4	-0.26738835233229996
54	0x3fd36774c711716b	0.30318946304557554
55	0x3fc1f0f27913a4bd	0.1401656237788184
56	0x3fb042ae4a42698a	0.06351746857618515
57	0x3fd122a506317ffd	0.267739540146067
58	0xbfcb1db6afbc5d14	-0.2118442876896799
59	0xbfe255d3fe440fa8	-0.5729770628099589
60	0x3fc529600f7558a9	0.1653251719932929
61	0xbf9b7894155228c2	-0.02682715778477341
62	0xbf8db3eb4dcdd22d	-0.014503324806107798
63	0x3f92cfdcc1685790	0.01837105684725021
64	0xbfb10d60cbbd48b7	-0.06661038374048443
65	0x3fa50bcbde5ec21b	0.04110562409858095
66	0x3fc0da5fa02615da	0.13166423148884016
67	0x3fcbcb533eaf7db1	0.21714249192062376
68	0x3fb281b8f64a6eda	0.07229190838773594
69	0xbfc59088d110e139	-0.1684733410672921
70	0xbfd1290a6c082a14	-0.26812992620458087
71	0xbfd3fe2bb76542df	-0.3123883524868187
72	0x3fc050737a9d9fed	0.12745517241569307
73	0x3fd0eedf064c3e45	0.2645795403959464
74	0x3fcbe2fc23d82bfd	0.21786453008857612
75	0x3fc21a3cc51a05d4	0.14142570137123178
76	0x3fb3d8ab7913bf63	0.07752486902222482
77	0xbfc18e28a2d87653	-0.13715084029620303
78	0xbfd1fa27b54ccddc	-0.2808932562358828
79	0x3fc2e02acf1d422a	0.14746604073526842
80	0xbfbc520b05bed247	-0.1106268776919218
81	0xbfb515e162ce0994	-0.08236511862017998
82	0x3fc3e8690a87a9ea	0.1555301000037866
83	0xbfd01c42eebc3f39	-0.2517249423408319
84	0x3f940cdc55d7267c	0.019580309619220845
85	0xbfbad7b43382beb1	-0.10485388047777168
86	0x3fc227c59fe5b679	0.1418387442349063
87	0xbfd22218cc9ffdfa	-0.2833311079302515
88	0x3fb2cc120fa71f6f	0.0734263694968129
89	0x3fd015f869727f42	0.25134096429427555
90	0x3fc77401901d3bae	0.18322772538018967
91	0xbfb31f924d7de387	-0.07470049278152945
92	0xbfc23d97b9ab377e	-0.1425046593271268
93	0x3fdd9f015331d07f	0.46282990574332666
94	0xbfd3f74aec222241	-0.3119685464849092
95	0x3fb21529cc2ee41f	0.0706354259008468
96	0xbf8a7e11aec3079c	-0.012935770173843335
97	0x3fc89172b6eebc31	0.19193872387174474
98	0x3fa65696fbb1dbad	0.04362937757917194
99	0x3fc45ab3c2bef0b0	0.1590180111796875
100	0x3fb32e49d5b3c792	0.07492505519237927
101	0xbfb0a6ac74434433	-0.06504323805280947
102	0xbfc074a8034a455e	-0.1285600677552265
103	0xbfc1ae3072b8aae3	-0.13812833406094346
104	0xbfb58759e8f5ee42	-0.0840965455772045
105	0x3fa083684518953d	0.03225255816895831
106	0x3fcd55c537518c7b	0.22918000413037362
107	0xbfcc5736c080d7ed	-0.2214115562398428
108	0xbfcda1781212a792	-0.23149014360870673
109	0xbfc1ed58cd4fd747	-0.14005575203889917
110	0xbfd5f88915ad7be5	-0.34329440228424196
111	0x3f979cd8b830a5e1	0.023059259645526246
112	0x3fc818cfb76813ac	0.18825718360326726
113	0xbfc9061eb3c42eb4	-0.19549926545766072
114	0xbfae577c21c2d8f1	-0.059261206742506796
115	0xbfe4c4611a53a04b	-0.6489720834915799
116	0x3fcccca2c34f2ca5	0.22499498879037563
117	0xbfca4d9c26e4f004	-0.20549346827635884
118	0xbfcb6a98021fccf2	-0.2141904840824292
119	0xbfb4a7615e3db1ab	-0.0806790213661716
120	0x3f9766bcbe06543d	0.022852849100292828
121	0xbfd05321555729ee	-0.2550738652613792
122	0x3fbf1526e0c5a019	0.12141650188061738
123	0xbfbd73551c7315af	-0.11504108376092036
124	0xbfc732c4ac2b9c28	-0.18123682410006947
125	0x3f98b5e3c0353209	0.02413135395663527
126	0xbfc9d7068c54d445	-0.2018745598994959
127	0xbfb682dc351c864a	-0.08793426796594264
128	0x3fc695c959349098	0.17644612174729413
129	0xbfba4adcf72f7fe3	-0.10270482096484516
130	0x3fab889ff48869d6	0.05377673969288181
131	0x3fce74312008e803	0.23792089523504964
132	0x3f9830f451804bd9	0.02362424609607303
133	0x3f412de14b3f1f72	0.0005242681568171494
134	0x3fd20045c420316c	0.2812666335383003
135	0x3fc5877a5b724177	0.1681969591632073
136	0xbfc80faac12e6f20	-0.1879781192081902
137	0x3fcb2c10e8b23655	0.21228228914371763
138	0x3fd298820a9b8a01	0.2905583480443568
139	0xbfc0c49fd43f5a4f	-0.1310004984249695
140	0xbfb32abc40fd86e1	-0.07487083994558531
141	0x3f932bff69fed5eb	0.018722525448273613
142	0x3fc2de8240fd77d8	0.14741542981476985
143	0x3fb12332f21de1e1	0.06694334422161986
144	0xbfbf13a138d3a847	-0.1213932765710136
145	0x3fc33f4e70f61b6a	0.15036945834819032
146	0x3fa4626843cfa06a	0.03981328799983504
147	0xbfc39111ae95a0a6	-0.15286465668328225
148	0xbfb8de2976da787d	-0.09713992263502465
149	0xbfd2da19becaae75	-0.2945618022156176
150	0xbfa24258ed392e20	-0.035662440259866424
151	0xbfbbf2923894e859	-0.10917009240520893
152	0x3fb8bf04c0155a78	0.09666471185242098
153	0xbfabe981a64c1e06	-0.05451588778492682
154	0x3fd2fbf0902f3bb7	0.2966271789600187
155	0xbfbdd8f5f297284e	-0.11659180805796263
156	0xbf985c96e6e90f25	-0.023790700763370105
157	0xbfa7652f1a498254	-0.045693847617034905
158	0x3f8d8b1f0cf4bc05	0.014425509055028493
159	0x3fb2f37065a788f2	0.0740270851306695
160	0x3fcef696988280ea	0.2419002766300829
161	0xbfc9baf41750109a	-0.2010178674537471
162	0xbfb26e405403c193	-0.07199480105533089
163	0xbfc7b232cb1d06a8	-0.18512568395276685
164	0x3fd0b4c41af43ac0	0.26103308326939256
165	0x3fc61f5e82cf91fc	0.1728323115086282
166	0x3fb9b4442d099815	0.10040689563319945
167	0xbfb3a8264f34b513	-0.07678450998055934
168	0xbfcc5677cabbf69b	-0.22138879202968983
169	0xbfaec83e1314fb99	-0.060121478871671026
170	0xbfa20bc3400d2045	-0.035245992249258985
171	0xbfb4a16d252db1d3	-0.08058817060163585
172	0xbfb7c39f74c1acca	-0.0928287181902078
173	0x3fc422841426e31e	0.1573033426664318
174	0xbfb562e784d946f1	-0.08354041093232546
175	0xbfc0151485b780e1	-0.12564331559315803
176	0xbfa4d123caaa9a16	-0.04065811013179059
177	0x3fb08b287a4b0375	0.06462338433904143
178	0x3fd134b870e22ba9	0.2688428022744867
179	0xbf84ae54a1fd3cb3	-0.010098134225385946
180	0x3f8979aa1278dd95	0.01243908757088156
181	0x3fc1bb4111a81bca	0.13852704393522536
182	0x3fb6b8d88c814cd0	0.0887580245046593
183	0x3fc681ced9c43f68	0.17583642609724426
184	0xbfa567c27f11c102	-0.04180724908008139
185	0x3fd1ec63f0b587bc	0.28005312449215203
186	0xbf938d6c28b84780	-0.019094171510068758
187	0xbfa2e70e911b2ede	-0.036919074261815274
188	0xbfaf1c202648621e	-0.060761456177889736
189	0xbfcb26258e9368a2	-0.21210164510450108
190	0xbfb29afc786b5546	-0.07267740192340452
191	0xbfa07a6887f5ecff	-0.03218390140224336
192	0x3fa35d646249a1dd	0.03782190036583064
193	0xbfb9f87dcee810a7	-0.10144792844227145
194	0x3fbe1f3550cae534	0.11766370031809431
195	0x3fb194bb2dc0e8cc	0.068675707502652
196	0x3fa710649d690197	0.04504694386969559
197	0xbfc5d8d20f33486b	-0.170679337904008
198	0x3fa24b11566dc076	0.03572897129095136
199	0xbfd77b2c0b808463	-0.3668928253483214
200	0xbfa74cc8e23ef822	-0.04550769578735038
201	0x3fca5ee1894b8040	0.20602053836683076
202	0x3fd186139a484cb0	0.2738083845772037
203	0x3fce22c4b5433f31	0.23543604708401625
204	0x3faea725debeb2a4	0.059868987503567866
205	0xbfc326059c0bb582	-0.14959783667965715
206	0xbfa208621094f205	-0.035220207714221664
207	0x3f661a325172850d	0.002698038365978156
208	0xbfb21e2e8d2de885	-0.07077303835640876
209	0x3fbc752c8ddbb02b	0.11116293395360859
210	0x3fb1ee44a3e8ea07	0.07004193307594885
211	0xbfbdeb2e1f00c42f	-0.1168698144617941
212	0x3fc0547bbc862f8f	0.12757822709351926
213	0xbfc1c5c704c26878	-0.138848187755517
214	0x3fd723dd59c15dee	0.3615640045659053
215	0xbfc047eadf4fa93b	-0.12719474700799957
216	0xbfb12070ccc0ccb6	-0.06690125464301641
217	0x3fb103e168c63f54	0.06646546180695384
218	0x3fb4e81099285699	0.08166602839659233
219	0xbfac111d37f73f69	-0.05481807048965843
220	0xbf71083ad52e75e5	-0.0041582391885674795
221	0x3fd43b74073d999d	0.3161287375172835
222	0xbfd3fe8d4f9fda44	-0.3124116208631771
223	0xbf9c04db91f45859	-0.02736228063903243
224	0x3fae331a81b8bd47	0.05898363908306208
225	0xbfd106d132f6c07e	-0.2660410878843392
226	0x3fb9689e3b579615	0.09925259541304172
227	0x3fe0248753119d6c	0.5044590589940703
228	0x3fb58c0609c009f5	0.0841678403667528
229	0xbfc2148aafa5722f	-0.14125188423612786
230	0xbfc183ffe06a8695	-0.13684080560510795
231	0x3fd182b3c0a00c91	0.2736024266343487
232	0xbfad1e1c80b8b232	-0.0568703562861156
233	0xbf8e4ecd29727e67	-0.014798739268655227
234	0x3fc95eae3732a9be	0.1982019204636582
235	0xbfced336a6d67933	-0.24082072397590934
236	0xbfc895c982bc57d0	-0.192071141086386
237	0xbfbf1a3d6e395d10	-0.12149414006249892
238	0xbfc6a34859539c70	-0.1768579898991649
239	0xbfd028dd0310c349	-0.252494099610932
240	0x3fcf2e422c7a8edd	0.2435991971188888
241	0xbfe187c448cd4e82	-0.5478230878747612
242	0x3fc25f99bc43839c	0.14354249661030571
243	0xbfb3a22ea7ac0e76	-0.07669345468098662
244	0x3fd44374d780ce58	0.31661721272687293
245	0xbfd7fbb5ea90fb2c	-0.37473819643848816
246	0x3f705b09d6d62c05	0.00399307101668978
247	0xbfd822a020be65fc	-0.3771133727801439
248	0x3fc0e99e76a9a26c	0.1321294860274692
249	0xbfc40298947ffb9e	-0.15632922411893174
250	0x3fb6ccc089f366cd	0.08906176917971749
251	0xbfd647a4a2aae7cc	-0.3481227482367302
252	0xbfd789dd9549e89e	-0.3677896459481732
253	0xbfb5f0fd7b136455	-0.0857084680059342
254	0xbfc58681f19fd07d	-0.168167345982173
255	0xbfc17c7db7b2e329	-0.1366116663901036

base.actor.actor_fc2.bias f8 [64]
0	0xbfd31aa2a9f17084	-0.2985006961441814
1	0x3fcb26acd2a42f12	0.21211777005407179
2	0x3f9f35915430ec21	0.03047778202401841
3	0x3fb9d833c1ad3f7b	0.10095523336826588
4	0xbfc9829b6598146f	-0.19929830990455197
5	0x3fd2ca8b03b6e900	0.2936122452043861
6	0x3fc57e0b870381ad	0.16790908901658722
7	0x3fd23788f42abcc2	0.28463958591869354
8	0x3fb8f065528400b1	0.09741814865629085
9	0xbf91786fbc7a938a	-0.017060991171678398
10	0x3faa728e30760ebf	0.05165523854796338
11	0xbfc06e7a8cd4f686	-0.12837154270703283
12	0x3f888a556ef1c949	0.01198260063958813
13	0x3f75f96e0ee5ec18	0.0053648280285143665
14	0x3fafc854a8fc2260	0.06207527697376203
15	0xbfbef329b3d4ebda	-0.1208978714029593
16	0xbfa828a24ada572a	-0.04718501247150038
17	0x3f96520a0d567570	0.021797329963751222
18	0xbfb732c0ff8e3530	-0.09061819304607321
19	0xbfc536c1cdc81485	-0.16573355243614088
20	0xbfc5dc2475f85c33	-0.17078071365605893
21	0x3fb9270db4671a85	0.09825215963710761
22	0x3fc6e001356ef4a7	0.17871108159116497
23	0xbfbd1e3dfc8153ff	-0.11374270834615173
24	0xbfc23212f86fedc2	-0.14215314036105836
25	0xbfc2026304a7df98	-0.14069783904392064
26	0xbfc39f5c4ba08655	-0.153300797393103
27	0xbfbb283c6d32b474	-0.10608270326584252
28	0xbfb8a0309e4d6ca5	-0.09619430413060799
29	0x3fc40f934ec7e405	0.15672532412261844
30	0xbfc30f4ca97764d1	-0.1489044024918145
31	0x3fb7c7d1b8a0e534	0.09289274938136743
32	0xbfb05c907cc22c19	-0.06391242071019611
33	0x3fc7a46f730332fe	0.18470566860050747
34	0xbfc24a4a73a413db	-0.14289217611818014
35	0x3fa0aefe0dcc035b	0.03258508604449758
36	0x3fb27959be1b9966	0.07216416255287114
37	0x3fbeb3d67afa541a	0.11993160726918042
38	0xbfb9643dbd318f22	-0.0991858088396467
39	0xbfb56ee49b892bda	-0.08372334286939012
40	0xbfb9620bd28a5674	-0.09915231599947011
41	0xbf83ac4ccfb1c97f	-0.009605980003674073
42	0x3fbf7caba0850d48	0.12299606961191956
43	0xbfa75049e9f3b58e	-0.0455344293676304
44	0x3fb6e6c359d2a885	0.08945866530362608
45	0xbfce53639a1bc33f	-0.2369198324663788
46	0xbfc469baf6ce7120	-0.15947663355917374
47	0xbfb03857ff881835	-0.06335973728718687
48	0x3fc2d11f0e5dcbe2	0.14700687600597379
49	0xbf7da6c35029e228	-0.007239115659665653
50	0x3fc0ec2d8f1aa1e2	0.13220757949353784
51	0xbfc4f167f160c9b6	-0.1636171272853752
52	0x3fb766d4612a6226	0.09141280529218729
53	0x3fb4a38c2e5d3252	0.08062053806242744
54	0x3fbd0881641aa4d3	0.11341103261897283
55	0x3fd3054fe0283969	0.29719921961159074
56	0xbfc6f4af682dffdb	-0.17934219920061775
57	0x3fb675f312ebfd89	0.0877372666545765
58	0x3fd6390fcbf18071	0.3472327701219973
59	0xbfb978ba682bf6cd	-0.09949841540580025
60	0xbfbff16a49bdd3e3	-0.12477745342569295
61	0x3fa26b456beb9bb2	0.035974664138670134
62	0x3fb2144c6232b9a1	0.07062222859779023
63	0xbfa0f463d5ffc6aa	-0.033114547608318404

base.actor.actor_fc3.weight f8 [4, 64]
0	0x3fb7d2b841dace17	0.09305907829075753
1	0xbfb3112fbeeb3593	-0.07448099528411083
2	0xbfb80d005b5d6af1	-0.09394838553036401
3	0x3f8f7daec59ad507	0.015376439481182403
4	0x3fbafa899b989930	0.10538539932949642
5	0xbfaf2a6cf9b3527b	-0.0608705572900918
6	0xbfc0a8363a3805d9	-0.13013341753689536
7	0xbfae673485ec339e	-0.05938114294813278
8	0xbfb4c11164b96943	-0.08107098301971853
9	0x3fa3cb1b91eb05ff	0.03865896373964616
10	0x3fb102de3b23e475	0.06645001357891707
11	0x3fb24689b7e753d4	0.07138882388910811
12	0xbfb14c133d1867bb	-0.06756706468186639
13	0xbfb2eb010cd9cdd2	-0.07389837802639157
14	0x3f978eee3ca2980a	0.023006174517512114
15	0x3f9303338b12a375	0.018566899646120533
16	0xbf80c79070783273	-0.00819313853482948
17	0xbf994c725e706580	-0.024705683721639726
18	0xbf693ee11379cdd9	-0.003081740953172246
19	0x3fbb281a86737405	0.10608068258757448
20	0x3fc4baf7c6f97737	0.16195580688047936
21	0xbfa46244ffb66a7e	-0.039812236990845115
22	0xbfb81163d01ab452	-0.09401534872695663
23	0x3fb499861a3f67df	0.08046758786022633
24	0x3fb0e521713aca8e	0.06599625601192313
25	0x3fb3c8579603d708	0.07727572834468444
26	0x3fbc9a305ceaafa5	0.11172773617243921
27	0x3fa7081db8049ee4	0.044983795846119695
28	0x3fac629c40365983	0.05543983730165094
29	0xbfab99664dadd264	-0.053904721243189596
30	0x3fa7301b9347a824	0.045288907745842516
31	0xbfb0b12a5572adee	-0.0652033289540481
32	0x3fb64b87be263061	0.08709000007928715
33	0xbf9ba1c60aac501c	-0.02698430481093804
34	0x3fa2aac5289570e9	0.03645912285239367
35	0x3f3e55c29beb0e4b	0.0004628753776325419
36	0xbfb5bf5531277d91	-0.08495075655036134
37	0xbfa5535866f0b321	-0.041651499334284255
38	0x3f9a48001c47580e	0.025665284849161245
39	0x3fa9fc64b5210ffb	0.05075373374032207
40	0x3fa4e206693c7ab6	0.04078693422910844
41	0x3f610d5255533dbb	0.00208154755328113
42	0xbfaf221bf11b4209	-0.06080710714525501
43	0x3fb4f7b0b8fbabe5	0.08190445438565026
44	0xbfaf8a5f6dff69a2	-0.061602575471357626
45	0x3fc261f9b17ad372	0.14361497083669011
46	0x3fba19df3373d925	0.10195727354207358
47	0xbf9914178091e286	-0.02449070665577093
48	0xbfab69e7d9f16216	-0.05354237113414599
49	0x3f944aa6babdb72a	0.019816022060175666
50	0x3f7b461239a97be4	0.006658621971467025
51	0x3fbb45912be55b97	0.10653025933912229
52	0x3fb6747c3db0b8b9	0.08771492487059875
53	0xbf9fd64b0a99c946	-0.031090900918976837
54	0xbfb7c8f574de0923	-0.09291013816076492
55	0xbf9998dad22fe66f	-0.02499715717201528
56	0x3fb54ac746b8ee45	0.08317227818127389
57	0xbfa6e39ee0e9f034	-0.044705357508945914
58	0xbfb2872acecd736c	-0.07237498806848713
59	0x3f9e18d337ffbb96	0.02939157513895515
60	0x3f8905b1a42dc643	0.012217891524161867
61	0x3fb3e1569981a35b	0.07765713927950683
62	0x3fa349d19896c749	0.0376725672498553
63	0x3f8ed97f0398a13d	0.015063278481719617
64	0x3fbf16bae51b9c26	0.12144058316663173
65	0xbf6b4587bc67a6c3	-0.0033290530293371436
66	0xbf9c4d6c097ca8b0	-0.02763909156707517
67	0x3f74653071f4435d	0.00497931407814253
68	0x3fa48c48dfd793bc	0.04013278706023679
69	0xbfba857f4846ff85	-0.10359950556357773
70	0x3fac4b06464405d8	0.055259891583783805
71	0xbfbac47cc2b00129	-0.1045606589614222
72	0x3fa903d1bc5ae471	0.04885726379638634
73	0xbfc01e8a35adc0db	-0.12593200322181172
74	0x3f9cb3261504213b	0.02802714827797213
75	0x3f5e789a6449f66d	0.0018598087055176308
76	0xbfc5bae26fae790e	-0.16976576283645567
77	0x3fb930549933a1c2	0.09839371433520852
78	0xbfbf98265abe9dc7	-0.12341537204212392
79	0xbf8d64912591c131	-0.014351972540879917
80	0xbf85253cc2256009	-0.010324930834642048
81	0xbfc388a1cf587a6d	-0.1526071798734451
82	0x3fb349036c21bdae	0.07533284559189354
83	0x3f7c9951aafff993	0.006982153907300409
84	0xbfa2dde62ef7653d	-0.036849206193162655
85	0xbfb09e074ad38bd0	-0.06491132332625615
86	0x3fa3d57b67c51400	0.03873811380120884
87	0x3fb0dbda652f6197	0.0658546921762365
88	0xbf745268fdda2bb9	-0.004961404918172479
89	0xbf8cda0f15af5614	-0.014087789391775941
90	0xbf958a11cfb9cac0	-0.021034506133626563
91	0x3fa78be510e18a82	0.045989187536879875
92	0x3fcd33724e095407	0.22813252268193215
93	0xbfb74120370ac9d1	-0.09083749145319266
94	0xbf50ed03e15274b8	-0.001033071316931795
95	0xbfc52ccee41d9342	-0.165429936775718
96	0xbfc09894e5d06515	-0.12965642186535634
97	0xbfa83836a49a8ed3	-0.047303874581556514
98	0x3fbbf979efe3bb12	0.10927545649222406
99	0xbfbd0488294eda44	-0.11335040100571186
100	0x3fb72524de076004	0.09041052265763488
101	0x3f97f296e5c80986	0.02338634278749787
102	0x3fbc68fc94b631e0	0.11097696905762389
103	0xbfad9f39cb438cbd	-0.05785542112587325
104	0xbfa8d2a2485485d1	-0.04848200924812896
105	0xbf8c0cfd4e995998	-0.013696650468017421
106	0xbf85cc6d57e43af8	-0.01064382004235885
107	0xbfb38c987944394c	-0.07636406860931294
108	0x3fb847db6ce94502	0.09484645279851026
109	0xbf84af2bb0a73968	-0.010099736526993211
110	0x3f8c3eff094dffd4	0.013792030784088562
111	0x3f9c9f21dfe96c17	0.027950791636936225
112	0x3fbbcf244b23da6c	0.10862948259805599
113	0xbfc5b495d7b1476b	-0.16957352668628842
114	0x3faf9b1124f0ff6b	0.061729942092369004
115	0x3fb0afe352988679	0.06518383757113523
116	0x3fb570c2e88c6cc7	0.08375185182051147
117	0xbfc9d347ac1538e1	-0.20176025297627745
118	0x3f8d815a43bcaca2	0.014406876747292966
119	0xbfb72cb41c62b3cd	-0.09052587216383685
120	0x3fbc4f23a193ee49	0.11058256811878055
121	0xbfa0754a6bd23933	-0.032144857084050925
122	0xbfbcfe8c1465f23b	-0.11325908182147597
123	0x3fc1042681deca91	0.13293916074106396
124	0xbf791b72d3e9bc2c	-0.006129692598377406
125	0xbfb771c26c22ec2e	-0.09157958164262034
126	0xbfc408a8b79d450a	-0.156514253287732
127	0xbfa4c35391e2eccd	-0.04055272250976714
128	0xbfca53af6a9a31ed	-0.20567887025062195
129	0x3fc55ff457be7bcb	0.16699079784754498
130	0x3fb19662ae3943ba	0.0687009501791768
131	0x3fb9e1a8486af277	0.10109950798045896
132	0xbfc53abe7261fb08	-0.16585522255987706
133	0x3fc2054f6a9d26a8	0.14078705507045197
134	0x3f988f31649685ed	0.023983737720873966
135	0x3fc0ce5eeffc3c86	0.13129793851883081
136	0x3fbf0e73144bd3f0	0.1213142323066021
137	0x3faf0ab819d110dc	0.060628655578087026
138	0x3f6926ec7b2dd4cd	0.0030703181050123264
139	0xbfc40c1b1992f67d	-0.1566194414971739
140	0x3fbbd1f0d53d38f6	0.10867219167741723
141	0xbfb11d8585128127	-0.06685671328387298
142	0x3fb307c704702890	0.07433742388107789
143	0xbfbcbae21cf7d4be	-0.11222661216000326
144	0xbf990fdea254e0c2	-0.02447460046570949
145	0x3fa226ca650fd547	0.035452198826457386
146	0xbfaa8c3cbbe69a09	-0.051851175248248955
147	0xbfc520b9d9a3d546	-0.1650612175650769
148	0xbf9e01ebe1499be3	-0.029304204583606618
149	0xbfa8b3e70a1b7ac6	-0.048247547134214794
150	0x3f801f5b549f94cf	0.007872308273315557
151	0xbfc1a0b2dd87bb69	-0.13771663491157973
152	0xbfbd12aed970c834	-0.11356633003814026
153	0xbfbdda42e4d587e0	-0.11661165320177203
154	0xbfb2f20d112c1fb2	-0.0740059058117584
155	0xbf632b13a80a9769	-0.002339876548222476
156	0xbfc381cbf995d0c2	-0.15239858328607708
157	0x3fb07a33ac820be5	0.06436465226765582
158	0x3fb96ff028432ab1	0.09936429007499716
159	0x3fc39d7bda09a042	0.15324352403990998
160	0xbfa6b1366edfd5f6	-0.04432077506491432
161	0x3fbe51343d7ccbb4	0.11842657567176113
162	0xbfc01e3e349598a7	-0.12592294280620317
163	0xbf85b8ed85a4b0e7	-0.010606628075571624
164	0xbfaa6918067b7415	-0.05158305243615061
165	0x3fc1e8d23b6ac921	0.1399176397440636
166	0xbfb99c98ee9e64b5	-0.100045736557507
167	0xbfa1ee00481100c0	-0.03501892928807271
168	0xbf8b3779a383b284	-0.013289404203953532
169	0xbfb1a98e447fe552	-0.06899346515992491
170	0x3fc22111e0fcd8a2	0.14163421140410032
171	0x3faf186e234ee0ab	0.060733262834618294
172	0xbfa14c9390696a44	-0.03378735673750957
173	0xbfc7cb6cd2eda99e	-0.1858955411838225
174	0xbfc2a98183411245	-0.1457979098214698
175	0xbfaa75a144b9b7f4	-0.05167869533475758
176	0xbfaba763516902f3	-0.05401144379402991
177	0x3fb447ed0276b8b0	0.07922250089788707
178	0x3fb887593ea1024e	0.09581525591875925
179	0xbfc2251fca9b99ad	-0.1417579402252164
180	0xbf9c53126bf62725	-0.027660644378136773
181	0x3fbb015415ad246c	0.10548902062613913
182	0x3fa279ce36421195	0.03608555233316505
183	0x3fc00cd81d7b9b59	0.1253919738730598
184	0xbfbff3fcc0336b2f	-0.1248167008629195
185	0x3fa0f5bae6d55dd4	0.03312477176467224
186	0x3fc5566130825b01	0.16669859760869346
187	0xbfb3e473abb0e9b1	-0.07770464841534054
188	0xbfb658223185ee48	-0.08728231152593324
189	0x3fab32334ecdfca3	0.053117373819071355
190	0x3f9ceb8d290a21a5	0.028242307309967924
191	0xbf939f856ad97143	-0.019163212439125898
192	0x3fa22231ad1e9561	0.035417129881617944
193	0xbfbcd282b6c5ec8a	-0.11258713686213376
194	0x3f88a31072d5b8c4	0.01202977037857201
195	0xbfc372d060e6302b	-0.15194134456066996
196	0x3fa79f8d1b436edd	0.04613915403180411
197	0xbf8a6027e307dea8	-0.01287871514885748
198	0x3fa2297ccac60aef	0.03547277426971173
199	0xbf57d772136f255b	-0.001455174829731418
200	0xbfbfb93ef48478bb	-0.12392037839569785
201	0x3f98e956e38c2b7b	0.024327619207763256
202	0xbfac47ff690a9796	-0.05523679883235315
203	0x3fbe75d3e67217b4	0.11898540855517475
204	0x3fb309ab3aa996b9	0.0743662851542365
205	0x3fad9d24af347635	0.05783953322155037
206	0x3f9af111ebf470a4	0.026310234095135457
207	0x3fbf72b6db8cac07	0.1228441511163255
208	0x3faa76b87dd039aa	0.051687016828611945
209	0x3fbb9382775f81ef	0.10771956838971851
210	0xbf8694b4460f54b8	-0.011025818241174754
211	0x3fb4e74d67bbcd44	0.08165439398344626
212	0xbfb5c31fb1712a2f	-0.08500860292512223
213	0x3fc371c103af94f6	0.15190899543737374
214	0x3f9767f9a706fed5	0.022857571429766594
215	0x3f91345d04d5200d	0.01680131284709323
216	0x3fb15580b78dfc88	0.06771091920198746
217	0x3fb3d3b617bcf040	0.07744920806447997
218	0xbf72226dc57ca0e5	-0.0044273651072119545
219	0xbfb9051136099d79	-0.09773356980587335
220	0xbfb40311e274c443	-0.0781718423720728
221	0x3fa9873d3cb5b64e	0.04985991827093682
222	0xbfc21add1fcbf3dc	-0.1414448170907282
223	0x3f91e72c13983800	0.017483414360008
224	0x3fc0394036bfd7b3	0.12674715684232538
225	0xbfb35c8ece9c477b	-0.07563107055855582
226	0x3f93d51299da2973	0.01936749519385601
227	0x3fc1a261b911819f	0.1377679971365184
228	0x3f9c14b3eb5b4019	0.027422724952714448
229	0xbfc3a83f15770890	-0.1535719733056493
230	0xbf5c29d30b35f369	-0.001718956086590862
231	0x3fae9f2e787454e6	0.059808208660038706
232	0x3fa6060c1b8cc0c5	0.0430148872022769
233	0x3fbbf3749f456348	0.10918358696416164
234	0xbfbc5067532c5c50	-0.11060186176870102
235	0xbfaad8ab02bfd7ab	-0.05243429573594879
236	0xbf74dba72708bebb	-0.005092289866794604
237	0x3fb62e2eed87f9f5	0.08664220141506702
238	0x3fa9fd5d328ad54c	0.05076113931628842
239	0x3fa67e250a1fd594	0.04393115757549562
240	0x3f91a31f81590c45	0.017223827619329297
241	0x3fa17e5b339f51ae	0.034167146731906115
242	0xbfc79bbc74773eda	-0.1844401901894262
243	0x3f96a388d43fc5a5	0.022108209566743437
244	0xbfb8f1f5acec1a35	-0.09744201156363703
245	0x3fb6b75876ce7e59	0.08873513126899847
246	0x3f91bca0885fd028	0.01732111770975578
247	0xbfa126ff0496e4f5	-0.03350064211867646
248	0xbf9a588ab5e7b10b	-0.02572838530788694
249	0x3f885309cbaffe6f	0.01187713291983458
250	0xbf89f02ac849dab1	-0.01266511367542242
251	0xbfaa0597e60d12c5	-0.05082392390480587
252	0x3fbb253a6b6990f0	0.10603680727360021
253	0xbfa4972fb3d7af41	-0.04021596021979557
254	0x3fbcd01ed9f102bb	0.11255066700779086
255	0x3fb1d4b9451ccfdb	0.06965215623205216

base.actor.actor_fc3.bias f8 [4]
0	0xbfbbe8f8b498281f	-0.10902361306230589
1	0x3fa4c484911b215a	0.04056181212723926
2	0x3fadb637faa280c7	0.058030843110147105
3	0x3f950dc69eb0caaa	0.0205603632313777

base.critic.critic_fc1.weight f8 [64, 8]
0	0xbfc9c2dfc02466b9	-0.2012595833010005
1	0x3fcd26b44090e005	0.22774365570671776
2	0xbfb2535f6342ba05	-0.07158466504436241
3	0x3faa1f57adbac813	0.051020374257305566
4	0x3fdcb201db3b04b8	0.44836470040543075
5	0x3fd238fc17e3629e	0.28472807247957543
6	0x3fc0d34d3f97bd83	0.13144841771234547
7	0x3fd1907729db60ec	0.27444247329323335
8	0xbfb069915334ac70	-0.0641108348979047
9	0xbfb04d2b07cd5642	-0.06367749157410521
10	0xbfca516782643653	-0.20560926310320102
11	0xbfaeb2a3d0811cb7	-0.05995666427821205
12	0xbfd18b9279740397	-0.2741438089433869
13	0xbff1034a98095797	-1.0633035601544856
14	0xbfa650bb26e209d7	-0.04358467912335911
15	0xbfaf91f59e61fb4f	-0.06166045721419399
16	0xbfcaa9d2261ec47f	-0.20830752240502545
17	0x3fbf3d369c5d256e	0.12202779118992677
18	0xbfdec16b872f829d	-0.48055542184560257
19	0xbfd230f515ddb8d9	-0.2842381204162741
20	0xbfaf58c2d8f25390	-0.06122406862520002
21	0xbfc3ad5e9bf8bc19	-0.1537283193187882
22	0x3fd2988a3a5b828d	0.29056029986353665
23	0x3fcaaa6ce672f275	0.20832597019570512
24	0x3fae0a2ac332df31	0.058671318366974375
25	0x3fdcc92bfda75ae8	0.44977855463859706
26	0xbfcacd3f81ca586b	-0.20938867413923687
27	0xbfd3dcf3ec611cc1	-0.31036089023514185
28	0x3fd325aaa184db12	0.29917398236595816
29	0xbfafb1676d97e12b	-0.06190036022957409
30	0xbf9c9fca28b77b37	-0.027953299269820788
31	0x3fb86e7f13fd9e4a	0.09543604124120822
32	0xbfb6ff2ec2f72758	-0.089831278418527
33	0x3fb70870b98eee8a	0.08997253923637963
34	0xbf97e533dfa06f2e	-0.02333527614983593
35	0xbfafe3873f3c8393	-0.06228277823379993
36	0xbfc3c60b7fdaa268	-0.1544813513076122
37	0xbfa1b95fbc816431	-0.03461741615382897
38	0xbfcc083aa620f6e0	-0.21900113212352945
39	0x3fc8b3da235b9bd1	0.1929886505742773
40	0xbfc03f1fd7568e08	-0.12692640318447013
41	0xbfac58bab3a1fd0d	-0.05536445086272055
42	0xbfdee3d54f9748b5	-0.48265583775095006
43	0xbfcd448e4e962bed	-0.22865465962635714
44	0x3fa39679cf9e650a	0.03825741443069759
45	0xbfb07e0594a671dd	-0.06442294005541478
46	0x3fce1ecda6515341	0.2353150426958113
47	0x3fd525cc5349802e	0.3304320157385544
48	0xbfa433fb865fff63	-0.03945909514732084
49	0xbfcf87eeeb8b9bbb	-0.24633585454213666
50	0xbfd59e289c3ee4af	-0.3377782369457902
51	0xbfdacaa671316e7c	-0.41861878446591283
52	0x3fd18f28d3e38c87	0.2743627614237955
53	0xbfbdc6f8bf4fe130	-0.11631731672958234
54	0x3fbb5b2f4af924c7	0.10686011867905441
55	0x3fac8b405e5f194b	0.05574990417476274
56	0xbfb4b2a041ff2add	-0.08085061656235433
57	0x3f87f3d6b9a0698f	0.011695554294466585
58	0xbfb87150840b3b56	-0.09547904227950474
59	0xbf94415439b5d58d	-0.019780460378986887
60	0xbfa1b7381a32cdce	-0.03460097617917378
61	0x3fb0c68eb11e8f9e	0.0655297453327521
62	0x3fb0eca1056a120d	0.06611067182718262
63	0xbfbd975a2e78e41d	-0.11559070238662668
64	0xbf9f61ae62069d90	-0.03064606164266831
65	0xbfb76c1ff0958d9b	-0.09149360297811031
66	0x3fafd354a3829364	0.06215919967625075
67	0x3fd1672d97e22c01	0.2719224913823269
68	0x3fd70ef3ac62171e	0.36028758844655495
69	0x3fe10dfc4164ed03	0.5329571988326339
70	0x3f9ee9d8390dfd89	0.03018892143472621
71	0x3fd5068159b3f3a0	0.32852205047657357
72	0x3fbe753bdc37e2f7	0.1189763462679244
73	0xbf7d12b060658494	-0.007097901316542327
74	0x3fd15551d1929057	0.2708324953657714
75	0xbfca41123c9709eb	-0.20511081655975202
76	0x3f61731064cc13e6	0.0021300621214117464
77	0x3fb020b000a673a0	0.06299877181886737
78	0xbfc54b7bb5aa7b2e	-0.1663660656967862
79	0xbf8f2a7bb8d114dd	-0.015217749192866165
80	0x3fbf1bfa30939324	0.12152064977597071
81	0x3fb5bcdd8ee33455	0.08491310823883798
82	0xbfd049a20e7a2ad4	-0.25449420369902254
83	0x3fba173b93d70dd9	0.10191700324417442
84	0xbfb6582b2638ac85	-0.08728284533633442
85	0x3fc307e2d81b4272	0.14867816497873637
86	0xbf9d1269e8297b46	-0.028390555186315745
87	0xbfa48e9f6c80c78c	-0.04015062522411403
88	0x3fc829321f9cefe8	0.18875719588856943
89	0xbfc168f2492efa3e	-0.13601521085179685
90	0xbfd30d0d28f37dd3	-0.2976715946114982
91	0x3fc22d15493959a1	0.1420008285082988
92	0xbfd05877be13097b	-0.2553996425814586
93	0x3fc76de703426b6c	0.18304145487931167
94	0x3fc13b3259cf2812	0.13461903939452263
95	0x3f95a75bf4c5af7e	0.02114623719664576
96	0xbfc12bcc398dd0b8	-0.13414910135509728
97	0xbfc801f6e9543fb1	-0.1875599517156821
98	0xbfd443ad26b00d7d	-0.31663063791366836
99	0xbfb60929d38ea414	-0.08607732214899527
100	0xbfb17066fca93c18	-0.06812137287600739
101	0xbfa8e71b07c276da	-0.04863819570276258
102	0x3fc3b8b03de6ce9b	0.15407374403513505
103	0x3fc4c73d5354ecc1	0.1623303086179018
104	0x3f9f733fb737f035	0.030713077123422933
105	0x3fc30a76d861dd29	0.14875684323826846
106	0x3fd6d568a80d7a44	0.3567754403247003
107	0xbfc884815ad6f19b	-0.19154374061134835
108	0xbfd3dab218335352	-0.31022312510804284
109	0x3fb54ee4a6ecadc8	0.08323506427102878
110	0x3fda6e39c904ca7a	0.41297764425977557
111	0xbfb54bdce2da5747	-0.08318882501984347
112	0xbfb312ddde937911	-0.07450663265214909
113	0xbfcbf3df792b208c	-0.2183799115794084
114	0xbfcdd1ea63d5515e	-0.23296861529037022
115	0xbfa16ca7b0cb06ac	-0.03403209717863595
116	0x3fe9249ce5508015	0.7857193449781358
117	0x3fe4d2ed4f3323bf	0.6507479235525507
118	0x3fc4953b71b9af7a	0.16080420544619384
119	0x3fdff368ba1e4962	0.49923151183715764
120	0x3fafa82c9eef07b5	0.061829943085754215
121	0xbfd5ba964ba6ec9e	-0.33951337230582534
122	0xbfa1e489045ef82a	-0.03494671038014048
123	0xbf87b071e3a5de85	-0.011567010650409113
124	0x3fd2f1d64444a92e	0.29601055781189956
125	0x3fc7b8122c35ab7f	0.18530490072893355
126	0x3fb1d44364c828d3	0.0696451302575583
127	0xbf891d87abaa27a0	-0.012263355184831515
128	0x3fc5e84d94d3e7a3	0.17115182654361857
129	0x3fd24f6633bfdbb0	0.28609614423424556
130	0xbfa8aa0fd39d1397	-0.048172468740211354
131	0x3fd7ee9735b5f62f	0.37393741841501343
132	0x3f8ef2d4faf85c5a	0.015111602696420135
133	0xbfde8de0e214e374	-0.4774095733478625
134	0xbf86e45f53608591	-0.011177773220029137
135	0xbfa3872f9bd62388	-0.038140762112624904
136	0xbfc954cfd7c60855	-0.1979007533628329
137	0xbfbbed987c7b7dd3	-0.10909417189713304
138	0x3fdceb31b72e9756	0.45185511483065477
139	0x3fc461ad905b143d	0.1592308955061145
140	0xbfe5612d7910890b	-0.6681125034849925
141	0xbfc728ac027ac318	-0.18092870827742824
142	0x3fa3617f25092ae7	0.03785321547601033
143	0xbf9d6a37b19f1275	-0.0287255003129467
144	0x3fbc1d3ad71e5fb2	0.10982101203842268
145	0xbfb44555492c2a2d	-0.079182939876923
146	0xbfb3aa134e87dce0	-0.07681389491323243
147	0xbf89546380b7d5f2	-0.012367989888825346
148	0x3fbc1fc751c96d56	0.10985990282772681
149	0xbf9da8528f84441c	-0.028962411889612225
150	0xbfc05e9ce6070efa	-0.12788735610785534
151	0xbfb90471efeaa467	-0.09772407634103929
152	0x3fc9e0e3841c3ecd	0.20217555952739588
153	0x3f89807f197b3b5c	0.012452118840341413
154	0x3fc93f4101c7148b	0.19724285685348195
155	0x3fb266f3e51bcda4	0.07188343375655976
156	0x3f76fdeee9c9c320	0.005613263373206917
157	0x3fd1d947ed9d4daf	0.278886777921083
158	0xbfe62190ba00ba1c	-0.6915973313205686
159	0xbfcc93c8c58b1406	-0.22326001783054056
160	0xbfaabd129bcaef94	-0.05222376014486865
161	0xbfbe71e97f9f34b5	-0.11892566076058382
162	0xbf8c93b7b7f101f2	-0.01395362405867304
163	0x3fa793e9a0f1098d	0.04605035867327265
164	0x3f885d0b1bde6ce9	0.011896216190328395
165	0x3fd61bdd9cbf060b	0.3454507857059929
166	0xbfc98cad2fecfa17	-0.19960560646173128
167	0xbfb309bb1ee25656	-0.07436723236090734
168	0xbfc0eba8b82dae53	-0.13219174378478957
169	0x3fdcfd8af5c5a446	0.4529750251882131
170	0x3fdf61d0e28be3e8	0.4903452122085228
171	0xbfb5baaafa58ba55	-0.08487957584359525
172	0xbfd21fcb2b0e10d6	-0.2831905289133493
173	0x3fb92194c820cbb4	0.09816865812244552
174	0xbf9a989074997a10	-0.025972611538572166
175	0xbf781d2737072146	-0.005887177642258051
176	0x3fbd11dad9e71a27	0.1135536939610594
177	0x3fdfde66ddc45c39	0.49794932991921176
178	0xbfbe5fd727a43c59	-0.11864990918933084
179	0x3fba879b62c9a200	0.10363169824416474
180	0x3fbe4ef274478fe4	0.11839213694435063
181	0x3f9e21bdfaf065be	0.029425590935806538
182	0xbfc73a9bb09cc5ac	-0.18147607921268383
183	0x3fb94a24313e241c	0.09878755762305541
184	0x3f97fbfb19c93df5	0.02342216820608019
185	0xbfa5b145af8df92a	-0.0423681046295193
186	0xbfdc86efa812e91e	-0.4457358495088942
187	0xbfac841290cf6b5c	-0.05569513337805773
188	0x3fe679dd979517a6	0.7023761711686702
189	0x3fe4c26e40389c3a	0.6487342123335857
190	0xbfc216163e02e503	-0.14129903819938514
191	0xbfb2b66835c98aaa	-0.07309581101575682
192	0x3fc35dc1a9159478	0.15129872089451957
193	0x3fc17c8691b3b4b5	0.13661272158006957
194	0xbfcc3d2cdf0e84a8	-0.22061692134324073
195	0xbfd738f419d59fb6	-0.36285116694352426
196	0x3fd19ad40f5572a6	0.2750749730819656
197	0xbfb4d6b319ab8361	-0.08140105606754623
198	0x3f8e37409bbdd2b8	0.014753823044637002
199	0xbfa3e08237b7534d	-0.03882224016311984
200	0x3fc4afaa4ff5601e	0.1616108789846757
201	0x3fc6983fce2627d1	0.1765212780558714
202	0xbfc473b2ee089fe8	-0.15978085158098954
203	0x3f9fd98c522d1d0f	0.031103317752493583
204	0x3f85532c18be33cb	0.010412544732185133
205	0xbfd1c3d80e70512f	-0.2775783673289593
206	0x3fc462e77082f161	0.15926831239438413
207	0xbfb7b51a7da04b4c	-0.09260716979069378
208	0x3fb2b3a77a308ca7	0.07305380566735896
209	0x3fa3169a009438b2	0.037281811304738524
210	0xbfb9206fb2ac51d4	-0.09815118896614844
211	0xbf8cf6b71c5820e7	-0.014142447044847418
212	0x3fcc3e8964010171	0.22065846808437642
213	0x3f671934e4b719cc	0.002819636638125211
214	0xbf8a297f59cc37eb	-0.01277446263113898
215	0xbfd07666a0cf012d	-0.2572266168972586
216	0x3fa4306dcc83952a	0.03943198319920278
217	0xbfd507d7cb34a8a7	-0.3286036953383111
218	0x3fc883b763c9cefc	0.19151966450191782
219	0x3f90714f4f82abe8	0.016057242610866412
220	0x3fc2cf598833be7b	0.146952811722702
221	0xbfc2414abb8f8e76	-0.14261755140534021
222	0x3fc64b196dab4a9e	0.17416684966027146
223	0x3fc7e148ea5930b3	0.18656264727394997
224	0xbfc5eeb6ef8f775a	-0.17134749123845944
225	0x3fac69b1ba5b1aa0	0.055493883131523036
226	0x3fcdc8087f905c9d	0.23266702870089243
227	0x3fb4f9f56849c359	0.08193906589600654
228	0xbfd492d271f8d10d	-0.3214613068587518
229	0xbfc6ba74ab776e9c	-0.1775651776541637
230	0x3fa4466011b7e10a	0.039599420702815705
231	0x3fc4b485607cc697	0.1617590638284596
232	0x3faf513a76643f64	0.06116659827432505
233	0xbfd579890299816e	-0.3355429196726821
234	0xbfa07c69a87e394c	-0.03219919378089972
235	0x3fc51998f7693a36	0.16484367447488218
236	0xbfc279ac31a294c9	-0.14433815406406428
237	0xbf934fe00f377bcb	-0.018859387329822213
238	0x3fb7803f268f5f4c	0.09180063907058161
239	0x3fda414216729957	0.410233041688476
240	0xbfd37860afe49bbf	-0.30422227074671676
241	0xbfca7f2065526d6e	-0.20700459430086532
242	0xbfc36952cbddb9ff	-0.15165171579742773
243	0xbfd32d5f85bf43c3	-0.299644356357984
244	0xbfd977d33474a4a8	-0.39793853876705976
245	0xbfb8366fd0f8d9e8	-0.09458063938004779
246	0xbfc1b965bbad6291	-0.13847037948541588
247	0x3fc1c7164a0287bc	0.1388881551147828
248	0xbf9b6e8871e190d6	-0.026788837385894514
249	0x3fc312ae22144d68	0.1490075746920454
250	0x3fcd34635e6f58b3	0.2281612597568646
251	0xbfd5378425a03d84	-0.33151343988807747
252	0x3fcce967276e7e87	0.2258728926217268
253	0x3fdf2082c67e16ee	0.48635930427586416
254	0xbf76fbb796c9d6ae	-0.005611149925803067
255	0x3f9625bd3e8d5b95	0.021628338759309768
