results/lunar/cmorl-ipo/0/final/EP_policy_40.pt (torch, 84361 bytes, 13 tensors)

base.actor.actor_logstd f8 [1, 4]
00000000: 0000 0000 0000 0000 0000 0000 0000 0000
00000010: 0000 0000 0000 0000 0000 0000 0000 0000
0.0 0.0 0.0 0.0

base.actor.actor_fc1.weight f8 [64, 8]
00000000: 8c50 6d62 043e bbbf ef6d 90f0 88e8 b6bf
00000010: 3864 403d a697 b2bf 649e de4a b56b b9bf
00000020: 7b6a 11c2 4370 c8bf 437e f895 00df a1bf
00000030: 4bb8 be0f 72b0 81bf deb9 8600 b410 bb3f
00000040: 0ae3 efd9 5276 bd3f 7b09 f0a4 e1e6 c8bf
00000050: a867 d866 390c bfbf ca22 6de3 a1b8 d8bf
00000060: 9717 945d fe98 c53f 5d4b 587e 9c68 88bf
00000070: 18c2 3f14 4942 c13f ac34 95eb 5c18 983f
00000080: 1c77 ceae 53ea c43f 9e6c 6961 5230 bcbf
00000090: aa1b cef0 d2e4 cb3f c928 ecf8 1d6c af3f
000000a0: 735c a04a df57 b5bf 8992 a85c e54e d5bf
000000b0: de89 ebcd 4466 a9bf 312b 3a90 7416 b5bf
000000c0: fe34 1486 2dda c9bf e5a8 c23e fd86 c43f
000000d0: bb24 c33c 22e8 a6bf 51b1 0b8c e715 a9bf
000000e0: bd5a 08c3 8874 b2bf 9a0a b5ce 18c7 c33f
000000f0: 7b4d 987d a26f dbbf 7fbe c846 a175 c4bf
00000100: b79f a037 965f a5bf ac97 0eef 56ff c83f
00000110: 9f1b 8954 9e6b ad3f ad68 9f4b a1c1 963f
00000120: d9de 1c68 2989 d3bf 2514 9ea3 c30e cfbf
00000130: 3551 852d f092 b6bf ae77 57ab a27c b7bf
00000140: b757 97af 20e6 d5bf 2dfc 0545 4bcf b8bf
00000150: 744c b394 06b2 d4bf dbef 1492 1d1d bebf
00000160: ea72 f195 4179 433f dbe8 5492 1263 ca3f
00000170: 30ab 23a1 2ab4 c53f 8d85 2140 f794 b73f
00000180: e5d8 f136 b8fd b13f 753e 46c1 ffdc c7bf
00000190: 7e98 8171 16ce b33f e308 b256 7165 cf3f
000001a0: f272 e0a3 4ed2 cfbf 02e1 a057 b83f b0bf
000001b0: e45f b1c2 aa30 5ebf ac33 ad4c 8be0 cfbf
000001c0: 79ea 0e0e 93f7 d1bf 36d1 8a67 a10e 723f
000001d0: fc0f 2bc6 3c90 dfbf 373d 5f6c c8c6 bbbf
000001e0: 05b6 fe93 9015 a43f 5a82 1684 f423 d23f
000001f0: 204c e3b6 1d2f c03f 1f30 2583 e6cb a23f
00000200: 3f25 e442 d684 cbbf 67f9 3a5f 65cd ca3f
00000210: 1d65 1079 5e0b c33f 3fa3 07b9 5e61 d4bf
00000220: 8ad5 0945 1ad9 aebf d563 8b69 7d18 afbf
00000230: db68 85ce 75c9 a63f d00a efc7 8302 bbbf
00000240: 3044 3f88 2846 923f 8f01 0cee a0ed b73f
00000250: 493c 78c1 c2cb bd3f 7f96 6fd2 b861 c8bf
00000260: 0736 543a 1685 d9bf 6943 32bb 8261 b8bf
00000270: 5f1c 65b4 da6b d4bf d6c4 ee02 d0c7 c43f
00000280: d249 094c 087e 99bf 6560 d3ec d669 49bf
00000290: 0d03 73c4 acc8 d73f 7e2f 2267 722b c53f
000002a0: 7941 460c 15d7 c0bf 2554 9f53 bed9 9bbf
000002b0: 9cc3 9366 7422 d0bf b0cb bb29 6655 b43f
000002c0: 434f 2c86 f491 9d3f bf0f e6e4 d855 b43f
000002d0: 1bb0 6642 7dc9 d23f 854d 8e89 1a1a acbf
000002e0: 731c 605f e0a8 c63f 5f00 143b 945a 9c3f
000002f0: 1672 b462 3b11 833f 586e 894e 790c b3bf
00000300: 019d 9c9c 2c36 a0bf 31de 06af 5bb1 a83f
00000310: ed11 f7b4 db01 be3f 0f7c 51f2 caf2 a13f
00000320: d13f 7ed4 c1b5 c8bf 40cd aa72 2595 b5bf
00000330: fecc acff e59c cd3f 6175 22cd 6429 b1bf
00000340: 9e33 b531 c2f4 c73f 839e ef25 453f d13f
00000350: caa4 5fb7 2e47 d4bf cc17 7ebc f15d b4bf
00000360: 4f89 ce2c 2512 97bf aefb 95cf 0e2d b23f
00000370: 0f57 fc71 e101 b33f f0c3 1243 1279 aa3f
00000380: 0c84 c7ef 280c c7bf c897 6065 4e0e a3bf
00000390: 4314 7872 c9bc c7bf 1fbc 93b9 26e0 37bf
000003a0: b3da b088 3863 aa3f 66ea 17b3 4647 cdbf
000003b0: 8ae7 1b7f 50d7 adbf 795b 42f2 66d9 b4bf
000003c0: ef61 c7d2 fbff 71bf 0665 0887 06ce c6bf
000003d0: eee1 bc7f 11eb c03f 3413 c03e 0eed c83f
000003e0: 5763 0a26 241c d0bf 7588 037a 57a5 c83f
000003f0: e9e7 f150 45fb be3f ad04 2cef 8d9e b73f
00000400: 6412 ba11 b64d cabf 45df aea2 fd72 c53f
00000410: 74de c3ea d545 b43f 72ca a75d 6e8b a6bf
00000420: 55ba 887a 76b2 cb3f 5011 b663 5ee7 c6bf
00000430: 8b9e 4cb5 349a abbf 738a 19a2 31b8 d13f
00000440: bf26 d35f 8722 bb3f 970b 1c40 32a7 c4bf
00000450: 547d 1c1a 5e6f d7bf c3b5 f971 7aa4 a43f
00000460: 03ee ed1e 63b3 bebf 13c0 1be2 1b96 b6bf
00000470: 621e 07c8 4120 c6bf 5c44 b6f9 5233 c43f
00000480: 0b2d 2658 5a20 bb3f 7dcc a763 a19f bf3f
00000490: 8a74 49dd 4472 d2bf 4f88 5b8d 306b c1bf
000004a0: 0635 6476 4e71 bd3f 8c30 9a3c dac8 cabf
000004b0: bf11 0adc 2dac a63f cdb8 7174 f55f a5bf
000004c0: 00ca 09da 2b47 c1bf 69b1 9f48 19da c13f
000004d0: 7cf1 f6c1 dce6 c3bf 7b08 a3d3 f012 b93f
000004e0: a08b c223 065e bf3f 8140 acf7 f82a c2bf
000004f0: f85f 1ca7 74f4 afbf fd16 7019 b6b1 943f
00000500: c344 2f0b 7e31 c63f fb50 eaa9 4e3b d33f
00000510: 38f7 2dd4 344d babf 6c1b 4646 1c4a b43f
00000520: 2d62 5a98 2beb cabf cddd 0906 6583 cf3f
00000530: 4b3b 60d2 82ee c63f d0bb eacd 7789 b1bf
00000540: e2de 428b f818 a13f 3486 657a be7a ba3f
00000550: 6efe 1c35 b3c9 a13f f569 d3bc e6d8 6c3f
00000560: 4521 2c92 7714 d13f f8fd 33cc a837 b03f
00000570: 0d44 980e ff2f c23f 9321 ebf9 b0cd d5bf
00000580: 0b92 2f70 e0db c53f e841 eaf3 17e4 b6bf
00000590: 5212 ecd0 d1b2 ca3f 3470 94a9 b801 bebf
000005a0: 9e3b 19c2 62a2 ccbf 1769 d1dd 2161 c1bf
000005b0: 53ae 4702 e801 c13f 15a0 5935 adc1 a0bf
000005c0: 1935 7091 1d3d b03f 8740 2acd 59c2 c23f
000005d0: 2ad1 2150 862d d3bf c8ea fbc4 be51 b3bf
000005e0: d0f1 744d 95c9 d43f 8f7c 5bc0 0e7d a8bf
000005f0: 92d4 ccd2 2de6 bfbf 6afb f0f1 2cea b13f
00000600: 2c60 14fd 6dea c0bf d5bf 2e81 d071 bebf
00000610: c26a cc2f 36a6 c5bf 7e81 2be9 1d64 be3f
00000620: 9314 9367 9329 bebf c9c0 e723 9d78 803f
00000630: 25af 3ac1 8ed9 c0bf be1e 2e41 7022 bb3f
00000640: 0b7f d161 cee9 a63f 6102 78ed 01f1 783f
00000650: 19da 28e8 d5be da3f a18f 6597 023d b93f
00000660: e7bd 81b8 e715 d2bf 53ed fd50 518f d9bf
00000670: 9af6 ef32 a3bd cdbf 5fee b768 52e7 c0bf
00000680: 6a69 d522 b245 c2bf acf4 7fcf 2698 b33f
00000690: bec9 c52a 37d6 c1bf 630d 19ac c7dc bd3f
000006a0: 6c13 0b04 6870 c3bf 6c8e 988a 80a0 90bf
000006b0: 3639 9657 ecbe c3bf a155 8ca2 579d c4bf
000006c0: fc60 72e9 84f2 b0bf a9a1 f134 7719 c53f
000006d0: b26c dc66 8c45 c03f da64 a2d0 f384 b5bf
000006e0: 9a91 0d6d 4e97 ce3f ddfb 28f0 bc3e b03f
000006f0: daeb a451 ebc9 c2bf 160e 5901 933d a2bf
00000700: e96e 90f5 8211 c53f 9fe5 cfba 0770 d2bf
00000710: b454 56fd d510 cfbf b11f c75b 8253 d3bf
00000720: 4f69 3e1e 1c5f ae3f 61c7 8d7e d9b4 a2bf
00000730: b7e3 4052 b589 bdbf e4e9 33e1 4d01 c2bf
00000740: 9ddd 44f1 5ef3 c23f d61b 650e 3ad0 7dbf
00000750: c22f ff37 0d76 cd3f b937 ed49 4f5f bc3f
00000760: 8a9d 2cda 664c 90bf 5154 629a 13a1 b3bf
00000770: 49b3 2d6f eb73 cdbf b443 e6ce 6287 cd3f
00000780: 6bae 9409 5d2c acbf af28 95a1 0d73 bc3f
00000790: 522d f861 c112 d0bf 4d7c da6c ab57 c6bf
000007a0: 89e8 322d 2915 d03f 536e c5ed 03c8 d23f
000007b0: 0c65 251b f854 c53f 6362 29d1 74cc d63f
000007c0: 582c c9ad cb91 c7bf f373 9a3f b514 a7bf
000007d0: 57b9 fee0 2082 c73f 2cad 2c52 ef85 ce3f
000007e0: 5d10 4bdc 3b78 d2bf b84d b9b6 8193 bcbf
000007f0: ac7b da0b 2833 b13f 8f4b 7dfc 51c3 b3bf
-0.10641505625727826 -0.08948570130490173 -0.07262648578070319 -0.09929974630233002 -0.19092604614236905 -0.03490449743935333 -0.008637324433802848 0.1057236195835922
0.1150867254326721 -0.19454594186397486 -0.12128027687904697 -0.38626906594849386 0.16873149461042367 -0.011918280225506167 0.1348353718635884 0.02353043735393061
0.16340108905290485 -0.11011233213632685 0.217920653896923 0.06137174285511688 -0.08337207385953764 -0.33294042633705395 -0.04960837377236137 -0.08237389107868577
-0.2019707588846486 0.16036954464409017 -0.04473978988387147 -0.04899524292509006 -0.07209067117251329 0.15451345532536181 -0.4286886431229601 -0.15983978229768422
-0.04174489430471289 0.19529234574036758 0.05746168882301749 0.022223015061037788 -0.3052466885305712 -0.2426380680955457 -0.08817959891650136 -0.0917455356897949
-0.3421708788640631 -0.09691305575505345 -0.3233658268120003 -0.11763176742982699 0.0005942888491393382 0.2061484541425845 0.16956074588900938 0.09211678806015851
0.07027770368026472 -0.18643185555673694 0.07736339827678937 0.2452832864110582 -0.24860556604189515 -0.06347229136816071 -0.0018426578124230925 -0.2490400432965577
-0.28073574421765773 0.004408483968905854 -0.4931785521732761 -0.10850193639565907 0.039227026048461545 0.28344452761851857 0.12643786840507776 0.03671188689131121
-0.21499136224910306 0.20939318799896542 0.14878445540743082 -0.31844299382514757 -0.060250111510792584 -0.06073371804604447 0.044505769214724565 -0.10550712233729631
0.017845757785668492 0.09346967517558923 0.11639039252644169 -0.19048223757924984 -0.39874797531305756 -0.09523789472792789 -0.3190829049748966 0.16234779494474222
-0.02489483799065246 -0.0007755565108267358 0.371623222203241 0.16538839374367947 -0.13156378840768548 -0.02719781289473046 -0.25210294740014105 0.07942808646093513
0.028877087296748327 0.07943492496821046 0.29354793056950407 -0.0548866551318055 0.1770287004185068 0.027689281564562736 0.009310211133702711 -0.07440908591655082
-0.031663316838882245 0.048228135219173025 0.11721585434049304 0.035055486755247604 -0.19304678798334732 -0.08430704164020586 0.23135066017275813 -0.06703786857766182
0.18715693881167977 0.2694867010563728 -0.3168446341283696 -0.07955847598904525 -0.022530156001843434 0.07100002830519145 0.07424744637350165 0.0517049509884443
-0.18005859096504684 -0.03721852290645661 -0.18544881905850916 -0.0003643126052130258 0.05153824490155525 -0.22873767609401624 -0.05828334380744511 -0.08144229330569698
-0.004394515690784292 -0.17816239922903082 0.1321737168998562 0.19473436416606094 -0.251717602871897 0.19254582841591952 0.12102158762164063 0.09226309861334654
-0.20549655786102783 0.16757173961172547 0.07919060689516205 -0.04403252499823375 0.21638375266180057 -0.1789358126517393 -0.05391087258459234 0.27686730222755
0.10599561776612186 -0.16135242586468898 -0.3661723380082169 0.04031736985494263 -0.1199247313033354 -0.08822798032974814 -0.17285940424902707 0.1578162879273205
0.10596241619184725 0.12352951701159216 -0.28822442636539647 -0.13608366873001151 0.11501016989150878 -0.20925453147026862 0.044282372579832245 -0.04174773260534579
-0.13498447557829252 0.13946834608158135 -0.15548285933426687 0.09794526259341467 0.1225284421257542 -0.14193641751672106 -0.06241192378928412 0.020209164908030697
0.17338538690686364 0.3004948291138729 -0.10274057560124283 0.07925583568258582 -0.21030182780374798 0.24619734568453425 0.17915377876530622 -0.06850384499806172
0.03339363765684113 0.1034354256458066 0.03474197409968559 0.003521395358444974 0.26687421106955284 0.06334929452349758 0.1420897313369384 -0.3406794014558951
0.17077260473082875 -0.08941793160398215 0.20858214093472555 -0.11721376552708379 -0.22370562055081405 -0.13577674227674016 0.13287067519501025 -0.032727635157073255
0.06343254853000636 0.14655611532043997 -0.2996536047496813 -0.07546608266049326 0.3248036629118163 -0.04782911394226474 -0.12460600277411718 0.06997948557635217
-0.13215422494317985 -0.1189241710078471 -0.16913487752829864 0.11871516173005678 -0.1178218963496696 0.008042552622072556 -0.13163933215161552 0.10599423972427766
0.0447525495917472 0.006089217691169852 0.41789767906030445 0.09858719059189848 -0.28258698480837413 -0.3993724146782444 -0.23234977709937682 -0.13205938447196083
-0.14275194836484256 0.07654039922631978 -0.13934983814722374 0.11665008498771594 -0.15186786839890531 -0.016237266978477313 -0.1542640140218709 -0.1610517066662114
-0.06620054911980228 0.1648396500124936 0.1271224500895634 -0.08405994266140074 0.2389925034032217 0.06345730651172184 -0.1467870854047238 -0.0356260241647101
0.16459691038550453 -0.2880877804123773 -0.24270129079801495 -0.30197199785879564 0.05931938046633666 -0.036536022852387225 -0.11538251169339629 -0.1406648015616404
0.14805208950722895 -0.00727865865912399 0.2301651500150666 0.11082931094025995 -0.015916449610043716 -0.07667658347266239 -0.23010008743895075 0.23069415190232478
-0.05502596609070739 0.11113057322396246 -0.2511447388394191 -0.1745504647742301 0.2512915555377125 0.2934579679474371 0.16665555310718394 0.35622902322714917
-0.18413682923923846 -0.04507986451537951 0.1836587046249842 0.2384623671763192 -0.28858849061021435 -0.1116257735350733 0.06718683518782481 -0.07719910063069178

base.actor.actor_fc1.bias f8 [64]
00000000: 2d98 5b0e 676f d03f a3bc e2dc 675e c9bf
00000010: 196c 85ff 032e b8bf 6db2 e6ac a1ed c83f
00000020: 7372 3444 da2f d43f 81d5 5b77 85ca bf3f
00000030: 2479 273d 1025 bcbf b32a baa5 8acb b1bf
00000040: 490e 34d5 bd34 a23f 3bcb e6bc eedd c93f
00000050: 4b7a a510 3df9 c63f 99ae 63ef 981f 82bf
00000060: eaad 862d 8073 c0bf bb96 da81 f9f2 ac3f
00000070: f3e3 e7c5 8457 b3bf c58f 29a7 b9ba 73bf
00000080: fa51 2213 1438 cbbf 8681 9efc 51cf c33f
00000090: b1c1 0199 d89f b03f 841e f545 569e c2bf
000000a0: f5c2 f9f0 2ddd 9c3f ee8e c62e 9df3 a1bf
000000b0: 83d7 2989 122d c6bf 5018 8c5d 6d24 cbbf
000000c0: fc83 c032 3626 c13f 52cf b48e 9019 c2bf
000000d0: 1166 5006 971c b43f 54e0 38bb 697a a33f
000000e0: a6ed 3e11 cb87 cc3f 05e3 f6f5 d326 c83f
000000f0: 5d93 027b c9aa b7bf d073 934c 0db7 cb3f
00000100: 5330 8d56 e600 c4bf ddb8 3007 06fa afbf
00000110: 1655 edeb 7ba4 bfbf e9ce 35d4 4350 bb3f
00000120: 3c8d 8c1d 9f4f a53f 62e3 3e4c eee5 bfbf
00000130: f3a0 16ac ab46 c33f 648b 0e87 7437 adbf
00000140: 5e09 d10a a8d8 d5bf d793 7541 c4f7 c03f
00000150: 5660 d328 d7dd bfbf 0529 6997 cd9f d2bf
00000160: f755 da9f 4308 c8bf c76a b807 c947 a6bf
00000170: 7c3c bf93 9647 96bf 0eef 68b4 3fe8 b53f
00000180: 9608 9e46 833a a43f 7e0d 6f60 f515 bfbf
00000190: 2bd8 e4f5 30f4 c0bf 21fb 190f 7f7f bbbf
000001a0: ccf3 4e76 82e2 ca3f cd42 46b2 ec70 a7bf
000001b0: 9449 dc1b febc c3bf 3f38 ac94 3c9d cebf
000001c0: eaac b519 9ae3 b6bf a2f9 824d 4962 d1bf
000001d0: 8f53 d8a0 f01e 87bf 9725 226b aca4 b03f
000001e0: 30cb 4255 c01d c3bf a68b 7159 e6d9 c6bf
000001f0: 1b18 1c2a 87a3 c13f a766 f5a3 8692 c5bf
0.2567994728291321 -0.1981935337584889 -0.0944521426039703 0.19475193922461945 0.31542069111473053 0.12418398059874926 -0.10994054310819884 -0.06951204820704042
0.03555863597469206 0.2020853445406717 0.1794811564713704 -0.008849329763015933 -0.12852480147317574 0.056541249371816225 -0.07555417854008777 -0.0048167469090891245
-0.2126488774707836 0.15476441225929366 0.06493905768889509 -0.14545706191914942 0.02818748267458467 -0.03506175228110729 -0.17325050065454314 -0.21204917018639202
0.13397862890363388 -0.1414051720436143 0.07856124786521713 0.03804331217219273 0.22289408056336163 0.18868493566494507 -0.09244975331473655 0.21652380217611134
-0.15627745844028826 -0.062454403283810335 -0.12360357770861116 0.10669349604523472 0.04162308917718824 -0.12460221635309446 0.15059419539216598 -0.05706371449129824
-0.3413486581449855 0.13256123729948285 -0.12447876688691059 -0.2910036066647453 -0.1877522020846951 -0.04351642817728912 -0.0217574622800467 0.08557508616007345
0.03950891720798315 -0.12142881016102611 -0.13245212561167938 -0.10741418951691319 0.21003752495553696 -0.04578342128946176 -0.15420509682060113 -0.2391734815541344
-0.08941043021848186 -0.2716239220570974 -0.011289482029533974 0.0650127183490866 -0.1493454376519252 -0.17852477424011431 0.1378029780973414 -0.16853411680022143

base.actor.actor_fc2.weight f8 [64, 64]
00000000: 6429 23c9 2e8a a9bf 406c 9eec d895 b8bf
00000010: 4a16 18c3 c9da dd3f 21db e792 9539 c2bf
00000020: 66bf 7b5d 9395 a53f d77f 303e bcf0 c43f
00000030: e439 6560 29dd d23f 9149 4beb 7ed5 d7bf
00000040: b082 cdb6 5c65 b53f 6f2f 948c ef0c b13f
00000050: 35cb de8e cd7a 84bf 26d2 ee6c 5027 9e3f
00000060: 00ec 8968 8821 da3f 93b5 6500 5bcf 81bf
00000070: c6d8 65a3 732e 5e3f 3a1f 6ae1 0db7 d13f
00000080: bf33 474b f8bb bbbf 6ba7 78f3 42f3 d0bf
00000090: 6c7d 63be d5c1 d7bf 49fe a03e 61a6 b8bf
000000a0: 8c43 7c04 c7da ccbf 7512 66f2 c4da b6bf
000000b0: 21b4 2b14 e585 ca3f a87f 0aab 69a7 c5bf
000000c0: bbca 5c1c 9a82 bbbf 482f c2ca 8260 d93f
000000d0: 8475 0926 f54e c8bf 1e87 6015 f2f6 c9bf
000000e0: 74f1 787a 1f25 bfbf fccd 0339 f46f acbf
000000f0: 1d9d 3d93 9381 d9bf b132 ac95 27a1 b93f
00000100: 5920 12ed 7b38 c6bf b97c 25c4 4af8 973f
00000110: fb1d dd55 a09c b0bf 1a19 7cc7 d975 acbf
00000120: 1de3 9985 9210 8d3f 03b7 03e4 6353 b53f
00000130: 91ec 945d 1ef7 b4bf 3dbe 36c0 324e cd3f
00000140: cc96 b627 67d4 7b3f 350a def8 2f17 ac3f
00000150: 9c83 6b17 3cd0 b8bf 3fe0 c046 4244 aabf
00000160: 7632 0c60 5981 c5bf d863 dc35 5a8c c1bf
00000170: 2e34 e8a9 dacf b1bf 4d1c fdf6 9c0e c2bf
00000180: dad3 4fc0 0ce9 963f ac20 c2d9 97bb 983f
00000190: 6d86 b1bd 58e7 d03f edee bc3d 138d c1bf
000001a0: 1a5a d432 fc36 a03f bf42 c16e 661e d4bf
000001b0: ad7a a488 ad02 ca3f 63f0 e9f9 c635 b33f
000001c0: 71d1 cbcc 35ee 8dbf 33e9 213c a387 c83f
000001d0: fe7a da74 1a7b cfbf e129 8d16 010b e3bf
000001e0: b8f2 acd7 8d79 a93f 9e58 0a4c 326c b8bf
000001f0: aad0 b41c e6fe 9a3f 3d32 dbdb 0ded 99bf
00000200: fe8d fbf1 da3c a9bf 69b6 ff3e 5133 a03f
00000210: 3d00 d8a1 5900 c03f f5d4 562d dad6 cd3f
00000220: 4154 a24e 7a77 b83f 6ba7 3456 3a48 c1bf
00000230: 4c0f c3f3 c9ba d0bf 2323 6054 e791 cfbf
00000240: 2436 061f 1767 c83f af28 d251 601e d13f
00000250: 91aa e298 8215 c33f cc62 fcb3 bacc ba3f
00000260: 7a67 ba9e 2b59 bb3f f7e1 0276 bf1e bcbf
00000270: 3a84 12ff 6580 cdbf a9fd 9ae7 b166 bf3f
00000280: 1a60 87e3 c0f5 b0bf 5d13 3b93 9449 b3bf
00000290: bae6 7df0 6013 c63f 31dc aa9c 806a c9bf
000002a0: a786 3d14 170f 973f 4aaa af0d 463a bebf
000002b0: c57e d78c 72a8 c23f 3ddc 1287 6b1c d0bf
000002c0: 9605 4f2b 2c73 b73f 1573 f1f1 12a2 d03f
000002d0: 1c17 f7c9 64d0 cb3f cafa 7a4f 1ad3 b7bf
000002e0: 0b35 a5a5 c4ba c6bf ec0b a23c 53d9 d63f
000002f0: ce5f 770e cf7b d3bf 50ae 06cd 5183 b33f
00000300: 63c8 3179 7634 9bbf ceba 45f9 a4aa c33f
00000310: f20e 95db 42f9 963f 23b4 f7a1 998d bd3f
00000320: 1395 9f84 9665 bd3f ddaa 0480 f474 b2bf
00000330: 7fe2 30f0 e5cc c6bf 17cc 82b6 7525 c1bf
00000340: 2dc9 c747 3129 babf 30a4 bfa3 2e94 643f
00000350: e58d 08d3 f697 c93f c6ca 438b 3b5a c4bf
00000360: f848 e983 deff cbbf 1f64 fc29 4435 b8bf
00000370: 9dc0 90b8 a548 d3bf 33de 559f 4864 6f3f
00000380: 0793 bd74 0090 c13f 7b72 9f03 8c36 c9bf
00000390: d3bc f3f9 7600 b8bf 66e6 e3e8 af0f e4bf
000003a0: ee18 0ff9 3446 c73f 14fd 6a41 6f80 cbbf
000003b0: 31ec 1e11 06ff c6bf 07c8 dd7d 2e23 a4bf
000003c0: 62f5 ac61 5c17 703f 2b87 7c78 7605 cbbf
000003d0: 45a6 4e9c c2b9 b53f a1b4 c9eb 539f c0bf
000003e0: 95fd 3aea 2329 c6bf 19ee 348d ae8d 923f
000003f0: a8b0 be9d 5bea c8bf b519 e36b 676c b8bf
00000400: d1ff d858 d80e ca3f 0c50 ab8a feb1 b4bf
00000410: 7333 6825 180c b83f bc4d b9d7 2eff cb3f
00000420: aab2 a45f 3175 b13f b69f f559 c87e 83bf
00000430: 0d66 6010 6393 d33f bede 6736 bf3b c13f
00000440: fa53 72f7 dd8c c4bf 3d02 5962 f257 d03f
00000450: 0180 6282 6ec3 d23f da3d 3eca a115 c1bf
00000460: 958a b590 1e36 a6bf 2439 c2cd 29e3 803f
00000470: 21b1 c947 51fb c33f f428 9033 c4ec b43f
00000480: aaf0 3f3a c008 c3bf 9e15 c0a4 58b5 c33f
00000490: 762e c190 0c31 ac3f b610 cc73 c694 c6bf
000004a0: 71a5 25e6 a52a b7bf dc3e 1b20 0b98 d5bf
000004b0: 7046 5ea1 b58a 953f 57a6 ab96 dc7c c3bf
000004c0: b2f0 cdb0 74b8 b53f 9c7c 99f0 2a0b 95bf
000004d0: 4d69 f237 f360 d23f b30d df74 514c c6bf
000004e0: 0104 032d 440a 6bbf fd23 ef45 24ca a6bf
000004f0: de36 f538 a00c 9fbf 5647 f7b5 1503 bb3f
00000500: 01e5 0a55 1b6c d03f dd68 460d 5de8 ccbf
00000510: 12e1 acb7 860d c1bf 7d70 6e1b 247f c4bf
00000520: bc97 8f32 29b4 d13f 4076 ca26 c384 c23f
00000530: 00c6 2d2a b4b9 b43f c926 c8f2 67c5 aabf
00000540: 1537 7a12 adde cabf 0e6b 5522 8cbe 81bf
00000550: 8f54 a68c 90e3 95bf 0695 c493 92eb b4bf
00000560: d8f6 a707 9fcf bbbf 7a46 0bdb 58bd bf3f
00000570: 4792 e49b ed07 b2bf 82b6 c696 12e6 c0bf
00000580: 4183 2a06 7aa1 92bf 0165 7cab 5cfc 913f
00000590: 4e7f 5aaa 19d9 d23f 65b3 2f4d 1f62 acbf
000005a0: 2384 423f e590 843f 4e72 3905 9428 bd3f
000005b0: 50c4 edac 6e11 ba3f c371 645f bfcd c63f
000005c0: c302 7856 3edb 9fbf 6065 5704 5caa d03f
000005d0: 9d65 9e22 8107 97bf 6351 2f18 020c b4bf
000005e0: f541 545a 0de6 b2bf 90d5 27a6 d1ab cbbf
000005f0: 4b3b 878b cbc6 afbf 4675 3eb5 30b4 babf
00000600: 99e6 1818 9f1b 92bf c7a7 dd04 11d1 babf
00000610: 28f5 57dc 2750 bf3f f406 a278 0919 ad3f
00000620: 6fa6 c47b 4ea4 2ebf 6ace 0138 ca78 c8bf
00000630: a67f 104e 2ce8 9e3f 9da5 ca4b 893f d4bf
00000640: 0c37 dcfc 9aa7 883f 24f4 b539 2c5e c53f
00000650: c8e2 96ad e73a cd3f e79a 26ad 3302 d03f
00000660: e7b9 653d 1fab b83f f318 124e feb8 c4bf
00000670: 9ef1 d8ae 5242 7ebf 461f a82d fbff 92bf
00000680: d6ad c0f9 c211 803f ba33 55f0 0a54 af3f
00000690: aa30 6528 fd3c 9f3f df1d 8a5c ed8c acbf
000006a0: b4a4 0cad 22b4 c03f 160a caf4 405e bfbf
000006b0: d233 4d58 6476 d83f 1c7b fa55 b346 a6bf
000006c0: 4ed4 3bd9 c329 b7bf 9c49 4e1c be95 b63f
000006d0: b089 a6e5 5b6c b63f d29c c9a4 f8f4 7cbf
000006e0: 5b68 b9c0 d49e adbf 5590 4768 1f1a ce3f
000006f0: b88e 31f6 af37 cfbf 99fe 3033 ca35 b2bf
00000700: 7dae c664 5817 a53f 77fd 3d33 e19b d1bf
00000710: 724b f2d7 aca2 bf3f fda8 c023 1c6c de3f
00000720: 6764 5e2f 6638 b33f 61ec 87d3 5194 c0bf
00000730: b00b bf42 e1ca c6bf a4b4 e0ff 6833 ce3f
00000740: b613 7c12 c284 85bf ff8d 66ff 699a b0bf
00000750: 45df 9abc d4f1 cc3f b58d ddb2 a4f2 c5bf
00000760: 2dfe ea51 26bd c3bf cd11 f629 8881 b7bf
00000770: 7096 3c17 5cda c7bf 90e4 9301 7686 d2bf
00000780: 949b 1bbb e535 cd3f ac27 cf05 4877 e0bf
00000790: abb7 81cc 6063 bf3f 323c 4f90 1717 8abf
000007a0: 4c9d 8137 45cb d13f f2a8 7635 5bd6 d6bf
000007b0: fd74 9e64 4ec3 aa3f 7cdb 01e6 d83d d4bf
000007c0: 7d2c f229 89bc c43f dc9c 0c8b c943 b1bf
000007d0: d739 b7f3 dee2 bc3f e955 f3c4 3b0c d6bf
000007e0: 39cf 393f 25e6 d2bf 8927 c3f8 e91f a7bf
000007f0: d30b 6e31 eb78 ccbf 0232 fe95 7b28 b1bf
-0.0498823757676117 -0.09603648926570063 0.4664787678924297 -0.14238233254555957 0.04215679660944609 0.1635966590556552 0.29474863446821886 -0.3724057481569157
0.08357791388471969 0.06660363370991516 -0.00999985306029814 0.029446846626983846 0.40829668244231243 -0.008696280431389513 0.0018421296386726279 0.2767977429689271
-0.10833694303364803 -0.26484750534529294 -0.37120574562683006 -0.09628875521684067 -0.2254265567685504 -0.08927565496385077 0.2072111462106543 -0.1691715321694549
-0.10746157829707219 0.39651555824888307 -0.18990959508202476 -0.20284868282129137 -0.12166020145463624 -0.055541641197034836 -0.3985337198159458 0.10011527446858783
-0.1735987575123115 0.023408096525028486 -0.06488992782862361 -0.055586629487196684 0.014191765501196546 0.08330368344078569 -0.08189573082647629 0.22894892106477185
0.006794360112882546 0.05486440575534283 -0.09692740985657483 -0.05130202401818495 -0.16800992193056502 -0.1370957148544949 -0.06957785270806546 -0.141070957756002
0.02237338947084653 0.024153111139214076 0.2641202785945101 -0.13711777224113267 0.03166950340726178 -0.31435547653113 0.20320672199246329 0.07503932572757459
-0.014614506065733864 0.19163933216243265 -0.24594431596502625 -0.5950932922799518 0.04975550897367981 -0.09540094715552747 0.026362987043470433 -0.02531835226436584
-0.04929241374864189 0.03164152044324171 0.12501068499114068 0.23311927045657624 0.09557308597352777 -0.13501671990644168 -0.2614006882179083 -0.246640125464432
0.1906460668073332 0.267479019072776 0.14909393754108582 0.1046864213389071 0.10682938218306318 -0.10984417563566483 -0.23048090891555423 0.1226607504313423
-0.06624990038778869 -0.07534149736882285 0.17246639006389392 -0.19856269502426607 0.02251850186383444 -0.1180766852773242 0.14576560856857249 -0.25173462096012483
0.09160114343014522 0.2598922121740526 0.2172971712263284 -0.09306492271842184 -0.1775747116866245 0.3570144741171919 -0.304431690337421 0.0762225270797725
-0.026567317149279634 0.15364515468123446 0.02243523087714911 0.11544189647948193 0.11483135927081305 -0.07209709287114259 -0.17812799671243693 -0.1339556828657755
-0.10219104769183636 0.002512065022518793 0.19995007805219625 -0.1590036802295655 -0.21874600831012692 -0.09456277871176198 -0.30130904220551163 0.003831998673088832
0.13720708561154302 -0.19697714020630372 -0.09375709154459182 -0.6269149349820509 0.18183004532892916 -0.21485701269373492 -0.1796577056501021 -0.0393309143681933
0.003928528657352133 -0.21110421069266158 0.08486572567076063 -0.12986229909021055 -0.1731305021003037 0.018118598335815948 -0.19465203478228443 -0.09540411361658736
0.20357803667320565 -0.08084097753027225 0.09393454468972866 0.21872506650343648 0.06819447121660951 -0.009519162412018872 0.30587078665993844 0.1346358314183273
-0.16054892141679017 0.2553678474833168 0.29317820294272684 -0.13347265601303954 -0.043381648220720916 0.008245779601818777 0.15610710149065546 0.08173776873460153
-0.14870455593325477 0.15397174877595615 0.055061714811555015 -0.17641525892407167 -0.09049450749230005 -0.3374049962558112 0.02103694722570143 -0.15224797589262337
0.08484582249178876 -0.020550414023429484 0.28716736281935057 -0.17420404631239492 -0.0033007937964559812 -0.04451096872032421 -0.03032160136836281 0.10551582043197291
0.2565983133786887 -0.22584117077059931 -0.13322528809090578 -0.1601300367300417 0.27662115037525914 0.1446765841873674 0.0809586146331398 -0.05228733862538843
-0.20992053415505355 -0.008664221570759103 -0.02137590273340045 -0.08171955211271972 -0.10863679825703387 0.12398295734171852 -0.07043347412088351 -0.1320212589466117
-0.01819410956034351 0.017564247099561395 0.2945007480247924 -0.05543611352172809 0.010041991227185026 0.11390042426632727 0.10182849618810619 0.17815391691045876
-0.031109785106312026 0.2603979151150124 -0.022489564645729144 -0.0783082303090104 -0.07382281737614689 -0.21618099797312285 -0.062063561231858154 -0.10431198525335103
-0.01768349251344734 -0.10475260132594065 0.12231682900888485 0.05683164212770278 -0.0002337785534874295 -0.191186215731807 0.030182544960666434 -0.31637794877550524
0.012038431970292439 0.16693642442615542 0.22836013771099872 0.2501343909192841 0.09636111496886422 -0.1618955498890454 -0.007387469273052364 -0.018554615651765326
0.007846377608152471 0.061188070142271525 0.030506091681033944 -0.05576268915779869 0.1304972977607456 -0.12253194786357144 0.3822260725326575 -0.04350815224210278
-0.09048103383595782 0.08822239104327995 0.08759092671110724 -0.007069560303171589 -0.057852409864339115 0.23517220107817374 -0.24388694306536762 -0.07113326787748021
0.04119373541047098 -0.2751391411220178 0.1235759761059805 0.47534850589239835 0.07507933289015654 -0.12952635601672838 -0.1780664039525539 0.2359439134028537
-0.010507122220141923 -0.06485617146841348 0.22613009652354257 -0.17146738752044902 -0.15420989036464175 -0.09182024979060728 -0.18635131010630657 -0.2894568457991875
0.22820731769681102 -0.5145607102833671 0.12261013977851458 -0.012739357081867995 0.2780316392949842 -0.35683326931997705 0.05227131822833007 -0.31627485715528514
0.16200365589279278 -0.06744060177571803 0.11283677530375456 -0.3444966719956413 -0.29529696630855856 -0.04516535913133086 -0.22244014657562036 -0.0670239678567626

base.actor.actor_fc2.bias f8 [64]
00000000: 6830 940b bcf6 c8bf 38a2 ce97 1106 c63f
00000010: d7b7 7c8b 7306 9b3f def3 0702 43b8 7f3f
00000020: 4c45 2ab2 fd4f c8bf 0f17 1ce0 814f cb3f
00000030: d093 462a 791c c93f d429 6160 9486 ca3f
00000040: 56b1 baa9 6c44 b03f 6dcb ffdb e1c3 b7bf
00000050: fe5f 1a91 8dab 8e3f 82bf 901f 7abc b4bf
00000060: b2f5 827c d4e6 92bf abe2 6387 f19c a93f
00000070: b6ef c033 a3db 86bf be72 705a 3f34 aebf
00000080: 4ef7 313f f4f6 b8bf 6d5f ad56 9138 afbf
00000090: 9da7 1884 a965 9e3f 9f48 a047 8e55 c3bf
000000a0: d017 b09e 38da c7bf e7e6 8c0f f52d bf3f
000000b0: a64b f5fc 413d cc3f 1cc0 944e b00c b7bf
000000c0: c119 d781 9c5e b7bf 9a84 ed98 24d6 c0bf
000000d0: fa46 0b9b cbd7 c9bf ec33 46d1 f973 c0bf
000000e0: c739 7705 e517 b9bf ecd0 2970 b892 ba3f
000000f0: a6bb 3049 7e93 c5bf 608a 5d0c 61ab a0bf
00000100: a8ce e1b6 aedf c0bf 7b2f 349c 1d2b c23f
00000110: c4c0 d372 d4a4 a1bf 5985 1867 309a 863f
00000120: 0d1b 4096 062d bf3f 61ae 787b 0a1e b03f
00000130: b733 ffc6 b9c1 a2bf 8323 6574 8689 bebf
00000140: 76a4 c775 4015 bcbf d81b 0396 a53f 9fbf
00000150: 9dfc 3f60 b08d b43f 1d10 2977 c234 b9bf
00000160: c499 d269 9359 c13f 18c4 070e c87d ccbf
00000170: 47d0 b314 5327 c4bf 9b80 fdbc f140 60bf
00000180: af40 4473 5ec1 ca3f 0d9f c991 f13e b9bf
00000190: 0cd0 f435 ae1d b23f 8ed7 d780 2bba bbbf
000001a0: f2eb 397f 9fde c63f d019 905c 3fac ba3f
000001b0: 36da a4dc 436a c03f bff2 41d6 eb3d c73f
000001c0: 56d4 4995 9bce b7bf 6905 3246 54d0 a03f
000001d0: ced6 15c6 9014 d03f 70a5 89f1 299f babf
000001e0: 8d0a b6db 35b4 adbf 635a d3f0 8be7 86bf
000001f0: b2cc 25d9 42c9 b1bf 003e 7378 fbf5 a3bf
-0.19502974095701409 0.1720602027173912 0.026391797436353528 0.007744085073224631 -0.18994113158673043 0.21336387102945095 0.19618143619768924 0.20723204332382628
0.06354407447606056 -0.09283267613481679 0.014975648871129007 -0.08100093145981016 -0.018458671664793598 0.05002550866806151 -0.011161112801452915 -0.058992366590449916
-0.09751822035647459 -0.060978452521054695 0.029684685409086965 -0.15104845521324692 -0.18634708164625957 0.12179500226639171 0.22061943866228012 -0.0900373641823084
-0.09128740472724585 -0.13153512446573218 -0.20189805098066654 -0.12853930204838038 -0.09802085288467942 0.10380127657282728 -0.16856363843677719 -0.032557518729636525
-0.13182624749935212 0.1419407856668576 -0.03446067716311199 0.011036279817804017 0.12178078811858147 0.0629583884662508 -0.036634259740459134 -0.1192859682243022
-0.10969927669033716 -0.030516230851187348 0.08028700208523039 -0.09846129807652955 0.13554613749620448 -0.22258854565691943 -0.15745008955821246 -0.0019840928506909667
0.2090261519265417 -0.0986166935850827 0.07076538865368337 -0.1083094777639799 0.17866891586513095 0.10419078836284901 0.12824295304899785 0.18157718622014404
-0.09299633402572857 0.03283942562940007 0.2512552198817105 -0.10399114748874694 -0.05801552111644979 -0.011183827673830032 -0.06947725106674588 -0.03898607106532026

base.actor.actor_fc3.weight f8 [4, 64]
00000000: e76b 6444 4354 c03f aadb 0b1c 85f0 aebf
00000010: 6270 52aa ab1e bbbf 0292 7bac 5671 8d3f
00000020: a4fc 9774 d09f b33f f9fd b625 44a3 b6bf
00000030: 5884 0eeb 37fb c0bf 43b1 544d 3a8b b6bf
00000040: 41cc 362c cf37 a2bf 0891 0673 f8be 883f
00000050: 9ff4 2d6f 654e b43f 2a4a d04e 5f26 a13f
00000060: 99e1 faf5 fdb3 b2bf e020 897c d53a a7bf
00000070: 2263 a6d6 0ac6 803f bc90 dba1 629d 8abf
00000080: 5795 0451 34bb 7d3f 176c cd95 a41b a3bf
00000090: 1b54 8f91 b0d2 8e3f b3c0 7e54 923e b23f
000000a0: a94a 3dd4 6059 c43f e02a 3704 9ac1 a5bf
000000b0: 7e12 2a8b 33a5 b9bf 1e03 b0d3 30a2 a83f
000000c0: 9eae c498 f849 963f 620c a1a4 bbf3 a43f
000000d0: 7462 2311 50d1 b73f 3e7c 343c 179f aa3f
000000e0: 6fab 1b3c 232e ae3f ac8d ba82 1250 b5bf
000000f0: e50c 0b9a 6eef a43f 26bc cc13 236a b4bf
00000100: 36fc 7a02 6a01 b23f efd3 ce7e f139 a8bf
00000110: a14c e4b4 470b a93f 6b1e 46aa 4869 7fbf
00000120: ca53 01cb ee24 b8bf 9da8 0265 dc2a 9ebf
00000130: cf07 83b0 ffa4 9f3f 5ed6 488c 7233 ad3f
00000140: 9471 e214 699a a43f 918f 6859 9355 9e3f
00000150: a02f 9b6d 049b a6bf b723 2abb a04b b63f
00000160: 0766 0f97 63a3 acbf b1a5 3e1e eb01 b93f
00000170: 3517 2b99 4d5b af3f eb17 ab06 4423 6ebf
00000180: 2c43 ac38 f498 acbf 2e8b bcfb 8020 863f
00000190: 735a fa4b 0161 803f f99c 2c97 1a01 c13f
000001a0: 218f 700c 9fe5 b93f 7ffd 86a4 bbf0 a3bf
000001b0: b365 e4dc 82f4 bcbf 8650 b6c6 33a1 acbf
000001c0: 4159 1d5b 55e3 bb3f 5096 e1b7 1d66 aabf
000001d0: 9ba0 3044 4131 babf 8d79 474e f132 a13f
000001e0: 5d61 8b64 0a99 6c3f 2836 d7cc fdf7 a73f
000001f0: d750 c193 70e4 9c3f eb31 fa29 1485 8e3f
00000200: 8824 872f 1af8 b03f 641f fc77 861b 843f
00000210: 691f bfe6 5ddd 86bf 77c5 9c6c 9c92 713f
00000220: bc3b 2269 9826 923f ce6f f32d ea9e 7f3f
00000230: bfb4 882a a8c9 b43f a13d d6e0 83d8 93bf
00000240: 9208 d6e5 1a9c a63f a133 69ee 149e b6bf
00000250: 6b37 76a5 4e05 913f 1e87 9ae3 fe74 5bbf
00000260: d7ad f5a7 863a c1bf 6154 3fc2 ecbe b73f
00000270: e67b b20e 626e bcbf 8e7e 50b5 5bbb 88bf
00000280: 2cb1 aa4b 578a b4bf b5f6 cb02 da85 c0bf
00000290: b84a e2c3 3d14 b33f d59b 128b 05a6 68bf
000002a0: 0ba2 5aae 9da3 a8bf 2834 ff25 5bd6 a6bf
000002b0: fd97 75b9 a99b b33f 41bb ba6b e0b5 a43f
000002c0: df93 3fee 37ed 493f 02d2 2c5d 3bf2 95bf
000002d0: 79fc ca0b 5b5d b0bf 3075 2dca b9d2 863f
000002e0: 8b06 77ff cc46 c83f dd60 c322 9a91 84bf
000002f0: 3f75 87ef e8d7 95bf 3057 979d caba bdbf
00000300: d63f 947f ef6a c3bf 403a 0cf5 8710 763f
00000310: f039 ffd8 046d b13f f67d 51cb 8df4 b3bf
00000320: 093b 07a0 99c6 be3f 8b08 d001 f72d 933f
00000330: f1f7 0e97 8736 b13f e249 16bf 9168 b6bf
00000340: 1a8d 0194 176a abbf d6da e4ce 8d0a b7bf
00000350: 2565 9775 ff2c 7ebf a168 ffb5 8160 b7bf
00000360: c21c e0e5 8f36 ba3f cbe2 fb5f 4997 8ebf
00000370: 5446 0408 1d9d 83bf 114a 7f20 08b6 893f
00000380: 6182 b224 c3d9 be3f f104 7898 9624 c1bf
00000390: e892 dc4e 2aae aa3f bbd4 b04e 068d 89bf
000003a0: 473d 806e 4e20 b93f c426 bf3d 613b c5bf
000003b0: 42eb d135 95c5 a33f 1d19 a71a 8d8b a2bf
000003c0: ab51 f807 1347 aa3f 9ca7 16ce 3995 97bf
000003d0: 6b18 01a7 72da a9bf 1e58 934f f89b b63f
000003e0: a334 9a7a c54f 84bf a758 0083 60a4 b5bf
000003f0: 21ff dda3 5a28 c4bf 6808 0f1d 0d15 90bf
00000400: f341 56b9 9c14 c9bf b358 8479 30de b83f
00000410: fa40 43a4 406a ab3f 2d05 62aa 3081 ab3f
00000420: 2dfa dea3 884b b4bf 91d9 a18b 1c11 b83f
00000430: 40c4 3c82 08e6 5ebf 2a77 0d82 f481 b83f
00000440: b02e 8a93 9fc5 a73f b2c7 a16d 8556 963f
00000450: 9fb8 201e 3c34 903f 8581 f9bf ff10 b3bf
00000460: 3203 e99d c7e4 b63f 4345 08ba 9c2b b3bf
00000470: 3fd4 eaa1 91d7 b13f b986 1892 ac11 acbf
00000480: 54d6 2183 8c4b 7d3f ee3a 511c 1f15 9a3f
00000490: 1c88 17cd f840 b5bf c0eb ce5d 735c b5bf
000004a0: 3c38 220c 993c 90bf 7c74 8ffe e0d1 a2bf
000004b0: a11d 97d2 de98 98bf d49c 83fd ad9c a9bf
000004c0: 67ab 5c56 260a a9bf cdcb 85b3 a6be a2bf
000004d0: 8f03 b2b0 a2d3 80bf 6b65 0d1c a7fd 533f
000004e0: 3a9d 6651 f502 bfbf 55f0 d694 d14f a43f
000004f0: 5ab1 2bc7 4686 b53f 4c51 34e4 2d3e c23f
00000500: 4642 909f cee8 8abf 2f3c 293c 0ece ba3f
00000510: 0533 63a4 5112 c0bf 0508 3655 55bc 9fbf
00000520: d0a5 0bc5 068b b2bf d8c1 05fa 4ca7 b43f
00000530: 690b 641c e622 b4bf fbe8 b53b 4ea0 96bf
00000540: 0805 ec3d f852 a1bf b459 67ca 12b5 a1bf
00000550: ad7f bb16 b040 b43f b4ef d09a f539 b33f
00000560: 7c3a fb16 ac6e a8bf a259 2f91 961a b9bf
00000570: 4133 9592 49d2 aabf 982c 90f6 6870 b5bf
00000580: 3ede 6623 1666 b2bf 02ff fdc2 9457 a73f
00000590: 92a3 bc20 c788 ac3f 1689 4fc0 4700 bebf
000005a0: 8329 0689 d7c4 a5bf 4794 2c9d e81d b33f
000005b0: 3e99 f591 f888 893f 5d5d 7f6b 3d78 be3f
000005c0: a1cb 43d0 7010 bdbf 3d06 f934 0e91 9a3f
000005d0: 334a 031e 7c86 c33f e79b 8893 c4a1 a7bf
000005e0: 411b 9cd0 1abc a0bf 9ed0 0136 4fc7 ab3f
000005f0: 9f90 2bf8 ccd6 af3f 8ede 8278 bc18 a3bf
00000600: 89fe f4e9 4fd8 8e3f e7f2 ce3d 27cd afbf
00000610: 5c3e fe84 01ea 953f 47dc 806c 4bcc babf
00000620: 70e3 4e99 6c30 533f e40c 1c20 b348 80bf
00000630: 15a9 4630 f036 a83f d27e 120f ed94 8f3f
00000640: 29ba 6b71 3bac b5bf c976 bfa9 bd61 af3f
00000650: feec b7dd e0fb afbf fa91 8c5b fe8e b23f
00000660: bf61 739c eda4 b03f 776b 30e1 2876 a13f
00000670: 5fb7 e5b1 e8ec a43f f811 9037 39ef b53f
00000680: a93a 17fb f1bb a43f 09b2 c918 b702 bb3f
00000690: 2c69 db00 71de 7c3f 26db 5a1a 6470 a23f
000006a0: d566 2acd 038c b5bf c09e 9f39 c071 c13f
000006b0: 4672 bed6 bb49 a53f 810f 8277 f5c5 9bbf
000006c0: 102c cc29 d38f 9b3f e37a bbae e596 9a3f
000006d0: 640e 595e 97e5 a1bf 5a41 2989 0d8d b7bf
000006e0: 90b6 e960 f371 b4bf a583 c96a 3bd4 aa3f
000006f0: 3b50 961c d7d4 bebf 2900 d5e9 256a 883f
00000700: 2740 4d60 8415 be3f 3291 45b7 4436 afbf
00000710: d9db 5bd5 8746 9c3f b0ba 340e cccc c23f
00000720: 267c 337d 4127 a53f 43be d5a5 da06 bbbf
00000730: 0170 d752 b3b9 8d3f b38a 11ac 4c12 ad3f
00000740: acc0 87dd 9fa5 b13f 98da 1fc5 a064 b73f
00000750: ac75 de31 d797 b0bf c7dd 57d8 3b5a adbf
00000760: 1534 ff75 7b04 81bf 9322 0f76 1281 a03f
00000770: ac52 d889 1666 56bf 13b0 dc13 f56b ae3f
00000780: 6747 d6bc 654b 973f dad8 d4de 9fd7 ab3f
00000790: f89d 06e8 0870 c1bf ff75 dac3 b4ea 883f
000007a0: 1291 eb21 5a14 b9bf 20e8 2525 9636 b83f
000007b0: 1426 ab4a 1ce2 a63f b300 b4d7 0287 94bf
000007c0: 34cc f1f5 82eb a0bf e159 fdb1 7d12 823f
000007d0: 4045 0d33 97cf 393f 6d00 42be 4f41 a7bf
000007e0: 855c 0a78 d58c b03f 3170 4670 f09a 76bf
000007f0: c2f4 ce6b 4e78 b33f 568c 6468 f888 b23f
0.12757149543253307 -0.060428771661399 -0.10593674572231884 0.014376332415346308 0.0766573223736367 -0.08842874451419637 -0.13266657807710902 -0.08806194675407135
-0.03558204092714635 0.012082997331909442 0.07932123150199509 0.033495882387928624 -0.07305896048899853 -0.04537074227533977 0.0081902357822386 -0.012995501102928457
0.007258610116229156 -0.0373202736725135 0.015050296251425668 0.07126726687306721 0.15897760737660363 -0.04249268819292751 -0.10017702243391999 0.048112417069211086
0.02176655228065149 0.04092203507072935 0.09303760927594756 0.05199501619267054 0.058945752227223085 -0.08325305644625897 0.040889221481416084 -0.07974452241317972
0.07033407745892437 -0.04731707261036166 0.04891418536330972 -0.007668765876935528 -0.09431354957753438 -0.029460376420197155 0.03090285792200814 0.057033137917113605
0.0402405584329443 0.029623319942529817 -0.04415143812147382 0.08709148950050759 -0.055934059324226175 0.09768552292248135 0.0612434625123072 -0.0036789253839257705
-0.055854446333006486 0.010804183657062785 0.00799752247921257 0.1328461874156586 0.10115999273017141 -0.03894602187528572 -0.1131059445655385 -0.0559173755711138
0.10893758272627442 -0.0515603339161258 -0.102314070842683 0.03359178619915602 0.003490944193213759 0.04681389928337537 0.028215178507097285 0.014902265101476927
0.06628574047421598 0.009818125282904773 -0.011164411167456216 0.004290209801000137 0.01772535459218337 0.007719912303595989 0.08120204008510522 -0.019380627248720143
0.044159737163696935 -0.08834963627414406 0.01662180790804461 -0.001675843157876895 -0.1345985717883724 0.0927570318447848 -0.11105931147402223 -0.012076107474114719
-0.08023591611226227 -0.12908482681807745 0.07452760727236807 -0.003008852793374465 -0.048123290570689724 -0.04460415686444491 0.07659397867027447 0.040450108671726166
0.0007912180994905613 -0.021431853830295118 -0.06392449415123903 0.011144114954442758 0.18966066812395285 -0.010043338952911924 -0.021331443423936888 -0.11613146159592413
-0.15170091371010014 0.005386859019167078 0.06806974694993762 -0.07795034612490057 0.12021789700450482 0.01873002956927698 0.06723830640746066 -0.08753310122691674
-0.05354379350390044 -0.09000479031679318 -0.007367132080127879 -0.09131632512381539 0.10239505159562426 -0.014936993829438269 -0.009577013785505496 0.012554229251610345
0.12051028867655013 -0.13392908520476213 0.05211002552667826 -0.012476014400912274 0.0981492061402963 -0.16587462916350237 0.03861681253416417 -0.0362209410700862
0.051323504183673783 -0.02303018875469541 -0.050494749914421565 0.08831741278422142 -0.009917776874568246 -0.08453944395327771 -0.15748150826765886 -0.015705304049113883
-0.19594153451590976 0.09714034048770052 0.053545017291641586 0.053720017241185004 -0.0792775535655685 0.09401110085477728 -0.0018858988850747466 0.09573295760261816
0.04642962146780627 0.021814427200702098 0.015824260081153892 -0.07447813450699499 0.08942840199689497 -0.0748842195682942 0.06969557002123937 -0.05482234271427217
0.0071521271475965716 0.025471197226859248 -0.08302264220358818 -0.08344193496934249 -0.01585616241987274 -0.03675749881197363 -0.024020654300128567 -0.05002349586157498
-0.04890556148742214 -0.036610803045639885 -0.008216162698092137 0.0012201435021864336 -0.12113888966870415 0.03967146818055826 0.08408014643254572 0.1425225605277184
-0.013139356846324845 0.10470665901924357 -0.1255590489075972 -0.030991872144575456 -0.07243387518578648 0.08067780593933749 -0.07865751450667137 -0.022095892328686677
-0.03383613353617859 -0.03458460541485256 0.07911205821028373 0.07510314016047809 -0.04771936207327074 -0.09806195301584933 -0.05238561548558219 -0.08374649066552065
-0.07187021602919061 0.04559006576800863 0.05573103212947851 -0.11719177670559974 -0.04251740977913967 0.074675119755356 0.012468282656027282 0.11902221559954769
-0.1135321148356483 0.025943967803192292 0.1525416513964771 -0.046156065949894125 -0.03268512531763302 0.05425498518244008 0.06218567399426544 -0.03729809733471
0.015061020209599778 -0.06211207036492344 0.021400474302536984 -0.10467978858001557 0.001171213201116763 -0.00795116369000088 0.04729414548212866 0.01542077257391786
-0.08465930480063179 0.06129257866971966 -0.062468554558984465 0.07249440894208439 0.06501660413358133 0.03410461186304919 0.040869971958143785 0.08568151098740617
0.040496408367848354 0.10551018099949529 0.007048074168517975 0.036013725487853684 -0.08416770705153039 0.13628390134475943 0.04157816883455161 -0.027122340602104614
0.02691583578693374 0.025966252126518163 -0.03495476748187512 -0.09199604605351422 -0.07986374965704557 0.05240045240930805 -0.12043518493584397 0.011921211431968075
0.11751582480542365 -0.060960910198249244 0.027612802884472962 0.14687491124774033 0.041315123113001825 -0.10557333515839055 0.01451435181200367 0.0567802391094764
0.06893347891287033 0.0913792115460218 -0.06481690375809163 -0.057329054030499864 -0.008309330500106108 0.03223474208022483 -0.0013671131231422313 0.05941739909607704
0.02274855580396409 0.05437945933447148 -0.13623153046977143 0.012166416384668642 -0.09796679809693767 0.0945829239553011 0.04469383632165261 -0.02004627648875674
-0.03304681064846485 0.008824331278145916 0.0003938430918895737 -0.04542016217692511 0.06464895420718804 -0.00551885529821665 0.07605447895089681 0.07240250157023928

base.actor.actor_fc3.bias f8 [4]
00000000: 7ead c9e2 23d2 c1bf 4778 4fcf 493e be3f
00000010: 83b6 5052 84ca 8a3f c8d6 7f4b d6db a43f
-0.13922546933768482 0.11813794432916423 0.013081582796157015 0.040739723888618296
