results/Hopper-2d/cmorl-ipo/0/final/EP_policy_77.pt (torch, 85897 bytes, 13 tensors)

base.actor.actor_logstd f8 [1, 3]
-0.9616506270828187 -0.7737218141110856 -1.4450152667554708
00000000: 84f4 2f89 d7c5 eebf 8be2 f93f 54c2 e8bf
00000010: a8f7 0e54 c81e f7bf

base.actor.actor_fc1.weight f8 [64, 11]
0.2548994688436827 -0.004408958370868441 -0.26468025052881283 -0.22507908125411014 -0.031431302764200524 -0.17608123145807109 -0.27181405597315966 0.01552197126068766
0.012764629699911413 -0.10519936393052579 0.34648876271012957 -0.011319935719947178 -0.16245031167413512 -0.16104636245460505 -0.07249871916418735 0.3084503996532554
-0.3653419018740388 0.0557106286997184 -0.0211787998986744 -0.06067395646212588 0.16705890124114942 0.08366269854501725 -0.3213576895821444 0.029007784470972738
0.13677597510667236 0.3709308392200277 0.027285092722462337 0.21164875417765136 0.05064893764345999 0.09335995557781734 -0.0293738957915987 -0.002425631992450314
-0.170192711684782 0.00285370850787114 -0.026748896034200467 0.28018790796090887 0.06261382493750377 -0.3515367542829623 -0.1957385767751962 0.13596794750553387
0.039572082830176526 0.2133000689330785 -0.12316804894984794 -0.04755895259711693 -0.20975260597526124 0.14164561671310427 -0.5064907404802318 0.24981797233623704
0.11819799548181759 0.1112699855591646 -0.11962849813328971 0.0489200578869271 -0.12802597814519331 -0.14978202471298954 -0.2032490629810809 0.2517160193510998
-0.3311817983257627 0.26982533340269893 -0.13229647559585656 -0.021273234015653533 -0.30587567819765765 0.0661144487359545 -0.0449620896158605 0.023171447972740296
-0.15565686838842493 -0.3248311363234111 -0.4417602809707643 0.11432326259377361 -0.43605497371463586 -0.16433788065194793 -0.3058640672904688 0.3869270810087256
-0.017072258860410836 -0.01358335332708342 0.11500228109844621 -0.3831635082858035 -0.1340176341492339 0.38736864497217866 -0.13374869794534783 0.19495926591101917
0.18689837974241666 0.047835011215944474 -0.0706478373836745 0.31147734057404125 -0.12539055740575966 0.2501248789114356 -0.015708200405761593 0.2113380128273788
-0.126681540383331 0.14984453799017988 -0.12554261714798212 0.08811408918738918 -0.03712104014463778 0.3165250511735844 -0.02958280864204509 0.030759020137822744
0.08011632770591169 0.13109408653221197 -0.21273748992467978 0.11975511125791127 -0.0819134194015106 0.3560084784883669 -0.1528328480345635 0.055990257267178024
-0.3159017951554538 -0.03675434100119956 0.026198393778770607 -0.02066611406752575 -0.3834664693661381 -0.07388177145392383 0.10506015430096848 -0.005682066194055592
-0.20596073971035 -0.049036280485180314 -0.1160867044675178 0.0388107105796676 -0.17834061238243895 -0.20740993954190703 0.08974565526160046 -0.02979772067130413
0.07956604793136145 0.048538662724155524 -0.03351828028898552 0.04316406774557055 -0.030385935878264606 -0.3263586191099418 -0.01106344149800622 0.4333827513999819
0.0045084207520065984 -0.17476398970524307 0.12574601083354764 0.20541185724603941 -0.032513999816294506 -0.06560571409417977 0.24043585709476825 -0.2226494904284589
0.1993903974753873 0.15689298740040564 -0.25410364957069137 0.12762952878435377 0.3801621975131359 0.054185013661987344 -0.054723611074049924 -0.2503744706001204
0.008524671872180362 -0.04720429888930888 0.05330085472530209 0.07870713206802953 0.144190443148228 -0.36037530288143255 -0.16124372318272343 -0.22573374930706364
-0.03945381761293846 -0.1663710553673851 0.04086261025656539 0.1737991660092438 0.023295807164883064 -0.16384676912522628 0.03147742476262729 -0.2973336399073175
-0.15603214484596956 0.07335632768098953 -0.014984193012820243 -0.1444758276139095 0.04555076500969317 0.02251514433560702 -0.14197103066409172 0.32713917556236594
0.18755544625947473 -0.023282414437055463 0.1776604729039877 0.20083856834371464 0.08750286553882967 -0.14149803003715944 0.10949986997371564 -0.12202691492667171
-0.4906387848233462 -0.14822696003435482 -0.006601483914819342 -0.18909843813024857 0.12098909238705657 0.13768593985536035 0.1530664234983501 -0.03985503005627969
-0.35891686887400115 -0.15260511205631125 0.16213205405647838 0.2738397916386548 0.020424456339400293 -0.05365497229689535 0.2500447320989271 0.08691198752447346
-0.3032364698596401 0.33169323747520874 -0.006974115217100365 -0.13398076675242745 0.05311145447553218 0.02674400551861353 0.358564571311451 -0.12833058284669513
0.15335551753767798 -0.19057772457786187 -0.17296474081751062 -0.11381980459510606 -0.14988716294516025 0.10455701102744784 -0.22775670384336902 0.2907449513919832
-0.15465152328628348 0.14357157565414733 0.17127369993514532 0.4183194313754702 0.06495765533519109 0.24300088513559906 -0.16002524878444238 0.39648713505670086
0.02008484076344736 -0.033136594492806606 0.00409388517687172 0.009005984274757595 0.033884199081311815 -0.31322866033443464 0.1900049644725927 0.29190419272452234
-0.06918976121967584 -0.30084951546053995 0.13336159479280285 -0.23861140514806942 0.008368060973407863 0.17968120470813106 -0.1042580137799521 -0.3183141124631335
0.08544240001676166 -0.5554601821218695 -0.2968564338940989 -0.24688087510443094 0.1855128551864298 -0.1706759196982586 0.10679124901858032 0.18514340132774848
-0.3070395217328818 -0.24867468204577128 0.5089143737378621 -0.23547500628498136 -0.19208436721565633 -0.14049710668952506 -0.5440355087018782 0.02632685115842863
0.16873922155640797 0.04195120992683841 0.1695938078854202 0.00014162572150244876 0.18408893060906614 0.07538559436361127 -0.18257960689405586 -0.10235971074416601
00000000: 8be3 9cdc 4550 d03f 2467 32c0 200f 72bf
00000010: 0cc6 fa6e 85f0 d0bf 4004 802e 64cf ccbf
00000020: d7c5 e282 c317 a0bf 18a2 466d d489 c6bf
00000030: 84dc 3fc8 6665 d1bf 3f0c 79b7 fbc9 8f3f
00000040: b475 da98 5724 8a3f 9240 a473 58ee babf
00000050: 6f60 1134 df2c d63f 0a12 ae0d e82e 87bf
00000060: ffc5 eefb 2bcb c4bf e9ee f0cd 2a9d c4bf
00000070: 06e4 cfab 468f b2bf 26ba bcbe a6bd d33f
00000080: 7613 1a00 c361 d7bf 7b1a 9c80 1a86 ac3f
00000090: 15bc bb33 e5af 95bf 7a90 7225 a810 afbf
000000a0: 2810 aba2 2f62 c53f 5d5d 252a eb6a b53f
000000b0: 14b3 c4d7 1f91 d4bf 1f6b 8776 37b4 9d3f
000000c0: ef17 fb09 e081 c13f 58c8 e1b3 54bd d73f
000000d0: b42c a593 9ff0 9b3f e350 b76e 4e17 cb3f
000000e0: bdf8 8255 a8ee a93f 0476 f623 70e6 b73f
000000f0: ecc5 1fc7 3014 9ebf 60f2 8c42 ebde 63bf
00000100: b412 5af1 dfc8 c5bf f600 d616 a960 673f
00000110: 5719 af06 1064 9bbf 1050 5b43 99ee d13f
00000120: f750 62aa 7507 b03f 1b30 bf03 947f d6bf
00000130: a753 e830 f60d c9bf ec95 ebcf 6567 c13f
00000140: 2d30 2ec3 ca42 a43f ccab 26aa 6a4d cb3f
00000150: 63d7 26f6 f087 bfbf 5cc1 12a4 a559 a8bf
00000160: 080f 7563 2cd9 cabf c4c7 b38d 7121 c23f
00000170: 85dc c211 2c35 e0bf d08e 910a 09fa cf3f
00000180: d412 0c4d 3942 be3f e3c4 0095 307c bc3f
00000190: 7aee 2627 f99f bebf 7f4d 7cc1 0c0c a93f
000001a0: 9f04 96be 2763 c0bf d1e1 d5b0 0e2c c3bf
000001b0: 3323 39b7 1004 cabf 7681 bf81 1d1c d03f
000001c0: 4fbc 3524 1532 d5bf 6b33 a679 d144 d13f
000001d0: ccb6 0746 17ef c0bf a771 8291 a6c8 95bf
000001e0: 730c a094 7793 d3bf a72e 1d63 e0ec b03f
000001f0: 867d eb60 4505 a7bf 02bd f98c 41ba 973f
00000200: c722 9073 90ec c3bf 04d2 ce88 08ca d4bf
00000210: af3c dce9 cc45 dcbf a324 0312 4a44 bd3f
00000220: 3633 d71e 53e8 dbbf ce70 720f 0609 c5bf
00000230: ce2e 82e1 4693 d3bf 49a1 b7cd 69c3 d83f
00000240: b9b1 e5e5 637b 91bf 578b 7ad2 96d1 8bbf
00000250: 7681 481c ca70 bd3f f2eb 463c c085 d8bf
00000260: 6a0e e165 7d27 c1bf 97af 69db a5ca d83f
00000270: ac67 c765 ad1e c1bf 5beb 91db 6cf4 c83f
00000280: 09a4 553e 49ec c73f e173 8da1 d47d a83f
00000290: fe93 1807 fa15 b2bf d579 cda7 3eef d33f
000002a0: 3079 a43b cc0c c0bf ffcb b5c7 0b02 d03f
000002b0: 3f48 167c cf15 90bf 6263 bfbe 1f0d cb3f
000002c0: 0f06 7ac8 1937 c0bf 7276 1317 1b2e c33f
000002d0: 89d1 73cd c711 c0bf 096d 601b a58e b63f
000002e0: 7e56 d46a 8701 a3bf f8ef c949 f241 d43f
000002f0: bdcd 90ae f44a 9ebf 0621 32e6 4a7f 9f3f
00000300: c75c 5fef 8082 b43f 8b6b 2de7 b0c7 c03f
00000310: 5408 ee68 fb3a cbbf 98ae 615e 45a8 be3f
00000320: 65da 6e21 47f8 b4bf 4a33 0dc9 d7c8 d63f
00000330: ff0f 08da 0690 c3bf 25dd b647 c1aa ac3f
00000340: f22e bc29 bc37 d4bf 4f20 2c09 77d1 a2bf
00000350: 3540 f371 c0d3 9a3f 49c2 3870 7f29 95bf
00000360: cd91 42f2 b68a d8bf 3847 2a70 eae9 b2bf
00000370: 07db d5e6 38e5 ba3f 4283 a207 1446 77bf
00000380: 2070 a8e8 eb5c cabf a6ae 008a 481b a9bf
00000390: 613b 30b7 dbb7 bdbf e52f 5959 ffde a33f
000003a0: 9197 dd7c ddd3 c6bf 6d52 99ad 688c cabf
000003b0: 8d81 4e3e 92f9 b63f da47 1d2f 4b83 9ebf
000003c0: e7b6 bcc5 705e b43f 20d0 fb41 0fda a83f
000003d0: e196 51db 4e29 a1bf 4cbb a8c6 9919 a63f
000003e0: 1108 6ca3 7d1d 9fbf 2e13 f642 0fe3 d4bf
000003f0: 0c38 52fb 6da8 86bf 7b75 fa01 8bbc db3f
00000400: 54ce fbfa 6b77 723f 4fb8 269a aa5e c6bf
00000410: 5cf7 10fe 7118 c03f c58a 8a8c ef4a ca3f
00000420: 8a0b bfcb aca5 a0bf 3519 773c 89cb b0bf
00000430: 41fe 8027 9ac6 ce3f f33e ee4b c77f ccbf
00000440: 8b88 25e2 9f85 c93f 36a1 edc4 1115 c43f
00000450: c3d2 2cf4 3b43 d0bf fdfb 1016 2a56 c03f
00000460: 6fa4 5fd3 9354 d83f ee1c 395b 23be ab3f
00000470: 669e c3af bb04 acbf eec5 bea4 2206 d0bf
00000480: 9d7f 3317 6275 813f 209e eb6f 292b a8bf
00000490: eebc c9e7 3f4a ab3f 23b3 318e 2626 b43f
000004a0: 52d3 db1a d574 c23f b55b 0a93 6310 d7bf
000004b0: 45a6 e062 a2a3 c4bf 664b 70ef d7e4 ccbf
000004c0: a528 b370 4a33 a4bf fee6 e690 a54b c5bf
000004d0: b6be 5cad f1eb a43f ab77 0a13 0d3f c63f
000004e0: 93dd a027 dbda 973f a65b 7951 eef8 c4bf
000004f0: e3e7 d51b cf1d a03f b1c3 d9ac 8307 d3bf
00000500: 7e7c 9e7f dcf8 c3bf c731 58f4 7ac7 b23f
00000510: 6b7c 9357 08b0 8ebf f706 5515 2f7e c2bf
00000520: e67f 0c0c 6e52 a73f 2d38 58c2 350e 973f
00000530: 8641 d752 1b2c c2bf 0af8 1127 d9ef d43f
00000540: 2c81 ef1d d101 c83f 1cf8 5062 58d7 97bf
00000550: 090f 7510 94bd c63f 49e6 6705 14b5 c93f
00000560: bfa9 cb79 9666 b63f 94a0 ba81 9b1c c2bf
00000570: 780f 74f8 2e08 bc3f 1f82 d7e8 273d bfbf
00000580: fcc9 bd37 a066 dfbf aed4 dddc 19f9 c2bf
00000590: b6b8 4e58 280a 7bbf 923e bfab 6034 c8bf
000005a0: 28a2 f922 24f9 be3f 2b1e 6660 b19f c13f
000005b0: c042 8539 ae97 c33f a47b 58e5 e067 a4bf
000005c0: c3fa 7275 7ef8 d6bf a1fc bd76 9088 c3bf
000005d0: 0927 e73e bec0 c43f 509d 5b55 9786 d13f
000005e0: 08b2 1010 26ea 943f 06df 901e aa78 abbf
000005f0: eeb9 b99e bb00 d03f fe47 0c30 dd3f b63f
00000600: ef1a 40f0 3968 d3bf 1eaa d045 763a d53f
00000610: 1c6c 6acc e390 7cbf ad51 bf21 4826 c1bf
00000620: f9e2 07b0 6c31 ab3f 9815 44d4 c762 9b3f
00000630: 415d d2d0 b8f2 d63f 369b 33f4 226d c0bf
00000640: 4124 3e52 27a1 c33f be39 34d3 d964 c8bf
00000650: ba0e 9668 b523 c6bf e582 5f72 4b23 bdbf
00000660: a447 78a7 802f c3bf af2e ee8e 3fc4 ba3f
00000670: 09dc 39b5 2127 cdbf d229 6db6 909b d23f
00000680: 0f45 6501 9fcb c3bf a7ed 08ab 8d60 c23f
00000690: 7574 f1ed 4bec c53f 557e 42dd bec5 da3f
000006a0: bb1b 4a9d 10a1 b03f c539 472b a71a cf3f
000006b0: ed1e 0815 b57b c4bf e69b 9693 0b60 d93f
000006c0: 52c2 e5d8 1e91 943f 627a 4b9b 47f7 a0bf
000006d0: 1301 2cef bfc4 703f 6d4f 6dbf ba71 823f
000006e0: f38e cf0d 4559 a13f 3e9a 1339 f00b d4bf
000006f0: 0764 3e2a 1552 c83f 714b 54ec 8eae d23f
00000700: 1b14 a891 6bb6 b1bf e8e8 7a53 1e41 d3bf
00000710: 10b8 1624 fe11 c13f df22 c88a d18a cebf
00000720: 9f9a b121 4623 813f e7b1 f630 cbff c63f
00000730: 45e3 8737 a7b0 babf 699a b827 425f d4bf
00000740: 8b84 c399 8ddf b53f 3f32 8e6e 54c6 e1bf
00000750: 78ab cb20 b2ff d2bf 096b 4ae2 ca99 cfbf
00000760: d0b3 019f e2be c73f 91cc a862 b5d8 c5bf
00000770: c3a6 08da ab56 bb3f d2ed e26a c7b2 c73f
00000780: 7705 1b18 89a6 d3bf a169 5d6d 92d4 cfbf
00000790: da63 f5cb 0649 e03f 5a7b 8285 0b24 cebf
000007a0: fbcd a175 3896 c8bf 4f02 3527 cffb c1bf
000007b0: e297 b727 bd68 e1bf 6cae ed12 6df5 9a3f
000007c0: 1492 112f 3f99 c53f 5da9 5305 a17a a53f
000007d0: 0f6a 3cf9 3fb5 c53f 3010 2baf 2b90 223f
000007e0: 3bc2 42e0 3990 c73f 7198 6166 784c b33f
000007f0: 8d64 43c0 c45e c7bf 9dff 12fa 3e34 babf

base.actor.actor_fc1.bias f8 [64]
0.16266408378345285 0.06023260440580459 0.2946970514238324 0.06284859618070686 -0.1655917222686806 -0.023772622188612817 -0.08919339393665354 0.3080490134298625
-0.17868846876591316 0.0683941735639618 -0.20613074162947073 -0.14845424652224593 0.022331337966476513 0.11045002387328928 0.14896462365344337 0.15155531883907836
-0.17989455628831108 0.23989465644940608 -0.1803229743077329 0.30916093257420885 -0.1794018996059287 0.06213422709701109 -0.061245483976816624 -0.44734163556467355
0.11029805891228588 0.047361823000233005 0.1018234845269528 -0.11959527855220606 0.24794288825475874 0.19299684335151476 0.2332170709381958 -0.20836734082346278
0.24627217289831063 -0.08012694300474739 -0.268145975812853 -0.05698798929927611 -0.13041721726796524 0.08393038147556753 0.25894476794747634 -0.36305322560725617
-0.03508354279005263 0.03445263405085693 0.23573584528765118 -0.2855761138700369 -0.06374599608735858 -0.12998683056347962 -0.48148417306156255 -0.0379702527494532
0.17202396270370401 0.1668165624853909 0.22464565481909715 -0.07109296370001149 -0.09011026937867839 -0.2823245516743257 0.19649365837619442 -0.03054085210984815
-0.20315637822660523 0.27801656776276423 -0.09151924471964881 0.43533278996963437 -0.03458086556738138 -0.0034241702430182724 -0.10035652210627469 -0.2788657498478847
00000000: cbb7 0a3c 2dd2 c43f 02d4 26d4 ced6 ae3f
00000010: 8ef3 8505 51dc d23f e315 3279 d816 b03f
00000020: 25ef d00b 1c32 c5bf 116c 5cab d957 98bf
00000030: ec27 fad5 60d5 b6bf c7c3 8f35 13b7 d33f
00000040: 18ce c284 43df c6bf b6b4 b1d2 4782 b13f
00000050: c3d8 fffc 7d62 cabf 94f7 e17a 8c00 c3bf
00000060: 0fbf f7b8 06de 963f 80d1 60e8 7346 bc3f
00000070: 4e1e 6dd5 4511 c33f d06e f928 2a66 c33f
00000080: 144d fee9 c806 c7bf b3b9 f73b deb4 ce3f
00000090: ab40 afbe d214 c7bf 88da a6ef 4ac9 d33f
000000a0: 1de9 d235 a4f6 c6bf 9d13 b0b2 0ed0 af3f
000000b0: a18e 6a6d 915b afbf 50ec b8cf 3ea1 dcbf
000000c0: 3b2e d75b 7e3c bc3f 98d9 ba11 cf3f a83f
000000d0: e20d 0298 1a11 ba3f 9e42 23d2 cb9d bebf
000000e0: 803c 2ab2 97bc cf3f df86 36dd 1eb4 c83f
000000f0: 0934 4696 0eda cd3f c114 32f1 c7ab cabf
00000100: 51ad 41b8 d885 cf3f 55dd bb07 3383 b4bf
00000110: bbe4 2abd 4d29 d1bf b641 9c9c 872d adbf
00000120: 8a28 80e9 82b1 c0bf d80f 9423 767c b53f
00000130: 8880 7313 8d92 d03f be30 ac98 433c d7bf
00000140: bc7a d259 78f6 a1bf 6bdb 0491 c6a3 a13f
00000150: 36b0 0099 972c ce3f 12cc 6509 e146 d2bf
00000160: d336 7258 a851 b0bf b525 1791 68a3 c0bf
00000170: 32d3 35fe a2d0 debf 1f3c 8f43 d670 a3bf
00000180: ec69 f896 e104 c63f 8c27 27c0 3e5a c53f
00000190: b879 5156 30c1 cc3f 3f38 1102 2633 b2bf
000001a0: 70e2 0374 7711 b7bf 4e24 13ff 9a11 d2bf
000001b0: 766f 4c46 b426 c93f 64dc 03e4 1946 9fbf
000001c0: 7781 3a38 0701 cabf 2562 9200 06cb d13f
000001d0: fa87 0623 ce6d b7bf eff1 f20f 7edc db3f
000001e0: 00ca 5b4d 95b4 a1bf 77dc b566 010d 6cbf
000001f0: 1a02 630c f7b0 b9bf 3e8e e4ba efd8 d1bf

base.actor.actor_fc2.weight f8 [64, 64]
0.28202406159334353 -0.22837635712326837 0.040477252924770724 -0.06942335929036657 -0.20668993946839412 -0.19650523227466624 -0.22230997736607502 -0.10227377059121473
-0.14093646788193398 0.16060797998619072 0.18874229258222908 -0.24835669291454351 0.11201986610398296 0.07217637154936288 0.06215784832856672 -0.1814662235616292
-0.10741049953327313 -0.04982355529239545 0.04819589557391136 0.020889444759031126 -0.21315060284240858 0.012279515742758079 -0.3205185919811252 0.08247577185403006
-0.18896303818855556 -0.04183726559015735 0.07064218054689078 -0.12562292944601158 0.04560389633033135 -0.0580972914102122 0.1443345016832995 0.028897196033058417
0.12951889081854473 -0.4427827154313323 -0.3284319642656813 -0.09831431603107744 -0.21153433313889045 0.05536378100815315 0.04138849206822579 -0.04085336940153114
-0.006927954828878757 0.06972556103149333 0.036317501175366494 0.09628673030517113 -0.10237596228498518 -0.04947985410844474 -0.1080010795872643 0.15925896403341272
-0.11099766242825532 0.2241432396885854 0.11502457938454604 0.036651614895583835 -0.037620917137588486 -0.08868301559225841 -0.14580446330453106 -0.06492303852668518
0.005879712459807392 -0.1329376525997185 -0.19775858049385875 0.14104115367493486 -0.16347773056719905 0.2592503617456722 -0.09833151316390758 -0.02282381534335873
0.051183592007969195 -0.0006734873811248443 -0.15853821095515108 0.04730295041218529 -0.056604250881650095 0.08273845714690845 -0.05485061625376238 0.2657757000243831
0.18597496251211965 -0.08121320717484912 0.1505042620075423 0.01742478964834208 -0.05705274904467607 0.10193734347121496 -0.028499396651817534 -0.05636772374389132
0.04352945221865811 -0.056149243105073354 0.24493966201675652 -0.30673824377487857 -0.023345398069061864 0.11330085749815866 -0.02002165669282266 0.23796001976607556
-0.1393394328515479 -0.06006083167138736 -0.16261850007239242 0.06061226522461571 -0.18840324765625616 0.08330866509736687 0.029732561395560443 -0.051553187422148455
0.008304201730065935 0.36830426145884904 0.058703764351224055 -0.11685804167347005 -0.11681545885096586 0.06916012793756707 -0.03924817394383343 -0.04939644557278228
-0.08978173358387001 -0.12267859365907204 -0.30730326512172473 0.19713715623182737 0.09958802158307123 0.16041397573588526 0.03775178768959975 -0.13739098976558906
-0.30189412126455606 -0.016434480463423225 -0.03464935996250805 0.03428575764536489 -0.043485647162337465 0.028249152079490185 -0.04376903472716446 0.09559495880806246
0.27162698753429826 -0.031213588385978427 -0.019761955432164306 0.18242408914059074 -0.0960864888146614 0.16413243554416132 -0.15140971900695638 -0.1915508422018185
-0.15522651578940191 -0.26181121615341313 0.447789249319017 -0.16605090672298325 0.05127068425332306 0.02943317190842483 0.22354782379793425 -0.1046621772514521
-0.10040022815172238 0.023204618170756326 -0.44999658906257406 0.09250254900222687 -0.28355144379339126 0.1795260933258741 0.006654901279612505 0.17446353553637803
0.23332684683173574 -0.09645329306643012 -0.2143018164192388 0.19969504234629717 -0.10588088836483 -0.09810432640499499 0.035620994532898964 -0.28251934687830205
0.08839873873705852 -0.056919689904696355 -0.0012288228618371891 0.05995913508447314 0.12505259802823054 0.17182077090256287 0.11736235665989661 -0.03685844265013329
-0.07520119380620727 0.10406097554764014 -0.1505076026118956 0.05573029588536509 -0.12124418098895762 0.0808375764758369 0.13347355017146373 -0.4575704269300236
-0.13802188061935564 0.08724878767258187 0.1412144312208447 0.09886695093736797 -0.10982887863709928 -0.1322834547066729 0.10916012826144926 0.13919821625900028
0.2708897610116775 -0.0559915682847955 0.31228458393485714 0.2586728492469007 0.07821358338795809 0.17427091939245706 0.1402690366607964 0.189069904821002
0.17992284165115163 -0.09713131356595886 -0.23764776283491604 0.020942221539078713 0.005819899200890662 -0.04218585635634468 0.2076428912486135 -0.04102821276398696
-0.3389890947562783 -0.13876788444496502 0.34353955167606204 0.24719394548307194 0.13056138069756903 0.14435015216924102 -0.011596024538834904 0.07639880293702521
-0.09142418953817956 0.058273122640154974 -0.014804641332638683 0.2685673777958175 -0.09979738725438188 -0.12172718007111873 -0.0551070941607386 -0.24499554723694164
-0.16146461811992643 -0.03257730667578539 0.021708132433726747 -0.07242412237593363 0.15811072094302994 0.19801322216153122 0.056955422651605546 0.18240492457755356
0.29805906140651073 -0.10940224960060241 -0.10617495285725176 -0.0940575911176205 -0.09226329607131581 -0.1428453913612868 -0.08787926207119247 0.06663933891964206
-0.19033386722084567 -0.05470967233601137 0.47246049301317994 -0.18968255781570714 0.08126237870421259 -0.07087521951962977 0.15936687453335202 0.062463647354913575
-0.037706443591949794 -0.024568784863646508 -0.0729918027782489 -0.038220577065032436 -0.03959850651899987 -0.06478802795493727 0.12198029770810481 -0.18041179199693622
-0.12945900521861173 -0.3236725377645091 -0.08358151806141419 -0.18367620971890486 0.12685341796508762 0.2729107335344168 -0.0825075437378206 -0.05539370171315403
0.11391787139951762 -0.1321146053003061 0.047920528157582284 -0.17282789306987015 -0.14812399325506917 0.04826311413685644 0.23453107383139088 -0.08315776764211641
00000000: bf9f 4ea6 ae0c d23f 3614 83bc 6f3b cdbf
00000010: 586e 163b 6fb9 a43f 6f07 bbb1 bac5 b1bf
00000020: 91e8 36e1 d074 cabf dd68 0e5d 1527 c9bf
00000030: 374f 2e41 a774 ccbf 2489 ed23 9d2e babf
00000040: beee 2ec8 340a c2bf 4537 c262 cd8e c43f
00000050: 60a1 011b b528 c83f 57c4 e7f0 26ca cfbf
00000060: 683d 6b7d 55ad bc3f 9234 5993 267a b23f
00000070: 9c97 854b 27d3 af3f 234e c303 493a c7bf
00000080: fb0f be26 417f bbbf 2e42 1a19 7982 a9bf
00000090: d12f 95e6 21ad a83f 495b 49e8 0a64 953f
000000a0: 9f58 2ada 8448 cbbf b6f7 34b4 0026 893f
000000b0: de68 9469 6083 d4bf 7d4e d3d6 211d b53f
000000c0: 3d19 96da f02f c8bf 2476 edae b16b a5bf
000000d0: 0ac2 2a1f 9b15 b23f 3f96 cc82 6914 c0bf
000000e0: 602e 9ed6 6459 a73f 59a3 2f9d edbe adbf
000000f0: 6f05 358e 8d79 c23f 84e1 a1ff 3997 9d3f
00000100: f0d1 2334 1394 c03f d2be 8050 8d56 dcbf
00000110: 69db 5e80 0705 d5bf 9903 1584 202b b9bf
00000120: ab06 6899 8e13 cbbf 8937 a039 a458 ac3f
00000130: 0d42 ba57 df30 a53f 9c9f 059b bbea a4bf
00000140: 00f2 b0b6 7c60 7cbf 0255 53cc 88d9 b13f
00000150: 032b a41f 3598 a23f 4211 b345 3fa6 b83f
00000160: 3319 e9a1 4f35 babf 48ca 6966 6c55 a9bf
00000170: ed8e c270 f5a5 bbbf 0626 0f05 9962 c43f
00000180: 6cd2 0fc2 576a bcbf c87d 0ac6 b9b0 cc3f
00000190: 195a b136 4072 bd3f c9ec a41e 00c4 a23f
000001a0: 7ac0 8081 0c43 a3bf aeed ad1b eeb3 b6bf
000001b0: 4a7c c07c b8a9 c2bf bca3 3ad7 cb9e b0bf
000001c0: 3c9a 984b 5315 783f 8551 29db 1904 c1bf
000001d0: a4bc dc35 2750 c9bf 2c44 36f3 a20d c23f
000001e0: a088 3499 d6ec c4bf 0e20 4bd4 8e97 d03f
000001f0: 7386 3409 412c b9bf d9f0 e051 205f 97bf
00000200: b235 885b bc34 aa3f a484 5a23 9f11 46bf
00000210: 1cff 9be7 fa4a c4bf 579e 0ca2 1738 a83f
00000220: 2ed9 b37c 3bfb acbf aa45 91f7 582e b53f
00000230: ca61 f345 6115 acbf 6247 eb14 7802 d13f
00000240: 00a4 ee0e 07ce c73f 56ba d184 63ca b4bf
00000250: b891 9d41 b943 c33f ab9c b7d6 cdd7 913f
00000260: 326a 9696 0436 adbf 5f32 73d4 9018 ba3f
00000270: 5a18 4d22 f22e 9dbf 0059 0ff4 3adc acbf
00000280: cf44 620b 7e49 a63f f8b2 a9f5 97bf acbf
00000290: 3f79 edce 2e5a cf3f 5e84 5c71 99a1 d3bf
000002a0: baf8 df24 dbe7 97bf 9037 90f5 4801 bd3f
000002b0: 0864 d4a2 8e80 94bf ae4d 5353 7975 ce3f
000002c0: bbfe 91e1 dfd5 c1bf c62c 9917 4bc0 aebf
000002d0: 3c8b c4d9 aed0 c4bf a09d c021 9208 af3f
000002e0: 5468 92fd 981d c8bf 2e0d 1178 b753 b53f
000002f0: 1aee 476b 3672 9e3f a422 f7eb 2d65 aabf
00000300: 30d7 cc16 cb01 813f 395d 7c09 4c92 d73f
00000310: 42c9 1478 6b0e ae3f da1c 439b 68ea bdbf
00000320: 36a0 6e2f 9ee7 bdbf aed4 ad67 7ab4 b13f
00000330: 9570 082f 5618 a4bf 2828 8cac 7d4a a9bf
00000340: 225a 8589 effb b6bf 555b af43 dd67 bfbf
00000350: 81b7 6950 dbaa d3bf 48cb 6b53 ca3b c93f
00000360: 48cb c5bf 997e b93f 05b1 cdf5 7188 c43f
00000370: 7017 fcca 3354 a33f 9475 e727 0796 c1bf
00000380: 38e6 6bb8 3b52 d3bf 22f7 7750 33d4 90bf
00000390: 2e8c bb97 8fbd a1bf 8e60 9c1f e78d a13f
000003a0: 7cb5 d030 c043 a6bf 1ed9 4881 58ed 9c3f
000003b0: 0519 7619 e568 a6bf 803b be45 e978 b83f
000003c0: 90ee 0a29 5662 d13f 1ffd 3b75 74f6 9fbf
000003d0: e105 2561 7a3c 94bf 3543 6e2c ac59 c73f
000003e0: 87e3 0bc7 1f99 b8bf 0700 70a9 4a02 c53f
000003f0: 0239 b7c7 6461 c3bf b497 63ed bc84 c8bf
00000400: 17cd 6464 76de c3bf 9fb6 c6d4 83c1 d0bf
00000410: 1cd6 543d 94a8 dc3f 8355 ecf6 2741 c5bf
00000420: 031f 39b0 2640 aa3f 7492 0ebb ba23 9e3f
00000430: b0ec 2610 379d cc3f 0853 6cf4 23cb babf
00000440: 9b2e 6c50 d4b3 b9bf 3565 a390 f3c2 973f
00000450: ab75 557e becc dcbf 20de c23e 3fae b73f
00000460: 6ce0 74f4 b425 d2bf bc7f ce05 b6fa c63f
00000470: 512a aa75 2b42 7b3f 5b94 bc35 d254 c63f
00000480: cfe6 3574 a7dd cd3f 7fd3 4fbb 29b1 b8bf
00000490: 423c 7fee 3d6e cbbf bb7c 066e 9b8f c93f
000004a0: 1862 cc88 021b bbbf 8f6c 8179 5d1d b9bf
000004b0: 48bc 233d ea3c a23f f417 d506 cc14 d2bf
000004c0: e920 e2bb 4ca1 b63f 563c 47dd 9324 adbf
000004d0: 3f49 4480 0e22 54bf 4f8a 91b8 f6b2 ae3f
000004e0: 9cd1 6739 b901 c03f ec66 e617 39fe c53f
000004f0: 1ac0 a29b 750b be3f a312 871b 1cdf a2bf
00000500: b88f 04ac 6240 b3bf 2758 c476 bda3 ba3f
00000510: fe3b 8247 d543 c3bf 37b6 726c ae88 ac3f
00000520: 6889 2dd0 db09 bfbf 116a 407b c5b1 b43f
00000530: aa08 6f4a a915 c13f 54ff d178 d548 ddbf
00000540: 093f b273 b3aa c1bf f45c abc1 ef55 b63f
00000550: e68b e881 5013 c23f 3865 ee30 584f b93f
00000560: fc16 e7d1 be1d bcbf f02e e20b aaee c0bf
00000570: a7fb e80c ebf1 bb3f 7b39 3f45 3fd1 c13f
00000580: 4673 1702 4256 d13f d617 4545 edaa acbf
00000590: 34e4 c27a 78fc d33f 9a3a f890 188e d03f
000005a0: 7416 c12e ce05 b43f 3b9c b76d 824e c63f
000005b0: e9bd 8cf6 55f4 c13f be98 ee50 7133 c83f
000005c0: 7af8 5830 b607 c73f b2ed 2e07 99dd b8bf
000005d0: bff8 abec 3d6b cebf 51b6 76b2 e071 953f
000005e0: 08d1 bd4b 9bd6 773f 65fa ce72 6299 a5bf
000005f0: 6170 94d1 0a94 ca3f 23be 1160 a601 a5bf
00000600: 7372 eb50 ffb1 d5bf c48e b662 25c3 c1bf
00000610: 3132 d550 8dfc d53f 6c3b cf1b 0da4 cf3f
00000620: abbb 1b3e 3cb6 c03f 62a8 5ed7 107a c23f
00000630: 0066 4311 a8bf 87bf 2b6d 1138 df8e b33f
00000640: b139 2160 9367 b7bf a555 f387 f9d5 ad3f
00000650: b550 d252 e551 8ebf ecf3 193a 3530 d13f
00000660: 75db 7b52 528c b9bf f993 7031 8329 bfbf
00000670: a65b 653e ff36 acbf 492e 869b 035c cfbf
00000680: a1a2 2463 dfaa c4bf 2f4d 8705 f9ad a0bf
00000690: 4abc 701b a83a 963f 9ecf 0b25 638a b2bf
000006a0: 3174 ccdb f83c c43f 7aff ad4c 7f58 c93f
000006b0: 7bac 3cdb 4229 ad3f ed4f d868 0b59 c73f
000006c0: 661d 4150 6613 d33f f0b6 242c c901 bcbf
000006d0: f01d 2d1e 482e bbbf a36c ca85 2814 b8bf
000006e0: fa59 3f3f 919e b7bf 5ff9 23fe c148 c2bf
000006f0: 89a6 975c 417f b6bf c373 4995 460f b13f
00000700: 5072 8433 dc5c c8bf d884 eafa e702 acbf
00000710: 7831 89ef ca3c de3f ea54 389f 8447 c8bf
00000720: bf04 ee7a 9ccd b43f 6c02 efdd e024 b2bf
00000730: a6de 173d 2266 c43f db0d 2835 3cfb af3f
00000740: 77db 264c 424e a3bf 13a0 f73d 8f28 99bf
00000750: 6804 cf3d 97af b2bf ad9f 0ec1 a591 a3bf
00000760: 7f68 f064 4146 a4bf 4c21 3dbd f295 b0bf
00000770: b0a3 69cd 193a bf3f ab44 38cd bb17 c7bf
00000780: b716 cbd8 1c92 c0bf 08f6 1305 0db7 d4bf
00000790: d5b1 9f2e 9965 b5bf 28e1 e5b8 b382 c7bf
000007a0: 13df c598 bb3c c03f 017e d094 5e77 d13f
000007b0: 7cf8 06e2 361f b5bf 1d56 8632 905c acbf
000007c0: ba42 17bc b829 bd3f 965c 8ba2 21e9 c0bf
000007d0: 9edb 7c1a 0a89 a83f b92c 4972 391f c6bf
000007e0: fb47 641d baf5 c2bf cc4e a461 f1b5 a83f
000007f0: f233 003e 1d05 ce3f dc66 6ed4 d349 b5bf

base.actor.actor_fc2.bias f8 [64]
0.1711548028808734 -0.18780860485273157 0.17534391776346414 -0.18813155251253366 -0.19432855846405506 0.23063384423585656 -0.3151414160203391 0.23463702610934487
-0.024801630660778576 0.0783413706485002 0.10710049282243282 0.18462846324397755 -0.06784039240842561 -0.17864169747792677 -0.10139544000926194 0.18123248837590897
0.021638722724832717 -0.13359115948481332 -0.038723869551350695 0.16577633602840638 -0.13192777421898252 0.18352204732089067 0.07203577162126867 0.0522651437935242
0.10514299582997698 0.11388544432330512 -0.08818254890782361 0.1329825059982106 -0.24531423633127883 0.1887753281478364 0.05327141438257366 -0.07052077350276677
0.026535320126912208 0.12202126519065501 0.1336073199782896 -0.1298322608135649 -0.10207030912761428 -0.11712707255448243 0.0492955555531028 0.2785485060720442
0.01474489768588643 0.11105454545795322 0.09952411287642567 0.04599062368060303 -0.049106522589566305 0.009179402738034512 -0.19300355185628035 -0.16024878283736987
0.16641716127101397 -0.04135957063520496 0.14962287327416382 -0.12398531485454062 -0.08351190784556836 -0.16672516643496751 0.02892749375858379 0.025227628529062303
-0.14199876425098779 0.23208135674570352 -0.18557941687614182 -0.07149696573806627 -0.06965678681689867 -0.21022151167968164 -0.15031693005699365 0.3508282413723925
00000000: 619d 768c 66e8 c53f b5fb dfc3 1c0a c8bf
00000010: 205d 2c64 ab71 c63f 7c8a b1d8 b114 c8bf
00000020: a016 a419 c2df c8bf 6500 2ce9 6885 cd3f
00000030: 070a dbe6 462b d4bf b700 c908 9608 ce3f
00000040: c453 4d42 9965 99bf 77ef db18 2e0e b43f
00000050: 0fce 0e1a f06a bb3f 6595 c5cd e7a1 c73f
00000060: 5df3 bdea fc5d b1bf bf4f 2f2c bbdd c6bf
00000070: b9a5 cd32 0df5 b9bf 9b0b 464d a032 c73f
00000080: 87b2 b819 7628 963f aed0 82de 8319 c1bf
00000090: d661 9872 9dd3 a3bf c9aa d8b2 2838 c53f
000000a0: 6530 da61 02e3 c0bf ce49 ab83 a67d c73f
000000b0: bc66 41b3 ef70 b23f 9fba a036 7fc2 aa3f
000000c0: 5f43 7ec0 a6ea ba3f 05e9 dbb2 9827 bd3f
000000d0: ef13 a3ab 2193 b6bf 80e9 191d 9205 c13f
000000e0: 899d 24f7 7466 cfbf 59e3 573a ca29 c83f
000000f0: 416d 2b0d 6446 ab3f b90c e23f a60d b2bf
00000100: a931 8930 132c 9b3f 6610 691f c93c bf3f
00000110: 1d0f e86e 0b1a c13f ff7a 14f1 579e c0bf
00000120: b080 989f 4721 babf 4204 1932 0afc bdbf
00000130: eba0 e05d 443d a93f 2a76 fb1c bdd3 d13f
00000140: 1cff bfaa 9232 8e3f df65 d018 126e bc3f
00000150: 9db8 f789 697a b93f 90fc 4241 158c a73f
00000160: f5be 1579 7d24 a9bf f80f 7494 a6cc 823f
00000170: 3306 9e23 57b4 c8bf d451 c138 0883 c4bf
00000180: 127a 9354 284d c53f 1976 82e6 142d a5bf
00000190: 5919 b9a1 d726 c33f 2c09 7c68 80bd bfbf
000001a0: cef5 0551 0961 b5bf 5d11 a110 4057 c5bf
000001b0: 14ec 973e 2b9f 9d3f 92ab f37d 45d5 993f
000001c0: 5ce4 43f8 032d c2bf 2cf7 9d86 d7b4 cd3f
000001d0: 929a 25fb 10c1 c7bf c6b4 9b09 a04d b2bf
000001e0: afb1 52f5 06d5 b1bf a53a cada 89e8 cabf
000001f0: cca0 50cd 953d c3bf a549 cd4b f873 d63f

base.actor.actor_fc3.weight f8 [3, 64]
0.06738018045606503 -0.005709842645171287 -0.10086412365848436 -0.04807183220174674 0.1295431974529311 -0.13596465912462555 0.0026333828247242183 0.04816348125155108
0.060225814834809974 -0.10597294890750744 0.1422630106835062 0.2069357339121035 0.15821903835473458 -0.04972894233986152 0.059186004284357316 0.119400345735607
0.018475223474921577 0.10660255554275848 0.11096926524533252 0.14590531501543744 -0.08416656890566539 0.1628499990993604 0.15150661145507652 0.06780234048147395
0.1427674915025109 0.20801497256876697 -0.15224888638772133 0.15490560544047674 -0.009937934737565612 -0.028499363145885012 0.12867696647451293 -0.097038989360863
-0.12917471266115155 0.14688182571375002 0.08102860485719703 -0.18723154476565704 0.24535356525618546 0.05742350422429661 -0.028085798309090935 -0.07645583931353225
0.0340738879956424 0.013146757994404339 0.0768131123066193 0.18023996823866203 0.08961889319173705 -0.05380607473016601 0.17583641846694198 0.11712561009333619
0.09396940019441241 -0.08361587811537399 0.13813735225771429 -0.09881287616053164 0.08646720456070896 -0.06206098563749152 -0.04033311299783446 0.07686119488133311
-0.12579286080398336 -0.007507201307125084 -0.040352920988955696 0.10385139506825268 -0.0008705221001162982 0.008526290028689544 -0.013233571507045865 0.03671142490729956
0.14224753789487388 0.06467459093347762 -0.12162304673908056 -0.17373344583904415 -0.23623578969052678 0.13755876820474627 -0.3114938872723626 0.13449034487657419
-0.02885196742781896 0.15539920405794427 0.03086298530378334 0.09834794430335145 -0.11267609955123736 0.0742816572796845 0.11644381011375028 0.01780481415341498
-0.0014576569255523206 0.2210881851307176 0.1638266162857531 0.08591185822618706 0.024470725161723945 0.05265111587484566 -0.009889139384312035 0.12037171144127301
0.0689752249729072 0.18491084942304806 -0.04560604747505055 0.17607634023552943 0.10272137970401847 0.20543982275104958 0.08147863006665151 0.09096839419174164
-0.20676893847054556 -0.1934724006964835 0.04229989086911758 -0.06938117642558918 0.10564201714572595 -0.031167497742411353 0.0633292840143213 -0.03080629226827408
-0.017789820868131252 -0.18952848301971076 -0.12406177893387962 0.003126838806355194 0.042638016201553386 0.01739804286566528 -0.16161344354223223 0.17045649497895593
0.24670769165415724 0.1331211724330785 0.014191180719786818 0.04555343075067199 -0.041622152216435594 -0.1798701081180344 0.04947910260796918 -0.09159598995118491
-0.06531508564520523 0.15954287161991904 -0.12994677103483165 -0.2041938819392248 -0.0993080143994422 0.03910496770963633 0.0971319989910716 0.0804381768926702
-0.02232425920268056 0.04798739046572218 -0.0439046477156671 0.11863957406742844 0.10014528066932546 -0.14793990717151578 0.08847160670002895 -0.3611914966925065
-0.15111609013121244 -0.01832812375410813 0.17221812630472116 0.16084305493136752 -0.006222108781574492 0.08164006241478065 -0.07201777693099837 0.24975971858488252
-0.08100598934071947 -0.05523585043936483 0.04918673872770584 0.30122131129036744 -0.17983011348230196 -0.0016449867501254721 -0.004385358950610107 -0.075866128584793
0.015041036688958181 0.05358549167542425 0.009270642015121613 0.049085733857938116 -0.3326250462756682 -0.1701210351566716 -0.054154682055190646 -0.15455773133603137
-0.17483309215883838 -0.026478127665318256 0.29833480346713176 -0.20404381782886954 0.08444317533148528 0.04153609874005329 -0.15328613288328574 -0.1191895739652349
-0.05771468514468428 0.008062480723088414 -0.022200550241506585 0.052169576251572175 -0.0039564183586646715 -0.19904154767567378 0.09038993600936324 -0.10342892364965749
-0.00483971788588636 0.026811596939446666 -0.0445968002235853 -0.008063240085667984 -0.09478289728362926 0.011576498781368691 -0.08963383300561917 0.21992611055030273
0.038564297275270866 -0.07871220133830747 0.13610474612169718 -0.12716315518517796 0.09262891876051321 0.08481780894941406 0.1762833170969135 0.3385807443739297
00000000: b416 75d7 d33f b13f 9331 d236 3463 77bf
00000010: 9df0 7330 3bd2 b9bf 74a2 5406 df9c a8bf
00000020: d963 3d1a df94 c03f 2110 2d3a 4a67 c1bf
00000030: b56f 85a3 9a92 653f ea80 ac41 e2a8 a83f
00000040: d650 2e02 ebd5 ae3f 3284 d10d 0b21 bbbf
00000050: db77 28a1 ac35 c23f eb5b c3c0 de7c ca3f
00000060: a748 ab7d 8540 c43f 275c 076a 1276 a9bf
00000070: 8680 90c1 a04d ae3f 41c6 1064 0591 be3f
00000080: ddbe 7142 2beb 923f 5be6 b919 4e4a bb3f
00000090: 9400 1755 7b68 bc3f 97e5 267e 06ad c23f
000000a0: fdc9 ddb4 f08b b5bf 6987 24ce 44d8 c43f
000000b0: 09e6 a992 9164 c33f d9ce f582 7e5b b13f
000000c0: 04b6 7785 3446 c23f b76e 2110 3ca0 ca3f
000000d0: 969f f139 e47c c3bf 21be aa66 f2d3 c33f
000000e0: 6642 8005 575a 84bf 0c72 ace2 ef2e 9dbf
000000f0: b2d5 60a1 7c78 c03f 82e6 bd15 8cd7 b8bf
00000100: a8c7 2c07 cc88 c0bf 369e e80e 06cd c23f
00000110: 7bf4 e667 4abe b43f bb26 c608 34f7 c7bf
00000120: 9cbc 5de1 be67 cf3f 4a84 5411 9d66 ad3f
00000130: 36de e004 86c2 9cbf 269a 7021 9c92 b3bf
00000140: e47d 2df5 2172 a13f bc3c 13fd afec 8a3f
00000150: acca 422d 06aa b33f 6331 8270 1a12 c73f
00000160: f4ba 5c87 43f1 b63f 979a 9546 788c abbf
00000170: d471 61c9 ce81 c63f 2efb dfa8 f1fb bd3f
00000180: 8ce4 a8ec 600e b83f f28d eea5 d967 b5bf
00000190: e8c5 2619 7cae c13f 947e 88f7 cc4b b9bf
000001a0: 15c9 c3f7 b622 b63f 9052 571f 75c6 afbf
000001b0: 6c0b 8bb2 8aa6 a4bf 6ec8 58de 2cad b33f
000001c0: 0198 9cff fa19 c0bf d4d3 9301 dfbf 7ebf
000001d0: 7e2a e457 23a9 a4bf 8f4d 7649 0196 ba3f
000001e0: 562c a8f9 7786 4cbf 81ad a246 3b76 813f
000001f0: 4904 a8e6 331a 8bbf 489a bb02 d7cb a23f
00000200: e4f5 98d5 2a35 c23f d103 f194 838e b03f
00000210: ba29 2f20 b022 bfbf 7ccf 0cc6 e53c c6bf
00000220: 3aca 6e6f f93c cebf bed4 5b95 869b c13f
00000230: fe46 af0e 84ef d3bf e8b2 6fc8 fa36 c13f
00000240: ca67 1cc2 5e8b 9dbf 2c6c a001 1fe4 c33f
00000250: f08e 25e2 8b9a 9f3f be66 69b4 542d b93f
00000260: 1808 9d42 57d8 bcbf 207c b568 1f04 b33f
00000270: e99b 42f4 42cf bd3f 2948 00da 6c3b 923f
00000280: d1fd bc34 dbe1 57bf f88e 551e 9e4c cc3f
00000290: f7b0 9443 45f8 c43f 2f89 6bcd 51fe b53f
000002a0: 72b4 1d91 da0e 993f 778c 8f49 16f5 aa3f
000002b0: 4afd edd1 c140 84bf 20fa 0034 aed0 be3f
000002c0: 502d 7e3f 5ca8 b13f 094a 79a1 28ab c73f
000002d0: da71 cf04 ad59 a7bf 989a 7465 ab89 c63f
000002e0: 0dc3 6dc6 f24b ba3f 7d82 0124 da4b ca3f
000002f0: e48a 7593 c8db b43f 41ee 0566 b449 b73f
00000300: f0a1 4792 6777 cabf b3c2 d520 b4c3 c8bf
00000310: 5380 d0cf 54a8 a53f a1b6 b4fb f6c2 b1bf
00000320: ef6f b9f0 5a0b bb3f a3da 015e 5fea 9fbf
00000330: 9b79 b813 5936 b03f 6f88 3647 af8b 9fbf
00000340: f23f 52ab 7e37 92bf 8675 1d26 7842 c8bf
00000350: 5260 3443 83c2 bfbf b799 38cd 749d 693f
00000360: a0d1 4d6a a6d4 a53f 8560 7de4 cad0 913f
00000370: 5ecd 4dd3 bfaf c4bf d6a6 a9b7 84d1 c53f
00000380: cec2 a91d 1e94 cf3f ffab 0055 1d0a c13f
00000390: a435 aa08 4410 8d3f c2e7 967e c752 a73f
000003a0: 2d11 1ead 7f4f a5bf 748d f2d3 fb05 c7bf
000003b0: 91c4 122f 5355 a93f 41fb 48b5 d572 b7bf
000003c0: a516 c84c 7db8 b0bf f26f f59b e66b c43f
000003d0: 185f e885 18a2 c0bf df72 7c6e 0623 cabf
000003e0: 7c88 1302 406c b9bf af19 d9fa 9005 a43f
000003f0: 57cf 0f87 a4dd b83f f997 1aab 9897 b43f
00000400: a254 bbac 2bdc 96bf 9d60 57a1 cd91 a83f
00000410: e891 2984 ab7a a6bf 9187 a1c2 295f be3f
00000420: 7ed0 5201 1fa3 b93f 8297 89e3 b1ef c2bf
00000430: f7b4 6641 13a6 b63f 90ce 78f0 c21d d7bf
00000440: 35a8 81a4 c557 c3bf 6dd6 7b90 9bc4 92bf
00000450: 1aeb 205a 3e0b c63f b806 5c56 8196 c43f
00000460: 930d aa9b 5a7c 79bf e368 1df6 5ce6 b43f
00000470: fc35 a6cc c16f b2bf e711 975f 20f8 cf3f
00000480: a99e fffa cebc b4bf fd5a 6896 df47 acbf
00000490: 3ffc 7614 012f a93f 5c6c 36c0 3547 d33f
000004a0: c908 1f54 ac04 c7bf eb39 d312 93f3 5abf
000004b0: 8cad 62d4 61f6 71bf 3e54 256d f66b b3bf
000004c0: 0385 6ac5 d5cd 8e3f 2f72 92bc 8e6f ab3f
000004d0: 7b99 2482 7cfc 823f 2e71 3deb c321 a93f
000004e0: 2568 e58f ba49 d5bf 6a06 2ead 86c6 c5bf
000004f0: 8963 b498 29ba abbf a152 b738 8cc8 c3bf
00000500: 8156 8a46 ee60 c6bf ee04 8711 151d 9bbf
00000510: 4398 09dc ea17 d33f 3253 439a 1b1e cabf
00000520: a94b 6b64 119e b53f 0448 6233 3844 a53f
00000530: b0fe d447 e19e c3bf 8171 343a 3583 bebf
00000540: b405 647a c78c adbf 650b 3ed8 0f83 803f
00000550: 423f f6b4 bdbb 96bf 2480 b17f f8b5 aa3f
00000560: 012c 5bf7 9a34 70bf 9af7 e784 317a c9bf
00000570: 3439 0c7b cb23 b73f 8f27 8964 517a babf
00000580: 2300 abe0 cfd2 73bf fca8 08d0 7f74 9b3f
00000590: e7de ee4c 64d5 a6bf 97ee bdc3 7583 80bf
000005a0: 0ca6 0d24 b143 b8bf 8565 585d 6bb5 873f
000005b0: 7ccf 5f2d 3ef2 b6bf cfcd 2cee 8926 cc3f
000005c0: 5d57 2e17 b3be a33f 9050 8b9a 7b26 b4bf
000005d0: 3b27 b65c e16b c13f c064 63dc e146 c0bf
000005e0: b480 bd60 87b6 b73f 315d 8eb3 9eb6 b53f
000005f0: 757d e1a4 7390 c63f 1c0c 0992 4eab d53f

base.actor.actor_fc3.bias f8 [3]
0.05960008971995032 0.06766025812890215 -0.0735614607575971
00000000: 0c28 5f28 e783 ae3f b50d e7c3 2e52 b13f
00000010: 7b2a 3384 ecd4 b2bf

base.critic.critic_fc1.weight f8 [64, 11]
-0.40411390221693555 0.19391306022789498 0.14488375401986575 0.304904030047614 0.6151225299122857 -0.0410369972613129 -0.12715926478966114 0.12091841591817877
-0.11170173189921036 0.0005275822244308181 -0.07449640836046165 0.06692639878142308 0.08904058074431712 -0.22582726863723337 0.027925713578662612 0.06768325146549226
-0.018854125688539905 0.07245303087742133 0.08498237616297005 -0.1853257923252579 -0.04612280637912793 -0.1154052532635079 0.03905919888746773 -0.027099644212981416
0.14983392165103482 0.08215528292642141 0.057694480431374345 -0.1778904966800122 0.2553106541408644 -0.14362012759496084 0.18741242754018286 0.17123430750994845
-0.20038759258984085 0.008855863823125747 0.000756869461266346 -0.0937518868425275 -0.03767290220077211 -0.2246744476694862 0.15168153174228008 -0.16573363233590024
0.29545378753817797 -0.516038185727798 -0.25327008844073934 -0.3412892759800163 0.08181116072901992 -0.035629412255015175 0.13795123697285455 0.08706547896247754
-0.18472468793455932 0.15933216216848578 0.24837170634268152 -0.15566635882124408 0.15097761025880455 0.08285654888453309 -0.2509949298026031 -0.09637010504594146
-0.03540726123023474 -0.022982339535486628 -0.09395177528912756 0.15916596007566616 0.14461809508134424 -0.273209640374758 -0.02068723693766903 -0.0005591459508430287
-0.062313790287907185 -0.034250543909254534 0.1368555215684424 0.1317771490554512 0.052935428813264664 -0.08309570305395118 -0.06404422921093435 0.17292916030053895
-0.1297754332053306 0.18278561879817165 -0.3196570182813268 -0.20962899099380317 -0.17412689966829573 0.17390008612651414 -0.08780555421806115 0.09043063690540515
0.16851559258423365 -0.021952026571205464 0.17982131960125805 0.010264241998397785 -0.05406710571475827 0.08761898180907528 0.027915350251826846 -0.025726308402878567
-0.18618085782957952 -0.03409272329916034 0.16664953081064854 0.18851680507743157 -0.30969036999382776 0.3734895438048153 -0.11856453122281692 0.247813330158699
-0.45556634693695003 -0.14438042110842178 -0.3785893079544989 0.23342697438301685 0.006987706496396411 0.30067310851359363 0.05806635994962294 0.306212268879357
0.09758617762783833 -0.14774062437846552 0.03336051801289541 -0.07172582975971079 -0.03280288820387263 0.09614684647627733 -0.33288821908329663 -0.01523362553701954
-0.9188027511884375 0.053214661728396756 -0.18317417283518506 0.41969833573039644 0.2999520299230172 0.15325948519614468 -0.3478952940620412 -0.09422267048215006
-0.5279420660299582 -0.47927931994518913 -0.07002227970309521 0.028968059160393793 -0.04679909043731608 -0.07910136180050427 0.24315659643003712 -0.1107398434223712
0.10012871707877774 -0.25004337937724347 -0.0827889278359306 0.1814164837286883 -0.0515125492745131 -0.07271446568326784 -0.14950489052108829 0.11632177205826331
0.050442012270444064 -0.030542234728699286 0.05577276632473071 -0.13510978113972938 0.21406597979733208 0.008757770520609396 0.00506067547025383 -0.29106254401592846
0.07592296756110496 -0.25271665229476087 -0.06156782989831624 -0.012743978679679878 0.2742577517637512 -0.1714192310343251 -0.04713236681474776 0.048805328439055176
0.008066277354543037 0.049381444630688234 0.6368877674877566 0.1436290534159826 -0.30208805243878467 -0.06543668743624885 -0.7104498422344427 0.23433958655927792
-0.27980824602578547 -0.2227576150200722 0.3990442753743299 0.09011869011956672 0.2578967542168552 0.10930763626024477 -0.007974222022151839 -0.01926790585206169
-0.1203784742400102 -0.4882030901295082 -0.0845842176968778 0.21249891728388978 0.12001458354806115 -0.19293030317071225 -0.12662901470405807 -0.06088549539930037
-0.31112473610781854 0.13909073640662833 -0.33848375248819623 -0.1356434725142703 -0.011279868650573711 -0.05413411621252326 -0.0893417709029487 -0.11385466052441046
0.18754006647375657 0.09212071381372385 -0.03043755162202804 0.09991493161579236 0.06055333002135397 -0.065542221519114 0.007744551036376693 0.027966261355461743
-0.3148573247574946 -0.09697965865589175 -0.3112848566185014 0.5457883796068213 0.21607163847034602 0.4971799719132044 -0.01408559006942077 0.028450997984324395
-0.12850831514032462 -0.014218403766928468 -0.05704764513226168 0.13868823403902333 -0.3279356320926123 0.2152541459799393 -0.37497773457012357 -0.18719669114515344
-0.18848993589432989 -0.20816605654582868 0.008793898933205037 -0.06853236985874704 0.05191863652381188 -0.14209316303082611 0.13349848487166177 -0.20833317091952291
0.0706997897928429 -0.11718817353015536 -0.13771218102166555 -0.08426959635117494 0.5030145032368347 -0.08056412181221675 -0.031288206135211 0.01856015830987595
0.2802329619672127 -0.19423934117237077 0.27131340498399015 -0.001436487958706949 0.015383309077428525 0.012783957745829503 0.22645637416393177 -0.38428755387382124
-0.1526895237026772 0.4286649782409206 0.1678065341120057 -0.15230393199363657 -0.23880248350414127 -0.05512136132653491 -0.026514913368598958 0.09049666344674678
0.10490324489281873 -0.03899488924924073 0.11893313694309585 -0.16197422263245567 0.22349809721696956 0.0766478170245356 0.2267085412708707 -0.21207414501056507
0.004222184463631836 -0.05881889390519408 0.13395559943865643 0.02526259245582706 -0.10599090693161782 0.10682798293315736 0.07342731257391312 0.13772769140156085
00000000: 105d 788e 00dd d9bf 6319 f9a5 24d2 c83f
00000010: 1057 9e04 8d8b c23f 5447 5e31 8c83 d33f
00000020: 8d31 a071 15af e33f 9ba6 5322 cd02 a5bf
00000030: 01d7 d339 c146 c0bf c94a da61 82f4 be3f
00000040: 2de6 6915 7c98 bcbf 704f 2f33 ae49 413f
00000050: 76e0 9355 3212 b3bf 2359 01a6 1622 b13f
00000060: f24d 500e 5dcb b63f 29c4 ab6e e8e7 ccbf
00000070: 09ba 26ea 8e98 9c3f e8fe 8787 b053 b13f
00000080: 3466 e8f4 7e4e 93bf 9c56 1d26 488c b23f
00000090: 3438 5bae 67c1 b53f eb35 926c c1b8 c7bf
000000a0: 4306 ff91 689d a7bf 3ea9 8ddc 328b bdbf
000000b0: b8c5 a83b 91ff a33f 0810 8356 02c0 9bbf
000000c0: a44b a908 c22d c33f d2d3 5ced 2008 b53f
000000d0: fc94 3985 218a ad3f bb42 c1a4 1dc5 c6bf
000000e0: 8abe 767f 0257 d03f 86aa 88f3 2462 c2bf
000000f0: 3d14 9363 21fd c73f 06ae 5a7b 01eb c53f
00000100: f048 59f6 4ca6 c9bf 7c38 fceb 0523 823f
00000110: cb79 afca 14cd 483f 7c4c eda7 1f00 b8bf
00000120: 4da2 cbd5 dc49 a3bf 1060 7ede 21c2 ccbf
00000130: 75c1 1ee9 4c6a c33f f96f 5d79 c236 c5bf
00000140: f02b bd00 b7e8 d23f a404 6683 6283 e0bf
00000150: b91c babe 9335 d0bf efd1 b3f9 aed7 d5bf
00000160: 9e68 c783 93f1 b43f 846d d2b0 043e a2bf
00000170: 36de 9ed9 62a8 c13f 7a21 c158 ec49 b63f
00000180: a4ab b8fe 0ea5 c7bf 8078 db0c ff64 c43f
00000190: 162c ffe1 a4ca cf3f 26c1 1c10 e0ec c3bf
000001a0: c1b1 3efd 3b53 c33f 48ef b737 1636 b53f
000001b0: 1cb2 bd09 4d10 d0bf d801 7c11 b6ab b8bf
000001c0: e0b0 0c8a e620 a2bf f30d c3b2 ae88 97bf
000001d0: f797 443a 390d b8bf aba9 94d8 8c5f c43f
000001e0: 6760 6482 d882 c23f ed22 9749 447c d1bf
000001f0: da18 5ef8 082f 95bf 16b3 49c9 7452 42bf
00000200: c1b2 c0d6 97e7 afbf 71c1 eb8b 4989 a1bf
00000210: 01ed b452 7b84 c13f e3d1 c6d8 12de c03f
00000220: 85fc 1a3f 5a1a ab3f 7f0a 0e8f c245 b5bf
00000230: a95f f5dd 3365 b0bf c0fd 01f0 8a22 c63f
00000240: dd76 b83c 7b9c c0bf 1b69 75e7 8465 c73f
00000250: 8d21 ddb5 4275 d4bf 8851 4e6e 1fd5 cabf
00000260: 23f0 b64d ca49 c6bf d2ac 57a7 5b42 c63f
00000270: 0113 c6bf 6c7a b6bf b4ae 1054 7626 b73f
00000280: c8f6 813f eb91 c53f 0a27 d190 977a 96bf
00000290: c5cd 678f 6204 c73f 6e5c 9c3d 6b05 853f
000002a0: 5224 ab05 afae abbf dbf8 6095 326e b63f
000002b0: 114b 8d71 d795 9c3f 98dd f254 ff57 9abf
000002c0: 6d77 c23b c6d4 c7bf fef3 33f7 9974 a1bf
000002d0: 86dc 5c96 c554 c53f aae8 4694 5121 c83f
000002e0: c79d c08e f7d1 d3bf 7b89 02b0 40e7 d73f
000002f0: 3d4c 11c0 3e5a bebf f4b0 45e2 58b8 cf3f
00000300: 2927 50c0 ff27 ddbf ddf3 6bc1 0e7b c2bf
00000310: fde8 11a6 ce3a d8bf 4859 7d62 efe0 cd3f
00000320: 4561 042e 249f 7c3f 1490 f66b 3a3e d33f
00000330: 5f79 f6b9 dfba ad3f 8921 1e58 fb98 d33f
00000340: bc05 7461 68fb b83f 2e81 ff2e 2ae9 c2bf
00000350: 509e af3b a114 a13f 12af 18bd 9f5c b2bf
00000360: 9a96 1948 8acb a0bf 2ea9 3a69 149d b83f
00000370: abee 8b63 0a4e d5bf 701b d99b ce32 8fbf
00000380: 8388 fa06 d566 edbf d413 95bf f33e ab3f
00000390: b244 e654 4072 c7bf 9b73 8968 56dc da3f
000003a0: d1d7 b8ff 6932 d33f fa0f 5cbe 019e c33f
000003b0: f870 9b9f ea43 d6bf 013b 4318 fa1e b8bf
000003c0: c300 79c2 e6e4 e0bf ca13 342b 83ac debf
000003d0: c4ef 50e9 faec b1bf fed2 e38a cda9 9d3f
000003e0: db56 d2e5 0cf6 a7bf 1d92 00a2 fc3f b4bf
000003f0: 8aa1 bc5e c11f cf3f a0fd dc45 7259 bcbf
00000400: d468 3e1d 09a2 b93f d56b 40f2 b500 d0bf
00000410: bfb6 86b9 a731 b5bf d2f6 48c4 a738 c73f
00000420: 306c ef54 da5f aabf 9c45 0e4c 6a9d b2bf
00000430: 40a8 b0eb f922 c3bf e791 cd7e 43c7 bd3f
00000440: bc8b 1712 89d3 a93f 15e0 39ad 7646 9fbf
00000450: df8c be7e 3f8e ac3f 94b3 aefd 464b c1bf
00000460: e736 3597 8366 cb3f 656e c60f 98ef 813f
00000470: 291e 3fba 80ba 743f f0e4 e8ca c4a0 d2bf
00000480: e9b1 b006 b06f b33f b1ad 3077 822c d0bf
00000490: 6344 cc8f d185 afbf ec7f 33dd 8319 8abf
000004a0: b0fc 9f62 708d d13f 9c54 99bb 10f1 c5bf
000004b0: 71d6 1acc bb21 a8bf f255 0813 03fd a83f
000004c0: 8c7d 816b 0d85 803f 0aa3 6f53 8648 a93f
000004d0: bfa2 9274 6261 e43f a2aa 96d3 6f62 c23f
000004e0: 9629 6f20 6955 d3bf 9f4c 7f70 75c0 b0bf
000004f0: a00c bb4e 01bc e6bf c112 37ee d6fe cd3f
00000500: 5e3d 75d8 60e8 d1bf 0d1c b94f 5283 ccbf
00000510: 87e1 1800 f189 d93f de67 d2ba 0412 b73f
00000520: c6c7 4663 6181 d03f 41d9 f0d2 95fb bb3f
00000530: 5096 5ef6 c954 80bf b5f0 fc45 f7ba 93bf
00000540: 2dd3 00aa 1fd1 bebf 6764 7a2c b83e dfbf
00000550: bc0d c4b0 4fa7 b5bf 3fb9 151e 2a33 cb3f
00000560: 97c9 6197 46b9 be3f 0446 43af f0b1 c8bf
00000570: 0877 702a 6135 c0bf a6dd 1437 622c afbf
00000580: 4ed2 a3b9 77e9 d3bf da81 05aa b9cd c13f
00000590: 9f81 cac1 b7a9 d5bf 5fad 2eeb c35c c1bf
000005a0: f4bb a857 e619 87bf dc17 7685 77b7 abbf
000005b0: 40e4 3130 1adf b6bf 1414 733b 9425 bdbf
000005c0: c1e3 181a 5001 c83f ed36 1d1d 3995 b73f
000005d0: eece 2583 052b 9fbf f101 ac63 0694 b93f
000005e0: 8d12 3698 d800 af3f 4589 ee01 60c7 b0bf
000005f0: dd69 c616 c0b8 7f3f da02 a707 30a3 9c3f
00000600: d053 2f56 9f26 d4bf 80e6 4dae a8d3 b8bf
00000610: 25a8 ba51 17ec d3bf 1657 1e31 1977 e13f
00000620: f760 6946 3ca8 cb3f 74fa e5f1 cbd1 df3f
00000630: 7850 8be5 e7d8 8cbf 8562 8627 4222 9d3f
00000640: 4258 65e1 f572 c0bf 2737 71d9 891e 8dbf
00000650: 4052 5054 5935 adbf 0dd0 c43a 89c0 c13f
00000660: 93f9 c1bb e5fc d4bf c8f7 a7a6 728d cb3f
00000670: 053d ad9c a2ff d7bf f7a4 31a9 0ff6 c7bf
00000680: c648 252f 7020 c8bf 1d35 8072 2fa5 cabf
00000690: 015e 9422 8902 823f e3bc 425f 568b b1bf
000006a0: ed69 d85b 1495 aa3f 9dee 19d8 1b30 c2bf
000006b0: 6e6f 4b75 7a16 c13f eaba e24d a9aa cabf
000006c0: bb8c fea4 6119 b23f cb3c ca4c 0b00 bebf
000006d0: 7adb df80 8da0 c1bf 591b 6038 b192 b5bf
000006e0: c81b 1adf b118 e03f 2a18 6aac d99f b4bf
000006f0: 71d5 33fc 0105 a0bf b049 cc23 6f01 933f
00000700: d643 ba3b 56ef d13f 1d49 f7b0 d5dc c8bf
00000710: 5ad9 57e6 325d d13f 488b 7033 1189 57bf
00000720: 2370 22cb 4881 8f3f f54a 74c3 792e 8a3f
00000730: 269e 80c0 85fc cc3f 3377 09d3 2a98 d8bf
00000740: 1c56 5f8f 548b c3bf 3f0f 9f3b 3f6f db3f
00000750: 5a78 083c af7a c53f 1881 7bfb b17e c3bf
00000760: 7d4b 6d6c 1491 cebf 23bc 6af8 dd38 acbf
00000770: d0fd 18b7 b926 9bbf 20a1 e611 ca2a b73f
00000780: 6516 0f66 f0da ba3f 4ac1 125c 23f7 a3bf
00000790: 2acf 94ed 6672 be3f 892e 8042 92bb c4bf
000007a0: 38ef 21ed 959b cc3f c81f 6efb 309f b33f
000007b0: 90ba 3d15 c904 cd3f 8be2 92de 3e25 cbbf
000007c0: d60d 0603 484b 713f 1a5e 6b93 821d aebf
000007d0: e440 5a03 7525 c13f ddca a3e1 6fde 993f
000007e0: 6fd6 f156 3822 bbbf d3dc fe24 1459 bb3f
000007f0: 415c 23e2 21cc b23f 6161 299d 0fa1 c13f
