results/Hopper-2d/cmorl-ipo/0/final/EP_policy_54.pt (torch, 85897 bytes, 13 tensors)

base.actor.actor_logstd f8 [1, 3]
00000000: 09b4 b7f8 70c2 edbf f49a 3c90 e5a3 e8bf
00000010: fcf4 188e fbdf f6bf
-0.9299855096593329 -0.7700069253085915 -1.429683260982812

base.actor.actor_fc1.weight f8 [64, 11]
00000000: 9332 8952 524d d03f 77ef 4492 87cf 8abf
00000010: f5f8 2745 4a0e d1bf 7d1e f0bf 19bc cdbf
00000020: 977a 5651 c755 a1bf 5ae9 c0a2 7ae8 c5bf
00000030: b5d6 ad93 162b d1bf b2c9 5507 b99c 7e3f
00000040: 1b84 ed59 35f4 8e3f a250 0a30 c420 bcbf
00000050: 545b d0f7 6b5b d63f 081c a4ab 7f7a 8ebf
00000060: 300c 29bc 6369 c4bf cf3f 10e4 f0ed c5bf
00000070: d7c3 c312 a7d4 b1bf 4ef6 7efa 11e4 d33f
00000080: c450 a50b e8d0 d7bf 09f8 c848 0eee aa3f
00000090: cbf4 b1b1 1e07 99bf 5da6 b2d4 4950 adbf
000000a0: aab7 eab2 c7b2 c43f 2cd6 93af 04ad b53f
000000b0: b2dc 99bc be4e d4bf 90dd 2924 6075 a43f
000000c0: 710e 4d20 0db4 c13f c42b 98e9 c2d4 d73f
000000d0: 7128 79f0 1ae9 9c3f b040 0c45 a271 cb3f
000000e0: 58dc 50f4 686f a53f ab57 9e69 2d92 ba3f
000000f0: 57ae 8217 3d42 9bbf 6527 0bab ea4a 6d3f
00000100: 2c84 c0cd b501 c5bf d27c 7471 5122 843f
00000110: 6ff9 4403 4fe8 a0bf 9839 dfdc 8a99 d13f
00000120: 54ec 11cd 9f85 af3f ee7e b14e 1fdc d6bf
00000130: f2cc 237f d199 c8bf b758 816a 22a4 c13f
00000140: 4149 f09c f9b5 a03f 16bd 41e1 71e2 c93f
00000150: 6b1e 6960 df47 c0bf fd04 a7a3 8e26 aabf
00000160: 4e73 8604 002c ccbf 52eb 3936 3dc4 c23f
00000170: 09c8 a7fd 3f09 e0bf 08b6 0258 2245 d03f
00000180: 8697 ef84 4eea bd3f 6b79 05da ba61 bb3f
00000190: d669 a5cc 61cc bdbf 0278 a737 6d4e ad3f
000001a0: 1485 6086 9535 c0bf 1a65 6524 cb75 c2bf
000001b0: a163 6853 f65f cabf c0b0 f35e 7a57 d03f
000001c0: 7e46 c18b 52a0 d5bf 25e0 14b7 e6c2 d03f
000001d0: 56b9 3be3 48f3 bfbf c134 77a7 181b 96bf
000001e0: 6ce7 33ef cb69 d3bf 7457 12bc 4907 af3f
000001f0: 574e 6cbb 41cb a5bf 1e1e 2b31 f719 983f
00000200: 9af0 9be0 61da c4bf 018e 7292 dce7 d4bf
00000210: ca84 36bc 249f dcbf 42d5 6f21 e019 bd3f
00000220: 748f 5410 261d dbbf ba26 c225 1211 c4bf
00000230: 39b0 89e1 7683 d3bf ca79 70b0 93e6 d83f
00000240: 2aa6 190e 1c81 82bf 709b 8a63 59a3 93bf
00000250: 6148 9738 dec0 ba3f 4e11 79e6 4bd7 d7bf
00000260: d49f 7e9a 19ef c2bf 5a85 71f4 f949 d93f
00000270: 683d c293 936a c1bf 1786 e4fc fd45 c83f
00000280: 587f e3ca 11de c73f bf70 7129 7064 aa3f
00000290: c882 a6df 7f9e b1bf 5168 50bf 8077 d33f
000002a0: 9684 aaff fd18 c0bf 2717 7939 ab11 d03f
000002b0: 0914 7d94 4461 94bf 4a28 b18f 18af cb3f
000002c0: dbbc f18e d278 c0bf 5572 281c 4905 c43f
000002d0: 2e8f 36c8 e56f bdbf ba79 eeb8 e704 b73f
000002e0: c015 0032 da1e a2bf afdb caf9 f7c6 d33f
000002f0: ec16 479c d8a6 a1bf 95c3 64d5 ae95 a33f
00000300: 4480 4fd3 e659 b63f 4fce 89c4 f63c c13f
00000310: 06db 46d0 c0de c9bf 5cd3 536f 479f bd3f
00000320: 503a 6c15 e8a4 b8bf 2de9 cb80 1a24 d63f
00000330: d467 5bb0 6e41 c4bf 196c 1007 8b35 ac3f
00000340: af2e ea14 7edc d3bf e62f bf29 563e 9dbf
00000350: 25cd d921 710e a13f bb06 f680 59da 8bbf
00000360: 3eb5 d3ac c136 d8bf 09e9 9853 45a4 b4bf
00000370: cfc8 da51 8d2e ba3f 230a a470 b2ad 87bf
00000380: 99a2 f302 2413 c9bf 050b 61b2 025f a7bf
00000390: dc13 1335 f4e5 bcbf 9748 b61e 0950 a43f
000003a0: 38c2 2cf5 7bad c6bf 9bd6 4367 031c cbbf
000003b0: 090d c6c4 d7c8 b53f b14d e009 1d24 a1bf
000003c0: a80e 7ed2 89be b43f 97d6 5745 2fcb a93f
000003d0: e987 d65d 0c0a 9fbf b5f0 3685 d331 a73f
000003e0: 7b80 dcf4 9ccf 9ebf c166 ff39 23cd d4bf
000003f0: 535e ee37 c1b6 5abf 6c66 3886 cba3 db3f
00000400: cfbe f498 5e2b 7f3f 0dea a6b9 ca2d c7bf
00000410: 3c93 e178 8955 c03f 3e6b 3f3d 85b8 c93f
00000420: bd44 bdb6 b301 a1bf a248 3408 0be7 b3bf
00000430: a2ba 6655 1684 cd3f 48cb 0f92 6a2e cdbf
00000440: 9a52 e08d f0b2 c83f da23 543b e4b4 c33f
00000450: ebc5 e4c5 eae7 cfbf fc85 aeae 4593 bf3f
00000460: 67a5 58b2 2f8a d83f 75ed c86a 98b9 ac3f
00000470: 3aeb aafa 793e adbf f4a4 1e12 2f88 d0bf
00000480: 170a 815d c314 833f 5b28 0ec7 118e a7bf
00000490: 33b4 c375 b5e4 a83f 356f 863a 16db b43f
000004a0: 6452 38a7 43d7 c13f 0a8c 8cb3 9c05 d7bf
000004b0: 472a 1756 f266 c4bf 35e3 2ee1 232d cbbf
000004c0: dcd0 1cc2 0bea a6bf 5e05 78a7 134d c4bf
000004d0: fe96 4720 43f4 a23f 8b0a 2a9b 9e9f c53f
000004e0: 321a 163a 1d9f 923f bf48 8861 e0e0 c4bf
000004f0: 5681 7c08 b096 a03f 81d8 2ec4 7321 d3bf
00000500: b799 69b8 9d65 c3bf 023d 1e40 0685 b03f
00000510: 44a1 8fba 0c4f 91bf 35f5 d776 b631 c2bf
00000520: 305d 5df2 9a15 a53f d4c7 69c7 5534 a03f
00000530: 07dc 0f99 c3a7 c0bf 3231 0d93 5113 d53f
00000540: 35eb fee3 cf43 c83f 3d9a f4f8 30c5 95bf
00000550: dc69 87fd 5ae4 c63f aecb 8fdc 7a64 c83f
00000560: b05c 6bd2 093a b83f 40f9 6c2a 7210 c2bf
00000570: dfcd b064 cf11 bd3f d1d9 9722 3e04 bebf
00000580: a567 9593 50a1 dfbf 2f19 7405 bb42 c2bf
00000590: 5c06 1724 3edd 66bf 6129 22fc bfa8 c7bf
000005a0: c612 511f 9694 be3f dca6 8a0c 98cb c03f
000005b0: f5c5 4f76 92e4 c33f ea7c f4b6 e4a6 a3bf
000005c0: c416 525d f7ec d6bf 1dd7 60d0 4f97 c3bf
000005d0: a46e 9e4a e269 c43f 61d4 9ae7 0ffe d13f
000005e0: 11ea ec0b 3dd9 993f f0b5 36ed 764c b0bf
000005f0: 7581 578f 5579 cf3f 09f4 249f d711 b53f
00000600: e90e 3366 ef5d d3bf 2027 2439 8a46 d53f
00000610: 9305 e68c a31f 7abf bbb9 f548 77f4 c0bf
00000620: a364 2d95 2512 ab3f eb5e e77e 930d 993f
00000630: f86f c804 3bb5 d63f 0255 7581 766b c2bf
00000640: edef 0693 c869 c33f 59b8 a4c1 85a7 c8bf
00000650: 86c2 8c73 f188 c5bf 6dfb 0fcf 599c bcbf
00000660: db1e 1f2c da17 c3bf afa8 bc89 6e14 ba3f
00000670: 7cec b018 1908 cebf 2bf3 a464 2557 d23f
00000680: e56c f3cf 1bf8 c3bf 2390 5dc2 67e7 c23f
00000690: 6796 c82d ab2b c63f 029d 3239 6a37 da3f
000006a0: bb38 6d36 6a8e ad3f 71c7 fd25 0c20 cf3f
000006b0: e0d4 91b3 59f8 c3bf e07c e4e3 3440 d93f
000006c0: a9be 8777 eac7 973f ef25 d2ad a483 9dbf
000006d0: 4306 c8f8 ce17 703f 408f 4273 2869 823f
000006e0: f545 957b c896 a23f 8b83 a123 56bc d3bf
000006f0: dfb1 b912 8c08 c83f 1326 9ed1 3f2a d33f
00000700: 7544 5864 b7b9 b0bf e4d4 8e9d a786 d3bf
00000710: a57c b80b 7c55 c03f bcbf f9c9 a244 cebf
00000720: de74 2bf4 5367 783f 509b 9504 c88b c63f
00000730: 3e4e aeda 6f7a babf c008 1481 c283 d4bf
00000740: 20f6 172a 47d4 b43f e5fe ee8a 6b7e e1bf
00000750: 4c02 897b 7147 d3bf 090c b6ee 500a d0bf
00000760: b963 8dd4 7dcf c73f a6b4 a7ac 268b c4bf
00000770: 27a1 cfe2 d8df ba3f b145 6355 4b1e c73f
00000780: bd66 fb54 7bb7 d2bf 2f2f 4ce2 167d d0bf
00000790: dec9 fe13 486a e03f 131e 13d3 2bb8 cdbf
000007a0: 0bf9 ba1f bd39 c8bf 53e8 9fef 600c c1bf
000007b0: 5642 15ab ab4c e1bf 6498 efe8 eb53 a03f
000007c0: 6b1b db15 66a9 c43f 6d87 3c4d eaa1 a33f
000007d0: 2163 4c14 55d2 c23f 2d43 1b41 c83d 5ebf
000007e0: 26e9 0c47 cc44 c83f 35ea bcdf b953 b23f
000007f0: 4c45 8e62 f3d4 c7bf b9f7 7780 7beb b7bf
0.25471933422230925 -0.013091143752369068 -0.26649719956903023 -0.23230287429781873 -0.033857563666278505 -0.17115719744635777 -0.2682548944643302 0.007473681228804473
0.015114228064421245 -0.10987497494562828 0.34932994080138724 -0.014882085252351032 -0.1594662350417777 -0.1713238824454479 -0.0696510716259263 0.3107953020333739
-0.37212563645631414 0.05259747160424417 -0.024441222758913732 -0.05725317689332308 0.16170593486952828 0.08467129980621085 -0.31730621736592035 0.03995800439309527
0.13830722882459015 0.3723609238811003 0.028232975890468418 0.21440533038594856 0.04186561567660679 0.1037929900033691 -0.0266198678588537 0.003575762115677716
-0.1641146902702827 0.009831081652519922 -0.033022374295330496 0.27499648637322016 0.061566346915207376 -0.357185198639839 -0.19219416339874545 0.13782148552372117
0.03263835945849048 0.20222304819933673 -0.12719337661313843 -0.05107541797361568 -0.22009277554470902 0.14661374233022656 -0.5011291460234598 0.2542196139791888
0.11685648675447 0.10695998976504988 -0.11639987226718715 0.057238972705576444 -0.12663525639894913 -0.14421977307464645 -0.20605353424687414 0.255339234091263
-0.33791030548045586 0.2618958270936694 -0.12480598018348607 -0.021587739201824222 -0.30333231315272857 0.060602478225674355 -0.042566351059716005 0.023536550880434708
-0.16291449992411772 -0.3266517095709958 -0.4472133481995796 0.11367607895211498 -0.42365409464604586 -0.15677096217796366 -0.30489894890957064 0.3890732977905854
-0.009035319500259115 -0.01917781515171718 0.10450543290724702 -0.37251565463181613 -0.14792175334628033 0.39514016028814114 -0.13606495585234346 0.1896359906032081
0.18646452337906783 0.051547532137847345 -0.06882476053443576 0.3041688793470075 -0.1257627008790549 0.25107842075918757 -0.019902297556900126 0.2162810041066357
-0.1286872098894268 0.1564113032808502 -0.11498867166534119 0.08991859688692375 -0.035391634563022745 0.3090190829638528 -0.03447605998694123 0.03825136523153742
0.08730929049443242 0.13467297169300926 -0.20211038751377702 0.11571165531115696 -0.096266274671714 0.3459535844591695 -0.15824683772262793 0.05509600125534337
-0.31033279459436874 -0.028558107660316433 0.033313308126617515 -0.0136000626068865 -0.37834207418093857 -0.08063157359075403 0.10227282761005373 -0.011561769545100969
-0.19589662689329115 -0.04564674785117088 -0.11288381858601276 0.03967312335875411 -0.17716931792667068 -0.2117923979018784 0.08509586862605913 -0.033478648620213554
0.0810323847672928 0.050378300871597385 -0.03031176874868172 0.045302019130276795 -0.0300888561679362 -0.3250206056960501 -0.001630486192629639 0.43187225444271493
0.007609719773696801 -0.18108495774306768 0.1276103821029667 0.2009436177312071 -0.03321611028389657 -0.07774418783472695 0.23059348268494256 -0.22797901279371957
0.19296080520202424 0.15395787140758338 -0.24926504767203936 0.12334094538393708 0.3834342233336287 0.05610348037267957 -0.057117282723501764 -0.2583120037985076
0.009316946307198965 -0.04600577883600528 0.04861990988306566 0.08146799973331727 0.1393818441871587 -0.3597175362976378 -0.15939168170582915 -0.21231506819983684
-0.044754378743535134 -0.1586021964758783 0.03701982277907055 0.16893370224359602 0.018185097379978817 -0.1631126857979037 0.03239965537636873 -0.29891676100249504
-0.15153857712284743 0.06452979150184393 -0.0169031132572013 -0.14214211275968017 0.041180460057768875 0.031649284927780436 -0.1301197526333626 0.3293041168260685
0.18956946022611879 -0.021260037608181504 0.178843854707181 0.19056640405287112 0.09463559519950837 -0.14112689086500474 0.11355301101939784 -0.1172522386985755
-0.4942208710905283 -0.14266145483288414 -0.0027910436335510224 -0.18483733950808826 0.11945474876945203 0.1312131940115283 0.15541296746191305 -0.03838267072046071
-0.3582132731756753 -0.15305516886444873 0.1594813217496852 0.2811317216649681 0.0252427614716258 -0.06366675654745513 0.24589032649147283 0.08230350146637035
-0.3026083467523067 0.332430415918326 -0.006377829426470599 -0.13246050894254133 0.052872824154016194 0.02446585142192152 0.3548114344318942 -0.14390450783927383
0.1516657560258631 -0.19261238055463784 -0.16824167387087047 -0.11176072411761391 -0.14916541246770162 0.10187426436155776 -0.23462213235493212 0.28656897381351837
-0.1560091748604925 0.14768692961217864 0.17320766196751267 0.4096322592326517 0.05772716440570621 0.24316551070256368 -0.15601655262040648 0.39454386000757147
0.02322355608515517 -0.028822491749940168 0.003928955539323878 0.008989635484176639 0.03630663403113125 -0.30837014655667677 0.18776083864521717 0.2994536921547432
-0.0653338069898995 -0.3050936735774725 0.12760878155038316 -0.2364696012696167 0.0059579162068221485 0.1761407873520633 -0.10343073929680544 -0.32054197888659175
0.08136410501170888 -0.5466821397348808 -0.3012355524443009 -0.25062964736588406 0.18601963881044783 -0.16049655371117416 0.10497813737277238 0.18061200780225087
-0.29244883822466844 -0.257634850496049 0.5129738226444791 -0.2321829586637568 -0.1892620472844516 -0.13319026661321462 -0.5406092015710537 0.03189027040916484
0.1614196402280997 0.03834469025447516 0.1470438336480351 -0.001845784722196163 0.18959954709300425 0.07159005844452156 -0.18618624031345588 -0.09343692671242722

base.actor.actor_fc1.bias f8 [64]
00000000: 1d78 6be7 9b46 c53f b174 85a5 3e71 ae3f
00000010: f5b9 2222 69c2 d23f 71ff a8e8 3e19 ae3f
00000020: 0f8b 3229 7a72 c5bf 0d44 090f 8fe1 9abf
00000030: 9d1d 68cc daf3 b6bf fcb2 6b5d 0d91 d33f
00000040: 1d70 2d72 5af0 c6bf fc58 12e9 16e6 b23f
00000050: ddee 8f57 713d cbbf 08fd ccf7 8aac c2bf
00000060: ce7e 3e23 b7aa 923f 219b b3bb 1f7b bd3f
00000070: 2fbc 5386 9160 c33f 5e15 d798 c739 c33f
00000080: 801c dd24 ce7d c7bf 9998 e5db 1ac5 ce3f
00000090: 28de a57a ce0f c7bf 7158 3b38 d43c d43f
000000a0: 45e8 5fad a9bb c7bf 65f9 3793 2d20 b03f
000000b0: d702 6be9 09b8 b0bf aa1f 1570 02b0 dcbf
000000c0: 34b2 18b4 6925 b93f ae10 48ce 9bc8 a43f
000000d0: 3deb d976 944d b73f 4d09 d87a d50f bebf
000000e0: 82e5 d0a3 5009 d03f 2406 5a7c aa2b c93f
000000f0: c4ca 9cd0 ea78 ce3f b6e7 f593 0a5b c9bf
00000100: 1407 0f55 b324 cf3f 29df 9a0e c960 b2bf
00000110: 8535 574f 8102 d1bf 5837 0994 b62d abbf
00000120: 7ce7 344b 390e c0bf b5c0 c630 8ad2 b43f
00000130: 72e6 9ace a1b8 d03f 9bb0 972f afb3 d7bf
00000140: a65e f3e0 2466 a5bf afc7 6c53 d912 a23f
00000150: 470f 8147 2a4e ce3f 777b 1af2 9548 d2bf
00000160: d1dd d3fa a719 b1bf 2659 b4e8 f56e c1bf
00000170: 9207 1b87 1853 debf 9bac 55b2 6655 a6bf
00000180: 36e7 1bd1 45a8 c53f 5da9 2b93 060d c53f
00000190: fc02 6df4 f783 cb3f 0a4b 5f84 199f b2bf
000001a0: d946 2973 4a5b b7bf d5e5 c7bf 96a5 d1bf
000001b0: 59d7 403a f22a ca3f 33ad c376 8fb7 a3bf
000001c0: a26d 1379 f80a c9bf 581c d7f9 fa02 d23f
000001d0: e538 2283 3704 b6bf a532 d755 09e8 db3f
000001e0: fbc5 1da7 2319 a1bf e7e9 486c df36 6cbf
000001f0: 0930 521f e954 babf ecf3 7bbc 7e42 d2bf
0.16621731567187306 0.05945773859523607 0.2931158860546071 0.05878635969247526 -0.16755606662362552 -0.026251063626038063 -0.0896584271468925 0.305728284102585
-0.17921000075409746 0.07382338705278707 -0.21281258368968894 -0.1458905897106677 0.01822935249913265 0.11515997250135658 0.1513845353979106 0.15020079577349582
-0.18352677154527797 0.24039016472960809 -0.18016987789791128 0.3162127064837313 -0.18541451421316615 0.06299099773602775 -0.06530820797616897 -0.4482427687221341
0.09822712561499075 0.04059302228054783 0.0910275259174513 -0.11742910622709708 0.2505685424581189 0.19664507934435094 0.23806510149150573 -0.19809086060177855
0.24330751088387415 -0.07178932768408387 -0.2657779002009522 -0.05308313901023948 -0.1254340760440832 0.08133758250073948 0.2612690465572093 -0.3703420605440983
-0.04179492231349728 0.035300055917459765 0.23676041118062072 -0.2856802810946912 -0.06679773210259234 -0.13619874823116013 -0.473821765841529 -0.043620309132927214
0.16919777593994362 0.16446001230299148 0.2149648612485392 -0.07274016839737044 -0.09123673736146588 -0.2757317421779509 0.2044356140556214 -0.03850982975731156
-0.19564729606541414 0.2814319076391647 -0.08600184394365191 0.4360373819625159 -0.03339492239946292 -0.003444134114287001 -0.10285813345598184 -0.28530853659304856

base.actor.actor_fc2.weight f8 [64, 64]
00000000: 8868 0c41 04e0 d13f 0cd3 7c00 1e79 cdbf
00000010: 28b6 218c 2945 a63f 1c89 13bc ddaa b2bf
00000020: 097d a6b9 a33d cabf 496f b15f 7bbd c9bf
00000030: 4910 436c c754 ccbf b13c ed1b 0fd5 babf
00000040: 6af8 a521 33a6 c1bf b0be d305 7833 c43f
00000050: 07f8 2094 dde7 c73f 637b f309 fb1f d0bf
00000060: 1cac 485f bf87 bc3f 95e1 a5d4 6d3f b33f
00000070: 0efc 9dfa 7a93 ad3f 96c1 4602 e0f8 c6bf
00000080: 3aa8 5d0d 43cc babf daf5 9d8f 61c3 aabf
00000090: 524e ebf6 a337 a93f 3f29 d982 9981 973f
000000a0: d6b0 c476 959c cbbf b562 66c5 4964 863f
000000b0: 9752 9308 8ea9 d4bf 573c b9c1 2a95 b33f
000000c0: 8339 ff81 3cbb c7bf da88 3301 7665 a5bf
000000d0: d29d d835 0fbe b13f 6357 2d7d 2d8d c0bf
000000e0: 30bd b4ca 5609 a53f a3a2 cba9 280c aebf
000000f0: aa7b fcef c6bb c23f a9b1 596b 648b 9d3f
00000100: 09ce dac6 6ff9 bf3f f023 55c5 1c53 dcbf
00000110: 6080 06f2 7460 d5bf 20cc 1daa 3b62 b9bf
00000120: ab84 80ea 5abe cbbf 1ca7 49c2 c63a ad3f
00000130: d689 a9f2 a345 a33f 0c2f a8de d61b a6bf
00000140: bf9c c9ae 96e1 79bf 1b50 034e 9f07 b13f
00000150: d8a4 7776 641c a53f 0e23 5216 e440 b93f
00000160: 634b dbe6 000f babf f5c6 b303 5b04 aabf
00000170: 1919 f8c0 25e0 bbbf 70d2 1511 c668 c43f
00000180: 6661 e516 103d bbbf ea69 f65a 413e cc3f
00000190: 8533 f1a8 1e26 bd3f e8bd c812 8731 a33f
000001a0: db15 c0ed a4c4 a5bf 67b0 a016 adbd b6bf
000001b0: e1eb fa7a 2748 c2bf ddd7 a732 3bd9 afbf
000001c0: e89f 7ac8 c38b 663f 38d1 b198 75b2 c0bf
000001d0: 5c30 d731 7fe7 c9bf 5bea ce36 ec81 c23f
000001e0: d9af 51f2 f4bd c4bf 6221 d528 56be d03f
000001f0: bbbb a386 0a5a b9bf 8041 3934 0c24 9abf
00000200: 52a5 bda5 b9ab a73f d75a ff88 231d 7c3f
00000210: 3fca be38 2b24 c4bf e2b5 fb0c 2c86 a73f
00000220: 8958 a1c8 4d71 afbf ae7e 7ee0 da25 b53f
00000230: 761c b9ea 63b5 adbf 4328 8b0e 931e d13f
00000240: aa1c 4525 6ad0 c73f d446 845e 3d3d b6bf
00000250: 0883 100d 9667 c23f 94e0 2c59 4ea5 963f
00000260: 1db6 3110 266f adbf 367b f66e f0e7 b93f
00000270: 0ad8 9ffb ebcf a3bf 1f01 62b7 69a0 a8bf
00000280: c255 9650 7ec0 a73f a888 2cfa deb0 aabf
00000290: ae11 5346 0de3 cf3f b74a c49f 154d d3bf
000002a0: efbe a126 0b70 91bf 383d d122 b5da bc3f
000002b0: 9f05 07f4 19bc 96bf d60e c483 763d ce3f
000002c0: 6484 7637 10c6 c0bf 9bde 43c8 4d65 adbf
000002d0: 6696 e8e5 c3b2 c4bf de35 8a73 aa16 b03f
000002e0: c51f dfd8 8b77 c8bf 08a5 f857 bfc1 b43f
000002f0: 5c99 74b1 aa8b 9d3f 2b2d 0bb1 11d9 acbf
00000300: 8eb4 f86f 3afc 33bf 3052 aa57 a203 d73f
00000310: a78f 38e8 fdf2 ab3f ef51 20a7 fb46 c0bf
00000320: d3b8 b81c 356a bebf 72de c397 06e3 b23f
00000330: 4b34 c90c 20c1 a0bf b450 080a 88bb aabf
00000340: 4ac3 01fb 737c b8bf 5920 0482 3c8d bfbf
00000350: ff74 8893 faf2 d2bf 0044 0930 372c c93f
00000360: b7f6 75c0 cb7d b93f 045c 6f2e 6180 c43f
00000370: e1eb a7f9 cc6e a53f eca0 1adb 9428 c2bf
00000380: 1893 85c8 6798 d3bf 0132 f842 5c37 97bf
00000390: db07 d526 30f7 a0bf 9684 ce5c ab23 a23f
000003a0: 72b9 f0ae 2c89 a6bf cdb6 2113 ed19 9b3f
000003b0: 9ab4 05e6 d362 a4bf 28d2 4c1b ea7d b83f
000003c0: 206a 11c3 271e d13f 370e 167f 3d95 a0bf
000003d0: 10c6 0f70 d11e 92bf 67f2 589d 9de3 c63f
000003e0: 65eb f01e 7288 b7bf 2f27 3f8f 1c18 c53f
000003f0: 2de7 4de6 b6bc c2bf 8453 28ca d372 c8bf
00000400: e41a 2793 c9a9 c2bf f604 a478 c797 d1bf
00000410: edce 7cd9 2aa3 dc3f 97bc d839 43bf c4bf
00000420: 9abc 02b4 09f5 a83f 58be 87c3 d904 993f
00000430: 634c f3b1 74c1 cc3f bbc9 d2f8 43f8 b9bf
00000440: 4456 651f 5d8c b8bf dbfa bb23 9071 943f
00000450: 4759 b351 e4b6 dcbf 120b 0e85 2f90 b63f
00000460: 9f05 bfa4 a55d d1bf 8077 04d1 3d3d c63f
00000470: 2a1e 2b25 aaa5 923f d512 a6ee 47b9 c53f
00000480: 27fd b832 ad95 cc3f 9aec 8d2e 84e4 babf
00000490: f657 d115 1616 ccbf ea4a e25c 863e c93f
000004a0: f4a0 9307 e30e bfbf 92a3 e342 aaf4 b8bf
000004b0: 9556 0d16 e0cb a53f f05f 9447 c17d d2bf
000004c0: b1c5 f9af 981d b43f 63d5 00b3 c904 acbf
000004d0: 244a 3c7d 21df 40bf b60b 85ad 2c95 b03f
000004e0: e463 3b2f 627c bf3f 35c9 f3b3 11fc c53f
000004f0: 9986 6f31 fc84 bf3f aebc 9b99 3042 a0bf
00000500: c224 8003 f146 b0bf 6df0 3aa7 0bdf bb3f
00000510: be32 e6ba 5c37 c3bf 0604 fad4 68d7 b03f
00000520: df97 35ab 0e34 bfbf 1be1 e820 322c b33f
00000530: 0c26 4d35 0fb9 c03f 6a14 405c 985e ddbf
00000540: ca1f 1c16 4e7b c2bf 0007 ddfa ecd3 b43f
00000550: 8054 1260 1cd3 c03f acea d35b 9f24 b73f
00000560: 59b8 2a4a 334a bbbf 351b f0c9 a031 c0bf
00000570: b2c9 c98b adc3 b93f ae3c 4beb a905 c23f
00000580: 1e16 064e bf7c d13f d261 dc49 fedb abbf
00000590: 7c85 663c ebdb d33f f760 2e73 7455 d03f
000005a0: 6d33 a9bf aaef b53f 4acb f2d0 512d c53f
000005b0: 809a e821 69e8 c13f 7622 0d66 827a c63f
000005c0: 1512 1ade 7563 c83f bfb9 7d4f 3956 b7bf
000005d0: 8674 2a40 2911 cfbf b5ec cded 89b6 9f3f
000005e0: cbfa 3820 fc2f 873f 5ce6 5038 4169 a0bf
000005f0: ade2 96f5 cb99 ca3f ff3e 615d 5f44 a9bf
00000600: 2b01 4c33 56c6 d5bf 4862 1b81 b0dc c1bf
00000610: 4061 dc76 b812 d63f 2989 be14 4c8b cf3f
00000620: ed26 64de 22e6 c03f 0b5a 8943 e887 c23f
00000630: c5e7 b6cf 4a22 89bf 69c7 0fd3 03a0 b33f
00000640: ed74 3776 a8df b7bf 8cad 400a 05b3 ae3f
00000650: c196 59fa b1f9 8abf 8448 c4af 5104 d13f
00000660: a450 4190 438d babf 98d4 3188 e0ed bdbf
00000670: bee5 7455 29a1 acbf c0ae dc7e d113 cfbf
00000680: fda3 6953 1377 c4bf 4a1c 23de 59d6 9fbf
00000690: 8d08 580b 5d72 943f ab6d 7cb6 219b b2bf
000006a0: 4fea c6b9 dea0 c43f aceb 95ee c758 c93f
000006b0: 2510 7176 090a ac3f cd33 616f e66f c73f
000006c0: 5ed5 8ccc 7659 d33f 4e52 d190 783f bcbf
000006d0: bda2 9ef6 7ccb babf d540 700a 6a04 b8bf
000006e0: 0b52 4759 a979 b6bf 71eb 28cf cd47 c2bf
000006f0: e2c8 44d5 97e0 b6bf 24b8 4160 74a6 b03f
00000700: 3c65 0f6a 5c47 c8bf 142a 0d0e 3c39 abbf
00000710: 8d0a 0527 0f4d de3f e805 bd07 83ae c8bf
00000720: 944e 2629 6f89 b43f 9668 f362 4b29 b2bf
00000730: bf96 b6b8 693b c43f faf9 f15a 7795 af3f
00000740: 0ebd 00af 5544 a1bf d3d0 96ae 1675 99bf
00000750: 1688 78b9 126d b2bf 1e40 5ae9 e172 a1bf
00000760: 43d0 c0b0 0277 a3bf d185 2b75 1971 b0bf
00000770: 0368 787f d024 be3f 1235 b007 f1b3 c6bf
00000780: a4ce 3855 e8a7 c0bf 6a55 1a7d 1f79 d4bf
00000790: a420 5a49 ec00 b5bf 8c09 2175 2d73 c7bf
000007a0: 454d fa8c 4c07 c03f f459 0039 7c7b d13f
000007b0: 68ce 0489 152f b5bf 5f2d 3afe a9fb aabf
000007c0: 3edb b843 774e bc3f 49ae 72e4 fc03 c1bf
000007d0: d22e 82ac 8aa7 a83f 59bf 5b0d f2eb c5bf
000007e0: bc0b 9a5c e555 c3bf 3ea6 9a59 907c a73f
000007f0: e934 e322 16c3 cd3f cee6 3c78 af1e b5bf
0.279297889255425 -0.2302587034588658 0.04349641643134944 -0.07291971055704888 -0.2050060898300006 -0.2010950295688139 -0.22133724962452764 -0.10481352264217737
-0.1378845133112379 0.1578207043125892 0.18676347477770625 -0.25195194217478994 0.11144634319559582 0.07518660012818253 0.05776581105509858 -0.17947006331588672
-0.10467928959192899 -0.05227188947808843 0.049252628222941866 0.022955320941300924 -0.2157160596774534 0.010933472000759318 -0.3228488048310196 0.07649485807017818
-0.18540150020130505 -0.04178971066154853 0.06930632652858229 -0.12930840122379114 0.04108687614859219 -0.05868651459406251 0.14635550230101774 0.02885205178465503
0.12489985089160184 -0.44257277746925094 -0.33401225695889103 -0.09915516761047671 -0.2167466778783241 0.0570890533607111 0.037640689250810475 -0.04318114727001729
-0.006318653683229757 0.06652255682576007 0.0412322420705295 0.09864640755598605 -0.10179143558643271 -0.05081448002046144 -0.10888896905098412 0.15944743952026696
-0.10640049513802338 0.22064988080531062 0.11386291145863765 0.03748724083231619 -0.04251590158677817 -0.08883172800477866 -0.1428269720543929 -0.06220421784739447
0.002752191914471059 -0.13044614749709083 -0.20237722333547736 0.1445899264925455 -0.16204702217089453 0.2616172217135696 -0.09903016841029359 -0.02552813595531367
0.04623203418925449 0.006863726433911941 -0.1573537852360278 0.045945526680821094 -0.06141131471729106 0.0826088712769841 -0.058024523165436756 0.2674911157633952
0.18604780978987395 -0.08687194402252923 0.14378619802393922 0.022114967530086974 -0.05748862216647075 0.10119536122372783 -0.03869569250666423 -0.048098853717421834
0.046390483224211035 -0.05213066867715216 0.24911657270253101 -0.3015798626158061 -0.017028974755190992 0.11271221256287312 -0.022201924819233217 0.23625070032004797
-0.13104441364433506 -0.05741351194040797 -0.16170548177722138 0.06284585305021248 -0.191148262876821 0.08108135125862159 0.028853098946592368 -0.05634360586335626
-0.00030495096868572095 0.3595968109232528 0.05458825549820228 -0.12716622982465206 -0.11880809737405977 0.0737766380806251 -0.03272342830732863 -0.05221200106112303
-0.09564900281999403 -0.1232488458082356 -0.2960802498581216 0.19666185231702116 0.09957574318647287 0.16016783492406728 0.04186096713598154 -0.14186344812811258
-0.3061770876141039 -0.022672120654577913 -0.03313589548135073 0.03542838580984513 -0.04401530871870109 0.026466087620454815 -0.039816495732204873 0.09567130247598554
0.2674655346833408 -0.032388612521597464 -0.017695686783502806 0.17882127936345002 -0.09192574744603872 0.16479832643954626 -0.1463841080219991 -0.19100425120327824
-0.1458065002936656 -0.2748888662463992 0.4474589466001209 -0.16208687138121 0.048744490837060186 0.02443256622239995 0.22465380372031793 -0.10144448113241016
-0.0958917810106295 0.019964458638237353 -0.4486628339631306 0.0881375980225523 -0.2713407620286378 0.1737439413636217 0.018210085409718392 0.16971682694215554
0.22331776596727446 -0.10504938255864929 -0.21942401948280094 0.19722060714101214 -0.12132090506532106 -0.09748329289472071 0.04257107037726119 -0.2889254759807036
0.07857660576134752 -0.054724028683646585 -0.0005148805161943643 0.06477622257538837 0.12299169209599331 0.17175504004223688 0.12312294203686704 -0.03175498843290235
-0.06358248076880371 0.10887215454835238 -0.15012702108324122 0.06578688811897856 -0.1218880813590597 0.07489312461337187 0.130647564912849 -0.45889863022632105
-0.14438797072966586 0.0813587295970386 0.13144259158130822 0.09040256492509496 -0.10660095749582989 -0.12651452884912265 0.10064205801771811 0.14079784382781696
0.2732389699889114 -0.0544127907907669 0.3102977838371641 0.25521575210724684 0.08568827800008956 0.16544554426726626 0.13990511089032864 0.17561368926023463
0.19053529114548043 -0.09115942183209479 -0.24271121628854447 0.030969767703464785 0.011321992619853024 -0.03205303013278346 0.20781850330037824 -0.04934976591959916
-0.340230512709257 -0.13954740814257804 0.34489261252885584 0.24643851292518917 0.13202319964357603 0.14477256105119837 -0.012272438491766633 0.076660384205551
-0.09325650106571333 0.05995956182627102 -0.013171568348478659 0.26588861622543214 -0.10371801635602879 -0.11691096615853025 -0.0559170643632103 -0.24279230780063266
-0.1598838956154224 -0.03109112184827393 0.019967511956573026 -0.0726796217463092 0.1611593634714432 0.19802188062371096 0.054764075954637094 0.1831024211736846
0.30233545280073837 -0.11034348998630003 -0.10466748257625631 -0.09381735567899636 -0.08779390744832243 -0.14281628241755187 -0.0893645187068475 0.06503989553468209
-0.18967776468961428 -0.05317104026342548 0.47345331964985676 -0.19282567861414113 0.08022207979802892 -0.07094260373870251 0.15806314009858188 0.06168721184893751
-0.0337244773985451 -0.024860720068048913 -0.07197682407471037 -0.034079608664910874 -0.038017353130641605 -0.06422576056095088 0.11774924385136391 -0.17736637950330497
-0.13012413178659188 -0.31989276139332523 -0.08204533377477446 -0.18320244044486989 0.12522274860075747 0.27316194120922366 -0.08274969668564724 -0.052701294215774956
0.11057229426738233 -0.13293419985471847 0.04815324168984393 -0.17126298572793067 -0.1510588361889783 0.04587222188758887 0.23251606658451543 -0.0824994724797776

base.actor.actor_fc2.bias f8 [64]
00000000: 0ab9 a06f b337 c63f cf15 5101 2fbf c7bf
00000010: ace5 5ac5 843b c73f e965 c396 78fd c7bf
00000020: badd cd72 f64a c9bf e9de b6b7 f407 ce3f
00000030: 49a0 83bb c22c d4bf 1169 8d0a c401 ce3f
00000040: 3d62 3c21 5c47 9fbf a025 4237 0ab9 b53f
00000050: d65c 1c69 3a95 bb3f b138 8679 5145 c63f
00000060: 6769 5225 b55b b3bf 735a b352 61dc c5bf
00000070: dc38 ca76 e818 babf 5c62 d4ff 896b c63f
00000080: 9a35 af32 5c51 913f 3816 7845 aaa2 c0bf
00000090: 730b 5f19 15c4 a5bf 1789 a621 e7c8 c53f
000000a0: b275 7b7f 307c c1bf c02c a36f c349 c73f
000000b0: ca4d 4bfc 2e2e b13f c8e2 47e2 56c3 ad3f
000000c0: 23b3 5f34 d438 b93f 28fa 23ba b2ca bd3f
000000d0: f7e3 655a af7c b4bf 2df1 d731 fa4f c03f
000000e0: c7bb dc92 c8b4 cfbf 1757 122c 0b72 c83f
000000f0: 5a55 4972 06f9 a73f 09c9 d20b 900e b2bf
00000100: f610 8b25 e0fd 993f ccc2 07d1 b2c9 bd3f
00000110: b7f8 23fe 4364 c03f 81eb 8f35 714c bebf
00000120: afda 8fa6 c0be b8bf 69c3 8040 2f3c bfbf
00000130: 8b37 0392 2d78 a93f b063 3a5f 2511 d23f
00000140: fbf4 6c44 0a65 8f3f 3666 7e5a ba0e bb3f
00000150: 7818 1552 d986 b83f 77ff 5890 bd23 a23f
00000160: 8432 42ef d0e6 abbf bbeb 509c b205 5d3f
00000170: 2e51 6388 6e1f c9bf 64e8 9152 be48 c4bf
00000180: 2548 ac8d 2b0e c63f 00d7 e74e a9e8 a1bf
00000190: 96e6 f993 af39 c23f cd3a ddfb cf0f bebf
000001a0: f6ad 1091 784c b4bf 6d27 bee0 30f5 c5bf
000001b0: bfae 8d08 3092 9a3f a8b0 da46 9405 9e3f
000001c0: 6020 efda 25fb c0bf e69f 80e2 06e5 cd3f
000001d0: f236 e498 c9a8 c7bf b513 019b ba58 b3bf
000001e0: d13a 4a98 cb77 b2bf 74de e26e 9338 cabf
000001f0: d947 b55e f4c3 c2bf b0b4 6ef9 c5a6 d63f
0.17357485724046057 -0.18552196087163828 0.18150386463621027 -0.18742282258499124 -0.19760017972633453 0.2346177956621809 -0.31523197471552017 0.23442888751271387
-0.030545653847271693 0.08485473488885598 0.10774579111272273 0.17399042543224177 -0.07561809693507869 -0.17078796899905377 -0.10194256687302378 0.17515683166199636
0.016911926835566506 -0.12996414558453906 -0.042511615130499524 0.17019356864063503 -0.1366024610969539 0.18193858099980353 0.06711095485234533 0.05813094627587173
0.09852339056642427 0.11637417835661579 -0.08002754170401248 0.12744071420446215 -0.24770457430847 0.19098033573089232 0.046821786356910436 -0.07053470886856784
0.025382520953614006 0.11635892489699556 0.12805986317829873 -0.11835391576452815 -0.09666065279439338 -0.1220120937803252 0.04974501044635734 0.28229650783174076
0.015329437459167474 0.10569348058052061 0.09580763105359036 0.03542892825180293 -0.054495362478609116 0.0017713779682384373 -0.19627172145431743 -0.1584699538396449
0.172307438064821 -0.03497819030955718 0.1423854324855724 -0.1174287786391048 -0.07929185430173633 -0.17154513334053992 0.025948286554394736 0.029318157982445442
-0.13266442480221752 0.23355184611978003 -0.18483848538783537 -0.0755726459911575 -0.0721404310990963 -0.2048515597759778 -0.146605058902934 0.3539290366996495

base.actor.actor_fc3.weight f8 [3, 64]
00000000: a1d7 e64d 16fb b23f caa1 69e3 b82a 6bbf
00000010: 7001 3f40 df97 b9bf 819f 3db2 89d6 acbf
00000020: 5b02 6f53 9c29 c03f 018e d107 1ece c1bf
00000030: 509e 2e3e 8fc1 753f 855e 9a82 999a a33f
00000040: 599c dc85 fb4e ab3f c651 7dd2 cfca b9bf
00000050: df06 6cf9 2092 c23f 0e62 e2ed 0c0b cb3f
00000060: bc59 fdc4 aad7 c23f a731 7f37 1f82 a8bf
00000070: 057d 2718 dc51 b13f f707 9ae3 e67a be3f
00000080: 8ca1 18a6 90fb 7f3f f51b 1dfd 64b6 bd3f
00000090: f81b 87cf 0cd8 bb3f 28e6 eb12 ef1e c33f
000000a0: a3ab 5dec 4b18 b6bf 8a4c c66e bdb3 c43f
000000b0: 75d4 3cfb f3ca c23f a523 7e17 34d5 b23f
000000c0: 5d66 4d9a 085f c23f 1054 733c d94c ca3f
000000d0: b2fa 8c77 fcc2 c3bf a3f0 a099 f3a8 c43f
000000e0: 3313 2c45 b75e 7cbf 0f03 1525 43fb 9fbf
000000f0: 2bf2 a4c0 958a c13f afb0 6e46 4604 b9bf
00000100: 5e93 6edf 2534 c0bf cd67 ed7a 5812 c23f
00000110: db86 d8c6 465f b53f 6226 e8d5 445f c8bf
00000120: 44b2 da72 59e0 cf3f 5e14 c06d 3a3c ae3f
00000130: 302a 185c 8aca 9bbf b7ae f38e 47c7 b3bf
00000140: d4f8 ed39 ac1e 9c3f 525b a095 2c54 8a3f
00000150: 2a9d 7e52 9a79 b13f a3e9 a5be 62c1 c63f
00000160: 33a2 515c 2a15 b63f c93b 69da b271 abbf
00000170: 9ba3 d6ff 3cae c63f d618 8815 22d9 bf3f
00000180: 8a30 5294 4e53 b83f 51cd 21f0 2610 b4bf
00000190: 02aa 6fc5 a333 c13f f1de b7f0 7ff1 b7bf
000001a0: 5ce7 1121 662c b33f 8903 69b7 1002 b0bf
000001b0: 14bc 6b1d 26e2 a2bf 413e da2c be48 b23f
000001c0: c806 0b2b 3f46 c0bf ef0a d653 1871 62bf
000001d0: ad86 5443 beeb a5bf 13f4 0181 d89e b93f
000001e0: 7179 02b5 a06a 403f 6bf8 d92d 53c7 933f
000001f0: ea50 8559 0d06 85bf 14e9 f65a ce08 a33f
00000200: d5a5 4703 c276 c13f 9280 a25f 12ac af3f
00000210: e27a 1bbd 597e bebf 9b01 906c 7093 c5bf
00000220: b5b2 0764 3b44 cdbf f876 6219 8e91 c13f
00000230: ae4d bff9 38eb d3bf 15e4 b25c 46d2 c03f
00000240: efaf 9de4 f0dc 9cbf f0e9 d820 b3be c23f
00000250: 468c 7f4f 474d 993f 7e00 99a0 e595 b83f
00000260: c71e 33c9 e1c9 babf 79f7 35cc bf7f b23f
00000270: af01 80f2 dfa4 bc3f 9e59 8b99 eea6 8e3f
00000280: 5d73 9921 da51 6c3f 22bb d175 bdb8 cb3f
00000290: 1d03 b628 0ca5 c43f a891 4783 d51d b53f
000002a0: d7d7 7a17 9b43 9c3f b1cf 8d45 4721 ad3f
000002b0: ceeb 224b 31bc 2dbf 4736 d129 8679 be3f
000002c0: 9275 b060 40f6 b13f eedc d9ce 7635 c73f
000002d0: e5a3 ebf3 d10e a7bf cc93 ba2a efe1 c63f
000002e0: 5af1 82e0 624d b93f 4abf cb28 78d9 c93f
000002f0: 285e fb80 1a9c b43f 849c fc39 cf0a b83f
00000300: 7c41 c664 c6c7 c9bf 7d92 7cda 5015 c8bf
00000310: 4ea6 aa6b 3ecb a33f 2ffd b806 ddc9 b0bf
00000320: 83d5 f99d 7369 b93f 438e 2b7e 8b91 a0bf
00000330: 7433 5257 ca35 b03f 9d35 52f6 b854 a1bf
00000340: 32f0 7594 7a4d 87bf 9ea6 86b4 cbd2 c7bf
00000350: e230 8fa8 94b5 bebf 3a9b 2dc5 2df8 7e3f
00000360: 3a63 e2ea 2e05 a53f 5aaa 6e0c 6d18 963f
00000370: ce2e 4534 040d c4bf e329 c69a 5073 c53f
00000380: 5291 18e1 bc23 ce3f f769 fafc 0784 bf3f
00000390: de03 9060 bcfa 903f 68d0 f7be 43c9 a23f
000003a0: 4626 2be0 123a a1bf db71 4f80 2899 c6bf
000003b0: 7269 2b31 b971 a73f 4205 521d 1a55 b5bf
000003c0: 15e3 d086 f09e b0bf 3489 18e5 0ce2 c33f
000003d0: a5b5 c03d 3152 c0bf f23f 301e 6082 c9bf
000003e0: 4467 2506 b6ce b8bf 87eb 36e2 4808 a13f
000003f0: 3fae bd03 e132 b83f bd22 5fcb 9537 b43f
00000400: e09b cece 56b6 94bf 469d 1208 9581 a63f
00000410: 9aa2 0120 b043 a5bf 81af 9eca f7e0 bd3f
00000420: ab68 5061 dddc b93f 899e 3797 dbe3 c2bf
00000430: 7ef7 9692 82cd b53f 8fd1 9d30 9ba4 d6bf
00000440: 4618 f8c9 1674 c3bf 7c5d 77b5 72c2 93bf
00000450: 698f a6b7 61e3 c63f 91f6 6f47 0474 c43f
00000460: a3e3 7bcc efbc 7abf ad43 32d3 0a51 b43f
00000470: 3607 776e f3bb b1bf cd07 7b56 22bd cf3f
00000480: 3101 9f00 1b69 b4bf c7c6 9ab4 10d3 a9bf
00000490: e04b 506b 41e0 a73f 0700 7198 9035 d33f
000004a0: d526 482c a3a6 c6bf 7048 ff9a 15ef 6ebf
000004b0: c02e 6bd1 e2a4 79bf 5790 de5c 6ac1 b2bf
000004c0: bc31 2698 2dcc 8d3f 7558 837e ce57 ae3f
000004d0: 47aa 0b39 c3ff 8e3f c081 5680 8776 a53f
000004e0: 8a4e 1b76 8a0b d5bf 1a06 f188 a06b c5bf
000004f0: fd34 b6e8 488c adbf 3635 3629 2c89 c3bf
00000500: 18f2 b789 aea2 c5bf e19b 71ac b212 99bf
00000510: 2eac 8b41 9216 d33f 511b f4f4 2662 cabf
00000520: 97c1 b246 f19b b53f 0b55 5ee4 9f66 a53f
00000530: 0059 46d0 d67c c3bf 3e46 34e8 4ddd bdbf
00000540: 4180 68cd cbd4 adbf 4229 b0c8 1b71 803f
00000550: fdbf aff1 5073 93bf 2485 7978 22d6 aa3f
00000560: bc89 27ec 759b 72bf 0dfe 0c2d 1da3 c9bf
00000570: 6ab4 4e71 ff87 b73f d850 d36e 5892 b9bf
00000580: 358c 312d ab07 84bf 996a 0625 4e3d 9b3f
00000590: 7f4a 9c22 9795 a5bf a465 486d 7c8b 7abf
000005a0: fc42 6a78 a516 b8bf 528a d9e4 c514 8d3f
000005b0: 6d7e 4d56 83ce b6bf 8c91 f02f f9aa cb3f
000005c0: 16ee 68ee 7d11 a63f d85b 234e 4dff b3bf
000005d0: ecf0 bfa5 090f c13f 18ae ef03 9345 c0bf
000005e0: e40a 5611 8d42 b73f b2be d490 8570 b53f
000005f0: 2d82 9547 f71b c63f ba3a 2638 ff70 d53f
0.07414378549478197 -0.00331626997949661 -0.09997363394268688 -0.056324294097804824 0.12626985620410633 -0.13910270101324332 0.00531154588944778 0.03828887671732865
0.05333696373991676 -0.10075091256050603 0.14508449724967584 0.21127473464436303 0.14720663660655287 -0.04786775162174033 0.06765533055976299 0.11906283432656993
0.007808270487238988 0.11606436900648005 0.10876541201206169 0.14938152717495368 -0.08630823631908284 0.16173522862354545 0.14681863563024292 0.07356572698166859
0.14352519544881917 0.20547023250279084 -0.1543880065673498 0.16140599252128593 -0.00692626562045433 -0.03123192704993288 0.1370417776723952 -0.09772147388020146
-0.1265914288498164 0.14118486406624556 0.08348505358346918 -0.19040737576169692 0.24903410060996312 0.059053254983191236 -0.027139818068500243 -0.07725951423679588
0.02746075728963933 0.012855861965403701 0.06826176179912538 0.1777766638659389 0.0862604594600576 -0.05360182682181109 0.17719233028517753 0.1244069387977079
0.09502116318816625 -0.0783714615115987 0.13438841953696118 -0.09352874400053303 0.0748962240922117 -0.0625315139559587 -0.036881629077349626 0.07142246813804666
-0.12714376069748412 -0.0022511935373484763 -0.042814202994361984 0.10008004331207614 0.0005009922697530156 0.019315051721143933 -0.010265449804741828 0.03717656002432271
0.13643670234823327 0.06185967843453101 -0.11911545626524458 -0.1685619859781696 -0.22864477524071494 0.13725448836787968 -0.3112318457544586 0.13141707922275772
-0.02818657298432464 0.14644469360230472 0.024708856799304145 0.09603724642602349 -0.10464297449208991 0.07226179824462332 0.11189078970347198 0.014966835079957271
0.003456998860924916 0.21657531979459416 0.1612868498596293 0.08248648123805558 0.027601645763489415 0.05689451908156629 -0.0002268610165339899 0.11904181023529602
0.07016374931887118 0.18131909465930768 -0.045034943604896495 0.1787699659954839 0.09883707028615643 0.20194913856493663 0.08050695084545423 0.09391493955318891
-0.20140914841295998 -0.18815050762454524 0.03866000236787369 -0.06558019079328824 0.09926531416734545 -0.032360419417980534 0.06332077628958449 -0.033849506443498024
-0.011378247886334323 -0.186120474955989 -0.1199582015535188 0.007560900487851902 0.041055170223620555 0.021577552684599467 -0.15664722969301298 0.16758163029983483
0.2354656313992885 0.12310838628983577 0.016581481355391385 0.03669177728798517 -0.03364619242126969 -0.17654901757386096 0.04578951573576519 -0.08332980361776257
-0.064925225175909 0.15533600984879004 -0.12750831141731314 -0.19929124330565134 -0.09690416002322616 0.033266332258299385 0.09452635136920494 0.0789731618416551
-0.02022681843996199 0.04395738338035442 -0.04153204336836787 0.11671398827337322 0.10102637887794923 -0.14757866748481188 0.08516708449221075 -0.353796765782385
-0.1519802557160707 -0.019296448064634472 0.17881413905444823 0.15979054916526939 -0.0065278403414987 0.07936160713349123 -0.06927415320299421 0.24795941565213156
-0.07972878232158533 -0.050438425108394074 0.046632809018909205 0.30014433752876396 -0.17696036970328657 -0.0037761136991117314 -0.0062607631759409865 -0.07326378600424853
0.014549595075345027 0.0592636613306902 0.015136265924828097 0.04191993180870979 -0.32882939847807136 -0.167347018114058 -0.05771091309279972 -0.15262367260258153
-0.16902715420282344 -0.024485389495023106 0.29825264359414205 -0.20612036667463454 0.08441074348480125 0.04179858839703784 -0.15224728746097327 -0.11665808600471281
-0.058264130424732226 0.008028237401977226 -0.018994583846449576 0.052414967733748236 -0.004542790064507359 -0.2002903432821629 0.0919189120892995 -0.09988930421542663
-0.009780251805017052 0.02660104847891862 -0.04215690896503065 -0.006480680506251533 -0.09409555616208459 0.014199777647438658 -0.08908863884925618 0.21615519371802028
0.04310220275189296 -0.07811434896153402 0.1332714137387322 -0.1271232384891483 0.09085923836941451 0.08374819551385818 0.17272845263779982 0.3350217865308128

base.actor.actor_fc3.bias f8 [3]
00000000: 8050 3f17 ce75 ab3f dba1 01af 4f19 b23f
00000010: 9caa 433c 1c33 b2bf
0.0536331561449126 0.07069871924034692 -0.0710923812036221

base.critic.critic_fc1.weight f8 [64, 11]
00000000: df37 3289 e8ae d9bf ebe8 c8d8 d6c0 c83f
00000010: c972 6662 9a46 c33f f30a 6008 f519 d33f
00000020: 4369 9ac7 7b8c e33f 56d2 1038 645a a4bf
00000030: d94d 90d0 711f c0bf ee16 a232 831d be3f
00000040: 0308 51c4 d990 babf ccff 529b 209f 64bf
00000050: 5707 6449 af7e b3bf 2c88 0a09 d007 b03f
00000060: 9d66 f515 786d b43f f695 4640 7e69 ccbf
00000070: a06c 48a0 8cbb a03f fea8 076d ef48 b23f
00000080: 6404 f6a4 cd57 89bf 5d4d 00fc 1a0b b43f
00000090: 2da8 3489 d8a4 b53f 1b19 838c 6a80 c8bf
000000a0: 1e10 0617 2e1d a7bf cf6f 67d2 abbf bdbf
000000b0: d406 10b1 19f9 a03f 82b4 5c11 6439 99bf
000000c0: 3a81 a17d 4de7 c23f b334 46a3 e30a b43f
000000d0: cdc1 9a71 4ebd ad3f eb2f 5b06 c0cd c6bf
000000e0: f8fc ccde 2760 d03f 5925 85e3 202b c2bf
000000f0: 5550 37c6 5344 c83f 9ef7 49c4 fe6f c53f
00000100: 70aa 2b90 a4bd c9bf 4011 9987 e83b 473f
00000110: f20a ccd8 bc9d 0abf 1db4 3950 cc65 b8bf
00000120: bc9b 7910 c701 9bbf ea83 c0b1 7707 cbbf
00000130: 8ef7 7db2 1df7 c23f e7c0 5127 667a c4bf
00000140: 1db4 7d8d 86e1 d23f 7ab4 efa7 b7b3 e0bf
00000150: 00da cea8 580c cfbf eb13 eaf1 37fa d5bf
00000160: eb59 c932 6194 b43f 3ef6 65cc 7c19 a4bf
00000170: 9963 0236 ff3b c23f e1f6 979c 2aa0 b53f
00000180: 4b8c 9180 312f c7bf 5af5 019e f623 c33f
00000190: ed64 33c0 346e cf3f 67a5 5c14 d3a4 c4bf
000001a0: cf18 5d13 99f2 c33f 3564 8e91 c930 b13f
000001b0: 5ab7 7a04 a02b d0bf 976a b2e0 0e76 b9bf
000001c0: f548 cffd 2d16 a2bf cea1 4462 6241 97bf
000001d0: 13e9 fd81 4ac4 b8bf b21a c4f6 255a c53f
000001e0: 3662 1008 3411 c23f 3ad4 a40f 835d d1bf
000001f0: f98f fa8e c723 92bf 1744 6211 29fd 51bf
00000200: 7778 11e9 b558 adbf 0feb fa18 6515 a2bf
00000210: 8a72 e310 7de8 c13f edfe 6d31 1be3 c03f
00000220: 9e67 f160 c352 ac3f 3d46 5813 2681 b5bf
00000230: 1cfc 0c80 c796 b1bf c6bf d56a 9ad3 c63f
00000240: 91cf d434 a92a c0bf e658 5333 f89a c73f
00000250: 734a 53cf 626c d4bf e8ec 3eaf 8226 cabf
00000260: a288 e432 7149 c6bf 4cd9 5cb8 9283 c63f
00000270: 9dc3 f320 cc06 b6bf 4828 1c2f ae5c b83f
00000280: c61d 5744 8a85 c53f 603b de1e f0d4 98bf
00000290: ccdf 6094 7dbe c73f 08ed fa0d cfe4 813f
000002a0: 9dbe c788 d556 aabf 5f14 c11f 23ef b63f
000002b0: 4f18 6928 0173 9d3f 2ae2 d125 6c17 99bf
000002c0: 7f73 0572 bdee c6bf e348 68ac 59a5 9dbf
000002d0: 497b aafa f967 c53f 9e92 7f98 ee32 c83f
000002e0: a73a 4350 88d5 d3bf 58e7 a958 95ef d73f
000002f0: 984e f9d7 7b78 bebf 4b63 6463 b543 d03f
00000300: 01ce 25da 67c7 dcbf 3530 66fd 93bc c0bf
00000310: 59df 0dbc 2ee3 d7bf 37b7 b0de 02fd cd3f
00000320: 9df2 6b80 442a 823f cee1 8a31 5ac5 d23f
00000330: be35 b69d 644f ae3f fbfb 900b c676 d33f
00000340: b8c9 046a 900f b93f f9bb 641e c21f c3bf
00000350: ddf4 99ae 601c a13f f1d0 3fc5 13e9 b1bf
00000360: 0d5b f158 999e a0bf 4537 2901 9c4e b93f
00000370: 2ae1 a4a1 342c d5bf 00b5 c8b0 3273 94bf
00000380: b2be 0cb1 a249 edbf 0f78 0c4b 4c33 ab3f
00000390: d1ef f623 44eb c6bf 8bd5 02f7 4e3a db3f
000003a0: ead8 5253 3ec3 d33f 7697 8c06 8d25 c33f
000003b0: 4a7a 58fd 1b0a d7bf 2fe6 5220 782b b6bf
000003c0: b478 10e7 f116 e1bf 39ca b7f4 c5f6 debf
000003d0: e5c4 8627 44bc b1bf 03ba 2cce 5da5 a03f
000003e0: aac9 c19b fb8c a8bf aef7 e31c 1524 b2bf
000003f0: d4f9 b322 b884 cf3f fb14 08d8 17d4 bbbf
00000400: da3d 0569 fab8 ba3f 5239 915c a721 d0bf
00000410: e91e c6bf 6288 b3bf af41 1ce6 835f c73f
00000420: 26f5 31c9 0242 abbf eda2 184a 77e1 b3bf
00000430: 8a7c 53fb 89ce c2bf f4a1 b80d 4124 be3f
00000440: f716 99e0 8f9c ab3f 0e94 aa21 df82 a1bf
00000450: c461 9c19 ac9e ad3f 70fb 8fe4 5d81 c1bf
00000460: 512b 0b76 499f ca3f 35a7 a544 996f 743f
00000470: 3e02 c0c6 0ae8 783f db1a e7d3 5a87 d2bf
00000480: 35a0 043d 51d6 b43f 3157 37f3 17de cfbf
00000490: 363f d9cf 5f9a afbf f0ff 906a 2e35 8bbf
000004a0: 178b e635 59e4 d13f f8c2 d0cf 58e5 c5bf
000004b0: 3df7 9b1c d18d a5bf 760d e0bf b968 aa3f
000004c0: ee30 640e 3464 8f3f b7df 7187 bb4f a73f
000004d0: 6de3 8ca7 f556 e43f fa14 0ba7 a9b6 c13f
000004e0: aa19 6372 c47b d3bf 60c1 91f7 246c b1bf
000004f0: c95c 7c3f 69c2 e6bf 5af0 dbf7 aa55 ce3f
00000500: 10c7 c699 1592 d1bf da5b 875e a757 cdbf
00000510: 765c 164a 4686 d93f ad74 2f54 2198 b53f
00000520: 353c 42c2 205d d03f e09b 43c1 b9c1 bc3f
00000530: 7d3d 7f26 ad55 56bf 25d9 0a4c 7e07 8dbf
00000540: a503 089d b403 bbbf 9518 b311 64ae debf
00000550: ddc4 65d4 68d7 b6bf ce3f e172 d660 ca3f
00000560: 25d1 5a27 3409 c03f c343 97fc 93be c8bf
00000570: 1d58 4316 eba0 bdbf 5af4 eca8 8ccb afbf
00000580: adc3 51f8 b5e8 d3bf 5b8b 4e13 ff92 c13f
00000590: c24f cef4 db97 d5bf e211 5fc8 ea46 c1bf
000005a0: ab0a f08d c288 81bf 73bf 4e6d 37be aabf
000005b0: fa6b 481d a92a b7bf 593d 1321 de04 bdbf
000005c0: 1e7a 086a 654f c83f 90c9 8eb5 0716 b73f
000005d0: 316c e97e 4827 a0bf ab8b 8643 038b b63f
000005e0: b4bd da46 a5bd ad3f 3a24 3a66 b1a7 b3bf
000005f0: 75b0 113a 4e40 633f c550 6f00 e0ac a13f
00000600: af6a 8657 8c18 d4bf 8fad 0785 924d babf
00000610: 7dee d6ff cff4 d3bf 9f93 f323 d8a7 e13f
00000620: c116 94bd fcc2 ca3f 3652 1bd9 9784 df3f
00000630: 9e74 1a77 0a8e 8abf c1e6 c153 da34 9e3f
00000640: 623f cc6c 4fe3 c0bf 9604 6bbc 6ae0 91bf
00000650: d9d9 a02c 44bf aebf 80be f7a1 60e4 c13f
00000660: c3e4 dba3 3cef d4bf 42b5 f043 d2c9 cb3f
00000670: f8fc 9ead 8afa d7bf b763 359e 1c9c c7bf
00000680: 081c f0ff f835 c8bf fb76 1991 e581 cabf
00000690: c9dc d9b9 ff56 7b3f 5566 223b 4afd b0bf
000006a0: 8f33 02c8 a221 aa3f 0496 278c e12e c2bf
000006b0: 9589 6002 f886 c13f a421 afac bc7c cabf
000006c0: 9644 819a 4a9b b23f a5ba a8a1 0b31 bcbf
000006d0: 8d5b a6f7 c39c c1bf 7ba2 55de e0b3 b5bf
000006e0: df7a 8024 adf2 df3f 5f69 059d c0bc b5bf
000006f0: 5be5 4a62 aac2 a0bf 9ece a229 a900 8b3f
00000700: 0d3b 7cda 74ed d13f 26fb 5cff cf1c c8bf
00000710: 3b1d 3c76 d367 d13f f6fe 9f0d 47fe 3cbf
00000720: 0a91 4d99 f6d9 883f 4b27 dbab 148e 873f
00000730: 6f36 1834 ab28 cd3f 6be6 de54 7b93 d8bf
00000740: 1c65 2e40 ac67 c3bf 8e30 f318 585d db3f
00000750: ac56 77c7 891a c53f b41d de44 5c82 c3bf
00000760: 7895 448f 5c23 cebf 648d c45e c61f acbf
00000770: 631b 4d23 1e0f 9bbf d7c6 9517 a350 b73f
00000780: a47b e7df 21f5 ba3f 9901 d33e caa7 a4bf
00000790: cba8 e900 2d8d be3f 5b01 5a27 343b c4bf
000007a0: 5a39 003e b132 cc3f 7a2f 4c4f 4bda b03f
000007b0: d1b8 47f5 6688 cc3f abd6 b536 d469 cbbf
000007c0: 6430 e760 4b89 723f 1679 b24f 0746 acbf
000007d0: 9ed1 9621 dd12 c13f 53d9 e9b7 e8ad a03f
000007e0: be2b 3d04 f7a2 bbbf 796b c51e a7e4 ba3f
000007f0: 9651 69cd 85b9 b23f 096d b90c 0194 c13f
-0.4013005580717372 0.1933849867362548 0.1505921345204995 0.29845929925811204 0.6108988665103329 -0.03975213226695888 -0.1259596126916296 0.11763782488022986
-0.10377274554141995 -0.002517284092931482 -0.07615180532232323 0.0626192113946053 0.07979536567781982 -0.22196939600432558 0.032680887761864286 0.07142540370810832
-0.012374502751074164 0.07829445507404871 0.08454659795521087 -0.1914189516157386 -0.0451445010285456 -0.11620592009370444 0.03315048490914099 -0.024632991370868947
0.14768379816360683 0.07829115616023578 0.05808491837285921 -0.178153994659055 0.2558688808239391 -0.1419411765039438 0.1895851819850828 0.16748032173557886
-0.20109993972376428 0.0007090459250283301 -5.076630177393804e-05 -0.09530331572177926 -0.02637396848731631 -0.21116539172456267 0.14816638198311377 -0.15998532218828318
0.29501499001963954 -0.5219381599432744 -0.24256427996233754 -0.34339712738466116 0.08038909425645328 -0.03925695414634987 0.14245596062826563 0.08447519610487177
-0.18112772729645807 0.1495350142976502 0.24555072197725938 -0.16128004545434324 0.15584100194445802 0.06715068629854744 -0.25266266286313555 -0.09945767389073477
-0.03532546733153367 -0.022710358856018513 -0.09674516366604662 0.16681360768435166 0.1411500014662736 -0.27133251693459537 -0.017714613057833593 -0.0010979558042303378
-0.05731743307181685 -0.03531948022778952 0.1399074871504989 0.13193073190267715 0.05531893309007717 -0.08400190326963126 -0.0687069594978173 0.17833261696386965
-0.12630190925267162 0.18441679483539203 -0.3191153549825351 -0.20430024678157754 -0.17411627755160902 0.1758902931412173 -0.08604121975419195 0.09516419077059013
0.16813782059601418 -0.024249793895758542 0.18550081009902752 0.008737199415341582 -0.05144374174767317 0.08958644414185944 0.02875901993891033 -0.024503412063923737
-0.17916076724477745 -0.028951073787603653 0.16723561038539916 0.1890543217297322 -0.30990798795839186 0.3739980092865287 -0.11902593634413916 0.2541326017977112
-0.44967075637325143 -0.1307549464512491 -0.3732411228625004 0.23428378938245384 0.008869681519621248 0.29329542959342525 0.05919947076027253 0.30412436608816024
0.09789373958918801 -0.14940668567712104 0.033419629396101526 -0.06996272626549051 -0.03246001444556699 0.09885573414177624 -0.3308230951838761 -0.019970695533790384
-0.9152387102130517 0.05312574783441459 -0.1790547538383849 0.42543386575865644 0.3087917150218248 0.1495834619501541 -0.3599920248106271 -0.08660078801303749
-0.5340508950210023 -0.4838118448089151 -0.06927896466256163 0.03251164571553391 -0.04795061374979366 -0.07086307483038354 0.24623777098163535 -0.10870503448684936
0.10438504280067865 -0.2520540622689583 -0.07629983121853069 0.18260239349230065 -0.053237998065905054 -0.0776590877436651 -0.1469280697992626 0.11774069390288117
0.05392884842562567 -0.034201596126230624 0.05785119831688548 -0.13676046047472878 0.20798605216836077 0.0049892413174832855 0.006080667586502884 -0.28951140111568713
0.08139522304247822 -0.24896525741376643 -0.06172465717520341 -0.013285029055737113 0.2795622850773482 -0.17106161257972707 -0.04209760164483931 0.05158024279810551
0.01532784146231633 0.045530185970107544 0.6356151840655976 0.138386923374277 -0.304429160791552 -0.06805640262769463 -0.7112318267781116 0.23698937513825308
-0.2745412828181637 -0.2292374812666072 0.3988204692372571 0.08435257249171242 0.2556840798433229 0.1123310181461501 -0.0013632002755804278 -0.014174448676709315
-0.10552529176494703 -0.47939397552944146 -0.08922438798414896 0.2060802517830766 0.12528087541216695 -0.19331598123110724 -0.11573666852504556 -0.062099834080506525
-0.3110785412782729 0.13729847376552126 -0.3373937502558385 -0.1349767187476934 -0.008561630207627976 -0.05223248681374928 -0.09049469914354794 -0.11335552508829973
0.1899229781856357 0.09017990286409927 -0.031549706928409534 0.08805866621564344 0.05808750619814465 -0.07677754159716779 0.0023499992244549414 0.034522056630210275
-0.31399830386514344 -0.10274616000940838 -0.31181716904004714 0.5517388059785054 0.2090755391765722 0.49246784402683674 -0.012966233978028815 0.029498492586276685
-0.13193695843119274 -0.017457645177959856 -0.060052996108811825 0.1397820273264081 -0.327101860064044 0.21709659879108228 -0.374666852523617 -0.18445165371920577
-0.1891471147248185 -0.20708913407263893 0.006674765519725409 -0.06636489814482023 0.0510378712798235 -0.14205569594848566 0.13693142047948173 -0.20693167144623914
0.07268205902188848 -0.11012337395434686 -0.13759660331990312 -0.08477597644890437 0.49918678822170465 -0.08491138299487976 -0.03273518037662867 0.013184854109886953
0.2801181920666956 -0.18837928742319682 0.27196203752869835 -0.00044240221689049954 0.012134481957851512 0.011501466269141189 0.22780361217194264 -0.3840015724959815
-0.15160134443139206 0.4275722736026716 0.1648723815875902 -0.1524157844798829 -0.23545414920333108 -0.054929923122723406 -0.02642485704862042 0.09107417417342432
0.10530292240535616 -0.04034263626954555 0.11934167167933933 -0.15805675431694052 0.2202970078219078 0.06583090482689427 0.22291266419001102 -0.21416714354898167
0.0045254654382454775 -0.05522177551141476 0.13338817730040103 0.03257682080304627 -0.10795539716234168 0.10505146504639908 0.07314335122038637 0.13732922669701278
