results/Hopper-2d/cmorl-ipo/2/final/EP_policy_81.pt (torch, 85897 bytes, 13 tensors)

base.actor.actor_logstd f8 [1, 3]
0	0xbfe18375ae462707	-0.547297325495692
1	0xbfef8512fc9d87e2	-0.9849944051641126
2	0xbff1a0ad4b86ef8b	-1.1017277670170837

base.actor.actor_fc1.weight f8 [64, 11]
0	0x3fe1a248917199f1	0.5510599938104958
1	0x3fa3f7bcad25323c	0.0389994584425932
2	0xbf93a06768969bf8	-0.01916657996994428
3	0xbfb5df32f505a90a	-0.08543699724183199
4	0xbfcfa7ab3f15da16	-0.24730434971179766
5	0x3fdb75edc27a943a	0.4290727996070164
6	0x3f87faf307307247	0.011709116608522708
7	0xbfb6a7015e3d2897	-0.08848579931978616
8	0xbfa0b616bff5efda	-0.03263922780294566
9	0xbfa82221860e1181	-0.047135398496751975
10	0x3fd75f239d5dbd5c	0.36518183105268576
11	0xbfe683cb09e9e37f	-0.7035880273461855
12	0x3fa0cbc214738ccc	0.03280455112123945
13	0x3fbf93bf2f1094c9	0.12334818743746036
14	0x3fcd83b9d809b30d	0.2305824570534231
15	0x3fd0a9e61b26118a	0.2603698029636453
16	0xbfcf92b3ba2a8ace	-0.24666449155946285
17	0xbfb033fa055f8daf	-0.06329310065443992
18	0xbf83b7f3695b84e6	-0.009628202107196459
19	0x3fc8076b56780e07	0.18772641870610604
20	0x3fc78d86be42e553	0.18400654115775214
21	0xbfd6caf061eac72d	-0.3561364132138916
22	0x3fc436efed9d393e	0.1579265508866658
23	0xbfd6575359c5234b	-0.34907993094070794
24	0x3fd2410f6fe617df	0.28522096564881666
25	0xbfbada6cf6bc21b1	-0.10489541076470378
26	0xbfb7bcb5f553aa0b	-0.09272324790405422
27	0xbfd6c23f18e2bb15	-0.355605863859567
28	0xbfa579d73369e570	-0.04194519522293205
29	0x3fcd52243491bead	0.22906925742016906
30	0xbf7d47f74ad4edcc	-0.007148710237113897
31	0xbfc56615b2229382	-0.16717787931443345
32	0xbfc84ddca15d8758	-0.18987615470092112
33	0xbfcbdce058deb508	-0.2176781114516546
34	0xbfd714c9a074eb33	-0.3606437746963593
35	0xbfc29e3b3bcde574	-0.14545383854037264
36	0xbfd8228e23a72d80	-0.3771090839552116
37	0xbfc253d004a41e9b	-0.14318275667777844
38	0xbfb5cc28e61d1f46	-0.08514648073207551
39	0x3faf0ee3a557c347	0.06066047089905751
40	0xbfc72a1b4e2717af	-0.18097249332475715
41	0xbfa725b63dabb5cf	-0.045209593799750196
42	0xbf9f71ac9ce53ce3	-0.03070707042325872
43	0x3fa063190d99241a	0.0320060566996931
44	0x3f8d3b3f08372fe5	0.014273159445018233
45	0x3fbbbe4cd3dce038	0.10837249920302916
46	0xbfc3a3140ef816d4	-0.1534142563906956
47	0x3fb049155a6273da	0.06361516434340278
48	0xbfc0c218b354405e	-0.1309233546858221
49	0x3fdc1d52119ccf49	0.4392895862576905
50	0x3fc420db0a12e37c	0.15725267402538268
51	0xbfd13a2dc3326223	-0.26917594968975517
52	0xbfb64653d35f1076	-0.08701061163361765
53	0xbfb31519d0540700	-0.07454072319162819
54	0x3fca4c9e3dd5b23a	0.20546319979929867
55	0x3fadab50fe0fa811	0.057947665227246266
56	0x3f969f314579849a	0.022091646066091465
57	0x3fb36e4289a147c8	0.07590118274791202
58	0xbfc0937cf8c387ab	-0.12950098177594546
59	0x3fd361800af5e3ff	0.3028259379421456
60	0x3fa528c80bdee6c3	0.041326762627659906
61	0x3fd5bd896b01bc64	0.33969340753441757
62	0xbfc78c79e602678c	-0.18397449236800545
63	0x3fb929213b353fac	0.09828384109027749
64	0xbfd2d03fe81b5da0	-0.29396054903687663
65	0x3fd2dcb4186b7536	0.29472067246190947
66	0x3fc80a0f703a061e	0.1878070161802023
67	0x3fc5b8fdfe28f244	0.1697080126777043
68	0x3fc2ba36b2d7ec71	0.14630779011335762
69	0xbfdfb9c93d8e24c9	-0.4957144833684422
70	0xbfcbb07a959fbcb8	-0.21632320695741725
71	0xbfa61059248ab428	-0.04309347697321925
72	0xbfd538a0a830175a	-0.3315812723598036
73	0x3fbc491e09d21a4c	0.11049068202746887
74	0xbfbc8cd51deb698a	-0.11152393322428203
75	0xbfc83a6a6dfba21e	-0.18928270693074095
76	0xbfcbaa56ee2e22fe	-0.2161358511914599
77	0x3fb5056a0725ab43	0.08211386370173294
78	0x3fc2519b3ce2cf50	0.14311542962024726
79	0xbfd15191e17fd36b	-0.27060362836282675
80	0xbfc5c671a9bf3841	-0.17011853016305348
81	0x3fc1b93678e9fd6a	0.13846474555974037
82	0x3fd6ce1017c0d2d2	0.3563270790066727
83	0xbfd23212ff97edff	-0.2843062873868973
84	0xbfc4e85791193638	-0.16334051689993756
85	0xbfbe49890cb3bd65	-0.11830956039533687
86	0x3fc5efc65bd536d4	0.17137984737421752
87	0xbfa226a0be15ad37	-0.035450957492538064
88	0xbfc52e073f94364c	-0.1654671726650342
89	0xbf90ff5c5cb5bebe	-0.01659912410599306
90	0xbfc31e9c078048cf	-0.1493716274858969
91	0xbfd35061f7e901d9	-0.3017811699865241
92	0xbfc3a2c27f952e7c	-0.15340453366876605
93	0xbfc2b8405697f132	-0.14624790409278315
94	0xbfc9e811420ddb2d	-0.20239463544177153
95	0xbf62ac75adae661d	-0.002279500809390779
96	0x3f82b73db05afc63	0.009138566917839158
97	0xbfc3453568b3e823	-0.1505495797389936
98	0xbf88dd70c40b1a97	-0.012141114218491551
99	0xbfd4c17ca976b471	-0.32430950688541943
100	0xbfc79e6b3abed835	-0.18452206009323083
101	0xbfa1ce4dabfe5497	-0.034777095074937474
102	0x3fc4222bf0bb2465	0.15729283575481925
103	0x3f97ce436104af9b	0.02324776916172731
104	0xbfba1c3577866d54	-0.10199293296903039
105	0x3fc947af1c408cc2	0.1975001228284779
106	0xbfb331afa7b60a14	-0.07497690052517952
107	0x3fc855a9207bf310	0.19011415563718304
108	0xbf495a39931e47c6	-0.0007736950994845441
109	0xbfbfeb249ebe4802	-0.12468174815720093
110	0xbfd8dde2e5a62715	-0.3885428660074564
111	0x3fbf5f5cd1b47cba	0.12254886741401352
112	0x3fb3f8ec92bd7078	0.07801703054923503
113	0xbfc822e15d02a1ab	-0.18856446305768534
114	0x3fc29852b2b7cec6	0.14527353025879658
115	0x3fdb4d43928b1eeb	0.4265908175552641
116	0xbfc60566f3eed17e	-0.17203986082826
117	0x3fb9b282e6e5f839	0.10038011681714999
118	0xbf9313fe5c112e88	-0.018630957002001597
119	0xbf8694859757dec8	-0.01102547042954373
120	0xbfcc59ef2211e326	-0.2214945713383482
121	0xbfdd4949367f28e1	-0.4575980217165477
122	0xbfbdf15c10a855de	-0.1169641056697723
123	0xbfbc0f7a3f32bb9d	-0.10961116831707192
124	0xbf8f4016caa37fa1	-0.015258958872834518
125	0x3fd1611df8af0863	0.2715525558998079
126	0xbfc8a5cd3623e1d0	-0.19255986350596155
127	0x3fcdae78ff0cfd1c	0.23188698247575068
128	0x3f91c8b21f0a4b4f	0.017367156166595617
129	0x3fbcebd19398ef84	0.1129733071656443
130	0x3fcee016a4ea1172	0.2412136368985887
131	0xbf568d1e1a2f4b01	-0.0013764184920900815
132	0x3fa9851981fc9e14	0.049843594663169594
133	0xbfc2ce63f1171436	-0.14692353507976613
134	0xbfc07ecaae3f24cc	-0.12886937626016104
135	0xbfab08226365bfd9	-0.052796435006598315
136	0x3f890c1a9b5bd64b	0.012230117670223658
137	0xbfc6086d9446174f	-0.17213220348292643
138	0xbf782b4233d4f8a4	-0.005900629619018858
139	0xbfd3642e91c0b04c	-0.30298961862240925
140	0xbfd3cd3d31eaa444	-0.30940179705300275
141	0x3fb07823cb62a256	0.06433318820439501
142	0x3f931799b723c802	0.018644716074909702
143	0xbfbd74c23ef00399	-0.11506284748612784
144	0x3f849d997b954a88	0.010066222270926475
145	0x3fd1a70e43bac82e	0.2758212720319787
146	0xbfcf375daea15b98	-0.24387713457937532
147	0xbfc0f103d2764df7	-0.1323551919600587
148	0xbfd1045c1fcd4145	-0.26589110475199035
149	0x3fbf684314c5829f	0.12268466240994734
150	0xbfc23b90709423ec	-0.14244275567060016
151	0x3faeea0eb10ee25a	0.060379466165106435
152	0xbfc1789bf8a134a6	-0.136493202592111
153	0xbf7309974826fad1	-0.004647818512636363
154	0x3fb3cd81d8887c70	0.07735454117254092
155	0x3fcc843feeff5de5	0.22278594178963754
156	0xbfafcd0ac944cecf	-0.0621112223329
157	0x3f762f234240ef28	0.005416047792149027
158	0xbfaf2efc3d16ce69	-0.06090534444538493
159	0x3fd21c6f1d40524a	0.282985476079635
160	0xbfca3b93b646ffda	-0.20494314575444045
161	0x3fb0662e16d1ecad	0.06405914361123406
162	0x3fb7a4f4f47b4bf0	0.09236079186238988
163	0x3f80338eacd8485e	0.007910837793165534
164	0x3fc63ce3dae0b415	0.17373321711912185
165	0xbfa334ea34d02482	-0.037513083407312756
166	0xbfa98bfabe2dfb6f	-0.04989608356026209
167	0xbfd3b1f5ad0ecba0	-0.3077367963807607
168	0xbfe0652e73319017	-0.5123512506365867
169	0x3faa8be5d0c1e28a	0.051848584874226125
170	0x3fb362b4ae382584	0.07572488072778155
171	0xbfd4f009e1914e8f	-0.3271507933434145
172	0x3fa322a5551b384a	0.03737370170493699
173	0x3fa17c5443109648	0.03415168112432504
174	0x3fabad3a3311ccfe	0.054055994733880994
175	0xbfe13d5ebd02c6e6	-0.5387414638155092
176	0xbfab11cfea934dad	-0.05287027109593665
177	0x3f9508c2157eb367	0.02054122215456591
178	0xbfca470b0eb9caf6	-0.20529306620627324
179	0xbfa3cb4308fb815e	-0.03866013989113769
180	0x3fb062e3995b53b2	0.06400892728863886
181	0x3fade2602fbe0b6f	0.05836773474495415
182	0xbfab587d90ff22bb	-0.05340950388887707
183	0xbfc9e3e2382cfce7	-0.20226695769267808
184	0x3fccc869ae6d8a48	0.22486611382471922
185	0xbfc892cde5d363fc	-0.1919801113315599
186	0x3fb015861e15efb7	0.06282842859758274
187	0x3fbf67330a0f8b3f	0.1226684474527646
188	0x3fc0eabcd093451c	0.1321636217531158
189	0x3fc30d8f41ccc858	0.1488513060845118
190	0x3fb24a83c1f3293b	0.0714495037565585
191	0x3f852b9350bafc1b	0.010337019826122831
192	0xbfd12134b4b2e0b7	-0.26765172621118033
193	0x3fc092ab15012c3f	0.1294759609757836
194	0xbf9ea80ec455e56a	-0.029937964185113776
195	0x3fbd28c142fa796b	0.11390312085356917
196	0xbfb3cf852bb10198	-0.07738525692639653
197	0xbfd1ea9bc09cb632	-0.2799443608263089
198	0xbfc68e1e3e4df9e8	-0.1762121013852742
199	0xbfae8b0ca8f00237	-0.05965461313462977
200	0xbfb99bd9fecbcb3c	-0.1000343558369367
201	0x3f59181c3a9c9586	0.001531627242408491
202	0x3fb558d7b08bd2b7	0.08338687954148837
203	0xbfe30285506c86fa	-0.5940577097682926
204	0x3faee5e94132eaf3	0.06034783287892322
205	0xbfd3f899df6fae65	-0.3120484048838306
206	0x3fb37d5bd7bd7151	0.07613157288637253
207	0x3fc1528eddae042f	0.1353319723530446
208	0xbfa8fd615ca78d71	-0.04880813842808152
209	0x3f81a4610470b8d4	0.00861430926132948
210	0x3fcf9ae5ad450e60	0.24691458664357224
211	0x3fa820a08a3a3a3a	0.04712392508837522
212	0x3fc24870a53df08f	0.14283569401220972
213	0xbfcd4729be4fe184	-0.22873422424869372
214	0xbfc097b007b38977	-0.1296291387180408
215	0xbfb54fe9ddfa20bd	-0.0832506339012324
216	0xbf9906a550ba8099	-0.02443941407420933
217	0xbfc185cafd86dd80	-0.13689553622473838
218	0x3fcc6181181a5810	0.2217255943002674
219	0x3fba78689ef409cf	0.10339979057974989
220	0x3faeff2b51ab16ef	0.060540536612775024
221	0x3fc1840938b3136f	0.13684191959887523
222	0xbfc0028b5442c400	-0.12507764448449166
223	0xbfd142b5b25f57e2	-0.26969664019759254
224	0xbfd13f8a6c76a7d1	-0.2695032176221704
225	0x3fc4a7dfa273eadb	0.1613730948664259
226	0xbf6449325cbb70b2	-0.0024763091695217615
227	0x3fb0d4e75b625465	0.065748653231212
228	0xbf9cae5749cb6d1e	-0.028008808020655633
229	0xbfc6a8c5f6ce6e85	-0.1770255522832153
230	0xbfcbf8361d03a46a	-0.21851231018743827
231	0xbfceddd7e797fcfc	-0.24114512260710075
232	0xbfe0c83cb3291144	-0.5244430064417789
233	0xbfb4c863af7bf308	-0.08118269953042667
234	0x3fbeab1d6b5045ab	0.11979850645027194
235	0x3f62f8bfe570cbb9	0.002315878674858021
236	0x3fc1df7877af4faa	0.13963228076920348
237	0xbfd67944a261b468	-0.35115161759933367
238	0xbfab0db1950af7e4	-0.05283884949083964
239	0x3fcb27b19fd33f61	0.21214886001552727
240	0xbf995a54d0befd2b	-0.02475864910206586
241	0x3fdc77dcb909b5ae	0.4448158080111523
242	0xbf78683717a1a0c6	-0.005958762363754205
243	0xbfb22e5a92cf5682	-0.0710198028967515
244	0xbfbfea67d4411c72	-0.12467049533835153
245	0x3fb45ff4e4b80ec2	0.0795891817470489
246	0x3fcf8d731d013359	0.2465042010902845
247	0x3f94369a2e71db8c	0.019739541134608227
248	0xbfe6ee4a0e8a8c82	-0.7165880474098147
249	0xbfce6095af7360a6	-0.23732253138473886
250	0x3fb18c22e039804d	0.06854455923303356
251	0x3faa763bbd15cefe	0.051683298904121586
252	0xbfc7800d4418e4dc	-0.1835953314310136
253	0xbfb31da4462e4b7d	-0.07467104638480566
254	0x3fb7b8ac891d692b	0.09266165111094853
255	0x3fbee089ecedc2dd	0.12061368975060867

base.actor.actor_fc1.bias f8 [64]
0	0x3f958809f70708a4	0.02102675981746728
1	0xbfa3734175b22998	-0.03798870622366052
2	0xbfc35206bf44fac6	-0.1509407457287663
3	0x3fc37e06785000f4	0.1522834861243677
4	0x3f207a51f02233e4	0.00012571573467248722
5	0xbfa24b8fd0bbc5f4	-0.03573274062172152
6	0x3fc10834c156357e	0.13306292953749826
7	0x3fc73e4fd88fb1e9	0.18158910822184218
8	0x3fcd76e3a598ed75	0.23019071183976406
9	0x3fc1daecd5234a1a	0.13949356467362933
10	0xbfab554760f3d893	-0.05338500078680499
11	0x3fbf8f2c7be98dc3	0.12327840829089269
12	0x3fcaee1b76cc77af	0.21039145756452401
13	0x3fa9683091947149	0.04962302949045012
14	0x3fb80d5f8fb5184f	0.09395406015855311
15	0xbfb42e3c57310b5a	-0.07883050087643309
16	0x3fc45a8f37c5fe76	0.15901365493117553
17	0x3fd5ad460aceb6fd	0.3387007813970369
18	0xbfc6ed385c09d5b0	-0.17911438459456752
19	0xbfd0b9879910970e	-0.2613238329671369
20	0x3fb9e4b6cc74d188	0.10114614955529622
21	0xbfc3895b289e99ba	-0.15262927516341823
22	0x3fa0c77817d62097	0.0327718285653315
23	0xbfc6fb280ca43b09	-0.1795396863676262
24	0xbfd19b98456aa2eb	-0.27512175349197204
25	0xbfd223e91d2b434c	-0.28344180916342476
26	0x3f815ad709b9a793	0.00847404478482242
27	0xbfb4848d60dbe733	-0.08014758696290585
28	0xbfd8835ed66945aa	-0.3830182165011943
29	0xbfcd25f369d183a8	-0.22772066752352527
30	0xbfb660fde6eb4dad	-0.08741747749018343
31	0x3fc6e6148736aaaf	0.178896490118253
32	0xbfd1723687281fef	-0.272596008290292
33	0x3fae8fdc907ae03a	0.05969132674857787
34	0xbfb5e6ab22547614	-0.08555097187169053
35	0x3f8cdb846a3366ea	0.014090570918074492
36	0xbfd1d39d6be88aea	-0.2785409501831696
37	0xbfaa0f578d41d65a	-0.0508983001645162
38	0xbfc19fce77beeba8	-0.13768940779649808
39	0xbfca96060348b762	-0.20770335350374142
40	0x3fd52fb28f3cc61a	0.33103622425105217
41	0xbfb17c03f0e8b3aa	-0.06829857474867987
42	0x3fcd06f5351d2125	0.22677483647772437
43	0xbfd55db689e1fe08	-0.33384479012599444
44	0xbfc1f9ad05e34553	-0.1404320029019269
45	0xbfb33dd385d9b7d3	-0.07516214387734914
46	0x3fd156e6ae0bb476	0.2709290218034036
47	0xbfc729f1abcb32ac	-0.18096753013960176
48	0xbfca9d1f85d967bb	-0.20792001758201004
49	0xbfd33f74a2eeb977	-0.30074802314165744
50	0xbfbed603cc97d28a	-0.12045310730884232
51	0xbfd9327a5dbf715b	-0.39370593218861466
52	0xbfbaa0a44e7deeb3	-0.10401369968706824
53	0xbf9cd42dc1e2b918	-0.028153147658195626
54	0xbfd23a0ef71087ff	-0.28479360701942363
55	0xbfc9713c66c87c40	-0.19876818674763008
56	0x3fc4e723037f2bb8	0.16330373450031543
57	0x3faeb0c9740875e8	0.05994252721232468
58	0x3fc115b5dc915472	0.13347504873187038
59	0x3fc4dbbcccc70b5a	0.1629558563127727
60	0xbfcdb008aecbbb0a	-0.23193462881996424
61	0x3fcb13565622d8de	0.21152762609353365
62	0xbfcba42e21afd4c5	-0.21594788212647678
63	0xbf992e148c7331a4	-0.024589844772707217

base.actor.actor_fc2.weight f8 [64, 64]
0	0x3fb1e5229cffd445	0.06990257580749056
1	0x3fc14154c13f66e2	0.13480624614640307
2	0xbfa7851099dab3b1	-0.04593707922081281
3	0x3f7947388d2e9121	0.006171437172188627
4	0x3fc1cc4d42c68bfc	0.13904729614759492
5	0x3fc0ad21d77f734f	0.13028357527118792
6	0xbfc1245fb4fedf39	-0.13392254197764844
7	0xbfb2306a34e81ba8	-0.07105125228564069
8	0xbfe16c82e42db6d2	-0.5444960075962746
9	0x3f875f20235747ee	0.011411906317253053
10	0xbf7992ac8c9db9f1	-0.006243394871360484
11	0x3f725c8c3eb0c662	0.004482791740018395
12	0x3f95afcad9a38237	0.021178407224285514
13	0xbfc6c4f2843fa2a8	-0.1778853555436133
14	0xbfd62bea0f80bdf2	-0.34643031610445896
15	0xbfc7dc3585e92434	-0.18640774763687917
16	0xbfbce1dcb5c3d080	-0.1128213828813518
17	0xbfd11f347d6d1a48	-0.2675296044220983
18	0xbf9c57502db05d8c	-0.027676823414450477
19	0xbfca1e781c33181a	-0.20405484558995185
20	0xbfc4115f51eaf394	-0.15678016185657084
21	0xbfc5d36aa642f757	-0.17051442259065183
22	0x3fbe12c475ed4f27	0.11747386817051773
23	0xbfb591dfef34f8a6	-0.08425712194454835
24	0xbfb77145768c9a3d	-0.09157213348644518
25	0xbfafc4810ab348fd	-0.06204608207339566
26	0x3fa8f5c1dbc4dce2	0.0487499790928554
27	0xbfdffea8a81e5bd4	-0.4999181405814259
28	0x3f84d34ef9cca7bb	0.010168663976930383
29	0xbfbfe0712a5e0631	-0.12451846393926115
30	0x3f76a212f3143d28	0.005525659581749033
31	0xbfb58c4788009288	-0.08417174406401717
32	0x3fc75e72da47857c	0.18256984384701613
33	0x3fd218bfa14d4a9e	0.28276053192272765
34	0xbf9bd24ba18c265d	-0.027169400916170584
35	0x3fc283722867df80	0.14463641140877925
36	0x3fbc8f3a72e96cda	0.11156049066032683
37	0x3f66d0d67f6a306c	0.0027851285370328795
38	0xbfcd61a4429d6012	-0.22954228642152025
39	0x3f9c9a5eb379ab4a	0.027932624534894125
40	0xbfb75831d49d117b	-0.09118949356804322
41	0xbfb782a19116384f	-0.0918370227065861
42	0xbfbf526502aa87a4	-0.1223509913930046
43	0x3fd8598d4c06453b	0.3804658167292307
44	0x3fb4c7d5b25d30b6	0.08117423634138529
45	0x3fc515ef21b3c75f	0.16473187585466584
46	0xbfc0fd0b41d780e8	-0.1327222892277924
47	0x3fca430246eb2e65	0.20516994917703638
48	0x3fd696b5b359b981	0.3529485942334745
49	0x3fcc715120bce98f	0.22220815752536935
50	0xbfbb4910828cdb64	-0.10658362567197127
51	0x3fd2a7c239e39ff8	0.29148917821157694
52	0x3fc5788ac70519fe	0.16774115293283381
53	0x3fd3d54596415146	0.3098920790992178
54	0x3fce4d13deb54ce5	0.2367272221987157
55	0x3fcccb7e862939a4	0.22496015120345902
56	0xbfda2d5c27564fcd	-0.40901855317610797
57	0x3fbe77912ddea8cf	0.11901194925181645
58	0xbfb48d80ea023aa1	-0.08028417313674165
59	0xbfbb7a90b0ab9c23	-0.10733894646874424
60	0xbf94a661a5eff87b	-0.020165944817556607
61	0xbf75e181040325fd	-0.005342010467026534
62	0x3fc4c3d55a61b1ee	0.1622263614002714
63	0x3fa2685b5bb47d1e	0.03595242971845834
64	0x3fcc63721b4f9916	0.22178484281102645
65	0xbfbb5fe0e2edf9cc	-0.10693173923753035
66	0x3fccb5931a34d763	0.2242912176095003
67	0xbfc5302ea5071966	-0.16553290422434513
68	0x3fac98eb436ae660	0.05585417936295012
69	0xbfbcaa02bc40b18d	-0.111969157180914
70	0xbfcebf83d2ceb074	-0.24021957200364208
71	0xbfa806270729e5b1	-0.04692193949172053
72	0x3fa81c1cc7d36789	0.047089480774686505
73	0xbf789b03ad1cb5da	-0.0060072082140271935
74	0x3fc3563f03a79463	0.15106952360580114
75	0xbfc1b5d4728f474a	-0.13836150735601854
76	0xbfc7ba243052cbc8	-0.1853680835680207
77	0xbfbed48c98a12e5d	-0.12043074346836975
78	0xbfa1b3d9e5e9fcb8	-0.03457528049056563
79	0xbfc2cde949ff832f	-0.14690891373813872
80	0xbfbd817c982b05ec	-0.1152570601944018
81	0xbfd73358d3766d1a	-0.3625089707436061
82	0xbf9dbdd5ac13bda6	-0.029044474246743633
83	0xbfc6b1c2540d5e0c	-0.1772997770701611
84	0xbfa044b50cf6d446	-0.031774194557705956
85	0x3fc35ee79d76532f	0.15133376301369014
86	0xbfbfa8d83c17a87a	-0.12367011515712703
87	0xbfb1302e4ff2b889	-0.06714143230303384
88	0x3fcd7b4a4319e404	0.2303250148432029
89	0x3fbb700be4bcd2cd	0.1071784432832132
90	0xbfcc54d5213fe0cd	-0.22133888362419044
91	0x3f93598fa1616d53	0.018896335816277098
92	0x3fbfe45f7003df70	0.12457844242805804
93	0x3fbe23e55842de4f	0.11773522763075416
94	0xbfc22315bc46d789	-0.1416957063026383
95	0x3fbda8f52b419bee	0.11585933977185878
96	0x3fb4c606347e774d	0.0811466100844573
97	0xbfb1618d84e56d00	-0.06789478773628232
98	0xbfd14dc1cd357b42	-0.2703709129327089
99	0x3fdaebdc221d3f69	0.4206457455775224
100	0xbfb80597e865260b	-0.09383534835537703
101	0xbfa4ec877f2eb84c	-0.040867075228888966
102	0x3fc58d5df3be11b7	0.1683766784809799
103	0x3fcca9fbe6587406	0.2239374994977938
104	0x3fb03f894d67a996	0.06346948756951173
105	0xbfb8614d0ebb698b	-0.09523469552678969
106	0xbf9cb9fb92a028a0	-0.028053217720334644
107	0x3fb1796347e91422	0.06825848107935475
108	0xbfbeb27a2f0957d7	-0.11991084717132537
109	0xbfbd64bc8035d4ae	-0.11481836443074897
110	0xbfca69ea89d5b570	-0.20635730486121018
111	0xbfce876011b7b91e	-0.23850632538910416
112	0x3fc956c28cdf87a6	0.19796020392010155
113	0xbfb05bc093ddd921	-0.06390002832435872
114	0x3fc2064373f47615	0.14081614648687038
115	0xbfa1ec2f9f72d5f2	-0.03500508138078463
116	0xbf766f01c143546e	-0.0054769581367582875
117	0x3fa3cfa5ad8fc69f	0.03869359725639509
118	0xbf9723f4f3f269a1	-0.022598101987208023
119	0xbfb508806f71faef	-0.08216097565489709
120	0xbfbe5627436f02f4	-0.11850209614113877
121	0xbf9c92683b5fb326	-0.02790224897755702
122	0x3fa79de48281b518	0.04612650006388658
123	0xbfb120de46301098	-0.06690777982299989
124	0x3fd3f8e9259f4554	0.31206730531728977
125	0xbfca83f835fe02ad	-0.20715239178027414
126	0xbfb30b4a8e28f401	-0.07439104052259894
127	0x3fa98e496c7b83ae	0.04991368722199439
128	0x3fd3875ed83c36c8	0.3051373588249189
129	0xbfc20d1efb50e28b	-0.14102542182242347
130	0xbf8105e33a5773d2	-0.00831201097292392
131	0x3fcb79902d71c303	0.21464731425250969
132	0x3fc38b728334f929	0.15269309431637026
133	0x3fa68a3c8ec67721	0.04402341120588305
134	0x3fb65ca995e93aa1	0.0873514166826035
135	0x3fb09b02fbead1b5	0.0648652901680354
136	0x3f8e593db36a5516	0.014818651235410967
137	0xbfc47b638711b04d	-0.16001552672548983
138	0xbfd3dfff33b43e98	-0.3105466847345979
139	0xbfca7af25a91dac6	-0.2068770353541451
140	0x3fc18731407d5343	0.13693824433235066
141	0xbfc5effea9d4573f	-0.17138655941442413
142	0xbfbb75eedaca1855	-0.10726826516665373
143	0x3fa8323fa3c43473	0.04725836633779403
144	0x3fcdcbb8c57efed1	0.2327795948349292
145	0x3fdbfc97a467fb10	0.4372920136956262
146	0xbfd01345c7c55024	-0.25117630490172105
147	0xbfcd6520df86debc	-0.2296486941756849
148	0x3fd4cc8fe5935345	0.3249854795406473
149	0xbfcbb3aec1e16739	-0.21642097918339134
150	0xbf76a963a4e64071	-0.005532635912814597
151	0x3f53c8973ea691dd	0.0012074925422008644
152	0xbfbc1fd955734b7e	-0.10986097656431856
153	0xbfda92818fc34969	-0.41519202269878136
154	0x3fc831b0a3e80218	0.1890164184878962
155	0x3f92373ce29c0285	0.017788840609684903
156	0xbfbb3945f24c5e88	-0.1063426701115252
157	0xbf851f49b89e0a03	-0.010313583323072533
158	0xbfb454835a1da5c2	-0.07941456747143774
159	0x3fc439c8f8cb7777	0.1580134596651381
160	0x3fc83ddf26f458ca	0.18938817407678804
161	0xbfab8327a29dbe32	-0.053735006905182195
162	0xbfd405f7df61b0d0	-0.3128642732106188
163	0x3fc9880dc76f05f0	0.19946453321431035
164	0x3fc15fa62f3045d8	0.1357314806378287
165	0x3fc4c1e93c033891	0.16216769628812647
166	0x3f74b3a180188ba9	0.005054121838415173
167	0xbfad47e7033cfa4c	-0.05718919672516573
168	0x3fd80e2c8268330e	0.3758651040559905
169	0xbfa8f964ba025059	-0.0487777211248221
170	0x3fd476a55a8ee8fe	0.3197415718419875
171	0xbfcdb9414ef49aa7	-0.2322160373234585
172	0xbfd0045f74096406	-0.25026689845759653
173	0x3f9a9d779f460cf0	0.025991314979830926
174	0x3fb693b34c445244	0.08819122898086912
175	0xbfa29d7fdfb2a74b	-0.036357875878208455
176	0x3fbcd33a04e59ce4	0.11259806270173872
177	0xbfd5333a901857ff	-0.3312517554453506
178	0xbf7d8ab573d0a28d	-0.00721236114353786
179	0xbfd14acad2d89ba9	-0.27018995848123467
180	0x3fba86ed881296ef	0.10362133571706143
181	0x3f946b31657c9fde	0.019940158671630452
182	0xbfc024d6f703096c	-0.12612425862432575
183	0xbf934906234e7cb1	-0.018833251862471815
184	0x3fa643cc7b4f0a23	0.04348601346238847
185	0x3fc8ba5d591ecbcd	0.19318739749505057
186	0xbf994b5611e358c4	-0.024701447336007445
187	0xbfcef92993a1f95c	-0.24197883328083492
188	0x3fb0634c5dd8e921	0.06401517192071939
189	0x3f9dfd54a63cfb23	0.029286692282080595
190	0x3f8af402916f7a66	0.013160724700296455
191	0x3f8e524a7b6fa44b	0.014805395023318143
192	0x3fb62b9b9490d08d	0.0866029012402711
193	0xbfd80be59fd57d2e	-0.375726133430322
194	0x3fbcb0e31550a437	0.11207408209215051
195	0x3fbcbed92dc5de69	0.11228711478713084
196	0xbfa53bb499070482	-0.041471141510109014
197	0xbfa191c8380be247	-0.03431535419617098
198	0xbfc19898f1b35f44	-0.13746940423765797
199	0x3f6fe6f6c0f42c2d	0.003894311848517093
200	0x3fc0191946fbcfc7	0.12576595273969657
201	0x3fc1fff958dd614d	0.14062420691585445
202	0xbfaa2c2572583935	-0.05111805935676942
203	0xbfb9f5514f64403b	-0.10139949978133782
204	0x3fc034dd58067497	0.12661330030542636
205	0xbfac7ef09690f6bb	-0.05565597379653072
206	0xbfcb08cd60673c27	-0.2112061234206248
207	0xbfb03dbef4416678	-0.06344216788547807
208	0xbfb3a7181fefbcec	-0.07676840572070248
209	0xbfade896b15ad023	-0.058415135526417104
210	0xbfcea913885facc1	-0.23953479918359302
211	0xbf9af60589a82868	-0.02632912304583393
212	0x3fcb6f80bb8b16ad	0.21434029729259887
213	0x3fb0ee56c1e4391a	0.06613676294020757
214	0xbfb34212b2da60a7	-0.07522694460419875
215	0xbfc231343d947a8a	-0.1421265888866013
216	0xbfc720ce8d94e534	-0.180688685542728
217	0xbfd136c0f95f47bd	-0.26896690705063603
218	0xbfac77532fad5a68	-0.05559787709232894
219	0x3faf53b28fc12f82	0.06118543629472041
220	0x3fba9021120de408	0.10376173678186273
221	0xbfba20bdf5f63eeb	-0.10206210379532947
222	0xbfa0df29ae669f34	-0.032952597178619675
223	0xbfaffba2986417cb	-0.062466698744216474
224	0x3fc12da6f2914656	0.1342056927119752
225	0xbfbf52e7acfc3713	-0.12235877965232715
226	0xbf9a6e236affe1b4	-0.025810769468053343
227	0xbfcbe40c4140b1c3	-0.21789696870963668
228	0xbf7462ea80050e74	-0.004977146163870228
229	0xbfcc99859c9a80e5	-0.2234351172128363
230	0xbfc297cbe37bec72	-0.14525745971318177
231	0x3fa7dba7f3e27351	0.04659771778208344
232	0x3f8c70fe3ed980f2	0.013887392323511414
233	0x3fb5b1609a83d715	0.08473781368578799
234	0x3fc33a6862208671	0.15021996299133236
235	0xbfcf862b8d624a1b	-0.2462820473052297
236	0xbfc513a168d014ac	-0.16466157548726323
237	0x3fdf12c593ef49eb	0.48552073904752885
238	0xbfbffa4738417d25	-0.12491269229348186
239	0x3fad4bd80fb7cf6c	0.05721926872129654
240	0x3fbde6ff4a74c00a	0.116805988004444
241	0xbfd2dddae786302d	-0.29479096040518266
242	0xbfc6677164c935b2	-0.17503182812872137
243	0xbfc9997c233a96ce	-0.19999648780974727
244	0x3fadfce8ff44bbd4	0.05857017627783248
245	0x3fa414d0b2fea4d3	0.03922130761140754
246	0xbf7bfebc304a800b	-0.0068347312086700735
247	0x3f80515e74721dce	0.007967698982851792
248	0x3fc069e1cf89b634	0.12823126443565658
249	0x3fd23b60c9481ea7	0.2848741498605513
250	0xbfe0072011da9400	-0.5008697842318952
251	0x3fc2689f7b7b730e	0.14381783990293012
252	0x3f957ec8594c3712	0.020991449785518652
253	0x3faeb427aa392825	0.05996822312279474
254	0x3fb706f79690ee72	0.08995006013804543
255	0xbfa9f12be70ef1c5	-0.050668117480629195

base.actor.actor_fc2.bias f8 [64]
0	0xbfca40ffbe8f4388	-0.20510861210507536
1	0xbfc745b8c39528bb	-0.1818152384751722
2	0x3fd4ae1b044eb371	0.3231265585007384
3	0x3fae3a671162d55a	0.05903932654602313
4	0xbfd16feb43ddc68f	-0.27245599391526637
5	0x3fd036de9dd78799	0.25334897436379716
6	0x3fcb80c7e4f4ea98	0.21486757926489441
7	0xbf97b57f1013da9b	-0.02315329108838658
8	0xbfc8b3bef8087287	-0.19298541174875458
9	0xbf8a8baf471934fa	-0.012961739880803059
10	0xbfc2172eefd0ea77	-0.14133249959725777
11	0x3fc27391de9e5a66	0.1441519104962083
12	0xbfc75485fde350ab	-0.18226694962379972
13	0x3fc8ddf4bbfeb72f	0.19427355937426102
14	0xbfc8c221e3b91a7b	-0.1934244501046186
15	0x3fc96dd250391e99	0.19866398732323345
16	0xbf7185ce2665d96c	-0.004277997277645756
17	0xbfc2bba64bae8728	-0.14635161109350148
18	0x3fc4ef71a4ea00d2	0.1635572486156947
19	0x3fb61d50e6a69ae1	0.08638482695696893
20	0x3fc3d6c7b8ef9383	0.15499207048483407
21	0xbfbcd217de47bfe7	-0.11258076836361362
22	0x3fb4cec69ef34b4e	0.08128014927505697
23	0xbfb43965e7f7d7f7	-0.07900082505497595
24	0xbfc79537721e4043	-0.18424122879196334
25	0x3fd10e79bf51c519	0.26650851901566025
26	0x3fc61c15b7f0f7fe	0.1727320812369157
27	0xbfa1e677af6ce943	-0.034961452640760025
28	0x3fa3480f61e35426	0.03765914983674916
29	0xbfc88c7f18775637	-0.19178761191021618
30	0xbfdae4caacc7cabc	-0.42021433709230016
31	0x3fb3e069d63b70a0	0.07764302711751947
32	0xbfd32db8629e4d58	-0.29966554289531677
33	0xbf9cabfb70aa7028	-0.027999809981892693
34	0x3fc473e41c164591	0.1597867142814207
35	0x3fa37a82f8e9307e	0.038044064411764986
36	0x3fd479f330ec9bde	0.31994323518523327
37	0xbfc2ede43033484c	-0.14788486817866653
38	0x3fb23ea00a38aad3	0.07126808404488409
39	0xbfba4d9c4987af03	-0.102746742202438
40	0x3fcbe4eb6d02d637	0.21792357275778482
41	0xbf87cb7dfdf5b05b	-0.011618599236236251
42	0x3fd23d637dc3b778	0.284996865097916
43	0x3fbe78836eb4f861	0.11902638867192784
44	0x3fa5bd1568f29459	0.04245821863268224
45	0xbfbb04790c58bfb2	-0.10553700019295212
46	0x3fbef17e467a98ac	0.12087239475895001
47	0x3fa9c789c53e3779	0.05035048039199714
48	0x3fa34da8a6404d03	0.03770186452325144
49	0xbfcf2d591540ea4d	-0.24357141053936218
50	0x3fbb758e2fa76bce	0.10726250327517947
51	0x3f9222740d7ce891	0.017709554026830224
52	0x3f92d90c1260bb2a	0.018406094190306956
53	0x3fa4c79b54ed1598	0.04058537875838936
54	0x3fc3917456620d46	0.15287641733093887
55	0x3fbc3efd2bde4a08	0.11033613511089169
56	0xbfc2d8fcac9bbcbd	-0.14724691799299264
57	0x3fc2b3cebb2abe34	0.14611229075443222
58	0x3f9bc2debf88ced5	0.027110557976086042
59	0xbfb0253b37836f73	-0.0630681047945794
60	0x3f807db8693d070a	0.008052292548771618
61	0xbfb5a62ddef754ec	-0.08456694310673968
62	0xbfd312286fc9d543	-0.2979832736667342
63	0x3fcc96b1b708855c	0.22334882199451556

base.actor.actor_fc3.weight f8 [3, 64]
0	0x3fa0616000b4ca31	0.031992912374694156
1	0xbfa402dc67c60192	-0.039084327380808706
2	0x3fb3c87e650c48fc	0.07727804152480994
3	0x3fc2331118ae2492	0.14218343453493226
4	0x3f9185ec1d266fe6	0.017112435607131625
5	0xbfaad154028ee7c2	-0.05237829714992827
6	0x3fb3a91cc3a7de49	0.07679919983626705
7	0x3fba37b301823563	0.10241240298110692
8	0xbfa959068ec01639	-0.04950733654554224
9	0xbf35029cfd9860ae	-0.0003205903318259745
10	0xbf74201d442f378e	-0.004913439103757867
11	0x3fc1e69096c1728d	0.1398487793075173
12	0xbf9c6fc2c819014c	-0.027770083868973658
13	0x3fc7a0e59b96fa30	0.18459768387943276
14	0x3f92ea3948a63bc6	0.018471617755093005
15	0x3fb8b5c157cc6fa2	0.09652336495895367
16	0x3fa5d37d2b3732df	0.04262915756735252
17	0xbfc06334717e494b	-0.12802749196687055
18	0x3f6aaa700007bdf4	0.003255099058371286
19	0x3f608455c1eb0aa0	0.002016227240660598
20	0x3f96ea3102316e89	0.022377744444709555
21	0xbfaa7f47042d64f7	-0.051752299556662544
22	0x3fbd51da061b3bf6	0.11453020714837678
23	0x3faccd57bd3083cd	0.0562541407055118
24	0x3fa1b968493d5e3d	0.03461767095603505
25	0x3f73bcab354b0918	0.004818600446642195
26	0x3f991accf82600db	0.02451629890993066
27	0xbfb9a6a040f01cf4	-0.10019876084708185
28	0x3f7cd121b4ccb1ef	0.007035380997689063
29	0xbfc1c2805c1ba431	-0.1387482118364303
30	0xbfb0ea5a37122285	-0.06607593388083373
31	0xbfb061a226897559	-0.06398976746409825
32	0x3fa030d66d2f7398	0.03162260134533951
33	0x3f72b93932296606	0.004571174070031164
34	0x3fb8ea2f73c71fe1	0.09732338501555617
35	0x3f5cb5312b86176f	0.001752183930962183
36	0x3fcd10b78707f4d1	0.22707265942873403
37	0x3f4b6e8a3103f290	0.0008371519816417639
38	0xbfa3050a913badfa	-0.03714783690324093
39	0xbfbbd1b2492ea96d	-0.10866846357990818
40	0x3fade929a8f7c956	0.05841951549145345
41	0xbfbd433f977e25b7	-0.11430737923196586
42	0x3fabf03918946453	0.05456713128132464
43	0x3fb968b6e0f4e2e4	0.09925406448463608
44	0xbfc3a3a0cc688478	-0.15343103390572188
45	0xbfb55e701e456d4a	-0.08347225894015256
46	0xbfc1bf5e7c8e1bc2	-0.13865262109558613
47	0xbfab980bfb0bf339	-0.053894400019976314
48	0x3fc1532da4859cc5	0.1353509000138954
49	0xbfc87852e916434c	-0.19117199307631905
50	0x3fb70753499bd0bc	0.0899555258473041
51	0xbfad2ee8f57bc23e	-0.05699851986526426
52	0x3fa659d18784c4e7	0.043654010575105144
53	0x3fc40091ac178c1f	0.15626736548355866
54	0x3fb2f6526806148a	0.07407107391016346
55	0x3fc9db7dcf7d8a35	0.20201084739081102
56	0xbfb0c57c6549c46d	-0.06551339600425062
57	0x3fb3ff70df9d5f33	0.07811646899551476
58	0x3fa3074273d0a9ea	0.037164761197647625
59	0x3fbb2505347bd3f4	0.1060336354383507
60	0xbfbd87f667ebea3b	-0.11535587346217195
61	0x3fa91912b91ceb3e	0.049019417855069566
62	0xbf9f0b4fb03a921d	-0.030316586619521958
63	0x3fb88fd4501aac20	0.09594466167133975
64	0x3fb21a2d72469f95	0.07071193733156485
65	0xbfc5b6b6dfc34d3c	-0.16963849950716703
66	0x3fbbe841fb3a40d1	0.10901272185788292
67	0x3fb481ffbfc62266	0.08010862762433532
68	0xbfd07ec0be4f092b	-0.2577363832935073
69	0xbfb3067d93fb6c58	-0.07431778776974463
70	0x3fd11f36a07e65bc	0.2675301139184645
71	0x3fad1d28048985c8	0.056863070062501075
72	0xbfcfe86d4efb5603	-0.24928060871631894
73	0xbfc2888f6c44f817	-0.14479248797027885
74	0xbfc3707d4c64264a	-0.15187040548362268
75	0x3fc242e54c96ec7a	0.14266649474834364
76	0xbfd00d4e71e8afda	-0.25081215976638094
77	0x3fa921943f35ce09	0.049084313121877506
78	0x3fcc9592b3030866	0.22331460705578648
79	0x3fbdcda51f57595d	0.11641914382139391
80	0x3fcdf3613defaa10	0.23398986362674679
81	0x3fa336fffc7e34b9	0.03752899129094928
82	0x3fc3cb20de855461	0.15463648667597155
83	0x3fb8edafe92ebd77	0.09737681811269804
84	0x3fb7fac4c419194b	0.09367017543363436
85	0xbf945d724c9b5eda	-0.019887720037188618
86	0x3f6dbbb90a07a69b	0.003629552273413617
87	0xbfce758f42f731c1	-0.23796263475231963
88	0x3fc6243681b9ffea	0.17298013052277322
89	0xbfab9d7302c45359	-0.053935617530590015
90	0xbfcd36e2f46b645d	-0.22823750433488757
91	0xbf996677dbd0a690	-0.02480494765419522
92	0x3fa8e6fe62d37296	0.04863734203693075
93	0xbf728edeb8aaac42	-0.004530782704629978
94	0xbfc342f4853bc693	-0.15048080926458293
95	0xbfd1854f5aee3088	-0.27376159553455937
96	0x3fcfdedcb3867840	0.2489887119854206
97	0x3fa54c4a8a62e773	0.04159768046652248
98	0x3fbf8eaba659dee5	0.12327072917275535
99	0xbfce8f9250e9e35b	-0.2387564559064924
100	0xbfc80a2f9dbad4c4	-0.1878108520665248
101	0x3fd460d3aa3a875d	0.3184098398579545
102	0xbfbf2966ffc8b59a	-0.12172549957968784
103	0x3fa9d62ca9062e56	0.05046214640887274
104	0xbfc2026461d4e12d	-0.14069800164157567
105	0xbfa4dd446e62c5e3	-0.04075063559993077
106	0xbfc293cdd4361ad3	-0.14513562070734184
107	0xbfa4671de0d2111d	-0.039849218076627425
108	0xbfc8bb6384f3bc7c	-0.19321865073968414
109	0xbfb8da1ffd185e13	-0.09707832268792797
110	0x3f72ca58ead95541	0.004587504704962443
111	0xbfb3f421b52ed781	-0.07794390366947647
112	0xbfb57700fd85f5e2	-0.08384710492642669
113	0x3f7a98fdf07834fb	0.00649356074383189
114	0xbfa6acf63487fd51	-0.04428834334611998
115	0x3f93041d8dc5636e	0.018570386674898236
116	0x3fc29773b334a5b5	0.14524694681430864
117	0xbfaf5382d5510540	-0.06118401388131156
118	0xbfcd45be18990843	-0.22869087410987463
119	0x3fbeaf62c21bb286	0.11986367453546096
120	0x3fc71b86f19adfcf	0.18052756116025967
121	0x3fa34f1fde8f6ab3	0.03771304694938262
122	0x3fbdfbe356eeb868	0.11712475654960175
123	0xbfb43b7d041b1598	-0.07903272009124007
124	0xbfb45811fa7b2c29	-0.07946884503614683
125	0xbfc17b937d2edeb7	-0.13658374416785588
126	0x3fcc90b9e0a9dd32	0.22316668958567615
127	0xbfc7a20ac5838c41	-0.18463263172370328
128	0x3fc1b24b2f11b12a	0.13825359152122846
129	0x3f8ac9804333613f	0.013079645205309574
130	0xbfc34ca434daa39c	-0.15077641087307547
131	0xbfc04d084bf8c985	-0.1273508425670792
132	0xbfc764a30a4b6815	-0.1827586937204734
133	0xbfd016ce52be3254	-0.2513919647251772
134	0x3fb28f90e53ba32e	0.07250314327724247
135	0xbfd0e9a961b6a6df	-0.2642615751488914
136	0xbf7aa7547ed9410c	-0.0065072346311156985
137	0x3fa9d3e9efb4571f	0.05044489909248128
138	0x3fc3753690f2d6af	0.15201456143920697
139	0xbf8e19a2874138fb	-0.014697332146309075
140	0xbfb1a39d8a31c570	-0.06890282272231274
141	0xbf712b7d2ebc0f24	-0.004191864961970802
142	0x3fd0284187f7b994	0.25245703008740716
143	0x3fcd9c837dac38ca	0.23133891712536175
144	0x3fcaf2249a702d95	0.21051461735656277
145	0xbf78b25b8b6da981	-0.006029470058687259
146	0xbfb9d39f2a4d14d6	-0.10088534147969894
147	0x3fc02c86a6ae4794	0.12635882509908625
148	0xbfa0ed9e12a0f6fe	-0.03306287743951762
149	0x3f953699e70de70b	0.020716099479137145
150	0x3fb58f23c7192b04	0.08421538935469292
151	0xbfaba94358565bf3	-0.05402574971520115
152	0xbfbfa984cb457a60	-0.12368040049248341
153	0xbfce867b612a70e9	-0.23847906345770944
154	0xbfb0ffd5817c3893	-0.06640371714840602
155	0xbfb508796eb61036	-0.08216055825147425
156	0xbfb32521b2bba55d	-0.07478533376310766
157	0x3fc2bc31d2ddb10d	0.146368244134813
158	0x3fd394784c2d599a	0.3059368842999902
159	0xbfc559426009e1d7	-0.16678647698769453
160	0x3fc2086bcd52f0ef	0.1408819916304149
161	0xbf983706dd60e75e	-0.023647410642502968
162	0x3f5404511acbbee2	0.0012217323339277987
163	0xbfd8ebcc7f69ade4	-0.3893920177713126
164	0xbfb1aa2cece85149	-0.06900292190431857
165	0xbfa9be219db3dafe	-0.050278711796570605
166	0x3f9bb0e4e8e48100	0.027041985239635302
167	0x3fc0ebb1aaf4aef0	0.13219281051112075
168	0xbfc348988b8355fa	-0.15065295040282917
169	0xbfa025521ff855b1	-0.03153473510989658
170	0xbfb2624ac2afcb92	-0.07181231740086805
171	0xbfb2d93bc5044510	-0.07362721977212439
172	0xbf9320766ccc792c	-0.018678522482440105
173	0xbfb152213aa3f4b0	-0.06765945130969686
174	0x3fbc4325915e77d8	0.11039957808540579
175	0x3f85565be51282a3	0.010418622902137747
176	0x3f9f60df65c96c28	0.03064297732121815
177	0xbf9a24a486dbeba9	-0.025530405741828997
178	0x3f80af9791c1cf9c	0.008147415290501496
179	0xbfc96af61c76ec2f	-0.19857670202131447
180	0xbfa5d47f986e70d9	-0.04263685928091982
181	0x3fc8fd36b2133cb6	0.19522746748996206
182	0xbfa505c74e5329e8	-0.041059711753024974
183	0xbf93ab8eead41b13	-0.01920913036613132
184	0x3fb5e155f863b40d	0.08546960176654768
185	0xbfb858d67c3b863b	-0.09510555775661882
186	0xbfc2c460b677c22f	-0.14661797437249066
187	0x3fbc1fbc523e068f	0.10985924728268003
188	0xbfb721f0b93c4584	-0.09036163828229432
189	0x3fc41e62f8c1c313	0.15717732569057627
190	0x3fc54e71de1fb564	0.16645644517795255
191	0xbfb62faa7ec78357	-0.08666482539366648

base.actor.actor_fc3.bias f8 [3]
0	0x3fc260e159a80a1f	0.14358155133966563
1	0x3fa35a7808489a94	0.03779959775083799
2	0xbfacb0cb0cdd0e34	-0.05603632480645296

base.critic.critic_fc1.weight f8 [64, 11]
0	0xbfccd8a0112f25a6	-0.22536087836333002
1	0xbfb872650929bb88	-0.09549552415567863
2	0xbfb2d4e3883a3698	-0.0735609252535262
3	0x3fb9035f77e944dc	0.09770771672744466
4	0xbfc7eac769c83128	-0.18685238518845293
5	0xbfd12940c5435b67	-0.2681428839109032
6	0xbf815566ff633b17	-0.008463673275767953
7	0x3fb67e31bc614871	0.08786307191010835
8	0xbfa5ca8d6e6aa5c9	-0.04256097767695228
9	0x3fa0ba8d9ce1854b	0.0326732877736143
10	0x3fd60fff16483f82	0.3447263448333545
11	0x3fb89205da3cd4e0	0.09597813203875516
12	0xbfb99a59458ca115	-0.10001142452222596
13	0x3fbac271a81560a2	0.10452947953797545
14	0x3fb147ca1364ab83	0.06750166867702316
15	0x3fd2fa4e93baf658	0.2965275232962532
16	0x3fb0498b06e4b0cf	0.06362217825216308
17	0x3fb4714057c25549	0.07985307829433909
18	0xbfc3e804e9e7b1d0	-0.15551816388268813
19	0x3fbbca6652fc7b8a	0.10855712438613643
20	0x3fb1e8d68e30138c	0.06995907756215852
21	0x3fabceae1e867acc	0.05431121943114689
22	0x3f9e28289099d0af	0.029450067353949446
23	0x3fb8ffb9b1e473f6	0.09765205948902164
24	0x3fa0f2531eb2804f	0.033098790642953284
25	0x3fdf55725be92df7	0.48959025359792413
26	0x3fd21e17ed5bcd6f	0.283086759372245
27	0xbfbf96417ab00e51	-0.12338647122674586
28	0x3f960ba0bcd91f76	0.021528731848121173
29	0x3fb2bc09ff6f218a	0.07318174825844018
30	0xbf84dc51b80ea2aa	-0.010185850553015758
31	0x3fc88173cf13ba3f	0.19145057307419397
32	0x3fd23d8ed9836483	0.2850072025444847
33	0xbffa65f861795d15	-1.6498950774747005
34	0x3fbbbf5112651806	0.1083880109700602
35	0xbfc186fc3f04b57f	-0.13693192555494346
36	0xbfa9c3ee093ed638	-0.05032295096263478
37	0x3fc0a7f8cef83a41	0.13012609582843207
38	0xbfb2afb4416c03d4	-0.07299353215422794
39	0xbfc3f49509b3232b	-0.15590155576344364
40	0x3fb29743ae15c0c1	0.07262061119195364
41	0xbf99eb3ea06a2bee	-0.025311449566782267
42	0x3fb09d13e5660c7a	0.06489681578209341
43	0x3fba4261eb98896c	0.10257541658260089
44	0xbfb394c9ffea94d8	-0.07648909090001454
45	0xbfa80be5da017527	-0.04696577345087354
46	0xbfa6bc45632e9600	-0.044405144078421444
47	0xbfcd008927cfb380	-0.2265788502112649
48	0x3fb2b379cc5062e8	0.07305108297476759
49	0xbfcf5a9a3aa5993f	-0.24495246757141761
50	0xbfc07bc94a6492c8	-0.12877765781845185
51	0xbf94d50af50161d3	-0.020343943790381246
52	0x3fa5399505a328c7	0.04145494169058988
53	0x3fb30aad8daf2ac3	0.07438168248260539
54	0x3fb65414dda13e89	0.08722048197636857
55	0xbfa8a64f83993274	-0.048143849195729255
56	0xbfb7bae4d74f11fb	-0.09269552475513614
57	0xbfac35c91b6acead	-0.055097851368740215
58	0x3fccd7bc83d9e823	0.22533375204130932
59	0x3fd530a9719481ce	0.3310950860195846
60	0xbfb2bbcda80560ae	-0.07317815162730554
61	0x3fad289f0590b9fd	0.05695053999840025
62	0x3fad7850c2d06f6e	0.05755855920889884
63	0xbfa28c734e4c82a9	-0.036227801616637585
64	0xbf9e726d3616f095	-0.02973337786328097
65	0xbf9d58627aa9d334	-0.028657473313120366
66	0xbfad0dca438a846e	-0.056745835060845504
67	0xbfc4cc79b9d233e6	-0.16249009679123033
68	0x3fb74afd9ff63e43	0.09098801760978241
69	0xbfb2b58e1ead66ff	-0.07308281182249841
70	0xbfd3f18a1c0deb7e	-0.3116174005478384
71	0x3fd069d17592e131	0.2564586303883685
72	0x3f8e0a61aa50dae4	0.014668238649489358
73	0x3fd771e6fbae0981	0.36632704332455296
74	0xbfd00ec22fb3743f	-0.2509007898168569
75	0xbfdabb89e8e5287d	-0.41769645446459674
76	0xbfc0123270f4806f	-0.1255553294695377
77	0x3f9983ba445f669e	0.024916563437591514
78	0x3fad368438887e6c	0.05705655279257091
79	0xbfac5cf303ba1e3d	-0.0553966466950979
80	0xbfc0f20f21c2a43e	-0.1323870577664667
81	0xbfbead675cc60498	-0.11983343138673985
82	0xbfd2a5199620a984	-0.291326901062938
83	0xbfd4d0a57e56b5aa	-0.32523476922764394
84	0xbfa35f0a98ed481f	-0.03783448330672478
85	0x3fa4c33f2db598a9	0.040552114801174106
86	0x3fc129f3f1c89005	0.13409280114967728
87	0x3fc46ffb65ad0cdb	0.15966742005011877
88	0x3fd94b8aaca5af40	0.3952356992729058
89	0xbfafc69b89b7c721	-0.06206213050962917
90	0xbfa13a7a8f925449	-0.033649282480077654
91	0x3fa0a299b2f347e9	0.03249054250194645
92	0x3fe38f23b20089e5	0.6112230755427929
93	0xbfb73887fb367db0	-0.09070634730459548
94	0xbfba5b47240abbf5	-0.10295529012613243
95	0x3fc32adbf805850d	0.1497454606097012
96	0xbfba1f9fb6447e03	-0.10204504203692726
97	0xbfcd51eacf86c5d5	-0.22906241543891662
98	0xbfe8dcda3a72a7db	-0.7769595281181368
99	0x3fb820475966c506	0.09424253399517477
100	0x3fc9512917457166	0.1977893222455222
101	0xbfa6a5f1b54af62c	-0.04423480356261353
102	0xbf5b2e1b4b54de0f	-0.0016589418931526355
103	0x3fcac6a5f3cb6bd8	0.20918726352723982
104	0x3fd044e1df3a5e1f	0.2542042427025723
105	0xbfcbb9f4d85d3505	-0.2166124397721562
106	0x3fd09939c08058e6	0.2593521480461177
107	0xbfc8fa8988a3d60a	-0.19514578983186964
108	0xbfd6c97e229a4eca	-0.35604813937355273
109	0x3fb0599111e78007	0.063866679068724
110	0x3fb131df601eda69	0.06716724487964999
111	0xbfc9f6569a250426	-0.2028301479968217
112	0x3fac6f7dc1320806	0.055538110574175945
113	0x3fccfcd4d3919541	0.22646580057623036
114	0x3fe0eb4738baf81f	0.5287204845442409
115	0x3fd18f55bea3e865	0.2743734704705559
116	0x3fd7348ede3b4139	0.3625828905324116
117	0xbfc613f6b75dcbb1	-0.1724842448562334
118	0x3fbeb5eb14825c3f	0.11996335268700963
119	0x3fbd6f376afc4ea6	0.11497827875092045
120	0x3fd89180e04680f6	0.3838808241071229
121	0xbfcd6f1dae1a2173	-0.22995348931386736
122	0x3f72fb4372410605	0.0046341547604824606
123	0xbfa9bdfccc2d1e99	-0.050277614520891585
124	0xbf926328ed900682	-0.017956389903707855
125	0x3fcd4a4f403b5530	0.22883024822537257
126	0xbfcedd023b0b4587	-0.24111965067872296
127	0xbfd6d8eb8b314280	-0.3569897517491327
128	0x3fa6fc2a93c7756a	0.044892626323170884
129	0xbf9b569e7250ead6	-0.026697612502384192
130	0xbf8db952ec0549f5	-0.014513633563784526
131	0xbfd2bdfbbaed17f1	-0.2928456616831446
132	0xbfe282f296a00249	-0.5784848157782757
133	0x3fb12c1db733a4fc	0.06707940790842665
134	0x3fad0e3a7de9ed4d	0.05674917971642888
135	0xbfce0e622307b27e	-0.23481394491627222
136	0xbfda407216f30602	-0.41018345109122845
137	0x3fc39a534638cd2f	0.15314713410189415
138	0xbfce3cf4b23554d3	-0.23623522473886868
139	0x3fc3385fb7410cd1	0.15015789459184828
140	0xbfbd77ad46c78f31	-0.11510737398162686
141	0xbfc4ab22d8c783b2	-0.16147265992097243
142	0x3fc02f654f5010ff	0.12644640324300124
143	0xbfb544be41ad4e73	-0.08308018783037045
144	0xbfba03b3c495e960	-0.10161899136975228
145	0x3fb8cd1c8028a01e	0.09687975052713724
146	0x3fc7d6bdb731c9d1	0.18624087758105515
147	0xbfb6a5dd4c048771	-0.08846839052105594
148	0xbfaa0b2ef89908b1	-0.05086657318726518
149	0xbf8397688641b82b	-0.00956613216132148
150	0x3f9540b5b796429b	0.020754660921343242
151	0xbf64cbeeac9420ce	-0.002538648758335516
152	0xbfc2c5d1459cce61	-0.1466619100479987
153	0xbf93a30f6a137232	-0.019176712846148365
154	0x3fbd3180825170cb	0.11403659040064722
155	0x3fc82d6117e3abdd	0.1888848654410528
156	0xbfbd3a201200f327	-0.11416817130607325
157	0xbfd6ca131f35a6a9	-0.356083660581684
158	0xbfccc7fa66eeae16	-0.22485284830087043
159	0x3fc062ad3b46d950	0.1280113734662316
160	0x3fee6e68d221bc6f	0.9509777168403967
161	0x3fa37cfbec0b2515	0.038062927783878354
162	0xbfa1f95f593f3d32	-0.03510568584862951
163	0xbfb9ea276ae6dab0	-0.10122915611178018
164	0xbfb7ded5b304835e	-0.09324393864200206
165	0x3fd134882d71d889	0.2688312953754424
166	0xbf96c670a2594546	-0.022241363438586313
167	0x3fa8c952dcb323aa	0.04841097778405097
168	0x3f96094660483cfd	0.021519755961034715
169	0x3f84a153a92eb9fd	0.010073331451931894
170	0x3fa9cc81ef2862d6	0.05038839382559039
171	0xbfa65f2ac5867363	-0.043694817172968546
172	0xbfcf17f6cc28e2a6	-0.2429188248513771
173	0x3fc27b26a14e68fb	0.1443832671764723
174	0x3fc97397b3513cc8	0.19884010558823761
175	0x3fb890ad91b40d13	0.09595761115274497
176	0x3fc3be17322afb99	0.1542386050186593
177	0xbfcdad9f65b20ea6	-0.2318610426483378
178	0x3f8e987d68443367	0.014939288849314015
179	0x3fb1eab314122ba2	0.06998748054517859
180	0x3fc548a58caeaaec	0.16627950066807473
181	0xbfdb1e7d19f4c37e	-0.423735881183397
182	0x3fd5398b86995a90	0.33163726944386784
183	0xbfb41cf6e2686ce8	-0.07856696155106457
184	0x3fb67b42ed1dda2c	0.08781832016925567
185	0x3fc7b7c839458d68	0.18529608532399355
186	0x3fd4062009e050f8	0.3128738495299923
187	0xbfced92016f5b22b	-0.2410011398418573
188	0x3fc11f5f602383c6	0.13376991457246684
189	0x3fac2a18dc7359d7	0.05500867548987614
190	0xbfca4d57ec4648bb	-0.20548533474772576
191	0xbfca84eb57127b90	-0.2071813750416962
192	0xbfcc1cc5365a947f	-0.2196280017280152
193	0xbfd4740a12112236	-0.31958247913692917
194	0x3fc8dc8b9d4297d4	0.19423051050870177
195	0xbfaad3d13f372a0f	-0.05239728829072387
196	0xbfbc569164f74b3a	-0.11069592204084425
197	0xbfb8de16eeeaf918	-0.09713881810145997
198	0x3fb1899ce487d4ed	0.06850605563507246
199	0xbfca5995b79a80c1	-0.20585891213432286
200	0x3fc1df3ed5601fe7	0.139625410258531
201	0x3fd0a90e6e1d2295	0.26031838181783346
202	0xbfc59872706a3b3f	-0.1687148140813068
203	0x3f92655fe0a111d5	0.017964838109280585
204	0x3f97e7625517e0a5	0.02334359783523667
205	0xbfc1a9603f856ecb	-0.1379814443742958
206	0x3fb893df4a4c0084	0.09600635112656347
207	0x3fad943b5377846d	0.057771543444467756
208	0x3fd1a61bf8112410	0.27576350426949237
209	0x3fd095d9f227880d	0.25914620063679267
210	0x3fd4791220e6b679	0.31988957608232443
211	0xbfa0d16a03ed83a4	-0.032847702960459274
212	0xbfcce22be1ebae34	-0.22565220385819063
213	0x3fae1da398c411ef	0.0588198780042467
214	0xbfc3ea58d4567229	-0.15558920257616762
215	0x3f905b26ba85a905	0.01597271455231299
216	0x3fc3388ef676a42e	0.1501635268626002
217	0xbfb47a4e6128416e	-0.07999124404910216
218	0xbfcb096aca26ce45	-0.21122488852198465
219	0xbfbceafd0308a2d7	-0.11296063732209959
220	0xbf7f4a661af02395	-0.007639311646024623
221	0x3fc62026f8f74b8a	0.1728562083868293
222	0xbfc06549711e755e	-0.1280910303438913
223	0xbfd80325333907c1	-0.37519197466110304
224	0x3fdfd87d5e3c2e2e	0.4975884838356447
225	0x3fd17f4c48097ac4	0.2733946517454735
226	0xbfa20000c1ec8f6b	-0.03515627257573225
227	0x3fcc39b90cc9ff7c	0.22051156162705954
228	0xbfc5c3436fb10e99	-0.17002146676724264
229	0xbfd8fd0ed01ceb8e	-0.3904454262116638
230	0x3fd213285ad7125d	0.2824192893133722
231	0x3fd6b5d63b1e64ff	0.35484843991578424
232	0x3fb97cc82e993ac0	0.0995602716222761
233	0x3f8c0dd5ebc7e595	0.0136982643680195
234	0xbf970631455e2e24	-0.022484559878234958
235	0x3fc076f76d3f9e45	0.12863056978607026
236	0xbfb31598476e7295	-0.07454826110774555
237	0x3fc4a2453358b5bf	0.1612020970073171
238	0x3fc4b2f9f87e5da0	0.1617119277332053
239	0xbfb574d52ba0bba2	-0.0838139754784906
240	0xbfcc1a82258a4b20	-0.21955897171991356
241	0x3fb2733040aefdde	0.07207013682545191
242	0xbf9204a57cded873	-0.01759584974907864
243	0xbfc1d43b98a97629	-0.13928933099934795
244	0x3fc4265d7655534a	0.15742080953591603
245	0x3fc147398facb266	0.13498610988007725
246	0x3fe2c756bbb71a86	0.5868333498300025
247	0xbf9e8d79d76d2a6c	-0.029836562894426086
248	0x3faef53f9335e6c7	0.060464846344030536
249	0x3fad75af578616de	0.05753848975568386
250	0xbfa7d897a002b828	-0.046574342997118656
251	0xbfadb76258f29a96	-0.058039735181684524
252	0xbf86881e953d4ed4	-0.01100181477492105
253	0x3fd2bbf630ca0384	0.29272227062761424
254	0xbfcf94c2671f726a	-0.24672727618498708
255	0xbfa19b3dc5b8c02b	-0.03438752211184267

base.critic.critic_fc1.bias f8 [64]
0	0xbfcf35d6007f0481	-0.24383044265963252
1	0x3fd3a544226352c8	0.30696204527093274
2	0xbfdd510b952dd149	-0.4580716091943669
3	0xbfd9711e578aa5ca	-0.3975292067430841
4	0xbfd5d7ed652eeb95	-0.34130415803127195
5	0xbfcd389f1cd82f52	-0.22829045208379256
6	0x3fd00be664cf76a8	0.25072631687894864
7	0x3fdb7d8654630ec3	0.42953642121231556
8	0x3fe34216df7e9bd2	0.6018175473335481
9	0x3fd7108fbcaf0370	0.3603858320821507
10	0xbfdf14671e591d6e	-0.48562028850252303
11	0xbfdb58f23709c4f8	-0.4273038423044251
12	0xbfe207c995b76e65	-0.5634506153250639
13	0xbfd2852e38891246	-0.28937869568861563
14	0xbfd9b8fd8144eeab	-0.40191590904189906
15	0x3fcbbed68a9e93b2	0.21676141518142128
16	0xbfdd06b1aaee9fcc	-0.45353357021894847
17	0x3fe8bba6c10ddfe5	0.7729066629972264
18	0x3fc7474b88caf6bf	0.18186325244271548
19	0xbfc14d9f660f86e2	-0.13518135531835812
20	0x3fd950171e0c4e98	0.3955133241117692
21	0xbfc6b290b400c08f	-0.17732437886434524
22	0xbfb8e05098ac9ddf	-0.09717277266883383
23	0x3fc1dd38e3fe9e2e	0.1395636666540993
24	0x3fd2abcff9a17a03	0.2917365968513936
25	0x3fd52a58e2a6a0ee	0.33070966848255423
26	0x3f8a02f227d63cdf	0.012700931397175484
27	0xbfd8e8c165a09972	-0.38920626568360384
28	0x3f831f78d91416f7	0.009337371945103963
29	0x3fc9740fea9355c8	0.19885443643458545
30	0x3fd6c31ba23aaf7a	0.3556584438581393
31	0x3fdc4b51322b18c3	0.44209699534657093
32	0x3fde18b763e14336	0.47025856737041083
33	0xbfc8082cbc3e7759	-0.1877494734916876
34	0xbfce65aec154e846	-0.2374781078340808
35	0x3fc026a9fbb86bfe	0.12617993155512858
36	0x3fa567a4349b15ea	0.041806346341711834
37	0x3ff01731d1c8a717	1.0056627459220573
38	0x3f5607dc06f70ef2	0.00134464728385891
39	0xbf942b0bc51d8179	-0.01969545736881304
40	0xbfb4f871543b3c78	-0.0819159346240087
41	0x3fc830cd242e8f4d	0.18898929850285598
42	0xbfa283f4de1b1844	-0.036162998306779076
43	0xbfcc466874226dc0	-0.22089868231419807
44	0x3faa2341ea6b7a48	0.05105024324960944
45	0xbfe16239c8e867f8	-0.5432404445630246
46	0xbfcae841782d90f6	-0.2102128826910598
47	0xbfd0fcde638c7f2a	-0.2654338810116196
48	0x3fc3d8ed0b02c9b5	0.1550575546039689
49	0x3faa610a97887244	0.05152161693351734
50	0xbfcd8b679daffb92	-0.2308167953451315
51	0xbfd05445b79d253c	-0.25514357501068097
52	0x3fca17874d868d73	0.20384303365163312
53	0x3f66bb57e638c668	0.002774879148795862
54	0x3fe5a562babf7fc3	0.6764386794493408
55	0xbfd2fb0040823de4	-0.29656988429721154
56	0xbfd3d1098a32a088	-0.30963362213015744
57	0x3fe33d7d7b1de2eb	0.6012561230300809
58	0x3fb82a81516255e1	0.09439857708851875
59	0xbfd8d79eeb17232f	-0.3881604476742266
60	0x3fb9ed9b666149fb	0.10128184556496216
61	0x3fc3a7fbfdb4bdc9	0.15356397521962453
62	0x3fbaec94a3e50459	0.1051724338658614
63	0xbfcbf0ff213a3e58	-0.2182921325916023
