results/fruit-tree-v2/cmorl-ipo/1/final/EP_policy_121.pt (torch, 78232 bytes, 13 tensors)

base.actor.actor_logstd f8 [1, 2]
00000000: 0000 0000 0000 0000 0000 0000 0000 0000
0.0 0.0

base.actor.actor_fc1.weight f8 [64, 2]
00000000: 5470 f0c8 9a52 bb3f 5099 a4e2 4ff1 d5bf
00000010: d795 1b16 b9a5 dabf a8f7 dc10 1104 ca3f
00000020: 8e41 0727 3b91 e23f c7e5 d196 175c cbbf
00000030: 3313 ff0b 2f34 c93f f645 e640 63ba d03f
00000040: ffc3 5f38 cf7c c23f 842b 2b2c 58ff e23f
00000050: 534a bac4 a303 dbbf 17b2 6a3e 8edb b5bf
00000060: 6c89 cc77 d606 dbbf fe34 243b 98c8 cdbf
00000070: b0e5 67c2 21f6 de3f d2d6 14e3 d000 d2bf
00000080: d2e3 32dd 8943 e03f 2c29 0ab2 dfb6 cebf
00000090: 225b f914 72d6 dcbf 4aa4 99b9 d90f b7bf
000000a0: 533c 621d 9948 e33f 0a89 0a86 6094 d1bf
000000b0: 234b e829 1845 e5bf d4a0 8f75 f635 b6bf
000000c0: 3aef 17b0 2a25 e13f c54d 2623 2eae b5bf
000000d0: baa0 31b2 c167 cfbf 1c12 67a6 60d5 b33f
000000e0: 7b23 55b5 a0e0 d43f 73ed cbb9 57c6 c33f
000000f0: 2cea 196f 9123 ad3f 82ee 701b 2172 c8bf
00000100: f7c2 4939 3cb4 e0bf 1a1b 7eb7 a2b5 d23f
00000110: 7841 27ed c1fc c4bf 1647 1c52 540e dcbf
00000120: f9ad 405c 9bf6 e33f ae25 611a 3b43 cbbf
00000130: 2ea2 351c 8f4d e53f 7f28 2ae9 5b84 d2bf
00000140: 5aa9 00d4 ea4a d7bf e6ae e094 0baf adbf
00000150: 7ada be76 5321 e1bf a041 8b55 7368 d23f
00000160: 54e0 19e7 4b66 e2bf bb2e b72b 50cf d13f
00000170: eb5d 1035 2b47 e53f 0330 6e20 4982 aabf
00000180: ddc5 4faa 2a4d d93f 67e2 83f0 9b76 d0bf
00000190: 4c8c 1401 283c e03f e167 9706 7f7b bcbf
000001a0: e787 6473 72bd e2bf 5255 7c56 8392 d43f
000001b0: f73d 6682 93f9 bfbf a17f 8df5 3d91 d83f
000001c0: 4e0a dd0d 4f79 dfbf 4eb0 e228 87ae d63f
000001d0: 7e8c 4f08 e4be e3bf 547e 5bee 49c6 d33f
000001e0: a7bd 3770 9a16 b7bf a193 2557 3705 d6bf
000001f0: c427 2d94 da15 dc3f 845d 1e18 92f2 d2bf
00000200: a32a 999f 2fff cabf 8000 121e e0c4 e4bf
00000210: df0b 0f33 b9a6 c5bf ebcb e21d 8d0e d23f
00000220: baf7 d8ae 1f6a d63f 87cc f707 72fd b0bf
00000230: ea9d dd5c 663e e2bf 2dbf 1985 04f5 d23f
00000240: fb59 bd09 4666 923f b9da 637f 0e5c db3f
00000250: 062a 4ecc 8e44 bf3f 4be8 0134 ea61 c53f
00000260: de59 6a1d 6025 c03f 3164 d3fc 00b8 d3bf
00000270: 4290 b463 0dc8 e33f 6129 b41c 9ae6 c8bf
00000280: 7d65 108d 1282 e03f a92f 20b9 c7c1 d3bf
00000290: 5f90 c088 33d5 e33f 1a2b 6644 9c69 c1bf
000002a0: d0dd 1ab5 9fe9 dcbf 5173 9b72 8439 a5bf
000002b0: 3751 aafa 244e d83f 2275 1b0e f9a0 c73f
000002c0: 04b2 1c81 5215 d73f a93f 5b77 2a14 d1bf
000002d0: 0d47 e746 c144 cabf 5058 543b b2b4 d6bf
000002e0: 7a8c 166e 2b4c d93f e1fc b82d d049 aa3f
000002f0: 174f 6c89 81ce c5bf ccad 0276 aea7 953f
00000300: cea7 f905 21c4 983f 9104 248f aeba e3bf
00000310: d744 159a f437 b2bf e241 50e1 4c76 e1bf
00000320: c8e2 429d 60bc cfbf 276f a84a 6efc cdbf
00000330: e305 461a b9db dc3f 9dec d75f 9cff b7bf
00000340: 869d 5e21 b797 d6bf d692 5f9c def7 9ebf
00000350: e0ca e852 84f9 dd3f c168 db32 a5de d2bf
00000360: 95bb 0424 5dd9 e03f c269 24cf d526 c8bf
00000370: 7ad5 e220 09e1 c0bf 9baa 62ae 161c d6bf
00000380: 0441 ab7f 5226 e2bf 20c4 f595 f2f3 a73f
00000390: 326e bf87 65cb b93f 5265 95f7 fd7c cdbf
000003a0: f66b eae5 ba42 dcbf df73 4188 5415 e6bf
000003b0: 52cc 8097 f5c8 b2bf a097 4f24 487a d13f
000003c0: b502 8504 722b d3bf 8e8e ff66 6eca 84bf
000003d0: 207b 60a3 6370 d5bf 6a5c 2ab6 fd74 b6bf
000003e0: dc38 c9bd 58b9 e5bf f2b0 9719 3098 d33f
000003f0: 551e 930a d5ed d6bf 98eb 61d6 fa0c d33f
0.10672919660322694 -0.3428535188017081 -0.4163649288078352 0.20324910472294033 0.5802284014007897 -0.21374792923215422 0.19690502248536176 0.26137620294420516
0.14443388226166573 0.5936699736279114 -0.42209715091408845 -0.08538140319678465 -0.4222923440849147 -0.23268416297688782 0.4837726973051657 -0.2812998025504899
0.5082444496430247 -0.2399558657965114 -0.45058872268912087 -0.0900856092572592 0.6026120733166728 -0.274681216144146 -0.6646843737129057 -0.08676090593474167
0.535786956722837 -0.08468902929444429 -0.24535390091773995 0.07747463285984008 0.32621019085177466 0.1544904381952211 0.056911988079225345 -0.19098295059108145
-0.5220013731869518 0.2923361579818661 -0.16396354751351416 -0.43837459581946925 0.6238533784684811 -0.21298922336636167 0.6657176543204224 -0.2893285538672287
-0.3639475889528022 -0.057976114200156734 -0.5353181189773999 0.28762515405562716 -0.5749873651211694 0.27827839154336304 0.6649375950245803 -0.051775250633994595
0.3953348792266221 -0.25723932731447124 0.5073432942484799 -0.11125940237926059 -0.5856258634341857 0.32144244619242557 -0.12490198072031676 0.3838648698783747
-0.49177910188533225 0.35440234177327035 -0.6170520937270252 0.3089775874813985 -0.09018864860239849 -0.3440683699648677 0.43883385153150933 -0.2960553393872589
-0.2109126595772369 -0.6490326487837734 -0.16915049546341174 0.28213813704058904 0.35022728037790396 -0.06636727041750322 -0.5701171697409653 0.29620469091513507
0.01796826776929981 0.42749369087634254 0.1221398590843493 0.16705062426973635 0.12614060818005063 -0.30810570421232614 0.6181704470986988 -0.19453741456556897
0.5158779864461135 -0.30870240286526013 0.6197755499783958 -0.13603547420310563 -0.45175926862745275 -0.041454447736873797 0.37976955870660184 0.18460000218230116
0.3606764088497416 -0.2668558278646694 -0.2052232357223648 -0.3547788218869572 0.3952740264014164 0.05134440000665009 -0.17036456308471123 0.021147466614520202
0.024185672750185287 -0.6165383144108479 -0.07116631280702578 -0.5456909561781311 -0.24793632200978366 -0.23426607747466585 0.4509108311250129 -0.09374406185081559
-0.3530099702715791 -0.030242422384520427 0.46835430237403664 -0.2948391911173865 0.5265336707578735 -0.18868515600554586 -0.1318675432755006 -0.3454643919928146
-0.5671780103239432 0.04678304749075601 0.10075983585505169 -0.23037695492784366 -0.44157288029390374 -0.6901037846797599 -0.07337889622503838 0.27308848901736305
-0.2995266956459475 -0.010151731985337944 -0.3349846930959064 -0.08772264192008242 -0.6788753229864386 0.3061638116767106 -0.3582661250370383 0.2976672261790383

base.actor.actor_fc1.bias f8 [64]
00000000: 6de4 c030 05c8 c13f 8f06 d62e eb01 d73f
00000010: 806d f056 0955 cabf 5606 b168 98b7 d0bf
00000020: 75bf ffbc 25db cfbf 5088 5490 bd24 903f
00000030: 04fd dfdf 5e75 d93f 8a07 19d0 04ba b1bf
00000040: 4c37 f4f3 8a46 d9bf 8402 d606 c2f3 c13f
00000050: 1348 2563 43ab d2bf 3f9a 8ec1 2fb8 db3f
00000060: 45cb 84d9 ee40 b3bf f8c4 c942 7ac3 db3f
00000070: bef0 9683 06e0 c1bf b883 9de4 c3a7 cfbf
00000080: 7016 7397 92d8 bcbf b492 3fc5 2396 d03f
00000090: 4d0c 9801 5403 dabf 6dc0 d54b 64f0 b9bf
000000a0: 1791 a473 3cce b93f 39b7 a2ff cfc0 e03f
000000b0: ff8d fa6b 2c55 bc3f 068a 72f4 c091 c1bf
000000c0: 0065 98be b651 dfbf 5a56 c718 26db bdbf
000000d0: 58c4 ca2a 6f05 b03f 3a3b 392c b631 b53f
000000e0: 8ea0 52f0 c75e a4bf 1638 965a 5a13 ae3f
000000f0: 6b75 0183 2f05 b93f 973a 793c f518 94bf
00000100: 1d31 d410 28b1 c23f 8ec1 d24b 7553 9d3f
00000110: cd61 486e 813c 9bbf 3d41 683c e5ad 733f
00000120: 77f4 b067 f7c0 a4bf eae0 0aa6 cbfb b8bf
00000130: 4da0 67a5 7536 d9bf f4a8 c67f 3443 cfbf
00000140: e422 c4a8 f94c debf adb2 0015 2346 c1bf
00000150: aaae 94b2 8885 703f ec60 46ff fe78 d5bf
00000160: bf23 22cc 47bd debf a8d9 3a6d 66e6 d1bf
00000170: 102d c577 a479 bebf 2f09 8cad 394b e0bf
00000180: 2170 5f95 4135 85bf e465 2508 eae1 b23f
00000190: 5f2e e725 d383 cc3f 0884 0022 7a42 d7bf
000001a0: 6a60 b710 6447 da3f 341d e29d 13f4 c9bf
000001b0: 1caa f7e8 af03 d4bf a17b 6109 a1d1 d03f
000001c0: 6410 bea5 fc1f bb3f 2600 b08e 7699 dabf
000001d0: 636a f8e3 111a e33f 891e f616 526c d1bf
000001e0: 44c1 337d ebc0 c93f 5644 c970 2356 dc3f
000001f0: 00e0 b913 e078 bf3f 813f 6c45 c2e3 b23f
0.13891663437405857 0.35949210714179797 -0.20572010750843717 -0.2612057707193335 -0.24887534836261307 0.015765153822151767 0.39778873312748453 -0.06924467163574213
-0.3949305899012543 0.14025140126979718 -0.29170307810011414 0.43311685468725963 -0.07520954905048167 0.43380600473672315 -0.13964921403192493 -0.24730728781562816
-0.112679635977736 0.2591638017895932 -0.4064531341138647 -0.10132433749618182 0.10080316375075814 0.5235366814501737 0.11067464481543964 -0.13726055084141836
-0.48936241734334374 -0.11662519555042064 0.06258292002418508 0.08278978900601155 -0.039785621725344375 0.05874140125079934 0.09773537586575791 -0.0196264570388914
0.14603138753626235 0.028638680222401507 -0.026597998005031976 0.004804511502257744 -0.0405347169948777 -0.09759209445735775 -0.3939489474564695 -0.24423843611777551
-0.4734481952769285 -0.13495291257404088 0.004033597922255142 -0.3355100148123842 -0.4803027623643707 -0.27968750636082484 -0.11904361652448281 -0.5091827764120235
-0.010355484362598645 0.07375967692259838 0.22277297354445388 -0.3634324390459942 0.4106073535199416 -0.20276112755912268 -0.31272504568792825 0.26279474178402934
0.10595683142133933 -0.41561664518667596 0.5969323589845995 -0.2722363685829597 0.20119994748484704 0.44275747312810176 0.12293816072076424 0.07378782458203938

base.actor.actor_fc2.weight f8 [64, 64]
00000000: a355 0505 7bcd adbf 5b2f 96b5 cfa1 d3bf
00000010: e616 8814 de00 f03f c329 ec18 2181 c43f
00000020: 551f ec89 3fca b7bf 8b8a e1e1 9ee2 e6bf
00000030: 88ce 86a5 11c5 dcbf 7179 567d fd48 e33f
00000040: 6276 1e36 697d cd3f 3d24 0988 59b9 e3bf
00000050: 6728 f9c9 2176 d93f 5500 71a5 08e2 dfbf
00000060: c959 aa00 6b76 e23f 7cb6 d775 96ed 953f
00000070: e8b1 9b49 78a0 d23f 75aa 0082 de90 c0bf
00000080: 049b 1770 ec8b e4bf 5de3 6d74 b07b ad3f
00000090: ad97 1e51 397a d23f ceb7 2441 fde9 f33f
000000a0: d54f de96 3f63 dcbf 924b 1f48 ce2d c1bf
000000b0: 0bbd f741 2333 e2bf c9e2 c87a a75c ec3f
000000c0: c96e b3d8 53a2 be3f 0f4d 4e08 4ef0 e63f
000000d0: 8163 26d7 5fe9 debf 120c c2b9 b5d9 cdbf
000000e0: be53 6f9a 39c0 e0bf fa1b 75f7 d82e e5bf
000000f0: 4e49 e274 fd73 6f3f 5573 d539 ad71 e03f
00000100: e82f 34e0 77cb 9a3f 3165 9f04 3a50 c9bf
00000110: 3ec4 6abd a768 e43f 953d 831c ef95 ecbf
00000120: 1943 37cc 072d b73f 8140 4845 6a31 c83f
00000130: d767 1b3c e984 b03f a5d0 fece 7aed ef3f
00000140: 6e2c d857 bc4c c43f 9a5e e479 ee5d eb3f
00000150: bc44 58fc ba6a e4bf 3b43 35f6 22df d63f
00000160: 176d 2246 0317 d03f 76da 2161 e4a4 c5bf
00000170: 313a 9377 bbe2 e53f 4ada 9bc1 3f26 cebf
00000180: 6d3e 5553 4f10 cd3f a552 789d 9d42 aabf
00000190: ca90 ba45 d618 bdbf 0f20 816c bd0b de3f
000001a0: d68d 12fe b286 d0bf edc7 80e1 1ae0 df3f
000001b0: 286a 464c c5d1 de3f 33e6 740d 6a16 b0bf
000001c0: 968c 896f ff3d e0bf 3f79 cf83 8c66 c7bf
000001d0: 0155 38ed 4c5a c0bf d27e 24d8 f811 9fbf
000001e0: 3836 e0ec 1f34 d1bf 66ca 1564 7cee abbf
000001f0: 80ec 582f 9f54 e4bf 6349 b0ad 40a6 cfbf
00000200: eba1 17ea a4f6 c53f 2ed5 7795 2549 c33f
00000210: c677 4304 5ff1 913f 87db 3040 7f72 b8bf
00000220: 2c63 aa52 ac2b cbbf e7fd 165f a6ec b83f
00000230: d721 bb96 6cbc ae3f bf33 a943 680e c03f
00000240: 66a8 8172 2503 cc3f c8ac 495f 1c5e b8bf
00000250: f86e cb34 e1c1 ba3f e4af 402d be0e 693f
00000260: 4bf3 ced2 0fe7 c33f 028e d598 9a48 6b3f
00000270: 6664 0cae ed70 b1bf 71f6 1d1f 2c44 c23f
00000280: 9f6b 96a4 7b29 963f 5a2d ca44 e8d1 ab3f
00000290: 409f 8b4d d316 c4bf c99c e4c3 6f2c b2bf
000002a0: 137a 6a81 993b c23f 3bad 2975 3892 bd3f
000002b0: 4553 d81c 1543 c5bf a595 371f 675c bfbf
000002c0: d354 0399 3027 babf e402 f2ce dae1 c0bf
000002d0: 1a02 a3b0 9b9e d3bf 8e9a 4a41 93ef cebf
000002e0: 51b8 639c 5824 c6bf 4f35 1986 486e c1bf
000002f0: 3910 ec75 8a27 c33f 0d0a a611 f8df 7d3f
00000300: 2ffd 6c43 84a0 d0bf 48d8 d9e2 9046 c3bf
00000310: 2c59 c18e f1f1 cabf b0aa 1fa1 99b0 bbbf
00000320: 7618 d9db 81a9 95bf eccf 8f69 09f2 ba3f
00000330: a494 b4e6 67fb 823f 2e32 722c ec76 c33f
00000340: 79f8 6759 2de5 b2bf d512 43ca 7c85 8d3f
00000350: 051f c4f5 0abd c3bf 3955 17a4 ec63 c1bf
00000360: 3489 9925 ca11 c03f 99bf 088a e9df 9fbf
00000370: fe43 9a8b c044 c43f cbdd 443e 4b7a 9e3f
00000380: a73d ea07 79ca be3f 9d2a 32f5 1235 933f
00000390: e64a 326f f159 d13f 1c1b d92f 206d c23f
000003a0: fd37 6913 be44 a33f 4209 92ab 118f a9bf
000003b0: fa5a 22d6 eb30 b13f da27 f797 6c8f c53f
000003c0: 16fd a28a b477 cabf 4d67 0b82 b05f a7bf
000003d0: 6ce5 152a f5ed b6bf b180 bc1f 7f58 b7bf
000003e0: 8d4a 8d18 8c47 c1bf bd8f f1cf b44a d33f
000003f0: 4af1 b066 ef18 bcbf ae08 b6d1 7d56 c2bf
00000400: fd27 3845 e324 c0bf c008 e295 fe7a c23f
00000410: 4484 b00f 1683 bcbf 6dbc 533a 0a01 ba3f
00000420: 5789 23a5 5921 88bf c590 0813 975e c93f
00000430: b0ea a256 0b8a af3f 8658 c60a 80c8 ba3f
00000440: b0af b81e 78ee b8bf 27ec 43aa bf93 98bf
00000450: 9e73 dd87 07ca bebf 854e 338c dccc 91bf
00000460: c018 a54a c620 883f 70ce 4d03 197b b0bf
00000470: 65e7 ed6a ac95 c8bf 588f 13c8 aa9d cabf
00000480: 6235 0c95 29eb bbbf 8b13 379e 186b a2bf
00000490: 71be 9a34 cb16 c1bf b9fa 310c f1e4 c23f
000004a0: 44ef 983b 2762 d23f cabf 2687 ed4e a1bf
000004b0: 809b bc7f 08c4 9f3f 2c5a cbe7 987e c0bf
000004c0: 8801 cd51 9eee a83f d6b0 43ca cc78 c2bf
000004d0: c5f5 b46a 5cf0 cabf db08 8d99 fe23 cebf
000004e0: 5207 fcdf a172 88bf 66ef 5b8b 7bb3 a53f
000004f0: b8ad 8c39 921f c33f 688f ece8 b3d1 c03f
00000500: 475d d289 9702 d33f 1df1 7b86 323d 723f
00000510: b0f8 6ead 01f0 a2bf 150e bb57 3151 cdbf
00000520: cc72 8fca 60a1 b2bf 24df 5e4d be64 8cbf
00000530: 3fbb 27cc 5eb5 d33f d29c 5dda a501 a83f
00000540: b8f8 a7c3 3f5c c73f cd1d 0845 b71b ccbf
00000550: fb7e 86ce fd46 bd3f 1d13 7780 15e4 b0bf
00000560: d980 6de1 8af1 bbbf 676a 7b33 d37c b4bf
00000570: 2e66 7256 c4f5 c7bf 9924 36da 0db2 a5bf
00000580: 509a 224d 1633 d33f 2ac9 16f8 93b9 853f
00000590: 86af 6dad 0385 ce3f 5cc8 755d 75f6 b6bf
000005a0: add8 20cb faee a1bf 8371 c4cb b866 aebf
000005b0: 8920 c3f5 648c b9bf f194 790d 404d c23f
000005c0: 0af8 d1bc 4384 ccbf ac5e 73ce efcf bd3f
000005d0: 328e e517 66a1 c63f 4fb1 be43 a75d c0bf
000005e0: 7946 779d da20 c73f 930e 7d5e 306a b0bf
000005f0: 882b 3a1c ef21 c13f 144b f38f 63d2 b3bf
00000600: e3bf dc42 a419 ca3f a73b 423d ca99 b13f
00000610: e4a7 8e01 ab49 b03f f907 f5d0 5dea ddbf
00000620: 44e0 da13 91e6 cebf 12c6 256f 4aa7 d33f
00000630: 044d 3f62 9996 e03f 0512 5c04 cbb4 b03f
00000640: b788 a9bc 418f bfbf 9b4f e542 84e9 c43f
00000650: cf28 e12e ed24 a43f bb48 9bbe e6b5 ce3f
00000660: 10d5 c36c 3a11 d4bf f438 20ad e423 ce3f
00000670: 73a7 8517 50b5 d7bf c2eb dc64 0b7f a63f
00000680: 1003 e177 1e5c 87bf d47f 754e c248 d33f
00000690: e0f6 598a b530 d0bf 2552 fe2f 2031 a43f
000006a0: 5ff2 e90b aa45 d53f 555b dca5 ceb4 873f
000006b0: 4292 cbb8 2699 b0bf 4c28 1c94 8c5e c8bf
000006c0: dda1 83d3 a1ad af3f 662e 222c 128e c03f
000006d0: 037f cb52 657c b5bf 2051 8c3e dbcd cfbf
000006e0: 00d7 7d7c 428b d4bf 8359 04d0 8177 a9bf
000006f0: b3f1 974e 8330 ce3f 3034 b244 b512 cb3f
00000700: 5711 26f6 1332 df3f e8e9 f213 f538 c7bf
00000710: 493a 0d7a 5341 a23f 0da6 8e6d 0ae6 853f
00000720: c0b4 b98c 27b5 8c3f cfe2 d75f 36d4 d0bf
00000730: 2e96 0e0b 143d af3f d4f9 1cf3 9399 b5bf
00000740: 7605 1ac4 3f5b c3bf 4bc6 ec03 4fb8 d1bf
00000750: 0fcb f87e 73cd bb3f 46f6 dfc1 d8cc c9bf
00000760: caea aedf cfea b5bf 2525 108d 0857 b8bf
00000770: 9096 9821 7e91 cb3f 6ac5 c72d cbd4 d0bf
00000780: 43ee 46a4 f295 bc3f 0c8e cf3d afc4 c63f
00000790: 46e1 4d55 0347 cc3f 7787 8c8d 2cde c5bf
000007a0: e939 8551 c084 d53f a2b9 886f 6931 7abf
000007b0: 21f3 411a a17c d6bf 23f3 f665 f11c d43f
000007c0: 564c 364d c929 c13f 59f0 a8d0 b4b2 b9bf
000007d0: 6bf0 5468 6102 db3f bbb0 299c 2802 cfbf
000007e0: 7b3e 5be8 069b b83f 95a6 d59e 0b21 e23f
000007f0: 6808 5d43 5b8b c4bf a86e e6b2 3035 cdbf
-0.058208317149062404 -0.3067511819178798 1.0002117921844103 0.1601907130901293 -0.0929298125957961 -0.7151636516321828 -0.4495281330557437 0.602659935760853
0.2303897394421482 -0.616375699705834 0.3978352043528787 -0.49817100674045395 0.5769553196903924 0.021414137785475948 0.29104430378245505 -0.1294210562494588
-0.6420805157948455 0.057584299290232656 0.28870995446993214 1.2446262879052372 -0.44355764134638537 -0.13421038171381078 -0.5687423981125063 0.8863103292597653
0.11966442146825353 0.7168340837692159 -0.4829940415452754 -0.23320647783484155 -0.523464967375382 -0.6619686921266059 0.003839488060358643 0.5138765458646996
0.026166794833485968 -0.19776082254137742 0.6377752971221822 -0.8933024937522754 0.09053086028803782 0.18900802977487177 0.06452806203324656 0.9977392237547248
0.15859178818968495 0.8552162533478225 -0.6380286148652412 0.3573691753745611 0.25140458916730907 -0.16909460776124136 0.6839272818995764 -0.23554226831011454
0.22706023758881902 -0.05128948733559938 -0.11366023256647675 0.4694665488827931 -0.25822138606801326 0.49805328389913833 0.48155338715301577 -0.06284201458483878
-0.5075680902922552 -0.18281704364830806 -0.12775575240144835 -0.030341995422644548 -0.2688064397087575 -0.05455387803785498 -0.6353298115494823 -0.24726112824334753
0.1715894835499648 0.15066976354834466 0.0175223203995001 -0.09549708668860833 -0.21227029835133615 0.09736099072960479 0.06003131237008901 0.12543967536694642
0.2188460167993213 -0.09518601728784681 0.1045208696263521 0.0030587877645498075 0.15548894685152911 0.003330518672258754 -0.06812940119961439 0.1427054550112419
0.021642620010975496 0.054335840604006605 -0.1569465759887354 -0.07099054844421739 0.1424438363946626 0.11551239834232245 -0.166109694561465 -0.12250370514046567
-0.10216048942250504 -0.13189253906968823 -0.3065556740730543 -0.24168625534112603 -0.1729841960545309 -0.13617807910706367 0.1496441913406004 0.0072936716263734104
-0.25979715904755357 -0.15059100224215372 -0.2105085322425081 -0.108163453900185 -0.021154431384524185 0.10525568797294199 0.009268581131048066 0.15206672830790197
-0.07380946572081538 0.014414763376757215 -0.15420662880227823 -0.1358619500376024 0.12554289661336215 -0.03112759499543891 0.15834814850362017 0.029763389278029167
0.12027698939549812 0.01875714894826307 0.27111469134358257 0.14395525299388445 0.037633838529117704 -0.04991965503087893 0.06715272882352599 0.1684394590395744
-0.20677811402672636 -0.04565192782838654 -0.08956844594458396 -0.09119410061657864 -0.13499594878029023 0.30143471056930676 -0.10975548035725527 -0.14326451053427064
-0.1261257255540044 0.14437849348548148 -0.11137521632237318 0.10157836841584507 -0.011782360412727995 0.1981991618096172 0.0616000693566624 0.10462188971573214
-0.09738875150713855 -0.024001116530581037 -0.1202702242566844 -0.01738304715838847 0.011781262543660964 -0.06437832194006332 -0.19206767293126883 -0.2079366185126854
-0.10905704392299279 -0.03597332888924772 -0.13350811070039328 0.14761174293012916 0.2872407991414898 -0.033805296657532916 0.03102124480860935 -0.12886344259341465
0.04869551418824175 -0.14431152225677718 -0.21046023569389952 -0.23547346589663828 -0.011937393806423256 0.042384968530284436 0.14940097627673565 0.1313996207546737
0.29703319987443816 0.004452893604817623 -0.03698735468013703 -0.22904030593609606 -0.07277493424721654 -0.013864027725375268 0.30794496476203287 0.04688757219883545
0.1825027184822312 -0.21959582205475528 0.11436449329493918 -0.06598028551441044 -0.10915439609152901 -0.0800296784104063 -0.18718771191633848 -0.042374070059915066
0.29999311001521267 0.010607868202758459 0.23843427627741337 -0.08969815761318628 -0.03502639512628156 -0.059377455591149285 -0.09979849815420229 0.142982489184909
-0.22278639526115313 0.11645411291407964 0.17680050055342772 -0.12785807426315407 0.18069012345090465 -0.06412031466339334 0.13384808424265437 -0.07742903007901375
0.2039075209117974 0.06875289912771497 0.06362408435839445 -0.46742959409687007 -0.24141133756143252 0.30708561758282926 0.518383685960004 0.06525868278919951
-0.12327967506419922 0.16337636248010487 0.03934422681102633 0.2399261885353264 -0.3135515272291096 0.23547037557040762 -0.3704414586742281 0.043938022673010405
-0.01140617183057338 0.3013158575249666 -0.2529729701126211 0.03943729959351953 0.33237696803533895 0.011575331150692906 -0.06483690272904943 -0.19038541061337566
0.061871583051303004 0.12933566241223388 -0.08392937919006375 -0.24846973947627138 -0.32099973828677264 -0.0497398916651717 0.23585549676489634 0.21150842527677716
0.4874315170093459 -0.18142569994036184 0.03565464844597394 0.010692674129887636 0.01401739977083094 -0.26295241698930466 0.06101286540005578 -0.08437466321354431
-0.15122220111156154 -0.27687430747309766 0.10860368585489887 -0.20156392542405593 -0.08561419688241326 -0.09507802432940034 0.21537758484298708 -0.2629878947328367
0.11166302214308481 0.17787733572105002 0.22091714539761592 -0.1708427134663528 0.3362274929139902 -0.006394779070019759 -0.351356769220546 0.3142665382145415
0.13408771772501166 -0.10038309187160745 0.4220202940812274 -0.24225337624682716 0.09611552403225147 0.5665338613736873 -0.16050282277325612 -0.2281857369933864

base.actor.actor_fc2.bias f8 [64]
00000000: fc83 ac9d a4a1 c03f 93ea d9b1 7c70 b13f
00000010: b364 1319 9f5c 76bf 800b 98d8 088e b93f
00000020: f603 7b8f 7c59 6bbf a3bc ffe7 a492 88bf
00000030: 6684 6717 e4bd a13f e6ad 9692 6bd4 bebf
00000040: 2c4b d36d e30a adbf f3e9 f7cc dbae 9bbf
00000050: 6b75 a4d8 1bb0 c5bf 0699 e4d0 cd6d c33f
00000060: f646 8663 e2e5 c3bf f6a9 3a60 aaa9 a53f
00000070: 981a 9b7f 86b0 ac3f 0dd1 08c7 c5de acbf
00000080: b1f4 522c b769 aabf 4ab2 696b 3eb5 a03f
00000090: 3ec9 f15b cb7c 8f3f c612 fdd2 309a d23f
000000a0: 7d40 fdcd 42ba a3bf 7ad7 cca4 188b b73f
000000b0: 7c71 cd1c c21d abbf 0d13 1780 0cef 9f3f
000000c0: 26d9 5a1a c918 c33f 271f d527 8c67 d23f
000000d0: 12cc 2bfe 3a3a 7d3f 4a2a f510 61bd d13f
000000e0: a62e 9148 574c c4bf a139 934f 2169 c53f
000000f0: 9efe 6cfe 361c 93bf 4209 c905 b467 d7bf
00000100: 9edc 40d7 d70b a6bf 7e34 9b0f cf7e a13f
00000110: 968a d7a0 c9c0 a73f f60e 117e ebbc c23f
00000120: 03f6 b893 d169 933f e666 e63d 7a9c 833f
00000130: a848 72bf 52e2 bf3f 73e5 03a9 14eb acbf
00000140: 4de2 cd79 251d a03f 2d20 b1f4 8131 b73f
00000150: ede8 2807 230c 85bf 4f6a b1fa cd36 bdbf
00000160: f78a 3eb5 f6f9 93bf ecc9 0fc7 3d0b b9bf
00000170: 2a46 ee53 9b28 77bf 7b2c be41 bbe7 a73f
00000180: a8b1 94c5 f813 833f 1b69 bddf 9b33 b83f
00000190: ca8b 3195 8639 b33f 8b59 4f3e 6a37 a23f
000001a0: 1eba 592c ea86 a63f 0816 0019 e459 9b3f
000001b0: 35da aa89 5447 783f 31b1 ee2a 48cd b0bf
000001c0: c704 26b7 26aa a4bf fc9b d32d fc70 b03f
000001d0: f15b 4ea6 4a0a a7bf 4eaf d604 d45d a43f
000001e0: 200d 113b 94c2 88bf d68a 4482 f185 b83f
000001f0: 8223 4823 d936 ba3f 8ef0 32ce 0d8a 93bf
0.12993295382423742 0.0681226667601698 -0.005459424473167096 0.09982352531373628 -0.0033385689565368316 -0.011998451547667271 0.03465187822053721 -0.12042877510855696
-0.05672369685784981 -0.027034220109252115 -0.1694369132828045 0.15178845119334755 -0.1554530130347797 0.04231007027313531 0.0560342818039789 -0.05638711981410625
-0.0515877954107763 0.0326327806586489 0.015374745124266394 0.29066105465271297 -0.038530433316396696 0.09196619056169011 -0.05296141244500327 0.031185336416245813
0.14919389521464516 0.2875700367917368 0.007135611000864921 0.2771837869264898 -0.15857974093738852 0.1672708166647228 -0.018662318495670342 -0.36570454182596646
-0.04305910589794702 0.034170599608480665 0.04639272774126828 0.14639037757489576 0.018958353654161552 0.009575800909078901 0.12454716848359004 -0.05648102343725272
0.031472369307213734 0.09059917663501045 -0.010277055412292369 -0.11411750193057311 -0.01950822335460153 -0.09782777891067668 -0.005653959989005789 0.04668984582448218
0.009315436868370622 0.09453748905562913 0.07509652273579018 0.0355790329992259 0.043998067773703506 0.026710094476603913 0.005927400804174134 -0.06563235328821261
-0.04036065087985601 0.06422401541531991 -0.04500039367774623 0.039778352347041065 -0.012089880039758472 0.09579381399502593 0.10239941703197356 -0.019081321440112257

base.actor.actor_fc3.weight f8 [2, 64]
00000000: 85e8 1e40 6888 ccbf 9d48 6e4d 5820 afbf
00000010: e5fe 7d3b a775 943f 5622 c9b5 adee b83f
00000020: 4473 b5fb 3b8e 6abf 310e 1397 05b2 a83f
00000030: 5c57 66db 6e7e a4bf 0eff 1b86 e3a6 c03f
00000040: f685 9482 8ce8 af3f a909 a0fd 1326 b2bf
00000050: f77e 8648 015e bb3f 6a87 473d d995 d2bf
00000060: 150b c887 84a9 bebf 9b7d da24 acba b43f
00000070: 6b20 5e76 9285 b2bf 8fd5 3d9e 0a0a b83f
00000080: e1d7 d96f 0026 b13f 659a 741a 8760 9d3f
00000090: 2639 1209 3d02 753f b032 6d5c 1b41 c93f
000000a0: 8ca4 5a4a 6adc a8bf 0d9b a369 9c48 a93f
000000b0: edcf 2400 5ad8 ab3f 783f 4b25 48fc 96bf
000000c0: 5a61 4b11 2c0c c1bf 1821 b653 644d c83f
000000d0: aee2 f339 1fd4 8b3f 8706 9a71 dd90 c83f
000000e0: b1e0 fe0b 62ae d53f b696 05e4 cff0 be3f
000000f0: 77b4 32ff bae5 90bf 582c 34f6 39b6 c6bf
00000100: ab67 1eec fd60 b03f 2032 67d4 db0c 8cbf
00000110: 7d89 b23a d1ab b1bf 7381 7f12 78dc c3bf
00000120: f099 a903 c433 853f d370 5226 8a8e ba3f
00000130: abe9 93bd 1542 b8bf b939 785b 7196 863f
00000140: 9a99 6011 0843 8bbf c157 a056 9b58 b83f
00000150: 2f95 e952 62bd a03f 4335 5484 b7b7 b03f
00000160: 0046 0173 f36f a43f 3240 0125 b1b9 b3bf
00000170: 886f 85da 7e98 a33f 904e b255 a7ac b2bf
00000180: eb6f 41cc a95f a3bf ee4a 0db1 6798 bd3f
00000190: 702f ec32 62fd e6bf 787a dd9f 1269 a0bf
000001a0: b344 cd95 f33f a73f c6f8 80b7 1217 bdbf
000001b0: 4510 a7d4 73d0 b03f 39de 49bf e071 aa3f
000001c0: 783b d3cf 1eb8 b13f fe49 9b84 c73c b2bf
000001d0: 4937 9b7d 9fc6 c03f 1ba3 efac 7ee7 6e3f
000001e0: 6347 e067 04b2 9dbf 466a 4819 db22 b4bf
000001f0: 77fa 2a21 e35f bc3f fc77 d926 c021 b3bf
00000200: 8f5d 0af5 6913 cc3f 5bb2 60d5 bb4d ae3f
00000210: 388c fd28 dfae 95bf 071e 4dfd f828 b9bf
00000220: 670e 9421 a7a4 713f 68a0 1c79 14a9 a8bf
00000230: 8e36 889b 8875 a43f 3220 0021 f234 c0bf
00000240: 0310 affd bcb3 b0bf 7adf 4bbf b31e b23f
00000250: d375 50fe 128a bbbf 1a38 6faf 7a95 d23f
00000260: ba62 cb09 23de be3f de2c 38be 92dc b4bf
00000270: 3945 01d6 0c6d b23f 556c 14dc a353 b8bf
00000280: 5000 2961 dfe7 b0bf 140a bfba 4112 9cbf
00000290: 2bed 8abf 6dc1 75bf 313d b21c 1644 c9bf
000002a0: 460e 5527 56eb a73f a09f a95d 9fc6 a9bf
000002b0: 7df5 ed3a 9fe1 acbf 3476 fe4a c4f8 973f
000002c0: 27f0 3af6 1b30 c13f 059f d704 5668 c8bf
000002d0: 38f0 f498 eac4 8ebf 92c2 3e6d 987b c8bf
000002e0: 2d81 5b11 c7b9 d5bf be7c 108f d7c8 bebf
000002f0: 0da7 5ba5 e516 923f a935 dd24 e87c c63f
00000300: ba0c fc01 cb35 b0bf 9ba0 a843 2391 843f
00000310: a6ac 902e 648f b23f 1f8b 8cbc 58b9 c33f
00000320: 1fc2 e582 067f 8abf 4bc8 23f5 4970 b9bf
00000330: a1e4 425c 008c b83f 72be 5eac 53eb 86bf
00000340: 8ec4 2f75 65d9 863f d9d1 7e30 0f37 b8bf
00000350: 3d89 bc07 f452 9fbf 96d6 6ce2 f2c2 b0bf
00000360: da7d ff5e ef4c a5bf ffd8 f0a5 0e25 b33f
00000370: 1e0d 1860 7873 a3bf e84d 63ea 30d4 b23f
00000380: 3249 874f d02b a33f 6815 5154 f7f1 bdbf
00000390: f8c7 ad3d 0513 e73f b9e1 37da c8ff 9e3f
000003a0: 4bba 9184 b0e2 a6bf 965c 0c3f 837e bd3f
000003b0: f601 2bea bd01 b0bf c17f 2bd6 6af3 a9bf
000003c0: 68b8 2b40 10c6 b1bf 4027 4457 6598 b13f
000003d0: aa47 1d18 4099 c0bf bd60 5c96 2f57 74bf
000003e0: a446 f88e 6c8a 9f3f be99 1421 5cf3 b33f
000003f0: f100 92c5 ba18 bbbf b0b7 a800 ab37 b33f
-0.2229128182496575 -0.060793647243501094 0.019980061536897593 0.09739194572569806 -0.003241650728951136 0.04823319882555344 -0.04002710750789504 0.1300930409270155
0.062321082057916685 -0.07089352552433205 0.10690315266264948 -0.29039603218381294 -0.11977413477874806 0.08097339534514562 -0.07235064878307333 0.09390322078055234
0.06698611002670375 0.02868853663417283 0.005129087848344127 0.1972994042684113 -0.048556634499001466 0.049382102866550516 0.05438500644450515 -0.022446753765336308
-0.13318396419959805 0.18986181342575814 0.013588184314799658 0.19192092940288694 0.33876849338003995 0.12086200062693817 -0.016501352144292682 -0.1774361087958336
0.06397997870081322 -0.013696401042488537 -0.0690279739670014 -0.1551656809160807 0.010352641450663363 0.10373748241039786 -0.09475837591518281 0.011029134372645953
-0.01331144621879048 0.09510203232670646 0.03269488584627777 0.06530329685866314 0.03991661814565006 -0.07705218461455912 0.038272823500590525 -0.07294698564720137
-0.03783922785143531 0.11560676643902543 -0.7184306139547356 -0.03205164147833711 0.04540978625903715 -0.11363331775735039 0.06568073217118904 0.051650069571163866
0.06921570371490116 -0.07123991954293982 0.13106149323578567 0.0037724947101093315 -0.028999394264310207 -0.07865685813195808 0.11083812293780136 -0.07473374317621045
0.2193424650656479 0.05918681125362887 -0.021174895169121494 -0.09828144249069491 0.004307415824999695 -0.04816497782150081 0.03995921038231841 -0.12661577807762253
-0.06524258798077658 0.07078097744294878 -0.10757559498639262 0.29037348873396385 0.1205770396148961 -0.0814906801608006 0.07197647309046297 -0.09502624629060226
-0.06603809473108524 -0.027413393996321103 -0.005311421112021801 -0.19739033127960107 0.04671735029344552 -0.05034349459020793 -0.056408859199090756 0.0234099074146938
0.13428067706070232 -0.19068408237875914 -0.015024025719519427 -0.19127183279262688 -0.33946396536886675 -0.12025210612090384 0.017665470330860567 0.17568685340886006
-0.06332081602527043 0.010042453291206057 0.07250047814220525 0.15409383017057451 -0.012937594289469221 -0.0993696425901202 0.09588625195000812 -0.011191037843530458
0.011156838072539334 -0.09459013875932189 -0.03058987900943432 -0.0654746821208739 -0.04160259279865004 0.07478419829644521 -0.037990342836588406 0.07355027887688659
0.03744364710623173 -0.11697336014284121 0.7210718350090692 0.030272615736949258 -0.044698253805894504 0.115211680309914 -0.0625265785884109 -0.05068525184992679
-0.06942845884961601 0.0687316263248734 -0.12967683007678704 -0.0049659594422097305 0.030801483370004448 0.07793212707165417 -0.1058460934018546 0.07506817594614179

base.actor.actor_fc3.bias f8 [2]
00000000: 6f5c 9b9b b523 b2bf 895c 9b9b b523 b23f
-0.07085738228794168 0.07085738228794204

base.critic.critic_fc1.weight f8 [64, 2]
00000000: 76af b63b 8463 c73f a706 11dd 82f1 e7bf
00000010: d87a bb53 01da c33f ee9e 9f6e 1d79 c13f
00000020: 07a4 d7dd 02e9 cb3f 758b 145b 7929 cc3f
00000030: 997d c8e7 432a d13f 8ca0 b16c 31fd e3bf
00000040: a983 e788 84a8 cd3f 74fb 6c90 c9df 89bf
00000050: 8817 4626 c9f6 d8bf 8849 4294 0cee cc3f
00000060: 7229 5f2a 62e2 c03f 97e6 f7d3 4960 c6bf
00000070: f94a e655 04aa 943f 1cbb d8f8 8f26 e2bf
00000080: b026 c3fb 346d cabf e118 d130 7193 d03f
00000090: 481d e8a5 dd41 d6bf 9e60 c989 4e92 a0bf
000000a0: 9f7b d596 375b c2bf 6675 307a 4b86 e03f
000000b0: cfde 2fb0 8c11 ddbf d320 fde1 34e6 cc3f
000000c0: 4adc 6756 08a9 b73f ace3 d431 3ca7 e2bf
000000d0: f4af e17a 2354 a33f 26b9 662e d491 d43f
000000e0: 8ae0 88cd 98c2 92bf 2ac3 8ea5 8347 d33f
000000f0: e1e9 081a c1bf b5bf e97f d2e6 4871 a83f
00000100: 512e e8d2 ec9f d53f 4074 42a4 6bbd 643f
00000110: 4676 f486 03bc 93bf b9ea 8419 192f c0bf
00000120: b7d6 80eb 96b8 cc3f f3a4 5718 4677 d3bf
00000130: 1c3b 1ebe aa58 d93f 5c74 f69c d215 d1bf
00000140: 3a3f d128 c9bc d0bf 44ca 1037 2b08 983f
00000150: 2b24 a50b 3cc9 c7bf 09f1 d965 23d5 e13f
00000160: 305a 6a17 1eaa 9dbf 87cd e7a0 33a7 d0bf
00000170: 5781 3288 6909 b0bf ccd7 6341 076e d1bf
00000180: 5edc 2167 cb26 afbf 6a7d 7926 ebd0 c53f
00000190: 681d b007 fbf0 ad3f 99d9 2c06 64a4 c93f
000001a0: 326b d651 a786 babf fe4d aa5f 04dc b03f
000001b0: 439e 9012 403f dabf d15f 5e55 bd91 c63f
000001c0: 65fc 48e0 ac2c c83f 181b f31a afd1 eabf
000001d0: f61b 883f 0271 e03f 76bc e0f6 c8c6 9cbf
000001e0: 55d6 334d fc99 66bf 00a9 aa75 1bfb e2bf
000001f0: ab15 407e 1ca4 c93f a7c7 8b82 e2ce dabf
00000200: 5660 ae5b 1e5b 9abf d8bd 695f 2e3f b33f
00000210: f5ee 17cc b272 c5bf 275c 748f 2833 d7bf
00000220: efd4 5117 ce7e b93f e86d 4a4c 9b0c c23f
00000230: 9547 f4f7 8fae b8bf dd86 5bca ff7d b23f
00000240: 99f8 2df6 7d3f bd3f b935 28b5 9802 b63f
00000250: 4835 b2bd 0a96 973f 5c6f caeb 8a4b c9bf
00000260: 29fd 0dd9 1ac3 d6bf b15e 9217 61d3 87bf
00000270: 0518 a9c8 32e1 d03f 1d30 a20b 7062 e3bf
00000280: bf15 4d3d c2df e1bf 99de fbc0 937a c93f
00000290: 2c8d 687c 2a88 c03f 495e 25a0 0d05 c1bf
000002a0: 4ea3 876d 00b0 b6bf 6da3 56c3 4f54 87bf
000002b0: c16f bd53 60f2 c4bf 7252 335c a021 c53f
000002c0: f1df dc7b 6fcd d23f bb32 47f4 75a3 c23f
000002d0: 30c1 5d40 0ea8 c5bf 9a8f c37e 9d96 913f
000002e0: f0d9 b6de 2d0a b93f 60b0 f296 cbbf e2bf
000002f0: 5970 5e22 94d7 b8bf 5f96 2d20 d1ee e83f
00000300: 3155 dcdf 1500 c03f de03 8001 6112 a53f
00000310: 86fc 099c abc7 8cbf 131c baf0 dcfe e83f
00000320: 84cd fc60 1cff c1bf 93d2 c373 e615 e6bf
00000330: f0d2 bce9 0f27 92bf 03c7 4072 4a9a e7bf
00000340: b3fb 3baf 481e d0bf 7b60 32c9 dd8d 8b3f
00000350: 4c00 fc08 28c0 a13f 1161 7cf7 7d04 d8bf
00000360: 16f6 6508 14a1 b4bf a65e 59be 4cd0 bc3f
00000370: 2b55 4e17 baa8 c83f 897c f8be d455 bbbf
00000380: 5bca 4d97 56cd debf 3fdf 1578 8b84 c53f
00000390: 30d8 e5e3 160f a63f b033 a922 d16f e03f
000003a0: aaa5 69d5 512f d7bf 6e74 9474 80b9 bd3f
000003b0: 7251 0687 6c78 a33f e810 ee31 91da bebf
000003c0: 6b17 ddd7 6089 b13f 015e ae38 a8b1 f13f
000003d0: ac3d 3b81 bebd cb3f 21f5 661c 314c c1bf
000003e0: 7307 bbef b249 c2bf efed 628f 5d04 ad3f
000003f0: e4d4 ddec f98a c83f c3be 5bad 1ad4 bbbf
0.18272450366691445 -0.7482313459115247 0.15509049023145027 0.13650863553561216 0.2180484374250968 0.22001568743970848 0.26820466647219515 -0.6246573565413356
0.23170525250227783 -0.012633871765158601 -0.39006260621715017 0.2260146831436709 0.13190867489749852 -0.17481348848359765 0.020179813139814737 -0.5672073231015449
-0.20645773213464258 0.2589991547323632 -0.34777013017488345 -0.032366232223183675 -0.1434087263578165 0.5163934122571561 -0.45419614034424866 0.22577534708603383
0.09242298230661664 -0.5829144452355783 0.03775130152720854 0.3214006856095629 -0.018320453209725453 0.30123988311520355 -0.08495718846908275 0.04773929422049134
0.3378860530508279 0.0025317289710771462 -0.01927190314483187 -0.12643731828742036 0.22438322543319142 -0.3041548955648771 0.3960368019697158 -0.2669569523657793
-0.2615225695235385 0.023468661533295312 -0.18582869118316245 0.5572678555759306 -0.02896925943294998 -0.26020518029618994 -0.0626436193001657 -0.2723405970167476
-0.060842853869808464 0.1704381883491622 0.058479160965414334 0.20032930661700446 -0.10361715076434733 0.06585719428613143 -0.4101104909227368 0.17632261913672534
0.1888633818761917 -0.8380961920127872 0.5137950173237857 -0.028102054661016194 -0.0027589729085047234 -0.59315274221197 0.2003207794624989 -0.41887724636682794
-0.025738214822553417 0.07518281773967972 -0.1675628181982273 -0.36249746331435734 0.0995911414082291 0.14100972390302435 -0.09641361049241788 0.07223509493226339
0.11425006160968322 0.08597711966304801 0.02303330214322344 -0.19761787903996264 -0.3556582564996967 -0.01163364270386977 0.26374501796487976 -0.605766318055888
-0.5585643002784123 0.19905325816192912 0.12915545534733874 -0.13296671218516767 -0.08862307237690212 -0.01139128031611999 -0.16364673699251678 0.16508869649864583
0.2937887868497447 0.14561342647211525 -0.1691911520279148 0.01717611395078187 0.09781157195434509 -0.5859125087931822 -0.09703946913799778 0.7791524532774011
0.12500260763833063 0.04115584510146396 -0.014052715968544637 0.7811112119387665 -0.1405978654453116 -0.6901733647378755 -0.017727135316095877 -0.7375843268875716
-0.2518483840248635 0.013454182341135592 0.03466916188881494 -0.3752741734365524 -0.0805828590873364 0.11255340239710651 0.19264913690555238 -0.1067784277188243
-0.4812828519417615 0.16810744632288707 0.043083873099860504 0.5136495282146054 -0.3622631630047076 0.11611178251446727 0.03802813671350948 -0.12052257031433877
0.06850247640713085 1.1058733190637897 0.2167280322087043 -0.1351376904184827 -0.14287411408991665 0.05667393088648597 0.1917412191939213 -0.10870520336515725

base.critic.critic_fc1.bias f8 [64]
00000000: 74be d961 7794 d6bf 1a23 1700 ad04 b5bf
00000010: 6587 95ac 6f44 d03f 9009 bedc f098 d3bf
00000020: 22ce 66fa 7f72 a43f 4061 ec6a 631c c63f
00000030: 6912 c2b1 7d0e d5bf 3027 7d30 7e73 babf
00000040: 243b fffe cc1e d03f 30a2 b119 6c52 ce3f
00000050: 205d eae4 51ad ce3f 4a08 cc1c 9ce7 7fbf
00000060: f459 0872 ff22 d7bf b4fd f8e6 9e81 d23f
00000070: 7664 2dad cd1a b7bf 9803 0387 05c5 cabf
00000080: fcd8 8c36 26a7 b8bf ba97 10ca 286b c53f
00000090: 5b3a 626f 83fa d1bf b12c 1270 d2ef cebf
000000a0: b6ca a550 3763 babf b5d0 5d45 a536 cb3f
000000b0: 58a6 a842 ff99 c33f bdcc dcac 0453 d8bf
000000c0: 12d7 672b 33a6 d63f b130 0834 8200 9bbf
000000d0: b388 777e 824f d33f 072d 4a21 d7c0 bc3f
000000e0: 1b7b 377a 1aa3 d8bf 4dfd 8407 649c d6bf
000000f0: 5974 9c66 5ffd 9ebf 1a36 caa5 277d d7bf
00000100: eaf6 d3d5 6d88 cd3f b2d5 09b1 f04e b6bf
00000110: 5541 9375 ec36 8ebf 8b04 68a7 aa80 c7bf
00000120: e1bb a712 df3a c53f 69a1 dd94 30b7 b43f
00000130: 13e9 0a2d 3b3b d13f e4b6 b049 2ef7 cdbf
00000140: dd49 a853 e0b2 b73f 1894 2988 0f9e d2bf
00000150: de5f 800c 68ba d1bf 9b8a f2f8 bda1 ce3f
00000160: a22b 3de4 feaf c3bf bd68 bc2a bf0c c2bf
00000170: 557e 189c 9b54 c2bf fc0a 6748 ff2b d43f
00000180: 04ed ce17 193f c83f 0582 52fb ce69 d33f
00000190: 2d4f 9b50 8465 cabf 62f0 cb90 913f 82bf
000001a0: ffa3 1f1d 4a0b a3bf 72ff 87ea f2ff 933f
000001b0: 2a94 f8e6 791f cabf c60c 0e88 b892 c53f
000001c0: 115b a814 1da5 c13f d22a a14b 2bd5 d73f
000001d0: 7e65 cfd1 9a6e c93f dfe0 bad8 4e58 c63f
000001e0: e8cb 9955 ac9e c13f 8a99 e65f f614 bd3f
000001f0: 3502 944b bfe3 c9bf 6797 a42c e83c ccbf
-0.3528116660663507 -0.08210259678083923 0.254177015818746 -0.30620976979130266 0.03993606502208659 0.17274134369723448 -0.3290094600600129 -0.10332478221712615
0.2518799295620957 0.2368903279741672 0.23966430356515733 -0.007789239706427928 -0.36151109825132655 0.2891614204017643 -0.09025273778878948 -0.20913762180682904
-0.09630049545089386 0.16733274332471898 -0.2809151256305193 -0.2416937873098042 -0.10307641714988844 0.21260515105280367 0.15313711886237757 -0.3800670326338141
0.35389403570967304 -0.026369127679615804 0.3017278895405397 0.11231751024950053 -0.384955043174999 -0.353295333235981 -0.030263414991271585 -0.3670138472597003
0.23072598400897643 -0.08714203188158967 -0.01475319608508189 -0.1836140935338658 0.16585911188982919 0.08092025408189375 0.2692401828641248 -0.23410585973890996
0.09257318537155564 -0.29089725777731834 -0.2770023462376211 0.23931097655902964 -0.1538084616134628 -0.14101399981229248 -0.14320702669009458 0.3151853758865142
0.1894255987407193 0.3033330396956731 -0.20622304855225462 -0.008910310012190507 -0.037195507102133256 0.019531055035258267 -0.20408557680016887 0.16854006427101903
0.137851367079485 0.37238581071566756 0.19868788952480182 0.17456994612235285 0.13765482120251638 0.11360111085250515 -0.20226279440250186 -0.22060873203116246

base.critic.critic_fc2.weight f8 [64, 64]
00000000: 3b0d ddc2 a9aa c1bf 9442 69bf c6d7 86bf
00000010: 8ae6 c60b da42 ce3f 275d a432 79b9 cabf
00000020: 3095 c291 caa8 c13f eb04 6cbf f1f1 ba3f
00000030: 525f 2c68 a16d 853f f794 54b2 90c7 cdbf
00000040: 6dc1 4236 abeb cb3f c244 822b d0fc 96bf
00000050: afb5 568a 2038 cb3f 8b71 3a95 bde7 9cbf
00000060: 22d3 2ea7 53bf 833f 1177 a4a9 6106 b63f
00000070: da46 b76e 4a26 bb3f 7aaf 8898 d8fd 90bf
00000080: b78e 1aba 94ba 933f a309 700c a366 a53f
00000090: dd54 8e31 5536 c4bf 5e02 954c 79cb bd3f
000000a0: eb8a f237 8103 bbbf 3825 bd8d 4f62 c43f
000000b0: 7c3f 9b24 df20 aabf 454d 29c1 89e3 a23f
000000c0: 2b2c 98b3 4da2 cb3f 3483 10fd 821a b23f
000000d0: faaa 0278 48a4 adbf b6c7 c174 357f cd3f
000000e0: f07a d5aa 9514 7ebf 991d e215 7c36 b63f
000000f0: fa91 28a7 4164 a9bf 445a fa2f df0c b33f
00000100: 08cf 67a3 d9f0 b3bf 9fa8 2de6 d03c bcbf
00000110: 260a 2d77 ca05 aa3f 91c8 aa15 ceed ae3f
00000120: f071 6167 0c64 b23f 9964 96dd 9200 d33f
00000130: 901c 013a acac 863f a5c8 7010 d1d3 be3f
00000140: 376b ee1a 7cec cd3f a29d c874 fc11 8e3f
00000150: 8c1f 6379 1853 c63f 4bac a766 ee63 9a3f
00000160: b46e 30fd 73a2 80bf 6b08 6509 7f1b a83f
00000170: 23da 4da8 8d14 b43f 8b7a 7818 c2a8 903f
00000180: 2ba1 e11c 2f8c 873f b5fa 515a 1516 d33f
00000190: f631 bde7 6d7d 7ebf b011 a2f2 3a69 aa3f
000001a0: dd33 f9db e993 c9bf 2926 3ff7 f198 d13f
000001b0: a9e5 b0b9 c731 a0bf d9dc a126 c11c c5bf
000001c0: 3d76 a505 7478 b53f fc9b b348 08c2 c93f
000001d0: 89a8 35a2 bcc0 b3bf 9f9d 2cf9 293c c8bf
000001e0: b8d0 e15f abbc bf3f bb08 5884 c76b c43f
000001f0: 9c8b 8c7a 9877 c9bf 9420 e274 690c a13f
00000200: e59b b416 2e54 bbbf a09c 2bed 5e04 c8bf
00000210: 9975 ff85 2c9d d0bf c3dd 4526 6c37 913f
00000220: f8a7 8866 0c71 b0bf 7cb3 994d 60f8 8e3f
00000230: 6942 a4db a5fb 8cbf 9dd6 3f3a b573 813f
00000240: 2cb8 77e9 ef3b adbf 29cc 1bdf ff60 acbf
00000250: 7b0a e790 c5b5 b6bf 4916 55c2 8a97 b1bf
00000260: 2593 7ce5 ad6d ac3f 52cf ecdb b4f1 cd3f
00000270: 48ad 3072 2243 b63f 37af bc00 a990 b53f
00000280: 56ea fd12 b1df be3f 1a62 2a18 b032 a13f
00000290: d797 a8c0 9dc5 96bf 2cd5 bec1 82d3 8a3f
000002a0: 5e5d 75f5 2319 9d3f c267 8e94 ea6e 6ebf
000002b0: 51e3 8e7f d906 ba3f 92d7 f210 8215 afbf
000002c0: b0cb ae2b 8523 923f 82b9 12a9 8a2b 923f
000002d0: 7651 153c 3372 c0bf e52b 594c 22a9 bbbf
000002e0: d986 12d8 0500 bfbf 42aa 8e7d 5756 d53f
000002f0: 941c aa99 d405 bb3f 2171 06db ae03 aa3f
00000300: 2d69 699d 6ed2 b63f b3ee 6a8d 5415 cabf
00000310: a767 5527 ebc7 bebf 3b9a ba7a 6ff7 c2bf
00000320: dd82 6a24 4676 d23f 8537 ecc4 1a01 50bf
00000330: bffc 0881 c7d8 b53f 6db6 4cc9 60b6 b5bf
00000340: 35e9 533e c99f bf3f df67 4727 dded c6bf
00000350: a330 3cd5 5c1f a8bf 7993 6669 05e4 b63f
00000360: 6a5f 8e5a b7df bc3f bfee 56d3 5ad4 d13f
00000370: 9b91 6545 a81d c53f cd71 9efd 5d84 aebf
00000380: a560 0658 d325 a03f d4d4 c149 3957 c3bf
00000390: 13f2 783e 9af5 9f3f 7d27 8100 5e5c 73bf
000003a0: 334d 3cb7 3482 cdbf 47f6 8133 a174 cd3f
000003b0: 6c84 1894 5521 bbbf 5038 6275 4579 d13f
000003c0: 36a9 29cf 20a6 c93f 5da5 0603 0e5e c2bf
000003d0: a4d0 5226 5c86 b43f 9e78 a15a 1ca0 b53f
000003e0: 77ae 20f7 0234 c7bf 65d0 d9a5 deee af3f
000003f0: 3108 9939 fd22 afbf a015 2413 8a1a c0bf
00000400: 77bd 52b6 22d6 f13f b6f6 98bc 67ba c2bf
00000410: 2c6a 9a76 d55e e2bf 0d9a e7c2 350e e43f
00000420: 0caf cf0b c126 bcbf 8d66 5792 00e8 cebf
00000430: b537 e8d0 ac6d df3f dd3b b99b bb9f e03f
00000440: 8fee 1f87 08bd d9bf 567a edca c605 c6bf
00000450: 8661 abf1 74fd edbf 54da 04c3 16d4 ab3f
00000460: 3a5e 8e46 b259 f93f 0faf fbfc bb01 ebbf
00000470: 0018 f2ea aa1c e0bf f2a8 a8e3 4ba1 853f
00000480: cac9 efb2 6440 cabf fc10 6098 2224 a0bf
00000490: eb9a 22cd 302d db3f b729 bfad d85d dd3f
000004a0: 4613 dc7f b843 dc3f c971 e2b6 302c eebf
000004b0: 19f1 d211 e23d c93f 1f71 f98e 5696 ea3f
000004c0: 1ed0 2d4a 94ee e1bf 977f d571 250d bbbf
000004d0: 9447 3484 3316 cbbf 033c 229f 28eb b3bf
000004e0: 8de3 45ad 7064 ee3f 8208 4ba0 707c a13f
000004f0: a1d3 98af 9f82 d23f ab8b 528a eb95 e43f
00000500: 9fd8 ae61 87c4 c7bf aba7 50fb 3a38 d83f
00000510: 0715 7066 ad78 d4bf 8a0d a49c 1799 a83f
00000520: 14f9 c5a3 e5d1 e0bf 1f2f 4c28 1b5f 673f
00000530: 951f b936 5776 843f cd13 7188 0e7c e93f
00000540: 449f acc6 d3d4 c03f 6d53 87b5 2145 cd3f
00000550: e440 81fb 28a5 e03f 0ad1 d44b 6ea0 e2bf
00000560: 72ee 87e6 b525 e0bf 8ca5 5100 6256 d53f
00000570: b147 58b0 c566 e13f 7460 8a7d 34e6 f4bf
00000580: 28cd d016 77ae e3bf ff64 1dc1 b13f eabf
00000590: e9b7 ebcc bacc d73f c4ec 9036 2f4d b73f
000005a0: 005f 1a08 2641 dc3f f270 ed29 3fbd d73f
000005b0: 65a0 4b6d cdab bb3f 2457 060c f0e7 c8bf
000005c0: fdb5 24e7 c000 cf3f 10e7 be32 8660 f7bf
000005d0: d3f8 d06b 2eef bebf 76f7 11b1 d393 b0bf
000005e0: 5982 8246 486b d7bf d157 5cac f3b4 c0bf
000005f0: e26b f415 9d5f d73f 2cac bb6f fb24 d23f
00000600: 211e 887c 1845 c5bf 107d 32b1 913e c3bf
00000610: 2bbd 8659 c999 c6bf 2bf6 17a5 2f3f d6bf
00000620: 494d 79d6 a0b1 dbbf a104 3634 88fc e23f
00000630: 9791 ed7e 61ff c43f ebbf c53c 7b7f c6bf
00000640: e409 43f2 c4f3 c73f 7fbf 80c3 3a54 d93f
00000650: 18fa eeb8 a127 a33f 1442 7c0f b201 f33f
00000660: ca08 d545 d8be b13f 2575 7e0c eba4 c4bf
00000670: 1252 ac3e 1c8f b63f 5cc0 06f1 560b d73f
00000680: d46b eada 762d e1bf 9988 da72 2d51 a2bf
00000690: 8d3b a37d 1d37 b0bf f0e9 7020 481d d9bf
000006a0: 0fcf 33de d881 cb3f 00d0 df97 09ab d93f
000006b0: fbca 74bc 3529 bcbf 3b73 acd3 5e91 cd3f
000006c0: 583c 0935 762f 97bf 9679 bd5d a7ca a73f
000006d0: 0072 9392 e54a 773f 265a 8fd0 9ac1 e33f
000006e0: 387c ac62 d54c e0bf d144 5c50 100e dbbf
000006f0: 39b7 0bef 45e3 c9bf b574 5f4a 43f0 d6bf
00000700: 2141 45be 68dc c6bf b866 159b 170f c23f
00000710: 805d 742f 237b c9bf f3ad c97a 9bb9 d63f
00000720: 055d e6b0 4346 93bf 8a20 3f82 c348 b2bf
00000730: bc6e ebd4 d889 df3f d2d4 b7ed 16d2 dfbf
00000740: 79ec ae9d f7ad f13f 716f 182e 905b a8bf
00000750: 68b1 15e9 951d dd3f 255d 5617 4686 b43f
00000760: 80be f5f7 6440 d7bf a3a3 5e23 854d e23f
00000770: 77a7 2dd1 f7ad bbbf 7c97 028b a338 de3f
00000780: 517f 8ffa f421 d9bf cd86 0e61 1f0d d63f
00000790: 924c 20ab 9ac8 c9bf ef29 07a7 0d9d cdbf
000007a0: d3d2 1335 d0bd e13f b671 5304 e801 d1bf
000007b0: 0851 bcc4 ac2e c23f bc4b cc0a db4e e5bf
000007c0: 57b5 0ddb 1ddf f13f be5c 17b6 62cb bd3f
000007d0: 3a1c 4956 5117 e13f acb2 d5b9 3d07 843f
000007e0: a5e1 946c 41c4 e23f 6698 ca1e bf3a e4bf
000007f0: e56f 1015 1af5 dc3f 331a 4210 65fd c0bf
-0.13802072539156449 -0.01115374824181118 0.2364151532654442 -0.20878519985920116 0.1379636012763199 0.10525427745234921 0.010463009826295586 -0.23265274722613302
0.21812954091502537 -0.022448780685014887 0.2126503634912473 -0.028227770074055008 0.009642270602719775 0.08603487388287713 0.10605302050614843 -0.01659334593766413
0.01926643739592634 0.04179868246866938 -0.15790810508466438 0.11638601417235736 -0.10552222839264018 0.15925020619241947 -0.05103204080444265 0.036892227963699877
0.21589061040171606 0.07071703604061669 -0.05789400544138874 0.2304446048834145 -0.0073438497905431305 0.08676887068042162 -0.049593021063888146 0.07441515847526953
-0.07789383162872465 -0.11030297870243765 0.05082543091568352 0.0604080583047032 0.07183911823216937 0.2969100154819642 0.011071534652854959 0.1204195656908121
0.23377944293027905 0.01468274337191994 0.1744108765326441 0.025771832480966855 -0.008122354664059507 0.04708477964096932 0.07843861922251753 0.01626876139027415
0.01149784857644017 0.2982228643449319 -0.007443837468440231 0.05158409320668811 -0.19982646218195912 0.27496003289397436 -0.03162979261146443 -0.16494001756993873
0.08386922014093386 0.20123389768488653 -0.07715968094058402 -0.18933605829918762 0.12397261706229556 0.15953916513541863 -0.19896226867521427 0.03329782058523381
-0.10675323538144672 -0.1876333864267723 -0.25959313474398865 0.016812982402795173 -0.06422498229281348 0.015122177475143543 -0.014151855245047433 0.008521476593141225
-0.057097909211606485 -0.05542754744046647 -0.08871111667307645 -0.0687185978359476 0.05552428652143807 0.23393879641082066 0.0869618920120746 0.08423858898157453
0.12060076440494902 0.03358984274854411 -0.022238221057840093 0.013098737275735482 0.02841621575984498 -0.003714998402256393 0.10166701664173884 -0.06071096856014359
0.017713623801409006 0.01774422318401881 -0.12848511155847192 -0.10804952968571475 -0.12109409833149289 0.33339488278821616 0.10555771590780899 0.05080934928557413
0.08914843886433195 -0.2037759485736977 -0.12023801527303012 -0.1481761311781201 0.28846887165313523 -0.0009768258493667314 0.08533903980513723 -0.08481411852400252
0.12353189250635384 -0.17913402955929222 -0.047114277867963204 0.08941682646998385 0.11278863869517655 0.27858610762244135 0.16496756924165087 -0.05960363121923571
0.031538586135128534 -0.15109935857223056 0.0312103367452768 -0.004726760096739 -0.23053606936501012 0.23012175574324287 -0.105977390915102 0.2730268141102714
0.20038232913368298 -0.14349532268287649 0.0801751702845786 0.0844743462816688 -0.18127476755886437 0.06236930632158603 -0.06081382110689083 -0.12580991682640974
1.114779197883619 -0.14631363591063512 -0.5740763966053399 0.6267346197826683 -0.10996634043084103 -0.2414551462705287 0.4910690345867537 0.5194986382938357
-0.40216267772459785 -0.17205128582550583 -0.9371895523172931 0.054352484994912104 1.5843985324953693 -0.8439617100789024 -0.5034994686873233 0.010561554799171511
-0.20509012925283648 -0.031525689220901015 0.42463321717006747 0.4588529297585881 0.4416333435659009 -0.9428943225826113 0.19720102186500624 0.8308518211811452
-0.5603734444434882 -0.10566934613370758 -0.21161502795490306 -0.07780698666668688 0.949760759757838 0.03415252644255508 0.2892226424040079 0.6433007909403065
-0.18568508405377757 0.37843203108297513 -0.3198655605668396 0.04804300105208899 -0.5256221960733307 0.002852967302151912 0.009991341931836742 0.7963936486127011
0.13149497223752793 0.22867223132802952 0.5201611435132034 -0.5820838433342328 -0.5046033384855504 0.3333973887552808 0.5437954372630341 -1.3062024024893875
-0.6150470204942495 -0.820275189568889 0.37187070857805665 0.0910214908807801 0.44147635260877394 0.370925703949765 0.10809024732918855 -0.19457817637583574
0.24221049581812784 -1.4610654814009116 -0.12083711750253494 -0.0647556597995996 -0.36592299352381513 -0.13052221218157325 0.36521079200764295 0.283507212747909
-0.16617113190317048 -0.1503469577046208 -0.17656819220926798 -0.34760657427236435 -0.43271656937323094 0.5933266658540967 0.1640436048284186 -0.17576542346387156
0.18712674931710105 0.39576596347887255 0.03741174108971651 1.1879139523408684 0.06931831078421449 -0.1612829028135049 0.08812119035821578 0.3600671151898547
-0.5367998386094492 -0.03577558543226295 -0.06334099118542565 -0.3924122158820458 0.21490012025571345 0.4010642989298958 -0.11000381327611912 0.23099885306955933
-0.022641989695611237 0.046468000595939404 0.005686661498853329 0.6173833917080784 -0.5093790938589171 -0.4227333817262436 -0.20224832698971243 -0.3584144808099368
-0.1786013535552309 0.14108557770196284 -0.1990703565322569 0.35507857314107055 -0.018822724983320622 -0.07142278604362864 0.4927885131162204 -0.4971978494134649
1.1049724730972044 -0.04757357180298428 0.45493076097661467 0.08017385549316154 -0.36330532278859806 0.5719628992857121 -0.10812329155819876 0.4722069604416601
-0.3926975676422347 0.3445509383983392 -0.20143445354242268 -0.23135538726485502 0.5544205700558343 -0.26574135229546003 0.14204940420371082 -0.6658759318255458
1.116971831968234 0.1163846678313005 0.5340964017167444 0.009779436334349377 0.5864569779142143 -0.6321712113756461 0.4524598317818785 -0.13273299497468968
