results/fruit-tree-v2/cmorl-ipo/1/final/EP_policy_150.pt (torch, 78232 bytes, 13 tensors)

base.actor.actor_logstd f8 [1, 2]
000000 00 00 00 00 00 00 00 00 00 00 00 00 00 00 00 00
       0.0 0.0

base.actor.actor_fc1.weight f8 [64, 2]
000000 78 71 2f 9a 81 11 c2 bf a7 0c 42 79 58 39 e6 3f
       -0.14115924862461404 0.6945001953430577
000010 5d 38 45 bf d6 5f 9e bf df 56 3b de a3 02 e9 3f
       -0.029662471222131937 0.7815722790207608
000020 34 da 66 3b e4 a9 c4 3f b8 c2 e4 21 63 5a d6 bf
       0.16143467808224587 -0.3492667990677023
000030 16 74 9d 21 cb dd d2 3f 12 e4 26 6f 29 9d d2 bf
       0.29478719980926493 -0.2908423982112832
000040 1b f3 79 f1 06 3c c3 3f 66 5f 10 bf 67 93 e6 bf
       0.15026938238943263 -0.7054938060491451
000050 ba 26 1a c9 89 c9 c3 bf b6 c0 cf b1 0a c7 be bf
       -0.1545879585212811 -0.12022463646985923
000060 f5 58 1b f4 9c fd d1 3f 0b 1d b8 95 6d 81 dd bf
       0.28110431517178763 -0.4610246622182365
000070 38 9a 75 ce 88 97 c2 bf 03 5f 21 08 3e 32 b9 bf
       -0.14524946290039664 -0.0984228868340971
000080 39 27 f9 05 e7 9a d2 bf d2 8a e9 00 76 b1 bb 3f
       -0.29070449431729944 0.10817658922455145
000090 e9 23 15 4e 1c 93 d5 bf 89 9e 42 e2 9c 20 d7 3f
       -0.33710391640903353 0.36136552901960123
0000a0 f5 c7 75 84 f0 f4 c3 3f 65 9a fa 0d 4c a5 df 3f
       0.15591246097352465 0.49446393361214397
0000b0 44 78 c4 73 d8 12 c6 bf e0 b5 cf e5 a9 0e cb 3f
       -0.17245011952121747 0.21138499947794198
0000c0 46 d9 57 bb 22 f1 d2 bf e7 72 c9 b0 80 e5 c6 3f
       -0.2959677533648527 0.17887886650250737
0000d0 b9 b9 50 cc d8 5d d4 3f 73 85 80 7c 06 16 c6 3f
       0.31822795822781874 0.1725471599502658
0000e0 61 26 e6 8b 70 b4 c5 3f d6 a2 c2 6d b9 c7 e4 3f
       0.16956908064848888 0.6493804115062527
0000f0 f2 26 84 da 54 ab d2 bf 61 05 1c da a7 0e dc 3f
       -0.29170724238848245 0.4383945112204711
000100 a4 34 00 5b 62 49 c2 3f 1d 48 59 44 1c fa ce bf
       0.14286450808905216 -0.2420077642187274
000110 80 1a 55 ef 1d 8d c4 3f 42 3a 6d f3 36 b7 e0 bf
       0.16055654703287203 -0.5223650698115494
000120 0e f6 5a e3 ee 5e 70 3f 7c 26 a9 97 1a e9 e2 3f
       0.003996785313288521 0.5909550630687614
000130 7b 79 b3 d9 8d a0 c2 bf fe ce ec 4c 24 10 db 3f
       -0.14552472238478828 0.42286021721086786
000140 ff 74 ce 6c ce d6 c3 3f 4c 0b a4 a0 bd af e6 bf
       0.15499286949935961 -0.7089527261272024
000150 0f a4 4e 33 71 80 d0 bf b4 2d b5 72 25 de d3 3f
       -0.25783948908298354 0.3104337330048239
000160 bb 0e c3 84 d1 7b ce bf 51 ad 17 89 7e 83 c6 3f
       -0.23815363867298864 0.175887886943523
000170 60 2c f9 2a 59 42 ce 3f 61 6d 8a a1 37 26 cd 3f
       0.23639978979403775 0.22772879970294027
000180 7d d5 56 55 5a 0d 8d 3f b2 ed 36 b5 07 eb d3 3f
       0.01418562481817775 0.3112200994180184
000190 23 7e 7c 0b a9 7f c8 bf 40 74 f8 d5 69 a0 d3 3f
       -0.19139588414053418 0.3066658582263848
0001a0 e4 ac f9 de b8 93 c0 3f e9 c5 e7 1e 1a 83 e3 bf
       0.12950812232461495 -0.6097536662693389
0001b0 de 54 b5 0a 82 70 dd bf 59 cc 5d de 62 20 ce 3f
       -0.45999194188818915 0.23536334855779975
0001c0 3a 51 c4 5a eb 0c d1 3f e7 1e 6d 35 df 7e bd 3f
       0.2664135347743187 0.11521716169692874
0001d0 dd ee b2 f5 60 e7 da 3f c6 7b da a3 81 d9 d7 3f
       0.4203722381023292 0.37265053750337207
0001e0 3b fe b3 5b d7 04 b2 bf cd 9d 45 10 74 1a e9 3f
       -0.07038637150616804 0.7844791715442
0001f0 1e 6e 45 62 2a ec b1 3f 6c c0 ae 78 a0 e2 e8 bf
       0.07000985049438 -0.777664409359216
000200 cb 9a 66 88 14 27 b3 bf 96 4c a1 d3 89 65 e3 3f
       -0.07481506662461894 0.6061448224449062
000210 c8 0d 2e e8 d4 6e 73 bf 73 53 53 f9 27 bc e9 3f
       -0.004744369190010152 0.8042182798040883
000220 0a a0 e5 7a 96 91 9a bf f0 6f 44 30 29 62 e2 3f
       -0.02594599843124005 0.5744825308534001
000230 f1 ea 4a 03 53 c2 cb bf 84 c0 78 1f bc e6 dd 3f
       -0.21686780606054115 0.4672079379406642
000240 2c 98 51 e9 67 92 dd bf 1a 04 fe f7 bc 32 d8 bf
       -0.4620609072211461 -0.3780968114661519
000250 ed 5b 30 a0 cf 4a bd 3f 02 90 1b 1c 6b 0a e4 3f
       0.11442277584897882 0.6262717770555357
000260 f1 95 e2 b6 6c 07 9e bf 72 0d 04 c3 d2 ee e8 3f
       -0.029325197851582222 0.7791532334235127
000270 ff 23 54 53 f0 1d 4b bf f1 af f0 bc 73 ca e3 bf
       -0.000827543589054902 -0.6184633913267118
000280 0c c4 51 10 ee 37 cd 3f 5c f7 b5 31 fb 8c d8 bf
       0.22826934620709982 -0.38360481123515
000290 ba 4e ec b8 1a 45 63 bf 71 34 7e d5 70 0d d8 3f
       -0.0023522874756823605 0.37582035874294833
0002a0 40 de b3 ef 3f 36 a7 3f b2 88 5b af 08 2b c5 bf
       0.04533576775605441 -0.165375791190916
0002b0 39 71 68 63 07 b0 c3 bf e5 86 1e 89 92 70 e5 3f
       -0.1538094745054737 0.6699917486295958
0002c0 e4 d5 ed cc 0b 32 cf bf 85 64 31 27 19 3c d3 3f
       -0.24371478563595794 0.3005431063407474
0002d0 08 50 00 1d 23 de bd 3f 3b 4e 7e 0a 4f 0c d9 3f
       0.11667079408681513 0.3913762667154718
0002e0 8d e2 2d b7 9a ee bb bf c5 9c 4f 56 a6 3b e2 3f
       -0.10910956356191033 0.5697814641725009
0002f0 91 27 f7 f7 eb b3 c2 3f 31 68 e0 8f 50 ff d6 3f
       0.14611577613532892 0.3593331723255942
000300 b9 8a e3 0b 6e 4b ce 3f 17 b4 02 20 49 04 d3 bf
       0.23667693691739602 -0.297136574993432
000310 43 0c fa f5 02 80 d9 bf a7 9c da 66 9d 65 cd 3f
       -0.39843820592085794 0.22966353914418855
000320 a1 6b e7 72 92 d0 d0 3f e0 b4 c2 78 c7 c9 d6 bf
       0.26273022862522494 -0.35606562417053844
000330 49 6f 0f de f2 10 8b 3f a4 73 4b 47 c6 d3 d7 bf
       0.01321592083143454 -0.37230069124580667
000340 80 ca fe fa 4d 90 92 bf 92 ef 0d 00 27 43 ea 3f
       -0.018128603405509924 0.8206973076880664
000350 d1 59 37 40 bf 23 ab 3f ed b8 ef 2a e3 9b ee 3f
       0.05300710352792105 0.9565292204477182
000360 57 d0 8a a4 16 2c db bf 61 3e dc 94 03 7b c7 bf
       -0.42456594532564423 -0.18344158905573507
000370 b6 7e a8 44 93 3a 82 bf 22 a6 cc 2a 0a a4 c3 3f
       -0.008900785954267004 0.15344359483542386
000380 ac 62 c8 0f 96 e3 c5 bf 7f 6f 62 89 2c 54 dd 3f
       -0.1710078789772259 0.45826257149177957
000390 68 f1 f3 b2 8f 0e d8 3f 50 52 03 47 d5 a7 dd 3f
       0.37588875270718924 0.4633687203870851
0003a0 8c fd 3f c7 43 a9 c8 3f 63 e0 48 f6 74 3d e0 bf
       0.19266555050851897 -0.5075020609138047
0003b0 65 a6 ad f0 55 07 ca bf 87 24 fa 87 7b 20 b5 bf
       -0.20334886791106324 -0.08252689428094771
0003c0 57 4d 1d 5b 94 62 ae bf ee 87 7e 5f d8 bc a6 bf
       -0.05934585201489522 -0.04440952459050594
0003d0 c2 06 70 bb 50 04 d7 bf dc a3 4e 72 b2 44 d1 3f
       -0.35963838867619924 0.2698179355889445
0003e0 f6 49 35 e0 83 fc ba 3f f9 2a 95 85 f7 51 e2 bf
       0.10541557525474574 -0.5725057229077201
0003f0 79 ad 52 24 33 42 c1 3f 62 57 13 34 dc 08 de 3f
       0.13483275674421316 0.4692907818365396

base.actor.actor_fc1.bias f8 [64]
000000 21 e3 bc 49 0a 23 c4 3f 90 28 07 6b b0 b6 a4 3f
       0.15731934166412834 0.040456307473122455
000010 65 54 7c 56 e1 30 cd bf 49 e4 d0 14 43 de d3 3f
       -0.22805420611317398 0.310440798118695
000020 9b 09 df 2f 5e e5 82 bf a2 1b ba f8 b8 d2 cb bf
       -0.009226547084726635 -0.21736824173805497
000030 1d a4 22 70 2b 11 cc bf 70 68 82 e4 4e 2f d1 bf
       -0.2192739770446516 -0.2685124618088883
000040 3a 51 dc 68 53 43 bc bf 32 e4 7f 1e b1 6a c3 3f
       -0.1104023104674682 0.1516934775279722
000050 72 d2 12 ff 75 cf 97 3f 32 8c 6e 60 05 3f cd 3f
       0.023252338117077227 0.22848574837289132
000060 35 d6 2b aa 42 59 b1 3f 58 25 a1 19 e9 4b 63 3f
       0.06776825575419639 0.0023555329071639867
000070 bd e3 a7 b7 94 a7 7b bf 28 77 1b ae a2 b1 bb 3f
       -0.006751614501347922 0.1081792521540278
000080 02 e8 6a 9a 7a db ca bf 81 de 08 a0 4d 04 c9 bf
       -0.20982296504899983 -0.19544382394973428
000090 5f aa 51 9c 71 a9 c0 3f 78 55 ce 8a 20 7a cb 3f
       0.13017101414455376 0.21466452386509238
0000a0 41 33 97 59 5d c9 be bf ad 44 dc b1 d9 dd b7 3f
       -0.12026008069296969 0.0932289180020855
0000b0 1d ca f9 79 46 3b a7 bf 19 30 06 96 21 31 c5 3f
       -0.045374109639755945 0.16556186509512896
0000c0 94 99 f0 25 04 46 d5 3f 9f 4a 77 2a aa 41 ce 3f
       0.33239844994604906 0.23637892793211265
0000d0 99 33 d4 5e 3f 1e aa bf 91 04 36 11 0e 67 cd 3f
       -0.05101202042178627 0.22970748749142847
0000e0 f4 f7 dd fb 46 79 ca 3f 83 23 f2 33 c4 25 9a bf
       0.20682608888813514 -0.025534692450068796
0000f0 e3 91 27 e0 54 37 4c bf a1 dc c1 02 ce 53 bb bf
       -0.000861088221708214 -0.10674750869098883
000100 44 46 d7 1d 29 73 b5 3f 19 a7 89 16 9c 5d 98 bf
       0.08378846148050295 -0.02379459273871651
000110 29 ac 45 ee 21 3a c5 3f f1 d0 9f ed ff 2c c0 3f
       0.1658365643919251 0.12637328245876447
000120 51 ab 43 c7 68 e4 94 3f 2d 74 37 d0 c5 9d cb 3f
       0.020402562296037378 0.21575234095408416
000130 3e 8d 81 02 9a 7a a0 3f 96 9b 9f 36 0f 91 c5 bf
       0.032185375982204154 -0.1684893624035026
000140 b0 f8 78 0c c9 5c c6 bf b5 76 cd 7a 33 9c d1 3f
       -0.17470658406268091 0.27515875809136087
000150 4e 7f 9b c5 8d 85 d6 bf bc 1f 0f bd d9 36 ba bf
       -0.35190147683714634 -0.10239945283603807
000160 38 b1 a4 34 3f d3 92 3f 7b 0e a4 d1 7a c6 bf 3f
       0.01838396796044714 0.1241223108118507
000170 7b 3c 4e 4e ad 41 c6 3f ff 34 29 78 ec b0 c7 3f
       0.1738793022491086 0.1850867830966436
000180 b1 ee f9 f0 cf 31 ab bf 93 6c c8 b7 83 a5 90 bf
       -0.05311441246609883 -0.016256387798517635
000190 4f 65 fa 46 23 82 c4 bf dd 73 12 fc 15 10 d3 bf
       -0.16022149053314158 -0.29785680405058007
0001a0 3d 12 88 ee a4 d7 89 3f 73 c6 a8 bd 8a 7c ac bf
       0.012618340043453741 -0.0556376797216104
0001b0 f0 e2 8f f0 86 1b a8 bf 79 6d b5 82 54 c9 cd 3f
       -0.04708501516865293 0.23270660764942955
0001c0 7c 7c 54 9f bd e2 d2 3f 43 9d e3 ab de b7 90 3f
       0.2950891548115988 0.016326407662657926
0001d0 14 b5 de dc cf 65 cb bf 61 e6 14 31 48 aa d5 bf
       -0.2140445545641475 -0.3385181884110349
0001e0 78 8c dc 0d ef 55 d6 bf a8 fd 6a ee 02 c7 b5 bf
       -0.34899498323120026 -0.08506792374372785
0001f0 bd d7 e1 23 fc 84 c2 bf 3c ea a7 8e 4b 08 ac 3f
       -0.14468337776241738 0.05475078693776367

base.actor.actor_fc2.weight f8 [64, 64]
000000 75 f6 6b 91 6a 97 c9 3f 58 d0 6a 02 0f 59 bb bf
       0.1999333581988371 -0.10682767685904204
000010 4a fc 8e 44 f8 c0 ce 3f 37 e8 ce ab 19 ab a3 bf
       0.24026397082886525 -0.038414766524013925
000020 1f 81 be 62 e2 30 c4 bf fd 2f f1 17 95 2d cc 3f
       -0.15774183103077008 0.2201410643486951
000030 d1 21 34 29 4f 5d bd bf 04 fe aa 5f 80 cd 9f bf
       -0.11470503574322001 -0.03105736335669286
000040 2b 03 09 53 57 93 c6 bf a4 4e f8 8a 3f ac 9c bf
       -0.17637149385884618 -0.028000824791958437
000050 d0 5a 62 97 36 88 c5 bf 13 be c9 93 98 e1 b2 3f
       -0.16821939842039635 0.07375482185465669
000060 c2 24 47 d1 3f 00 cd 3f b7 34 1e 35 6f 23 c6 bf
       0.22657010763786017 -0.1729563722005076
000070 ae 3e 06 7a a1 e1 b8 bf 40 3d 2d ae d7 b6 aa 3f
       -0.09719285229788951 0.052176227580839285
000080 b5 7f d9 48 29 56 73 bf 16 6b 3e f5 3b 8e c9 bf
       -0.004720841663214449 -0.19965314364238712
000090 c2 4b 2b cd ba 46 cb bf ed 5e 9b 29 49 68 c7 bf
       -0.21309599893592518 -0.18287004977786783
0000a0 bf 0f cc c8 d8 13 be bf 07 d3 6b 70 f9 30 95 3f
       -0.11749033834718058 0.020694634901661704
0000b0 dd 6f 23 7f f4 c0 bd 3f 24 4d 71 46 30 a4 d3 bf
       0.11622551063504667 -0.30689627532156494
0000c0 38 df 2c f1 e2 10 c2 bf c9 70 00 24 d8 37 c6 bf
       -0.14114033485543032 -0.1735792327680257
0000d0 b0 44 f6 44 ca 77 b5 3f b2 c6 00 30 d2 92 b0 3f
       0.08385910209314562 0.06474031135510463
0000e0 9b 9a 11 ae fd 6b d0 bf 36 54 a8 64 02 34 a0 3f
       -0.2565912437334334 0.0316467998383491
0000f0 5b 71 de ae 07 56 ce bf 25 bc 48 a9 2a 3e c6 3f
       -0.23700042761346193 0.17377217546297277
000100 6f dc 08 90 02 58 c4 bf 04 9a 6b 46 7e d8 89 3f
       -0.15893585236492266 0.012619959377343733
000110 73 c4 51 5f b3 59 bf bf b0 5b c9 56 ce 04 b5 bf
       -0.12246247365125544 -0.08210458391964326
000120 88 40 5b 9b d7 92 cd 3f 2b 04 2b 8f 6e 4d ae bf
       0.2310437687469895 -0.05918450830132146
000130 53 1c 23 af 90 02 b4 bf d4 c7 85 9c ef b5 af 3f
       -0.07816414142426824 0.06193493638683348
000140 f3 ea a9 3d e2 ed d5 bf a0 36 c1 57 09 09 c7 bf
       -0.34264427205896125 -0.17996327195071604
000150 41 11 90 bf 27 13 ce 3f f0 7e bd 27 18 96 c5 bf
       0.23495957235003043 -0.16864301624718037
000160 9d 36 bf 29 c8 40 9d bf 06 d4 5f 32 cc 9d d0 bf
       -0.028567435787229745 -0.25963120383613647
000170 df 81 fc 27 46 b3 7d 3f d4 4a 00 71 bf 71 c1 bf
       0.007251047179835684 -0.13628380792268635
000180 a5 75 6c e9 b7 0d a4 bf 4d c1 a3 29 0f 83 6d 3f
       -0.039167163127994876 0.0036025329728703094
000190 74 ea 75 6b 59 40 ad 3f 40 4a d6 1c 7a 42 c5 3f
       0.05713157116675385 0.16609121711788255
0001a0 cd 4a f7 09 48 25 be bf 77 45 00 8b a1 59 ba 3f
       -0.11775636905012306 0.1029301609380776
0001b0 1a b8 0f a0 64 81 d0 3f 51 59 02 d0 93 cd b2 bf
       0.257897526082958 -0.07344936207150467
0001c0 cc b1 a2 85 f1 5a 9f bf 97 62 90 cd 0a 0b b1 bf
       -0.03062035921236532 -0.0665747405877347
0001d0 f2 58 58 6b 02 c1 b3 bf d1 81 c4 63 dc 1e cb 3f
       -0.07716384049158245 0.21187929984536294
0001e0 1a 56 d5 fc 51 c1 73 3f de 5c ed 48 bd ef 8c 3f
       0.004823036445789986 0.01412914160543582
0001f0 30 e6 f7 81 8a 96 cd 3f 80 04 33 b1 83 ce d1 bf
       0.23115664812194003 -0.2782296400510589
000200 8a 2c ca 8f 28 5c cd 3f 1e 85 db cf 2a 7f d1 3f
       0.22937495251639844 0.2733866720064543
000210 c5 0b b1 bd 70 21 d5 bf 3a 3e 6e 45 c3 fc a2 bf
       -0.3301660397011655 -0.03708467695753055
000220 b0 88 f4 54 2f c1 b7 3f 06 1a 64 dc e5 47 82 bf
       0.09279151748754333 -0.008926196850109324
000230 41 4f 66 95 16 62 c3 3f 6d 04 6c fe 09 bd c3 bf
       0.15143091483025198 -0.15420651362368024
000240 fc cf 39 dd 43 ad d1 bf 3b db e5 f2 ad c2 bd bf
       -0.2762002621086592 -0.11625182323574006
000250 51 fe 50 dc ef 05 d6 3f 7d 4e 9e f9 37 e0 cc 3f
       0.34411236300727405 0.22559261024854385
000260 da 72 3a 1a d8 95 c1 3f 62 02 72 2a 9c 56 b7 3f
       0.1373853805606789 0.09116531406653786
000270 46 8f d3 9b 8b 09 dd 3f b3 e5 7b 1e 21 9f bc bf
       0.45370760171339375 -0.1118031215118183
000280 d4 e8 98 68 cf 7d c3 bf 2a 22 50 d5 6d 97 c4 bf
       -0.15227692229547662 -0.16087124744105213
000290 74 a8 bd c4 2f e8 df 3f 63 99 ab ba 30 9e d0 3f
       0.49854654515241426 0.2596551726295699
0002a0 a9 ac 0d f2 98 32 8f bf 18 75 82 88 cc 14 b8 bf
       -0.015233225714572933 -0.09406736691240203
0002b0 ab 87 67 20 22 02 b7 bf df d8 d3 46 95 cf b4 3f
       -0.0898763016807879 0.08129246691882795
0002c0 fe e0 7d b4 29 6e cd 3f 86 b6 91 00 3a 5b c6 bf
       0.22992440522262564 -0.17465901401321932
0002d0 02 3a 07 eb 3f 7a bf 3f f7 90 cf 85 d2 16 b2 3f
       0.12295913208001966 0.07066074149003386
0002e0 fb cc 0d d8 ad dc aa 3f f5 7c f6 c1 b2 ac d3 3f
       0.05246489775063342 0.3074156660240555
0002f0 d5 1f d6 cf 53 fd ba bf aa b7 f6 f0 1b a9 cf bf
       -0.10542796920901705 -0.24734830156142823
000300 62 7e 22 01 30 3c d5 3f f2 57 60 a1 a0 3c c8 3f
       0.33179855452360674 0.18935020332054325
000310 18 38 54 f4 be 47 d5 3f 4c ac 57 66 0e aa c1 3f
       0.33250402317287486 0.13800220486823134
000320 c4 63 29 df 63 d0 d3 bf 76 70 15 69 6a 53 d9 3f
       -0.3095941237748401 0.3957162882050008
000330 5d 4e 1e ef 07 2b cd 3f df 8a d5 1e 88 f2 b4 bf
       0.227875701672576 -0.0818257403639495
000340 a8 16 69 6c a0 30 ad bf 8f 7e e6 24 f1 d8 cf 3f
       -0.057011616929725506 0.2488080434968549
000350 38 6b bb c5 c6 4a ca bf 6c 54 73 9e 2a 61 c6 3f
       -0.2054069962967675 0.17484028565255316
000360 11 45 5a b4 80 e0 8e bf 8e 79 aa ae 7c 19 e0 3f
       -0.015076642517018376 0.5031112109607407
000370 d0 25 91 c7 26 e1 ba 3f 70 1e 78 3e c0 77 e1 3f
       0.10499803898087312 0.5458680362798543
000380 c1 82 95 d1 3e 18 b4 3f c3 0c 24 54 eb 78 b7 bf
       0.07849495522305984 -0.09168883136958343
000390 ae a5 d6 9b 26 97 a1 3f 8d 59 8f 49 25 44 cd bf
       0.034356314204454605 -0.22864214031023913
0003a0 ce f4 e1 61 ef cf d4 3f 5f 75 be c1 59 01 8b bf
       0.3251913505444691 -0.01318616983899784
0003b0 a5 d3 3e a9 7c 50 cf bf 09 06 aa b2 d4 9a b3 3f
       -0.24464376701294302 0.0765812812988075
0003c0 71 31 0b cc f8 c5 c2 3f 0e 29 c2 83 e1 3a cc 3f
       0.1466666218096964 0.22054690297620322
0003d0 01 18 40 00 1b 0f d3 bf ff cf 8c f4 83 a9 c6 bf
       -0.2977969648785575 -0.17704820099754667
0003e0 65 80 9d 06 f2 37 b0 bf e5 0a 5f c9 b5 40 c6 bf
       -0.06335365926270382 -0.17384979565220884
0003f0 a3 d1 02 6c cf 8c b8 bf 9a e7 fc 87 37 88 e0 3f
       -0.09589859377849179 0.5166280418409201
000400 8e b7 cd 9e d1 dc d4 3f 56 b3 4b 97 db 43 c3 3f
       0.32597771175539314 0.15050835502133947
000410 40 4b bf ac d8 ce d8 bf 37 ab e8 ca cc d8 c4 3f
       -0.3876249014839921 0.1628662100568705
000420 48 b1 58 bd 9e 1f cd bf 37 92 71 d4 f4 c4 92 3f
       -0.22752746816093805 0.018329453913241003
000430 59 32 69 48 c2 1d d3 bf b6 36 13 80 1a 96 89 3f
       -0.29869134017352433 0.01249333098749204
000440 ef 5f d4 58 cd 9c 7f bf a2 e5 5d 13 1f 82 b9 3f
       -0.007717897545511206 0.0996417448312941
000450 61 4e 17 25 20 03 c1 3f 1a 6e 6f 9d 70 9e bc 3f
       0.13290788470350193 0.11179260104784597
000460 4e b9 a5 7d 4c 03 c9 3f df 69 d0 32 76 b3 be bf
       0.1954131711494917 -0.1199258684213542
000470 99 86 ae 8c eb 6b 71 3f bf 80 96 59 e6 44 c7 3f
       0.004253311267264381 0.18179015516671446
000480 44 4e 8e 5c d9 2d cc bf 29 6e b5 c4 03 d7 cc bf
       -0.22014920253114856 -0.22531172852437578
000490 f9 7c 57 2f 63 44 91 bf 55 d3 33 35 bb 0f db 3f
       -0.01686243988467326 0.4228351611666786
0004a0 db c3 99 32 cd ea ab bf 25 a4 7b b6 75 6f ad bf
       -0.05452576868709232 -0.057490995908502186
0004b0 ad a9 a1 43 88 27 c2 3f c3 1a cc 4c f0 e3 ab 3f
       0.14183142950362307 0.054473409056347254
0004c0 ea 8b f8 05 14 a5 b7 3f 10 3c 99 27 fd 2f cc 3f
       0.09236264367841299 0.2202145045616537
0004d0 78 d3 28 21 ac ff bb bf 71 38 24 7a 0d e9 c9 bf
       -0.10937000093038118 -0.20242470230045087
0004e0 b1 ae 6d 9b 1e c2 b6 bf 03 fe fe 8e c0 61 9e 3f
       -0.08889952940597358 0.029669769981181215
0004f0 d6 d3 4f 5a be b9 da 3f 85 08 ae 4b e0 1b da bf
       0.4175868875457217 -0.40795142546279123
000500 09 a4 09 eb 63 4a b0 3f 9f 75 aa f7 39 49 c8 3f
       0.06363510597442724 0.1897346934610313
000510 7f 48 96 ad 2f d0 c6 3f ca ce f3 db fe f6 87 3f
       0.17822833991937512 0.011701575362600098
000520 8c 65 ef 8e 2a 58 b8 3f 50 07 b2 ad bc b8 cb bf
       0.09509531011226197 -0.21657522660467032
000530 df 02 b9 46 0a 95 a9 3f ef f2 bd 87 f6 6b 99 3f
       0.049965211041586015 0.024825908694299178
000540 f8 ca 3e 26 96 b3 d6 bf 40 8b 2a 46 f7 19 a7 bf
       -0.3547110913743121 -0.045119979205330285
000550 df 90 c3 3e 01 a0 bf 3f 30 c4 94 00 92 16 8b 3f
       0.12353523046801083 0.013226643221601803
000560 89 e3 62 51 b0 9b a6 3f 8a 2a 19 b0 8b 52 bd bf
       0.044156560835694476 -0.11454079674983056
000570 13 4d d4 c9 39 c2 d1 3f 06 6b 58 6b 47 e3 6b 3f
       0.2774795981396931 0.003404273501258162
000580 fe 25 d1 d8 a4 5f 9c bf dd e9 56 57 63 32 bc 3f
       -0.027708602651079765 0.11014386064827116
000590 0f 45 73 6a ef c7 b8 bf b7 dc 72 07 a8 fa c0 bf
       -0.09680076931842428 -0.1326494251604566
0005a0 29 67 83 6d f6 b9 b3 3f b4 61 a6 46 f4 86 d0 bf
       0.07705631421722771 -0.25823695086867393
0005b0 52 00 b0 e0 11 77 be bf f1 d8 92 d5 6f 07 ce 3f
       -0.11900436149153507 0.23460195473098325
0005c0 24 75 2d 9d 5c 0f bd 3f 9f 99 0c 8a 21 23 91 bf
       0.11351565205901132 -0.016735576678138405
0005d0 b0 95 95 35 88 6d d5 bf 2e d9 07 1d 41 00 99 3f
       -0.3348103068622903 0.024415032765284277
0005e0 7e 2c d6 2e 8f 1d bf 3f 98 4b a2 8f df a0 c1 3f
       0.12154478925201492 0.13772196305634732
0005f0 5e 09 54 ab e8 23 b0 bf 8c a8 50 48 6b 58 a3 bf
       -0.06304792578524629 -0.03778395898582784
000600 31 de 90 e8 59 22 a7 bf 99 ea 59 86 fd 23 ce bf
       -0.04518395389498798 -0.23547333774680082
000610 ed 07 2d 0c a0 1f ec 3f 7c 4c 28 5d 30 54 cb bf
       0.8788604963121976 -0.2135067419882012
000620 39 7c 5e 4b e8 33 91 3f 97 05 ad 3a 0b f8 b1 3f
       0.016799573517001874 0.0701910990001323
000630 ca f0 ff 04 ef 49 dc 3f 0c c0 fe 45 12 b8 c7 3f
       0.442012553103052 0.18530491273622862
000640 76 9f 4b 7e 2b 63 c2 3f 1b c6 cb 4c bc fc d0 bf
       0.14365142504470513 -0.2654257535897117
000650 8a e8 7a 22 4a 3e c3 3f 5b 67 60 e5 e0 26 e4 bf
       0.15033842738722952 -0.6297459106456061
000660 ed ff 7e 7f 4c 44 c0 bf c4 a2 f5 26 aa ce c9 3f
       -0.12708431458850047 0.20161940481491147
000670 c3 bd 1b ca 5c 6a c0 3f be 7a 70 f9 8c 95 be bf
       0.12824592464992976 -0.1194694622977108
000680 a2 2a 87 f8 ed 0e e3 3f cc 40 a8 8c f2 bc dd 3f
       0.5955724577009571 0.4646574376684043
000690 db 85 21 21 50 f3 9f bf 7c 55 32 85 44 ac db bf
       -0.031201602956917412 -0.4323893833873951
0006a0 4e 7e ac e1 32 3f bb 3f 0a e3 a5 2b 1f 7a d7 bf
       0.1064330864869529 -0.3668287206888158
0006b0 90 0d 18 c0 fd a1 2d bf a0 1e c5 ac c1 a8 ab bf
       -0.0002260801557413092 -0.05402188524254581
0006c0 b5 7f 12 81 af ee cf bf f9 a8 d2 94 3c 33 e7 bf
       -0.24947160532337667 -0.7250044733712279
0006d0 f1 ec 32 47 f8 a8 c6 3f 8b 3a 72 28 34 f1 c7 bf
       0.17703155018339303 -0.1870484540454139
0006e0 5c e6 8b 6c ab a8 c2 bf ed 39 df 93 31 a5 de 3f
       -0.14577238845940854 0.4788326210081369
0006f0 2b 7f b7 ab 4a 74 b8 bf 89 22 ee 53 28 13 c8 3f
       -0.09552447025589277 0.18808464143900874
000700 d5 22 54 18 86 8b b7 bf e7 51 4e dc ea 4a b0 bf
       -0.09197271436654415 -0.06364314917147561
000710 7b e6 87 de 6f b4 cc bf 97 a3 52 ba f0 ba d8 bf
       -0.22425649991764715 -0.38640993304812227
000720 4a 29 21 6e da d7 d5 bf 86 e7 de 64 86 98 94 bf
       -0.3412996364101174 -0.020113086611423657
000730 4b 02 b8 e9 bf 67 ce bf a1 c9 54 fe e5 13 c0 3f
       -0.23754118835496948 0.12560725134387687
000740 eb 5e 4b 54 b0 52 da 3f 53 8a b1 3e d5 fb ca bf
       0.4112969229877154 -0.2108103328819931
000750 16 3a 32 d8 26 f8 c6 3f 5b 8e 97 27 ce 61 c2 3f
       0.17944799000220318 0.14360978062824156
000760 27 16 0c 79 f0 e1 c5 bf 68 ae 71 26 90 da c1 3f
       -0.17095762167461823 0.13948251607085926
000770 fb ef 65 90 bb 1e c0 bf 6f 5b 5a 34 2d e4 ce bf
       -0.12593788672154446 -0.24133839660927545
000780 10 45 8f 7c ad 46 d1 bf b2 2b 50 42 b0 6b 95 3f
       -0.26993882335689623 0.020918611571726316
000790 32 1e 02 4d 0f c0 c8 3f f7 15 eb 51 fb 1e d1 3f
       0.1933611989991149 0.2675159740432202
0007a0 4c 3a 37 29 6f 83 ad bf b5 00 bd 19 2d dd b2 bf
       -0.05764338853952164 -0.0736873805844905
0007b0 f6 5a 46 5b 49 c1 c6 bf 27 39 37 3d a8 c9 c0 bf
       -0.17777363735941493 -0.13115408886955857
0007c0 c8 98 86 e6 de 65 e6 bf 11 29 23 c8 28 f7 d1 3f
       -0.699935388799326 0.28071040672934183
0007d0 d5 43 09 b5 18 f8 e3 3f 19 2d bf 96 8d 55 c7 bf
       0.6240352187979804 -0.18229837284739217
0007e0 78 6f 83 ca d5 56 cd 3f 8d 05 1e 5b 2a f5 ca bf
       0.229212497600084 -0.2106068558605724
0007f0 80 1c 1a db 7b e2 d4 3f 64 1d a1 bc 97 17 95 bf
       0.3263234748523658 -0.020597811592123164

base.actor.actor_fc2.bias f8 [64]
000000 27 c6 ad ad 9b d5 93 bf 7d 9f 36 7a 95 ff ac 3f
       -0.01936953780700015 0.056637450379013445
000010 1f 5f 76 28 be a9 aa 3f fb c1 16 e8 3f fb ca bf
       0.05207628482747694 -0.21079253036943144
000020 e6 48 38 11 55 a4 b3 3f 48 d5 2c b3 ef b4 96 3f
       0.07672626181036754 0.022174592314703007
000030 24 a6 91 e7 e3 aa 87 bf 22 a0 8c d3 22 c3 c4 bf
       -0.011556416038916835 -0.16220507936054768
000040 20 40 44 79 22 ed b6 3f 36 1f 98 67 af 28 85 bf
       0.0895558878003162 -0.010331507061905758
000050 4a e7 4b 78 71 f5 85 3f 3d 2f a6 bc 5e 18 b4 3f
       0.010722052081735396 0.07849685769741384
000060 d8 10 49 66 67 fd ac 3f bd c3 02 f1 d6 e3 ac 3f
       0.056620818363201486 0.05642577831293447
000070 56 6e a3 ee a3 a0 9c 3f 25 df e3 28 2a 15 ab bf
       0.0279565443423578 -0.05289584874293344
000080 65 ea d3 66 5b 40 8e 3f 87 88 cf f5 9f 1a ba bf
       0.014771188808017041 -0.10196876288640243
000090 9d 73 a6 c3 51 f1 8c bf 79 8c e0 87 2a 64 c6 bf
       -0.01413215521170646 -0.17493182787538666
0000a0 a0 1e 4b a1 0c 15 a5 bf 60 1e 50 b0 f2 af b4 bf
       -0.04117621869005217 -0.08080975346103392
0000b0 51 94 0e b1 ec 80 b0 bf 92 f8 41 9d a0 b0 92 bf
       -0.06446723292045077 -0.018251905058143843
0000c0 52 d3 0b 2a 7e ae a9 bf 4c 08 4c 38 f1 12 ca bf
       -0.05015939963587947 -0.20370307206036598
0000d0 0b a6 53 1b 12 ce 81 bf fd c2 01 1b ec d7 b1 3f
       -0.008693829974123287 0.0697009626326341
0000e0 69 09 75 97 07 e7 b7 bf 6e 84 f5 36 57 6b 8c 3f
       -0.09336898276982243 0.0138766111037418
0000f0 40 f5 5a ac 30 f7 9e bf f5 e4 59 52 2f 24 c9 bf
       -0.030239830512745813 -0.19641677399685134
000100 be 67 40 fc d8 ea 95 bf 48 18 1d 17 8b 25 92 3f
       -0.021403684993948728 0.017721341405625674
000110 a1 f2 1a 19 0f 5e b4 bf 52 17 53 b8 80 1f b9 bf
       -0.07956022608682158 -0.09813694477187809
000120 fc 16 bd 38 15 47 cb bf cd 5d f4 83 01 fb c0 3f
       -0.21310677786293997 0.1326600927647931
000130 e7 9b 26 d2 c8 a5 89 3f f9 8d 99 79 7f e0 c3 bf
       0.012523240006727178 -0.15528863370410287
000140 43 63 86 ed c8 f3 b3 bf 15 f4 b1 0f c4 c7 c2 bf
       -0.07793861197423006 -0.1467213703762417
000150 06 4f 73 27 39 2a ab 3f 1d 1a 34 af c9 e8 c3 bf
       0.05305651289532247 -0.15554162077769798
000160 2b f0 c8 c6 c1 3e 8c 3f c7 a0 9e f5 80 d8 c3 bf
       0.013791574362692035 -0.1550446700396206
000170 0f 0d 81 0b 93 6b 80 bf e7 08 fe bf b2 86 91 3f
       -0.008017681873872222 0.01711539551571031
000180 ee 30 70 4d 62 09 a4 bf 40 ae f8 ef 77 c4 cb bf
       -0.039134094193373645 -0.2169332429633517
000190 bf a8 81 45 f8 f9 91 3f 8f de b6 a1 15 b4 c2 3f
       0.017555121652926383 0.14612074276168527
0001a0 71 fb c4 79 29 4d b9 bf bd 87 72 59 ba 4a b4 3f
       -0.09883364889991043 0.07926525768064514
0001b0 45 35 3b 39 69 92 c4 3f 97 ba d2 a4 13 af a8 3f
       0.1607181100320451 0.04821072947503529
0001c0 0c a0 32 8e 24 3e b3 bf 1f 95 82 91 c5 3d cb 3f
       -0.07516697379708165 0.21282262425408136
0001d0 24 c1 f7 2e bf 1a c3 3f 90 58 a2 ff d5 a1 b1 3f
       0.14925374787663614 0.06887567034786657
0001e0 23 f5 d4 99 3b d2 c1 bf 6e 89 77 f1 e6 70 b7 3f
       -0.139228296387878 0.09156649966420158
0001f0 8f d3 c4 8b 63 3c c7 3f 69 07 13 9d ca 0e 8c bf
       0.1815304214921096 -0.013700087469604676

base.actor.actor_fc3.weight f8 [2, 64]
000000 b1 a5 e5 b9 62 3a ab 3f 7c da 52 ee 77 65 c4 bf
       0.0531798221516725 -0.15934657227417748
000010 36 b8 47 bb e0 22 c2 3f a5 f1 96 41 96 0f d7 bf
       0.14168938774622725 -0.3603263512157134
000020 74 30 3d 2f 57 87 c4 3f 37 fd aa 85 41 95 b8 bf
       0.16038026625244906 -0.0960274649942122
000030 9e 60 d3 9f 67 07 cf 3f 78 81 d3 f9 45 6d d6 bf
       0.24241347602833668 -0.3504195155819825
000040 bb c2 4f 29 5b d4 d5 3f 96 e6 86 0d 02 01 cf 3f
       0.3410861876900914 0.24221826229568383
000050 c6 79 67 b7 b8 85 bb bf 6e 97 a9 c0 87 07 c7 bf
       -0.10750917890206954 -0.1799173060164167
000060 f5 7a 47 73 ac 40 a7 3f ed 33 0e 22 c8 83 c1 bf
       0.04541529566971817 -0.13683416045060373
000070 45 0b 56 1f b4 33 c0 bf 3a 81 5a 9f 9d 22 c3 bf
       -0.1265778687485072 -0.1494938877194814
000080 8b 6c 07 55 d1 d6 b4 bf e7 91 51 76 85 7b cd bf
       -0.08140285802748985 -0.230332072041292
000090 9c a1 c4 37 30 92 a7 3f 77 48 2a 75 06 b7 d5 bf
       0.04603720360529737 -0.33929597322379074
0000a0 43 ce 81 ff d8 c1 c1 3f 4d 5c 4c 01 fc 85 c3 3f
       0.13872826076441144 0.15252637923615212
0000b0 10 e3 c7 82 ae a3 cd 3f 7a b1 b0 6b 7b 8c d1 3f
       0.23155766855031645 0.27419934765455134
0000c0 75 b6 06 23 38 7b c7 3f 68 58 54 41 64 56 d8 bf
       0.18344785413994527 -0.38027292613822405
0000d0 23 2b 17 34 1c af b0 3f 00 ca 85 6f 7d 76 c8 bf
       0.06517196914425631 -0.19111602731170763
0000e0 e2 7b f6 eb f2 ff d6 bf 48 d0 b3 84 b1 95 bb 3f
       -0.3593718818974009 0.10775289048962222
0000f0 05 46 16 fa 50 db ba 3f 04 b0 18 b4 f2 15 de bf
       0.10490900140418809 -0.47008960330526883
000100 da ca dd 07 11 ce ca 3f 1e 77 4d cf 22 37 ac bf
       0.20941365131473938 -0.05510815411137869
000110 80 7c d2 02 fb ce ca 3f 77 98 3f b9 a3 32 d4 bf
       0.20944154393962222 -0.3155907925669292
000120 f4 5d a2 1a dc 91 d4 bf 27 9f 3e 36 d4 59 cd 3f
       -0.321402574548727 0.22930386208212747
000130 a6 0c b5 86 8f 15 cb bf d3 d2 32 ca c0 6d d7 bf
       -0.21159547879697022 -0.3660737967104925
000140 c0 ee 72 2a e5 47 d5 bf 35 21 47 58 0e b5 d6 bf
       -0.3325131334820348 -0.3548007833565124
000150 6b de 0c 88 87 56 ca bf e4 ea 83 c6 19 c4 d0 bf
       -0.20576566832618268 -0.26196903597126053
000160 c2 5a bd 79 5b 8b bf bf 6f 35 29 b1 d3 52 d2 bf
       -0.12322017404708688 -0.2863053541267026
000170 e0 4e 7a 4e 35 0a c1 3f 55 7d 34 e5 95 95 cd bf
       0.13312403041765375 -0.23112748805668085
000180 d2 4d a9 a1 54 b5 c6 3f bb c9 6b 21 9c c1 d9 bf
       0.17740877050037668 -0.4024420095803653
000190 22 c2 f2 7e 43 85 cd bf eb f9 cb e6 d5 27 d5 3f
       -0.23062938402792194 0.33055636919735204
0001a0 41 eb d6 ed 71 3a d6 bf e1 ea 08 1b bb ca c6 bf
       -0.3473172018672593 -0.17806185550747158
0001b0 ca 21 85 32 78 9a d4 3f 54 35 ea 40 27 69 bf bf
       0.32192807134245227 -0.12269826254688115
0001c0 99 23 1c d1 a4 10 ca 3f 1b 65 dd 6f 38 00 d7 3f
       0.20363292894788002 0.3593884556226656
0001d0 0f 82 a9 e5 7e 9e d0 3f 8d 71 12 d8 0d 6e d9 3f
       0.25967380931800305 0.3973421678618017
0001e0 09 ec 53 eb 26 b4 cd bf ac 75 22 24 62 0a d7 3f
       -0.2320603035985587 0.36000875023622814
0001f0 21 4c 94 81 de 68 cd 3f 7d 8c 1a 8e 1a 94 b7 3f
       0.2297628529273377 0.09210363358811154
000200 65 85 03 e6 b2 61 ac bf eb fa d6 52 bb 8b c4 3f
       -0.05543288286004148 0.16051427407179317
000210 d5 30 3d 1b f9 2b c2 bf 52 b5 04 ee cf 1e d7 3f
       -0.14196695165663323 0.3612556290052754
000220 d2 4c 35 ee 2a d0 c4 bf 90 97 b1 6c 98 5d b8 3f
       -0.1626027739644998 0.0951781525960469
000230 e6 3d a0 69 df f8 ce bf 1a 35 56 8b 03 79 d6 3f
       -0.2419699922324831 0.35113609892944597
000240 2c b3 6f 2c 71 a7 d5 bf e0 ce 01 a3 c6 5a cf bf
       -0.3383448537777436 -0.2449577613766598
000250 02 43 10 8a 33 43 bb 3f 83 24 e4 ba 86 ac c6 3f
       0.10649416084948984 0.17714008451028826
000260 2d 2a f8 9d cb 56 a6 bf 9b da 68 9c 03 db c1 3f
       -0.04363094619118999 0.13949628007113266
000270 3e 01 dc e4 f6 34 c0 3f 20 f2 31 8f 67 58 c3 3f
       0.1266163461186895 0.1511353921122387
000280 26 a1 f3 70 eb 63 b4 3f ac 25 45 4a f9 6d cd 3f
       0.07964965350732153 0.22991863371343635
000290 56 35 cb ed 64 da a5 bf bf 5c b5 77 0a 94 d5 3f
       -0.042681840922891 0.33716069879796956
0002a0 0f 47 6c 00 0e 0d c2 bf 90 89 e6 04 85 8e c3 bf
       -0.14102339764263447 -0.1527868532112504
0002b0 50 69 f1 b5 37 5b ce bf 51 5a 06 d3 3e a1 d1 bf
       -0.23715874084411803 -0.2754666386403289
0002c0 26 60 31 05 b5 66 c7 bf af 5d 04 cf b5 47 d8 3f
       -0.18282187226827878 0.37937684265622357
0002d0 cc 03 e6 7e 19 da b0 bf 9a 40 16 7d b8 60 c8 3f
       -0.06582793567760276 0.19045168025741505
0002e0 a8 0e 5e f5 e0 fc d6 3f b0 02 a4 7c 1f 96 bb bf
       0.3591844936529278 -0.10775944512352953
0002f0 c9 9d f3 f4 14 11 ba bf 56 9d 1f 41 36 0a de 3f
       -0.10182314853920284 0.46937328681675206
000300 ad 9c 09 ef 49 bd ca bf 0f 51 da 53 00 95 ab 3f
       -0.20890163585429403 0.05387116454690687
000310 fd 20 78 a5 f5 fe ca bf 2f 6f 38 07 b6 3b d4 3f
       -0.21090574817231547 0.31614447312471133
000320 22 2f 20 2b 69 a7 d4 3f c3 38 6d be 1e 21 cd bf
       0.3227179452085115 -0.22757324503112927
000330 1e b6 7c 20 f1 4f cb 3f cd f7 1e 0e 7c 49 d7 3f
       0.21337713323866664 0.36386014346123546
000340 b3 69 0a f2 90 58 d5 3f ee 1f 36 2c eb af d6 3f
       0.33353065144333555 0.35448722188493675
000350 09 84 eb 64 5e 3e ca 3f 45 b5 34 a5 0d ee d0 3f
       0.20502834251149718 0.264529620489004
000360 f1 08 e0 24 07 02 be 3f 69 00 8f fc 6f 4f d2 3f
       0.11721844339630018 0.2860984770195559
000370 76 93 00 4b d9 fb c0 bf 60 f7 7b e0 94 a0 cd 3f
       -0.13268581545085184 0.23146306000847527
000380 23 c8 0b 42 81 b1 c6 bf 98 e3 bb e2 f7 dd d9 3f
       -0.17729202008155295 0.4041728700827263
000390 2d 05 38 98 c7 76 cd 3f 24 da ed 77 ae 01 d5 bf
       0.23018736774978646 -0.328227631681701
0003a0 16 a8 d2 61 b0 3e d6 3f 98 e9 d8 dd 07 b3 c6 3f
       0.3475762324620758 0.17733858425510785
0003b0 f0 16 5a 30 cd ad d4 bf 4a 9c bf f5 72 c4 bf 3f
       -0.32310800287119346 0.12409132480353083
0003c0 b7 4a 27 b3 8a 13 ca bf 73 0f f6 dc 1c 05 d7 bf
       -0.2037213682911749 -0.3596870572875936
0003d0 0f 15 27 e8 a7 98 d0 bf 31 cc ca c3 e0 8d d9 bf
       -0.2593173758617277 -0.39928454513864425
0003e0 57 bd e5 24 bb a1 cd 3f f5 b3 16 f3 bf fa d6 bf
       0.23149813939697125 -0.3590545534050869
0003f0 68 00 da 65 4b 50 cd bf 54 9f 44 e6 42 9e b7 bf
       -0.2290128943750489 -0.0922586261918899

base.actor.actor_fc3.bias f8 [2]
000000 70 c9 3f aa 4a e1 a5 bf b7 c9 3f aa 4a e1 a5 3f
       -0.04273446396099956 0.04273446396100005

base.critic.critic_fc1.weight f8 [64, 2]
000000 78 dd 96 f0 19 43 a5 bf d6 4c d2 97 20 7f 89 bf
       -0.04152756749993619 -0.012449507363533046
000010 1e 3b d6 8e b8 d5 cf bf b6 53 3e c5 ec ae e0 3f
       -0.24870974516348893 0.5213531353389189
000020 24 ff 1c c2 98 5a d0 bf 8e ba 90 db 61 c3 e2 3f
       -0.2555295844685921 0.5863503731141735
000030 a7 5d f5 8f a5 51 ba 3f e6 43 a8 55 10 c9 b9 bf
       0.1028083301983914 -0.10072424021951995
000040 e8 e6 53 1b f5 87 d0 3f 63 2d 1b 82 55 1b e1 bf
       0.258298184096573 -0.5345866719375575
000050 0c b5 7e 70 19 58 b3 bf 5d 05 e2 2e 5f 99 e1 bf
       -0.07556303974589101 -0.549972144668725
000060 a7 01 e4 4f d6 8d b5 3f d1 71 b9 51 28 87 e7 bf
       0.08419551325278594 -0.7352487178973722
000070 64 9e 2e 84 6e 3b cc bf 36 cc ea 5c a9 9c c0 bf
       -0.22056371168331446 -0.12978093182536704
000080 24 c1 dc ab 8c ea 93 bf c5 af 09 b8 50 71 ec 3f
       -0.019449422826427157 0.888832435082343
000090 00 72 25 ed d4 22 a1 3f 29 76 96 2f 9b 7e c8 bf
       0.03346887011386812 -0.19136371444339886
0000a0 d1 6f 60 7d 39 9c bc bf 5e 48 c5 c7 5a 55 c6 bf
       -0.1117587977500414 -0.17447981600213586
0000b0 2b 65 89 9a e7 34 b8 bf 25 1d c6 b6 4a 57 ae 3f
       -0.09455726168507243 0.05925973397375576
0000c0 a5 8e 87 7d b7 f7 cc bf 24 e0 47 a1 3a 1d db 3f
       -0.22630971555110083 0.42365899801325413
0000d0 82 7a b8 a4 d4 12 a2 bf d6 fc c5 f6 8d 90 a2 3f
       -0.0352999163699126 0.03625911366816019
0000e0 38 8e 81 b7 ed 2d b2 3f 35 80 45 8c a0 5b b8 bf
       0.07101331453446214 -0.09514811920735229
0000f0 3b 35 3b bd 31 dc e2 3f 74 9d 28 73 af 80 a7 bf
       0.5893791862414796 -0.045903666312649444
000100 95 4f 69 87 b3 e5 c8 bf 28 af c7 86 9b 2b d3 3f
       -0.19450992690928773 0.29953659212218264
000110 b6 39 8a 27 a1 2d c0 bf 60 6e 62 e5 28 4f b7 bf
       -0.12639250212346348 -0.09105163192946852
000120 34 0f 64 ec e5 bd ce bf c6 e8 5c 8d 91 65 d5 3f
       -0.2401702312710029 0.3343242531297047
000130 9b ad ea 0d a3 bb ee 3f 07 38 f0 63 1f cf cb bf
       0.9604048988161823 -0.21725838069727407
000140 fd f5 b1 31 4d e7 c1 3f 32 c6 38 d8 b8 3b e0 bf
       0.13987126280328246 -0.5072902892190483
000150 76 03 a9 85 49 2d c9 bf 37 56 5b 44 b1 9d e2 3f
       -0.19669455553414722 0.5817495665639346
000160 26 a7 98 20 41 6b ba 3f 33 14 17 bc 4b 53 c1 bf
       0.10319907232101552 -0.1353544872673936
000170 43 d0 e9 1b a4 50 a9 bf 5c 64 21 da ed 31 af 3f
       -0.04944336739291135 0.06092780387616223
000180 37 62 0f 83 ad f2 cd 3f 33 a3 84 c5 33 92 ca bf
       0.23396843814295362 -0.2075867380565569
000190 88 fd c7 c7 3c 31 d8 3f 38 a8 3b 9a b3 fb b0 bf
       0.3780052138317491 -0.06634066119627924
0001a0 9d 88 d0 e8 7e a0 b0 3f d4 62 13 5a 8d 3d d5 3f
       0.06494897064161127 0.33188184544046107
0001b0 86 a9 bd e1 37 63 97 3f 9a d5 48 5c ac a8 c9 3f
       0.022839425233010434 0.20046000009612613
0001c0 f9 bc b1 ac 3d eb a7 3f d3 9a 9b 78 cc 0b e9 bf
       0.04671662076077072 -0.7826902728673651
0001d0 ec c4 50 80 1a b7 c4 bf f2 4a 01 17 47 df 94 bf
       -0.16183787598996646 -0.020382986811749278
0001e0 63 48 09 7f ad 56 c3 bf 63 1d 68 43 48 ee c8 3f
       -0.15108269408171102 0.1947717980512876
0001f0 df d1 47 52 b1 01 c8 bf b7 a3 2a 33 14 3e df 3f
       -0.18755165593724052 0.488163995711655
000200 17 7b 16 97 e0 83 b7 3f 78 8c 3d 0d 24 f5 d0 bf
       0.09185603798549057 -0.264962208681204
000210 37 46 d9 7b 62 4a c8 bf 1f 19 db d7 14 1c cb 3f
       -0.18977004096318392 0.21179447688900496
000220 80 7f 92 fb de 82 d2 3f 61 3e 75 75 35 b2 c2 3f
       0.28923773353198357 0.1460635016942318
000230 db 23 40 7d f4 7f be 3f 8d 50 f0 2b 7b 20 bd bf
       0.1191399389064282 -0.11377687285158995
000240 c0 b3 4d 55 b0 f6 c0 bf 4a 0b 5b 4a 68 d4 ec 3f
       -0.13252834477625974 0.9009286358126272
000250 81 8c 2d 18 be 57 c1 3f f6 62 a2 1c a7 bd da bf
       0.1354901903206134 -0.41782548710175094
000260 03 66 e0 1d 0d 2f d6 3f 65 8b f4 32 9b f8 90 3f
       0.3466217796099899 0.016573357567846076
000270 dd d9 1f c5 53 de ae bf 38 a5 77 29 45 7e ea 3f
       -0.06028997212699825 0.8279138383779019
000280 23 5a ec 2a 12 46 cc bf 0d 9b 84 73 18 be ad 3f
       -0.22088839622365794 0.05809093866473889
000290 a8 a1 17 95 1f b8 b6 bf 20 c8 5e 54 69 95 d4 3f
       -0.08874699964474664 0.3216193508079659
0002a0 c4 29 47 cd 14 2f 84 3f 14 e8 8a a3 cb f6 b4 bf
       0.009855425371729683 -0.0818907999299941
0002b0 85 bf 10 6f ae 8a c9 bf e5 7b c0 b8 02 56 95 bf
       -0.19954471991649939 -0.020835917021141532
0002c0 a5 65 7b 84 c1 61 c4 3f 6a 2c 8e 54 eb 97 d5 bf
       0.15923327416275615 -0.3373974157081593
0002d0 1f 7b 05 fe c3 b8 cd 3f dd a3 38 dd f8 d4 79 bf
       0.23220109847439915 -0.0063066216712650254
0002e0 fd 70 17 64 aa e7 c2 bf 8e 69 ca 85 8d ff d8 3f
       -0.14769487273486695 0.3905977064656775
0002f0 63 5c eb 79 68 9c bf 3f 73 1d c4 fd 19 6b dd bf
       0.123480348363374 -0.45966195852130126
000300 96 d8 92 46 ec 53 6b bf 4c 97 d8 93 a4 4c ba 3f
       -0.0033359160193767263 0.10273197755358615
000310 0d 6a 62 3d 5a 26 d0 3f fb a7 79 7b 21 29 aa 3f
       0.2523408507783252 0.05109505302682745
000320 f7 47 43 2d 14 89 b8 bf 59 04 49 84 38 91 ab bf
       -0.09584165673302879 -0.05384232153711172
000330 2b 83 c5 1a bb 70 81 3f b3 cb 95 87 bb 22 d2 bf
       0.008515798334600774 -0.28336990586029315
000340 c3 8a a1 97 f1 e1 c5 3f ce 76 23 44 46 97 ce bf
       0.17095775512560438 -0.23899153067661988
000350 53 d7 98 73 44 c5 b5 3f db b4 97 f6 69 fe e7 bf
       0.08504131147568943 -0.7498063865911279
000360 1d 7a 05 e2 f7 ed c3 3f 58 f4 f5 e6 98 79 9b 3f
       0.1556997159595576 0.02683104428932767
000370 bd 58 19 48 0c 7e c3 bf b4 13 64 c9 01 1f db 3f
       -0.15228417892894255 0.4237675158222445
000380 c1 86 31 ef 9f 85 96 3f a8 d2 cd c7 65 33 c7 bf
       0.0219941129438499 -0.18125602966360543
000390 2d 2c ae 1c 9c 9a c5 bf 8f 44 39 59 fc c3 b1 3f
       -0.168780817035754 0.06939675501168295
0003a0 c6 83 de 17 8d c0 b8 bf d2 d7 30 4a 11 41 e2 3f
       -0.09668809731239411 0.5704428147353104
0003b0 de 65 b4 1a 58 61 b2 3f e1 69 b1 de 5f b4 9e 3f
       0.07179785396547042 0.029984949080565818
0003c0 4a 67 e4 9a 94 6e c7 3f ee ec 9d 80 e1 df da bf
       0.18306214869590526 -0.41991460380786705
0003d0 5a 19 02 e5 d1 c8 d7 bf 84 06 c1 c8 33 3b d8 bf
       -0.37163207401353804 -0.3786134205330216
0003e0 32 aa 16 ff 18 e7 db bf a2 4c 2c fe 66 97 c4 bf
       -0.4359800807093591 -0.1608704320029562
0003f0 a9 03 00 e7 a6 c8 aa bf 06 f1 48 c8 b6 d9 b9 3f
       -0.0523121029837122 0.10097830190438026

base.critic.critic_fc1.bias f8 [64]
000000 b9 0a 90 c1 b9 e8 bf bf d9 70 6a 17 5e 52 d3 3f
       -0.124644860989103 0.3019023159665842
000010 3c 5e 5d 25 2a dc d5 3f 85 22 99 44 63 a3 c9 bf
       0.3415627827539287 -0.20029869889755872
000020 a9 80 c4 3a e9 49 d7 bf b5 2c a3 a8 94 22 b0 bf
       -0.3638861726667622 -0.06302765957950636
000030 b5 26 32 f7 a8 52 a7 bf 48 6b 30 f2 a2 89 b3 bf
       -0.04555252091911425 -0.07631891644306876
000040 ce 70 59 f0 b0 00 92 3f aa 1e 1f 8c be e8 cb bf
       0.017580761594545184 -0.21804029313920142
000050 c3 b8 ea 40 88 c4 bd 3f 07 57 f1 2f 08 f2 c8 3f
       0.11628009400257881 0.19488622990564172
000060 41 d2 40 bb d5 87 cf 3f 95 4d a0 9e e8 05 c6 3f
       0.2463328518221193 0.17205531831187373
000070 f9 99 40 b3 a7 5c 52 3f 6e b4 b1 2a 42 fb bb bf
       0.001120723504763553 -0.10930264990175129
000080 2c 14 08 47 40 6e b4 3f d8 2b b2 2d f0 e3 8b bf
       0.07980729803246395 -0.013618351358919797
000090 62 e0 4e fb f0 2f d2 3f 4f c1 39 a7 dd 02 a7 3f
       0.2841761068516516 0.04494373956993291
0000a0 13 85 42 6c 99 af b1 bf dc 9e 09 3a 35 0f d0 3f
       -0.06908568280279707 0.25092821758015105
0000b0 5b a1 23 94 fa 0f cb bf c9 e0 de 6a 75 e0 a8 bf
       -0.21142513497694435 -0.048587483688096685
0000c0 18 47 37 bf 80 b3 d2 bf be a9 ef 18 48 4f d4 bf
       -0.2922059886305859 -0.3173389667050762
0000d0 32 ee 73 47 4e 1b c8 3f 8f 45 c4 e4 5d fe c1 3f
       0.18833330620678762 0.1405751578354679
0000e0 13 ba d7 bc 56 7f c5 bf 32 f9 13 1a 9a 6e cd 3f
       -0.16794857235750324 0.22993780396786573
0000f0 63 fd 01 bc 45 32 8b 3f ef 4b 7c cf a7 a1 c2 3f
       0.013279480743448152 0.14555833464746068
000100 59 c3 5a 82 9b 96 96 3f 5f e6 40 3a 3d 77 ce 3f
       0.02205889685746185 0.23801389068994447
000110 64 ed 3a 5b 1f f3 bd 3f 40 3d 5f 69 91 a8 ca bf
       0.11699100472735818 -0.20826928753965923
000120 7f 8e 47 89 8b 55 cc 3f c6 c0 36 d0 86 39 be bf
       0.22136062815762966 -0.11806528647753387
000130 24 0d 92 17 9f 14 c6 bf 10 75 35 c5 0f f5 aa 3f
       -0.172504316815414 0.05265092165312002
000140 0e 74 1e e4 83 67 d1 3f e9 87 12 24 62 76 cd 3f
       0.2719430663799479 0.23017527352663983
000150 46 45 f6 74 ab af cc bf 87 e5 16 13 4b 46 bf bf
       -0.22411101542506112 -0.12216634002733971
000160 92 d2 98 10 3b cb d0 bf 47 67 61 3b e0 5a c4 3f
       -0.26240421887204335 0.15902331256330113
000170 24 bb e8 61 e9 e4 ab 3f b6 dc 87 8c 91 b3 a5 bf
       0.054480832292361364 -0.042385624317767975
000180 46 46 40 fc d2 db c8 3f 00 fb 08 e3 4d 7c ce bf
       0.1942085010237397 -0.238168464524243
000190 fb 26 04 d7 f9 5a c8 3f 52 47 ff f1 96 c6 c3 3f
       0.19027636526907785 0.15449797455090192
0001a0 78 d2 33 6c 4d d7 d0 bf 94 6a 48 0e 0d 9a c8 bf
       -0.26314101759570674 -0.1922012634029967
0001b0 ef 7d e1 76 1c 2c 89 3f 5c 5c ba 22 33 77 cd 3f
       0.012291166665987922 0.23020018764211414
0001c0 3d b3 c1 c2 13 ba 84 bf 07 c7 d3 a5 8e 5d b2 bf
       -0.010120539074898733 -0.07174006985203728
0001d0 23 df e7 2b 18 cb c7 3f be 5a 61 8a f3 37 c8 bf
       0.1858854498275316 -0.18920749909258022
0001e0 06 e2 75 e6 7d 88 d2 bf 33 09 8c bf 2f 3b 88 bf
       -0.28958079820543536 -0.011831639321375853
0001f0 f2 8a c0 17 88 fc b0 bf 5f 8f 9d d1 18 50 ca 3f
       -0.06635332660566087 0.20556936488275832
