results/fruit-tree-v2/cmorl-ipo/1/final/EP_policy_171.pt (torch, 78232 bytes, 13 tensors)

base.actor.actor_logstd f8 [1, 2]
0	0x0000000000000000	0.0
1	0x0000000000000000	0.0

base.actor.actor_fc1.weight f8 [64, 2]
0	0xbfc9d600d9eef994	-0.20184336320194218
1	0xbfa3ba87eeb002d7	-0.03853249348322201
2	0x3fc0b0eb05ff32e1	0.13039911072555468
3	0x3fe18c4ba90556ca	0.5483759213627419
4	0xbfd233f0847af981	-0.2844201368096933
5	0xbfc551f720ba5066	-0.16656388376270853
6	0x3fda2031370fcf61	0.4082148587906343
7	0x3fea61ec50fff5da	0.8244535047558046
8	0x3fd4002216efd729	0.31250812759332064
9	0x3fb3f9cc1a4304fe	0.0780303539386473
10	0x3f985f0ee355293a	0.023800118088993495
11	0xbfcf1b4afb2e8f07	-0.24302041306247466
12	0x3fd681cbf8e00c2f	0.3516721659108865
13	0xbfc37a88fbfc8e96	-0.15217697433501048
14	0xbfd4d7e6f16f4efe	-0.32567761972062204
15	0x3fd15330156e4300	0.27070238201945074
16	0xbfd362b85b2deb69	-0.3029003992484634
17	0x3fd624499c133b83	0.34596481553756336
18	0x3fc16e3f8f4c62f0	0.13617701050750197
19	0x3fc7336d781511c0	0.1812569462146154
20	0xbfd1ffd873cd0e08	-0.28124057110491707
21	0x3fcaf44c86686d60	0.2105804115570704
22	0x3fcb6c5401b17c7b	0.21424341280632916
23	0xbfc326de5706d1b2	-0.14962367295596618
24	0xbf99dfe91d2427d3	-0.02526821365703553
25	0x3fcfbca93b6c24e9	0.24794497872816315
26	0xbfc403446d42daa3	-0.15634970984475158
27	0xbfec98048ded906b	-0.8935568592101054
28	0x3fd6330407c1e6ed	0.346863753867736
29	0x3fd79f8256c7ea85	0.3691106650800651
30	0xbfc7c91d4ef546a0	-0.1858250270402566
31	0x3fd39dfcb094ca35	0.3065177654672511
32	0x3fd8e16aed0d4430	0.3887584032973477
33	0xbfd802eafbf3b59f	-0.37517809490858584
34	0x3fcf2644e7e02bed	0.24335538217596256
35	0xbfc9eb03e432a433	-0.20248459475013333
36	0x3fda2198c887fa3d	0.4083005865394716
37	0xbfc7114c4de23ed4	-0.180215395001588
38	0xbfdd157f99b3a64b	-0.4544371605867112
39	0x3fcc46ef04941b75	0.2209147236210033
40	0xbfcd27d632a785d5	-0.2277782199226254
41	0x3fc831262540ebac	0.18899990862868543
42	0x3fd1160e8b090905	0.2669712407843153
43	0xbfd375998e16f14d	-0.30405272365512276
44	0xbfd789d6acea2e9f	-0.36778799902161013
45	0x3fd7fef7c94cf8b5	0.3749370065523963
46	0xbfd175c9b369f480	-0.2728142025078526
47	0x3fcdaee07497a93f	0.23189931576718867
48	0x3fd57c4d855b554a	0.33571184180376135
49	0xbfce3728aeacfee4	-0.2360583165081983
50	0x3fc75320c6f22169	0.18222436632300834
51	0x3fe94ea88117d80a	0.7908518334722896
52	0xbfd839b9f7792560	-0.3785233418207863
53	0x3fcbda53eb25d159	0.21760033590147534
54	0xbfcdc25ed533706d	-0.23249421510888926
55	0x3fd012a12e7c6649	0.2511370614971367
56	0x3fd2a35f78bf1d8e	0.29122149268774755
57	0xbfd56e13fb367cfa	-0.33484363110069604
58	0x3fd260952a8b187a	0.28714493898986115
59	0xbfd21168a382c196	-0.2823125454697445
60	0x3fd7905025a48a2a	0.36818317104385534
61	0x3fc355e02600b91c	0.15105821471792857
62	0xbfddf18741692042	-0.46786672008284225
63	0xbfe7529ee3021f41	-0.7288355287318852
64	0x3fd11fb189531164	0.2675594178256431
65	0x3fe8f61965777b29	0.7800414068004545
66	0x3fc10b2966594890	0.13315312860010353
67	0x3fe5bbcef93f90d4	0.6791758411532336
68	0xbfd5bbec89c3178a	-0.33959496930435107
69	0x3fcdd084fa547ba2	0.2329260084452161
70	0xbfcbab8cb8b95a7b	-0.21617278117874492
71	0xbfea1e93b2ce30f2	-0.8162325374883308
72	0xbfcca2d45f017d9a	-0.2237191642661685
73	0x3fd43aa031a383d2	0.31607823226482623
74	0xbf7f220597f01f5f	-0.007600805139197891
75	0xbfc62f2efaaea30a	-0.17331492653217878
76	0x3fcd4afc59eedf04	0.22885088340057547
77	0xbfbd67a81c7569a5	-0.11486292547980399
78	0xbfd7c767da1d04c6	-0.37154575634128795
79	0xbfe9718bded0a9af	-0.7951106407029352
80	0x3fd0956905c7ed4b	0.25911927761599846
81	0xbfcc756d41745686	-0.22233358093278727
82	0xbfd3a49b598471fc	-0.3069218038743029
83	0x3fd1755d473455a7	0.27278835252340133
84	0x3fc681b698ddf2c5	0.17583353485306055
85	0xbfd22873411b5eac	-0.2837188850221348
86	0x3fd282594105485c	0.28920585012122557
87	0xbfc03b561c3db9ab	-0.12681080225907002
88	0xbfae766d3cc81ce7	-0.05949727408374788
89	0xbfe5047d46e02069	-0.6567980179106715
90	0x3fd8eb87bd09b091	0.3893756242821463
91	0x3fe4ba13f43d7e45	0.6477145929638445
92	0x3fc50a947109fe23	0.16438537139400564
93	0x3faf79f9acdc3750	0.06147747264013381
94	0x3fcb1fcc3e0cef66	0.21190789251147207
95	0xbfd290aa90d9134d	-0.2900797285586137
96	0x3fcc210a11de5c70	0.21975828049173485
97	0xbfc765b32fd62dbd	-0.18279113612912382
98	0x3fd71d515a014c7e	0.36116441525991394
99	0xbfcf370a2ccdbe8c	-0.2438671797531139
100	0xbfbf1ad92a32a54d	-0.1215034225484903
101	0xbfea915bdf4a986e	-0.8302440034065179
102	0xbfb89d03d75db200	-0.0961458588405506
103	0xbfd9087979e11647	-0.39114224340696463
104	0xbfdd55c37e394e7a	-0.4583595974592992
105	0x3fc7b87e96a3e074	0.1853178248927666
106	0xbfd37e863c9c488a	-0.3045974342250096
107	0x3fce4382a363fb61	0.23643525102667254
108	0xbfd41db2836df554	-0.31431258044161337
109	0xbfea5c69213bd390	-0.8237805985541957
110	0x3fd87f76610a4995	0.3827796886117992
111	0xbfd2a0fae08ba476	-0.2910754387690483
112	0xbfcfee29414952e0	-0.24945560157598035
113	0x3fce9ade98aa5d16	0.23910124258393556
114	0x3fd149b86fd0e2e2	0.27012453956153426
115	0xbfcbf4d11057173e	-0.21840871141301393
116	0x3fc99b0fbdc49592	0.20004460111628625
117	0xbfd0275b238d12e4	-0.2524021002939618
118	0xbfd0eb95d2a327ac	-0.2643789822583311
119	0xbfb7f2ae187a61e7	-0.09354675386055754
120	0x3fc7148e5cbc02d4	0.18031482246444475
121	0x3ff038ab4ec91f9d	1.0138352468074807
122	0xbfd1d78f6890a836	-0.27878174983436865
123	0xbfb3efaa6d07d79b	-0.07787575876122192
124	0x3fd6bdc1e675cf48	0.3553318739497979
125	0xbfc6eab328bcaddb	-0.1790374707137364
126	0x3fcba38adb59a49b	0.21592841825921458
127	0xbfcaf64f07a3c35d	-0.21064174531013694

base.actor.actor_fc1.bias f8 [64]
0	0xbfc4a818d4201aa4	-0.16137991292653908
1	0xbf8162a90573ed06	-0.008488960722834903
2	0xbfc5edaea746833d	-0.17131598632570358
3	0xbf6872b8e3a5e8c3	-0.002984391319100417
4	0x3fc091f210a02c62	0.12945390521813055
5	0xbfb60f154a21a392	-0.08616765079353986
6	0x3fa79cab22d48e0e	0.046117160798783016
7	0x3f780a378f44b04e	0.0058691187189588555
8	0xbfb261c3621eb566	-0.07180424829012608
9	0x3fbe1611ff38e1a3	0.11752426606188364
10	0x3f9e6889ad929a14	0.0296956550779673
11	0x3fb4831d3efc9888	0.08012564456712046
12	0x3faff48e80c6bb11	0.06241269418693752
13	0x3f81b15f4e9d39a6	0.00863909205113773
14	0x3fbde210e5646f69	0.11673074341200408
15	0xbfb81d1b3f4ab4b4	-0.09419412894449658
16	0x3fb43e0b9849b198	0.07907173603024942
17	0xbfa08850cf429561	-0.03229000597029131
18	0xbf96d745a1d20fd2	-0.02230557251142768
19	0x3fa2a1bedf709792	0.036390270972602626
20	0x3f92f86eff2dffb3	0.018525823903018778
21	0x3fa9864e650f4e2a	0.0498528002132413
22	0xbfb54f3ae1d08afb	-0.08324020398189795
23	0x3f5775c6ca22419f	0.0014318887047331875
24	0xbf9a4475389b6504	-0.02565177114488383
25	0xbfafd22b46a16384	-0.0621503375738888
26	0xbfa2bb8efba3cac0	-0.036587208001852556
27	0xbf805141af5b32bd	-0.007967484630534977
28	0x3fb21c09f17f8573	0.07074033876371803
29	0x3fa27ea430fcdd23	0.03612244699473368
30	0x3fc85f988461c194	0.19041735137899407
31	0xbf999a095491265c	-0.025001664911803764
32	0xbf96225892c9d446	-0.021615394553425447
33	0xbf7528b9d82de2c8	-0.005165792422183464
34	0x3f9e49d9802ad36d	0.029578588912687765
35	0x3faf9fbc9429f056	0.06176556881561683
36	0xbf918e1b34bebb02	-0.017143654913236446
37	0xbfbd6f92d1f70de2	-0.11498372675037374
38	0x3f7e783a515e3b64	0.007438876918867663
39	0xbf67927dfe6bebc4	-0.0028774700944018423
40	0xbf99390f8d9aea63	-0.024631732004062445
41	0x3f70c84164038852	0.004097228462542972
42	0x3fa75b78e9a1f8d6	0.045619753379456604
43	0x3fbf3baf745f5e24	0.12200447646261431
44	0x3fabeea19eb255e5	0.054554987547060375
45	0x3fbf8c68261c7677	0.12323618822525782
46	0x3fc3712af700e211	0.1518911081382304
47	0x3f8078c3b24b5997	0.00804283988820202
48	0xbfaf4b9b1b1d79e9	-0.06112370210643176
49	0xbfa1aaf62a575869	-0.03450745837078346
50	0x3fad0469c6b1c5d5	0.05667429495305113
51	0xbfa16fbfbdeb2ed0	-0.03405570214598941
52	0xbfb3ac7755a28ed1	-0.07685037460992851
53	0x3f985c2cd0a348bd	0.023789119943850013
54	0x3fa3c3926b034822	0.038601470530594165
55	0xbf921449aa0d367b	-0.017655516628386252
56	0xbf710a6dfbd18dce	-0.004160337089249079
57	0xbf91f06f1e6e0e3d	-0.017518745643896095
58	0x3f8ff12688918836	0.015596676867236519
59	0xbfbbc504f7e3c5b2	-0.10847502758021824
60	0xbfad073166e1b35d	-0.05669550305251534
61	0xbfc0ec7cb4c66669	-0.13221701456932358
62	0x3f8dc53d6df2b950	0.014536361615992505
63	0xbf91de498505196a	-0.017449520820514243

base.actor.actor_fc2.weight f8 [64, 64]
0	0x3fc9234eb18f7ae0	0.19638999624199638
1	0xbfcc3e196a93a041	-0.22064511970461534
2	0x3fd0e78039d842cb	0.26412969254401436
3	0xbfbd3ba30023cd0b	-0.11419123414434666
4	0xbfcb30734901bc9b	-0.21241608681473143
5	0x3fbd8562f987f2e9	0.11531656829897553
6	0x3f9dadeb9d49ce0e	0.028983766055217734
7	0x3f9cfedecfb1693e	0.028316003252578208
8	0xbfd1144a2075c821	-0.2668633763306634
9	0xbfc4c8b1a7e4ea01	-0.16237469385107775
10	0x3faa99a7b057f8fb	0.051953544880221934
11	0xbfc0828af5dc2360	-0.12898385052565242
12	0x3f8a3fc7b5fe2d82	0.012816963426095954
13	0xbfc95b117f5c9ccf	-0.19809168547474207
14	0xbfaa8e08256c4273	-0.05186486679861426
15	0x3fcf1c555fedb5fe	0.24305216964732773
16	0xbfa10698f510b9f5	-0.03325345984955056
17	0xbf925080db91873b	-0.017885220910449844
18	0x3fc2617660ce964f	0.1435993168535554
19	0x3f91861ada66e9fe	0.01711313207645481
20	0xbf5813dba069fb01	-0.0014695782462294529
21	0x3f9b564a9e5cd8d8	0.026696363368693493
22	0xbf93cac46255b8b9	-0.019328182699091843
23	0xbfa095e48798c8ec	-0.0323935905002076
24	0xbfc4691d80d078a0	-0.15945786275637364
25	0x3fc4eda18894d585	0.16350192231190533
26	0x3fc5326b7de9880c	0.16560119293268405
27	0xbfaaf5bef165e146	-0.05265614220383212
28	0x3fcca37a727896bf	0.2237389620724368
29	0x3f79edc55b8d5c17	0.006330271652436734
30	0xbfb65fbaafafac0d	-0.08739821233000118
31	0x3fc0923f624186e8	0.12946312234549073
32	0x3fc1651a9c7ad5dd	0.13589794769875044
33	0x3fba73598d485fc9	0.10332259845051718
34	0xbfaf9391873eef55	-0.06167273307752789
35	0xbfbf927cf50f172a	-0.12332898123630956
36	0x3fc874014a9dd09f	0.1910401930177885
37	0xbfb0167eaf660854	-0.06284324438277739
38	0x3f6d2d55831f6f8b	0.0035616560135007295
39	0x3faf14e7f0d56c61	0.0607063752638275
40	0x3fbc67e8926b60aa	0.11096051764195872
41	0xbfc41afe9f4336de	-0.15707381035320273
42	0x3fc8b740e49eb032	0.19309245265083202
43	0xbfb2e653d6930d3f	-0.07382701862939188
44	0x3fa3d99ff9fdf334	0.038769721285439124
45	0xbf3d1ec0c4928b61	-0.0004443379044209353
46	0xbfbc5ea01fdb0aa7	-0.1108188703320062
47	0xbfc285ae15c6b3aa	-0.14470459044733036
48	0x3fa72d14bbe97103	0.04526581567617607
49	0x3fc0aca2ed1e0ef5	0.13026844575880828
50	0xbfc7b4ad93865be0	-0.1852013559661989
51	0x3fb1fb90dad50b03	0.07024484007437697
52	0xbfd07fccbdc30f04	-0.2578002789634726
53	0xbfb88caa3c7a4c36	-0.09589637733942954
54	0xbfd01036ec193fe8	-0.2509896569872567
55	0x3fa95a084e7f1a45	0.04951501806458628
56	0x3fc42825a2d6270a	0.15747518969538304
57	0xbfc2c33d1fe749d0	-0.14658321435724853
58	0x3fcd5a133f95a70e	0.22931137661662898
59	0xbfa555bb3afd5296	-0.0416697034367292
60	0x3fbf49376a5431de	0.12221094461364809
61	0xbf853c3135c5bc61	-0.010368713811400978
62	0xbfc58302fbe5e36f	-0.1680606584521018
63	0x3fbbfee81ef87ef6	0.10935831791038794
64	0x3f8703ebf23a0759	0.011237948732062785
65	0x3fb200b43fa46d6e	0.07032324365393602
66	0xbfd0474ca2b27aca	-0.25435176742932397
67	0xbfb674b6b5ad7fdb	-0.08771840987674244
68	0x3fbbdaebf57b0a8b	0.10880923026256022
69	0x3f6a9c5b70d1ca55	0.003248385043258121
70	0x3fd0691c0b2a57c1	0.25641537752505533
71	0xbfc079cb3dde55e1	-0.1287168552486682
72	0xbfc9afc4a56233b9	-0.20067651820536783
73	0xbfc1ae7e19f47c33	-0.13813759105048148
74	0xbfcacb5e27ebda76	-0.20933129262239775
75	0x3fbf90d864989748	0.1233039136501165
76	0x3f95a614c3d4e288	0.021141361668215924
77	0xbfc66103a97dfa85	-0.17483564163190493
78	0xbfc342439735c4e3	-0.1504597175913097
79	0xbfab91994d1661b8	-0.05384520593651437
80	0x3fd0ff33b5865a46	0.2655762932494422
81	0x3fd8121da73d244f	0.3761057027045966
82	0x3fd2e84ba57f4a37	0.2954281917747354
83	0xbfb53df965986685	-0.082976901343864
84	0xbfd612d609db6c24	-0.34489966356858504
85	0x3fce7ebaf919fdb2	0.23824250376854433
86	0x3fb744589f8062b7	0.0908866300018286
87	0xbfcefa9de8769161	-0.24202321863880186
88	0x3fc3d38b349a8861	0.1548933035711029
89	0x3fc194c989a73b3b	0.13735312672948816
90	0xbf94ec25c978eab2	-0.02043208162488481
91	0xbfd6600e75488365	-0.34961282208865035
92	0xbf851f49757a9db1	-0.01031358136908875
93	0x3fc7fc5ee05a5190	0.1873892398331347
94	0xbfb9f1454e2c3cfa	-0.1013377490855766
95	0xbfc1243690220288	-0.13391763723122474
96	0x3fbaa246fa8b04c8	0.10403865448735694
97	0x3fc6dc48d4d59c69	0.17859754936509667
98	0xbfd8a8f1b08b47c0	-0.3853115295470353
99	0x3fc99c548a118025	0.20008332006091326
100	0xbfc097c8d62b8226	-0.12963209588544194
101	0xbfbb7510607dcdbf	-0.10725500446078849
102	0x3f9e472ee7956261	0.02956841743921002
103	0xbfaa8ee4bb50c11b	-0.05187144075932989
104	0x3fd63e7fcfd2bced	0.3475646523974792
105	0xbfdab0dd57c2262c	-0.4170449597373558
106	0x3fca4012102c86fc	0.20508027829878717
107	0x3f93516986a1fd2e	0.018865250437099572
108	0xbfc2161a9fd7c1fd	-0.1412995605928841
109	0x3fb010786a165d1a	0.06275131788276092
110	0xbfad8f3ed242a32d	-0.057733500639477554
111	0x3fa42cfdb37ef63e	0.039405754243017274
112	0x3fd446ac8d9432cf	0.3168136007887314
113	0x3fc1f84a54387dc5	0.14038972008073194
114	0x3fc3e32ba0828e9d	0.1553701909771136
115	0xbfd3b9fe4119c3d4	-0.3082271228550415
116	0x3fbc16b1133f7aea	0.10972124786301732
117	0xbfda72d4c11912ec	-0.4132587323877448
118	0x3f92aea8fd605c9d	0.018244400467747657
119	0x3fd0f67265f22319	0.26504192309998725
120	0xbfba038ecbb7c026	-0.10161678765848645
121	0x3fd23f46505f11bc	0.2851119789959531
122	0x3fc2c985fe8e2294	0.14677500657514442
123	0x3fbc79b3f88f1edd	0.11123204058014431
124	0x3f94a4290ddf2c94	0.020157472106614963
125	0x3fb78c55f32b6070	0.0919851034808532
126	0x3f5647d157a1bd02	0.0013598961218369014
127	0x3fba30d40e48fe37	0.10230756138570817
128	0xbfb7d5fb34a6c428	-0.0931088450950176
129	0x3fd00538d741449f	0.250318727693477
130	0xbfb706238bd3fa91	-0.08993742145319518
131	0xbfd02083b5545565	-0.25198452671005206
132	0x3fc4de23699ecf63	0.16302912385219334
133	0xbf5a7b2a291a16c5	-0.0016162788128055033
134	0x3fc2abbc4c81eae0	0.1458659528323869
135	0xbfc9506894e242ac	-0.19776637334554914
136	0xbfd3d10b4600ed74	-0.30963403545657475
137	0xbfaf07efeb8788f8	-0.060607430936004236
138	0xbfd9061d224fea94	-0.39099815703199536
139	0xbfc98076fc278e0d	-0.1992329341147613
140	0x3fb0717ce9d0e824	0.06423168857955425
141	0x3fb45420bd05dd13	0.07940868964020735
142	0x3fa311c5404cc5e5	0.03724495325003455
143	0xbfc0dd817e6a1e8c	-0.13175982163032918
144	0x3fd2537625d3698e	0.2863440865891328
145	0x3fdaeea709754fe6	0.4208161918988921
146	0x3fb7eebac34c917f	0.09348647373241724
147	0xbfa68d254b50f86b	-0.0440456060828048
148	0xbfda338e32e08337	-0.4093966957898831
149	0x3fd477806789c1f8	0.31979379759925974
150	0xbfd10e318bf3e128	-0.26649130503894236
151	0xbfc07c2bfe585b7e	-0.12878942412563882
152	0x3fd113a1158f19bd	0.26682307343835615
153	0xbfcba441570e4369	-0.21595017195479763
154	0xbfcd6d325115d8eb	-0.22989491423840688
155	0xbfc2bb831805ee00	-0.1463474147129631
156	0x3fd5117eb87c5d85	0.3291928102130089
157	0x3fcd596fe570203a	0.22929190352465573
158	0x3f9121dfc33a66c9	0.016730781832484696
159	0xbfb90abdd9ba5dca	-0.09782015386223644
160	0x3fc7f71f8729d587	0.18722910022522063
161	0xbfa4d536b5c0da9e	-0.04068919151943827
162	0xbfddf8720daa6aec	-0.4682889111951869
163	0xbfb1c6ebdda3cfeb	-0.06944154893045577
164	0xbf994e57886baf4e	-0.024712913228469184
165	0x3fc3db22b25d025f	0.15512498578211173
166	0x3fb93a52e59a60ad	0.09854620080511962
167	0xbfd03773d1989bbc	-0.25338454693195067
168	0x3fd189b16d498fb1	0.27402911827652604
169	0xbfc3dac677f306b4	-0.1551139913263363
170	0x3fc819cdd485d720	0.18828747632112997
171	0x3fbd5ccb54e174c0	0.11469717809946456
172	0x3f7e929c6877238b	0.007464037865653315
173	0xbfbbf8b244bac822	-0.10926355531663082
174	0x3fb866af16b160ce	0.09531683258080934
175	0x3fc8b11fabb65d91	0.1929053867759021
176	0x3fdf126d5d483854	0.48549970731335645
177	0x3fc825b8fe097e3a	0.18865120319513712
178	0xbfd1d734a64e00f3	-0.2787601112431865
179	0x3fb949d256a5ae45	0.09878267875108644
180	0xbfbf3e4aa6df1181	-0.12204424451835473
181	0xbfd1e686f3f65e6a	-0.27969526123476973
182	0xbf9dd9c4a7d7cab0	-0.029151032203979355
183	0x3fd0b5ab1020e9dd	0.2610881478791763
184	0xbfd05ef9efba9835	-0.2557968941786187
185	0x3fc627044a99d7a5	0.1730656971228061
186	0x3fcfacf60cf3755b	0.24746585495351323
187	0x3fb93bc2aa90f3a7	0.09856812156881621
188	0x3fd4ee06b9e5913b	0.3270279708288119
189	0x3fabe5630880cb2b	0.054484457767463766
190	0x3fa56378bf72a0b7	0.04177453362473343
191	0x3fd1c0ab427c9b49	0.2773845814976324
192	0x3fb2c09bcd1d22b2	0.07325147397672074
193	0xbfe2c02f5cd5edac	-0.5859600842663233
194	0x3fc0c0b17f4b1749	0.13088053431982363
195	0xbfce253a179c8d8c	-0.23551107552439665
196	0xbfd11d7ba76d11c0	-0.2674245009441414
197	0x3fe123a499bfb03c	0.5356009486108699
198	0xbfca18c987c1be9a	-0.20388144615889275
199	0x3fc6b0e241a30bef	0.17727306561400222
200	0xbfd24a4c845c5c58	-0.2857848446450979
201	0xbfd64e224bb25da3	-0.34851891891727343
202	0xbfd73afc6ee8281a	-0.36297522383449776
203	0xbf7154e3508c7b17	-0.004231346080614504
204	0xbfd298bf214a4447	-0.29057291270243407
205	0x3fe649f02c27fe2c	0.6965256559778417
206	0xbfd39d9acf7dfce2	-0.3064944292345456
207	0xbfd16cec78c6bf94	-0.2722731761414192
208	0x3fc194675dc2b564	0.13734142377999625
209	0x3fad1524894e31fe	0.056801931153220395
210	0x3fbb74b94a7fa487	0.10724981373609142
211	0x3fbba0fa384396d5	0.1079250705111819
212	0xbfc434cdf411eeac	-0.1578614656208307
213	0x3fd1ec0721d6edbb	0.2800309973206045
214	0xbfc9e0c222eee1a2	-0.20217158036917932
215	0xbfcb3ff58a3fbdc7	-0.21288937807501737
216	0xbfa6759b77b0ecf3	-0.04386602245400608
217	0xbfd48eb1654b20ff	-0.3212092866128983
218	0x3fb0329b7fc8eec6	0.06327220792530416
219	0xbfb46cab43df4ff5	-0.0797831574157611
220	0x3fd3142abad15e91	0.2981058906930026
221	0xbf8c8c47f56bcee1	-0.013939439942510958
222	0xbfddf5a228406e10	-0.46811727457836216
223	0x3fc95eb55871bbf9	0.1982027704102334
224	0xbfdb4869482d01b4	-0.4262946324197643
225	0xbfd87be0a88f253c	-0.3825608869634214
226	0x3fb90b1bf0c7e674	0.09782576206625909
227	0x3fdf496d33843001	0.48885660200971875
228	0xbfd6c1371a953bcf	-0.3555429229353963
229	0x3fbecfeb678bbf1a	0.1203601005361147
230	0xbfcb5d23ec1d8cc7	-0.21377991704057406
231	0x3fcf3c6676269178	0.2440307690532213
232	0x3fd5a04df452c5a5	0.337909210774422
233	0x3fb1cb13094a5be2	0.06950491883104307
234	0x3fc52cb867f6b70c	0.16542725635866196
235	0xbfc3775cccf85085	-0.15208015449809778
236	0x3fdd292347836de7	0.4556358526585584
237	0xbfd5b01322e9d97b	-0.3388717499687101
238	0xbfc66475dd22cda4	-0.17494080827382874
239	0x3fcf5383bc5b92ce	0.2447361631121993
240	0x3fc16dd15079f3df	0.13616386823187462
241	0x3fad4e4beac9e5ff	0.05723798028061466
242	0x3fdcf4b5fc16058b	0.4524359666612205
243	0x3fe02682f60bf74a	0.504701119003337
244	0x3f7b3c1bbb411ae1	0.006649120641731372
245	0xbfc5551149e3d077	-0.16665855510621316
246	0x3fe0f583e8a7a82e	0.5299701255837641
247	0x3fc5a087569f47e6	0.16896144609069025
248	0xbfcdd02e329c2bfb	-0.23291566344445855
249	0x3fcbc1d40693f350	0.21685266801059777
250	0x3fc239b842863126	0.1423864674401411
251	0x3fd2ab1be3cdc57a	0.29169366117920215
252	0xbfd62d209407bcfa	-0.34650434928967366
253	0xbfb31c495fa6f9e5	-0.07465036950359367
254	0xbfc068552dc62bd2	-0.128183982229841
255	0x3fd03bf4fbbf3fc9	0.2536594828097774

base.actor.actor_fc2.bias f8 [64]
0	0xbfb30e0b2f7eae29	-0.07443303975622285
1	0xbf7dbfddca5cb5c7	-0.007263056153346387
2	0xbf8a6712417101c0	-0.012891905424226802
3	0xbfa3be6989f19bf1	-0.03856210526355842
4	0xbfa2dbac4bcdba45	-0.03683222222649766
5	0x3f8624725faa2cb3	0.010811704201179806
6	0xbf9157c1530a5aec	-0.016936321919810135
7	0x3f9aed06f70ffa8b	0.026294812039845666
8	0xbfa2e1dc291ad332	-0.03687942506568333
9	0xbf9dcc7b7b865746	-0.029100350775102223
10	0xbfc4a11e60f4bc0a	-0.16116695150546462
11	0x3fb1587aaee7e4ee	0.06775633592760119
12	0x3f8903c952417bac	0.012214253256557082
13	0xbfc4f2c2b35b32bc	-0.1636584640276818
14	0x3f98cb285d654f63	0.024212485027717345
15	0xbfadaece43972e54	-0.05797428679542507
16	0x3fb1851858a9ec2b	0.06843712010042739
17	0xbfafb478cb547f87	-0.061923765965047166
18	0x3fa8e22681a7ee69	0.04860039074625606
19	0x3fbe8bf0c1b66bad	0.1193228218966584
20	0x3fb9c1f0925eafc9	0.10061553548319958
21	0x3f93347ff9260479	0.01875495870763586
22	0x3fb91ec0477a3e73	0.09812547440582779
23	0x3fa0850f1cf0f86e	0.03226515987670174
24	0x3fbfe692611f3283	0.12461199637545843
25	0x3fbe7b72827bfc05	0.11907115636493877
26	0xbfc3c723fb40259b	-0.15451478736967492
27	0x3fc150e0cc9bfec6	0.13528070440951562
28	0xbfa23a1ba5157b00	-0.035599578763813255
29	0xbfa9adeacc47d029	-0.05015500777872745
30	0xbfc491008b402673	-0.16067511367173246
31	0xbfc266c53120de6a	-0.1437613000759826
32	0xbfc047b6bcb94dbe	-0.1271885320189607
33	0xbf9a2eb711d2a828	-0.025568829024145284
34	0xbfc17c59f58fb2b8	-0.13660740366267077
35	0xbf97ae1662cb33ee	-0.023125028400318763
36	0x3fa034a7718a5354	0.031651718721298266
37	0xbfbf6cdf5da6406f	-0.1227550128589898
38	0x3f40cf6fc654b545	0.0005130096221016919
39	0xbf80decfc42a9e4d	-0.008237479375863855
40	0x3fc31b9d9bf97324	0.1492802630990805
41	0xbfc6ea74e262f168	-0.17903004697826508
42	0xbf8b3799cd011c28	-0.013289643830047451
43	0x3fa63ea903cb409d	0.043446809495095474
44	0xbfc03660f99e1205	-0.12665950954773578
45	0x3fa0c1520219663e	0.03272491717934799
46	0x3fa9ae33335be766	0.05015716554585374
47	0xbfb4de07a5222ec1	-0.08151290685253355
48	0xbfc0f78c8486b3b4	-0.13255459280972348
49	0x3fac669dacd69813	0.055470397327823794
50	0x3fbd7036cf37271f	0.1149935012719223
51	0x3fc7cea8809736d2	0.18599420813409623
52	0x3f9310beeee75715	0.018618567782900792
53	0xbfc302a7ac6cf3b4	-0.14851852339952887
54	0x3f66515472dac1b9	0.0027243279826835967
55	0xbfb2c2058a311ccf	-0.07327303527664529
56	0xbfb17046df673a98	-0.06811945871525393
57	0x3f7d83c9d77beb1e	0.007205761379504931
58	0xbfa234a1396da742	-0.035557783375067334
59	0x3fa0a2d84d8493c4	0.03249240823996716
60	0xbfa19e95924c0ab1	-0.034413026913190044
61	0xbfc1a983a12ad894	-0.13798566216945984
62	0x3f7a4345e11d8661	0.006411812750089036
63	0x3f8562a2095b8798	0.010442033682412519

base.actor.actor_fc3.weight f8 [2, 64]
0	0x3fbe8d37cc1bc1b0	0.11934231503597093
1	0x3fb94849b2cacdd5	0.09875927557987237
2	0x3fc4276f2f41ab63	0.15745343978354773
3	0xbfc5994b8fe04859	-0.16874069714737308
4	0x3fc582e34afe2409	0.16805688058619264
5	0xbfbdeb6d4b110078	-0.11687357981372937
6	0x3fcf9191edf19f8d	0.24662994497634508
7	0xbfd3cdf8a20da8a4	-0.3094464857628145
8	0xbfcbf8ee4fc5a5de	-0.21853426833267425
9	0xbfce2584c8f1ebc0	-0.23551997958915472
10	0x3fb5cfb09f8cb79e	0.08520034690147191
11	0xbfd1f3d2c9d3a37d	-0.28050679883613566
12	0xbfd31f652922db55	-0.298791208431273
13	0x3fb598b3d615af67	0.08436130501439508
14	0x3fd10e7dd85e695d	0.2665094960190311
15	0x3fc1bfc8ad5b6c13	0.1386652800054838
16	0xbfcef9b0e09df1a4	-0.2419949623835126
17	0xbfc31ccc252226df	-0.14931632817415783
18	0x3fc82982a2e92ebb	0.18876679377205172
19	0xbf97fa5921ba866e	-0.023415939983016214
20	0xbfbb09945a7c8499	-0.10561492165699561
21	0x3fcc37d11b690813	0.22045339430229713
22	0xbfc00381214d4697	-0.1251069462401133
23	0xbfc2b3ffcd2602a2	-0.14611814038291465
24	0xbfb45ad8a74c1edd	-0.07951120457084522
25	0xbfbb56a9de8dcf77	-0.10679113086172075
26	0x3fb956c9d310e55a	0.0989805355356074
27	0xbf9c713085b48c72	-0.027775533829423833
28	0x3fd2820b96fee1c2	0.28918733354251114
29	0xbfc71b393f4084e7	-0.18051829899290014
30	0x3fb2416492073903	0.07131031575338302
31	0x3fc0746cfe377876	0.1285530320446388
32	0x3fb10b400d0ea744	0.06657791441707867
33	0x3fc149702892e344	0.13505365353719345
34	0x3fbeb1bdef0252ed	0.11989962659056248
35	0x3fd2c7db509f3e9e	0.2934482848477077
36	0xbfc707b045992d9e	-0.17992213629109427
37	0x3fbd07d6e68f615c	0.1134008705988711
38	0xbfc16619e48a3867	-0.13592837962318358
39	0x3fe0e42105956660	0.5278477772764738
40	0xbfbe8632196d3756	-0.11923516388671138
41	0x3fb1a6b209ad54ec	0.0689498208642651
42	0x3fe11f9071ba141c	0.5351030560710828
43	0xbf9be28b14822e70	-0.027231381537190236
44	0xbfd0d279a6483345	-0.26284638632278173
45	0xbfc3f89ca3fa422d	-0.1560245323821773
46	0xbfcf0c2cee4c373c	-0.24255906711226227
47	0x3fb2e02d87b0be98	0.07373318255189998
48	0xbfd1faf2c23e6fab	-0.28094166726236364
49	0xbfc413580556db70	-0.1568403268881542
50	0xbfb9efb0cac5759e	-0.1013136382147963
51	0xbfaf3e0a7232dd8c	-0.06102020877863898
52	0x3fcd7110ba3742eb	0.23001298039027715
53	0x3fb3d595d2d8a283	0.07747780225384741
54	0xbfb3ae33845aab7e	-0.07687684994986729
55	0x3fc849457a5afd67	0.18973606562029063
56	0x3fb8ec9b2ad6fc32	0.09736032291310506
57	0xbfc3007171e6b442	-0.14845102368909308
58	0x3fd1d94791edd1e9	0.2788866925323235
59	0xbfcd844c2b4cddea	-0.2305999003817612
60	0x3fcbfb3ee2cce8c6	0.21860490869750587
61	0x3fbd6c6105aa3527	0.11493498218824937
62	0xbfc0ded28cb2da61	-0.13180000181246768
63	0x3fd0ae9f29de7781	0.26065806473513226
64	0xbfbf020271b13edd	-0.12112441325848118
65	0xbfb87bdbf280f500	-0.09563994093419481
66	0xbfc4453d0d28e38f	-0.1583629907852608
67	0x3fc5c4f8900578e2	0.17007357628148784
68	0xbfc57cc1fd788e90	-0.16786980511198069
69	0x3fbd087037e5370f	0.11341000904687014
70	0xbfcf990271e50010	-0.24685698090797858
71	0x3fd3ad1482f87b26	0.3074389723787355
72	0x3fcba38064089b8d	0.2159271706052234
73	0x3fce3576e3b5d258	0.23600660437263588
74	0xbfb575403ad66b2e	-0.0838203567167681
75	0x3fd24a84cc25d8eb	0.28579826294243443
76	0x3fd3354f68f103a0	0.3001287960833512
77	0xbfb59b860e26350d	-0.08440435262146569
78	0xbfd1094d8d3c1fed	-0.26619280617205626
79	0xbfc1e20b4d54ddbf	-0.1397108199687249
80	0x3fcf2dba15d560d1	0.24358297411050114
81	0x3fc2e72de0e0aabc	0.1476800296816999
82	0xbfc82258849a09a3	-0.18854814982121323
83	0x3f98d144e6976120	0.024235798429658506
84	0x3fbae6f5f159eaa0	0.10508668081630868
85	0xbfcc439b967f612b	-0.22081322525515054
86	0x3fbfe9f1ec8ed7cb	0.12466346764890017
87	0x3fc2c96e46715516	0.14677217902741607
88	0x3fb44cb37251190d	0.07929536381661624
89	0x3fbbd585fd20f14f	0.1087268584241816
90	0xbfb95598bed7e9c3	-0.0989623514105125
91	0x3f9f17c9e5ffe7af	0.03036418405824975
92	0xbfd2b98d83aa5c3a	-0.2925752435489276
93	0x3fc6b0dc7ca93254	0.1772723778434676
94	0xbfb258833a4cfe52	-0.07166309522016803
95	0xbfc0634cf3a38d7d	-0.12803041359357428
96	0xbfb2472ebd8353da	-0.07139865996153053
97	0xbfc1906973752ab1	-0.13721960198957597
98	0xbfbeb42da2a42c0e	-0.11993680210814281
99	0xbfd2cd3baba9ec01	-0.2937764336017495
100	0x3fc6d8f23ef3c121	0.1784956748374578
101	0xbfbcfde2e416c739	-0.11324899738863516
102	0x3fc18a53ec3e9825	0.13703393016220491
103	0xbfe0e6fd34b4e16e	-0.5281969098496526
104	0x3fbe1f1e0d8625de	0.11766231374908595
105	0xbfb11da82e30c955	-0.0668587792177154
106	0xbfe12cd7bd40420d	-0.5367239662464854
107	0x3f9c1be3480b9d7f	0.02745013358335546
108	0x3fd0aa1dadd49d65	0.26038305259358757
109	0x3fc417df71d4ac23	0.15697854097501915
110	0x3fcf28d17e761c64	0.2434331767546808
111	0xbfb2fb898629d841	-0.07415065312838555
112	0x3fd1f7fb7b7b9c7d	0.2807606416594764
113	0x3fc460a1ba30c285	0.15919896689731075
114	0x3fb9e90b77fb590b	0.10121223143810114
115	0x3fb009d536b4bba4	0.0626500376281301
116	0xbfcd64122ed42a46	-0.22961642538605725
117	0xbfb3ffc0c41ae331	-0.07812123096199454
118	0x3fb414e523cc4352	0.07844383357975218
119	0xbfc843c3320b6659	-0.18956794684963788
120	0xbfb857ecb89f3eda	-0.09509162433027588
121	0x3fc2a6e264478c93	0.1457179059644643
122	0xbfd1fad4257b144c	-0.2809343687079646
123	0x3fcd4b20e431016c	0.22885523931655471
124	0xbfcbd200df4b9ae6	-0.2173462953862419
125	0xbfbd7b75e9d7fac3	-0.11516510924409844
126	0x3fc12bd6cdab2be4	0.13415036241926181
127	0xbfd0c1e4be2f6ad1	-0.2618343217160773

base.actor.actor_fc3.bias f8 [2]
0	0xbfb1e2c8f19159cf	-0.069866713501461
1	0x3fb1e2c8f1915a17	0.069866713501462

base.critic.critic_fc1.weight f8 [64, 2]
0	0x3fc3a9b6cdccda72	0.15361676262701313
1	0xbfb01bac0e687e3f	-0.06292224265825384
2	0xbfaa05e9aa46949e	-0.050826360736473605
3	0x3fdb9531dd1d2a8a	0.43098112672002087
4	0x3fb28d7de49cc928	0.072471493066392
5	0xbfc0869b808b4f7d	-0.12910789276667947
6	0xbfd7fa0548e3f86e	-0.37463504903997247
7	0x3fd1d9f452a5fb01	0.2789278800118354
8	0x3fd00a085b09e686	0.25061234369750485
9	0xbfdb056d574040ae	-0.42220624466518586
10	0x3fd9cf3b80a1274b	0.4032734638354795
11	0xbfc22a43f02ed7cc	-0.1419148371475657
12	0x3fb535d3744bf9c7	0.08285256947781426
13	0xbfc2617d8ffdc624	-0.14360017329049513
14	0x3fd9eb11c73264c3	0.4049725003511179
15	0xbfc003ae68f3088d	-0.1251123440216059
16	0x3fd4c0220a82f94a	0.32422686602139505
17	0xbf9b7e4634c2dd61	-0.026848885507857804
18	0xbfb5af2f28dcea58	-0.08470434901838908
19	0xbfd72bf8f3552fad	-0.36205886614765853
20	0x3faff9f25fcce799	0.062453817552934505
21	0x3f4c31bfcdc7ddc4	0.0008604227583068271
22	0xbf7fd7160762b9de	-0.007773481416889242
23	0x3fbeff709a13a16f	0.1210852028049254
24	0xbfcabec43978778d	-0.20894673162632352
25	0xbfa8dbfe989199a4	-0.04855342495357043
26	0x3fd3ea1286f9c81d	0.31116164380284933
27	0xbfc93d1bc3ed53af	-0.197177382152089
28	0x3f9fb9724eefe2dc	0.030980859821258075
29	0x3fd45003216cc673	0.3173835588851041
30	0xbfc4242f083959c8	-0.15735423947871952
31	0x3fb251ca086eaede	0.07156050401561795
32	0xbfccc0faaa8ccabc	-0.22463925674090557
33	0xbf7fbaacea82ab6a	-0.007746386960358767
34	0xbfc587d9e38478f0	-0.16820834740878565
35	0xbfd15aa0a6953363	-0.2711564661774927
36	0xbfdf822c49481615	-0.4923201289787767
37	0x3fcadfdf26ca5e58	0.20995702165667995
38	0xbfc8e081c053e5fb	-0.19435140505792944
39	0x3fd2fb2133faaf18	0.2965777404412946
40	0xbfccf62c712f7bdb	-0.22626262213358825
41	0x3fbad32e791adba3	0.10478487450278222
42	0x3fd7b106bd515595	0.3701798294835837
43	0xbfb24c7341d1963e	-0.07147903782750917
44	0xbfbd0b0a84763640	-0.11344972356729333
45	0xbfc8e834ef5817e4	-0.19458638846134513
46	0x3fc97b943a56e6f8	0.1990838322506574
47	0x3f907960cb4ef961	0.01608802071472704
48	0x3f68fb65bacacdcd	0.0030495631129612067
49	0x3f9b3046b9e4d95a	0.026551346870485083
50	0x3fc356bd1ba8b164	0.1510845551541805
51	0xbfd9932bf54cd998	-0.39960764842126073
52	0x3faefc4a99eb71bb	0.06051858071234358
53	0xbfc30c7055f712d4	-0.14881710240856327
54	0xbf9f14167062124a	-0.03035006581241565
55	0xbfc827fb4253cac4	-0.18872013796461407
56	0xbfbe1d543942c403	-0.11763502500504334
57	0xbfb02bd9efdd2700	-0.06316911798526448
58	0xbfd5346b9b9a60e7	-0.33132448382958873
59	0xbfb08fe3550c47bf	-0.06469555689207505
60	0x3fb37bf8849954f5	0.07611039387969128
61	0x3fcbcdacad70c635	0.2172141882779656
62	0x3fbee9804d1f6815	0.12075044520261742
63	0xbf8f42c5a83b6a7b	-0.015264076420341546
64	0xbf37cfa75eb8d1b7	-0.0003633292787726077
65	0xbfc79977b2839da7	-0.18437095848569848
66	0x3fbcb38e37838735	0.11211480002705516
67	0x3fce19f96d618aed	0.23516767350073256
68	0xbfd787ce5313ece2	-0.3676639376933065
69	0x3fb47bfea2f490ba	0.0800170085754556
70	0xbfacd0efc8e85146	-0.05628156020626078
71	0xbf71e785efb4d44a	-0.004371188343886232
72	0xbfc18de537da3325	-0.13714280345120602
73	0xbfbcd98d017e3b2f	-0.11269456182911307
74	0xbfc606786cd093f5	-0.17207246125431622
75	0x3fb97b6c87d87be0	0.09953954998535108
76	0x3fc4441307e8b24f	0.15832746397190298
77	0x3fc8d8b670e13445	0.19411354552940643
78	0x3fc0181577def7bc	0.12573498108934966
79	0x3febd41a2ba2b7f1	0.8696413852937878
80	0xbfab219d49b40044	-0.05299083256431961
81	0x3fd05ca71ead93f2	0.25565507884885996
82	0xbf68c7049b537485	-0.003024586675208387
83	0x3fb7a2de23c021e6	0.09232891438308108
84	0x3fd0f39d43e157ed	0.2648690379040762
85	0x3fb1b1d4faaca527	0.06911975021343562
86	0xbf79b1407b72070c	-0.006272556193950295
87	0x3f90b1e372142624	0.016303590619861322
88	0xbfd13726e8192bcc	-0.26899120965816503
89	0x3fb87e39b9979a47	0.09567604809817808
90	0xbfd0c11691a8ab86	-0.2617851660203815
91	0xbf7826b5850b1e69	-0.0058962908376042145
92	0xbfc1fd5fb678d9ce	-0.14054485711831294
93	0x3fb09e1d6cdd8266	0.0649126425537446
94	0xbfb6e4b97bb479f4	-0.08942755956784493
95	0x3fdc3a7fb988decf	0.4410704910146536
96	0xbf97b1bd70695e38	-0.023138961778697203
97	0xbfc1ccd7aadfcc18	-0.13906379550425707
98	0xbfba9018f1566bbd	-0.10376125232725904
99	0x3f9e89ab894c9858	0.029822044615820026
100	0x3fd1d327d95bfa3d	0.2785129187249458
101	0xbfb97df012bf5678	-0.09957790811253087
102	0x3fd61602f720c2c0	0.345093480430517
103	0xbfbfbf174e79d6cb	-0.1240095678893695
104	0xbfcb73de1e78b0df	-0.21447350013602937
105	0x3fd72a97dc099ed2	0.36197468269390953
106	0xbf98f4af5016e7c1	-0.024370898497842356
107	0xbfba9284c5d74e88	-0.10379819707969251
108	0xbfae7f4748d08af6	-0.05956480754709574
109	0xbfa00bad8633a04b	-0.0313390947647468
110	0x3fb0ac2d4a5b20d3	0.06512721124011316
111	0xbfc716459e835038	-0.18036718597307
112	0xbfd426876cd515f2	-0.3148516238037181
113	0xbfb0f0fcdda6ac01	-0.06617718135264285
114	0xbfb9b02a05a9ccd8	-0.10034430158866614
115	0xbfb002774b0fffbe	-0.06253762800770254
116	0x3fc4bae388cc1496	0.1619533937411332
117	0xbfbf1daa937a20bb	-0.12154642200960357
118	0x3fd786173aa0ca80	0.36755924916648297
119	0xbfb6493754555626	-0.08705468949241232
120	0xbfd2575c6649825b	-0.28658208836535487
121	0xbfd80e49e77accaf	-0.3758721123260313
122	0x3fbda922a58777d5	0.11586205044974858
123	0xbfb2d612e1d3a7d0	-0.07357900632237535
124	0xbfaf9884c1eb9473	-0.061710499450591615
125	0x3f84480e96313b9c	0.009903062780862552
126	0xbfa5531c2282db3c	-0.04164970322874814
127	0x3fe3f4a29cfb76ce	0.6236126962719142

base.critic.critic_fc1.bias f8 [64]
0	0x3fb320a895efe49b	0.07471707974026957
1	0x3f8fe44e0ecbe6f8	0.015572175814202435
2	0x3fbe6cf83387dcd0	0.11885024316858339
3	0x3fbf101908d47f9d	0.12133938279703078
4	0xbf920fb8fdae9e46	-0.01763810203888585
5	0xbfa89618be4c86e8	-0.04802014658913639
6	0xbfca750d127223ae	-0.20669711495091064
7	0xbfb6166ac173f6f8	-0.08627955649350472
8	0xbfc9656fb9d77f51	-0.19840809416109065
9	0x3fbcf07a051847ce	0.11304438232789879
10	0x3fbf49d1ba4c0e18	0.12222014234799194
11	0x3fc8fcc8165a4ac0	0.19521428195419865
12	0x3fc96ee23f2db293	0.19869640431297295
13	0xbfc474af5e3d5c3e	-0.15981094457194617
14	0xbfbda4aade9df1ba	-0.11579387602791416
15	0x3fc65f5cdd3a228b	0.174785240193405
16	0x3fc33e576f877534	0.15034001298674016
17	0xbfc85454bd24473e	-0.1900735782187954
18	0x3fc398cafe4a0cf9	0.15310037056415363
19	0x3fc6e2cd0112b222	0.17879641106027672
20	0xbf9b6269b93f0115	-0.026742603236699376
21	0xbfb518d858a2aa69	-0.08241035617781169
22	0xbfc57a772f4a7e6a	-0.1677998524582905
23	0xbfc6bc1846e6d7c6	-0.17761519872664006
24	0xbfc0bf79484abd69	-0.1308433154094744
25	0xbfc878c310b299ca	-0.19118536296191585
26	0xbfc3728a5ccf6f7b	-0.15193299800636936
27	0xbfc2f6759ae960dd	-0.14814634384197847
28	0x3fbadadf55051485	0.104902227646635
29	0x3fcc3cfb097a8214	0.2206109806329698
30	0xbfc06e71aaae327a	-0.1283704837227509
31	0x3fbbedf4560c4b0e	0.10909964657575363
32	0x3fc8c553369323f3	0.1935218826750141
33	0xbfc19a49cec535cb	-0.13752100559433553
34	0x3f8d0217b5df5119	0.014164147603800846
35	0xbfbb8feb2fc46510	-0.10766477504911998
36	0xbf983e2474e08356	-0.023674554475408748
37	0xbfbacaedc6e7f28d	-0.1046589480028592
38	0xbfc1168c1594d042	-0.13350058606886434
39	0x3fd05aaf165c5912	0.25553490813889923
40	0x3fc400ae5d732748	0.15627078593234445
41	0x3fb7a6861c860660	0.09238470264792786
42	0xbfc4fcf100b07a0e	-0.16396915944729112
43	0xbfbfe0b59b235582	-0.12452254331159021
44	0xbf97d6ea02aab524	-0.023280769741792842
45	0x3fba60edd804b12c	0.10304152034649822
46	0x3fc492a95aad73ed	0.1607257550012088
47	0x3f8dec4ffc64f885	0.01461088646885523
48	0xbfb217a33c05f6cc	-0.07067318168079878
49	0x3fc99cd128d3ebb7	0.20009817594094922
50	0xbfc01c07c6b6afa3	-0.1258554191857658
51	0xbfc749d784e10eb0	-0.18194097507704532
52	0x3fc29d5384bc71e8	0.145426215946727
53	0xbfc543ca47949021	-0.16613129134305019
54	0x3fc9440d5cbc7f77	0.1973892882169783
55	0x3fb63db82d086c3e	0.08687926387249065
56	0x3fcb4a621affbe44	0.21320749586401366
57	0xbfb0b439cd338cf5	-0.06525002727316916
58	0x3fbd834652f66ff1	0.11528434300856795
59	0xbf945c7af979cbd2	-0.01988403461150396
60	0xbfce2f6b7c7b8d2d	-0.23582213953259537
61	0x3fbbec368ec623c2	0.10907307611172626
62	0xbfbd4d03cba12f5b	-0.11445640298296438
63	0x3fb53732948f52c4	0.08287349821996332

base.critic.critic_fc2.weight f8 [64, 64]
0	0x3f85a65fd8ad4c36	0.010571240234332629
1	0xbfc3066a2c906bd8	-0.14863326240523977
2	0x3fc44a1cc2af15a2	0.15851172929812402
3	0x3fac4d951fae81c9	0.05527940761317358
4	0x3fc4ac298e885ea5	0.16150397739032943
5	0x3fa2692f9b2202c2	0.035958755194774664
6	0xbfb21afdb2794896	-0.07072435004491448
7	0x3fc145e04fb4405a	0.1349449528866014
8	0x3fa029a0cb3b8523	0.031567597206740204
9	0xbfb6dcc2a38c984e	-0.0893060349741017
10	0xbfc3a57890b1ce53	-0.1534872728840236
11	0xbfcad3b1e0f38b87	-0.20958541377975967
12	0xbfa63b7fc53e600f	-0.04342269213447036
13	0xbfc33f4d25a21ae1	-0.1503693040615053
14	0x3fa88311ccf080ac	0.047874981181167925
15	0x3fba309d35bfda0d	0.10230429231874201
16	0x3f9a9baf76fba271	0.025984517705099856
17	0xbfaf1f0e92da9eed	-0.060783820559036396
18	0x3fa30cefc29c3c42	0.03720807314504572
19	0x3fbf5bb092fc1191	0.12249282444469702
20	0x3fcb725a6490240f	0.214427279570629
21	0xbfa3136f645b17c2	-0.03725765323683518
22	0xbfb397bfec4f4932	-0.07653426665573163
23	0xbf7c4c09952b84a1	-0.006908452446368647
24	0x3fa1ae340c9f04a3	0.03453219083849859
25	0xbf959904439a7fbf	-0.02109152472132769
26	0xbf9f9ea0f6fdf0d5	-0.030878558230583792
27	0xbfab47bf52388420	-0.05328176382705174
28	0x3fc894756714ea1a	0.1920305970505332
29	0x3fd22c926782d3ed	0.2839704523897229
30	0x3fc8db324394955f	0.19418934154343057
31	0xbfd225549eb65d94	-0.2835284757543033
32	0x3fb8ea479b7a8619	0.09732482477058858
33	0xbfb401c0e5feb48a	-0.07815175643072983
34	0x3fa604508c8c4350	0.04300166812584527
35	0x3fb1f98e179106b8	0.07021415782312601
36	0x3fc7326f1cbd8a94	0.18122662452067984
37	0xbfa0dc943c3bd358	-0.032932884552713204
38	0xbfd053acaf4f611f	-0.2551070892345865
39	0x3fa4c137729ef8f6	0.040536625615901586
40	0xbfb94b4aea7caef2	-0.09880512451917037
41	0xbfb9e557131bedd4	-0.10115570274859148
42	0x3fb98a8d191a7edc	0.09977037299040198
43	0x3fa3ebe7c7fe4fae	0.03890919033361172
44	0xbf94ce260be34374	-0.02031764457280212
45	0x3fd26be05d0591c2	0.2878342541137294
46	0x3fb3bdfac84b86fb	0.07711760892882673
47	0x3fa280124950a3fe	0.03613335747679257
48	0x3fb006584655a004	0.06259681431913583
49	0xbfba7d1b74147b67	-0.1034714849852044
50	0x3fb66845dcf33071	0.08752857822691042
51	0xbf7d859dc4757d98	-0.007207504538512842
52	0xbfc990bfb6efde1b	-0.1997298854109751
53	0xbf9e8ce81fe0c988	-0.02983439154213266
54	0x3fc7d68fa969e183	0.18623538753650956
55	0x3f81c2205e5f8750	0.00867104804996513
56	0xbfc857c4fb78dbf5	-0.19017851141845168
57	0x3fb87bfd7bc1542f	0.0956419398438164
58	0xbfc8b6215d0d16ef	-0.1930581764556147
59	0x3fce2ed0831117f8	0.23580366515869833
60	0xbfb3e3b5c9d59824	-0.0776933305511141
61	0xbfa662965a85efa5	-0.04372091155070671
62	0x3fb79505257a6365	0.09211761631958167
63	0x3fc0f44aa1f03fac	0.1324551859584039
64	0xbfb112ba1f6bf0b9	-0.06669200198297433
65	0x3f92a6246772ef1f	0.018211907209418784
66	0xbfc8c70901da4e24	-0.19357407179323716
67	0xbfd37c84c9e87f8a	-0.3044750186691024
68	0xbfb78d157b8833a9	-0.09199651971739677
69	0x3f821a39a9d6f178	0.008839083190530714
70	0xbfc552c18d464fd5	-0.1665880145852713
71	0x3fc7ef3e1822820e	0.18698860338646778
72	0x3fc9f8af45c44a13	0.20290175348834846
73	0xbfab60a843866d70	-0.05347181152611824
74	0x3f8b8872ffc8f0b0	0.01344384997457157
75	0x3fbe2a2357945837	0.11783047569437675
76	0x3fc03c31dc2be812	0.1268369984680367
77	0x3fb80504a5d8ed4c	0.09382657097824171
78	0xbfb4fac6f7df5989	-0.08195155669759492
79	0x3fa338ebf898ad3a	0.03754365357994023
80	0x3f96e837ed6bf395	0.022370218149251626
81	0xbf9e6919bfd280a5	-0.029697801907446437
82	0xbfc01a57d4643742	-0.1258039271419254
83	0x3f948d7de71f557e	0.020070998412696543
84	0xbfc02d67ba471216	-0.12638565631472493
85	0xbfb9b0b4eed0cec6	-0.10035258131466226
86	0xbf9123c198e0a125	-0.016737961727046575
87	0xbfc4948dcddc252e	-0.1607835059333324
88	0xbfb11d58862e17cb	-0.06685403133278027
89	0x3fc4a05665a50e5d	0.1611431118309267
90	0xbfa1d7483ad2ba54	-0.03484559743934726
91	0x3f9a3b1f165bf3b5	0.025616155376144884
92	0xbfc8a9ba27190068	-0.19267966183724927
93	0x3f94d792c53947f0	0.02035359696157707
94	0x3fac71eb364ead44	0.05555663144999781
95	0x3fb41e0b0df3ee29	0.07858342257161922
96	0xbfa4df16fb94fcfd	-0.04076453991955906
97	0xbfbbadf2a449596d	-0.10812298308278452
98	0x3fa4fd15dd42b355	0.0409933884232944
99	0xbfa35606a0a6fdad	-0.037765700446012
100	0xbfbd6da4fb47a62d	-0.11495429167521172
101	0x3fc2b4d35d3cc942	0.14614336063966432
102	0xbfc41a5335e8be06	-0.15705337650568668
103	0x3faacdedb2e2b292	0.052352359854329525
104	0x3fc9960b1dd830a8	0.19989146191835983
105	0xbf84b6579b6ca3aa	-0.010113415175128388
106	0xbfc31942232fe0bf	-0.14920832365146983
107	0xbfb23e793dab97c1	-0.07126577144262482
108	0xbfb9b0fad7f427ba	-0.10035674831684008
109	0x3fccc68185e07a7d	0.22480792080837722
110	0xbfd1d853c9279b78	-0.27882856983199344
111	0xbfb111e6b921a606	-0.06667940158663307
112	0x3fabff1321bad3a5	0.0546804407762587
113	0x3f99bc2bfbc697af	0.025131880991146435
114	0xbfc516186319c9ee	-0.1647367938890762
115	0x3fd368636b8cf14d	0.30324635985359266
116	0xbfad5e2c6901bbf5	-0.05735911161251998
117	0x3fae45b809d7c507	0.059125662995834154
118	0x3f671c0419a6ffae	0.0028209762651556147
119	0x3fca7eeec7080caa	0.20699867933590116
120	0xbfb90e3db40e9f7e	-0.09787355085302171
121	0x3f9fab00e5673a33	0.030925764085447404
122	0xbf86c23edd859b58	-0.011112681517898501
123	0x3fc981ef2010d8e5	0.1992777735301338
124	0x3fc2fa021588c3d0	0.14825464297749003
125	0x3f81f2d59269c29e	0.008763950853990562
126	0x3fcf94beaae44b09	0.24672683090519623
127	0x3fa98d826f2af8d5	0.049907756872458776
128	0xbfd0c5e87ebcc1c8	-0.2620793569249398
129	0x3f9e0463fffc804f	0.02931362390438635
130	0x3f9290ffc55ccea9	0.01813125269036556
131	0xbfbcf9fa79332cfe	-0.1131893678568083
132	0xbf8219d31c071d52	-0.008838319104042345
133	0xbfc24e3fd00bdaac	-0.1430129781581021
134	0x3fa5889cb2699ab3	0.04205789258849304
135	0xbfc2aec4fbfc7c8c	-0.14595854095475536
136	0x3fa99331d8eb7f4c	0.049951131562692014
137	0x3fabc616a6ba35de	0.05424567017790215
138	0xbfc22de29e7b059f	-0.1420253061133225
139	0xbfc5877d486b558d	-0.16819730793092127
140	0x3fa0b5d1295aaa10	0.032637153909792826
141	0x3fcd9c0ebec0fead	0.23132499994425385
142	0x3fbc7756cb02d538	0.11119596916508534
143	0xbfba04cead1a2b84	-0.10163585401657654
144	0xbfc5f2d6506106d5	-0.17147330212360737
145	0xbfc7541fcc552259	-0.18225476720023684
146	0x3f94a1c282cd9c1a	0.0201483146987834
147	0xbfc78388a12ff092	-0.18370159025642302
148	0x3fce33f8e2cdfa80	0.23596106600230726
149	0xbfb0ba881a54eb00	-0.06534624712814363
150	0x3f995e44c8a5c424	0.02477366900115298
151	0x3fb7442d03e75b07	0.0908840307741735
152	0x3fa440bc6a9142d7	0.0395563964926901
153	0x3fbba7917abd030d	0.1080256390241738
154	0x3fc2dfa42538da12	0.14744998757824185
155	0x3fd534bab110c254	0.3313433388857778
156	0xbfd44b45147b2b33	-0.3170941066752448
157	0x3fd064a615b2dfa7	0.25614311331764344
158	0x3fc2e0a437f7b7e2	0.14748051388545408
159	0xbfb2aff869d93920	-0.07299759468262268
160	0xbfa0c148efaafc32	-0.03272464681276012
161	0xbfbd9abf1f5912bc	-0.11564249530153864
162	0x3fc56322ecdd8ccf	0.1670879036492807
163	0x3fdb462380dfffc8	0.42615592561196225
164	0xbfa5d7731e2cc4a2	-0.04265937560411116
165	0xbfb54e27a7b807ee	-0.08322379917811393
166	0x3fc81f58a02692e8	0.18845660991532687
167	0x3fb4c3f96525839a	0.08111532897375043
168	0xbfc007275daeb942	-0.1252183158334877
169	0x3fcbaeb03f397e1c	0.2162685688699505
170	0x3fb4045673eeec5b	0.07819118814852415
171	0x3fbf665b0691d0f3	0.12265557203665249
172	0xbf9a79abdce86ab3	-0.025854764326235635
173	0xbfa7d77736b57eeb	-0.046565747669544987
174	0xbfc8359d78392075	-0.18913620348235197
175	0xbfc182f47e2caffa	-0.1368089309775085
176	0xbfa899367af4adb1	-0.04804392100262634
177	0x3f6da21b7485409d	0.0036173378213462796
178	0x3fcbb7d454764c01	0.2165475284969887
179	0xbfa117aea37ecd94	-0.03338380571167501
180	0xbfa56a08b4ca7513	-0.04182460028571646
181	0x3fc8ecf6d6b2d8e1	0.1947315738995661
182	0x3fbea6e52ceaaa73	0.1197341189060042
183	0xbfa994097982edff	-0.04995755775732035
184	0xbfa589948dabd2b3	-0.04206527928719108
185	0x3fcf2cd79c94d048	0.2435559763486046
186	0xbf841cf795065b02	-0.009820875392319465
187	0xbfa35990dc6645a5	-0.03779270830558382
188	0xbfc30b9aa8eb8932	-0.14879163024949943
189	0xbfb6145d1005e935	-0.0862482227438804
190	0x3fbeaadb309afe1f	0.11979455887466671
191	0x3fa7850ed643cf8f	0.04593702664888532
192	0xbfd4e4524297eec3	-0.32643562796850406
193	0xbfbefb4d683e23b4	-0.12102206988323766
194	0x3f93796df6c9f6ab	0.019017904460716533
195	0x3f967dd08c2c1dce	0.021964319758834887
196	0xbfc4a273b12f3a29	-0.16120763923250195
197	0x3fc59a6c65a8e373	0.16877512897351785
198	0x3fb2fc7f7b87c37f	0.07416531339528197
199	0xbf9c877301d4e6fd	-0.027860447871012706
200	0x3f9da0dbc2d84210	0.02893393875825906
201	0xbfac896f26f6d2c8	-0.055736039644590785
202	0xbfc82f8f56f74d9d	-0.18895141359699333
203	0x3f8c535b05c1c0a7	0.013830863106904024
204	0xbfd1b83312f21955	-0.2768676457420914
205	0x3fa78f17b1c60fc2	0.0460135845669636
206	0xbf7e194230b1f1ea	-0.0073483071856767865
207	0xbfd7d707b0a892b5	-0.3724993920498421
208	0xbfd0c451607a3c99	-0.26198229238156895
209	0x3f978de9e428a831	0.02300229506560231
210	0x3f97b11cdf0b26b1	0.023136569131372912
211	0xbfa54865a3f5ec42	-0.041567970528341394
212	0x3fa5b0c58469e4f5	0.04236428490998804
213	0xbfc142b6fcaea270	-0.134848473911251
214	0x3fa09be0b858904c	0.0324392533332519
215	0x3fb243b2d645a20a	0.07134549838304607
216	0x3f9f6c20ab5fd9f3	0.030685911617149796
217	0x3fd684aa56046f7b	0.35184725189332483
218	0xbf89e71bb3436e91	-0.012647835167107576
219	0x3fceea8f761c4cd8	0.24153321520916538
220	0xbf907509dab9afdd	-0.016071466422019277
221	0xbfb1b4ffb3406a97	-0.06916807295093928
222	0x3fc2a1f398d81bc4	0.1455673691091005
223	0xbfb7457785c820a9	-0.09090373054653135
224	0x3fc29e2d735dc847	0.1454521954834169
225	0x3fb45bb976b4d7d7	0.07952460430246276
226	0x3fc2bdd1e5459d86	0.14641784377020545
227	0x3fc161fb9029fdb2	0.1358026937414088
228	0xbf9ae58474afaa40	-0.026266164419135984
229	0x3fb7da065ec98186	0.09317054571284275
230	0xbf9732e9ceaee5d1	-0.022655156364384702
231	0x3fb0a8d3cf21da01	0.06507610136927867
232	0x3f2b2961a5340713	0.00020722691497359526
233	0xbfc4465cc6c9cebf	-0.15839729029140945
234	0xbfcff994e62a6348	-0.2498041271071776
235	0x3fa6b8b6cbdc485e	0.04437800634890786
236	0x3fbee4ae73fb2415	0.1206769021183763
237	0x3f67e2d495aa3f27	0.0029157783549819296
238	0x3fb4d2f757f1c936	0.08134408852655359
239	0x3fb29b5be253b3c2	0.07268308902321421
240	0x3fc8493bcbf35498	0.18973491152306532
241	0xbfd7be2a905c096f	-0.3709818277131011
242	0x3fbd85d8a3b3575f	0.11532358166308886
243	0x3fb7dfc77557a690	0.0932583486061509
244	0xbfc2abcad33686c5	-0.1458676844895789
245	0x3fcd7b48b1d5140b	0.23032482798785767
246	0xbfaf010bbebe637e	-0.06055485442556739
247	0x3fa8c38a5679ad66	0.048366854721133376
248	0xbfca282d1be2852c	-0.2043510805279224
249	0xbfbb66070d3350c7	-0.107025566790358
250	0xbfbfe1265708ed1c	-0.1245292627799483
251	0xbfc83e18db2dad5f	-0.18939505292960754
252	0xbf91117c1af0576c	-0.016668261665550174
253	0xbfbd7ac955ae2d1a	-0.11515482274824188
254	0xbf8dc5af2e426071	-0.014537209128590885
255	0xbfb9fd218b83f6b3	-0.10151872306956981

base.critic.critic_fc2.bias f8 [64]
0	0xbfafae6a2f954fb4	-0.06187755423402966
1	0xbf9b0260431ee8da	-0.026376251312947165
2	0xbfb48448bc26d730	-0.08014349549816013
3	0xbfb67307ae6f7a4d	-0.08769271858862134
4	0xbfb1617136ece253	-0.06789310065222169
5	0xbfba275ef5b9283a	-0.10216325282195352
6	0xbfbbaf519a16525c	-0.10814390193838491
7	0xbf9b7c268eb9c161	-0.0268407845127866
8	0xbf9eefaa399b3c88	-0.030211124197020683
9	0xbf8c9e0a2c6a35ac	-0.013973311882433524
10	0x3fba89c8ea769671	0.10366492962074304
11	0x3fc01d25533ac735	0.12588945926614206
12	0x3fbf7e4843cdcbc0	0.12302066474312223
13	0xbfa42af5c24d035e	-0.03939025875889145
14	0x3fb27ba276700b5c	0.07219901458306083
15	0xbfb940a40a6b30ea	-0.09864259008753931
16	0xbfac1e26313f6f6a	-0.054917520057385996
17	0xbfbfece001d8fb3f	-0.12470817608935379
18	0xbfbaccf52bd6e777	-0.10468990631389184
19	0xbfa47c6d85303a2d	-0.040011808880184276
20	0xbfd2679d14130e3f	-0.2875740715064445
21	0xbfbc8342d34ad065	-0.11137788446905146
22	0x3f95276ffbe2b99a	0.02065825438392608
23	0x3fa5cbeba5b03358	0.0425714149242597
24	0x3fc1ab26c08869ad	0.13803562546747852
25	0xbfa97850c785c1e9	-0.04974605975701591
26	0xbfba7f47ce2cb704	-0.10350464614449711
27	0xbfc1b27cf2b1b178	-0.13825952387140794
28	0x3fc34581ee9815db	0.1505587019930051
29	0xbfc012f9d6b9bd4e	-0.12557909950872176
30	0x3fb5ccc6550f40c0	0.0851558644928927
31	0xbfb21884a83d03b4	-0.07068661792165082
32	0xbfbeebb832407fe3	-0.12078429438452036
33	0x3fc0b0a4716196af	0.13039069687072444
34	0x3fb9f05d189bc39d	0.1013239083365662
35	0xbf8f82aee73c85ad	-0.0153859772031549
36	0x3fb5eba3f0463c3b	0.08562683693001898
37	0xbfa4868535f74068	-0.040088808858514124
38	0xbfbdf296ae6801b7	-0.11698285825696685
39	0x3f76e828700098b9	0.005592496832866605
40	0x3fb615dd9f1c789d	0.08627114424277456
41	0xbfa1085fb9fad110	-0.033267013027769576
42	0xbfbab301fb7f64f3	-0.1042939414031883
43	0x3fbedcf7bfce0fc2	0.12055920059907435
44	0x3fcaf979bed75242	0.21073839014447243
45	0xbfc0e0ee1e185778	-0.13186432332502895
46	0xbfae9e3532140f53	-0.05980077968891231
47	0xbfb18f88dee28d1d	-0.06859641496207698
48	0xbfba7cf010da2990	-0.1034688988822039
49	0xbfb69ec250c10a1f	-0.08835997077498135
50	0x3fadec9677a81ad9	0.0584456463876017
51	0xbfb40f4716392d47	-0.07835811893999277
52	0x3faaa64fb3d9796b	0.05205010481289459
53	0xbf80b3bf984a3e65	-0.008155342898390214
54	0xbfa6eddf87f329e8	-0.0447835782484452
55	0xbfa89aaaef69d3b7	-0.04805502102400488
56	0x3fc007553794fb65	0.12522378171885432
57	0x3f9bed77ed85aef5	0.02727305781574692
58	0xbfbd247930187a02	-0.11383778976640005
59	0xbf6e95e49b725010	-0.003733583925688684
60	0xbfb7bcffb9229ea0	-0.09272764463332317
61	0x3fb0858e79a51051	0.06453791112750308
62	0xbfb97ec5b3efdb56	-0.09959064143172944
63	0x3fb006f4c95770a6	0.06260614314618582
