results/Ant-3d/cmorl-ipo/0/final/EP_policy_20.pt (torch, 105481 bytes, 13 tensors)

base.actor.actor_logstd f8 [1, 8]
00000000: 15a2 fe8a 8c65 f8bf 18f3 8415 a594 fabf
00000010: 0f70 46da b212 fabf 3e14 dab0 97f2 f8bf
00000020: 2022 81ee 30ac f8bf 49e8 4882 7581 fabf
00000030: 8bd1 b913 a13c f8bf f062 7c61 bb11 fbbf
-1.5247922353247578 -1.6612902489279744 -1.6295650984166092 -1.559226694896338 -1.5420388523654154 -1.6566062058687 -1.5148020525494725 -1.6918290908853884

base.actor.actor_fc1.weight f8 [64, 27]
00000000: 4d10 95af 0e02 be3f a44e f50b c20a d3bf
00000010: b74e 0fe9 ac75 c03f c6ea 29dd 2b9d c5bf
00000020: 81da 9ca5 5349 d4bf 781c bd03 d50d c2bf
00000030: 138b 182e 6a0f cbbf ead5 179d d3c5 8bbf
00000040: 0eda d681 c3fc 9c3f aa6b 3cce 16f0 ba3f
00000050: 8e16 1d64 ea79 9cbf 329b aaf2 6a51 cabf
00000060: 1748 0c5b 3b6e 99bf fc98 c7b2 0475 b8bf
00000070: fe4f 197f edca a0bf d1f7 97f5 c3cc c4bf
00000080: 89b9 c577 f619 a4bf ea38 c1c0 13aa bbbf
00000090: 3e50 0e4c bc63 cf3f 88c0 0c81 366b a63f
000000a0: 030a 1aea 5771 dc3f 44ab 5f15 f7c6 b23f
000000b0: 5ff2 66e7 2986 7fbf a3d8 56f3 bae2 a9bf
000000c0: c015 a0a3 5f77 cdbf 7ef7 c9bc bd56 a43f
000000d0: a3a8 c241 3225 d53f cd3f ee4a 7bf1 c23f
000000e0: 69e4 c322 7fbf c43f 4e92 70a8 2071 ccbf
000000f0: 0a8b f29b 0b09 bcbf bc3b 5c36 d171 b73f
00000100: 1ad6 c3a4 7617 b5bf 8a48 9155 7252 a1bf
00000110: 093b 0577 6c8b 7cbf 9157 a7dc d1c3 bfbf
00000120: a022 4982 76d1 c53f 8111 864f ef7e bebf
00000130: 1021 c812 20f0 ccbf ef10 34fc c5b2 c1bf
00000140: 34f3 9c4a 8bfd c3bf 6056 2358 5dab d0bf
00000150: 620d 41d1 2050 c73f 287e b7d8 ea1b 843f
00000160: 09b4 59a9 f56d c1bf 9018 7882 662a d2bf
00000170: 586d c57b eb3f be3f 3787 8443 dc3a b43f
00000180: c6e1 9bef 6493 cf3f 699c 79ff 8b9d d0bf
00000190: ed9e 117b 707c acbf 6392 24f0 6424 a1bf
000001a0: 776a a2f7 9da9 d03f 5b86 e2b7 1dcf c33f
000001b0: b8b4 f3e9 7f24 c8bf 49e6 5ce5 402d c83f
000001c0: ffa5 431d d05f b3bf a245 09ca 341f b13f
000001d0: 11ac 90ba fc5e b13f d4a1 a01e b4dc d73f
000001e0: 1724 fbd0 c34f d3bf 2284 9da9 5136 cabf
000001f0: edbd 9145 7914 b5bf 723f 6050 f189 c4bf
00000200: 5a37 6632 f3de ba3f 10b5 7b26 c031 b23f
00000210: e3de 7d49 30d6 b8bf b7ea 6fe4 f501 cbbf
00000220: 0645 5921 955d af3f c278 459a 102d a33f
00000230: 4ae4 1512 2d30 b5bf b99c 6e25 917a aabf
00000240: f65c 3a9f eaa5 b33f 8ff2 95a5 2687 733f
00000250: 5206 6b3b a124 90bf 8d09 e540 cef3 c83f
00000260: c5bd cf75 0372 c83f 068d 614c 959f cd3f
00000270: 920f 7edd 1afb d03f 2c2c ec05 d1f3 c7bf
00000280: 14af 5647 c1f3 a73f e864 e9c7 06d0 7abf
00000290: 7192 d564 4643 d03f 0fe0 9020 4a4d c23f
000002a0: 5b40 3e04 4faa cc3f bbe7 6cc8 7cac d2bf
000002b0: 856d 27f3 37cb c4bf de15 7520 ebcc 8d3f
000002c0: a7b8 5821 f6c2 bc3f e659 0777 f184 c9bf
000002d0: eff5 0c2d ba7c c83f 7713 54b4 5925 d0bf
000002e0: 1693 4988 6210 b9bf 7ea7 b6ec 40aa acbf
000002f0: 4e11 09b7 b259 abbf 088b 77a7 84b3 b2bf
00000300: c46c 8135 b55b b53f 2471 4b31 95fa c73f
00000310: 6fd7 4424 8e41 b33f 0a96 e2e0 e5fb c43f
00000320: 44c1 9a55 f4bf dcbf 132d ebfb eb34 b03f
00000330: 3bc1 d4a3 9ab2 b63f 459e 0307 6f87 c43f
00000340: b034 57f9 041f 993f 18fc a615 86aa 93bf
00000350: 84d2 b4fb 3002 d0bf 2d5f 972e 3a36 c4bf
00000360: 4709 1cdc 2b16 b1bf 93f4 03b3 b9ec af3f
00000370: deb3 bb33 45b9 d33f 200d 3cee c32d adbf
00000380: 4279 51d8 985a d43f 30c4 3b08 e68a a8bf
00000390: f042 c086 8f64 dcbf 0564 c58f 54bc ab3f
000003a0: 176f 5b1b 3207 c33f e50e 626e fdf0 d43f
000003b0: 468a 3fd5 2647 95bf 028a 6285 1153 c1bf
000003c0: e733 0e7d 22a3 c4bf cd73 2f7b 4c04 c9bf
000003d0: 0e86 e0ba 6431 afbf 1f7a 5d92 af8a aebf
000003e0: 0e7a 5b9d 9208 cb3f 9079 c359 4772 acbf
000003f0: 15a7 e13c 5be4 b9bf 9306 00ff d4ab afbf
00000400: 7237 4137 faa0 a23f 4eae f20d 6bf9 c23f
00000410: e1a7 a338 437c 9dbf 3d8c faf1 0390 b03f
00000420: 395c cc15 b9f5 b1bf 463d 5d51 bd24 853f
00000430: ef68 e99d f2ba d53f a3ea e192 72ed bc3f
00000440: 55a6 25b0 7985 b7bf 93dd 3f9e d443 d6bf
00000450: 1a05 f0cd d0e1 ccbf e675 c73e dd21 cebf
00000460: 7de1 572f e892 d03f 1fab 73cd f1e6 d1bf
00000470: 5848 1927 86f9 c0bf 2770 afc0 a1cb c0bf
00000480: fb28 26f6 7c71 2b3f 75e8 e2ce 3f9a b13f
00000490: d7f3 6f1f 24ff b53f b198 6d35 bffa d1bf
000004a0: e7fa e6b3 e5ad a9bf 48af b59b da53 b6bf
000004b0: 2e93 f807 db19 bfbf ad76 d829 f5d7 ba3f
000004c0: 8d18 288d d634 c2bf 06d6 b942 7eaa b83f
000004d0: 9ca8 25c0 45b7 af3f 1974 9a13 c681 b6bf
000004e0: 2332 f98f a51c d0bf daf6 d11c 1f4f d43f
000004f0: 08da c4d2 8256 b63f 8807 bfc2 eda9 ba3f
00000500: a1f0 3798 83ed cf3f a821 3b3c ad3f 983f
00000510: d564 72bc d696 d0bf 06c7 ecbf eddc cebf
00000520: f8da 32df 10a1 b23f 8ead 16af 3bb9 993f
00000530: 2623 67c6 dbc9 b33f ba85 85f7 b628 97bf
00000540: 9a43 12a8 c3f3 bdbf f11f 6b1c ff63 af3f
00000550: 86f9 b931 cd83 cebf 32b1 18f4 327f c8bf
00000560: 3caf fe4a 2e52 d13f 5dda 4b07 117d ccbf
00000570: afee d7de 2948 c8bf 816d 96d1 3f32 c6bf
00000580: 9b77 be8e 60f3 5fbf 77b6 8b29 abb4 d23f
00000590: ee90 a373 c900 cabf fdc6 63f8 e7bb d33f
000005a0: 4246 dd6f 2189 b53f 36e6 be73 72c6 973f
000005b0: 3c7f f224 c689 cb3f 4380 3a43 f64f d13f
000005c0: fcf1 473a dd61 bbbf a798 4d12 e048 a63f
000005d0: 9864 d463 d932 ccbf 6396 fbb1 64cc c23f
000005e0: af46 1c9c 6c4c bcbf 9aaf 64bb 7073 c83f
000005f0: 8840 340e cb29 d23f 151c 5e2d 68d0 d13f
00000600: 1034 a138 9182 bd3f 8f8c 6121 3294 d0bf
00000610: d834 4dd8 998b 91bf cf2f a271 fdb7 bf3f
00000620: 001a 2d08 ff4f c73f 2a39 c583 c441 b33f
00000630: 1fa1 2aa6 a784 cbbf a9da bd24 45d5 c13f
00000640: 6019 da0a 6d7f a6bf 0cc5 04bc 1ea6 aa3f
00000650: 0fbb 5791 d802 cabf 128a 317e 3aa6 c43f
00000660: 6086 8e38 e174 cb3f 95e0 2e9d 74b4 9ebf
00000670: 0a83 d106 fc78 c6bf 312b 6412 3242 a5bf
00000680: 2a57 60f6 7481 b9bf ce4c 4bb2 4f48 a43f
00000690: 5fb3 6711 d0a3 c7bf 110c 8129 40c0 bdbf
000006a0: 839f 52a8 67c0 bd3f 99ef 1c4f 740a d7bf
000006b0: 84c1 394b 764d d03f c7d0 a4bf 66c5 bc3f
000006c0: 4093 0693 a928 ae3f 7c62 3968 5039 b1bf
000006d0: 171d 05b7 a3f2 ca3f fc2a 778e 33d7 633f
000006e0: 66e0 4180 5a5b b2bf 395f b011 c5ad c2bf
000006f0: 4f7a acdb 4aab c83f c112 cdf4 eece b43f
00000700: e47c f79a 7298 bc3f e9b9 7556 c094 d3bf
00000710: c005 8bc4 300b b7bf 4447 83b8 4d89 bdbf
00000720: a0e1 b340 7fbf d4bf 7d8f 97f0 53b8 b4bf
00000730: 19a2 c1e7 cfd6 c23f 2d16 9563 5f1f a83f
00000740: 25ab 9ec8 72d5 ac3f c382 f5d7 1c8a 893f
00000750: 4181 7e5d 3d9d 77bf a568 f08f 3252 d63f
00000760: c51f cda9 f782 c03f fca3 5277 6ee7 a63f
00000770: e310 559b acbc cebf 66d1 3b7c cd49 d1bf
00000780: 3b55 ba7a e9b8 a43f 8ad0 75d6 02ca 963f
00000790: bd8a fda0 a901 bfbf 7431 5c4d 547a b0bf
000007a0: 55f2 b000 77d8 8c3f 7387 67f2 9a7e adbf
000007b0: 5735 27fe 37a0 a0bf a94d 68a5 ad18 a3bf
000007c0: 3b32 2704 dd91 963f e1e6 5bb4 28d0 d1bf
000007d0: ef66 354d f6dd b7bf 9cd0 7686 fd96 dbbf
000007e0: ddbe 4813 e994 a7bf 7c1e 49ec 9ed9 c33f
000007f0: b4e5 1190 d215 b7bf 6001 76ed a701 c63f
0.11721889292408712 -0.2975316159038164 0.12859116916535182 -0.1688589887524669 -0.31697550938717006 -0.14104712183527446 -0.21140792132163053 -0.01356091807518119
0.028307966995010196 0.10522596869524983 -0.027808821068239946 -0.20560967301317984 -0.024834563667418843 -0.09553555836427913 -0.032798215641975034 -0.16249894611240603
-0.039260580177926725 -0.10806392150809399 0.2452311869971044 0.043786719563628174 0.444417933096844 0.07334846755808849 -0.007696307837644938 -0.05055793972444291
-0.230205492873365 0.03972428254654313 0.3303952829543368 0.14799443396304782 0.1620940131904576 -0.22220237946125326 -0.10951302106199648 0.09158046319156105
-0.08238927385885866 -0.033832142777684274 -0.00696890229330794 -0.12408172261288387 0.1704548011932916 -0.11912437144753164 -0.2260780421932016 -0.13826823057764367
-0.15617505210129823 -0.26045926673154973 0.18213281838880407 0.009818873156233712 -0.13616820115149178 -0.28383791676640957 0.11816283962018781 0.07902313850766239
0.24668561648992532 -0.2596158976434198 -0.05563689710908002 -0.03348079139167195 0.2603526037507104 0.1547581813693338 -0.1886138813346514 0.18888102721557434
-0.07568073954066533 0.06688241894268868 0.06785563998043666 0.37284567824329184 -0.3017434635954159 -0.20478268415448136 -0.08234365414113372 -0.1604596750698835
0.10496444683505271 0.07107163371593495 -0.0970182589934399 -0.21099733022841402 0.06126085311974276 0.03745319255061609 -0.08276635829487691 -0.05171636182722623
0.07675043475534324 0.004767561878335726 -0.0157647316471013 0.19494035881696128 0.19097941639436847 0.2314325926737199 0.26532622938270223 -0.1871281889837929
0.0467815780242217 -0.0065460457686523435 0.2541061386785151 0.14298369016773946 0.22394740779100428 -0.2917777974395183 -0.16245173809771188 0.014551007202167673
0.11234987558484254 -0.19936960517834662 0.1913063735936897 -0.2522796879787203 -0.09790626361207119 -0.05598643197602281 -0.05341871723479362 -0.07305173004673915
0.08343060070312719 0.18733467967002426 0.07521904359313479 0.16393731575696818 -0.44921596870246483 0.06330752277715516 0.0886627817133147 0.1603831085442257
0.024532392233415024 -0.01920518405108504 -0.2501337488240909 -0.15790488505330683 -0.06674455760734076 0.062352946379158024 0.3081830029685174 -0.0569897869409266
0.318029605148599 -0.04793471193796284 -0.4436377349784797 0.054171221304109486 0.14865709625052467 0.3272088602027295 -0.02077923466266387 -0.13534754765449014
-0.16122847658371528 -0.19544368758115951 -0.060923717319621415 -0.05965183889087577 0.2111991184564918 -0.05555937739130734 -0.10114069210399308 -0.061857849243108685
0.03638441013809669 0.1482366388421376 -0.028794336635577514 0.06469750077899135 -0.07015568525490402 0.010323981328524422 0.33953538342542705 0.11299816213606077
-0.09188042211976584 -0.34789004758882774 -0.22564134650750917 -0.23540845456493215 0.2589664900147211 -0.2797207361569906 -0.13261486920470378 -0.13121435078107987
0.00020937586220910035 0.0687599067777301 0.08592439429771957 -0.2809293767699144 -0.05015485592911322 -0.08721700955873957 -0.12148827499966039 0.10485775252933634
-0.1422374905816394 0.09635151986170606 0.061945132928330454 -0.0879176900729849 -0.25174845752624914 0.3173291951605798 0.08725755353666653 0.10415540699525938
0.249435853314826 0.023680407334525505 -0.25920647051823426 -0.24111720916112506 0.07277017068086511 0.02512067085414809 0.07729886621303858 -0.022616251809613998
-0.11700079778007791 0.06130978795914633 -0.238397263794422 -0.19138180655262144 0.27064091991154604 -0.22256672722115214 -0.18970225697545604 -0.17340848668832723
-0.0019501154847385352 0.29227713639452396 -0.2031490149157728 0.30834388024150866 0.08412369710028947 0.02321795302825632 0.2151420288473619 0.27050549092564696
-0.10696203873516902 0.04352474425722735 -0.22030179380889048 0.14686258974613783 -0.11054114161768312 0.19102296018661208 0.2838008536064156 0.2783451502841115
0.11527354843674709 -0.25904515514248144 -0.017134097887994 0.1239012148309364 0.18212879084804 0.07522228447962634 -0.21498580564117106 0.13932098669075302
-0.043940932821942225 0.05204864545010865 -0.20321185204326084 0.16132289087097768 0.2145043874889323 -0.029985258191772408 -0.1755671532910344 -0.041520657296209136
-0.09963160529181594 0.0396141915458884 -0.18468666887147386 -0.1162147618606897 0.11621711596910526 -0.36001308179742747 0.2547279104828919 0.11238710573963138
0.05890397948977588 -0.06728079361472256 0.210529770245764 0.0024219519579892195 -0.07170644408495405 -0.14592803348272712 0.1927274296403589 0.08128255344952164
0.11170116694801241 -0.3059540600142144 -0.09001450346388307 -0.11537633661944563 -0.3241880542623452 -0.08093762039021431 0.1471805459616611 0.04711435404400919
0.05631598185512691 0.012470460262819732 -0.005765189845903075 0.34876693779518525 0.12899680892064516 0.04473443228318527 -0.24013288101753635 -0.27012955791658155
0.04047326682227 0.022254986133206013 -0.12111911945752758 -0.0643665970675949 0.014084748943895034 -0.05760654648817267 -0.032472371840052965 -0.03729765552648285
0.022040799501882296 -0.27833001721556455 -0.09323062310195572 -0.4310907185674837 -0.0460579715767133 0.15507875954994066 -0.0901767350896055 0.1719255361058556

base.actor.actor_fc1.bias f8 [64]
00000000: bf93 ab43 3d90 ac3f 737b 1e00 ff1e b23f
00000010: d85c 9e18 978a a33f f283 17f7 a2f9 703f
00000020: 79c2 fb7d 9ed9 bc3f f3a1 1465 59c0 b1bf
00000030: 403b b8f2 d40c c1bf ab00 2731 45ee 773f
00000040: eea1 cbe9 e85b 9d3f 0075 aa1c 0571 a93f
00000050: 0bf6 2ea5 df15 c03f 07c8 3ae9 68e0 c53f
00000060: 5579 f9d8 5bb7 c0bf 8860 0e17 925a 93bf
00000070: 65b3 b204 1033 acbf 528d 975e 7a46 c6bf
00000080: 59a4 3a50 1888 a2bf d5c1 75e2 62a3 73bf
00000090: a24d c5dd 3b2b ab3f ad5a 3a51 3092 c7bf
000000a0: db04 3dab f6ce c43f d2cd 8c1d c0df babf
000000b0: 9a48 cde7 d2da c53f 580d d6d6 ab73 b53f
000000c0: 22d5 bae5 effc 41bf fdf6 7457 6c66 88bf
000000d0: d30a 23e9 c3b4 9d3f 887f 841d 01e3 bfbf
000000e0: 2a96 d514 826a a3bf 52a5 a0d9 988d 60bf
000000f0: 6f72 62ee 69e3 b9bf 76bd 937e 0556 b43f
00000100: a0e8 88fe 6119 9cbf 6f5d 4fe3 1af3 a2bf
00000110: ef09 9e75 1149 ac3f 79ef b6ed c9df a63f
00000120: 823f 26b2 868b b43f 74e2 6aa7 16e3 aabf
00000130: b3e5 e743 ef48 c6bf 2827 bc24 9fc5 b23f
00000140: 5a06 6ebe 488c c3bf af99 299a f263 893f
00000150: e69e a14f 09ad a93f 6cc5 b40a 84d2 bf3f
00000160: 88dd b261 dbe5 b33f afed 3000 ac63 713f
00000170: d951 0be9 4a38 b9bf f2cd 0b73 a0f1 b0bf
00000180: 823a f7d4 b93a b6bf 0cdc 5904 77de 98bf
00000190: 3d68 318a f66e b63f 2ad3 a38f 0618 b33f
000001a0: b085 246a e2d2 bcbf 6818 f4eb 2e26 b1bf
000001b0: cc88 e978 940a 9f3f ccaf 2cb1 9b14 9cbf
000001c0: e744 3fa1 bd68 81bf 9784 45be 57e4 803f
000001d0: a0be 4196 197c b9bf 8b69 14b5 8eb8 623f
000001e0: 428d 6210 3b11 a13f 6874 8cee 9795 68bf
000001f0: 27af ca18 141a 853f 6252 f2b5 5bde b63f
0.05578795863201646 0.07078546288401615 0.03816673446197577 0.004144321997473265 0.11269560409324154 -0.06934126584804527 -0.13320409633203134 0.005842466622596169
0.02867092062925452 0.04969039893078708 0.12566752973172898 0.1709109438721159 -0.13059566587885266 -0.01890018716548572 -0.05507707650517694 -0.17402581804990774
-0.03619457225188034 -0.004794489162450029 0.05306422311937388 -0.18414882627685839 0.16256602631805248 -0.10497666093288352 0.17074047392322173 0.0837962531568811
-0.000548951280015562 -0.01191410676858195 0.029009877304597986 -0.12455756159442732 -0.03792196754765727 -0.0020206437448179538 -0.10112630910811914 0.0794375833536288
-0.027440577660151733 -0.0370109941938449 0.05524496613272222 0.044676122920889356 0.0802540001807284 -0.052513797699650505 -0.17410078826632755 0.07332796713685907
-0.1527186326821262 0.012397666291872193 0.05014828774511475 0.12430596600895222 0.07772608885976784 0.004245445135036815 -0.09851520719104857 -0.06618693169348669
-0.08683358620985795 -0.02428613628441316 0.08763066171505414 0.07458535200914854 -0.11259284106610923 -0.06698888073523934 0.030313796882531815 -0.02742236393821411
-0.008500558360454892 0.008248029226424243 -0.09954986494426032 0.0022852694752490458 0.03333458495151344 -0.0030010192316596747 0.010303647047599519 0.08933041755728646

base.actor.actor_fc2.weight f8 [64, 64]
00000000: 8128 b633 98ed 7d3f 6162 5e26 8c80 9bbf
00000010: f0a8 2102 f217 abbf f62f 6d6d cdf3 943f
00000020: c93e 6553 7849 bd3f 1503 0b84 66e3 c73f
00000030: 797a eb85 ac0e 7b3f df5c 513c 34a7 c73f
00000040: f760 2579 873d a13f 3559 67fc 7888 babf
00000050: 7fb4 1791 0e20 cbbf d074 436a 692d 3bbf
00000060: 58b2 8130 9109 d53f 1159 9783 d0d2 c9bf
00000070: 4a34 3cdd 2b71 c63f d340 9830 7b41 bd3f
00000080: ac80 5c4c 8533 a4bf 34d5 2d64 094e c03f
00000090: 3189 928f 79d7 b5bf 7001 56ab cf6e d2bf
000000a0: 6103 b962 23d9 b33f 0737 d89e b124 c93f
000000b0: 0f03 6782 4c73 c13f 61e7 aaa5 1ad5 adbf
000000c0: 13e4 6af2 50d2 54bf 45c2 7852 a96b d53f
000000d0: 6f24 4d93 b2ff a93f c87c e8e6 72d6 c43f
000000e0: f93c 71e1 0e4e b53f 0db4 6b53 bef6 c23f
000000f0: 1cb5 d32e 2bd7 aabf fc9d ef3c 04e8 b6bf
00000100: 930e fcbf 14fd ce3f 737d 56c9 1651 c2bf
00000110: b6db 5f95 a666 c4bf 9300 30e9 1ded 943f
00000120: 3f19 70ad d4b2 abbf 019e 0d63 2361 ca3f
00000130: bf37 adb2 0cf1 75bf 6da4 8787 5466 c43f
00000140: ce69 e817 08d8 bc3f 0c9f 79e0 3d28 a7bf
00000150: a3ca 88b2 6eca 85bf 3aca c79e 589c c83f
00000160: 28a2 81f9 c0b0 973f 389e bb60 35a8 b53f
00000170: 52b3 867f 33f1 cc3f 585c 2cc6 d21a 9c3f
00000180: b112 4734 2511 b83f f5af add3 2340 b3bf
00000190: d23e 256f 8623 7abf 17db 0786 7656 a53f
000001a0: d2c0 d85c 342f c6bf 8dcf e1a6 970c 9cbf
000001b0: a25f 348b 748a b2bf c252 c7fe 5d80 bfbf
000001c0: 53a3 96ff eaac a4bf 9e25 6dca fa4a 86bf
000001d0: b2b2 2333 d852 c0bf ad2c f296 b97b d53f
000001e0: 90a9 f24a aa36 bc3f b5aa 3aa7 a73a cabf
000001f0: d0d5 4514 a95f c33f 1d1c b8d9 18b9 d23f
00000200: 4acf 5e96 263e c93f cec7 c5db 6091 a3bf
00000210: 5766 bf37 50f1 98bf 0b62 df09 6576 c1bf
00000220: ed42 bb06 22d3 b4bf 11cb 7802 7f7e 9bbf
00000230: 17db fd06 ed42 d43f f658 d251 a56c ba3f
00000240: 9a1d e55a bae3 b0bf bdd8 014c 0fd7 b3bf
00000250: c9da 9763 2f28 ad3f c3b2 4fbb 7676 c33f
00000260: 72fd 7bc4 e9d4 aabf fb92 7d46 0202 8c3f
00000270: 6b8b e1e9 629c ca3f ed1c a5f0 2dd5 87bf
00000280: a404 51fe 4a3b 40bf 552a d99b 0c5f aabf
00000290: cd23 3420 8e36 d13f 2d83 5a7a efbd c63f
000002a0: 3362 5294 89bf 963f 3767 7fe1 0538 a5bf
000002b0: 21b6 5663 6355 ccbf e3c8 a9d3 aae3 a5bf
000002c0: 05a9 e6f1 93de b03f 2e2a c17d 4a1d d23f
000002d0: 0ad7 937b 09af c23f 357c b86f f2f8 cbbf
000002e0: 3f5f 1962 6cf4 cbbf ad63 0c88 03a3 b83f
000002f0: 05e5 b79b af54 c73f 6a48 ad9e 1814 b43f
00000300: cb04 7a80 beaf babf a33e 409b 1146 b0bf
00000310: 7e06 3a76 6e38 c2bf 15c9 b887 58d9 8d3f
00000320: 8731 6836 4f08 c03f a53c a8f1 de36 c63f
00000330: fea4 63ee 4138 b43f 9529 9cb3 0940 b53f
00000340: c171 cd12 8c26 c33f eba6 11ed 4d63 c8bf
00000350: 8e20 e1ce 89b1 b3bf b578 dba0 22b4 b53f
00000360: 979f 19ad 1ce2 94bf 9dcd d58a 7336 c5bf
00000370: ed4f 3145 ebd9 953f ae1c 3526 3826 c03f
00000380: 8e2a 4a7c 3e9f 5a3f 6306 d7ff c5eb 8c3f
00000390: 8e46 c113 c53c d8bf 1083 533c 7e08 a83f
000003a0: 903c c4fe 8f40 abbf 9987 7252 6253 b73f
000003b0: bf8f afbd 0e54 ac3f 8dcf 0af6 6c11 d43f
000003c0: e471 5e3b a0f9 a2bf aaa2 ab8a c6b2 90bf
000003d0: 6df9 18c4 d470 b9bf 4859 2264 6516 a4bf
000003e0: adf5 984e c8ec b8bf f008 d32f 21e0 cfbf
000003f0: cbe3 c304 0ca2 b03f 3450 d8c5 e924 abbf
00000400: 28e9 5bad e4bc 813f 15f5 fc1f 13a7 c9bf
00000410: 4b91 cbd6 47fe c13f 5f41 648e e01e b2bf
00000420: e4e5 4757 9d16 bbbf d1c7 f438 b29e cbbf
00000430: e6de 19d4 86d6 c1bf 5cc1 2707 6270 a63f
00000440: 6225 fa45 37d1 acbf 95c2 1b8c 64ed b33f
00000450: a591 03c9 5632 c03f 6fdd 33f7 4169 b3bf
00000460: 5ade 9871 e59d c5bf 31a7 d60c af37 b4bf
00000470: 579f 7b30 93fb 913f e350 84dd 7e2e a9bf
00000480: 631a a9b1 68ce c1bf 8a6d ed16 c4ea ba3f
00000490: 7ca3 1cf9 be41 d4bf 7084 6d1e d6b8 b53f
000004a0: 093d d847 dedd b03f 79d1 cd45 dc12 b2bf
000004b0: 263b bb9d db96 b8bf 1f8d 2520 2360 c2bf
000004c0: fe70 cd64 bf9a b4bf a85a d2b0 27a5 bfbf
000004d0: b655 f211 e0c7 c33f b479 f506 13f8 ca3f
000004e0: bfa7 b427 53c7 ad3f 5e47 19f7 b8a2 c33f
000004f0: 539b dd14 88d3 c03f a196 285e 6a88 d73f
00000500: b8da 5ab6 18dd d23f 1215 06a4 ef78 a5bf
00000510: 8509 3a12 5fd5 a8bf 5d1e b16d ee1e b43f
00000520: 2ef5 12f4 25dc c3bf f671 b2ed 6586 ba3f
00000530: 4db7 981a 204e 63bf e57d 18f7 2fd3 c7bf
00000540: 5e03 a819 5ffd b23f 4068 f043 883c b0bf
00000550: 3efd 0072 caa9 d73f 27f8 13a9 b0fb c73f
00000560: 8b47 5456 3ba2 da3f 8903 db37 bf3d b7bf
00000570: d8b1 6301 2e02 d0bf 8a48 a917 5f31 cebf
00000580: beef 2437 0971 d0bf 0f38 af9d fc5c 98bf
00000590: 6ef2 54a9 e433 b63f 5087 7e4d bd04 c3bf
000005a0: e891 f2ac 64b6 b83f 87d0 3c09 3fcf ca3f
000005b0: 8f52 02fa e99d c0bf ae52 75d3 67fb c93f
000005c0: bd04 e0c5 2ef2 c13f 09a9 5b50 81b0 993f
000005d0: f294 2275 06f4 bf3f 6a2b fa13 3d4e c23f
000005e0: 1e6e 87fe 15f0 783f 2655 e7f0 cfb0 c6bf
000005f0: e313 1e8c f218 c1bf e6f4 e0ad 2456 bbbf
00000600: e408 ffd8 49ba a13f 8055 3333 bb7a a23f
00000610: 53f5 719a 4ec6 863f 38a4 6f55 227c 95bf
00000620: 7359 a2c6 21f0 a2bf 46e3 ff93 b8dd c33f
00000630: 9851 6fd1 fc4d 6dbf 80a2 b5a7 7185 8dbf
00000640: 9fd2 532d b12c cd3f 947c affe 7b2e cfbf
00000650: a60d 4225 8b66 c43f 55fe 1d14 a8f7 c53f
00000660: 5a5e f61f 04b8 babf f540 56aa 7388 b3bf
00000670: b10b 754a 9cd5 dcbf 2333 86e9 2e6b d0bf
00000680: f05d 5d55 19c7 bf3f 95c2 3969 b29d bfbf
00000690: 74d0 28ce 0095 b13f 23c5 a893 6ce8 b1bf
000006a0: c1dd d221 cdd2 d73f fd19 2a59 ee61 86bf
000006b0: fa2b 6749 5bf4 b73f 3934 4d05 456d c3bf
000006c0: 2017 cb6b 3aaf ad3f 260f 23c2 8561 813f
000006d0: 4d14 910c 16b5 a83f 5bf8 a73d 56e1 c83f
000006e0: ebea 2b3c 9372 a93f e26a 5334 edb9 b13f
000006f0: 48b7 93e9 0898 d13f 97ce c0bb e1b3 94bf
00000700: 343d 20fd 0520 bebf 7b6a 5039 bdaa bd3f
00000710: 9058 7fb9 c46b a03f b29e 9f21 eadf afbf
00000720: 0d4d c572 4a3c bc3f 5325 23b5 752f c4bf
00000730: e62e ce49 c8d8 51bf 76d7 fd71 838c c33f
00000740: 43ae 093a 1716 d2bf 0d99 8ff3 5add c3bf
00000750: dbc7 bd7a 52b9 cbbf da83 94da c5d0 cc3f
00000760: 5753 3853 c4f3 d0bf a06a 5485 9adb c4bf
00000770: d2aa 15e1 14c3 d43f bb34 b71b 526b b23f
00000780: fe06 5093 7fc2 c4bf ac56 f2d4 b660 c73f
00000790: 4e8e dc1e 051f 9b3f d311 dc21 971e a9bf
000007a0: 076a 6a22 44aa de3f 71a8 ae0f b412 d03f
000007b0: 76e4 a9bc f7f5 cd3f 9e95 f5e0 d10c e0bf
000007c0: 6960 8674 7915 ccbf 90df 16da 2386 b83f
000007d0: 81da 3d76 f810 74bf 9dbb ecd0 b4bf 943f
000007e0: 13a5 5f7c 9c00 c03f e556 4d87 ea05 adbf
000007f0: 4583 aa02 6383 cf3f 3e33 4e21 4735 76bf
0.00730666593461582 -0.026857557145918757 -0.05291706348437397 0.020461282543052982 0.11440231357596099 0.1866272110692299 0.006605791014151146 0.1847901625176069
0.033672555483180426 -0.10364490663719013 -0.21191579899405963 -0.00041469405756606754 0.328708932275537 -0.20174604821540545 0.17532871534823108 0.11428041397471426
-0.039455571719601096 0.1273814906268541 -0.08531913523851099 -0.2880133794024209 0.07753201637480124 0.1964323068245266 0.13633114211372585 -0.05826648018178449
-0.00127084641432718 0.3346961312663875 0.05077894256698633 0.16279445910274704 0.0832223225017862 0.1481550128295627 -0.05242285677545963 -0.08947779166884823
0.24209842085121078 -0.14309964018773833 -0.15938265126871237 0.020435778958927186 -0.05409874550973592 0.20608942352849627 -0.005356835938824688 0.15937286966007794
0.11267138084114167 -0.04522889485525469 -0.010640015433727007 0.19227130654287966 0.023135199764882014 0.0845979081310525 0.2261108753858943 0.02744607290796028
0.09401161695775319 -0.07519744794780066 -0.006381535657353958 0.041675285206954786 -0.17331556829004185 -0.0273917861563429 -0.0724251594405119 -0.12305247755223106
-0.04038175935722301 -0.010885199835359679 -0.12752821442645296 0.33567657223529573 0.11020912484915457 -0.2049150053547543 0.15135682573206433 0.29254742871893474
0.1972091898184039 -0.0382185238148761 -0.02435803737885175 -0.1364256189542775 -0.081346632617407 -0.02684973194682089 0.3165848320272046 0.10322030303573002
-0.0659748527442531 -0.07750030141491755 0.05694721308457457 0.15205272813854806 -0.052405648455528545 0.013675706649971078 0.20789753360721916 -0.011637076288606408
-0.0004953495196177338 -0.05150641825146766 0.26895478386773847 0.1776713702611458 0.022215032270283607 -0.04144304635674561 -0.22135584211848516 -0.04275258859424171
0.06589626937662636 0.28303777962415466 0.14596670660073868 -0.21853476004705077 -0.21839670934672914 0.09623739310735742 0.18227191070017326 0.07843164323756616
-0.1042441428817426 -0.06356916466051614 -0.14234715245043 0.01457471050443763 0.12525358349411084 0.17354952621142164 0.07898342199372974 0.0830083907605171
0.14961386602489138 -0.19053052974350435 -0.07692776966826129 0.08477989604168353 -0.020393798890296102 -0.1657242229372117 0.02133910760706208 0.12616636148070398
0.0016248808107401122 0.014121577139010804 -0.3787090962333445 0.046939797271767 -0.053226947640831246 0.0911160899436524 0.055328808455470384 0.3135635760074756
-0.03706074452131583 -0.01630697461488021 -0.09937791621721255 -0.039233368371400845 -0.0973630134476113 -0.24902739367650595 0.06497264019334563 -0.05301600017642763
0.008661066570756562 -0.2004112154190031 0.1405725287251108 -0.0707836482654378 -0.1058138216102616 -0.21578052311957532 -0.13935933453080124 0.04382616364807987
-0.05628369073117302 0.0778410760938278 0.12653622450956195 -0.0758248547098128 -0.1688811115907239 -0.07897466720046677 0.01756124480644358 -0.04918285802901481
-0.13911160158950783 0.10514474448921454 -0.31651281668978704 0.08485162966600668 0.06588544134159603 -0.07060028747748061 -0.09605190850127751 -0.1435588747946008
-0.08048626147268931 -0.12361381594596799 0.1545372092847807 0.21069562759198635 0.05816135272682698 0.15340339722984714 0.13145543116407996 0.3677011413113665
0.2947446614083833 -0.04193829419367935 -0.04850289437765113 0.07859697511696014 -0.1551558915870514 0.10361325314665479 -0.0023565890339999674 -0.18613242688387213
0.07417864204763933 -0.06342364939374168 0.3697382081336008 0.18736847167741752 0.4161518424090153 -0.0907859336248419 -0.25013303886114846 -0.23588169722876656
-0.2568991697805777 -0.023792216419501296 0.0867293275268339 -0.14858213695429834 0.09653310034133933 0.20944965315868933 -0.12981915194963675 0.2029847891341396
0.14020332967633023 0.025087376145998017 0.12481727943175594 0.14301265216303288 0.006088338770918548 -0.17727088225243753 -0.1335738357703625 -0.10678319211088513
0.034624393214032684 0.036092615127624406 0.011120428169528884 -0.020981346573453602 -0.03698831128820048 0.15520388819256875 -0.0035772264340982567 -0.014414680414760683
0.2279263945889811 -0.24360608993354005 0.15937938040961547 0.1716203783253031 -0.10437036304789996 -0.07630083950630591 -0.45053775092327003 -0.2565419464597644
0.12413175901507834 -0.1235000140093326 0.06867985757054546 -0.06995276074373584 0.37224129012198764 -0.01092897615059218 0.09357233564439574 -0.1517721439253437
0.05797751012646146 0.008486790644731079 0.04825657752420707 0.1943767357879008 0.049702263922844235 0.06924326446043552 0.27490446863418017 -0.020217444500487316
-0.11767613820869799 0.11588652276297211 0.03207220806477651 -0.06225520763819982 0.11029496480960095 -0.15769835800737528 -0.001089282602353353 0.15272563043589188
-0.2825983111167469 -0.15519272701858036 -0.21659308427075427 0.22512124226434943 -0.26487835051493874 -0.16295176992646976 0.3244068334667364 0.07195008446361133
-0.16218561833380102 0.18263898275170243 0.026485519417418772 -0.04906151092839974 0.47914222107797894 0.2511415627619789 0.23406883918849858 -0.5015649217354399
-0.2194053477257996 0.09579681467482559 -0.004898996881698482 0.02026255154776956 0.12501865456514646 -0.05668576146733332 0.24619710569552403 -0.005421903469039089

base.actor.actor_fc2.bias f8 [64]
00000000: 8c28 6b81 7842 abbf 094f 1124 53bb 903f
00000010: 1a7d 93ea 9ef0 ad3f 5f48 8d54 bef6 b43f
00000020: 2d53 f597 44d2 863f 030d aa7e bfd6 873f
00000030: cf69 b255 49ab 743f e633 7f56 bb8e 64bf
00000040: 20db 58fc f53d 983f ca9e 34f4 bfd1 8b3f
00000050: 0845 58ec 45a1 91bf e4f6 a229 315a aebf
00000060: fa25 3f40 7163 ad3f 1cd8 b5c3 f9ba b33f
00000070: d4f7 32aa f326 a2bf bd03 1139 2ce4 aabf
00000080: d2cb 3c5f a8c3 44bf fdda 49be 461a 893f
00000090: 4ba2 7c00 2388 b5bf 1078 445d e51a b8bf
000000a0: 5b2c 96d2 dd15 843f 2991 6ef1 4ce1 a2bf
000000b0: e112 3f69 5fef ae3f e7d8 c6ca a31c adbf
000000c0: ab35 5477 0628 923f 776a 9403 7b79 b63f
000000d0: 8c7d a519 3008 af3f 0aa3 22bf b59b c5bf
000000e0: 18b1 12c3 4f44 8e3f 58c1 1a15 2747 b03f
000000f0: c95f 70c3 2d3f 923f 9f96 2085 5150 8fbf
00000100: 9f05 425b 5a70 a9bf 2181 6fdc ca2b a5bf
00000110: 3c80 7d9b b757 a9bf 9fdf e0e7 18e8 aabf
00000120: c279 6333 0edc b3bf 3e72 e740 130d 9f3f
00000130: 6cbe ce06 8566 b3bf dfad db9d dd1d b2bf
00000140: 1336 31f4 8ab6 acbf 991f 61a8 5f99 58bf
00000150: 0c42 9c4f 263c b2bf 8cf1 4f82 d17c b13f
00000160: ecf5 9b04 b38b a3bf a2ba 7b3c 3d08 8c3f
00000170: 4f72 84d5 3a9e 833f b216 ce5b b495 9fbf
00000180: 4f7c 92fb b14c babf 4d78 c566 0dcb bc3f
00000190: 8f82 c73e 1e0f 92bf 1483 b38c 7e23 a13f
000001a0: 0f1f b3f2 82c1 a73f 663a 2be0 f43d a13f
000001b0: b5c6 f50b 98a6 b1bf 19a4 493d 16a0 883f
000001c0: 38f6 0bb5 8619 ab3f e815 06b2 10e0 b63f
000001d0: 1ab0 75c1 d7b5 a13f 8414 afb0 c035 b33f
000001e0: f2ab 305d 9356 923f fbd7 2337 3624 b3bf
000001f0: eed1 b140 4c2c a7bf b0b1 24d5 fe2e b1bf
-0.05324150638405553 0.016339587284462307 0.05847641576269265 0.08189000667815226 0.011143241774939827 0.011640068104731066 0.005046164001351674 -0.0025094660704554237
0.023673862006229673 0.013583659782468688 -0.01721677069696617 -0.05928186066874533 0.0573993102003207 0.0770717718895359 -0.03545342877031002 -0.05252206989872075
-0.0006336757782946462 0.012257149393219086 -0.08410853158842106 -0.09416039969480061 0.009807332028478102 -0.03687515685240534 0.06042001876588699 -0.056859129431744475
0.017730809243450867 0.08779114568134526 0.060609343653363984 -0.16881439049509367 0.014778731480270355 0.06358570351836101 0.017819132856032902 -0.01528991401216767
-0.04968531002033249 -0.0413497346960432 -0.04949735425066179 -0.052552011781187284 -0.07757653002361223 0.030323315464430893 -0.07578307548714641 -0.07076821426351597
-0.0560801909528942 -0.001501410880807774 -0.07123031085598813 0.06831082755519996 -0.03817519599213512 0.013687590034775102 0.00957914318183231 -0.030844514945349295
-0.10273277656459466 0.11247333296839308 -0.017635796148058488 0.03347392528099227 0.04639825070040448 0.03367581592975881 -0.06894827167505009 0.012024091477728803
0.052929124451094045 0.08935646387370577 0.034590475431144976 0.07503895104953712 0.017908384859918365 -0.0747712978953529 -0.04525984086732025 -0.06712334350294813

base.actor.actor_fc3.weight f8 [8, 64]
00000000: 0083 3487 c7ae 93bf 2578 d27a 1a7f 983f
00000010: a921 d41e f394 8c3f 579d faa2 ff85 c33f
00000020: e838 a993 d14e a13f 69f8 e1c4 aff4 af3f
00000030: e23f 4eb9 b00f ad3f d977 a4f8 2a38 933f
00000040: ca20 58e9 e273 a43f 6fe4 e3b7 15fd 83bf
00000050: b3fd dcff bee4 9fbf 86ec a7be 7f5b 81bf
00000060: 682b 5684 8ecb 7c3f a857 2330 70b4 abbf
00000070: d068 a789 8d42 b53f 8e6d 1550 c299 8d3f
00000080: 8996 7025 2969 a9bf 8215 d53c 9b3c a8bf
00000090: 67f3 9b84 02b2 b4bf 7c4f d411 5fd3 923f
000000a0: 4fa0 dd8f 195e a3bf 9e35 57cc cb9c a53f
000000b0: c601 eef4 97c2 95bf e9aa 1a42 e856 6abf
000000c0: 5ac3 bbe6 82cc a5bf 4455 83e2 501e a33f
000000d0: c204 9fcc 4050 8d3f c2a4 0d43 3054 79bf
000000e0: 761c 5ffa 7a9a 79bf 001d e31c 7ef4 b5bf
000000f0: 9484 bd4b aa21 9a3f 8fe6 ba7d 5f9d 9ebf
00000100: e729 6b58 8b5f b6bf 9eb8 5cf3 b2aa 9dbf
00000110: cda7 1b42 2ad5 a3bf 2a93 f93e 9518 b3bf
00000120: af1a 77d4 5352 b5bf 8f16 c07c 18e6 80bf
00000130: f606 3ed6 ef06 b03f 1334 ecb4 9784 a9bf
00000140: fd7a a677 5a42 bfbf 1cfb 1495 d030 bfbf
00000150: 4fdf ec0b 3eec a0bf 5306 8032 5b2b 93bf
00000160: dd69 fbf0 837a a4bf d0ab 36f9 389e a03f
00000170: 05b1 54af 2719 a9bf b167 533b dac4 a3bf
00000180: 4055 e460 3b99 b0bf c65b f64b fdb4 663f
00000190: 5e00 e8b8 ab17 a9bf b023 deaa dda8 ac3f
000001a0: 993e 5e42 a101 b13f 490d 4e03 e88d 993f
000001b0: 1196 18b8 7e14 a5bf b75d 742e 3ab3 8abf
000001c0: 32d8 9460 e54c a8bf 7ad2 b1a9 dfa5 9b3f
000001d0: 54e1 3aa0 f131 acbf 4e45 7510 cfb6 81bf
000001e0: e6b1 9756 7136 a33f 145c 3aab 5309 9e3f
000001f0: 2e95 3fa4 7ff4 b9bf c30f 93f3 e1a6 a23f
00000200: b12e 2ef3 02dd a4bf c224 c647 4c05 ab3f
00000210: 0cc1 b23c cb2c 953f 9106 920f 5866 aabf
00000220: db19 e39b b6a4 923f 9493 9990 2878 c03f
00000230: ad24 4d88 15d6 ac3f cf40 c5b7 e4f9 a7bf
00000240: b73a cd16 289e 94bf b255 91cc cd66 b5bf
00000250: 7c19 2d5a 4bad a13f 0e0a bca8 845c a63f
00000260: 10a3 31a3 f1e7 903f f35f b56e 9fc9 90bf
00000270: 8bfa 20bb 2b12 9abf 0deb 4672 96fc 843f
00000280: 13bd 8b59 8b65 acbf 2314 6e61 73fe b0bf
00000290: 3f44 6ae4 c0ee a03f 54ed 2e4d 7dd3 adbf
000002a0: f708 904b 1e62 b13f 9ad9 7d43 6c18 a6bf
000002b0: 0e5d 438f daef ac3f ad1f 6f6c 6eb4 a4bf
000002c0: 5f9d be96 c345 92bf 3654 5ac0 6618 aabf
000002d0: 91ce 78dd f10a a63f 5932 9528 b987 b5bf
000002e0: 78a8 1566 afa9 ab3f 38fe bee8 8072 9a3f
000002f0: 259f 0d7d b116 8cbf 346e 1e0c b793 b83f
00000300: 7cc8 1a9d e71e 613f 119d 6392 086d b33f
00000310: bb5f 89b2 c3a9 b7bf e337 1fda 1159 793f
00000320: f1eb 8ec2 709b 983f 269e 6585 dc87 babf
00000330: 8297 2297 ffa1 a93f fc90 4fbd 91a6 b43f
00000340: 5b0d 8b7a 11aa 933f d897 b6df b2ea 8abf
00000350: 8068 8a3e bef1 abbf 3305 b3cc 964e b3bf
00000360: 854f e841 88fe 8f3f 55af a34f c889 b33f
00000370: 45c5 18dd 7cf5 bbbf 6281 b247 1047 7f3f
00000380: c6e2 27e8 1dd2 aabf 5e58 0280 bf55 aebf
00000390: 8c13 b232 2678 ac3f 08c2 03f5 1797 b03f
000003a0: 2b75 34f8 d3b9 ba3f b236 f6d5 1be2 acbf
000003b0: ec5d c93f 645a a8bf 8a73 1acd 2154 a8bf
000003c0: bfad a257 4bf7 83bf 8415 bd5c 2d69 afbf
000003d0: 92bc 68d7 963d 743f ac3e f316 5967 b83f
000003e0: 9238 cd62 8b87 a4bf bc3a d1f6 d678 a83f
000003f0: bcab f676 ee81 84bf 87a2 1181 87da b6bf
00000400: 5265 8498 6a0f 6c3f 7876 a8e9 5f11 9bbf
00000410: 3b67 1137 a9e7 babf e74d e7d0 c4b0 a9bf
00000420: 3e04 ecfc bc6a a6bf 4f6e 4f8d 3bc2 71bf
00000430: 15e2 714a 84bc aabf 5478 b920 3954 af3f
00000440: 3ea1 462e 610e 71bf d34c 9cdc 6423 a03f
00000450: a54f 0ebd bc86 bc3f 163d a12b 7dc9 b53f
00000460: 9700 7408 605a a53f 222a 6f1c 5ef3 b3bf
00000470: 20b6 b003 e286 75bf 228b 5bcd 08a3 ac3f
00000480: 3c09 1ba3 9bbc b0bf 0dff 7b1b d245 3ebf
00000490: 6f8d 8bd8 f3b4 a3bf 9731 1662 2c11 ac3f
000004a0: 9a6f 1c70 52c8 8abf b3d5 e206 4a2b 8ebf
000004b0: 6018 41e6 e9c6 93bf f5ea bd03 c125 aebf
000004c0: f047 8210 dedb 883f 5e35 cdea 7e87 a6bf
000004d0: 2ddc d9aa 97fe 893f b6b9 c7c2 5d6a ae3f
000004e0: 5bf1 ac0a ad51 95bf c3de 2206 fb26 b03f
000004f0: 81a5 5eb6 56e0 a43f 73f1 f0f7 96a2 ad3f
00000500: ca79 1903 0ab0 9bbf 5014 e6be 737b 983f
00000510: 30cd 1ea7 7316 a43f 2def 8364 9583 a33f
00000520: bb81 678f c4fb 893f 61d3 3a02 55c0 9cbf
00000530: 9595 6a79 c812 ae3f b6b1 8332 e3c3 58bf
00000540: 566c 8315 be38 433f 248c 3057 0266 b8bf
00000550: 4099 7a91 8ee9 a3bf 7599 1a0e 4a35 6b3f
00000560: a3ea 3184 ff9a a53f 5f37 b86b 3bee 9b3f
00000570: b6fa 8fe7 b6e0 a23f d341 26e3 265e b33f
00000580: ea72 f920 4d1e 983f aa2b 51f1 826a 46bf
00000590: e652 256a cba6 94bf 007e 0e1a f110 b13f
000005a0: 209a 1780 afea 90bf f0c9 5d80 a762 ab3f
000005b0: 9fc9 4e39 967f a5bf 4005 b5bd c37a a33f
000005c0: 4649 bba9 2710 97bf d345 cf28 11b9 bc3f
000005d0: 5193 481a 403b 9d3f ce6d 75d0 9652 99bf
000005e0: 6600 3f52 e645 b3bf 5c7d af53 986e 78bf
000005f0: 4312 9c17 54fc a53f 0f77 7212 2734 a6bf
00000600: 5dca 4b93 a153 90bf 1b3d 9054 f384 783f
00000610: e145 2952 f7ca a83f 56bb 8a38 4bc2 96bf
00000620: a7cb 7480 fe4c a4bf ee90 b9a7 2e2f a1bf
00000630: 8765 cfb6 117a ad3f c715 ff7c 25ac a9bf
00000640: b6e3 49db 52dd a03f dfce e457 177c b0bf
00000650: 1ac0 f0fd 09b9 803f bb55 7005 7a69 a7bf
00000660: 4f94 1619 6c5d 993f 07fa 73c2 5385 94bf
00000670: ffdb f943 c929 bdbf a06a ccc6 8684 a63f
00000680: 69ce 87df f57b 803f 38b9 dacf 1034 aa3f
00000690: 8f87 cdd1 8a9d 78bf 0de4 7571 4943 ab3f
000006a0: 0b4f fcd0 65ac 993f ddb1 0fa2 a643 a7bf
000006b0: 14cb 361d 85f2 aebf aed5 9eb7 85f0 bb3f
000006c0: 903d 2811 73e9 82bf 05c4 34a8 72e0 a4bf
000006d0: 610b 18ff 5826 aabf 611c 2f31 df6e bc3f
000006e0: 7af7 7a65 1ca9 98bf e599 4528 7bdd a8bf
000006f0: 2f9a 04ad 8b17 9e3f d4b2 d8ea c5c3 a0bf
00000700: 977c 9925 f42d a83f f5e0 2016 8261 b0bf
00000710: 26d3 87f3 578e 7c3f 9cb1 a182 775d b13f
00000720: 820e 199c 867a afbf abce 8ddd f9f1 50bf
00000730: 6ec3 8c2c a600 98bf c456 9072 318b 91bf
00000740: 5139 a134 2fce 8f3f 1095 14b2 55eb 8f3f
00000750: 0d9e dd16 f03f 9c3f f8a6 6092 daca ba3f
00000760: e31a b2f7 2c38 b2bf 2b80 01cf a417 6dbf
00000770: 454c 0e61 610a adbf 17ac 4761 18c3 7abf
00000780: 4f3c f2a7 b304 913f 7d91 9ace 6f8d 613f
00000790: 4183 8bbb 0603 a43f a1f0 f085 1969 9bbf
000007a0: 6d64 5f9b d35c bf3f 7cf6 eecf 6011 a2bf
000007b0: d894 b6a4 9aa5 6f3f cdad 7775 c599 b8bf
000007c0: fbb7 c6ab 2e9d abbf 0303 85f0 6e76 98bf
000007d0: 3769 dc50 7159 a9bf 4618 e863 5f95 a8bf
000007e0: 4f84 f8b8 ed3d a73f bd2c 497e 2feb c13f
000007f0: 13d8 611f ad1e 50bf 5aba 86f1 ea1a 87bf
-0.01922141802527033 0.023922361132115228 0.013955973985972774 0.1525268121524543 0.033804463648822225 0.062413685592205344 0.056760332699127294 0.018768950868540777
0.03994664286079937 -0.009760064768203429 -0.031146034590390403 -0.008475301748140273 0.007030064303203833 -0.054111009479739736 0.0830467663830945 0.014453428334198628
-0.04963043767956516 -0.047337390113663794 -0.08084121453789593 0.01838444277116434 -0.03782729989217214 0.04221188420670362 -0.021250128101657294 -0.003215268735251232
-0.04257592264719419 0.037340667391314614 0.014313226933042936 -0.0061838040572663195 -0.006250839598528226 -0.08576191144230805 0.025519047615834525 -0.029897205399470436
-0.08739539059312272 -0.028971477607392708 -0.038735695428684026 -0.07459385669205845 -0.08328746735706248 -0.008251372630194069 0.06260584812664746 -0.04983972629097635
-0.12210622235441444 -0.1218386043519612 -0.03305238624164863 -0.01872007842758301 -0.03999721829105216 0.0324571422782679 -0.04902004256504892 -0.03861124014083773
-0.0648381339600137 0.0027718493653980684 -0.0490087187972683 0.0559758444861197 0.06643112058940871 0.024955392076220027 -0.041171989414845574 -0.013037161390953551
-0.047461669959759326 0.02699994538530113 -0.055068541344953786 -0.008649461450348863 0.03752474004781785 0.029332454038549186 -0.10138700256319019 0.036429463370523794
-0.04074868410597555 0.052774795304750835 0.02067868764851348 -0.05156207265919222 0.01820645643672401 0.1286669450811614 0.056320832146022105 -0.04682841056148989
-0.020134569541648797 -0.08359991306618644 0.03452525592597319 0.043674607846714605 0.01650979574734196 -0.016394129879103003 -0.02545994119304366 0.010247397768457423
-0.05546222179497753 -0.06638260964071256 0.03307154453535376 -0.05825416152171195 0.06790341706076562 -0.04315508197662439 0.05651743887727366 -0.04043908189447563
-0.017844253612250834 -0.050967417698452186 0.043052252087730676 -0.08410222283164027 0.05402896996641088 0.025827421384518184 -0.013715159062214941 0.09600395246382548
0.002089931841362134 0.07588246892884266 -0.09243414982608915 0.006188459143187305 0.024030458331008423 -0.10363558060418451 0.05006407470618425 0.08066664573522425
0.01920344648784798 -0.013142964794337006 -0.05457872880397563 -0.07541792390386064 0.015622200499855196 0.07632114357300897 -0.10921459577436561 0.007636130899442458
-0.052384314145404384 -0.05924795568095996 0.055604165733746574 0.06480550510219285 0.10439801034631972 -0.056412572735195524 -0.0475646331657876 -0.04751687649443344
-0.009749020206377133 -0.06134931332648377 0.004941548561460911 0.09532696543032654 -0.040096622286555875 0.047796933774056666 -0.010013449674110102 -0.08927199269386153
0.003425319857467337 -0.026433466564518032 -0.1050973662799181 -0.05017676401225995 -0.0437830981009104 -0.0043356252908455925 -0.052219518744952044 0.0611894466826334
-0.004164104091991581 0.031520034723280375 0.1114309274256003 0.08510572734052277 0.041705132514836034 -0.077932245199158 -0.005255587452706517 0.055931353633942985
-0.06537792903967427 -0.00046192531179654954 -0.03848993318913584 0.05481852242801038 -0.013077396437033251 -0.01473100503458622 -0.019313482931714865 -0.05888178988148766
0.012138113859950977 -0.04400250068884291 0.01269262781282351 0.0594052601116916 -0.02081938150080141 0.06309479617891171 0.04077406860535416 0.05788108612657341
-0.027038723410777434 0.023908432508978728 0.03923379340212774 0.038113277931158464 0.012687240244248046 -0.028077438603492214 0.05873705370076291 -0.0015115469669196697
0.0005865982193670276 -0.09530653599408417 -0.03889127279153337 0.003321308745245217 0.04219816673954326 0.02727597088783484 0.036870685355088126 0.07565539403572723
0.023553090226743935 -0.0006840838783629306 -0.020167520860314612 0.06666476141116817 -0.016520254319312255 0.053487047595712656 -0.04198903512532869 0.03804599467049252
-0.02252256368121521 0.1121988987572629 0.028546334842889213 -0.024729114983854043 -0.0752853346630232 -0.005964846636714451 0.042940738565480994 -0.0433666429537266
-0.015944027533758 0.005986166485868051 0.04842350843376742 -0.022225547147793755 -0.03964991872853512 -0.033563096975543036 0.057571939054194714 -0.05014149809680251
0.032938565510398574 -0.06439348121494558 0.008165433942934942 -0.04572659794227315 0.02477044013143753 -0.020039852851363473 -0.11391885671206124 0.04397984673251654
0.008048935779675763 0.05117847955021876 -0.006009619010770253 0.05324773321166996 0.02507170761152992 -0.0454380104855294 -0.06044403058640149 0.10913882954522222
-0.00923433204755389 -0.04077490142152133 -0.05107381929339883 0.11106677008420852 -0.024082606977337197 -0.04856476656532375 0.029386694369487095 -0.032743630330832524
0.047225598897733416 -0.0639878562950605 0.0069716868970218 0.06783244075058409 -0.06148167281619711 -0.001034254082893075 -0.02343997618590115 -0.01713254224531259
0.015529984277375649 0.015585584160883431 0.027587653537379398 0.10465780328436469 -0.07116967246302468 -0.003551313297109023 -0.05671982106937227 -0.006533713564276253
0.016619498372673566 0.0021426376086585695 0.03908558883063629 -0.026768111038322776 0.12251017134930615 -0.0352888349366198 0.003863145864402822 -0.0960963641916159
-0.05393358084562291 -0.023889287405157066 -0.04951051818916812 -0.048014622636444446 0.04539435275024372 0.1399897925024102 -0.0009838762903462458 -0.011281810279652738

base.actor.actor_fc3.bias f8 [8]
00000000: 9777 d1be 9ac5 9a3f 88ce e9ac 1c75 863f
00000010: de6e 93b6 4aa0 afbf a909 d604 5b09 b0bf
00000020: febd daaf 98fe 9dbf 708f d07c b9de 80bf
00000030: 2ec7 b131 d0a0 a03f b011 0f85 799c 873f
0.026144426247234866 0.010965560938735366 -0.06176980475149006 -0.06264275425022582 -0.029291520818047083 -0.008237313386480344 0.032476907793251505 0.011528920529493586
