results/Ant-3d/cmorl-ipo/0/final/EP_policy_6.pt (torch, 105466 bytes, 13 tensors)

base.actor.actor_logstd f8 [1, 8]
00000000: ba7f e3bb 65fa 01c0 0969 efb6 60b3 03c0
00000010: 3d0b a3d6 e768 02c0 6265 c06e 5357 02c0
00000020: 2421 f2b9 231e 03c0 0fa5 b348 0e8b 03c0
00000030: 3aaa f7a0 9523 01c0 941a dbfc 70d3 02c0
-2.247264354591576 -2.4625868121921752 -2.3012234467036294 -2.2926396038498504 -2.3897165801064535 -2.442898338301013 -2.142375237997183 -2.353242850719946

base.actor.actor_fc1.weight f8 [64, 27]
00000000: 59b9 e14c 1930 c73f 4134 9c5f ca83 d3bf
00000010: 30bf b289 03ef c23f 8ed3 5cac b9ed c7bf
00000020: 4479 8f68 a15f d6bf 2675 6ce7 524f c5bf
00000030: 323d 4fd7 29ad c8bf d48f 7d52 5188 943f
00000040: b26a af1f 90a4 b43f 4821 103a 75dc b43f
00000050: b861 c96b 29f5 a2bf 9c68 73fe 852c ccbf
00000060: a9fd 2a98 955a 9dbf b3da cc22 3223 b2bf
00000070: 7b73 885a e3bb 52bf 53c1 986d 5912 c7bf
00000080: 5255 646a 71c4 b33f 2276 3d2e 2c14 c3bf
00000090: 17a6 02eb d07b c93f e383 207a 2cda b03f
000000a0: 7950 551d 7aef dd3f dfe7 01df 53f0 b43f
000000b0: c79c 7305 732d 9cbf 9000 2b15 0044 abbf
000000c0: 8b8e 712d 3953 c9bf d0db 66f6 61bd 813f
000000d0: 1d3b 18bb 3748 d63f 0d08 43ff cbed bf3f
000000e0: 5b92 7abc ed2b c33f 0725 95f8 a9e3 d1bf
000000f0: e5de 6e4d 45f3 b6bf e01b 23c8 b3e6 b63f
00000100: edad 9158 8f7c 9dbf d15c eb95 aed6 76bf
00000110: 80dd 0977 e393 72bf 4ed9 b4d9 5fd7 b3bf
00000120: 2735 0bbb 2ef8 c03f cbb6 2ad8 d33a c2bf
00000130: 7e2b cb6f 79e5 cbbf ae53 d910 def9 c6bf
00000140: 5f05 7d7f f444 c5bf 7047 ecd5 dfd4 d5bf
00000150: c692 5b97 92c6 c13f fabd ffcb 9480 7c3f
00000160: ab6e a206 17ab c5bf a005 9069 df79 c9bf
00000170: 96ef 41b0 5a5e ab3f e427 e2fc ea9c a23f
00000180: a5f3 732a a6b3 cc3f 39f2 a95e 51aa cfbf
00000190: 836e 42b3 a149 943f c59d 90d3 3d51 9c3f
000001a0: aa96 6da3 59c9 d13f 4756 6a3c 5326 b63f
000001b0: c39a 688f 1b65 c9bf 4c8d b371 c1b9 cf3f
000001c0: 0749 5c35 4ce9 c1bf 215f 052e 5515 a63f
000001d0: 2996 cfe6 3b85 ac3f 0a97 c4a2 00ad d63f
000001e0: 2945 b542 b0bf d0bf 2465 4ef5 6071 cbbf
000001f0: f9fa cef6 d0a6 b2bf d40c 3ee0 413f c2bf
00000200: 7737 ff74 4c6f c03f 5061 2be9 1959 ac3f
00000210: 9131 39a5 da8b 9dbf 5b94 c52e 9bd4 c5bf
00000220: e1b6 0bd7 8ed5 b43f 260a 233d 374d a43f
00000230: 3a8e 097e be50 b3bf 3a6f da63 5061 b7bf
00000240: 3b48 d348 6034 993f 11c7 4a9c 0797 803f
00000250: 2019 dbdd 0680 853f 2ec1 7fe8 07c4 c83f
00000260: 3ce7 4f0f 7e09 ce3f bf4d 1774 7f0a d03f
00000270: 54ff dc14 2385 d33f 2d64 4d0f b345 cbbf
00000280: a2ff 9c54 271a a93f d9d7 a88b 6ad7 4b3f
00000290: b4ac 3e3e e63c d13f c07e 9af3 7498 c03f
000002a0: 8497 d5b8 6ccc cf3f 8f78 353f de07 d2bf
000002b0: cf37 e074 f053 cabf f7f8 d8ff d488 ae3f
000002c0: 5c44 e247 27a1 af3f d1fd 8d15 fdf8 c1bf
000002d0: d80f a76d 4b67 c43f 0bb2 5f48 69d4 cfbf
000002e0: 6ed2 0df0 7187 a3bf 40e8 bb56 7879 b2bf
000002f0: b47f 566f 4299 b8bf 72b2 b181 c9d8 b8bf
00000300: d32f 7870 67d2 b73f 1848 aa1b 8300 c33f
00000310: fe27 37bf 7e37 b13f c4f8 c9dc 38b7 bd3f
00000320: f79d b04e dcd0 e0bf 7356 d448 33c7 ad3f
00000330: f515 8cf8 acd6 b73f 5bae 3539 a481 c33f
00000340: ca11 bc7a b287 ae3f a0b9 2dcb 89b8 91bf
00000350: 034e c2a9 abad d0bf 7a28 fcbf fc26 bfbf
00000360: 6257 bab2 2dba 713f 5208 343a 89cc 52bf
00000370: b06e 9cf0 d00e d23f 30bb 8f14 6676 b1bf
00000380: e4c1 2838 cab0 cc3f 3108 5c3f ed56 763f
00000390: 37b6 f423 4ec6 debf bcf3 484a 13d7 b63f
000003a0: c229 e4a9 51d3 c23f acbf 90f0 3775 d63f
000003b0: f7c0 14d8 a05f b0bf 6a66 4ea4 1e35 c3bf
000003c0: 1eba 8795 7e75 c5bf 5169 67e7 6749 c7bf
000003d0: dd82 b371 7dbc babf 8e4b 5499 9656 afbf
000003e0: dd2e b487 8078 c43f 4b16 93f6 1ece b7bf
000003f0: 9765 330c faf0 babf 752e 71b8 8a82 abbf
00000400: 3ca1 ec08 4f23 9f3f f125 6226 128d bd3f
00000410: be1a df16 adf7 753f a2e5 2c08 b712 b03f
00000420: 2ff5 a911 8929 b0bf 9b2a 3475 42cf ae3f
00000430: fa45 1653 3e09 d23f eb4c 7714 880a c33f
00000440: 4bb4 0220 768b bdbf 13de f189 e85f d9bf
00000450: 7db5 eab7 639d d2bf 6d4d 5836 67f9 d0bf
00000460: 7bb4 ddec 473d d03f 912b e3a5 d1c6 d0bf
00000470: 59c3 81b3 3341 c5bf 3438 95df 8d1e bfbf
00000480: 5c11 25fb f221 b0bf 81c1 f52e 6f40 b23f
00000490: 9f60 0e98 5e3e c23f 6197 2487 974c d2bf
000004a0: 82ba 3b93 7b4a b9bf 0205 d4e1 bd5a b4bf
000004b0: 617e 54a2 4daf c0bf 63c1 f6e9 8027 ae3f
000004c0: 3b8f fddf ace6 c0bf 533b 625b 17c9 b13f
000004d0: 786f 2fe3 1c63 b83f 6ccc a488 ea9b b3bf
000004e0: deb7 c6f9 32e7 d3bf 6b77 3847 7374 d63f
000004f0: 6403 4c6f 1c75 ab3f 4a75 9795 96c6 c43f
00000500: 0417 48e6 2235 d03f ddac 3a63 1f4a 84bf
00000510: daed 86aa f288 ccbf 26c7 5bed c48b d2bf
00000520: da65 e4dd 5967 b73f c48c fbf3 2b61 a3bf
00000530: 2c1e 6085 9518 b43f f0c0 a500 aa1a a0bf
00000540: 33a4 17b0 7cad a2bf 8f8a bb38 215a b03f
00000550: 66c2 1186 1cfa ccbf 25a1 4460 5d4d c8bf
00000560: 87a0 86c9 346f d33f b125 f76b 187c cabf
00000570: 1497 0a46 6126 c7bf d768 fa48 005a c2bf
00000580: ed4b bdd9 322d 9d3f e3c0 1b92 608f d83f
00000590: bb70 cfe7 b9d2 cdbf 1f74 ecc4 e727 cd3f
000005a0: 823d 1bb1 2bac af3f 597f e34c f83c 823f
000005b0: 313b 078b 577d ca3f c29f 4fff 8676 d23f
000005c0: 22ed 1857 8acf c2bf 8062 f4e3 f3e8 aabf
000005d0: 25df b89c 070b cdbf 13c5 77a1 bb02 c43f
000005e0: 3a92 87b8 6c50 c3bf 1d52 4148 5161 cd3f
000005f0: 615f 38f2 5134 d23f 7e93 45e5 6c98 d33f
00000600: 086d 97b2 54fe 59bf c8f7 a1c4 93b8 d0bf
00000610: adcf cbb4 c258 a7bf 65ee be62 8f24 b13f
00000620: 1058 0846 d0d3 c23f bf99 cf15 4c72 bc3f
00000630: eb0e 7dac d458 cdbf d4e9 03bf 3187 c53f
00000640: e7e7 5a51 1951 a33f 076c 07e7 4235 923f
00000650: c167 0a56 bac4 c9bf ce9f ec72 102d c13f
00000660: 076f c9f9 0cd2 d03f 04f9 6633 c7e6 973f
00000670: 415e 6c9e 4001 cfbf aa65 1d4d 965b a8bf
00000680: 0468 967b 45f9 b5bf 0d3d 6d10 2014 9e3f
00000690: dde9 90a0 1188 c9bf eae7 3d90 5453 acbf
000006a0: 1e8c b278 c6b5 c13f e023 3a68 73f8 d5bf
000006b0: 04b7 4a66 5ed2 cf3f 120c 2c16 c8b9 c03f
000006c0: a540 a879 8a5a b93f a069 e793 3b44 b5bf
000006d0: 7e09 422f 8914 cc3f 2dc6 a8c9 6bc0 b3bf
000006e0: d9f1 2418 d87b b3bf 458d 82cf cfa3 c0bf
000006f0: 3186 7f35 0090 cb3f 9a7b 2c7b 4ff3 b73f
00000700: 04fd 0682 cfca b93f 7c89 bb19 993b d6bf
00000710: 3988 6341 869b c1bf f4c1 c5da b3ed babf
00000720: 9be0 35d9 f9ec d3bf a2e9 f8ab e485 b7bf
00000730: 29af 844e cf2c c13f a9b4 02ce c333 b13f
00000740: b384 a97c bbb5 ba3f 19cd 2691 c247 a23f
00000750: d0d2 d2c8 8500 b4bf 24e0 b88c a662 d93f
00000760: 4607 41ac 185d cc3f bf44 f6b4 b6f7 54bf
00000770: 1fb4 4f19 ccb0 ccbf 7f84 de6e a704 d2bf
00000780: 2844 7a17 4520 ae3f bffc be55 8040 ae3f
00000790: 70a8 285b 33e9 b8bf 4f18 14df 857b babf
000007a0: d54b 34ff 0d61 973f 3c5d 50eb 8f6f 99bf
000007b0: b55e ceb4 0911 91bf 8e82 890e 93cb 9f3f
000007c0: c829 09bd 3094 b0bf 810e 1749 62dd d0bf
000007d0: 1b06 6147 3c8b bebf 1ef7 6ab1 1316 ddbf
000007e0: e0cc 9689 46bd 703f e71c f862 8237 c83f
000007f0: 2b51 eff6 939e bfbf 1671 fb52 6a0e cb3f
0.1811553597830862 -0.30491885506564037 0.1479191229204786 -0.18694229999678352 -0.34958682261448737 -0.16648327159865878 -0.19278452885780833 0.02005126062375935
0.08063603185238824 0.0814889208560362 -0.03702668610339138 -0.2201087467609043 -0.028665864384263582 -0.07084954595198205 -0.0011434288263736092 -0.18024747706796038
0.07721623275241044 -0.1490531183034572 0.1990910670768222 0.06582906705490603 0.46774151672912684 0.08179210848348316 -0.02751712532781594 -0.053253176292401894
-0.19785227507519595 0.00866200001915543 0.3481578185173236 0.12472224218348078 0.14977809622827717 -0.2795205047192017 -0.08964951649147286 0.08945773731384987
-0.02879547098238604 -0.005575830435837052 -0.004535568747648155 -0.0775051027784219 0.13257393010136662 -0.14242027335187965 -0.21794050177262742 -0.17950034926130115
-0.16616684174554572 -0.34111781969942623 0.13887245550644972 0.006958562124040219 -0.16928375076246502 -0.19903175978110443 0.0534542408140332 0.03635343872981858
0.22423245499512948 -0.24738518831499492 0.019812132421618955 0.02765366176404684 0.27791443786405046 0.08652229523644293 -0.1983980608212815 0.24785631229233684
-0.139932180457045 0.04313150584010673 0.055703994679600584 0.35430923362069733 -0.2616997386404188 -0.2143975446495371 -0.07285791421507416 -0.14255546044669265
0.1283965655588266 0.055367288315837926 -0.028853813490330508 -0.17055072578219463 0.08138363599911315 0.03965160962390639 -0.07545080735285917 -0.09132864415954325
0.024613861508278694 0.008100566346317646 0.010498098035338688 0.1934823880433298 0.2346646857038709 0.2506407388402429 0.3050010398619538 -0.21306455847914788
0.049027661398667335 0.0008496542207641025 0.26934200361820193 0.1296526135893057 0.24842604661096968 -0.28173023388615887 -0.20568662363842669 0.059637695533170935
0.06177637817848655 -0.14041102936242436 0.15940230230455543 -0.24866977723958458 -0.03814273887011131 -0.07216598622827153 -0.09608855455598936 -0.09705790916786741
0.09305426116787822 0.14845312929952637 0.06725303810449643 0.11607699766497875 -0.5254956757461845 0.0581604029086237 0.09311944072768326 0.15239384454195
0.059629037363297124 -0.017305520082510406 -0.260600009708668 -0.1216886490548478 0.004327944286748183 -0.0011473980055716382 0.2821543073384687 -0.06821287157047773
0.2241452001776586 0.005453993557013746 -0.4808535910732163 0.0892192894325054 0.14707394404861246 0.35090445034711126 -0.06395917201439603 -0.1500585844303715
-0.16764814664152622 -0.18192766951581033 -0.10443862939747413 -0.06120749112792288 0.15992743135608736 -0.09298890609633152 -0.10523951337690672 -0.05373033048144019
0.03040812961549587 0.11543382107824819 0.005363155489198133 0.06278556775659763 -0.06313378030059334 0.060175015265561536 0.28181417573895795 0.14875889777486093
-0.11540926248081111 -0.39647878142520304 -0.29085629425647835 -0.2652223616325589 0.2537402928490519 -0.26213494491519734 -0.16605230584130018 -0.12155996998373625
-0.06301802283730268 0.07129568954929334 0.14252836632363583 -0.28592479894211037 -0.09879276604235979 -0.07950960887321304 -0.13034983087799204 0.05889513832096573
-0.13203965127024184 0.06947465878532215 0.09526234194293959 -0.07659784160641586 -0.31098627464495887 0.3508575625909233 0.05362786158185065 0.16231043152121521
0.25324318397939316 -0.009907002654776448 -0.22292931868092475 -0.28978083781759023 0.0914207617501214 -0.03785073617270876 0.07850012308346582 -0.03145343072799445
-0.03647985124172983 0.0638752711779864 -0.22638279482227402 -0.18986098480787308 0.30366248779547117 -0.20691209098576516 -0.1808587638853899 -0.14337161601435497
0.028492731609116296 0.38375105160140616 -0.23299335306990607 0.22778031459248013 0.06186043297713707 0.008905353399711368 0.20695013321388836 0.28848433430402676
-0.14695863011170568 -0.05255853803300159 -0.22689910080384226 0.1563334024827233 -0.15089186678155092 0.22953239467700906 0.2844433656150525 0.3061783064825291
-0.0015865161061501837 -0.2612656994095883 -0.04559906441673376 0.0669641128615069 0.1470890371280693 0.11111903698438307 -0.22927339956560586 0.16818830325048728
0.03772811048607121 0.017781300879374153 -0.20131615830615426 0.13418775188006155 0.26282047646758183 0.023341286194175317 -0.24222572074426021 -0.04757375422804995
-0.08583482997201491 0.029373646738631232 -0.1994649919523245 -0.05532325993313221 0.13835984128408624 -0.343289233955657 0.2486074447128247 0.13066960413570478
0.09903779478213666 -0.0830723987668649 0.2193767052413697 -0.07715486214944951 -0.07610846127949546 -0.1299991381866709 0.21533205616201337 0.09355637318775081
0.10075089382643304 -0.3473875762266727 -0.13755872910320635 -0.10518955317616713 -0.3113388653941997 -0.09188679884474607 0.1341799863233686 0.06719611911349212
0.10433551591406136 0.035703735560128354 -0.0781329741756267 0.39664615385436464 0.22159107600060163 -0.0012797626730825377 -0.22414542423158054 -0.28153405978270735
0.0588399497183974 0.059085855929418944 -0.09730835891301282 -0.10344731041195242 0.02283117170470546 -0.024839638459608113 -0.016666556988268428 0.031050012361790773
-0.06476120581752476 -0.2635122026224295 -0.1193120645775924 -0.45447246862373614 0.004086757218306064 0.1891940100906375 -0.12351345804865292 0.2113774209200378

base.actor.actor_fc1.bias f8 [64]
00000000: ab34 7dc4 3ab9 ab3f 776f 1099 7f6e b33f
00000010: 0df0 60eb ccb8 b43f 120f 7bb0 b8de 983f
00000020: 6a37 dd3d 4f37 a13f 1ca2 82cd fed2 bbbf
00000030: 4d21 ef5b 828f c1bf 6820 c1c9 9a4a 95bf
00000040: 8472 35ec 52ae 883f fa54 d2e7 9a39 b83f
00000050: 5e15 d4e6 b86b be3f b856 326f a647 c93f
00000060: 35fe 4dd5 e97a c7bf 4c13 c0bd da12 97bf
00000070: 18cb 5433 5592 b9bf 15e2 7c3c 5966 ccbf
00000080: 5a7a f353 7250 b3bf 1083 f5a6 5b10 83bf
00000090: 1fa3 0ad7 d637 bb3f 752f a26b f839 cabf
000000a0: ee4c 63ca 6526 c53f d7bf 6e05 364e c3bf
000000b0: 7580 d388 0a3e c43f fa52 0cab 40b6 a83f
000000c0: e4ff 044f 768f 973f babe cbae 9afc a4bf
000000d0: 5cc9 2b2e 83e0 603f 1b4e 6927 751f c0bf
000000e0: 2e8f 385d 0c67 96bf a049 a1e5 8450 a33f
000000f0: 1f43 97e5 aba5 a1bf 8e4e e40a bdcd b53f
00000100: ae53 9921 b36e 8c3f 4ce8 d133 1756 74bf
00000110: e407 27bd 44ea 923f 5404 ba15 cf77 a13f
00000120: 9770 0b42 811d c13f 3e8d d733 97be b0bf
00000130: 2627 5843 afe2 c5bf 2e05 1cb5 fb64 b03f
00000140: 5d78 da8e f1bd c5bf 17c6 8f70 fc0c 4ebf
00000150: dcf8 976c 8bc8 ac3f 9f34 5a65 594c c13f
00000160: 4fce 21d3 9237 b93f 56c5 935b 542c a63f
00000170: 52d5 7b83 9fb9 b8bf 96df 059f f21d b0bf
00000180: 4f57 24cc 478f c1bf 1407 3ff0 dccf 923f
00000190: 00e2 73c9 57ae b53f 5ee0 2f59 4a27 b53f
000001a0: 7fdb 0c83 80c6 c0bf a049 1abd a918 b6bf
000001b0: fc22 75c5 ad68 913f 3863 ab1e d71c 80bf
000001c0: 1f4b 4369 8db1 a5bf aad2 e288 436e 6f3f
000001d0: 4f1b 76bf b68c bcbf 4990 a657 a26c 983f
000001e0: 3baf 919b 6e14 8d3f d582 6dfd 5bc6 b6bf
000001f0: e1c0 9471 89e1 ba3f 0fc7 b724 06ab ac3f
0.05414756439731979 0.07590482222479787 0.08094483133839976 0.024287114879157086 0.03362510328461961 -0.10868828313199014 -0.13719205368966883 -0.020792406620131848
0.012051246484298568 0.09462898406703238 0.118831211428263 0.19749908856890896 -0.18343851962343796 -0.022532861548842306 -0.09988911154941282 -0.22187343076235835
-0.07544626760088971 -0.009308544190106655 0.10632078886068229 -0.20489411597770482 0.16523430235120123 -0.15082431092514412 0.1581433456513001 0.04826547706594471
0.023008202145547232 -0.040989717328441214 0.0020601808658905884 -0.1259600107610915 -0.02187747305846626 0.03772368720150898 -0.034467098022679325 0.08517056957162536
0.013883017981393877 -0.004964914926967334 0.018471788449239926 0.03411719455926546 0.1337129185184309 -0.06540818229364206 -0.17098036564157687 0.06404088183991938
-0.16985911822570446 -0.0009170754066173983 0.05621753407102556 0.13514249276014298 0.0985042348345868 0.04330695741544825 -0.09658238372852182 -0.0629569662322623
-0.1371850725924397 0.01837105957361647 0.08469151180532464 0.08263077428262153 -0.13105780028282862 -0.08631382815136712 0.017000880410054528 -0.007867508529146514
-0.04237024221369822 0.0038367575681042725 -0.11152212309216945 0.023851906394739584 0.014199127314178042 -0.08896422326280214 0.10500391982054992 0.055992309553302026

base.actor.actor_fc2.weight f8 [64, 64]
00000000: 59fe ed5c baec 8a3f 229f a108 f831 98bf
00000010: 7c98 71b7 4b04 a4bf 149e 31e9 eec3 ae3f
00000020: 6314 48ae 6e6b c03f 6b34 7c15 c8d8 c73f
00000030: 3074 dfeb 1cf7 5d3f c125 e8b4 04ca c93f
00000040: 9720 c2f1 b44c 843f 57fd b737 cef7 b5bf
00000050: 9b8a 8943 09f2 cdbf ea00 8e9b f2a3 77bf
00000060: 2a00 61af ee4b d63f f7b2 0ea2 5bba c8bf
00000070: d6e6 f491 1922 c83f 1649 63ce 8b45 bc3f
00000080: 4e1b fc26 d60b 92bf 88b3 a292 908a bc3f
00000090: 12a4 d8fb 2df4 bcbf 50a0 c966 ecfb d2bf
000000a0: d41f 6290 d082 b73f 4c0b 63a0 9345 c63f
000000b0: e9e9 7bee f01f bc3f 4619 ee44 e9b5 a3bf
000000c0: b962 59a4 59bb a13f 422e 212c 51db d43f
000000d0: 7844 27af 7c4b ad3f 9f33 4760 f25a c23f
000000e0: 5ce1 d43f 681c bd3f 3409 abe8 8074 c13f
000000f0: 3128 0668 df5b abbf 26c6 a98c ef76 b5bf
00000100: 1f37 c4b1 0ed5 d13f 93e7 cd90 1693 c5bf
00000110: 1a75 423c 4b41 c4bf 211a 5d0c 1a4e 6b3f
00000120: 0324 be9a 5347 b0bf 3479 5219 2864 cc3f
00000130: 17d0 87cb fc26 8bbf 0a8f 51e3 d528 c33f
00000140: b4ae c901 551d bf3f 70f1 0bbc e2db b1bf
00000150: 7403 4ca1 3d16 8c3f 2ec6 c282 a49a c53f
00000160: f395 5bbb 861b a83f 0ae5 9030 a2fc b13f
00000170: 6e9b bb04 7764 d03f 018a 2896 348a 9dbf
00000180: f7d8 e1e9 dd2a b83f 0f92 bd8c 004a b2bf
00000190: 5936 e1dc 23a2 8cbf 8d45 9bb9 705f a33f
000001a0: d869 923a ae3c cabf 0279 a3f1 2d91 59bf
000001b0: 0a01 c1e7 3708 b6bf e8a0 790f 87a1 b8bf
000001c0: f1aa 0786 108e 9ebf 4ce5 5ab5 2b70 a6bf
000001d0: 2811 fdce a61f c2bf cf1a 0286 67aa d53f
000001e0: ebf2 d6d8 f557 b73f bd40 577b e108 cabf
000001f0: a6c5 34de 53b5 c03f 1f91 6849 67b3 cd3f
00000200: 7884 d610 1f76 cc3f a7a4 32e0 db0c a7bf
00000210: 8a1f ef56 8e70 38bf d494 d98e 7c79 c0bf
00000220: 630a 4dfb e23f 9abf 0eb8 b128 5b1e a2bf
00000230: b944 98ee f578 d63f 232f 0586 5b53 b83f
00000240: 471c 12a1 9eef a1bf 009f 84da e95d a8bf
00000250: f0c8 e178 6774 ad3f 0dc4 2c96 4719 c73f
00000260: 75a5 cf37 5716 adbf 039f 006f 0c5d 9f3f
00000270: 5301 d5f2 c7c2 cf3f ea25 3db4 1b9c 853f
00000280: b643 6afa 4444 70bf bfdf 03f4 9fd4 afbf
00000290: a37c 7fe2 eb4a d23f 446f f374 3842 c43f
000002a0: 4c83 5cd5 069a 8c3f 24cd fcec f312 a5bf
000002b0: 7917 d9ac 753a d0bf 7f4b ec7f 760c aabf
000002c0: 9e0f 7e3f cb46 b63f fb3b fcbe ae9d d03f
000002d0: 87ef a62e 3ef1 c03f ddcf 5816 4d20 cebf
000002e0: f650 61c3 0f17 cabf c7cc 43c4 04fc b23f
000002f0: f43b e5df 9361 c53f 3d55 fb02 2357 b33f
00000300: b7f5 acf0 6fc4 b5bf 5fd8 4f1a 591e c0bf
00000310: 52bf 4493 775c c1bf ffd5 f4fc 2516 a33f
00000320: a1fc 5cbb d9a2 be3f 7d6a 3775 5f49 ca3f
00000330: ecb0 6a42 31b6 b33f 00dd 90e3 a567 b93f
00000340: 2745 d8d0 4caf c53f 4723 e757 5bc2 c3bf
00000350: 0a69 456d 83a0 a7bf 1f88 07fc 5a79 af3f
00000360: 8cd6 2878 5466 9b3f 3131 5f11 0743 c2bf
00000370: c755 c7a4 2a3b a63f 1c4b 1d61 0edc c53f
00000380: fba0 aa95 3b98 7a3f d7f5 0d79 bcf1 903f
00000390: 5fa7 423a cc45 d7bf 9a71 056d 10de ae3f
000003a0: 5c34 cb89 7b67 b7bf 8fdc b73a 6d53 a23f
000003b0: 641d 008a 4d7a ae3f 3512 a567 cf12 d53f
000003c0: e2ce 8ed3 879e 95bf 378d 5284 fd2a a0bf
000003d0: 4ec3 081d e0fd b8bf 221b 15ac 4652 85bf
000003e0: 3e39 de71 cd26 b7bf 5f10 02e8 3a9b d0bf
000003f0: 8d7b b118 ebd1 ac3f ba75 2b86 b810 babf
00000400: e001 e19d 88f6 92bf d440 9c19 d85e c6bf
00000410: 3453 850b bd9d b43f 773d 3cd8 ce42 913f
00000420: 6bc0 d511 d1d0 bfbf 061b 0194 6412 cebf
00000430: 2367 9659 c766 bcbf 4ae4 4d78 e05f b73f
00000440: df73 37de 7c6d a7bf ba08 fd17 80da b93f
00000450: dafc 9957 623c ad3f c9b1 4083 0334 bcbf
00000460: fabe 1855 cdd5 babf cab3 6879 0c2a 97bf
00000470: 082d 31b4 f998 82bf e57f 986c aedd babf
00000480: 1a5c 5189 5b2f b1bf df3e 2698 fa0b 983f
00000490: 498c 1cdf 05aa d6bf 7a96 1c02 b092 be3f
000004a0: 90b3 3681 0a1c c13f 9654 203c 94de b6bf
000004b0: 6eb4 6439 4c5a b8bf 4744 4e47 c588 c4bf
000004c0: 409a f080 3dca b2bf c351 5c9f 4d84 bebf
000004d0: 89a4 c137 ca5e c83f 0b35 d2d2 be8f cb3f
000004e0: d2e3 d46a 5ac2 a43f a166 e016 c660 c53f
000004f0: f5bd 67fa e18e c53f 6d72 5966 a2b3 d43f
00000500: 002b b70f 45f1 d33f f015 2a5b 160f a6bf
00000510: f690 8753 c248 a23f 1505 2fcc 01a6 c13f
00000520: ba61 8ccc ffe5 c7bf 617d d4f5 4be3 be3f
00000530: f279 8cc7 72a5 a43f 68b6 b72c 64bb c2bf
00000540: fe7f 9c88 327b b53f 495c 5496 cdf4 babf
00000550: b9d8 4393 f79a d23f 5314 d52a 8687 ca3f
00000560: b256 cf53 c2cc d93f 459d 250b 8d80 c1bf
00000570: 8d63 958a 0500 cabf c8ce ae22 c4bf d1bf
00000580: ded3 c1f1 61b6 d0bf afe8 27e7 78f3 9e3f
00000590: 531a 2568 e46a bc3f bc09 3703 7c4c c8bf
000005a0: bbf4 2738 c562 a23f fe38 7d26 00fd d03f
000005b0: c241 502c df0c b1bf 388a e17e aa05 c23f
000005c0: 1026 f569 82bd b13f 412d e5ac db56 a33f
000005d0: 0acd 5a22 5c0b ba3f b325 af78 02bb c63f
000005e0: 394e 8e63 fac3 abbf db55 77e3 bbcb c8bf
000005f0: 4159 9b54 bd83 bfbf f293 9449 414d a4bf
00000600: 9137 709c 1328 873f 531a 119c 9b28 743f
00000610: 0b9f 7b6c 53b8 953f e3e6 4e06 7fed aebf
00000620: 3c3f f602 e459 b3bf 21dd 4fe4 68cc c83f
00000630: 7546 b798 c7a3 a7bf cb85 d66d 6424 833f
00000640: 20c2 03ee d5b4 c93f da37 f553 8809 cfbf
00000650: b10b e6d5 b72d ca3f 1637 dd2f 0212 c53f
00000660: b282 c085 7eb9 c4bf a73d 3d7c 618d c1bf
00000670: 9d75 2d4a 8683 e0bf 981a 4aa7 f4c4 d0bf
00000680: f885 82bf b53b c33f ef3a 19ac 4618 b0bf
00000690: 5546 e53b a0d9 c33f 71ca 344e 78c4 a5bf
000006a0: 4bf9 2007 42fe d93f e670 4304 1341 aa3f
000006b0: b98c eb66 5ecc bb3f 6c21 b8e2 d35b c5bf
000006c0: 706c 15d4 56a0 b03f 15fa f865 aef4 623f
000006d0: fc97 7173 810a b23f a660 efa7 2f13 cc3f
000006e0: 2c45 6fba bb70 9f3f 4807 f515 a9e1 b33f
000006f0: 42b1 1d64 d7b5 d03f 4370 466c c9c6 4ebf
00000700: f960 5efd 0247 c7bf 6eb6 fbfb 123d c73f
00000710: b30e d0cd 9e6c 90bf 1e70 a342 d125 b8bf
00000720: 8cc4 ba80 1f6e c03f 29a2 f490 bbd4 ccbf
00000730: e11d ef35 5e36 923f e45d a8ec 4d0a c13f
00000740: e524 30d3 8a2b d3bf 80ed b37b 8ad1 c9bf
00000750: 4694 59c9 b476 d0bf 3c71 c815 3a80 d23f
00000760: 4856 5391 908b d2bf a4c5 3ec8 2c94 c7bf
00000770: 9681 a3e5 0219 d43f d0cf d8cf a86a b03f
00000780: f164 722e 971d c5bf 3022 85b1 9481 c33f
00000790: 4cc7 477f d32d ab3f 0998 3936 49c8 adbf
000007a0: e52b 4433 acef e03f aa80 c697 8a78 cf3f
000007b0: 26bc 388e 78c9 cb3f e160 1b29 dbe8 e1bf
000007c0: 17cf ccc2 a262 c9bf a285 9dcf 5971 c03f
000007d0: cd8c af1d defd 8cbf b03f e424 65e0 6cbf
000007e0: 985c 8606 f166 c43f b6d0 39e1 ca39 913f
000007f0: 043f aef7 61d1 ce3f 7ba0 fd72 5877 b13f
0.013146835289943913 -0.023628116156401487 -0.03909527410796529 0.06008860203365543 0.12827857503740167 0.18630314873772433 0.0018289358554206651 0.20147761185971372
0.009911931636694056 -0.0858124624282842 -0.2339488582393486 -0.005771587072445275 0.348384543674913 -0.19318719304046514 0.18854064585484903 0.1104361895443485
-0.01762327778763089 0.1114893301007226 -0.1131008853777902 -0.2966261867318325 0.09183982396109452 0.17399831134215515 0.10986238310207565 -0.03849724737578923
0.034632493316796915 0.3258860522225612 0.057216545468357916 0.1434004755123199 0.1137147098387507 0.13636790619609374 -0.053435307930229554 -0.083846065370175
0.2786289916992803 -0.16855127401850875 -0.1582426113354039 0.003333140254571335 -0.06358835723780491 0.22180653797563255 -0.013257956467875016 0.14968370055714103
0.12154132169387816 -0.06976143923742995 0.013714295849696724 0.16878181824499577 0.047085008974857255 0.07026113210385546 0.2561318918437142 -0.028847524323404986
0.09440409622206745 -0.07144168315932851 -0.013981132677282892 0.037837526948020096 -0.20497682437856102 -0.0015604923888115634 -0.0860629025273775 -0.09621471526918735
-0.029838808231867856 -0.043824544799870496 -0.14159093005049184 0.3385256584810294 0.09118591827332138 -0.20339602015019934 0.13053367948445532 0.23203745922467875
0.22235477754751165 -0.04501998054303984 -0.0003729197987323232 -0.12870747542471028 -0.025634333217804072 -0.03538784858470488 0.351132853510602 0.09502193471888325
-0.0350312778110085 -0.04759150307137183 0.05752871847734464 0.18045897324330476 -0.05681107097900454 0.030628389620829043 0.24813174588235629 0.010551659048036083
-0.003971356817275165 -0.062169073616984864 0.28582284087128523 0.1582708903359792 0.01396565760257009 -0.041160223654879396 -0.2535680950135127 -0.0508763343006171
0.08701772976024677 0.2596241822329259 0.13236214902815055 -0.23536075202139176 -0.20382878341718652 0.07415799895879892 0.1670403331031306 0.07554835150525192
-0.08502864480848059 -0.12592614922295106 -0.13563437167021647 0.03727835381361543 0.11967240165994265 0.205364162668804 0.07699878570082647 0.09923779302413394
0.1694122333288217 -0.15436879913456833 -0.04614649495006702 0.061472743287382274 0.026757545312838846 -0.14267052028879726 0.04342015515764391 0.17077808133998296
0.006492836716155854 0.016547150505621246 -0.36363511743058113 0.060287965114841316 -0.0914227687273565 0.03579274503493323 0.05952684697700297 0.32927308198512445
-0.021112558639017183 -0.0315779899622392 -0.09762383183330067 -0.010410835386790721 -0.09043582944852788 -0.2594744935706838 0.056289049877469834 -0.10181763911847144
-0.01851857627502962 -0.17476941347604813 0.08053189784307052 0.016856414745288952 -0.12428003964828498 -0.2349363062550866 -0.11094327866740321 0.09130671441188656
-0.0457572003613007 0.10099030099539422 0.05710131949762749 -0.11016866640483793 -0.10482486083560252 -0.022621340666024094 -0.00908083993103627 -0.1049450888754105
-0.06712886908040652 0.023483195816480836 -0.3541273764441866 0.11942577411226721 0.13366824445020287 -0.08933378665854472 -0.0951278343315651 -0.16042390805935922
-0.07339844129510542 -0.11920628681793403 0.1903927585838441 0.21532426160812465 0.040545297184912635 0.16701580159206222 0.1684229347879264 0.32346401209887327
0.3116009381744078 -0.04308385718199392 0.03571135778091332 0.13787863225847077 -0.18670651900971597 0.12065577270231166 0.04032477079293874 -0.14634372886159785
0.0839110930942297 -0.10529789848475092 0.29070844060278095 0.20726086703703803 0.403122503133413 -0.1367355637005209 -0.20312566057944217 -0.2773294771861683
-0.26113175019355406 0.030225648029934046 0.11100604574776556 -0.18983411938650174 0.035909808259000774 0.2654419303770651 -0.06660265762207643 0.14079791255342555
0.06929793440681231 0.03777204976594329 0.10173583830583169 0.1775820817258996 -0.05422956910402061 -0.193717466418703 -0.12310393634411289 -0.039651909095745355
0.011306908809298995 0.0049215391637234705 0.02121095990778969 -0.06040570213322185 -0.07559037277519293 0.19373809001965817 -0.04617141474922174 0.009346756555546861
0.200831166475397 -0.24247840976244 0.20452020591991762 0.16461207711329767 -0.16191083460673422 -0.13712709967010747 -0.5160552452832011 -0.2620212205587591
0.1502597031695101 -0.06287042333245173 0.1550789158305174 -0.042514571711213096 0.4061436719529367 0.051277727384986524 0.10858716976831574 -0.16686485834385267
0.06494658162903177 0.0023139387338055963 0.0704728037686379 0.21933551502184406 0.030703480962818094 0.07766205583632513 0.26109871651603467 -0.0009392245779511549
-0.18185460444943383 0.1815513353716826 -0.016039353668033395 -0.094327048081539 0.12836068902609943 -0.225242086199857 0.017785522500870846 0.13312696509886657
-0.29953261016687655 -0.201707182313708 -0.257245251303463 0.2890763485645669 -0.2897683543390923 -0.18420944001767936 0.31402656961110986 0.06412749361407966
-0.1649655319968484 0.15239199321719488 0.05308400086131701 -0.05816868578840235 0.5292569161696262 0.2458661309328865 0.21708590454497417 -0.5596748164053019
-0.19832262527199226 0.12845919263331235 -0.014156089096962888 -0.003524968669019267 0.15939152544590196 0.01682202338857116 0.2407648524645013 0.06822731788054341

base.actor.actor_fc2.bias f8 [64]
00000000: da12 34ee 68ef acbf 596f 9b17 1c11 993f
00000010: e6a0 4e98 7253 b23f 5c4d c549 7cde b93f
00000020: e2b9 2df2 c24c 853f 01ce 4e89 ea1c 933f
00000030: 4878 c166 9217 a73f 3921 2fc1 583e 553f
00000040: e237 5aa5 468a b33f cef9 f28b e767 92bf
00000050: 3fda 79ff 47f7 9bbf 2cf8 8488 bf74 b3bf
00000060: 2510 161a 7dc7 593f dd9f d0e4 7e02 c03f
00000070: 54e6 78fd f650 a6bf 0e84 2af2 22a8 a9bf
00000080: e0df 2502 1fcb 71bf 126f 9497 5a5d a23f
00000090: 7b61 4b74 4ce4 afbf 8133 4c38 2004 b8bf
000000a0: 706d e5fa 02f6 9abf c1c0 757a 5cc7 b4bf
000000b0: 6ad5 ebe0 fd24 af3f fe52 70ec 1991 b3bf
000000c0: 3759 9085 530a 9e3f dbdc d0e8 77a8 bb3f
000000d0: cf21 43e2 791d b33f f604 7933 431e c3bf
000000e0: 7b45 dd83 db58 8a3f 7263 086c 8379 bb3f
000000f0: cbe5 48be b4dd 85bf f877 d75d 2d2a 92bf
00000100: f7f0 c0cb 8ccb a6bf c861 1a4a 52a5 b2bf
00000110: 9ce6 9241 3555 b9bf c504 c35e 6c8d a7bf
00000120: 9d1a 3272 4f44 babf 2c45 e6c8 f968 b13f
00000130: 601b a4d7 708f b4bf faf3 e291 b493 babf
00000140: 3315 61b4 3589 aebf 918d a399 30b2 a13f
00000150: 25ea 197c e6c4 b7bf bd6d 924a 5920 b13f
00000160: 17eb 5152 05aa a7bf 4a05 d14f 7645 993f
00000170: a76a 0f11 baef 8b3f 19f3 c6c9 bb02 6a3f
00000180: fbc7 4fd1 801f c0bf 21ce f8e7 993a bb3f
00000190: 5fb1 d8c8 8f72 9ebf 9d49 47f5 a3d5 a83f
000001a0: 4d47 3319 881c b33f 5b10 a25e 37c5 9f3f
000001b0: 8f79 0a67 8992 b8bf 35e4 6824 23a7 79bf
000001c0: d871 b65f 8bb3 a93f e8f1 d75b aecc b33f
000001d0: 2b6c ff41 622f a9bf 034a d18d 002c b13f
000001e0: 7928 e191 e502 9f3f 5cb2 ce60 1543 b8bf
000001f0: 16e4 9e40 8930 abbf cbce 4066 9734 abbf
-0.056514052465024014 0.02447933096014707 0.07158580988346194 0.10105110932390943 0.01040031720705498 0.01866499388752452 0.04510171417563008 0.0012966028923405272
0.07632867371486854 -0.01797448913270632 -0.027310490577713727 -0.07600018580430462 0.0015734407137140219 0.1250761620769926 -0.04358646244186262 -0.05011090475205303
-0.004344102026486468 0.03586848354663465 -0.06228865546808301 -0.09381295561270343 -0.026329084933747138 -0.08116701116319104 0.0608290993749659 -0.07643281958037204
0.02933626654347529 0.10803937372189713 0.07466851972561205 -0.14936103833500852 0.012864794694595663 0.10732289683836685 -0.010676776940374296 -0.017739018299714332
-0.04452171313502789 -0.07283510502964596 -0.09895642138408295 -0.04600084931144858 -0.10260483301144992 0.06800805239460733 -0.08031373276399512 -0.10381630479510298
-0.05964057757277388 0.03456260562395664 -0.09284821061911737 0.06689985342602874 -0.04621903066523297 0.024679039594280007 0.013640836377750999 0.0031751315820812806
-0.12596140117926766 0.10636293328644132 -0.029733893045134404 0.04850494736787712 0.07465410819284309 0.031025757933562974 -0.09598597303054233 -0.006262910150831626
0.05019794028632746 0.07734193556093027 -0.04918963485371138 0.06707766973821809 0.030284487751750497 -0.09477361310445914 -0.053104676378502955 -0.05313561557013954

base.actor.actor_fc3.weight f8 [8, 64]
00000000: 540f a8f7 2bd5 69bf 16b7 53b2 c707 73bf
00000010: 4413 9d48 8e37 743f b0fc a5f0 5239 c23f
00000020: f7a6 4031 dc03 8c3f e87c 7b6a d273 b23f
00000030: a203 470b 2b36 9e3f 03f3 2708 1ce3 983f
00000040: c529 05d1 4389 983f cd66 4df4 8b8b 91bf
00000050: 7bf2 557e 9371 8ebf 75ae c1dc b14b 833f
00000060: 0072 8190 4795 993f 60ce bf23 1ca4 a5bf
00000070: ab99 612d 5c6e b73f 134b f87a ced2 a03f
00000080: 2f1d dc73 fde0 afbf 3f88 b644 2fc6 7dbf
00000090: d137 907e 4a61 b0bf 6571 529c e138 8c3f
000000a0: 35ef f014 0e3c a7bf b2dc 3d88 ac54 a13f
000000b0: abdc 8b6a c31e 783f 4e1b 5883 37f8 31bf
000000c0: 2c90 d3c6 b27d 9abf ca30 553b 3cba 963f
000000d0: b66e de0d 6341 983f d3a7 9a26 0473 9cbf
000000e0: e923 f152 bcb2 68bf 0d92 05ef c515 bbbf
000000f0: 3c28 9d5a df69 a13f 1781 9f08 7d80 89bf
00000100: 6112 df1c ab6d adbf 66a0 1a89 7a41 8dbf
00000110: 2009 3a66 0b76 8dbf f4d8 3de7 75c7 b3bf
00000120: 5520 72e0 4977 b4bf acd6 1450 59c2 85bf
00000130: ce10 7645 235c b03f 4d30 ac5d 3309 b8bf
00000140: 3cf6 ab84 4b1c c3bf 4aee fadc 827c c1bf
00000150: b828 5146 0d61 b3bf 1898 8f23 b981 92bf
00000160: 61a2 bd64 1ca2 91bf 92f5 6891 a9e0 aa3f
00000170: 74d8 ec45 7a79 a3bf ef11 7cd5 1e65 adbf
00000180: 7a4d 0bf9 805c a4bf 6123 b1a9 24ae 94bf
00000190: d96d b1d4 9a46 a0bf 14fa b87b 30b7 ad3f
000001a0: 12fb f41b d06f b13f 15f7 6751 8ee0 86bf
000001b0: 90ec c72f e809 a4bf 6b6d eff0 2fb9 9e3f
000001c0: 9393 2195 3542 a2bf b63c 46fa 0a2d 44bf
000001d0: cbcc 1df0 04c6 95bf 5efd 5fdd 380d 9a3f
000001e0: c377 c78a fbfa b03f f840 2878 c504 a83f
000001f0: 677d aa0d 08fc b6bf 911c 6bcd 20db b43f
00000200: 41d5 037d bd81 aebf fa57 8180 f85a a03f
00000210: 52f5 b8ce b6ce 7b3f ea14 2426 27f3 b5bf
00000220: 3be8 4e34 1e51 813f ba15 141a c690 c03f
00000230: 948f a97d e152 af3f e9ef 84c2 5cc7 a2bf
00000240: 1731 706a 316c 40bf 7fcf 1376 4233 bebf
00000250: 83fc aa9e c672 9c3f 50f3 a6cf 7bb6 913f
00000260: 0bf8 7e14 6df5 a33f b67b fd4d a5e9 6dbf
00000270: df12 7850 16f4 92bf d767 220a ba9f 9ebf
00000280: b6ff e161 cc5f a5bf 1aae 8812 b8ca aebf
00000290: 9dae 9a66 fabc a13f 3852 d01a 54b5 8ebf
000002a0: d460 1038 10a5 b63f 8a5c 2e54 c124 b4bf
000002b0: d98f 0b8c 4030 b23f 2be3 3fe3 2ca1 8dbf
000002c0: f910 3e1f 08b9 7bbf 1f5c 0707 2241 a7bf
000002d0: 0bdd df1a b0e1 9c3f b2c5 19ff 2231 a4bf
000002e0: 5620 35d4 98cf a63f 0df7 2ec8 991f 903f
000002f0: b92b 86d6 da0b 653f c305 e0e3 08ea b43f
00000300: 9132 fd37 7dba 93bf f2a4 96cb c28c b23f
00000310: 6f7f 285f 981f b0bf 91f0 718e ca3c 9b3f
00000320: 73c3 9cb6 2cd0 943f d625 47eb 120b bbbf
00000330: 6c24 982b 761b ab3f acf5 5da8 b1a9 b73f
00000340: f3af 0ed4 f2c0 8ebf 883e 63fd b3d6 68bf
00000350: 718d 5722 5c23 9bbf 8d25 f57a 6cab bbbf
00000360: 17a7 a569 66e7 523f 77b9 6143 d687 b33f
00000370: c09c e68f f513 bfbf 4bc1 aa3b 3afa 9e3f
00000380: 20fa c77e 7682 b0bf 7db0 9cf6 b612 abbf
00000390: 5870 8139 5c9d b73f 08b7 4d5a 42e3 a93f
000003a0: d5d7 f0de fa13 b83f 2be6 ef9e 8de2 b2bf
000003b0: 1370 dee8 b9e9 b3bf ed01 b083 6316 a9bf
000003c0: 4851 0108 53af 94bf 6a94 5ce9 e4d3 a8bf
000003d0: 1c4d 99de 9657 903f 7877 479e dc14 b53f
000003e0: 2021 64d7 646b b2bf 5253 e0c3 fb58 a73f
000003f0: 13d5 eb24 53da 70bf 063c f991 e6ab babf
00000400: ea48 7791 3bbe 55bf 89d2 59bf 3758 a3bf
00000410: 652d fef2 a653 bbbf 206b 420b 05be acbf
00000420: 5af3 e558 ecf2 a7bf 36a9 4373 dd87 6d3f
00000430: 7724 c4e6 ba7c adbf 3fb9 f9b0 d6b5 ac3f
00000440: cf08 5954 5bb8 70bf f149 9d0a 69c5 4c3f
00000450: 000e 452a 5cd2 b93f 0eea 9d27 12af b23f
00000460: 8d97 8c44 6fff a73f 146a a303 9d43 9ebf
00000470: 9a6e 773a 12dc 6fbf 7e00 3a29 b423 a03f
00000480: 2520 090e 2b66 abbf e59a cb7e 77a4 a93f
00000490: 1c4e ab6b 4c19 adbf aba9 a7f0 f0d7 ac3f
000004a0: 7c28 1c54 248e a2bf f8cf aa4a 69df 8b3f
000004b0: f5be 9d97 379c 9cbf 59bc bf10 b1e0 a3bf
000004c0: 5a77 78b5 7936 ab3f 8411 1acb ed13 80bf
000004d0: 4b47 d1c0 ae97 40bf e194 c141 5062 ab3f
000004e0: 2e2e d415 c07f 64bf ff27 6076 6477 9a3f
000004f0: 7526 1e71 fb8f a33f e4e8 179a 285f b03f
00000500: fe02 c013 3354 69bf 9a74 58e8 0ca1 a33f
00000510: 9f20 1ee9 397a a23f 2d56 2340 2705 a53f
00000520: c762 38fe 3e00 743f 1855 1cd7 6a8d 91bf
00000530: 3edc 22d5 c8b9 b53f 6b80 d956 7679 8fbf
00000540: 5aa8 ebcc 8c36 8bbf 76a8 b8fc c1b7 b8bf
00000550: de1a 0083 eb2c a3bf 0c3f ab82 140c 81bf
00000560: d531 57b9 6947 973f 88eb 1853 ab68 a83f
00000570: 364f 7455 84a4 9b3f 62ab cd53 8bfe b23f
00000580: 7fc2 aee8 8ef7 993f 7689 fe5c 5eb9 7dbf
00000590: a766 37c1 7dec 9ebf b2f5 6996 2d94 ad3f
000005a0: c106 d56b 855c 64bf f7e8 5f1f 76b4 a83f
000005b0: bde3 29b1 4af8 9dbf dabe 0fef 39a5 b13f
000005c0: b48a 5f4b 79a1 343f 8130 ad69 b0d4 b63f
000005d0: d040 7540 e6e8 9f3f 1ff4 1a06 6c4f 55bf
000005e0: 4fff cb8e 86b2 a9bf 1972 e78c 0660 793f
000005f0: f459 5cfe 6912 a83f 833f 69d3 279b 95bf
00000600: 8884 6346 4fa5 93bf ead2 6a2d b376 a6bf
00000610: 0dc4 108b da5f 923f 9071 af4b f2a6 89bf
00000620: f2d9 786d 621d aebf 1144 7a77 05a5 8ebf
00000630: 3d01 fc15 a349 b33f c7fc 5881 ff79 a3bf
00000640: 8845 70db c7f6 9f3f 4608 1f83 9a80 adbf
00000650: b562 04e0 08a5 a03f 3111 ff69 eca1 abbf
00000660: 2571 8706 37ee a73f 47c5 9084 ddba 95bf
00000670: fb50 3ce4 debf c4bf f703 ef41 fe30 a83f
00000680: 6fc2 2690 1f31 94bf a666 9e0d 4122 933f
00000690: 35aa b79a 7d2f 98bf e454 a4cc d5d5 b73f
000006a0: cb81 37c8 b85f 953f 7e9e 534f 6979 a1bf
000006b0: 866d 790d 73b7 acbf 2d30 0c88 54a4 bd3f
000006c0: e8f9 dd21 ff3d 91bf 0b65 c10e e372 b4bf
000006d0: 0280 e44c ad0c aabf ecff 89b5 43ae ae3f
000006e0: 9927 7a83 93d7 84bf c607 ffb7 ad09 b2bf
000006f0: b282 9bd2 6943 7d3f 63e1 f000 e168 a4bf
00000700: 0c1d aa26 4137 ab3f ee66 1a97 3ba2 b6bf
00000710: 0591 4f05 8ca0 a63f 964a 5ce2 d211 ba3f
00000720: 2b70 810e 650a abbf b31f 1f6f 634f a23f
00000730: 8362 443e 576e afbf 3141 fcc6 e78a 98bf
00000740: b839 f78d d525 72bf 1b61 ee4a 338d 853f
00000750: 7b23 3a44 0dc8 93bf f355 1f6e 12d7 b63f
00000760: 59f0 0ba9 7196 b7bf 1ec6 e2bf 2434 9c3f
00000770: f1f8 92c7 c41a 9ebf f75e 52f8 b39f a6bf
00000780: e966 ee5a 4041 6dbf 270d bb22 6fb6 a23f
00000790: b85d 70f2 94f6 af3f a8fb 230f d768 a6bf
000007a0: a732 543b 0fae c13f 2849 ff77 2f8d 96bf
000007b0: ad23 b006 60f8 703f 9325 96f1 4e7b a1bf
000007c0: 5d27 a994 9c48 aebf b148 6ee7 d0cd b4bf
000007d0: 5fdb 6bad f51b b4bf c5b0 0ee8 ac98 abbf
000007e0: 426f c8be cb52 a43f bbe0 d293 8a44 c13f
000007f0: dfc9 51bf 1830 953f 5700 bb09 29e1 97bf
-0.003153406022876762 -0.004646091522983805 0.004935794635291316 0.14237438917550582 0.013679237607067558 0.07207980250995016 0.029503510058706113 0.024303853986555
0.02396112406976571 -0.01713389090159616 -0.014865066807709262 0.009421720075088328 0.024983518786358516 -0.04226768432991146 0.09152771099034022 0.03285832644555433
-0.062263412850422355 -0.007269081728198456 -0.06398454275060252 0.013780367453642037 -0.045380058342259146 0.033849136000691074 0.005888713211553635 -0.0002741942911090215
-0.025870126138116387 0.02219480621469997 0.023686931344498695 -0.02778250203724737 -0.003014915294930355 -0.10580098233692344 0.034010867892519475 -0.012452103448538794
-0.057477328562104864 -0.014285046872217499 -0.014385308320247037 -0.07726227660700485 -0.07994519929536754 -0.010624597317114258 0.06390591092901163 -0.09389039074830059
-0.14930099466430302 -0.1366122797970653 -0.07569964377140337 -0.01807297973200414 -0.017219966553428615 0.05249528789543513 -0.03803617576197463 -0.05741211277021196
-0.03976824798669561 -0.020195553643392986 -0.03178867193556884 0.058038249113895685 0.06811237986128685 -0.011170493945424501 -0.03913808425201026 0.030003308372994846
-0.03566138692330081 -0.0006157210923890741 -0.021263196139852874 0.025441063415198577 0.06632969034350737 0.0469114026237793 -0.08978319486276619 0.08146862998101968
-0.05958358908712081 0.03194405144374453 0.006788934795222206 -0.08574146920371431 0.008455501529045608 0.1294181468330587 0.06117920550312231 -0.03667726397040367
-0.0005011788642846096 -0.1179696596407762 0.027781585153885856 0.017297682332116537 0.038981827499341724 -0.0036514500242641147 -0.01850924364227324 -0.029906184071115973
-0.041746508549294445 -0.060140373480262535 0.03464491369717602 -0.01499429423169217 0.08845616692304087 -0.07868583970263124 0.07104876917907123 -0.014467573819261744
-0.006768256880494977 -0.045418799741746556 0.02820468105343558 -0.03943738330861936 0.04455258932517896 0.01574554714510783 0.0025691293887510594 0.0816960865340866
-0.019266087095547283 0.0724603411714673 -0.06298210452268703 0.026599087661893398 0.020325373311780703 -0.10563772434320326 0.05294389040143063 0.09243307457469169
-0.015016457649686265 -0.003032065908975149 -0.026502074810094315 -0.10808446885962138 0.0011538028835169128 0.07629145760595245 -0.12139830363468018 0.03025141705683269
-0.06449070544474766 -0.05287715683366032 0.09224487689920247 0.05056197502459098 0.09405487006082976 -0.07376942758846698 -0.07778512892986127 -0.048998937440049996
-0.020200059283824318 -0.04849162434246852 0.015959126793245834 0.08234957565534085 -0.07195120104382058 0.04560076490466848 -0.0041144607373457985 -0.1041854959851066
-0.0013270932885132655 -0.03778242312265429 -0.10674518043940891 -0.056137235283321596 -0.04677523217376374 0.0036048245620935683 -0.05759224001855839 0.05607481870980501
-0.004082066303057809 0.0008780253312841696 0.10086608917213624 0.07298387019356076 0.046870686643429506 -0.029554799410883417 -0.003889117815317378 0.03152239802602795
-0.0535138563760145 0.050082906940408546 -0.0568336373741227 0.056335000397513234 -0.03624070669873533 0.013609716979182437 -0.02793967116252723 -0.03882363633589909
0.053149989511651355 -0.007850511322666127 -0.0005063632285191381 0.053484447504880135 -0.0025023223557860885 0.025846070981096144 0.03820787196953016 0.06395200502439341
-0.0030919072723921684 0.03833809219597946 0.03608876200365895 0.0410549417298792 0.004883047167390137 -0.01714102685862881 0.08486609653014995 -0.015368389630737242
-0.013287639621428027 -0.09655392093614687 -0.03745208715559099 -0.008323822248172096 0.022733356416027767 0.04767356290218233 0.026994769778936965 0.07419653697949749
0.025358422233412 -0.0072568594040681635 -0.030199017446512013 0.057771134005615635 -0.002485523784941574 0.04825181134215655 -0.02926747042008392 0.06892740332090899
0.00031480037011825533 0.08918287830346296 0.03116187828465017 -0.0013006739540479884 -0.05019016736150538 0.006195092761541087 0.0470154879569015 -0.021099684027205533
-0.019185293837726408 -0.04387435845766226 0.017943777788051608 -0.012525456366284243 -0.058817935813227154 -0.014963190754572893 0.07534236227730147 -0.03804014638853342
0.031214831131426674 -0.05762179232216673 0.03250911459526177 -0.05396975320721465 0.04673931078625263 -0.021220647064358358 -0.16210542816464354 0.04724878840307405
-0.019718640492728697 0.018685356575224653 -0.023618662422373943 0.09310661550655969 0.020872962208047057 -0.03412942021696795 -0.0560871080349115 0.11578872987246376
-0.01683806080063191 -0.07987803564300948 -0.050877967487622314 0.05992328253796572 -0.010176804017891604 -0.0704601835450652 0.007144368524422505 -0.03986266266332696
0.05315593335131483 -0.08841297568360648 0.044193626068393534 0.10183446909312929 -0.05281368066854982 0.03576193553413933 -0.061388708449332995 -0.023967381973364957
-0.004430612752413791 0.01052322456762105 -0.01931782463956065 0.08921923817191395 -0.09213934304347172 0.027542661868841127 -0.029398989373242427 -0.044187187254633935
-0.0035711533486847313 0.036548111905654594 0.06242814502200694 -0.04376861629315637 0.13812437436026423 -0.022022954653786148 0.004143118955661257 -0.0341438932328614
-0.059147732874932336 -0.08126550340810713 -0.07855163082045412 -0.053899195983235816 0.03969418243306545 0.13490421503025182 0.020691286732878452 -0.0233198558987627

base.actor.actor_fc3.bias f8 [8]
00000000: 6f7e 99de 36c6 a33f 5681 6c5f 920a 4a3f
00000010: a40c 7a8a 909c b2bf 09c3 adc5 5fc9 b3bf
00000020: c817 3ded 0143 a4bf bd1b 2ac3 2e2e 973f
00000030: bf2e 5b86 1efe 973f e82c 7e12 11f1 3b3f
0.03862163035659882 0.000794717284268424 -0.07270148640422974 -0.07729147506848845 -0.03957372685412924 0.022637110387701876 0.02343032546086365 0.000426355999018481
