results/Ant-3d/cmorl-ipo/0/final/EP_policy_30.pt (torch, 105481 bytes, 13 tensors)

base.actor.actor_logstd f8 [1, 8]
000000 b7 57 45 fd e7 3c f7 bf 29 55 d9 84 2a 05 f9 bf
       -1.4523696797746035 -1.5637612523472149
000010 95 66 11 a9 99 9d f8 bf cc 30 a8 c7 b6 78 f7 bf
       -1.5384766201226843 -1.4669711875058509
000020 f2 97 e3 32 6b d8 f7 bf 0f af 5c 22 e0 bf f8 bf
       -1.4903366077282922 -1.5468446104304723
000030 39 c4 a1 5d e7 4d f7 bf 83 37 a6 8c 1e 6d f8 bf
       -1.4565194756981 -1.5266404623139074

base.actor.actor_fc1.weight f8 [64, 27]
000000 45 37 cc ee 49 45 c0 3f ad 75 7c 2d f1 a0 d3 bf
       0.12711452636761514 -0.306698126239861
000010 61 fb c0 64 4f ee b9 3f b5 1d 77 f8 eb 17 c3 bf
       0.10129257402239268 -0.1491675341805895
000020 83 62 f7 3e a9 2e d4 bf 65 5b 62 7f 35 fb c0 bf
       -0.3153479685693485 -0.13266628951961504
000030 2d 07 46 e0 7a 0f cc bf b3 b2 99 5f 88 ba 80 bf
       -0.2192224116407088 -0.008168282907001645
000040 44 4a 9a 96 b0 77 a6 3f 73 f9 3b 98 d8 33 bb 3f
       0.04388191069042027 0.10625985829026323
000050 3f 23 9e b8 14 45 a2 bf 51 cd b0 b9 68 4c c8 bf
       -0.03568329576143591 -0.18983182017255243
000060 42 59 2b 4d 91 fa a6 bf 4f 7a 60 97 5e 3e b5 bf
       -0.044880428953251186 -0.0829829330036571
000070 b5 9a 24 f1 de 82 a2 bf d6 ff 94 17 a0 24 c8 bf
       -0.03615471547737085 -0.188617717280066
000080 c5 89 ce 03 73 24 a4 bf 95 e3 15 74 fa e5 b8 bf
       -0.03934058591336823 -0.09725919088476893
000090 8e 7f 0c c9 d5 41 d0 3f e8 e7 42 2f 71 a5 ae 3f
       0.25401825555490454 0.05985597326203146
0000a0 9b 44 08 0a a1 02 dc 3f c8 93 63 6b 80 87 b4 3f
       0.43766046504703987 0.08019259092141262
0000b0 5d f5 1a 9a 5c 59 90 bf 94 90 31 a6 d1 b0 a4 bf
       -0.01596588793357988 -0.040411521470361894
0000c0 99 84 e4 4f 13 f9 cb bf 49 a2 ce 73 08 14 a5 3f
       -0.2185386791325399 0.04116846479093234
0000d0 d6 0f cc a4 55 6e d6 3f af 3d 18 6c 43 b8 c5 3f
       0.3504842862459986 0.16968577173291297
0000e0 6e 56 51 0c 22 54 c7 3f 51 16 f1 ec b7 b8 c9 bf
       0.18225503541423244 -0.2009496600095866
0000f0 f8 b9 0a 6d a4 a1 b3 bf a5 83 ae 03 91 98 b6 3f
       -0.07668521558910146 0.08826547946820414
000100 b5 30 43 18 76 09 ba bf 41 ab 61 cd 9c 07 92 bf
       -0.10170686809869063 -0.017607164416783453
000110 44 82 95 e2 e9 bf ae bf d8 44 46 5e a7 72 bc bf
       -0.06005793467443657 -0.1111244778787922
000120 29 e4 78 5a 6c f7 c7 3f 64 c0 8e 13 a0 03 c0 bf
       0.18723825852956225 -0.1251106353279311
000130 13 2e 7c 83 58 23 c9 bf f4 19 a8 b8 e2 63 bf bf
       -0.19639116687936617 -0.12261788376063248
000140 db 97 44 01 cd d8 c7 bf 6f 2e bf ec 90 35 ce bf
       -0.18630373536978947 -0.23600970802214102
000150 92 e0 93 a8 52 21 c4 3f 07 c5 15 03 97 4b 7f 3f
       0.15726693373995154 0.007640447512458743
000160 39 f0 fb 2d 47 50 c5 bf 13 23 da 1a 98 9e d0 bf
       -0.16651239152258926 -0.2596798193194882
000170 25 3e a0 99 fe 94 b6 3f f7 be 1b 5c c6 ed b8 3f
       0.08821097612985136 0.09737815617313204
000180 9c 5a 2c 57 cf 5e ce 3f b0 d7 91 bc f3 4e d0 bf
       0.23726836925989836 -0.25481885352143774
000190 c7 3d cb 70 29 ad b4 bf 15 6a 43 04 4e c7 a5 bf
       -0.08076724056012728 -0.04253619958918279
0001a0 90 bc ce 85 25 6a d1 3f 19 65 21 74 44 40 c0 3f
       0.27210367266793245 0.12696128530914377
0001b0 79 a2 25 fc d3 17 ca bf 1d b2 c7 b5 8b 75 c6 3f
       -0.20385217487207166 0.17546221137981002
0001c0 ed 68 29 63 40 a5 b7 bf 7c 90 b3 c4 9c 2b bb 3f
       -0.0923652879804739 0.10613422205239148
0001d0 5a 66 9d b2 27 f4 b6 3f 72 a8 c1 54 d2 bc d8 3f
       0.0896630106994051 0.38652475621223126
0001e0 9d d5 f9 27 3f 20 d2 bf b5 1d e2 d9 63 72 c7 bf
       -0.28321818260095616 -0.18317840708571756
0001f0 06 1f 2c b7 73 01 bb bf 18 7d 92 d2 d5 db c4 bf
       -0.10549090597134744 -0.16295883924338095
000200 2b 4a 18 a6 af 1e ba 3f a2 a0 fa 8e 56 a6 b2 3f
       0.10203073315668891 0.07285061827372144
000210 5c 07 83 9e 29 ee b1 bf 0b 6d ca f6 04 a0 c9 bf
       -0.07004032249372244 -0.20019590425804554
000220 9a f7 b3 f5 f5 73 ab 3f 37 fb f0 8e 22 87 b2 3f
       0.05361908554367219 0.07237449636248248
000230 63 c2 f9 5a e0 52 b2 bf ad 33 32 d2 75 89 a4 bf
       -0.0715770933254674 -0.040111238392547356
000240 e6 56 31 31 76 3c b3 3f cc ec 80 53 77 24 96 3f
       0.075141322145409 0.021623482200294572
000250 64 c1 22 7e c0 82 95 3f 6d ea d2 b0 16 37 c9 3f
       0.021006591509548214 0.19699367174128515
000260 99 ff 79 c0 ba 78 c9 3f 79 ad b7 89 0b 8a ce 3f
       0.19899687193173746 0.23858780121313908
000270 cc 3c f6 e6 0c 04 d0 3f ea 25 b9 9b 4f 3a c3 bf
       0.25024721674794814 -0.15021700957940648
000280 91 da 3e a9 b2 51 ac 3f 8a 47 5f 28 81 11 97 bf
       0.055310805473188236 -0.022527711953280107
000290 d9 c6 21 22 ed 4f cf 3f fe 3a cf 8a 3d cc c2 3f
       0.24462665716742185 0.14685792234237022
0002a0 20 7c 62 69 4f 79 ca 3f 30 b0 13 64 8d 82 d1 bf
       0.2068270935605776 -0.27359328053603615
0002b0 63 27 46 45 15 06 c6 bf 44 24 cb 28 7c a2 9a 3f
       -0.1720606411220685 0.02601045607551479
0002c0 e1 6a 8f c3 1a 9e c1 3f 12 8a cd b0 aa d9 ca bf
       0.13763746785010425 -0.20976766236260908
0002d0 c2 75 55 14 80 76 c6 3f 1f 69 24 83 cd ca cd bf
       0.17549134247648907 -0.2327515497534671
0002e0 93 39 7a 8e 13 60 bf bf 97 82 9e 37 70 52 9c bf
       -0.12255975941136503 -0.02765822734329734
0002f0 48 71 9e bb 05 42 b2 bf 17 da c8 96 f4 eb ac bf
       -0.07131992178478186 -0.0564876970351415
000300 7d 33 06 24 80 dc bb 3f 7f d9 00 8d 67 ca cc 3f
       0.10883332137582431 0.22492689499786064
000310 be e7 b3 42 26 ed ab 3f 65 23 12 12 e5 ee c2 3f
       0.054543681757379656 0.1479154909359536
000320 f9 9a 71 72 ce 01 dc bf a8 d5 25 3e c4 a7 a9 3f
       -0.4376102559676123 0.05010808237686187
000330 24 91 88 33 59 3d b7 3f 8a 67 31 99 ab 88 c4 3f
       0.09077985294476726 0.1604208467495563
000340 20 e5 05 2d 0d ae af 3f 52 b0 e8 10 d5 4f 96 bf
       0.06187478231999877 -0.021788911015548536
000350 64 5e a2 ef 76 f8 ce bf 30 9a 2c 3c 31 a7 c2 bf
       -0.24195753765956163 -0.14572730482287133
000360 48 8d 83 14 df 49 ad bf 64 b7 f8 85 52 ab ae 3f
       -0.05720421910680301 0.059900835851620454
000370 01 3f 35 4a 27 e5 d5 3f 07 81 e8 b7 8d f1 af bf
       0.3421114182174137 -0.06238978261922239
000380 c4 b4 04 a8 bc c1 d4 3f cf e2 05 d2 0d 0f a6 bf
       0.3243247643284344 -0.043083602798054
000390 88 a0 72 c6 35 c4 db bf 98 9d 35 ae da 4f a1 3f
       -0.433850711628573 0.03381236435489682
0003a0 78 1d cf 0f 1b 02 c4 3f 4a 0b a9 46 fe 19 d5 3f
       0.15631426116872738 0.32971150303290087
0003b0 26 7f f6 30 84 c0 a2 bf 70 4f e9 c5 31 33 c0 bf
       -0.03662503335658433 -0.12656232989922556
0003c0 29 ab 88 8e b2 18 c6 bf 1a e4 cc 3a d3 1d ca bf
       -0.17262870750104156 -0.20403519030676948
0003d0 06 d5 ac ea 4d 4d b0 bf bf 8b 41 3f 5e ae a9 bf
       -0.06367957095502072 -0.050158448430714035
0003e0 a1 6b ba 9e 65 51 c8 3f af b0 22 23 5d a1 84 bf
       0.1899840378799498 -0.010073402056456208
0003f0 d9 41 f8 e8 53 fc ab bf fd d8 2e 9b 38 43 9f bf
       -0.054659483135882155 -0.030529865714663085
000400 2d 86 63 a7 2c ba 9b 3f 90 1f 0b e8 7b cf bd 3f
       0.027077386585807318 0.11644720473407077
000410 d0 78 ff 89 46 4a 99 bf 6b 63 ea 81 f8 d6 b0 3f
       -0.024697401211476955 0.06578019305960729
000420 49 47 90 c7 fe 4f b7 bf f2 89 56 e8 4f 58 89 3f
       -0.09106438038022903 0.012375473287481651
000430 74 4e 10 ce 08 64 d5 3f c9 1d ce 77 78 71 b9 3f
       0.33423061488540573 0.09938767361574387
000440 a6 76 b7 fc 65 a1 b8 bf 13 da 11 57 ba db d6 bf
       -0.09621274394836607 -0.35716112616447154
000450 3f df 31 00 82 32 ca bf 19 6d b5 14 ad 9e ce bf
       -0.20466637620460834 -0.2392174101940803
000460 1a ec 9f bb 29 0d d2 3f 07 42 da 12 87 a8 d0 bf
       0.28205340693210845 -0.26028611031600274
000470 03 6b f4 18 e8 34 b7 bf ba 66 c5 7f cb 96 c3 bf
       -0.09065104111907023 -0.15303939570258313
000480 ab e7 37 ca 85 84 99 3f 65 20 ca c3 b9 80 b3 3f
       0.0249195961641601 0.07618294744509198
000490 96 a7 4a ff 85 72 b4 3f 10 6a b9 d7 97 ed d2 bf
       0.07987248881059225 -0.2957515341455812
0004a0 d7 ea ce 71 c6 6b a7 bf a2 15 c5 81 3d 0e bc bf
       -0.045744134323702994 -0.10959228914460664
0004b0 71 da ad dc 43 28 bd bf c0 05 d9 b4 3f d1 b5 3f
       -0.1138956464545602 0.08522413411357999
0004c0 35 71 2c 4b 35 24 c2 bf 69 2c e2 a1 99 5c bf 3f
       -0.14172998591028266 0.12250671579583784
0004d0 24 95 13 9c 83 7b b2 3f 7c bd 0b ac 7f bb b0 bf
       0.07219717560254374 -0.06536100340212231
0004e0 81 86 fd 4a a1 16 ce bf c9 04 e8 0c 39 20 d4 3f
       -0.23506561433446296 0.31446672687895877
0004f0 e1 ba ec f5 59 87 ac 3f dd 59 c9 ef 52 30 b8 3f
       0.05572014929781744 0.09448736528552311
000500 51 24 56 77 48 e7 ce 3f 73 92 41 cf 18 e8 90 3f
       0.24143319918610698 0.016510379457388823
000510 4f 68 8d 60 af 66 d0 bf ab eb f7 60 fa 5b cb bf
       -0.25626739911024726 -0.21374444708621118
000520 96 bb 28 b0 76 17 bb 3f ae 3e 9d d8 2c c7 62 3f
       0.1058267765117605 0.002292239751945
000530 24 ef df 49 43 68 b3 3f 11 ad 75 a4 33 46 a4 bf
       0.07580967477400385 -0.03959809668125492
000540 8b 29 7b f6 c0 3a ba bf 60 a5 08 4a d2 fd aa 3f
       -0.10245901124577565 0.052717753922773225
000550 b6 0c 6c 30 59 36 cd bf a6 ce 46 ee 8d 3a c5 bf
       -0.22822108139380298 -0.16584943899726062
000560 4d 88 e8 bd 52 d4 d1 3f 15 53 d5 bd ba 82 cd bf
       0.27858418031440096 -0.23055204648212482
000570 a6 30 f6 10 94 1a cb bf ab b2 24 49 4c 77 c3 bf
       -0.21174860790450117 -0.15207818576290796
000580 35 49 45 99 0f 79 65 3f 28 de 72 d7 52 c2 d2 3f
       0.002621202913510557 0.2931105712882265
000590 e3 11 13 d1 bc a8 c9 bf bd cf a8 76 b6 3e d5 3f
       -0.20046196182933249 0.33195268237909287
0005a0 24 01 67 8e 77 32 b3 3f 7f 56 49 d4 a9 ca 93 3f
       0.07498881556148668 0.019327787000597226
0005b0 fb a1 d5 b1 eb df c8 3f 53 94 ba 3c f5 05 cf 3f
       0.19433351691556297 0.24236932244562812
0005c0 00 f0 bf 18 4a de b5 bf b0 f7 91 86 26 2b b0 3f
       -0.08542311767808997 0.06315842423825191
0005d0 73 d1 78 65 18 e1 ce bf c6 9b 1a 82 a3 b3 c3 3f
       -0.2412443633526312 0.1539196381829397
0005e0 e6 aa 75 c0 34 a1 ba bf 88 e3 2b 1f 72 1f c5 3f
       -0.10402230929109244 0.16502214929621695
0005f0 5f 6a 87 69 23 9c d0 3f d8 78 cb f9 ae d1 d1 3f
       0.25952992730677765 0.27842306512856174
000600 86 24 c7 20 2d af ba 3f 78 ee 2b 1c 94 03 d0 bf
       0.10423547792665219 -0.25021841765531105
000610 c6 50 ac 59 3c 98 86 3f 8b 44 00 81 94 1d c1 3f
       0.011032554136854233 0.1337152128112716
000620 f6 a8 dd a9 15 03 c5 3f 2a 3b 92 81 5c 52 b4 3f
       0.16415663522941032 0.07938173449859379
000630 d0 cc 22 1b f2 4c c9 bf 51 06 43 6d 30 8c c6 3f
       -0.19766069722172697 0.17615323386239592
000640 75 37 9b e8 4f c2 a5 bf 36 84 1b d6 44 44 97 3f
       -0.04249810900147014 0.022721362655719633
000650 4c ff 9c bc 84 3c ca bf ad b6 28 bf 04 6a c1 3f
       -0.20497187814361906 0.13604792913377164
000660 2b 70 c8 b4 39 ab c6 3f 21 cf f2 ac 77 64 a4 bf
       0.177100384972506 -0.039829006063341284
000670 de eb 4a e2 ea fa b6 bf 3c 2e 53 93 02 70 a9 bf
       -0.08976619744036848 -0.04968269394302324
000680 6f 51 0e c2 ed 31 b9 bf ef 94 c2 62 2d 08 8b 3f
       -0.09841810214704137 0.013199190689486133
000690 1b 23 89 c2 84 5a c9 bf 58 2f a7 04 29 c5 ba bf
       -0.19807490824521143 -0.10457092631912468
0006a0 31 a7 c4 37 0b 05 c1 3f 03 0d 1f f2 a7 88 d8 bf
       0.13296642516189075 -0.38334082264573527
0006b0 28 4c e1 a6 0e 2e d0 3f 24 0e f0 64 38 40 b5 3f
       0.2528111104667823 0.08301117386150075
0006c0 43 61 37 dc 21 93 b7 3f 62 1b bc a6 18 61 a6 bf
       0.09208881021857444 -0.04370953593575312
0006d0 3c 00 5d 56 e5 7e cc 3f b1 a6 cb fc 9e 22 88 bf
       0.22262255398709552 -0.011784784402567668
0006e0 60 70 03 06 e8 19 96 bf 2a b5 12 9f 07 fe c1 bf
       -0.021583199851065493 -0.1405648733829506
0006f0 7c ed 67 a3 c3 92 c8 3f 7c 52 a3 94 a2 07 b6 3f
       0.19197888830954557 0.08605400208336705
000700 4b 3a 12 60 7b 36 bf 3f aa 37 ac 58 f1 57 d4 bf
       0.12192507834900217 -0.31786760005422343
000710 e4 17 c2 9c 4f d6 b5 bf b8 df 61 aa ab 4d ba bf
       -0.08530137612441951 -0.10274765882229431
000720 1e 1d 25 1f be c6 d4 bf 69 e2 f9 62 a8 2a b8 bf
       -0.3246302894735481 -0.0944009057656189
000730 a0 5d 2f 24 31 00 c5 3f 5f aa bc c1 2e 17 a1 3f
       0.16406835810515208 0.03337999453500084
000740 52 1a f0 7f af d1 aa 3f bf 72 bb f7 c0 60 92 3f
       0.05238102375738109 0.017947211380362257
000750 f1 ae 8f b6 d8 0f a2 bf 22 70 6d 10 5a 71 d3 3f
       -0.035277149472532694 0.3037934456276635
000760 c2 a1 5a 8e 1c d0 c1 3f df b6 0e b1 12 40 a3 3f
       0.13916356039886862 0.03759821330400625
000770 4b 37 3f 62 c7 7d c5 bf e4 3c df 26 43 aa d0 bf
       -0.16790096566404097 -0.2603919868096922
000780 50 8f 76 fb fa bd ab 3f 31 9e 7e 8e a9 75 a8 3f
       0.054183810421163714 0.04777269234119464
000790 c0 2a 29 3a ef f6 ba bf 07 95 9a 98 44 af aa bf
       -0.10533042116109481 -0.05211843836631585
0007a0 20 15 66 e8 6f d4 6b 3f 7d 81 a2 97 91 85 ad bf
       0.0033971963595741533 -0.05765967346201515
0007b0 16 40 d6 da a1 61 b6 bf 52 2f 12 6e a3 98 b0 bf
       -0.0874272498388112 -0.06482907712250821
0007c0 96 ca 4c cd 16 f0 9a 3f 74 04 57 a0 1d 1c d1 bf
       0.026306492119327084 -0.2673410478419733
0007d0 70 e0 34 f2 58 ac b5 bf a2 65 ef 22 50 ed db bf
       -0.08466106332059709 -0.4363594380534669
0007e0 a0 af 6f 68 86 2a b2 bf 69 25 77 55 ae cf c4 3f
       -0.0709613804789897 0.1625879208861918
0007f0 bf 1a cf 17 30 f6 b7 bf ca 10 2d ca 25 8a c6 3f
       -0.09360027867578945 0.17609093067051723

base.actor.actor_fc1.bias f8 [64]
000000 ea 3c db 7f 1d d7 a8 3f f2 4c 10 6b 96 4c bb 3f
       0.04851619897601174 0.10663738359317046
000010 3d ed 2e d4 d0 38 a0 3f 96 d3 1b af f3 64 7b 3f
       0.031683469678194666 0.00668807210035007
000020 4c 4d 42 d0 e7 99 b8 3f 4b 5c 55 74 ad 83 b5 bf
       0.09609841188858076 -0.08404049005672325
000030 18 e7 8d 3e c6 46 c0 bf 8d 04 50 c0 e5 27 90 bf
       -0.1271598630372004 -0.015777196753337597
000040 a7 5c ba 20 8f cf ac 3f 2f 27 87 ca bc 3c a5 3f
       0.05627105021010808 0.04147901508583939
000050 43 92 60 f6 bb ff b9 3f 71 3c a4 3f e6 3e c5 3f
       0.10155844464367995 0.1659820376157515
000060 5c 7e 7f 4d 15 a7 bc bf 7f e6 23 55 68 8d 9d bf
       -0.11192448751489209 -0.028859739491031263
000070 41 1e 6f f5 20 d5 a8 bf 77 2a a7 dd c0 e2 c5 bf
       -0.0485010432817572 -0.1709824640550612
000080 9e aa ee 3d 8a 7f 99 bf a2 22 e1 10 9e ab 58 bf
       -0.024900589017912915 -0.0015057605374001822
000090 81 a0 61 19 68 56 b0 3f 8c 80 1c b4 d7 f4 c4 bf
       0.06381846065198894 -0.16372200293063022
0000a0 4b e8 c5 ce 8a 7f c2 3f c0 17 59 35 0d 9f bb bf
       0.14451727959004965 -0.1078956847423731
0000b0 2e 93 7e e1 07 3b c6 3f fc a8 04 f2 07 bf ac 3f
       0.17367647657842994 0.05614495114635251
0000c0 8f 69 30 4a b5 d2 78 bf 5d 32 34 23 92 c3 93 bf
       -0.006060321963582984 -0.01930073108546747
0000d0 0b ba 10 3e b4 b0 a0 3f 4d bf e0 21 7d 0a bf bf
       0.032598145080886175 -0.12125379635903961
0000e0 b6 db ea 94 89 18 b2 bf 72 bb 1d ed 65 70 91 bf
       -0.07068691144637182 -0.017030327413006537
0000f0 ca cb 91 35 91 1f b4 bf 85 b7 d9 f0 0a a4 b1 3f
       -0.07860667760705478 0.06890934353006457
000100 cf a4 19 2e 28 03 a8 bf 74 37 28 e9 6b 3c a2 bf
       -0.046899085643255504 -0.03561722966342887
000110 a2 64 d0 1d f7 c2 a3 3f dc 10 3b 59 ff 7a a8 3f
       0.0385968421835028 0.04781339611284505
000120 3d e6 64 e7 3e c8 b5 3f 6d 36 2b 9d 78 be b2 bf
       0.0850867571761222 -0.07321885907296073
000130 9e 2c 8a 96 c0 64 c9 bf 71 9e 76 0d 93 70 b2 3f
       -0.1983872160966244 0.07203024939246362
000140 bb 97 ac 55 bc 36 c5 bf 0f fc 72 b5 69 93 83 3f
       -0.16573290046033926 0.009558511590851663
000150 8f c8 f9 24 f4 8e 9c 3f 45 78 d9 2f 3e ac bf 3f
       0.02788907504732002 0.12372196834755396
000160 77 41 48 25 e4 6a b6 3f 81 e6 eb 3e f1 e5 79 3f
       0.0875685301800838 0.00632280575404709
000170 26 1b c5 2b 1f 55 b4 bf b7 ac 37 62 ad a9 a2 bf
       -0.07942385500528512 -0.03645078491157377
000180 cb 20 67 0d a1 68 b3 bf a1 3f 97 8e f8 44 9c bf
       -0.07581526353090166 -0.027606853201916363
000190 cf 1a 6e d6 f4 81 b2 3f 15 c4 aa 27 4c 57 b5 3f
       0.0722954772482851 0.08336330383714625
0001a0 f1 84 c3 d2 be 06 ba bf 60 43 07 3d 5e 76 a0 bf
       -0.10166542668914126 -0.03215307707762949
0001b0 da 4b 7c 70 2f bb 96 3f 14 25 61 1c fd 7c a5 bf
       0.022198430290767714 -0.041969213213244455
0001c0 18 60 68 ad da 66 8a bf 8e 37 14 ae ce 48 5e 3f
       -0.012891491333945779 0.0018484133109412967
0001d0 03 09 27 dc 89 c5 b9 bf cb e1 96 36 66 d0 7d bf
       -0.10067044853989064 -0.007278823156803014
0001e0 15 bd 00 c6 33 59 ab 3f 38 be 24 d3 1a 30 81 bf
       0.05341493408229262 -0.008392533844555947
0001f0 23 58 9b 03 34 02 70 3f 1c b5 48 9d 6a d2 b4 3f
       0.003908351116214378 0.0813357004160093

base.actor.actor_fc2.weight f8 [64, 64]
000000 96 78 27 fd 0a fd 7e 3f 22 65 94 8a d9 6d 9b bf
       0.0075655392888319874 -0.026786231120330524
000010 6a a3 dc 00 ae 1b a1 bf 0e d2 02 71 06 25 9c 3f
       -0.03341430435677391 0.027484989783902285
000020 7a ea 00 f0 73 47 bd 3f 01 47 b0 07 c8 2d c7 3f
       0.11437153443777417 0.18108463645381082
000030 9c 83 cc ec cf d1 90 3f b9 45 24 2a 23 a5 c6 3f
       0.01642537005239185 0.17691459233951237
000040 cc 90 56 dc 28 dd 88 3f d6 15 70 09 3f 84 bc bf
       0.01214057848375951 -0.11139291744628763
000050 f8 1f c7 ed 52 4e ca bf 47 1a 75 01 3c a6 76 3f
       -0.2055152569794243 0.005529627225149775
000060 1f ea 0f fc d8 c8 d4 3f fb 55 ff 9b a3 d1 cb bf
       0.3247587644142715 -0.21733517758427454
000070 de 64 db b3 08 5c c5 3f 10 0d 6e 8f cc b9 be 3f
       0.16687115461426222 0.12002256871896955
000080 ff 59 5a 83 2e 61 94 bf 35 a5 29 cf 7d 12 c0 3f
       -0.019901968733927685 0.12556431403508275
000090 04 d5 c5 e8 ea 68 b0 bf 65 2a 38 6c 4f d7 d2 bf
       -0.06410091574601401 -0.29439149444866636
0000a0 e5 40 ae 82 bf 82 b0 3f 3b 76 0c f8 c5 79 ca 3f
       0.0644950574917434 0.2068412266898337
0000b0 72 b8 e5 2b 4c 33 c1 3f 6d 91 c4 05 f2 fc ab bf
       0.13437797683167535 -0.05466419525535824
0000c0 d3 28 42 56 ee b4 97 3f dd c7 49 aa 20 27 d5 3f
       0.023151134505078396 0.3305131590815316
0000d0 7f 0a 0f 29 eb 7b a8 3f 2d 51 d2 3d 98 3f c3 3f
       0.04782042385297291 0.1503782560217898
0000e0 c9 ff fa 04 a2 4f b4 3f 46 37 85 db 91 a3 c1 3f
       0.0793401014479961 0.13780425280350012
0000f0 0f 7f 62 ad 82 72 ab bf 57 f1 3e 0d ef 99 b1 bf
       -0.05360802046311452 -0.06875509332070827
000100 ca de ee c3 ef de cd 3f 67 e7 ad 0f f2 ff ba bf
       0.23336598460240615 -0.10546791918559749
000110 f3 b0 d0 b3 7e f0 c5 bf 6e 24 8d fc 9e 41 a4 3f
       -0.17140182285346092 0.039563148812313695
000120 ca 01 3c 44 fe a7 b0 bf 94 91 5d 91 46 c1 c8 3f
       -0.06506337324027026 0.19339830491948062
000130 c5 90 93 b5 55 52 95 bf bd 6d 70 e9 bc bd c3 3f
       -0.020821894843621864 0.15422784231564704
000140 a1 eb b6 ae 5a 26 bb 3f 54 a9 0d 70 5e 23 a8 bf
       0.10605398908130194 -0.04714484327162674
000150 17 1e aa e7 63 a0 89 bf 20 0a ef 7a 74 ab ca 3f
       -0.012512951381054056 0.20835739138245035
000160 ed 7d 8d 3c f1 fc 97 3f 0d ad 0f 6c 9d 46 b3 3f
       0.023425835915416405 0.07529624832357147
000170 f3 9e 27 da c7 a6 ca 3f da 90 90 7e 0e de 93 3f
       0.20821474220360123 0.019401766276261202
000180 0c de ad 87 17 f5 b4 3f d8 04 47 9c 7a be b4 bf
       0.08186480581741068 -0.08103147807470934
000190 de 94 b9 6f a2 58 6c bf f8 61 1f e7 09 8a 99 3f
       -0.0034602329813418894 0.024940638286212263
0001a0 1d f1 e8 69 6e 9e c4 bf 93 57 8d 2b e2 91 aa bf
       -0.1610849396837545 -0.05189425260202465
0001b0 77 ba 87 78 8e 0b b5 bf 6c f0 69 de 10 0a c0 bf
       -0.08220758860236708 -0.12530718669939078
0001c0 9a 11 f4 06 b2 15 a9 bf 5e 68 c7 87 5f 68 90 bf
       -0.04899364790802281 -0.016023152029312697
0001d0 cd 61 9d c7 9a c6 c0 bf 39 70 e2 22 02 46 d5 3f
       -0.13106093165221325 0.33239797026340373
0001e0 e3 c1 74 8b ea 7b c0 3f 25 42 ff b9 09 b0 ca bf
       0.12878162202242924 -0.2084972532452564
0001f0 28 92 44 8e 42 b9 c3 3f 46 cc 30 c4 82 8c d2 3f
       0.15409118601486793 0.2898260990070337
000200 9e 60 e3 29 01 28 c9 3f 31 a6 df bc 7c 0b a5 bf
       0.19653334183999943 -0.0411032658156042
000210 c8 bd e2 62 e7 f6 52 3f df 9a 10 d6 6b b1 c0 bf
       0.0011574992782178318 -0.13041446640382667
000220 b4 bc 99 d8 60 0c b3 bf 08 96 c4 82 63 a8 a0 bf
       -0.07440762794589056 -0.03253470393455521
000230 a5 37 c3 71 3c d3 d4 3f 49 12 27 e2 69 92 b8 3f
       0.32539282903314365 0.09598409434608714
000240 27 90 69 88 b1 3d b6 bf 62 1a 9c dc 97 d7 b1 bf
       -0.08687886791591436 -0.06969594131451509
000250 8c 14 ef ed cb 2e ad 3f 56 c1 bf 65 a6 a7 c4 3f
       0.05699765471903459 0.16136627166953116
000260 10 4a db cb 0c cb b2 bf f1 f4 27 f0 5e 44 a0 3f
       -0.07341079689948793 0.03177162820427693
000270 f2 76 29 ee 52 80 cc 3f 72 6a e8 46 9e fa 65 bf
       0.22266613606455327 -0.002682980665907047
000280 0e c4 38 89 32 87 80 bf 5d 74 6e 28 25 41 a7 bf
       -0.008070368588137835 -0.04541889303730138
000290 6d 2c 2f 60 2d 45 d0 3f 93 3c ae 98 03 cd c9 3f
       0.25422224419589307 0.20156903224094389
0002a0 2c bd a0 25 04 4f 9d 3f 88 da ac 2a f4 30 aa bf
       0.02862173537886041 -0.05115473767221085
0002b0 c5 5d f0 0b a5 f6 c9 bf db ed fd 48 78 2d a2 bf
       -0.20283949931102377 -0.03550315752996954
0002c0 54 5e 29 46 14 b7 aa 3f 4a dd 16 50 3f 6a d3 3f
       0.052178033413551234 0.3033598215219696
0002d0 d6 16 85 59 c7 3b c5 3f 3c 3a 83 2f a4 b9 ca bf
       0.16588680144393803 -0.20879032440139322
0002e0 0a 6d cf 9c ca ae cc bf be da 02 46 61 fa b4 3f
       -0.22408421189070565 0.08194549521690939
0002f0 e6 04 52 b6 1f d8 c5 3f 9e e4 21 3f c6 f7 b2 3f
       0.1706580772625223 0.07409323731725911
000300 37 26 5b 1b cc e8 bb bf 62 47 d6 41 c9 b1 b2 bf
       -0.10902095477936134 -0.07302530152653966
000310 13 8d 11 0d a2 02 bf bf e4 4c 38 7b 85 69 91 3f
       -0.12113392657333959 0.017004094739672918
000320 db c4 44 02 80 a6 c0 3f c6 03 00 47 1b e7 c6 3f
       0.1300811778142251 0.17892781225967108
000330 7a b4 4a 63 04 dc b6 3f ff 63 ee f9 fe fa b2 3f
       0.08929469513050661 0.07414239503704322
000340 01 3a b6 f9 fc dd c4 3f 6a d8 f7 9b 10 bc c7 bf
       0.16302454178772055 -0.18542678466446044
000350 77 2c c4 a1 87 91 b0 bf a9 dc 5e bb f0 1d b2 3f
       -0.06472060870525974 0.0707693536231654
000360 55 f8 ed 07 7d ce a1 bf 83 0f 09 5e 94 6f c3 bf
       -0.03477850648685946 -0.15184263793537064
000370 40 c2 5e f0 da 34 94 3f da 1c 2a 53 3f fb c0 3f
       0.019732876702337032 0.1326674610211061
000380 3c c7 a8 6d d6 a3 7d 3f 52 29 47 98 ac 21 8b 3f
       0.007236325846450783 0.013247822186617828
000390 8b 40 93 a2 48 0a d9 bf f3 a0 5e 28 62 4e a8 3f
       -0.3912526691101525 0.04747301810067652
0003a0 13 70 d0 4f 59 3e ad bf e8 78 a7 fa e6 e2 b4 3f
       -0.05711630915922696 0.08158725375639941
0003b0 5b 52 58 77 c3 a7 ac 3f 9e 24 ed 46 be 4a d4 3f
       0.05596743423317171 0.31706196714783086
0003c0 ba 7d 8a 80 ed 8f a1 bf d3 4a 4d da bd ae 90 bf
       -0.0343012065325143 -0.016291586350528697
0003d0 78 3c dd f2 3e ca b2 bf ab 1b 4b 14 40 bc a0 bf
       -0.07339852742483 -0.03268623588296945
0003e0 b6 c1 97 1f 45 50 b8 bf 86 45 23 ee 83 cb cf bf
       -0.09497482320126135 -0.24839829566785115
0003f0 12 cc c1 96 f0 e6 b0 3f 2c 2c 21 d8 59 39 ad bf
       0.06602386169997512 -0.0570781780557684
000400 d4 e2 80 57 e6 d7 96 bf 62 ea 93 85 af d9 cc bf
       -0.022307967272555754 -0.22539323828080443
000410 85 81 7e f2 8e fd c1 3f fb d5 d9 41 17 49 af bf
       0.1405504879048857 -0.06110451392025237
000420 db dc c1 d2 68 6f c1 bf 69 e1 80 34 7d ef c9 bf
       -0.13621244707949284 -0.20262112678188807
000430 6d a0 74 b5 6a 06 c1 bf bf 35 13 6e 28 59 ad 3f
       -0.13300832615027805 0.05732084602059783
000440 5c 59 cf 8b 95 1f a2 bf 96 dd c1 11 99 f2 b4 3f
       -0.035397218052525686 0.08182675059821629
000450 5b fd c7 03 d1 62 c2 3f 79 2d d1 3a 46 69 bb bf
       0.14364063915852907 -0.10707510887112005
000460 9c 8c 04 0f 0f d1 c6 bf 15 cf 3c d2 ae b3 b0 bf
       -0.17825496896066262 -0.06524174340011897
000470 cf 7c 4c f7 dc 21 9c 3f 93 8c 81 4e 8a ac a8 bf
       0.02747292765991177 -0.04819137771917172
000480 da 82 67 94 f8 c9 bc bf 07 28 96 9e 13 84 c0 3f
       -0.11245683310654489 0.12903065913661768
000490 a6 d6 ff 2e 63 ee d3 bf c0 4e f8 e9 f5 95 bb 3f
       -0.3114250143984044 0.1077569671836569
0004a0 a8 20 44 96 d8 2c b6 3f 98 24 da eb cf 7b b2 bf
       0.08662179630857969 -0.07220172412975712
0004b0 1a 15 3c cc c9 c4 b2 bf 36 ed 7c e7 ad 6a c1 bf
       -0.07331525074194581 -0.13606809428333982
0004c0 c5 3a 76 a9 aa 68 b0 bf 7a 50 58 9e 5a d4 bf bf
       -0.06409708630801976 -0.12433401456684293
0004d0 1e 71 4d 70 5f 6a c5 3f 6a 1c da 2b db 68 cf 3f
       0.16730874045868743 0.24538745537958856
0004e0 71 43 a1 de e7 bd a6 3f 36 89 0a fa 39 03 c1 3f
       0.04441761582041338 0.13291096409836606
0004f0 01 a5 13 7a 70 15 c1 3f 3e 32 10 5e bb 6c d6 3f
       0.13346677742746496 0.35038646875253565
000500 b6 e2 5f 4e f8 bc d0 3f 14 15 92 4a e8 72 a1 bf
       0.26153381017460775 -0.034079798796520816
000510 e8 f9 d7 6f 33 13 a1 bf c1 39 8f bc 59 0b b7 3f
       -0.03334961643485085 0.09001694539549644
000520 c1 ac 71 34 ba f9 c0 bf ac 13 95 cb 5e 4d b7 3f
       -0.13262107430214168 0.09102432699462665
000530 f8 9a f2 92 a7 b8 a1 3f 73 9a 5a 70 51 a0 ca bf
       0.03461192768854987 -0.20801752077132427
000540 3c 68 07 c0 e9 fc b5 3f 11 b3 d2 65 05 77 b5 bf
       0.08589039743620303 -0.08384736762918645
000550 04 16 de d5 ca 5a d4 3f 5e f5 c7 c1 30 7c c4 3f
       0.31804152379513106 0.16003999196974922
000560 ca 18 19 77 28 20 da 3f a3 4f 9e f8 cf 6c b1 bf
       0.4082127726618522 -0.06806659526620122
000570 e0 e6 a8 fd 83 68 cf bf 99 e8 a6 e7 de 00 cb bf
       -0.24537706266146753 -0.2109640723336426
000580 42 a4 70 a4 0a e2 d0 bf 66 d0 42 5a 96 a6 a4 bf
       -0.2637964826449811 -0.040333460348308134
000590 3d 8c 68 b8 29 b6 b1 3f 6c ec 9c 6b 9e 0e c0 bf
       0.0691858363357349 -0.125446131272699
0005a0 40 2d d8 d4 f6 32 b7 3f 6f 2f 4e cb 31 9e c7 3f
       0.09062140175244782 0.18451521327039752
0005b0 e2 89 ad c3 25 f8 c3 bf ed 21 96 eb ed c8 c9 3f
       -0.1560103612383293 0.20144437793011552
0005c0 5d 76 de 4f b9 00 c3 3f 20 9e d9 7a f1 fa a2 3f
       0.14845959091046526 0.03707079529413826
0005d0 10 f8 eb 92 02 b3 c3 3f 9a 3e 36 99 96 b3 c1 3f
       0.15390045331872715 0.13829309922265481
0005e0 b6 6e aa 66 0e ab 88 bf 2c 7c 54 dc 4e 9c c7 bf
       -0.012045013912305929 -0.18445764311124557
0005f0 5b 92 f9 b4 91 76 bc bf d1 77 1f 74 23 92 b9 bf
       -0.11118422191936743 -0.09988614640266681
000600 cb 92 2f 00 4c 50 a5 3f fe 9c 13 9a 59 fa 96 3f
       0.04162824156063535 0.02243938448819182
000610 d4 3b fa 73 49 02 91 3f 2e 1d cc 8d d9 6a 47 bf
       0.016610286430075963 -0.0007146417879945516
000620 5a af 2c 38 c3 d0 88 bf cd 05 c7 dd 27 3f be 3f
       -0.012116933013735998 0.11815117992866604
000630 ed 3d ae 14 67 c8 4e 3f 2d 6d 71 95 c2 ef a4 bf
       0.0009394172023906002 -0.0408917243409753
000640 5a 34 9a 83 f5 01 ce 3f de ce 47 b3 2b 6f cc bf
       0.23443478513618993 -0.22214266065531424
000650 b8 b9 21 42 40 92 c3 3f 62 7e 31 32 c8 2c c8 3f
       0.15290072659577247 0.188866638668503
000660 16 25 84 04 67 61 b3 bf 9a 8e 60 c8 5b 4a b3 bf
       -0.075704992868982 -0.0753533710672464
000670 f9 a2 ff ac 20 a5 db bf df 31 1e 17 9f ec cf bf
       -0.43195359129326466 -0.24940861347967222
000680 3b 54 b0 74 ef b9 bb 3f 08 aa fb 18 49 89 bf bf
       0.1083058986553888 -0.1231885610574538
000690 5a 53 37 18 05 c6 ae 3f 10 c0 6f 56 40 ff bd bf
       0.06010452194792633 -0.11717607603327473
0006a0 b0 cc 22 b2 ba d9 d4 3f 4a 93 b9 37 4d 85 97 bf
       0.32578914066398124 -0.02296944286935635
0006b0 f0 75 80 02 28 52 ba 3f 57 79 82 b8 6f be c2 bf
       0.10281610547141162 -0.1464366579938978
0006c0 58 d7 45 07 34 88 ba 3f 6a 6e 7a f8 e3 cd 93 bf
       0.10364079644736301 -0.01934009746638169
0006d0 8c 2c d7 2e b7 6b 72 bf c5 5f e2 82 9c 90 c9 3f
       -0.004497256811599414 0.19972568884690936
0006e0 a1 8b 25 fa 83 68 a3 3f fe a9 e9 23 7d 9e a8 3f
       0.03790676525638693 0.048084173807030325
0006f0 97 33 22 a6 e4 d4 d1 3f af 47 31 52 61 61 8d bf
       0.27861896728500696 -0.0143458941658173
000700 10 3a 18 1a 7d a3 bb bf 11 81 c6 8e 33 b7 be 3f
       -0.10796338927341531 0.11998293147781093
000710 72 16 eb a0 31 99 99 3f 13 8c 13 c9 01 14 aa bf
       0.02499845070521762 -0.050933891101316096
000720 8f cb 32 f4 38 36 be 3f d0 b0 67 0c c7 71 c0 bf
       0.1180148693263574 -0.1284722147532933
000730 c4 cc 08 57 0c 27 88 bf 31 12 62 ca 83 dc c5 3f
       -0.01179322853668053 0.1707920778464014
000740 96 6b df 16 1e a9 ce bf 84 ae c8 7d 3f a2 c2 bf
       -0.23953605763275893 -0.1455764164141905
000750 e0 b7 36 11 83 a0 c9 bf b9 86 1b 20 03 3a cb 3f
       -0.20021093693270497 0.21270789211034982
000760 23 e9 62 45 a8 7a d0 bf db 22 ba b0 c1 e2 c6 bf
       -0.2574864080048817 -0.17879506234409956
000770 31 c2 a0 b4 a2 37 d4 3f e7 10 64 a4 79 61 b2 3f
       0.3158957256264641 0.0717998529763154
000780 19 8c 04 b1 7c d3 c5 bf cb 49 5d 55 1a 9c c7 3f
       -0.17051657336659856 0.1844513813799281
000790 e8 be d4 63 f5 e3 98 3f a5 83 4b 58 da 6e a5 bf
       0.024307092874720576 -0.04186136558360624
0007a0 36 09 07 9a b2 4c dd 3f 33 2e 08 9a b1 b3 ce 3f
       0.4578062538313533 0.23985881825534391
0007b0 9a dd e9 c6 ed de ca 3f 15 d3 2a 6f 60 f0 dd bf
       0.20992824757170753 -0.4677964292161943
0007c0 0a 32 c3 d0 79 04 cf bf 4f 17 c0 72 1e e1 b4 3f
       -0.2423240918491419 0.08156004239580493
0007d0 7c 75 6e 91 f2 6b 7b 3f 7f ea 56 d5 a9 33 9a 3f
       0.0066947436634142675 0.02558770527478282
0007e0 65 b8 b4 97 b2 e8 bd 3f 08 8a 05 99 41 fc b7 bf
       0.11683193401106136 -0.09369287477378674
0007f0 67 30 78 5d 91 d4 ca 3f ba ef 0b 49 76 c9 a9 bf
       0.20961205543460723 -0.05036515847856955

base.actor.actor_fc2.bias f8 [64]
000000 2f e4 d8 6b 7f 42 a7 bf d2 a2 62 83 02 95 86 3f
       -0.045429212489075936 0.011026401171265663
000010 2e 96 30 2d c9 a8 9e 3f 0f ad ee f4 fd 13 b8 3f
       0.029940741904417027 0.09405505399506729
000020 88 93 9a bd cb 45 90 3f 6a 1b f3 da da 2d 95 3f
       0.01589125008344497 0.020682735074639615
000030 b0 6f ce 32 2f 53 70 bf c8 d5 36 ec 05 ad 89 bf
       -0.003985580796236052 -0.012537046691117562
000040 41 b3 71 21 c7 e3 95 3f a9 6a a2 68 00 46 75 3f
       0.021376716057079696 0.005193711849779938
000050 b9 7a a7 98 8d 5f 7e bf b2 d7 78 3a 81 6e ae bf
       -0.0074153452974018924 -0.05943683470506701
000060 87 ac 74 e6 31 b3 ae 3f 9c c1 24 7c 4a 77 b3 3f
       0.05996089876347193 0.07603898554658034
000070 a6 ce e7 a3 a8 22 9d bf 0e 75 db c3 63 33 b1 bf
       -0.028452525142667405 -0.06719039470359098
000080 32 2e be 1a 21 8c 7f 3f 0f 31 ce 70 a4 20 9f 3f
       0.007701997103037027 0.030397958169076363
000090 01 a2 fb 05 7f a0 ab bf 48 9a 74 31 52 ff b9 bf
       -0.05395886371644921 -0.10155214030656012
0000a0 ab dc e1 1b 4a 7d 48 3f 42 4f eb 00 ec 71 ac bf
       0.0007473575458466682 -0.055556655037121164
0000b0 10 58 0a 6f b1 12 b0 3f 9c 6e a3 39 75 bf aa bf
       0.0627852340788595 -0.052241957937181754
0000c0 f0 bb c0 71 4b 40 90 3f e2 26 f1 ae d6 fb b5 3f
       0.01587026483337789 0.08587400218052779
0000d0 8a 9a 05 b5 dc a1 ae 3f b6 ce db c7 2e d6 c3 bf
       0.05982866010417805 -0.15497383841249296
0000e0 1a d1 d3 17 74 4d 8f 3f 87 b0 e9 b1 33 2a aa 3f
       0.015284449555544689 0.051103225200535944
0000f0 6b da c0 e5 5d e1 a4 3f 33 27 36 8f 75 66 a5 bf
       0.040781912132321484 -0.04179732678592387
000100 33 52 b6 ac 05 58 ac bf 52 3b 40 b6 d2 92 a1 bf
       -0.055359055836707326 -0.03432329630606169
000110 09 74 c4 f7 f7 e1 a8 bf 92 33 01 25 c6 f3 a8 bf
       -0.0485990037870821 -0.048734848038839776
000120 45 cc 13 ec ff cd b2 bf b1 d6 c0 bf e2 29 9b 3f
       -0.07345580590826824 0.0265269689118301
000130 c3 a2 f5 af f4 a0 b3 bf f6 c7 b4 61 7d 7d af bf
       -0.07667474075209228 -0.061504285981200654
000140 11 c4 72 a2 bc 4c ac bf 12 79 3c a7 a1 de 61 3f
       -0.055272955732455505 0.0021813542642937856
000150 4a be 0c be 28 9f ae bf de c6 dc 11 6a d2 a9 3f
       -0.059808037948070394 0.05043345897719374
000160 30 c1 84 32 71 a8 a4 bf e5 89 c0 cd 19 1c a5 3f
       -0.04034761182481572 0.04123001705763211
000170 a4 52 22 9e 3d b4 92 3f 07 a3 37 da 94 0d ac bf
       0.018265688683259854 -0.054791118276460486
000180 c8 66 7d 2f 87 fd ba bf 9c 03 b7 54 e8 9b bb 3f
       -0.10543103131694942 0.10784771030649981
000190 d4 7f 47 ae ea 8e a9 bf 13 4e fa e8 46 52 a3 3f
       -0.04991849305565635 0.03773709863630983
0001a0 03 43 c1 a2 24 10 ae 3f ee e5 18 f6 33 6a 95 3f
       0.05871691214327337 0.020912944694122908
0001b0 7b 08 d3 2b c1 f3 b4 bf cc 23 0e 77 e7 df 93 3f
       -0.08184439964228034 0.019408814088396828
0001c0 72 e5 8d 07 93 2c a1 3f bc a2 96 65 59 89 b5 3f
       0.0335432001802002 0.08412703256784487
0001d0 c4 8e 51 9b 6e e5 a9 3f 94 3e f9 b0 ce db b5 3f
       0.05057855268458192 0.08538524456639102
0001e0 2b 64 78 ad 97 ea 81 3f 2c 45 cd 22 6e 62 b4 bf
       0.008748230916397834 -0.07962692594198434
0001f0 b8 ed 82 46 db 31 a2 bf 78 f0 be ba e4 51 b0 bf
       -0.03553662524924611 -0.06374959525322932

base.actor.actor_fc3.weight f8 [8, 64]
000000 c9 5a 9e 4d b3 c5 8e bf 89 a3 1b 23 0f 41 9e 3f
       -0.015025521093588694 0.029545055883236002
000010 f1 5f 3a b4 53 cd 7f 3f 8e 81 08 f2 2d 24 c1 3f
       0.007764174431621016 0.13391660993603377
000020 ce 16 d5 08 54 eb a0 3f 00 69 4c 0d 7b f3 a8 3f
       0.033045412138148586 0.048732610104893936
000030 2c 4e 3d 9c a2 cd ad 3f 37 69 bf 39 54 18 81 3f
       0.05820949704380171 0.008347185146636888
000040 67 7e e0 2d 24 69 92 3f 1f fc c0 4a 61 3e 79 bf
       0.017979207325082316 -0.006163005873587784
000050 e2 ee 6e 52 a5 58 ab bf 99 45 5b da c2 e2 8b bf
       -0.05341068869844691 -0.013616106308662878
000060 50 e2 dd ec 26 23 6f bf 54 fb 70 32 42 66 a4 bf
       -0.0038009414919851006 -0.03984267106760933
000070 53 2e 1e d9 17 20 b6 3f 78 5c f7 64 ec ea 8a 3f
       0.08642720270852892 0.013143393355603758
000080 25 7a 22 71 d5 28 af bf 89 b6 5b 7a a2 fe a6 bf
       -0.06085841184652833 -0.044911458431539826
000090 15 cd d7 9b 04 86 b4 bf 59 d7 76 c3 b6 1f 83 3f
       -0.08016995243797383 0.009337833252043447
0000a0 37 34 9e 4a 91 17 b1 bf e6 af b8 9b a6 60 aa 3f
       -0.06676586219528323 0.05151863718887721
0000b0 6e b5 44 d2 63 d8 9b bf 8b ee 48 ec 01 f5 81 bf
       -0.027192649563564535 -0.008768095992415034
0000c0 72 16 76 e4 38 98 a8 bf 1c 10 ec 14 66 0e ab 3f
       -0.048036363495197146 0.05284422879597647
0000d0 81 b5 d8 2a 9d 12 89 bf 1a c6 cb 4a 98 b7 92 bf
       -0.012242534513542182 -0.018278483929810553
0000e0 99 df 92 ef 8b f2 46 bf e0 5f 05 3f 1c 38 b4 bf
       -0.0007003005295222908 -0.07898117579077235
0000f0 de 9a f0 f4 8f d5 94 3f 34 10 6d bc 19 00 9d bf
       0.02034592564100534 -0.02832069599686822
000100 f9 d3 4a 78 eb db ba bf 4e 34 0a 13 6c a7 a3 bf
       -0.10491820990394264 -0.03838670475406812
000110 ed 5f c5 9f 3e e4 97 bf 30 5f 1e 61 c7 0e b0 bf
       -0.023331621648452417 -0.06272550698338075
000120 f2 40 1d 0c 80 d1 b1 bf 87 47 af 75 5b fe 45 bf
       -0.06960296912916755 -0.0006711908894152387
000130 f5 f0 3b 16 e1 1f aa 3f c7 36 92 57 5d 0f a5 bf
       0.05102446934140118 -0.04113284772857422
000140 08 5a bc ff 8a d5 bb bf 03 3d 64 31 a0 32 bb bf
       -0.1087271570544105 -0.10624123769615683
000150 ef 37 db fa d3 fb a0 bf 10 34 8a 27 3e 3a 98 bf
       -0.03317129552088704 -0.023659678614922852
000160 6c 56 98 28 73 4d a0 bf 3b 3f 0e 2e 45 35 a0 3f
       -0.03184089537186882 0.03165641963198459
000170 3a 93 a9 7f 9f 13 a0 bf a2 fa 0d fb 57 df a4 bf
       -0.031399711927213095 -0.04076647700911919
000180 8d a4 e2 32 ec 8f a6 bf 98 10 b9 d2 b4 23 39 bf
       -0.04406679268988354 -0.00038359799029686606
000190 54 05 a2 4d bf 7b b0 bf 4d 44 d7 e7 9f ca af 3f
       -0.06438823361715623 0.06209277825440349
0001a0 99 30 6a 10 95 1c af 3f c2 86 af 8b 02 a9 a0 3f
       0.06076494050384546 0.032539443541975924
0001b0 96 5d af 02 74 0d a0 bf be 6c 6f 09 e0 0f 93 bf
       -0.031352639510880895 -0.018615246368295806
0001c0 53 28 07 d2 8d b3 aa bf 76 12 8f 28 da 91 a0 3f
       -0.05215113819902286 0.032362763834986305
0001d0 0c 4f 4b 18 45 09 a9 bf 8a 40 8c 0c f5 bf 74 bf
       -0.04889884873924019 -0.005065877173152109
0001e0 de 90 47 69 83 bc 93 3f 6d 91 d5 50 4f 4a 95 3f
       0.01927380876613049 0.020791281994563194
0001f0 09 6e 1f f6 5b aa b1 bf 6a d1 13 45 81 86 a1 3f
       -0.06900572546822316 0.03422931640844491
000200 2a 56 71 71 8d c7 ab bf b9 fa 54 68 8c 40 ae 3f
       -0.05425683984564629 0.0590862157209719
000210 c8 87 20 e9 ee 6e 91 3f b4 4f 19 4c e1 f5 a8 bf
       0.017024739245364434 -0.048750916041768205
000220 e4 37 01 af 61 cf 98 3f 3e cc 3b 2a 2b 50 bf 3f
       0.024228597933237853 0.12231702595799818
000230 ad c4 3c 0e f3 81 a0 3f 8c f1 01 f4 bb d0 a7 bf
       0.03224143551632017 -0.046514390503008846
000240 58 7d 4c a4 3e 1a 97 bf e6 db 64 88 ab 2e b4 bf
       -0.022561053064348385 -0.07883712844782984
000250 a0 06 d2 f7 8c 90 a7 3f 84 0a 6c eb 83 e7 a2 3f
       0.04602470898772748 0.03692257164768356
000260 42 c5 65 e7 30 a8 7b 3f c1 f2 bb be 15 ec 78 bf
       0.006752196341367979 -0.006084523145315658
000270 29 79 42 d9 ed 8c a3 bf dd a0 35 09 84 8d 8d 3f
       -0.03818457867713427 0.01443007615189667
000280 2b 0f 31 8a cc 5e ac bf d5 18 23 30 ed 76 ad bf
       -0.055410758847328566 -0.0575479623089891
000290 fa ac 3c 91 7b 5a 9c 3f 50 8a 41 15 61 1e aa bf
       0.02768891405063998 -0.051013025135735135
0002a0 f0 03 01 68 ec ae b1 3f 20 9f 2d b3 a3 a8 a3 bf
       0.06907537020835242 -0.038395991918888095
0002b0 6d 01 32 51 30 df a1 3f 5f 0e b2 b0 67 d9 a9 bf
       0.03490591994432433 -0.05048679382255438
0002c0 1d 48 19 a1 3b c0 96 bf 0d ef cd 58 d8 a1 aa bf
       -0.022217685420692235 -0.05201603015936316
0002d0 6e 15 93 1e 44 f6 9f 3f 7b 79 9f e4 f2 a9 b5 bf
       0.031212868085977723 -0.08462446290602614
0002e0 f0 d0 c7 ad d0 09 aa 3f 60 7c ad b0 2c 0c 95 3f
       0.05085613366455444 0.020554254802274463
0002f0 45 3c 86 ef b3 90 84 bf 87 dc 02 53 93 fa b6 3f
       -0.01004162382812813 0.08976097847595287
000300 c0 9c 86 27 51 fa 85 bf 22 36 e5 38 3e 56 b5 3f
       -0.010731348055584511 0.08334721459433372
000310 7e b6 0e a9 04 54 b5 bf 9c dc 0b dd e3 22 8b 3f
       -0.08331326606158915 0.013250141318606183
000320 f5 fa ad f5 bd 4b 95 3f f0 77 b8 cc 75 1c bb bf
       0.020796745414822976 -0.10590301750241315
000330 c6 3e 71 d7 0f 70 a7 3f 41 83 d3 b5 92 c0 b1 3f
       0.04577683930312797 0.0693446821128534
000340 bf 9d dc 8d b2 db 8f 3f 69 c4 49 8b a4 38 84 bf
       0.015555758432653442 -0.009873662472474192
000350 85 65 31 2f 8f c1 a5 bf 46 b9 38 73 3b 4d b2 bf
       -0.04249236537061577 -0.0714909702589682
000360 16 36 9c c6 ee 3e 8e 3f e0 3c 0c 6d d7 d3 b1 3f
       0.014768472133734039 0.06963869488048458
000370 38 81 64 83 91 68 bc bf 5e c0 26 d9 40 75 81 bf
       -0.1109705873282153 -0.008524424197134003
000380 46 7e bc 2e bc 85 a6 bf e8 78 0d bc 08 ec a6 bf
       -0.04398906775008675 -0.04476954742016109
000390 a6 c6 ac b8 b6 0e b3 3f e3 01 1b 40 a9 b9 b1 3f
       0.07444326409020138 0.0692392140872538
0003a0 4c 19 7e 52 e7 5c bb 3f 2d a1 55 af bc ce a1 bf
       0.1068863464734921 -0.03478040352166754
0003b0 e6 65 63 6d ae 36 a5 bf d7 d4 e0 43 3e 18 a2 bf
       -0.041432810643254034 -0.035341211114806086
0003c0 9c 98 0f 5b 46 d0 79 bf 4c bd 58 dd 52 80 a7 bf
       -0.0063021419782442155 -0.04590090705857594
0003d0 95 34 20 1c d4 01 9d 3f 8e 0d 9f 01 ab 52 b5 3f
       0.028327287880575886 0.08329266347487005
0003e0 3e 4c 64 4b 30 3c 9a bf 90 0a b4 b3 99 1d a1 3f
       -0.025620226480054457 0.03342895811694746
0003f0 53 fb 8e ef be 9f 83 bf 5f 4c 38 0d 44 83 b5 bf
       -0.009582034765001224 -0.08403420756103362
000400 f6 40 2c 0f 42 e7 8e 3f 85 9b 6a 3b 96 62 95 bf
       0.01508952721408761 -0.02088389146470206
000410 ee f2 2c 48 20 79 b5 bf c7 fb 37 50 3b f2 a7 bf
       -0.08387948762988248 -0.04676995615226747
000420 ab f9 9a 8c e4 d2 a0 bf 58 89 1c e4 50 42 82 bf
       -0.03285898414968654 -0.008915550195130947
000430 b0 87 e7 15 f4 bd a6 bf f7 1c 99 94 06 07 a6 3f
       -0.044417979883078273 0.0430223518747485
000440 e2 45 b8 93 01 3e 80 3f f4 24 41 6f 48 b3 98 3f
       0.007930767365027461 0.024121410170015303
000450 57 3a 47 6b e5 78 b6 3f 61 35 7c e7 49 70 b3 3f
       0.08778222912881382 0.07593213941091427
000460 37 49 99 bc 63 b8 a5 3f 29 21 9b 29 a7 ef b0 bf
       0.042422405979453286 -0.06615681424876087
000470 07 94 01 e9 da db 87 3f cd 10 db 4e 5f 17 b0 3f
       0.011649809108527987 0.0628566329497204
000480 24 91 5d ef f8 16 b1 bf 1e cb fa 87 1b 1f 60 3f
       -0.06675678104290178 0.001967958232705582
000490 fc c0 36 4b 8c e7 90 bf 85 2f 22 5e 55 ca a4 3f
       -0.016508285608950665 0.04060618185130153
0004a0 38 ac fe 2c fc b2 97 bf d5 1a f2 3b ea ef 6c bf
       -0.023143711324945054 -0.003532369125937999
0004b0 dc e2 92 f4 f1 36 a1 bf 29 3a e4 bb 7a c4 b1 bf
       -0.03362232313651756 -0.06940428816981438
0004c0 8b af be fa 9b 37 83 3f 59 92 bb cc 36 5b 9e bf
       0.00938341006243328 -0.02964482903088803
0004d0 0c 90 22 fd 77 06 64 bf 25 49 e3 f6 05 28 b1 3f
       -0.002444490769521584 0.06701695706877737
0004e0 a5 5b 4b 85 4e c7 91 bf 5b 58 cf 7a da 5f a5 3f
       -0.01736185730518582 0.04174692868370818
0004f0 8e 97 d9 fc 39 90 a5 3f b1 cd 41 e8 8e d5 b2 3f
       0.04211598598048659 0.07357114000642785
000500 a0 ef e1 4c 26 0b 8f bf 83 41 09 14 1f 5e 99 3f
       -0.015157984944600689 0.024773107145223527
000510 5e 53 37 f0 e7 f7 a7 3f a8 ce 15 d7 42 a1 a5 3f
       0.04681324775052674 0.04224594951201982
000520 a3 a6 6c 24 64 93 97 3f ef 02 f4 12 01 79 9a bf
       0.023023190234346413 -0.025852219373521498
000530 3e f7 16 d5 7f b8 a9 3f f8 c9 a0 54 b2 5f 90 3f
       0.05023574329560042 0.01599005357292957
000540 9e f8 68 cc ea c8 94 bf 4e 0b ef 03 6c 31 b4 bf
       -0.020297688223074865 -0.07887911888159957
000550 f3 c9 5d a8 f9 53 a0 bf f7 84 76 98 fd 15 8f bf
       -0.03189068012479259 -0.015178662505436409
000560 9f 6b e0 5b 25 53 a5 3f 1e 19 03 a0 08 6a 9e 3f
       0.04164997812787096 0.029701361433375977
000570 b0 d9 57 bf e2 89 93 3f 01 54 98 a8 3d 24 b8 3f
       0.019080679825458524 0.09430299154367107
000580 37 da aa c7 6b c4 a4 3f fb 45 a3 28 fb 22 90 bf
       0.040561073420964204 -0.015758442263921407
000590 e1 fe c0 06 39 28 9e bf 7a f3 3a 45 f9 64 b2 3f
       -0.02945031264994114 0.07185323658172918
0005a0 e0 33 24 1a b4 11 93 bf fc f1 ad 55 e3 2b a9 3f
       -0.018622221084161228 0.049162964066429254
0005b0 cd c1 24 22 08 55 9d bf 2c 2b 27 31 9d 60 a8 3f
       -0.02864468296428573 0.04761210656177747
0005c0 4e c9 ec 2b 6a 2e 9d bf d5 36 8b dd 71 6d bc 3f
       -0.0284973706540737 0.11104499491485893
0005d0 84 47 1d 65 1b 7d a5 3f 2b 38 22 bc b7 6b 83 bf
       0.04197011575037293 -0.009482798985370596
0005e0 2e 76 b0 26 a2 4e b6 bf 43 7f 35 da ed e6 91 3f
       -0.087137350507384 0.017482487147730607
0005f0 e0 95 21 50 1f 0d a6 3f 36 b9 a9 a2 00 6b a6 bf
       0.04306886532939891 -0.04378511415130719
000600 c0 c2 51 b6 c5 6c 8a bf 02 35 be 5a 56 a2 96 3f
       -0.012902779222913607 0.022103642738831482
000610 89 2c e8 1f 4c 28 9c 3f 7e b8 a0 28 a5 c2 5f bf
       0.02749747223610347 -0.001938496864123645
000620 e6 5f b5 dc 72 23 a1 bf 7e 2e b0 65 7c 7a 92 bf
       -0.03347357696719637 -0.0180453717294271
000630 83 00 8f e8 c3 86 ae 3f 7e dc 42 1f e6 b7 a0 bf
       0.059621927393437545 -0.032653037372647895
000640 7b fc 79 41 45 83 a0 3f 28 ad d0 fe fe 6c ad bf
       0.032251514666307345 -0.057472199063648255
000650 85 a6 97 8d 8d 71 8c 3f 5a 3a 9f ce 30 63 b2 bf
       0.013888460048252735 -0.07182602924806628
000660 19 87 7b 9e dd 3f 87 3f 04 98 78 f5 7e e0 8b bf
       0.011352282904627796 -0.013611785761053603
000670 3e 86 37 fa 59 71 b8 bf ce 3c 7e ca 43 06 a4 3f
       -0.09547960623560756 0.03911029669608866
000680 30 fb 31 e3 03 49 30 3f b9 38 7a 0f 54 f5 a4 3f
       0.0002484926691934007 0.04093420685704658
000690 32 13 82 d2 b9 63 77 bf 70 f6 88 06 00 34 b0 3f
       -0.005710340374325539 0.06329345855280066
0006a0 9a 16 47 fc 1b c8 39 3f 88 e9 30 b1 d5 48 a0 bf
       0.00039339717139017796 -0.03180568492867325
0006b0 0c 09 bd 1a d4 e6 ac bf 6c ab ed b6 63 2f bf 3f
       -0.05644858194729538 0.12181685653710667
0006c0 a7 c1 85 5e e8 83 70 3f 40 32 0c 04 86 fa a1 bf
       0.0040320469782816675 -0.03511446761521997
0006d0 d2 6c 55 eb e1 0e a7 bf 7b 2b e7 1d da 8c bb 3f
       -0.04503541944242219 0.10761798124364745
0006e0 b5 4b f7 8c fa 0f a1 bf 7b d7 2a bd fd f3 a9 bf
       -0.03332503290916781 -0.05068962988063582
0006f0 67 43 63 75 9f d6 91 3f 18 c9 9f b0 d5 c1 a1 bf
       0.017420283832339758 -0.034681966600958514
000700 2c f3 df 59 28 35 a5 3f f3 70 ef b8 8d 73 b0 bf
       0.04142118546585602 -0.06426320805570977
000710 d4 60 44 1a 97 54 90 3f b3 e8 6e 11 ff 29 b1 3f
       0.015947686174599365 0.0670470635949723
000720 59 26 5e d4 57 84 b0 bf bb 28 b9 23 fb 1a 65 bf
       -0.06451939520607065 -0.002576342112466793
000730 0b 7f 18 88 5b 78 90 bf 2b 9f f7 61 01 af 82 bf
       -0.01608412759935533 -0.009122858812545672
000740 33 d0 d3 e4 2d 49 81 3f 86 79 e2 8f a7 66 72 3f
       0.0084403596360759 0.004492430247550755
000750 14 0e 2c a7 69 e1 9a 3f c9 2d 31 10 7f 5e b9 3f
       0.026250506237387297 0.09909814973177968
000760 9c a3 08 a3 56 26 af bf 70 5e 80 7b 14 a4 71 3f
       -0.06083937397153891 0.004306869515879094
000770 9c ea 2a 9f 35 97 b2 bf f4 f3 8e 18 bf e5 83 bf
       -0.07261977325371521 -0.009715550362551874
000780 52 d3 0d 88 ed c0 9f 3f b7 3c b5 0a 73 7c 88 3f
       0.031009398869588374 0.011956118358879981
000790 6f 54 17 df 7d 61 ad 3f 77 6b 51 c4 33 d7 98 bf
       0.05738442753105565 -0.024258431298544516
0007a0 99 2f 84 55 0f a9 bb 3f fe 79 3b d2 89 e0 a3 bf
       0.10804839933206124 -0.03882246676743149
0007b0 ba b1 8b 19 0b da 56 3f 35 fc d8 32 2e 00 b6 bf
       0.0013947590252271062 -0.08594025365253873
0007c0 fa 31 7c d5 5c 54 aa bf 98 14 60 ca 50 ae 9d bf
       -0.051424885807225665 -0.028985273696907926
0007d0 b9 5c 34 75 79 44 a5 bf 12 79 1e d1 88 ac a6 bf
       -0.041538043553538136 -0.04428508331987947
0007e0 f3 2d 30 e8 74 65 a1 3f 83 94 ae 29 34 27 c0 3f
       0.03397717794731738 0.12619640383960382
0007f0 f3 cd 8c 43 db f3 81 3f 3c 34 82 f6 b3 a0 64 bf
       0.008765900610888422 -0.002518035402380407

base.actor.actor_fc3.bias f8 [8]
000000 88 0f 61 ad 1a db 87 3f 66 f2 ee 1c 1c 25 8c 3f
       0.011648376861678647 0.013742656357743143
000010 be cf 1a 96 16 97 b2 bf 40 44 de 62 b8 d8 b0 bf
       -0.07261792339960402 -0.06580688871169205
000020 02 d9 18 13 ce 79 91 bf c5 16 79 5b 0c 16 85 bf
       -0.017066211619941825 -0.010295959989103829
000030 78 a8 df 82 75 a3 a0 3f a7 0c 34 5c ee 08 91 3f
       0.03249709341601287 0.01663563192142861
