results/Ant-3d/cmorl-ipo/0/final/EP_policy_50.pt (torch, 105481 bytes, 13 tensors)

base.actor.actor_logstd f8 [1, 8]
00000000: eedb 7433 8e26 01c0 6fb3 6e5d b2c2 02c0
00000010: f233 bb18 53b6 01c0 432b 0c3f b0a1 01c0
00000020: 4d31 0745 d83d 02c0 6bbc 5dba aac1 02c0
00000030: b878 6a64 e751 00c0 ddb5 bf79 f813 02c0
-2.1438259143865173 -2.3450667666824567 -2.2140256816987796 -2.203949444350117 -2.2801976578540804 -2.344563919053646 -2.0399921269409695 -2.259751273310697

base.actor.actor_fc1.weight f8 [64, 27]
00000000: fff8 4168 5d28 c73f 6609 bdbf 01aa d3bf
00000010: e2ae 176f 4be9 c23f 16d8 3056 c81d c8bf
00000020: 1a9c fe57 7e34 d6bf a251 d175 8df2 c4bf
00000030: 9a40 d69b ec1f c8bf 62c1 d597 7f05 953f
00000040: 4964 d50e c9c0 b43f 9bf0 ba53 f3b7 b43f
00000050: 0730 cbdf c705 a4bf 613b 015c 8311 ccbf
00000060: 597c 6118 c478 a1bf d132 4194 9be8 b0bf
00000070: 3f1d a8e0 08fe 75bf 52f8 a786 75d8 c6bf
00000080: db62 15d1 54bb b33f 0874 5686 2123 c3bf
00000090: 7942 c482 72bf c93f 5f87 75d4 256b b13f
000000a0: 96bf 3f0b 6112 de3f 48ad ed8d 578e b43f
000000b0: 369c 5579 87bc 94bf c933 bfcc 37fe a9bf
000000c0: edaf 6e8e b6ba c8bf 2768 14bc 1bc8 843f
000000d0: 79b7 39ee 3b16 d63f 1eed d5b6 8569 bf3f
000000e0: 8e05 ed34 7360 c33f cf64 8cfc e9d7 d1bf
000000f0: bb53 3be6 ae02 b7bf 26a7 1293 5883 b53f
00000100: 9c08 e37d 943a a0bf a0ed e4ea 91e0 5cbf
00000110: 2e0d ca5f 079c 84bf 3c12 f58c c307 b3bf
00000120: eb6b 1b8b 4a39 c03f 6b51 a331 3bad c1bf
00000130: 110e e8c7 2450 cbbf b315 b14c 99d6 c7bf
00000140: bd8e ac14 68ae c4bf cd64 9148 1d08 d6bf
00000150: 9b12 f653 4a13 c13f 7fdf 8b33 2e3f 773f
00000160: 4fb1 4eee 0075 c6bf b3d7 67dc 6dce c8bf
00000170: 8bee 6fe7 3bdd ad3f 04fb 1f07 c449 a23f
00000180: 8ada 7fbb a310 cd3f 66ee 2f86 215c d0bf
00000190: 303b bc93 814f 993f 6deb d0a8 63b9 a43f
000001a0: ee11 f515 4684 d13f 669d 1d52 919e b53f
000001b0: f94d 51ad 8b5e c8bf 8193 c4f7 455e cf3f
000001c0: 73da 6f50 55d5 c1bf 3597 25a8 4dec a63f
000001d0: d1f0 496d 4bbd aa3f 788a f29d 059e d63f
000001e0: 76b8 90c3 4feb d0bf a315 5f20 b343 cbbf
000001f0: 4368 709b 1e02 b3bf cb7b e76e 949c c2bf
00000200: 0c24 817a d162 c03f 9828 b923 f326 ac3f
00000210: 7a19 f46f 3739 9dbf 6862 58ca e258 c5bf
00000220: bda6 e47d 2232 b53f 7d6a 8364 710b a73f
00000230: 2845 2fae d0d9 b5bf 21a8 010d b898 b8bf
00000240: 6111 4835 c4d5 9d3f 2f64 3c32 adfb 8b3f
00000250: 7ea1 d453 40ab 543f 32b4 c4f7 a34f c83f
00000260: d0c0 d959 596f ce3f bb54 84de 3bbf cf3f
00000270: 82b6 73c2 14c0 d33f b217 65ba fc1d cbbf
00000280: 4364 e76a 886e a83f cfea 3aba 4554 873f
00000290: 1a2d 35ac f015 d13f 935d 7964 ac5c c03f
000002a0: 3d6a 8ac7 79f6 ce3f 95a6 fa90 1b9c d2bf
000002b0: b4ef 0f5b d5d2 c9bf d6fb c9a4 f57f ae3f
000002c0: 6f63 2ddb 2c54 b03f 095e 4e39 442d c3bf
000002d0: 7d1f b7e4 f29a c43f 0a87 c469 8c30 d0bf
000002e0: 2ad0 8acf d84c a5bf 2492 1a2a 3415 b4bf
000002f0: b7e6 4f6a cf6f b9bf dd00 efc9 d2c1 b8bf
00000300: 0215 5c77 b471 b83f 7604 8f07 ee24 c33f
00000310: e423 27ee 18ac b13f d48c 43ec 3f30 be3f
00000320: 5d32 b513 c970 e0bf ef2a 0d49 cb44 b03f
00000330: 3ee9 e039 0ecd b53f c6e9 78c1 8ab4 c33f
00000340: ceb1 2657 50c3 ac3f 8deb 4040 928b 98bf
00000350: ce64 95a1 b248 d0bf fb56 3709 9176 c0bf
00000360: 6f38 555c 582e 8d3f fd63 84f9 ae01 55bf
00000370: aaa2 00f2 1c3d d23f 2544 8142 32c9 b1bf
00000380: 01cc 3a08 2f71 cd3f a96f 9a70 8fd3 803f
00000390: 68de 7755 6359 debf 7cc3 c748 5f16 b63f
000003a0: cfae 59ae eb96 c33f 0cfe 636f d6f6 d53f
000003b0: 6c54 5e4b b2b6 b1bf 33fe 491f c48e c2bf
000003c0: b298 c87c a321 c4bf 7c07 b9a7 46b2 c6bf
000003d0: a6df 9dbf 85e2 bbbf d254 979a 60fa acbf
000003e0: 427f 2e39 3d53 c43f 307c 0339 5e64 b8bf
000003f0: a3b4 cb51 7068 bcbf dca1 d627 9f33 adbf
00000400: 6233 21dd e85f a03f 5931 6efa 6fd9 bb3f
00000410: 57e3 dc24 a762 893f 54e9 cc7a 3a76 b03f
00000420: 0fa1 90ac 50f6 aebf 42d0 85d6 9c33 b23f
00000430: 4943 40fa 383d d23f f2ba 9b5f c1c0 c13f
00000440: 5898 eec6 f157 bdbf c846 60e2 3db8 d9bf
00000450: ca91 f682 b055 d2bf 508e 953f 8633 d1bf
00000460: 0f00 d8d9 659d d03f 66e6 1ea0 9d96 d0bf
00000470: c1c8 ce3b d9f0 c4bf 1e9f 29b7 7d40 bfbf
00000480: f6b5 6cea be1a b2bf 1b0f 2765 7ba8 b03f
00000490: a1a3 ebd4 0c3f c23f 2183 14d7 9b39 d2bf
000004a0: 66ee a175 df6c b8bf 506d 15f9 f984 b6bf
000004b0: 25bd 03fe 610e c1bf d9a9 70d3 ae83 a93f
000004c0: 3c56 d692 9d05 c1bf 1fc9 224d dec8 b33f
000004d0: b7f3 91b7 fa91 b93f 7f64 b720 0715 b4bf
000004e0: 216e 0187 f616 d4bf 87e7 d2c3 6efd d63f
000004f0: 54f3 17be 5144 a93f 2757 21b8 f2ba c43f
00000500: dd1c d510 704f d03f 556a 926c b0d8 78bf
00000510: 9f89 d836 526b ccbf 885c 8931 7262 d2bf
00000520: 1505 3e46 01a4 b83f a430 cc15 5937 9cbf
00000530: a63d ce20 5c2f b53f 9f11 3d06 e7f3 96bf
00000540: 0591 0469 7354 a5bf ef6e caa5 ce3a b23f
00000550: ddb8 007d 0e13 cebf e4fa c57b dd44 c8bf
00000560: e7ee c3b8 7940 d33f eed5 1843 f842 ccbf
00000570: 903e 47be ad34 c6bf 777f 9e56 beb9 c0bf
00000580: 1d7d bb67 775d a23f 115b 43a2 ebab d83f
00000590: 666e 13f7 1fa5 cebf d1ef 3388 1402 ce3f
000005a0: 5019 1214 ed27 ac3f a5da 9616 3125 9b3f
000005b0: 5305 e113 47c1 ca3f 7efd f51e bf8e d23f
000005c0: 9b18 5ddc 1ee8 c2bf aec4 1936 5567 a9bf
000005d0: dc95 2f69 afa2 cebf d17e 6d01 9365 c43f
000005e0: 002d c23a fc9e c2bf 0196 89b5 9a0f ce3f
000005f0: 5a76 d833 268d d23f de66 5490 dbae d33f
00000600: 4d38 c90b 342c 94bf 2888 8ba5 bda9 d0bf
00000610: 3b4d 740f 6688 acbf a15a 4481 7b1d b33f
00000620: b516 faa5 99f8 c13f e922 7ef7 ad0c be3f
00000630: 59ff 3b65 9f24 cebf 0ae9 7d51 208c c53f
00000640: 8684 a78a d1e4 a63f e429 b5bf 6ace 963f
00000650: 6700 ec05 5399 c9bf 799a 1be2 0d05 c13f
00000660: 0fa9 5767 057b d03f 031a 3771 2419 993f
00000670: b392 3f15 d40c d0bf 7586 ce96 9bb4 aabf
00000680: ae3f 7e86 1bc0 b4bf bc3a 6428 e81b 9f3f
00000690: c91b dbf3 4b1f c9bf 5c4f 9aa5 a24c acbf
000006a0: c321 b697 a390 c13f 9957 591c 0e6c d5bf
000006b0: 022e 92e2 8d31 d03f 7bc7 bc22 000d c03f
000006c0: 8bc5 2ed6 884a b93f 0d1d ee8f c03d b4bf
000006d0: 53f3 afd6 6d66 cc3f b392 2050 249a b2bf
000006e0: c4b7 072c e359 b2bf cf2b 47ad 9f6e c1bf
000006f0: 6bec f2a1 fd08 cc3f c73a 12d6 4ea8 b73f
00000700: 0376 d030 bede ba3f e37c 2bb6 ca27 d6bf
00000710: 4403 7ad3 44b1 c1bf ce3e 09a3 c24d babf
00000720: a172 cb52 4487 d3bf 87fd ddee 1de1 b8bf
00000730: 75b1 bb9e 3c03 c13f 42b6 2c80 f70f b03f
00000740: fc8f 8240 543b bb3f 6ee5 a158 423a a23f
00000750: 3687 fb95 d5a8 b4bf f0f1 846b 1702 d93f
00000760: 958e 6a8f 6457 cc3f 1dc4 8c9f f5f9 6b3f
00000770: 82d8 8f3b 62b8 ccbf 9133 1c96 427d d2bf
00000780: dd8e fb79 1097 ab3f 72f0 2778 3217 ab3f
00000790: b30d aa35 d4a7 b6bf 622e 95c4 cc01 bbbf
000007a0: e3e7 3cf0 e042 9f3f 9039 de07 7edc 9dbf
000007b0: 2e34 ec19 9dc3 99bf 8851 4751 4120 9a3f
000007c0: 4529 8729 ea2e b1bf fb4e e767 bfce d0bf
000007d0: b49c 1779 3591 bfbf 1115 204c c62a ddbf
000007e0: e763 6dd7 1522 84bf 595b feac dedc c73f
000007f0: 2a09 ab4e fd3f bfbf 70f3 a42d 89ae cb3f
0.18091933813770564 -0.3072513935514024 0.14774458813132357 -0.18840889175925274 -0.34695395081729574 -0.1636521172791961 -0.18847425088143127 0.020528787271758893
0.08106667148730752 0.08093186182208216 -0.039106603687827195 -0.2192844580881355 -0.03412449643723709 -0.06604931230067314 -0.005369219472874775 -0.1784808070660256
0.07707719902590375 -0.14950961169680022 0.20115500817384538 0.06804119526853246 0.46987176989113644 0.08029696669625708 -0.020250431805291146 -0.05076765417434321
-0.1931980319471899 0.010147301366078732 0.34510706199841185 0.12270389283905955 0.15138092121382524 -0.2788033453267191 -0.08988469239132162 0.08403543081899709
-0.03169693028168405 -0.0017625260330323758 -0.010063226328617416 -0.0743372172483498 0.1267483882173502 -0.13809909747818536 -0.2133832908731255 -0.1862365364524244
-0.16157246598696942 -0.3442452629729587 0.1334011945692922 0.005675487970385861 -0.1754456676111524 -0.1937997175406828 0.05832850647126716 0.03571903788541955
0.22707029967542197 -0.2556232271597082 0.024717354433103356 0.04047690807097735 0.2736983503748708 0.08445080046441475 -0.19038530314229243 0.24506449316063697
-0.1393229143865998 0.04477160146306717 0.05222545346347974 0.35339489388039835 -0.26436227892089137 -0.21300353127132352 -0.07425109190845185 -0.14540343680616127
0.12801569444334893 0.05498466311526434 -0.028538576324558453 -0.1667750823987888 0.08279624532283499 0.045009177703566806 -0.08535484554819972 -0.09608030622044385
0.029135766746564488 0.013663628669336429 0.0012615326116450494 0.18993043516221203 0.2377731026385903 0.24802349438747293 0.30859869946912266 -0.21185263730347753
0.04771829895953108 0.011391205545228015 0.266964119121171 0.12782816797219407 0.24189684146115722 -0.29077805669894846 -0.2017466253890895 0.05957000385841808
0.0637844119168116 -0.14981892393255716 0.1609786621831936 -0.2529631646049074 -0.04160192044710727 -0.07844854381489391 -0.09936233850012398 -0.09670751028079701
0.09548499979071681 0.14956450814318928 0.0690322476795156 0.11792373197708922 -0.5137677559774364 0.06354971440775235 0.0851601496987415 0.15394720503702625
0.05617762626511401 -0.0239699222295076 -0.25443712024350595 -0.1286183638573489 0.014248552625442749 -0.001282139657695191 0.2849800456338395 -0.06947626231819067
0.2300165929969751 0.008216019271735169 -0.47420581194407996 0.08627887274611895 0.15304323208999057 0.34319077375400364 -0.06919397678423572 -0.14498187568459428
-0.15727656929920425 -0.17731555165851975 -0.10892520836011829 -0.0565977276525388 0.1587902573783087 -0.09528149501737526 -0.11096860882726615 -0.0570344673281544
0.031981732362146756 0.10878658165001322 0.012395196735825271 0.06430402277047637 -0.060472985329683586 0.07110004651423288 0.28498672903611016 0.13869492691397728
-0.11462317568529679 -0.4018702231124789 -0.28648007192012115 -0.26876980027575303 0.2596068026905422 -0.2591928542784444 -0.16360011501598673 -0.1220778057264593
-0.07072060797937482 0.06507083148522634 0.14254913708216768 -0.2847661590949873 -0.09541126844299583 -0.08796655970711709 -0.13325142767960432 0.04983278590255553
-0.13298387212550888 0.07728375800323704 0.09988371831600672 -0.07844585942020109 -0.31390155014170956 0.359218302950119 0.04934935994604098 0.16195520392164406
0.2548484959010702 -0.006066025883365874 -0.22202518156070725 -0.2872586711650418 0.09625251736544656 -0.027554885821743938 0.08275390435141236 -0.022414788966914064
-0.04165993363338497 0.07120982692361698 -0.23495656112340316 -0.18960159820195266 0.3008102707242259 -0.22079375530454065 -0.17348262587482965 -0.13066844205331637
0.035869342243808534 0.38549319120413467 -0.23941421093228427 0.23443848276644855 0.05499211187366149 0.02650906277059541 0.209023365694558 0.2899625589706928
-0.14770875701851058 -0.04961649213226714 -0.23933975826291387 0.15934979982102118 -0.14547684544627515 0.2348512064374262 0.28986506522219246 0.30754746527382604
-0.019699872226105964 -0.26036015669353896 -0.055728139292251254 0.07466861635144052 0.14039917568532237 0.11738097469618548 -0.23549263423046332 0.16833881358235941
0.04471449677999666 0.022271793318660374 -0.1999915865817485 0.1329667429010504 0.2575086125567773 0.024509972963437942 -0.250782986402821 -0.052159177931810165
-0.08105632813953775 0.03037989374666482 -0.19626759917284023 -0.05527218123930197 0.13722653301034712 -0.33472016113716446 0.2530245506866039 0.12539674469149617
0.09879355649061076 -0.07906726373595437 0.2218758867528786 -0.07266451793891342 -0.07168407273249416 -0.1361884685596508 0.2190243759885989 0.09241192556712995
0.10496128741984738 -0.34617870130564493 -0.13822231603628599 -0.10274902801870242 -0.3051310356657187 -0.09718501168935322 0.13291127920764337 0.06274363402618469
0.10637404036475567 0.03560073215426028 -0.0807012072723666 0.39075265407498616 0.22141701700922015 0.0034150883988322126 -0.2243769446210458 -0.2888952699584531
0.053886904612026255 0.05291135517833902 -0.08849836645281677 -0.10549621390708233 0.03052855936332567 -0.029161423902729633 -0.025160269458002364 0.02551366861901408
-0.06712211145273723 -0.26261887690382907 -0.12330946165421858 -0.4557357543383925 -0.00983063758546794 0.18642791220619406 -0.12207015200241203 0.21626391152122038

base.actor.actor_fc1.bias f8 [64]
00000000: c251 6eeb daad aa3f 5697 e3a0 41b8 b33f
00000010: 406b ac30 1052 b33f 48e8 10dc b5c4 923f
00000020: dd10 59ae d2a2 a13f e192 eff3 8176 bcbf
00000030: 1ffe 3c43 8211 c1bf 80fb dde4 0cf1 90bf
00000040: dd51 19e2 aa90 913f b894 4822 49c1 b83f
00000050: 73e6 99ea da28 bf3f 7585 e05e 379d c93f
00000060: a4ba 572d 1b4c c7bf 595e 1ac9 86cf 9cbf
00000070: add7 fb86 794c babf 059f 3d4f 04ff ccbf
00000080: 6698 451d 8ebd b2bf 262d 3ccf 9b80 81bf
00000090: a8d5 631f b596 bb3f ad0e bb86 5595 cabf
000000a0: 76db 4d75 16c3 c53f 37ad 3b2d 00e5 c2bf
000000b0: 557f 82d4 158c c43f 1ccd 267e d8a3 a93f
000000c0: 39a2 1cbe 1fc2 983f f3b5 0320 8dad a3bf
000000d0: 0182 dd51 bed3 60bf 8f66 f7a2 f152 bfbf
000000e0: 10f8 f54b a6f3 9abf f68a bdab a7d5 a43f
000000f0: 9198 361c ddc0 a2bf 4ed9 d379 7264 b53f
00000100: a614 b6e7 8797 8e3f 1a02 cc01 dc04 40bf
00000110: 5ed3 392e 1dea 893f 5ca9 ef63 9b2c a23f
00000120: 288d c44c 9b04 c13f 6f2f 73fd 6950 b0bf
00000130: 708e 3c69 cb76 c5bf 3748 06a9 95b1 b03f
00000140: 2d10 0ab0 f4e3 c5bf 5cc2 2103 5420 75bf
00000150: 3276 39f2 b8fb ab3f b1f5 c90d 8b95 c13f
00000160: 8f36 9191 176c b83f e67e 375c 1065 a53f
00000170: 2e40 adfd 0de7 b7bf 525d 440d 4bf8 b0bf
00000180: a1ed 5119 4cc2 c0bf 932b 0ecd 1793 953f
00000190: 96c8 117f 628d b33f 2ec9 ddfe 6172 b53f
000001a0: 7ef4 6ad1 edcc bfbf 67ee 5aaa 57a7 b6bf
000001b0: 510d d1d2 8b7f 8d3f e1ee 2e1c 4048 8dbf
000001c0: 0f99 49bf 2d20 a5bf 84f7 0c2a 7fee 803f
000001d0: be15 2e59 e941 bdbf 45ae d211 7630 983f
000001e0: 9a35 e389 2d62 913f 9aee 3395 3bb8 b5bf
000001f0: 0312 fa7a 6deb ba3f cc9e ee23 5f22 ab3f
0.05210765956795484 0.07703027894930634 0.07547093571012642 0.018328515583768273 0.03444536569853238 -0.11118328290428849 -0.13334682734601785 -0.0165445341767696
0.01715342526434137 0.09669930541038496 0.12171714999740306 0.2001103604571132 -0.18201007570265404 -0.028135400795319707 -0.10272941155912348 -0.22653249615836316
-0.07320488180775583 -0.008546082746326688 0.10776836410862833 -0.2076823146691046 0.17001610496273728 -0.14761354645393407 0.16052506329014685 0.05007816829620479
0.02417802427149438 -0.03843346610834066 -0.002054092138607411 -0.1223593733660897 -0.026320074449806496 0.04069255801620912 -0.03662768334770406 0.08356395220093768
0.014937459715620282 -0.0004888605359099657 0.012653568242265652 0.03549657435344741 0.1329530835001631 -0.06372702062361467 -0.16768782270911542 0.06520972611022634
-0.1710191592757168 -0.005157783673084806 0.054654864853301524 0.1373761956528319 0.09539935401809373 0.04178668142026058 -0.09336936419754302 -0.0662886531248337
-0.13092948185281464 0.021068927660546754 0.07637611009866627 0.08377659294436476 -0.12422071802844134 -0.08849094304144388 0.014403431292641019 -0.014297963008963634
-0.04126112899830236 0.008267396422180225 -0.11428697993513645 0.023622364843204364 0.01697608141039595 -0.08484241860053957 0.10515484096874421 0.052996609817737544

base.actor.actor_fc2.weight f8 [64, 64]
00000000: f4f6 abfe a212 883f fc63 5c21 4375 93bf
00000010: 0d0e 9481 2e63 a6bf 933c d4ad 561b ae3f
00000020: ffc9 5485 44ad c03f 0401 dc58 7ff4 c73f
00000030: 0f90 1393 1454 34bf 0b22 1e3c afab c93f
00000040: 440f fbf9 ffc2 873f 4584 fa4a b9f9 b4bf
00000050: 5e69 7a9c 26dd cdbf eca7 7b52 2d5d 73bf
00000060: af40 faf0 256e d63f e563 62b6 a1ce c8bf
00000070: 1b3c 92b1 1b4e c83f 7a71 4d9c 9689 bb3f
00000080: 3001 f4b2 57d0 93bf b91b 51e8 5cf5 bb3f
00000090: f72e 33b0 823a bcbf 3854 a64f de13 d3bf
000000a0: 55a3 1706 0722 b83f 8773 1dfc 8d5f c63f
000000b0: 31f6 fdd1 3d5c bc3f d7d0 e731 deac a4bf
000000c0: 851d 072e 7df5 a23f 6e30 975d d7ec d43f
000000d0: 8aa8 e3df f6e9 ac3f fcc1 aedb 6f08 c23f
000000e0: 4212 6d2c 80fb bc3f 7901 05ce ba2d c23f
000000f0: 4a90 6507 abf5 a8bf cc0b be94 7c3e b6bf
00000100: 4e88 0165 2905 d23f c52b b1e8 eac5 c5bf
00000110: e107 ec82 9c36 c4bf f46e 9559 bece 40bf
00000120: aa3f 7600 3a6e b0bf 5d31 fcc4 3e3b cd3f
00000130: a8f3 42a2 cdd2 88bf d731 3228 9efb c33f
00000140: 8ea9 e6b0 6564 bf3f b75c debd 8c38 b2bf
00000150: 602a 5f31 b0c8 933f 1ad2 b441 2d1e c63f
00000160: 14f6 63d4 650d a83f e70f 2e68 7f29 b23f
00000170: d6a3 535e 3986 d03f 3f67 5ad1 42df 9ebf
00000180: 9662 b14c 473d b83f db34 02b6 c435 b2bf
00000190: 83b9 6925 a72f 8cbf ab69 edbc 4f76 a53f
000001a0: ca9f 6257 152b cbbf 5b2b 426a d8ab 653f
000001b0: 5c63 49a6 950f b5bf 47f8 338b fbc4 b8bf
000001c0: f796 62f9 2e21 a0bf 9553 5be7 af85 a5bf
000001d0: d470 cdd2 8c1e c2bf 08c2 3e79 01a8 d53f
000001e0: 7e12 3f59 f195 b53f 31b0 541f 2409 cabf
000001f0: 74c7 893a fa55 c03f f070 70a7 de03 ce3f
00000200: a9ac ab75 3c26 cc3f 363a 2842 b2fe a8bf
00000210: 3d71 4e5a 9ac0 703f 6e1b d43a d79f bfbf
00000220: 2f2e 0b0e 9b93 96bf 1146 ce6c e0c5 a0bf
00000230: 3080 e77e ce2e d63f 70ae 15c0 fd25 b73f
00000240: 3b09 a174 be9e a2bf 1822 09a3 1343 a6bf
00000250: a425 8234 aa6d ad3f ce87 304d 9d91 c73f
00000260: 9103 4f82 f5b4 acbf 5c89 8d45 7f56 9d3f
00000270: d7c3 a1ca 3f10 d03f 0d59 193c 17a0 893f
00000280: 51f1 aef0 1e84 71bf 593c 95f9 efe7 afbf
00000290: 4d16 eabf 2679 d23f d177 4adf ac3c c43f
000002a0: 5e8e 8f21 fb81 883f caf6 7e94 eb95 a3bf
000002b0: 26f0 5e13 1c93 d0bf 7e97 d0f8 f23a acbf
000002c0: 9392 fd31 d58e b63f 6573 f044 51a4 d03f
000002d0: 671a 24db 2654 c13f 7901 e04f d093 cebf
000002e0: 636b d0eb aa7c cabf c907 1577 8d8c b23f
000002f0: 6b89 029c b010 c53f 3ba8 9828 9588 b33f
00000300: 7485 0f2c c1cc b3bf ee4e 54d1 053b bfbf
00000310: 3d13 4d38 2caf c1bf fdcd a223 d96b a23f
00000320: 6e11 ccc6 9b35 be3f 45b2 4aff 9cd7 ca3f
00000330: 90a1 ecfa a9ea b33f c779 ef58 950c ba3f
00000340: 877c 9a37 7093 c63f 6002 2b74 343d c4bf
00000350: 566c f308 1d64 a3bf 7790 cc0d e9bb b03f
00000360: 7e25 b317 2054 9a3f 96fd 9ffa 6d68 c2bf
00000370: e084 3b49 8be9 a53f 7675 df87 2d85 c53f
00000380: 5f1e b43e cc45 843f 9a22 febe 220d 913f
00000390: 1aa5 a031 8457 d7bf 8268 816a 7f14 ad3f
000003a0: 0d4e fdb5 be9b b7bf 781c 37f1 03df a23f
000003b0: 2f08 7ce1 2676 ae3f 6071 c8c4 565d d53f
000003c0: 3e2a 64fe 9fdf 96bf a4da 9e39 6ae8 9cbf
000003d0: 7263 b5ab f7a4 b9bf 5648 6aa9 02f5 77bf
000003e0: c8d9 4d10 6e6c b7bf f7f7 f12c 33cf d0bf
000003f0: 3787 4571 ca11 ac3f 02e7 4a12 eb8a b9bf
00000400: 1928 7316 ac68 8abf 0f17 0856 254f c6bf
00000410: 5481 43ab a420 b43f 4d41 d41d dddc 8a3f
00000420: c304 3661 7f7e bfbf 8935 1ccc f204 cebf
00000430: f99d a20e 5a91 bbbf 5d89 7d44 843d b73f
00000440: 6107 be93 7e17 a5bf 83e5 4323 acea ba3f
00000450: 6335 cb87 aa16 ac3f a12e 86d4 5a96 bbbf
00000460: c263 073d 1f85 bbbf d137 bc38 812c 95bf
00000470: 9664 ea8a 4a8f 7abf 68f2 26f6 238a babf
00000480: c198 3c84 6b8e b1bf 89bc 5ce3 23a6 963f
00000490: a59b 0048 f3e4 d6bf bcef d074 c90b c03f
000004a0: 73d1 8fe0 fef2 c03f b2af 2cda 3e61 b7bf
000004b0: 499f d46c c2dd b8bf 80e1 5399 bb3d c5bf
000004c0: 5f11 fae4 6eb0 b3bf cedd 7ac3 9b63 bebf
000004d0: 71c7 20d6 ae8e c83f 0557 1c74 dceb ca3f
000004e0: 71a3 ac84 319d a63f bed3 70dd c0f2 c43f
000004f0: 452c 8676 9689 c43f 2a83 baa0 2387 d43f
00000500: 5bed 475d df47 d43f aef1 003a b3db a3bf
00000510: 0c17 3759 b5a7 a43f fa1a 7d2d 7506 c23f
00000520: c783 d71f 3c11 c8bf e214 1840 b669 be3f
00000530: a426 919a dddf a53f 7a49 e217 23e8 c2bf
00000540: a49b ff08 6a72 b53f 4fcb c0c6 c27f bbbf
00000550: ab6f 2af6 2bdd d23f d194 fd10 ac33 ca3f
00000560: 210b d375 f9d9 d93f f6ff 6f0d bfed c0bf
00000570: b65b 386e da17 cabf f283 9a45 412c d2bf
00000580: c69c 77f9 9371 d0bf 9561 b897 edf3 9d3f
00000590: af53 ee4b 19ba bc3f 8630 08cf d254 c8bf
000005a0: 09f4 ec05 93bf a43f d4e9 8f6e 6b81 d13f
000005b0: dd9a 3dc5 b7a5 b1bf fffd 8566 e045 c23f
000005c0: 7904 ca64 9560 b23f 2805 80b1 038a a33f
000005d0: 1472 a045 41c2 b83f b69a d4fa ef8b c73f
000005e0: 210f 3d6b 96fa a6bf 87b4 a59a ebf2 c8bf
000005f0: eff7 6add a11d c0bf 58fa 7f12 0e11 a7bf
00000600: 2bc9 deaf 3d09 823f 84c7 82fc 9b52 703f
00000610: d391 fb74 a813 913f 14b2 f864 7e2d acbf
00000620: d0f8 a272 cf2d b3bf cec1 0111 9656 c83f
00000630: 3121 bd2a a982 a9bf 24a8 e650 1e35 863f
00000640: 23a5 0396 33c5 c93f bd5f a967 a002 cfbf
00000650: 591e 0fd6 4f4d ca3f eb3b 696b fa04 c53f
00000660: f7d3 14a4 53ce c4bf d0fa f74c 83b4 c1bf
00000670: ccc4 1063 a897 e0bf 6236 25b2 898f d0bf
00000680: 07fe bff1 9961 c33f 7849 f960 cc29 b0bf
00000690: b308 7c91 f6f2 c33f b8b1 7f6d 21e9 a4bf
000006a0: efff d9aa 2d42 da3f fd2f 7090 d26c ab3f
000006b0: 309c 96d1 ae68 bc3f cabb 300f 4f80 c5bf
000006c0: 46c2 1ee9 7d36 b33f 61f3 3133 9223 763f
000006d0: 9963 e744 95aa b23f e715 2f53 aa50 cb3f
000006e0: a7c9 0e3a bb29 953f 281e 6049 c8aa b43f
000006f0: 1b3c e439 898d d03f e0d6 29e7 bec8 5ebf
00000700: fc93 6d92 a99f c6bf a0b6 0239 15ae c73f
00000710: 2e86 cde7 f74c 8ebf 9745 82e1 7ec7 b7bf
00000720: 5ee2 1ee9 6228 c03f 3f9c 9fbc 9cfb ccbf
00000730: 3ca6 c4c9 2b8e 903f 43b4 cb47 62d6 c13f
00000740: 70be 820c 5a1f d3bf 2626 86bf e020 cbbf
00000750: d12c 08ce 05f2 cfbf f489 4763 3f43 d33f
00000760: 9bf1 e10f 53b4 d2bf 394b 4ab2 fcf2 c7bf
00000770: d36b 006d ed6c d43f e852 52f4 4bbf ab3f
00000780: 0be5 38ab bca2 c4bf 9335 eab4 96c8 c33f
00000790: cc68 c2f3 19ee ac3f 393f aa2e f8b6 aebf
000007a0: d75c 1b56 78ef e03f 6905 c6f9 fe10 cf3f
000007b0: 0bae ac1c ec15 cd3f ff0c 6ecc 1f05 e2bf
000007c0: e075 5ecc 2e99 c9bf 826f bfe1 6b5d c13f
000007d0: 7ce9 af48 1d50 8dbf 08fa 4c9c fede 703f
000007e0: bc06 552a 8e96 c43f 315c cede a673 883f
000007f0: 001e bad4 045d cf3f d5ab b50f f416 b23f
0.011754296681370381 -0.019002007399738105 -0.04372544605032767 0.05880232688843381 0.13028770933449604 0.18714897002065112 -0.0003101873617892278 0.2005518954795352
0.0116024015582138 -0.08193548279315717 -0.23331148758445414 -0.004727532424775287 0.3504729131027586 -0.19380589871869272 0.18988367243261525 0.10756818119029346
-0.01934945134871774 0.10921269103810873 -0.11026779939419017 -0.29808767107289524 0.09426921747912094 0.17479109583191763 0.11078249336966263 -0.04038137778471345
0.037029182308795185 0.3269556440325293 0.056472506361232425 0.14088247515384456 0.11321259579296686 0.14202055987881204 -0.04874929871837759 -0.08689097052960831
0.2815650450121482 -0.17010246622007066 -0.15791660683322475 -0.0005129270022438946 -0.06418192397381853 0.22837051981367554 -0.012120825304345065 0.15611626589487912
0.12262569016335176 -0.07117538104499742 0.019320252431308638 0.17279592235867441 0.046977216888972745 0.07094570439772917 0.2581923886451113 -0.03014854815282963
0.09468503591905128 -0.07113294070787239 -0.013762765721563102 0.04191826993219946 -0.2122522999463839 0.0026454188210371216 -0.08226905164464199 -0.09675571583281438
-0.03150316995860963 -0.04203557681254392 -0.14155731480685196 0.33837925758692267 0.08431919506899452 -0.20340396432709576 0.1276238237219861 0.23449309516661954
0.21991687532076767 -0.04881817872602705 0.004089930477587264 -0.12353272615665187 -0.022047445995481304 -0.03275967910952827 0.3466068496036341 0.09042344989364337
-0.036367370354599214 -0.04348050465756986 0.05747730151149291 0.18413130063078004 -0.0560681077545332 0.02865027296082566 0.2509917715861411 0.012512380143715274
-0.0042763908958785716 -0.0623164169470491 0.28864449254647156 0.15810166266322637 0.011966669046109487 -0.03825317561812154 -0.2589788617294765 -0.05513724601068669
0.08811695547553659 0.26002914173459707 0.13538060856099607 -0.23888591671130735 -0.20692955507623897 0.07245716244963697 0.16457183473273615 0.07630283585663815
-0.07734305692385651 -0.12199436531619387 -0.1381583475978462 0.03597906646737312 0.11800550082631897 0.20970499482554508 0.07779943824846769 0.10175450726772005
0.17637446131718468 -0.1581178252436244 -0.03787317976249287 0.0653672846497687 0.025711537786980092 -0.143811938643904 0.04279742497397776 0.16812676557939782
0.009898753799020442 0.016651671321172935 -0.3647165760654204 0.0567970101844404 -0.09222022955992078 0.03685772246859015 0.05949517729278885 0.3338219567974843
-0.022337436582384955 -0.028230342642667453 -0.10017345373252143 -0.005848894498415266 -0.0914982595257704 -0.26264647854975415 0.05482323296270269 -0.09977597424122212
-0.012894958911051234 -0.17429033947717484 0.07862309628717884 0.013116576645672362 -0.12302394984546354 -0.234526014006786 -0.10768664223962067 0.09078241989258147
-0.04119487336630701 0.10514331685035043 0.0548604288829704 -0.10776298225953919 -0.10750003089869067 -0.020677584731906343 -0.006484309370216176 -0.10367035636495248
-0.0685794065326233 0.022118149520960393 -0.3577240183971589 0.12535970882333725 0.13241563763552797 -0.09132759882476085 -0.09713378102298721 -0.16594643580152635
-0.07691090669874744 -0.11870740435084956 0.1918543382212721 0.2103229109713355 0.0441680407005326 0.16365824520621958 0.16044884478864865 0.3207482404341585
0.3168867503115586 -0.03878555377056912 0.04034201349308661 0.14082207413795073 -0.188025966213017 0.11880053581997488 0.042723584287683 -0.14770926157195757
0.08377707214059044 -0.10741822578783665 0.29474925078988673 0.20470190839402005 0.4039291048649592 -0.13225544124725247 -0.20385294324725373 -0.28395110890602304
-0.25693225252184637 0.02925082434203004 0.1122146425607997 -0.19008860692008883 0.04052409598669022 0.27352414891325094 -0.06893490376897256 0.14275746351266602
0.07178624830886972 0.03816234151600845 0.09671409559127425 0.1839580511816245 -0.04488058146537655 -0.19491334010254865 -0.12590430556696172 -0.045051994093218084
0.00880668824160987 0.0039850323884581575 0.016676551952416418 -0.055034589601152956 -0.07491776036019648 0.19014240103162056 -0.049824987856995746 0.010843502849486049
0.20133061242021552 -0.2422676569137802 0.20548437072851547 0.16421442265206507 -0.16254659187111972 -0.1383213163207615 -0.5185129103539565 -0.25876085659988324
0.15141605667302846 -0.06313779227756366 0.15585214713798265 -0.04084114514975873 0.4102892082664757 0.05356462491189971 0.11097233406927454 -0.16797817460743963
0.07505022946748693 0.005405016988444839 0.07291539127562742 0.2133992105647586 0.020667004984440542 0.08073093215363569 0.258638674292287 -0.0018789161955771669
-0.17674750947767837 0.18500008853645955 -0.014795243035851415 -0.09288781171405557 0.12623249419063404 -0.22642859659319645 0.016167339506102815 0.13935497766161306
-0.29878855916738356 -0.2119408545661809 -0.2495734458937933 0.3009794683004252 -0.2922561316588827 -0.18710287767006564 0.31914840359394 0.05419385297242291
-0.16121633873425653 0.15455898126348852 0.05650406933382754 -0.05998969621316381 0.5292321855330567 0.24270617671940478 0.22723151588557786 -0.5631255142947394
-0.1999872682471695 0.13566349528161586 -0.014312962322936988 0.00411891419645239 0.16084458415030223 0.011939338373663318 0.2450262106615213 0.07066274055038886

base.actor.actor_fc2.bias f8 [64]
00000000: 7729 195a a2dc abbf 3aac bca8 876d 9c3f
00000010: 750a 2320 f027 b23f 61c0 32fa af01 bd3f
00000020: c8c1 553b f18b 7f3f 039e 0279 08a5 963f
00000030: c36d 4a8f 1fbd a73f 6f71 9492 2e70 603f
00000040: ca6f 5e90 4859 b13f f37f 72db 1057 8cbf
00000050: 80e9 aa73 84e3 9cbf d92b a406 25b8 b3bf
00000060: eb01 1730 cad2 3dbf c7c5 6e82 750b c03f
00000070: 6aa3 becc d722 a5bf c7a1 d715 77bb a8bf
00000080: 1858 ab37 a0a6 713f c81b e03c 2ab2 a33f
00000090: 697e ee20 eec8 b0bf 13a6 0206 82d9 b8bf
000000a0: f10c ed03 b47c 99bf 39ac 9104 06c2 b5bf
000000b0: fee6 d841 01c3 ae3f 41df e818 c794 b2bf
000000c0: ff44 43da ccef 993f 9da2 342f a292 bc3f
000000d0: 42ec 7914 9edf b33f 745b 084e 3fdc c2bf
000000e0: 519b b956 42a9 883f 305e a81f 14fc ba3f
000000f0: 017b 9059 3ee9 86bf c90c 434b 3860 95bf
00000100: d8bd 63d8 a8fa a6bf a0f4 af1c e394 b2bf
00000110: 1850 6c65 7265 b9bf 1c75 3b84 cb51 a7bf
00000120: 9e76 2ab6 d90c b8bf 3694 3a9b 6bdc b03f
00000130: f930 2504 9765 b7bf 6a2d 658b f612 b9bf
00000140: fe93 d5a1 c6da aebf 5bce d480 5ef3 a23f
00000150: 77c6 d0ae b1bc b6bf 4a20 000e a12d b13f
00000160: 3e24 9006 f2b9 a6bf b0d7 48e8 ed30 9d3f
00000170: ddb4 7ceb 6361 813f e273 11a2 024e 703f
00000180: 0942 bf46 db79 bfbf 7d26 cb6d a251 ba3f
00000190: 4f80 9208 20e7 9dbf 0d97 2f75 37ee a73f
000001a0: bc8d 9112 7495 b23f c633 98b1 e673 9c3f
000001b0: 0764 24a8 a4f8 b7bf 94be 25d2 5935 76bf
000001c0: c08e 3743 1d36 a83f 92bb ab3f c132 b43f
000001d0: 6918 ab7a 522d a7bf bf07 d9ef 5d29 b13f
000001e0: a812 24b8 2f57 a03f 9791 b46c be7a b7bf
000001f0: 7557 3393 a990 acbf 427d da94 ba42 abbf
-0.05441768026192311 0.027761573480500547 0.07092190537063366 0.11330699785571731 0.007701818763380115 0.022113926301839736 0.04636477111963757 0.002006617509904433
0.06776860737448867 -0.013837939927100229 -0.028211659965316382 -0.07702857410565346 -0.00045506893374283483 0.12534970158371392 -0.041281455748793786 -0.0483052457964877
0.004309297418066314 0.03846866601093485 -0.06556595138544598 -0.09706890722977617 -0.02488976739847443 -0.08499181376980482 0.06008151940154781 -0.07258266790529168
0.025328827687933316 0.11161245014649031 0.0776308822623131 -0.14734641370952384 0.012041586181295168 0.10540891430752519 -0.011187064274108762 -0.020874862283346816
-0.044881130614040365 -0.07258433771490269 -0.09920420623922188 -0.045545921222336555 -0.0939460820904636 0.06586334743276798 -0.09139388896182145 -0.09794560340121952
-0.06026287770763615 0.03701300928733239 -0.08881674306828723 0.06710249511536506 -0.044387400914339 0.028506963064692747 0.008486538528439553 0.003980646405662621
-0.12295313336586146 0.10280814342982043 -0.029201984904489383 0.04673932366840292 0.0725929780324383 0.027785877789984224 -0.09363774399788848 -0.005421973097653816
0.047287859397127985 0.07889945797408718 -0.04526765582481646 0.06703745942743831 0.03191517947019423 -0.09171667245806812 -0.0557911865413833 -0.05324347559985167

base.actor.actor_fc3.weight f8 [8, 64]
00000000: aa1d 9084 d1b8 81bf 45ce 8ad7 0cad 74bf
00000010: 3eb2 0ec0 ae76 553f 22e3 4a41 0965 c33f
00000020: 95f9 6ccf c6b2 893f 4c49 58e2 ca0c b23f
00000030: 3d1e 41ec 2b8e a03f 9933 53ac 169b 9d3f
00000040: c441 3467 565c 993f 718b ecb2 5040 94bf
00000050: 6f41 b68a c018 94bf ca56 05d4 938d 8b3f
00000060: 46a0 b23e 82c9 963f ad93 0ce1 81bd a7bf
00000070: 7de6 1ab2 007c b83f 036d 9650 ec75 9a3f
00000080: 9076 8768 c63b b0bf ee3c 784b 40b4 83bf
00000090: ea31 efbc cd2f b0bf 9710 6a0e a21c 913f
000000a0: a9ea a932 5728 a7bf ceaa 5b04 1dc5 a43f
000000b0: 9c7b 4bb5 134b 7e3f 3f8f 5108 37e3 57bf
000000c0: 2f9d 2c40 6861 99bf ddda 6125 f5b7 953f
000000d0: 9a28 ee44 1ef7 973f b7c0 5fb5 1bfc 9abf
000000e0: f239 dff2 1cd5 70bf 0ca7 364a bb40 bcbf
000000f0: 28a2 04cb 8505 a23f dc23 662d eb95 90bf
00000100: c3fe b691 b29d adbf 494d eac3 26e9 91bf
00000110: ec8a 2373 3d2d 91bf a79b e0d6 ee7e b4bf
00000120: ff4c 02a6 5fc8 b4bf 75ee 95ef 15a4 8dbf
00000130: e5e5 fe9f 1fb9 af3f 9945 6aaf 1884 b7bf
00000140: 59c4 6d8c ef86 c2bf 27a2 db3f 7114 c2bf
00000150: d357 05c6 0e98 b4bf 7a22 b886 0bc6 95bf
00000160: 5ed9 7820 2323 94bf b909 b3ce 4fd6 a93f
00000170: 330a 2d3b 7f0b a3bf 3f6a dfee d423 aebf
00000180: 7168 7825 da90 a7bf 6773 5a24 2a3f 92bf
00000190: 03c7 e390 f1c8 a0bf ba35 4109 a964 af3f
000001a0: a902 5a85 675f b33f 0083 7a20 4b66 7ebf
000001b0: cd86 fef3 6aec a6bf 73ed 9f26 e12b 9f3f
000001c0: f188 c5bb e98c a0bf 53b9 6b9a ac91 603f
000001d0: 0785 74ec 1496 9dbf 468d b782 db80 963f
000001e0: 1e73 4125 d232 b23f db77 6694 6555 a73f
000001f0: 5c05 9610 1773 b7bf e32c 8f3f e2e3 b53f
00000200: 6c97 4a87 ad0d afbf 56ec e995 ad5a a03f
00000210: 0923 9e2a 098d 733f 526f 7a74 31d4 b6bf
00000220: 2967 750e e9b9 7b3f cbb8 b1a9 4ce1 c03f
00000230: 82d4 dc9d ffd7 b03f e244 c02c 7793 a2bf
00000240: 4e08 c002 1042 46bf aa75 2fd2 feb6 bebf
00000250: 81cb b5c5 bd78 a03f cb17 c8b5 deba 903f
00000260: 65d2 6cb2 0ff5 a43f f47e ae32 504c 55bf
00000270: 4eeb ac71 8a34 94bf 1e07 3780 3cf6 a1bf
00000280: 37a6 0993 b01e a5bf e938 699c 2bd0 afbf
00000290: eb74 dd2a a41c a13f a15e 9cc7 75d7 93bf
000002a0: 9f56 5043 396e b73f 647d 0eb1 0184 b4bf
000002b0: c00f ea82 0236 b33f 5a44 ea9f eb36 93bf
000002c0: c816 485b c095 84bf 0090 b8eb d3a6 a7bf
000002d0: e887 c4b7 db80 a13f 3fab 4a54 9e00 a5bf
000002e0: 13c3 c309 ae2e a73f 3a06 cc77 294a 903f
000002f0: 9dd1 e96a a240 6a3f 9d65 5fb9 f2c5 b53f
00000300: 4def 39b2 32aa 90bf d6da 4913 5bb1 b23f
00000310: 2161 088a 8823 b0bf 3d72 0316 b1e3 9c3f
00000320: 2d44 da80 bb96 933f 4f7a b8e6 521d bcbf
00000330: cfdb f0e7 efe6 ab3f 2c9e 0a5c 1068 b73f
00000340: 5751 4021 a291 8ebf 4cd7 0aa9 a336 56bf
00000350: fcc1 a9d1 2d22 99bf 08bf b813 fb53 bcbf
00000360: d28a 6d31 fdff 62bf 7084 f10a fb8a b23f
00000370: 64e2 f2a7 af98 bfbf c8ce d8e0 3664 9f3f
00000380: 0bc7 b45d 955b b0bf 9476 47bc 147c abbf
00000390: 10e4 2be6 5f85 b83f 8fcc dce1 57fa ab3f
000003a0: 216f 82b8 b6cb b73f 1843 05be 932b b4bf
000003b0: f1ae baaa 1d58 b4bf 04d1 117c 9504 a9bf
000003c0: fa52 6b04 3c56 99bf b72e 1be7 9cb7 abbf
000003d0: 9970 2fdd c47a 8c3f 6ad1 4086 b99b b53f
000003e0: 9c9a 4f2e 5921 b3bf 2603 5497 432b aa3f
000003f0: 0cb5 6b08 f9c0 6cbf 3098 44b0 c039 bbbf
00000400: 26fd 132b 82c5 403f 5150 42af 814e a3bf
00000410: eca4 7a28 2dab bbbf 8b2a 67e4 358d aebf
00000420: 0455 2d6a 0f6e a8bf a4fc f55a a0ab 793f
00000430: 818a 6028 9421 aebf 3a90 0f4e 36c5 ad3f
00000440: 3757 400c 36e2 71bf 9014 f787 f222 60bf
00000450: 7411 672b 03b6 bb3f 74d7 4803 9620 b33f
00000460: 69cd 6322 a5ed a93f 7417 c542 dde9 9fbf
00000470: 95a6 850b 9abd 74bf 42fe ec02 04b1 9d3f
00000480: 814c aaf0 6fee adbf 26e1 8b78 d186 a93f
00000490: d87a ce48 f0b7 abbf 6a42 31cc a784 ac3f
000004a0: 0564 3add 42ca a2bf 3e69 a5c1 1783 8f3f
000004b0: d74b 2e19 ec3a 9ebf 7ddd d73f 087f a4bf
000004c0: 3542 da32 aa3c aa3f 9b29 b27c cc95 86bf
000004d0: 0e61 635c 2dc7 463f 6b5d 28fa 7893 aa3f
000004e0: e7e5 ce31 7188 7bbf 215a 6ff5 f0e8 963f
000004f0: 26f3 630e e946 a23f 6931 4d82 9c22 ae3f
00000500: 86a9 ebe6 af57 77bf ef02 00bb ff5b a43f
00000510: b647 6d17 b3c4 a43f 5a21 df7d 4e3f a53f
00000520: 7417 a005 cafb 753f 597e 960a 3d9d 90bf
00000530: b237 6a0d dc52 b63f aae1 d9e0 5802 85bf
00000540: 0270 66f7 f91c 91bf d4c5 ee88 dc9d b8bf
00000550: acca a487 2213 a2bf b046 ca42 ab31 80bf
00000560: 8480 d277 12fa 983f 8503 7a25 6fcb a93f
00000570: f907 efe1 68db 9c3f ceab 4e3d 6e4d b43f
00000580: 9a3e 9ee8 1c36 9a3f 8761 1a02 037a 80bf
00000590: 93c0 22a6 66d3 9dbf 3f31 ba0c 65c8 ad3f
000005a0: 24d9 30a4 eab3 71bf b764 51d3 6898 aa3f
000005b0: 6a1b 793c fdf5 9cbf 22ba 01a2 a2e8 b13f
000005c0: 877b bfe9 ecaf 15bf f193 0023 6a96 b73f
000005d0: 3c9e ca11 6d6d a03f ae8b 5127 20cd 30bf
000005e0: fcba e031 247d acbf 0398 e28a 4322 673f
000005f0: b1f2 51bf 12ab a83f 9a9a c3ad 4244 96bf
00000600: 91cc 8a7f 2cef 95bf 6979 61b8 ce3e a5bf
00000610: 4e79 5772 c67d 8a3f 87b7 1ee4 14cf 8bbf
00000620: 6b5b bfd8 beb0 adbf 423f dcd6 6846 8abf
00000630: 6712 98b9 1d6e b43f ab83 a008 a033 a4bf
00000640: c9c4 28ef c2cd a03f 1d10 430b 3fd4 aebf
00000650: 90fb f5a0 6238 a13f c8b1 dc60 5866 abbf
00000660: 0851 4678 2306 a83f e5d8 2c0c 7a8f 99bf
00000670: f44e 4ae5 f15f c5bf 0179 2621 3da6 a83f
00000680: f214 452d 2dc4 93bf bc8b fd55 3d0b 953f
00000690: 9ec8 cddd 44bd 9cbf fd5e 4762 8dff b73f
000006a0: 44da e958 9d9d 953f 882f f73d 8324 a3bf
000006b0: 9037 0b8d 0bd6 afbf 94fc 2d45 22d4 be3f
000006c0: ef7c 4933 55c6 92bf 5a39 93c9 ec38 b4bf
000006d0: b95d 4083 7515 abbf 523c 90d4 4ed7 b13f
000006e0: 0ea6 110c 3c60 81bf 6cdd 5a52 ac55 b2bf
000006f0: 2f95 0845 0ec2 803f c8f8 78d9 fbb6 a5bf
00000700: 2388 5a88 d570 a93f 12e3 f6d7 8b79 b6bf
00000710: ca55 b0ae 83b4 a83f cbac 21d1 7fb7 b93f
00000720: 0a15 1f5d 2c37 acbf 2bf1 83b4 2d69 9d3f
00000730: e978 13d8 7470 aebf adc5 81cc 8189 98bf
00000740: 480b dc28 1436 61bf cafb d35a e478 813f
00000750: de39 d13f 11ad 92bf fef3 90ab 9f3d b63f
00000760: 7f25 ab0c 6b79 b7bf b550 c298 dfe3 9a3f
00000770: ea3e 7b9d ecb8 9fbf 6535 e537 5443 a8bf
00000780: f3d2 1614 6e64 71bf adc0 75bd 1893 a33f
00000790: b543 f906 42d7 b03f 4589 c14a c8ed a6bf
000007a0: f626 f37f 29f1 c13f bf6e c206 cfbb 96bf
000007b0: 9a09 2e79 50ec 6e3f 13fe 1d3f 0bf8 a1bf
000007c0: 2913 05d2 bc43 afbf 6988 9cfa ab60 b4bf
000007d0: 24b6 bc22 0c33 b4bf 3832 6851 73ed a9bf
000007e0: 5493 767e 66d0 a43f c357 d635 af07 c23f
000007f0: bf44 bf1f 179c 993f 832e 7fe7 45d2 97bf
-0.008653294427871955 -0.00504784599677383 0.0013100344224127448 0.15152087867843372 0.012548020558480736 0.07050769830701603 0.032334683026928414 0.02891192843235366
0.024766302155571088 -0.019776593132643187 -0.01962567183142155 0.013453631313193343 0.022253069950835667 -0.04636770126516097 0.09564213131207029 0.02584046594493562
-0.06341209461194297 -0.009621145537521216 -0.06322942602782403 0.0167107888505745 -0.04522964948133296 0.0405663554973522 0.007395817742433499 -0.00145798086421052
-0.024785641590964132 0.021209555060034958 0.02340361877171713 -0.026352341599648024 -0.004109490471775322 -0.11036272584774681 0.03519838431595118 -0.016196894308027385
-0.05784376171822949 -0.017490964610783952 -0.01677413954974842 -0.08006184335736909 -0.08118245890573304 -0.0144731248608345 0.06195925548622564 -0.09185938150974095
-0.14474291188119784 -0.14124885194839118 -0.08044521650785379 -0.021263294313060822 -0.01966528783506171 0.05046319387612947 -0.03719709012377272 -0.058867124709383926
-0.04602700908090263 -0.017819078892546438 -0.03278307813333294 0.06131485212300043 0.07567450528768895 -0.007421773399671094 -0.04477247456021658 0.030440824491944917
-0.032325081034985 0.0020225878864642915 -0.0288928288765691 0.02197592721303223 0.07108796510278778 0.045573400845782173 -0.09159988551075088 0.0855084805654545
-0.06065122868066805 0.03194181876184447 0.0047731741013954465 -0.0891753110285525 0.006769094826575097 0.13187559400416257 0.06579587558811009 -0.0362813226821659
-0.0006792619874433998 -0.1199797881267474 0.03217118299917044 0.016337852330273777 0.0409321694664058 -0.0012999327834463644 -0.0197316772348402 -0.0350817591202157
-0.041249769162118026 -0.06213508877100244 0.03342164061789695 -0.019376602466847918 0.09152562993434764 -0.0801392609850971 0.07504287429952594 -0.018764192233508538
-0.010051253114407813 -0.04619467022374124 0.0341862356019787 -0.04102034357977979 0.04527801388929311 0.015907905518366607 0.0032046482295362126 0.08505169892978022
-0.016274253967352426 0.07301873417768986 -0.0630421959871268 0.02821232506618031 0.01912968610719561 -0.10982244618251367 0.054496285498707324 0.09143163916689251
-0.014926211013552999 -0.001355800461323625 -0.024544444963284548 -0.11065644484983406 -0.002319330709199854 0.0724331762044288 -0.1234235558539552 0.030655724977079385
-0.06389745271442508 -0.053681037886900956 0.09578513497753272 0.05464434272871543 0.09295217518450417 -0.07878993405507762 -0.07946954172319544 -0.048863097567762664
-0.024743020791748706 -0.05413523026581173 0.013906038284339938 0.08440742042222885 -0.07472760563505648 0.05111132833736169 -0.0035099853442860426 -0.10634998610893898
0.0005118260943674277 -0.03770833267586283 -0.10808069456347241 -0.05967110074160072 -0.04771469279391208 0.006267191303208328 -0.05884993546375928 0.058145234135537696
-0.004366122364464257 -0.001969789212781743 0.10824603852876696 0.0747159727114573 0.05064121289060603 -0.03116555900603353 -0.005063630808174975 0.028995573690961736
-0.05845975697334272 0.04985670658601497 -0.05413771523239114 0.05569958083708999 -0.03669938040292923 0.01538675842009651 -0.02952164558116607 -0.04003167895637725
0.05124408598669953 -0.011027905993860545 0.0006951304901816906 0.05190637639696657 -0.006721918264639615 0.022372975330506976 0.035697253233570245 0.058857813745450134
-0.005698859326665922 0.039764396264223005 0.040563198671079645 0.04149861608999812 0.005367077968917989 -0.01622481705783083 0.08720183684837826 -0.010258383142386435
-0.01671209881315861 -0.09615877478679319 -0.03530223756606196 -0.00790723607613883 0.024391449511882005 0.05038020451048112 0.02818073157300913 0.07930649754295802
0.025597049425015152 -0.008045218946151745 -0.029126743211862104 0.058169515422465505 -0.004321972434857355 0.05194404201092467 -0.028282124343856387 0.06995598273508866
-8.273013594316095e-05 0.09213889460131931 0.032084854528247025 -0.0002563670635195536 -0.055642253006558534 0.0028239554586262385 0.04818018517923884 -0.021744768005101812
-0.0214201882215091 -0.04149480820409474 0.01293520962184105 -0.013578570567769578 -0.05798908611148231 -0.01282960801793787 0.07980523854355114 -0.03945636849699182
0.032819835371250834 -0.06021306049800066 0.03363331045965545 -0.05351520712278873 0.046921833450285944 -0.024961382859339038 -0.16699050613225774 0.048143301293054115
-0.01930304135136835 0.020550688146055526 -0.028065753972847156 0.0937431683481655 0.021109064628456645 -0.03738794452109945 -0.06217990967489506 0.12042440594631137
-0.018334704642595175 -0.07899360581652584 -0.052898094436553085 0.06969158830200797 -0.0084843341048382 -0.07161976824396782 0.008182631952034029 -0.042411680504743254
0.04968898095582144 -0.08779214880531708 0.04825221545631171 0.10045622688055571 -0.05510843884216328 0.028721536772523464 -0.059451724411461467 -0.023962047679054233
-0.0021009820692382865 0.00853136446175808 -0.018238324661348553 0.08687780321720592 -0.091696444123178 0.026259893129989737 -0.030978867637542352 -0.04738867933574901
-0.004246168130909156 0.03823163330787458 0.06578457517868126 -0.04478288567112768 0.14017218349027133 -0.022200808322493822 0.003774792837647212 -0.03509555001710054
-0.06106367171972799 -0.0796000944942833 -0.07890392158579879 -0.050639728248004834 0.04065246862163599 0.14085950974248193 0.025009499848071878 -0.023263065580791064

base.actor.actor_fc3.bias f8 [8]
00000000: ff4a 6599 6a0a a43f 7f97 0621 2e0a 5abf
00000010: 7a32 3aad 27be b2bf c4dd 6e6c d105 b4bf
00000020: 8292 3798 0edb a3bf 1372 166c 28e4 953f
00000030: 6b99 e234 fd45 983f 6060 2d3f 4581 703f
0.03914197084909254 -0.0015893412092764234 -0.07321403483565261 -0.07821377656261236 -0.03878064735525745 0.02137816581454117 0.02370448718343125 0.004029531951197013
