results/Hopper-2d/cmorl-ipo/4/final/EP_policy_35.pt (torch, 85897 bytes, 13 tensors)

base.actor.actor_logstd f8 [1, 3]
0	0xbfe353ddebd2e564	-0.6039876562055437
1	0xbfe2a1853e37faa8	-0.582216855545842
2	0xbfe9d196085b9785	-0.8068342364538102

base.actor.actor_fc1.weight f8 [64, 11]
0	0x3fadbf0c76b2366a	0.058098210801387065
1	0x3fcefe582b97818d	0.24213697556025374
2	0x3fba45c0781f4184	0.10262682850521371
3	0xbfd0174c941dc51c	-0.25142206634980524
4	0xbfb27af3881614d0	-0.07218858787935578
5	0x3f8cd435a929c545	0.014076632714224
6	0xbfb894b9c8b21da6	-0.09601937436865757
7	0x3fb04d54c5cbc576	0.06367997960093938
8	0x3fbab66d8506d815	0.10434612748835577
9	0x3fd865a24fe4301d	0.38120324899569075
10	0x3fc595fa3e2cb4f5	0.16863945041533382
11	0x3fc2886c220e649d	0.144788281086936
12	0xbfbf1f0c7b48ba0e	-0.12156751642098859
13	0x3fc443d30ef43a5c	0.15831983785797632
14	0xbf99b0f8ec9f94b8	-0.025089158480018553
15	0x3fc02f1aff1fd18a	0.12643754441490912
16	0xbfb692a30d4ea9be	-0.08817500185856539
17	0xbfb101967048ee41	-0.06643047562914096
18	0xbfd3f56962c333fa	-0.3118537392118125
19	0xbfd7c748802f3a11	-0.37153828161254504
20	0xbfc06963dd16bd4f	-0.1282162503752979
21	0xbfd9b9cd1f318ba9	-0.4019654087662113
22	0x3fb4ff5c227a3063	0.08202148286562898
23	0xbfa2f14a13315eeb	-0.03699714168823028
24	0x3fbba99430f790a3	0.1080563182400192
25	0x3fb264d344ff1997	0.07185097155079344
26	0x3fd8c9206d1510dc	0.387275797391579
27	0x3fb031e272a0292b	0.06326117800214053
28	0xbfa46c9663a55eae	-0.03989095655805151
29	0x3fc43b0bff9905af	0.15805196743353409
30	0xbfd3cd1fa7a857eb	-0.30939475415050194
31	0xbfb3b0ba5186881b	-0.07691540232056619
32	0x3fc59df0377f7f4d	0.16888239583840417
33	0xbf9a7673816a3300	-0.025842480443816207
34	0x3fbcce6e4c73306e	0.11252488485769316
35	0xbfc183e52760ce73	-0.13683761999856223
36	0xbfc88041e3306ab5	-0.1914141043970027
37	0xbf93982384fb1aef	-0.01913505076552274
38	0x3fc5b02c536e0981	0.16943887780878344
39	0xbfd0e067ed1d1af4	-0.26369665294298206
40	0xbfcbbd5ec49040e5	-0.21671661947085066
41	0x3fc1ec0d488a3670	0.14001623193728419
42	0xbfc9e8fd4feabecb	-0.20242277528949723
43	0xbfb90daaea9fe8a4	-0.0978648016752311
44	0x3fd28b69a6f33a37	0.2897590761539592
45	0xbfd794496b4459e0	-0.36842570758144966
46	0xbfca9107e0a95887	-0.20755098790931845
47	0x3fcb9258039e7a5c	0.21540355850898407
48	0xbfce4b2ac313542f	-0.23666891598864612
49	0x3fc13e34b4e93840	0.13471087297006257
50	0x3fce076345c80ce3	0.2346004572610588
51	0xbfce3678ad309e4f	-0.23603733498133514
52	0xbfc92382e50719bb	-0.19639621909136715
53	0xbf8c74222c1c2a57	-0.01389338204491712
54	0xbfc6e78264b2912b	-0.17894010464545693
55	0xbfcb383a4db1d0fe	-0.21265343469315917
56	0xbfd3cb0facf87397	-0.30926887408878073
57	0x3fc10aca8c0deb22	0.13314182127563706
58	0x3fb21a9f7d5371ab	0.07071873483386663
59	0x3fc1a7850e5daa33	0.13792479707201863
60	0xbfd52be13e8567e7	-0.3308032141263752
61	0x3fafa174adb088ec	0.061778684809057655
62	0xbfb0ef7d0d22d3a1	-0.06615430422500747
63	0x3fd226b2c789f818	0.28361196027970115
64	0x3fca61e652ce4bae	0.2061126617741968
65	0xbfa308012f0bbbcc	-0.03717044543542833
66	0x3fbb6d8d918fd65a	0.10714039615398843
67	0xbfb49969beb7d978	-0.08046589761929634
68	0x3fd5be1810e3d553	0.33972741746341234
69	0xbfc34c005cb59d92	-0.15075687910869512
70	0xbfbdea9828d45fd0	-0.11686087605300988
71	0xbfbe297ad8484bfa	-0.11782043247539767
72	0xbfcb5330ef2bd5eb	-0.21347629240305763
73	0xbfbfe7856f027b25	-0.12462648353765056
74	0xbfa9038dac1311a5	-0.04885523534315731
75	0xbfc2eda999ff3f12	-0.14787788409602648
76	0x3fc0d9016dc51724	0.1316224847780002
77	0x3fcf0f5208e530f7	0.24265504297580495
78	0xbf9eeef8a1a492f4	-0.030208477846048035
79	0xbfacd5da0ea19526	-0.05631905964473054
80	0x3fd98eb80f8dc005	0.3993358756915771
81	0xbf984695f75f264e	-0.0237067634805384
82	0x3fcc93b9124ecc23	0.22325814622817672
83	0x3f9c322363f2982c	0.02753501222164105
84	0xbfca87ff15c68bf0	-0.2072752815557517
85	0xbfb94e475865c8d2	-0.09885068805832312
86	0xbf806a8c526480cf	-0.008015724434301678
87	0x3f8cc77064c1d0e2	0.014052274775373911
88	0xbf7d958641459613	-0.007222675736874534
89	0x3fd550ddf1b44125	0.3330607281104839
90	0xbfc994f5f63a6e7a	-0.199858422497403
91	0x3faf7ba9d49f6670	0.06149035187236229
92	0xbf99ed0b7afca2c6	-0.025318316823503627
93	0x3fd4e7197a7daedc	0.3266051956368139
94	0x3fc73cff6d5eef31	0.18154900398610033
95	0x3fccb742d2bfa750	0.2243426827474715
96	0xbfc2571163989da0	-0.1432821022328712
97	0x3fb64198213d7f2e	0.08693838893441061
98	0xbfbab75901c3f26d	-0.10436016362286589
99	0x3f8ca6449b881174	0.013989006039090347
100	0xbfd7ca023c87c192	-0.3717046347728906
101	0xbfdfc1210d416365	-0.4961626653144349
102	0x3fbe8b4fde12925a	0.1193132321519185
103	0x3fb675e45729cf16	0.08773638847361229
104	0x3fc56a4d0f6d35d7	0.16730654958011712
105	0x3fb6c407640dd55b	0.08892866318440922
106	0x3fa143eb8d427d55	0.033721314424151196
107	0x3fa8379bad36c060	0.0472992562239376
108	0xbfc49f543ac405b3	-0.16111233586711435
109	0x3fc391bff6490143	0.15288543248790107
110	0xbfc2f181cfdb28ab	-0.14799521111701117
111	0xbfd2d7b4c090a7c6	-0.29441565327817576
112	0x3f82e0f6e650e9dd	0.009218148139656651
113	0x3fbec6c79c59a5ff	0.12022063796180048
114	0x3fc22844aecf28be	0.14185389075857374
115	0x3fa20e623835f007	0.0352659886948175
116	0x3fa74efc36078a2a	0.04552448424853524
117	0xbfd67dcc8c266558	-0.35142816244623054
118	0xbf60d5f0d867b1dd	-0.0020551399240871086
119	0x3fbd101b26058d7e	0.11352700880302355
120	0x3fc095240206da6b	0.1295514116188373
121	0xbf92c1d5c62ab66d	-0.018317547054428496
122	0x3fdb253f728a31d7	0.42414842782525625
123	0xbfa7218facf4332f	-0.04517792688611732
124	0x3fd137d6e089ad58	0.2690331642868009
125	0x3f9deb7332aaf6ef	0.02921848294021506
126	0x3fc3f8327ba19715	0.15601187740974667
127	0xbfb3943016ed9136	-0.07647991714253952
128	0x3fd19ee8b701108d	0.2753240382337559
129	0xbfa895f77fa18e44	-0.04801915581699892
130	0x3fa326ac9c5ffe7d	0.03740443619608145
131	0xbfa52afe16726060	-0.04134363197334845
132	0xbfb34dcf90f9a543	-0.075406048673945
133	0x3fd40a56687ee2a3	0.3131309528794565
134	0x3fbed7a3e4111882	0.12047790830647112
135	0x3fbbb532ba7b303d	0.10823361447109021
136	0x3fb12f1b3b822f45	0.06712503626675666
137	0xbf91681835ed8d44	-0.01699865178251271
138	0x3fbce827ce4165a5	0.1129174116662371
139	0x3fc10b9f6dfc4d01	0.13316719885242637
140	0x3fc0c5d580794173	0.13103741429450685
141	0x3f953b9b83e0b67b	0.02073519699495428
142	0x3f65eaad3ccb5197	0.0026753791374664704
143	0x3fdeb9b88ce694de	0.4800855041488158
144	0xbfcc43ba41ae14c6	-0.22081688124686688
145	0x3fccd8de70485761	0.22536831362293255
146	0x3fd1e98470b9d169	0.27987776764282174
147	0x3fc8c49815a06c15	0.19349957519520503
148	0xbf88372577a61c72	-0.011823933328527245
149	0xbfce4d22dd3784e5	-0.2367290096436029
150	0xbfb7de27b44c02ea	-0.09323356773166905
151	0x3fb7629b990229e7	0.09134838567312152
152	0x3fd2b4fe6f142f09	0.29229698989432557
153	0x3fd4e30491483612	0.3263560694475426
154	0x3fca8e0f5c9eba22	0.20746032736265457
155	0xbfbebfd16eaad308	-0.12011441184843019
156	0xbfd2538c44d21943	-0.28634936066409383
157	0xbfb27da4a5642596	-0.07222966230269487
158	0x3fb57b7fb6856e89	0.08391569334110661
159	0xbf9d370c1782642f	-0.02853030103196746
160	0x3fa584f7d5aee77c	0.04203009112775555
161	0xbfd0e5ac94135712	-0.26401819668295545
162	0xbfbb02fd113d342c	-0.10551435156703864
163	0x3fd00f7617342e56	0.25094368234633657
164	0xbfb10ae2f9b482c3	-0.06657236667934811
165	0xbf320a6159385df7	-0.0002752769152904728
166	0x3f9711506785a901	0.02252698547219101
167	0xbfa9082dcdbbc97d	-0.04889052521129409
168	0x3fa7d587eebb06fd	0.04655098714057535
169	0x3fb5b37ef0999db6	0.08477013944649667
170	0x3fc73bef5cbf3651	0.181516571318229
171	0x3fdc6c23d914b788	0.44410034369763496
172	0xbfb1a2578cdfdcd0	-0.06888339223211237
173	0x3fcb48ea981136df	0.21316273141058326
174	0xbf94f221363e5b91	-0.02045490163399283
175	0x3fb10944517266e5	0.06654765118073731
176	0x3fb554b9df5f60c7	0.0833240671485128
177	0x3fa86e70415f9b7f	0.047717578869018056
178	0xbfcefdcadaa9fb8a	-0.2421201293654714
179	0xbfc0aab93bce6864	-0.1302100698492864
180	0x3fa1a7a7d0be6c5f	0.03448223517553894
181	0x3fcf13a1f28f905d	0.24278663963116545
182	0x3fc3094ddc537cc5	0.14872143991576628
183	0xbfb54ded7033b963	-0.08322032918269921
184	0x3fbcf4e5fd3c00ad	0.11311185295562849
185	0xbfa1948816cb619b	-0.0343363311600939
186	0xbfc1e90738e44738	-0.13992395666041957
187	0xbfe9509dbe81813d	-0.791090843278688
188	0x3f86931f15df27f9	0.011022799353572298
189	0x3f9609561d6c7531	0.021519990487935906
190	0xbfbcf613b6aea38e	-0.11312983713163602
191	0x3f79383ee356f72e	0.00615715566294543
192	0xbfaec109653f58a4	-0.060066503152186784
193	0xbfc23232b62082ab	-0.14215692418021794
194	0x3fa6a0d4c6a1cf91	0.04419579434116295
195	0xbf81ea429d0804c7	-0.00874759713861052
196	0x3fbb89241d81f0ab	0.10756135673904292
197	0x3fa0ac33311ef039	0.032563781496236684
198	0x3fb11872069b8f54	0.06677925740546914
199	0x3fce6476209cef3f	0.23744083969529048
200	0xbfc1be8eba988863	-0.13862785445332113
201	0xbfd06ee42c007feb	-0.25676826760354626
202	0xbf8a904815886f25	-0.012970507771619186
203	0x3fb85576462a9b07	0.0950540467552906
204	0xbfc0c1838c6f72af	-0.13090557439035908
205	0xbfb6d5360659dd1b	-0.08919084219984479
206	0x3fcc9d8c349b96db	0.2235579735635643
207	0xbfb0388fff455902	-0.06336307508658837
208	0x3fc65268ea1fbbf3	0.17438994819482864
209	0x3fe261bf8b66daff	0.5744321558657645
210	0xbf7f6df89f55ba5f	-0.007673236066109894
211	0x3fdb31e122a110da	0.42491939908746945
212	0x3fc6d1e1150a9956	0.17828000571644037
213	0x3fbb5ecd0f81633f	0.10691529873419102
214	0xbfc98a7da3ff03f7	-0.19953890330910415
215	0x3fa2f4e115957893	0.03702453030085553
216	0x3f92e2758357aeb4	0.018441997663031187
217	0x3fc36bcd7e03020d	0.15172737744252665
218	0xbfb55893dd1a3175	-0.0833828367996768
219	0x3fcf4af3b7ed1ac5	0.24447485428591711
220	0xbfc15ae99b585ef2	-0.13558693013396056
221	0x3fa3cd345fbd6f0b	0.038674961745270485
222	0x3fb6c153f3568874	0.08888745013112659
223	0x3fc49b83d10f964e	0.16099593837786802
224	0xbfd451d35afc09ca	-0.3174942387123819
225	0x3faf1f00c87c842d	0.06078340957015658
226	0xbfb1a6465061e5fa	-0.0689434000249988
227	0xbfc1fa87d8304fe2	-0.1404580884560565
228	0x3fbbb76111ec57df	0.10826689422205459
229	0x3fc82c5609fa1207	0.1888530300822284
230	0x3fbf9d2556a9d54b	0.12349160543256692
231	0xbfcd4b89e60301ef	-0.22886775713961025
232	0xbfbb91d204920742	-0.10769379245359992
233	0x3f8aaf609cb757c2	0.013029818327520707
234	0x3fcb78eebf551fae	0.21462807028205816
235	0x3fce98d9d9d663c9	0.2390396417293046
236	0x3fb440b9d0af975d	0.07911263794775665
237	0x3fc742f04fb1dd44	0.1817303074965172
238	0xbfd103dcccce114d	-0.26586074829562706
239	0xbfcae80d5a57a0cf	-0.2102066699146747
240	0x3fa848b6c82685d6	0.047429763729507066
241	0xbfb1a51d989a4c7c	-0.06892571426060273
242	0x3fcbb94b436a1dea	0.216592224042173
243	0xbfd2598daa36f972	-0.2867159044507367
244	0x3fdc906493834df2	0.4463130417400115
245	0xbfc6c13d64776732	-0.17777221112810931
246	0xbfad65d42f2c6e8d	-0.05741751743172783
247	0xbfd5c4a18e4c9f78	-0.3401264085427935
248	0xbfa034e8917f1354	-0.03165365959242786
249	0x3faa4d3997ce5205	0.051370429783819595
250	0xbf91e41e7b36e3ca	-0.017471767683421104
251	0xbfc0cd46909f33f5	-0.13126451551070742
252	0x3fc80dfd03f1dc98	0.18792689030280907
253	0x3fc3f38569fa7e4f	0.15586917566996525
254	0xbfd0e0c01a52525d	-0.26371767588105915
255	0x3fd1e5319f47ab65	0.2796138816326475

base.actor.actor_fc1.bias f8 [64]
0	0xbfbd563011009a51	-0.1145963708409934
1	0xbfb840654411af65	-0.09473259841769062
2	0x3fd004f9b6b51fff	0.2503036770108337
3	0xbfc96d74d3c333cc	-0.19865284290281549
4	0xbfbbe21d76f4401a	-0.10891899255898388
5	0xbfcc852f48426c0b	-0.22281447437566756
6	0x3fc6410339165322	0.1738590267892955
7	0xbfa037ad22043e78	-0.03167477646104272
8	0x3fa5fc61a365e10b	0.0429411422691733
9	0xbfd0663efe49aa0b	-0.25624060471332716
10	0xbf65abf0245d26f8	-0.0026454630159705693
11	0x3f989e0997038248	0.024040365068574127
12	0x3fa87134a93d1137	0.04773869100475497
13	0xbf99243799b64be3	-0.02455222011264969
14	0x3fa88bcd99c3ad75	0.04794161321646132
15	0xbfc0d500ba478af1	-0.13150033088375992
16	0x3fcca6d946fbaa0c	0.22384181943864723
17	0xbfd1dd1e9ad4ad07	-0.2791210662860099
18	0xbfc9035b43de015d	-0.1954149323828557
19	0x3fd02143669759e8	0.25203022974656486
20	0x3fae533cc7ef6afa	0.0592288011609607
21	0x3fcd723743fd6976	0.2300480920774352
22	0x3fc56159b0414ef5	0.16703339678007692
23	0x3fc3770bbda0eb58	0.15207049140175388
24	0x3fcb513c8a043b38	0.21341664065445243
25	0x3fcfadcb49d5cf60	0.247491274883596
26	0x3fb3008e12144862	0.07422721806895674
27	0x3fca4fcd42901ae4	0.20556035757200342
28	0x3fc99e66d698df21	0.20014653662087148
29	0xbfc04e9965bda93a	-0.1273986574918327
30	0x3fb3698ee247acb3	0.07582943939603375
31	0x3fb9cafb32f2efaa	0.10075349801894498
32	0xbfa459d2a4276d6b	-0.03974779371102496
33	0xbfc12d1cae4d4838	-0.13418921004137174
34	0xbfc28b1d4731d540	-0.14487043358136908
35	0x3fd2fd5de277588e	0.2967142783721862
36	0xbfc3862732e22b09	-0.15253152832550423
37	0x3fc5c837b7b72744	0.17017265768509493
38	0xbfad9e9a35e3260b	-0.05785066516689249
39	0xbfb2f688353e2cc0	-0.07407428073763622
40	0x3fc72f756d5d56fc	0.18113582458561683
41	0x3fd3ed45cabde26b	0.31135697173116367
42	0xbfac26ffaf126654	-0.054985036965444906
43	0x3fd0714f0f36f49c	0.2569158218937646
44	0x3fa131afe5b08dcd	0.03358220747784522
45	0xbfb47270682b480e	-0.07987120192709105
46	0x3fd24041e3fc97d9	0.2851719595367946
47	0x3fcbfc682b0bb85c	0.21864034749836747
48	0xbfd2d94461738470	-0.29451093212816826
49	0xbf8caa89bf6b9dc0	-0.013997150568186068
50	0xbfa42f9d2068d43f	-0.039425764280544666
51	0xbfc6a1f8615442c8	-0.17681793930434808
52	0xbf9294e425e84ab6	-0.0181460998665652
53	0x3fcc6ae7b6ad7461	0.2220124856930026
54	0xbfa3a01c1f8ce034	-0.038330916262964726
55	0xbfc5e63352f9bd30	-0.17108766128101527
56	0xbfc7a500e6760764	-0.18472300770741434
57	0x3fcf7865e025f6c3	0.24586175389042894
58	0xbfb3339c82251c98	-0.07500627686850903
59	0x3fc1f68ca606ebe9	0.14033659083165098
60	0xbfc3b8549ab3b708	-0.15406281999406013
61	0x3fc4d779761e2806	0.1628257586237966
62	0x3fb3161eacd1133f	0.07455627173574174
63	0xbfbdd88f38e9f6b5	-0.11658568515300767

base.actor.actor_fc2.weight f8 [64, 64]
0	0xbfc99bc9e544122c	-0.2000667924368299
1	0xbf9127e3c7f88518	-0.016753729896781783
2	0xbfc2169d8ec515e8	-0.14131516905960884
3	0x3fc363478ef57235	0.1514672706642998
4	0xbfb555cdc7859cd5	-0.08334051247730952
5	0xbfb92d44d42f8122	-0.0983469980269587
6	0xbfd8deafbad15945	-0.3885917019264478
7	0xbfd75587f50074b3	-0.3645954029651179
8	0x3fd077c3fe7b8390	0.25730991222194977
9	0x3f875976920d213c	0.011401106197482684
10	0xbfce802688cc9d8e	-0.23828584365513134
11	0x3fb5cf4b60a2ff5e	0.08519431218428283
12	0x3fc1328f2830adb9	0.13435544454965312
13	0xbfe40412e94e6d3e	-0.625497298885797
14	0x3f89b6941325f39d	0.012555271944387597
15	0x3fcd33bc0caca5ed	0.22814131373279115
16	0x3fd3bb81f8451a82	0.30831956143484984
17	0x3fb809203fd87798	0.0938892513154016
18	0xbfc3fe7478ba83b8	-0.15620284933996031
19	0xbfd8d6b3ca0d664e	-0.3881043885390668
20	0x3fbd88386e694242	0.11535980887971056
21	0xbfc4ed110df21e9f	-0.1634846990675571
22	0xbfcad451777f27cd	-0.20960443815994126
23	0xbfd76ba2ecdc8370	-0.36594460612291524
24	0x3fdc658c7dcbbe90	0.4436980465388638
25	0xbfbe8ecfd5132336	-0.1193666358186761
26	0x3fbf00573767535c	0.12109894850375497
27	0xbfd1cf4a73d0ceef	-0.2782770281803399
28	0xbfa94514301ca6f2	-0.04935515487006893
29	0xbf6aeed9b8eb2327	-0.0032877209081089323
30	0xbfd9b6da22b04c2f	-0.4017854059940786
31	0xbfcef34fb2251bdb	-0.24180027197345919
32	0xbfc86fa9c142f494	-0.19090768753622867
33	0x3fb1506caa36337a	0.06763343005714076
34	0x3faada2b0fc8c05c	0.05244574134519617
35	0x3f92b121174fae69	0.01825381951122865
36	0x3fd242769295dd04	0.28530659022312954
37	0xbfae2dd24f73520f	-0.0589433404908598
38	0xbf9c0cd2d133ea81	-0.027392667788243678
39	0x3fb056e6d50e4b79	0.0638260145336015
40	0xbfc57d3fb98b9298	-0.167884793852086
41	0xbf7a153f84a15f91	-0.006367920033959155
42	0xbfd2785a202fc6ad	-0.2885957063982499
43	0x3f950bb83b84f5c3	0.020552519448065142
44	0xbfbd51ae3f482145	-0.11452759785618578
45	0xbfd487d46c530ba6	-0.32079039171747536
46	0xbfca120750ed2593	-0.2036751885555473
47	0xbfd068d1fe6688c5	-0.25639772266198363
48	0x3fb04b66516c86fd	0.06365050781144173
49	0x3fc3cc0c40aeb9b5	0.15466454656912068
50	0xbfc5960c0454af23	-0.1686415692469093
51	0x3fc71a36fca9e4c2	0.18048751198856477
52	0x3fb1ac200cc73ced	0.06903267204255643
53	0xbfcb7a66e750105c	-0.21467291159217694
54	0xbfa70fb56b2ca507	-0.04504172261506239
55	0x3fb9a11d6e12f4be	0.10011466920237219
56	0xbf9dbe3c0e42e240	-0.029045999880255247
57	0xbfb861b6f17b3c82	-0.09524100680867956
58	0xbfc142a23933459a	-0.1348459986971136
59	0xbfc8428282ae3943	-0.18952971821676998
60	0x3fb8f7bf3b066f29	0.09753031912844946
61	0xbfa957f46812b0fb	-0.04949916620657465
62	0x3fc91f092bceb3ad	0.1962596382049048
63	0x3fa99424fa1ad247	0.04995837739025837
64	0xbfa4938eb956bd8f	-0.04018827450215234
65	0x3fb06c60d0a446ba	0.06415371984283072
66	0x3fca806794e225ff	0.20704359788605584
67	0x3fcbfe5fa64a1b4d	0.21870036716083022
68	0xbfd003782ea609f6	-0.25021175914312666
69	0xbfbbae79f612700c	-0.10813104875200014
70	0x3fd1844af483d368	0.2736995113221412
71	0x3fc0e311e7156272	0.131929624398953
72	0xbf914469d5798d36	-0.016862538961857264
73	0x3faf53417c7b3cc0	0.061182066388590695
74	0x3fba55fc53e54f4d	0.10287453697429534
75	0xbfb0d616f827cf15	-0.06576674993976568
76	0xbfcd9a46308eb426	-0.23127057429283687
77	0x3fc59495a8449dca	0.16859694210255177
78	0x3f8e9beee5b4877e	0.014945856461568981
79	0xbfd462ef0ee345ac	-0.3185384412182326
80	0x3fad63d8994bbd7a	0.05740239020621636
81	0xbfcbb7cf58d2960b	-0.2165469344810592
82	0x3fb53d9640a9401b	0.08297099188462236
83	0x3fc62b1491285f26	0.17318970763948832
84	0xbfcd2fd0bdcf7db6	-0.2280217100915089
85	0xbfbb303e0e1349f5	-0.10620487064014823
86	0x3fd20e52425d2e18	0.2821241043172633
87	0x3fd712cf80cc550f	0.36052310541102
88	0xbfb10260daa20e31	-0.06644254052849231
89	0xbf9c739b33fe977f	-0.027784752892010097
90	0x3fd738c26c1a496f	0.36283932263281476
91	0xbfceb042bf9b4059	-0.2397540507868168
92	0xbf7fb46959c5ec97	-0.007740413213805606
93	0xbfbc912f7ab27e10	-0.11159035440004339
94	0x3fcf970270abcdef	0.24679594518202871
95	0x3fcb878729678b2f	0.215073485581422
96	0x3f1d62139ad23153	0.00011208767564791404
97	0xbf98a70b2004ef9e	-0.024074720219899974
98	0x3fcafa0114f41cb2	0.2107545234978026
99	0x3fc476b3c165ee1c	0.15987250273961784
100	0xbf92b840c774a9bd	-0.018280994581042032
101	0x3fd702fec63a41ab	0.35955781324539754
102	0x3fc262623fcfd7e5	0.1436274348813519
103	0xbfdc577a7370ab41	-0.44283925317238376
104	0xbfc813530369695b	-0.18808972994413406
105	0x3fc091b598fa03e7	0.12944669694482444
106	0x3fd757f035a39236	0.36474232900789916
107	0x3fc0e69c064c8255	0.1320376425510569
108	0x3fb24511df7a1781	0.07136642175654907
109	0xbfb6f067778a69fa	-0.08960577648614523
110	0xbfcbe2f9aa7f6525	-0.21786423516349732
111	0x3fd20158d8ec33af	0.2813322180161845
112	0xbfc65c6ba9f04162	-0.17469545171526152
113	0x3fa85c9c202a3777	0.04758155720365569
114	0x3f997efc31e9ef80	0.02489847235345577
115	0xbfce0fcf1d1e3708	-0.23485745355395005
116	0xbfbef0563013c0e1	-0.12085474656828722
117	0x3fd3252c1bd804ea	0.29914381713031324
118	0x3fd68857cafcafce	0.3520717127128109
119	0xbfe3c163011d65fa	-0.6173567792677084
120	0xbfce20a2847ec349	-0.2353709361027774
121	0xbfbf22a623c62b00	-0.12162245152846296
122	0x3fb85364b0077fe8	0.0950224809416792
123	0xbfa3d8ee43eefcd0	-0.03876442507998379
124	0x3f9460030d6925c9	0.01989750642159097
125	0x3fe04be115f6678a	0.5092626027064722
126	0xbfdc16e354b63101	-0.43889697334886085
127	0x3f98c27ab988cae7	0.024179380010717202
128	0xbf870c2ae61cf7dc	-0.011253676555153129
129	0x3fad4f1f70285f3f	0.0572442840968379
130	0x3faee07508dd78d6	0.06030622227875575
131	0x3fca5b4cac203c23	0.20591123966775723
132	0x3fb72c20c84e26f7	0.09051709070459056
133	0x3fcfdaf58cc813ae	0.24886960386370788
134	0xbfb43cb6f4407811	-0.0790514322584104
135	0xbfcc19cce30e3a31	-0.2195373638791849
136	0x3fb029fb134fc03e	0.06314057561371642
137	0x3fd3997cd2f190d7	0.30624313926661045
138	0x3fc0009d814920d4	0.12501877606178502
139	0xbfa65fa02e1b516b	-0.04369831621957839
140	0xbfb2483519053ba6	-0.07141429768419857
141	0xbfcb429cf724bae0	-0.21297037189056933
142	0xbfaa27a26e85b90e	-0.05108363722944108
143	0xbfc3f91a78d52d25	-0.1560395326617733
144	0xbfa50bfbb69f9f62	-0.041107049982939584
145	0x3fec8300f5d2ae69	0.8909916688184697
146	0x3fa751ae738dab7e	0.04554505501331273
147	0xbfe04bf732cc870c	-0.5092731468359672
148	0x3fd0f42a93d900f4	0.2649027293991957
149	0xbfcbced8b436bc74	-0.21724995421888915
150	0x3f91c9068b00a21d	0.01736841414836664
151	0xbfc1f15d1bad5c0b	-0.14017833568024715
152	0xbfc11f8b86645d77	-0.1337751775942981
153	0xbfd79df16a216150	-0.3690150772504426
154	0xbf8515fcffb9e835	-0.01029584556021144
155	0x3fce7bbc196fb209	0.23815108530051557
156	0xbfd0c822eb23b865	-0.26221535647244415
157	0x3fd033fcf872a3ef	0.2531731058357413
158	0xbfb9f1eece6fd24a	-0.10134785213433264
159	0xbfb9708422016ef2	-0.09937311010565589
160	0xbfc4afb250f8069d	-0.16161183312947439
161	0x3fc39a6971d690a4	0.15314977701666976
162	0x3fc35457d76b735a	0.15101144808331918
163	0xbfd60f0b9065c0ad	-0.3446682844287448
164	0x3fd416a96e840739	0.3138831691031672
165	0xbfc4eb1a37458c2e	-0.16342475603878043
166	0x3fd702c08d9d410f	0.35954297856825773
167	0xbfc8cdecfae42b50	-0.19378435373831815
168	0xbfd1346758a43420	-0.2688234677924033
169	0xbfbf7c8e787d7bf8	-0.12299433175711261
170	0x3fb7f0c5fbf768cc	0.09351766015552981
171	0xbfc30d02e0cb4d05	-0.14883457161213456
172	0x3fa34455a9b0daac	0.037630726780141316
173	0xbfc5bf2d8f4ded7f	-0.16989678857121857
174	0xbfc352467d2d6d53	-0.1509483443468108
175	0x3fb168dc63064321	0.06800630014027977
176	0x3fe08ab9567d59a0	0.5169340790987924
177	0xbfb974eada7d694e	-0.09944026788926871
178	0xbfb9427a3cd4e75b	-0.09867061600826103
179	0x3fd15a5b4caa78bf	0.2711399315538862
180	0x3f8f6e114d4a58d0	0.015346656008926735
181	0xbfda6a80f516ed1c	-0.41275047239806084
182	0xbf952b8673d7e4d3	-0.020673847980991433
183	0xbfc8343e434c221f	-0.18909433637624404
184	0xbfbb414b7fd56aaf	-0.10646507140101379
185	0xbfc8472f19947cd9	-0.1896723627951136
186	0x3fc26421724097e8	0.1436807449219366
187	0xbfd4ee04a230b080	-0.3270274719132047
188	0x3fcd0ecd2d4279f6	0.22701420507378572
189	0xbfd3fa4576046e37	-0.31215034985664
190	0xbfd3e1c09d5fb6cd	-0.31065383308928746
191	0xbfb951ee2f92a17e	-0.09890640889591926
192	0x3fd0fe4578bc78de	0.2655194930138246
193	0xbfb8f1ccc146af3d	-0.0974395725121981
194	0x3fcfd69e94b11cad	0.24873716602653442
195	0xbf9e40e985e2f5af	-0.02954449538878173
196	0xbfd0df0b445eb0bc	-0.26361352612253675
197	0x3f6ffe245456c245	0.003905363994555241
198	0xbfbcbd33df0ada00	-0.11226200290079902
199	0x3fd31412848e86d6	0.2981001181125128
200	0x3fa9347bb33fa38b	0.04922854006856089
201	0x3fcc82fc301b2163	0.22274734829830853
202	0x3fcb14a17385195f	0.21156709805127158
203	0xbfc2718adca7074b	-0.14409003995938927
204	0x3fca0a2fcf79917f	0.2034358752308769
205	0x3fc7566d92ef35ea	0.18232507395298053
206	0x3f97fee82e3bc1fb	0.02343333036600546
207	0x3fafb8149a835ae9	0.06195129762789071
208	0x3fc22af1df6a194c	0.14193557175549143
209	0xbfc6696f10609709	-0.17509258556054189
210	0x3fd07f99c3f643c8	0.2577881253901606
211	0xbfbae801ebac700c	-0.1051026535391772
212	0xbfab052defafd45c	-0.052773890980383625
213	0xbfb954900e42e7b9	-0.09894657467057656
214	0xbfc32447b4ae16ae	-0.14954468080775513
215	0x3fb3deff8fec4bb3	0.07762143386598445
216	0x3fa761f4516006cc	0.045669207509502735
217	0x3fc21b4591ae046b	0.1414572678877762
218	0x3fc7a11010d79413	0.18460274526947326
219	0xbf9696f3c5336796	-0.022060212050611115
220	0xbf924068a3b5671f	-0.017823824874859114
221	0x3fc8f21bc757262d	0.19488856538218738
222	0xbf9c8fe72387c338	-0.02789269594535712
223	0xbfcc5d4c5676724c	-0.22159723493395445
224	0x3fbf56bb57bff985	0.12241717235881396
225	0xbfb0dbd0fd4018fb	-0.06585413153525004
226	0xbf8e391757dfaa50	-0.01475733029288509
227	0x3fd01512175d673a	0.251286051575892
228	0x3fc1b05957de69a2	0.13819424429386823
229	0xbfaf772133b7d9e0	-0.061455762446644746
230	0x3fbccf6e6277d508	0.11254014877325258
231	0x3faba89e7235c0bc	0.05402083534397792
232	0xbfadfe649ff0d6a9	-0.05858149006273312
233	0x3fd172b87669362f	0.27262698710987626
234	0xbfcef549fa59372f	-0.2418606254963662
235	0xbfbc87d6954629ed	-0.11144772667299892
236	0xbfd391b2863ea9f2	-0.30576766118852483
237	0x3fa122e97a8b35a5	0.03346948262115327
238	0x3fb4b03d715d6fa0	0.08081420915317361
239	0x3fb036949f09d445	0.06333283312581368
240	0x3fb2cd835edecaf7	0.07344838205498748
241	0x3faccea2e9181bc9	0.056264010385397585
242	0x3f98ba220c5aa251	0.02414754104998657
243	0x3fb09314795435a8	0.06474426233417907
244	0x3fc6f9364686d0a5	0.17948034709627794
245	0xbfb7ff1c05a9f914	-0.09373641145973394
246	0xbfca6ce1b59ae6a7	-0.20644780509410518
247	0x3fcf3903075ea4ae	0.2439273630127778
248	0xbfbf4ec96fb73f69	-0.12229594209133911
249	0xbfb2f5ed04a51cca	-0.07406503070261575
250	0xbf80fa24ae674dc6	-0.008289610454915396
251	0xbf9988126110c440	-0.02493313519898188
252	0xbfb0941e95626f2e	-0.06476012370188464
253	0xbfc8380eb68b803e	-0.18921073830915874
254	0x3fccfbc7c2e1a67c	0.2264337255067409
255	0x3fa8ec1fe7142f32	0.04867648788248714

base.actor.actor_fc2.bias f8 [64]
0	0x3fb3e192fedf107a	0.07766073915905905
1	0x3faa8ed292682493	0.051870899555134596
2	0xbfd4d8615bc4fadd	-0.32570680581913597
3	0xbfa02029f75c096a	-0.031495391316655866
4	0xbf92fc9e0bdc6fa3	-0.01854178378481176
5	0xbfc9e9e6b7e1519b	-0.20245059946558971
6	0x3fb0852ff31fbecb	0.06453227697033552
7	0xbfc94a9cf1665205	-0.19758950984090987
8	0x3fb4938bebfac39d	0.08037638198108117
9	0xbfc154e90e679b17	-0.13540375903468124
10	0xbfb5be053d0158df	-0.08493073214899337
11	0x3fa23da06f3f74c8	0.03562642438894553
12	0x3fc7463213632eea	0.1818296999612053
13	0x3fb8538d1c4cf0d2	0.09502489033633602
14	0xbfa55f48a0efda2c	-0.041742581983204324
15	0x3f8d0aeb8bc9d96c	0.014180984691148445
16	0x3fbacdda87767f05	0.10470357711028207
17	0xbfbe5631f20ef442	-0.11850273284558546
18	0xbfc8b3e07e7ac727	-0.19298940826188835
19	0x3f929b5ffaa42eac	0.018170833275731255
20	0x3fd15b08ebf80ad6	0.2711813263305606
21	0x3fca8646ff8c6f79	0.2072228191180974
22	0xbfd1b82e91019c42	-0.2768665710522705
23	0x3fc55d0dc32023ce	0.16690227534880225
24	0x3fb7a9fda20dfa46	0.09243760305796753
25	0xbfac4d120f171d8f	-0.05527550157745075
26	0xbfbddba40994296c	-0.11663270219665883
27	0xbfb493df8afa8ca4	-0.08038136618647457
28	0xbfa5b1da125ce9e7	-0.04237252687603981
29	0xbfcf5b4e9a924d0a	-0.24497396991191805
30	0x3fc0568e2eea001b	0.1276414612839297
31	0x3fd24c20986a0980	0.28589644321632335
32	0xbfad4595b00cd106	-0.05717151426361693
33	0x3fcb23bd5a10a8dd	0.21202818772991963
34	0x3fb762793221e3b3	0.09134633516249728
35	0xbfb404ddc94dec9b	-0.07819925465257642
36	0x3fbf53e27bc3df78	0.1223737289582213
37	0x3fd82bb45f182ade	0.37766751562655354
38	0xbfd35d754aeed3c8	-0.30257923429172395
39	0x3fc480148a2dd247	0.1601586985303973
40	0x3f99c284599d9250	0.025156085939118278
41	0x3fbae58bb8036531	0.1050650905848627
42	0xbfc73fb529657a5e	-0.18163170357998387
43	0x3fa9c7bcc52101a1	0.05035200029715559
44	0xbf9fc35ca645db64	-0.031018684051982062
45	0x3fb277bafd7215ea	0.07213944137227882
46	0xbfd1868be836ab2c	-0.2738370673857158
47	0xbfd083529563ed9d	-0.25801529492283654
48	0x3fa9d7cec77d658f	0.05047460732630348
49	0x3fb531873ec54548	0.08278699190602368
50	0xbfb2b50cb49f62f4	-0.07307509813052687
51	0x3f9fe2a4044e6270	0.03113800312312026
52	0xbfd02b2bda51b6aa	-0.25263496704324473
53	0x3fb7a89f1b6e90b4	0.09241671008800517
54	0x3fcf59d1f7c99281	0.24492859457963692
55	0xbfa1d1ee68b80e95	-0.03480477360065241
56	0xbfbc749c8ce7e21a	-0.11115435066302162
57	0x3fafeafd52e13864	0.0623397029563513
58	0xbfb367a7bd2b7401	-0.07580040329362704
59	0x3fc8f8fd6bf29a3e	0.19509856959230548
60	0xbfb73d1804cf07e3	-0.0907759677639031
61	0x3f92965d358075d4	0.01815171851204929
62	0x3f97a991f0e5c03a	0.023107796028341655
63	0xbfb758145e36b6c9	-0.09118773746623811

base.actor.actor_fc3.weight f8 [3, 64]
0	0x3fba6a1d35664917	0.10318167260837573
1	0x3fb4d6aa6e64dd51	0.08140053935209336
2	0x3f6f7b26f05b83b0	0.0038429031873054784
3	0x3f8717b5221ae402	0.01127568731623008
4	0xbfc4876c00a7ca44	-0.1603827479553549
5	0xbfb6033531a0e2b9	-0.08598644696838677
6	0x3fcab4d790405823	0.20864386123202036
7	0xbf7bd5c363ece165	-0.006795657390107433
8	0xbfca8820454a36ba	-0.20727923758788852
9	0xbf90593c2c941562	-0.015965404721119632
10	0xbfcc244b7c752731	-0.21985763146431617
11	0xbfc504f2cd57184f	-0.16421351457956
12	0xbfc3ddb9c9a8de5b	-0.1552040323892808
13	0x3f78d72cb61758d4	0.00606458154057617
14	0x3fc7030e7fb4cb3a	0.1797807811322743
15	0x3fbc67672d58f6b8	0.11095280511014038
16	0x3fad369f9f2fb8ab	0.057057369405684476
17	0xbf94baac70f47bc3	-0.020243353265978713
18	0xbfb965402bfb9885	-0.09920121263312083
19	0xbfcc5f68a8f70e94	-0.22166164636847852
20	0x3fb52c56578aeb4a	0.08270778310081286
21	0xbfc435d8f08f9505	-0.15789329286705125
22	0x3f92266c4f218782	0.017724697427531584
23	0x3fb097705eb86d3c	0.06481077492246795
24	0x3fc655dbb0dbe2ed	0.17449518333139427
25	0xbfbd307156667204	-0.1140204273164685
26	0xbfab734637a32d76	-0.05361384801070816
27	0xbfb51a49a9a3c04f	-0.08243236915200323
28	0x3fb44c2b406f2328	0.07928724597071535
29	0xbfa7f3f8285359d4	-0.04678321354156237
30	0x3f77a4424d9030b0	0.005771883960744059
31	0xbfb15e9aa1e87f15	-0.0678497929843583
32	0xbfb47da99fdf4796	-0.08004245904092352
33	0x3fc805c1f6e62303	0.18767571025480131
34	0xbf8efab3086d14d3	-0.015126608557361731
35	0x3fb55b9e164ef31e	0.08342922253264048
36	0x3faac758a333fb4c	0.05230214111542483
37	0xbfa6584b65850bbd	-0.04364238371137883
38	0xbf92ffa2993a958d	-0.0185532957099404
39	0x3f9f1efb75ddd5e5	0.03039162547016429
40	0x3fbfb2020c765f75	0.12380993656404178
41	0x3fae43efbc79116b	0.05911206412978028
42	0xbfc2139345a7a0e7	-0.1412223901854823
43	0xbfc45e0835d09dc3	-0.1591196310775854
44	0xbfb7b6e564b6d629	-0.09263452252238182
45	0xbfb3627d93e9cbf5	-0.07572159634746341
46	0xbfa46ee504afce24	-0.039908558675872535
47	0x3fb2cfafcbed95ea	0.0734815476294767
48	0xbfc3a4074e5f88ed	-0.15344325377288418
49	0x3fa6b10ff51fc6a4	0.04431962840307094
50	0xbfcbc606109f259e	-0.2169807034645545
51	0x3fb8d78743e28a4a	0.0970387020811724
52	0xbf6749b24a667252	-0.002842758392217961
53	0xbf9737c05e271b5c	-0.022673612352970593
54	0x3fc0765d3bd14c34	0.12861218853740441
55	0xbfc203f324f3b7b4	-0.1407455377988619
56	0xbfba6745835ed9cd	-0.1031382985810076
57	0x3fc5aade3a954238	0.16927698002338487
58	0xbfbc10ec758ffdc6	-0.10963323469331163
59	0x3f84e6674a8d7299	0.010205084765112548
60	0xbf9a2a18496725dd	-0.025551204185637267
61	0x3fc9332df5ef8dc2	0.1968743754251659
62	0x3fbfb3b93da954ac	0.12383611445814563
63	0x3fb1c87dd1f67045	0.069465507278836
64	0x3fcdf3483b3d9258	0.2339868821392368
65	0x3f818d072a0ba00e	0.008569770784973254
66	0x3fc6973130fc2464	0.17648901836244868
67	0xbfbe70c3ca0f19f6	-0.11890815432625587
68	0xbfb0ec71f1d1b1a4	-0.06610786584651024
69	0xbfbe465dc2b172b3	-0.11826120379687204
70	0x3f80acffc00d800f	0.008142469452366212
71	0xbfca1f5a839182f1	-0.20408183502424707
72	0x3fb2d8adff204624	0.0736187694422133
73	0xbfbf9497f0f8d9a8	-0.12336110718829352
74	0x3f8aa66d65643f71	0.013012747437215673
75	0x3fbbe7469e41f680	0.10899773944580637
76	0x3fc0e843692c9f62	0.1320881141230031
77	0x3fc2e64e6393a653	0.14765338766237565
78	0xbfd02a95cc32766c	-0.25259919110417317
79	0x3fb6d94d52934b35	0.0892532660102859
80	0x3fcae1e28ce65be6	0.21001846198916424
81	0xbfcbdc0037abafe4	-0.21765139311116777
82	0xbfb422b43da5187f	-0.07865454201700749
83	0x3fab04fc222c3d05	0.05277240674160492
84	0x3fc7b4759793afbd	0.18519468213287196
85	0x3f8587d676a427e9	0.010512996192591788
86	0xbfc76cc6827e5470	-0.18300706264259103
87	0x3fc8137b6788e45d	0.18809454493910752
88	0xbf930f596be2961a	-0.018613240442070113
89	0x3f9ab4ab8205964c	0.026079826174642926
90	0x3fcc7b443cee06a5	0.22251179671370838
91	0xbf10e4d1047c5a32	-6.444478742326993e-05
92	0xbfd05ec041d20e27	-0.2557831423548315
93	0xbfc2134be750bb4d	-0.14121388239569868
94	0xbfc6fb99d6a36cfe	-0.17955325107946146
95	0x3fccde9b2e0902bd	0.22554340122043995
96	0x3fbd53c4949c61bf	0.11455944660372717
97	0x3fc4a1cd21818723	0.16118778358491523
98	0x3fc9ce3b66d12109	0.20160620231968832
99	0xbf727e961da9acf9	-0.004515253439062444
100	0x3fab376c509c3b22	0.053157219734307995
101	0xbf998fecd775a7bc	-0.024963093424424918
102	0x3fa41b07d62cbb0b	0.03926872720182047
103	0xbfc375fed731e9e4	-0.15203843600814004
104	0x3fa88c28d7e887f7	0.04794433246230761
105	0xbfa4e8343b63f956	-0.040834076165981045
106	0xbfc975296f12ac02	-0.19888799594386347
107	0x3fb01d2a91f9ebde	0.06294504226563855
108	0xbfb8e1a720b0c703	-0.09719318912609869
109	0x3fc6bafd71a08fe7	0.1775814823932926
110	0xbfcdc3b56b5b55ae	-0.23253505460767826
111	0xbfd3003c1091c722	-0.29688932054624406
112	0x3f7d74b925d49419	0.007191394074912893
113	0x3fc8f7578e886707	0.19504827937708333
114	0xbfb22430b114ea5a	-0.07086471865924562
115	0x3fb1d295aef572e7	0.06961951753096295
116	0xbfb59c498a1a490e	-0.08441600438735383
117	0x3fc232220e9703bc	0.14215493881604668
118	0x3fc6b94abb8f6f80	0.17752966078012022
119	0xbf71d9cd0bdbe71c	-0.004358101808742434
120	0x3f9e9d31b9f6ab6a	0.029896523452105063
121	0x3fb239a373583f59	0.0711919933894455
122	0xbf72981666677877	-0.00453957319265729
123	0xbfce0947b5651bf2	-0.2346582065312926
124	0xbf810914bcf33e28	-0.008318101898480881
125	0xbf9607c325e6be0d	-0.021513985813440373
126	0xbfb28d151bfcba56	-0.07246524747163482
127	0x3fc43b923a13926c	0.15806796870960527
128	0xbfa886ca5bafdf2f	-0.04790336961008134
129	0x3fcb095441c65fa5	0.21122220241227044
130	0xbfd12c6943379425	-0.26833564342661226
131	0xbfb4699f9bcd7fbe	-0.0797366862657318
132	0xbfd4c8870425385a	-0.32473922161887503
133	0x3fa3033af4e99729	0.03713402022985541
134	0xbf9663fac660cfd0	-0.021865766866724645
135	0xbf725cf7b2804e85	-0.004483192031347398
136	0xbfbd4714c951b6c3	-0.11436586298961075
137	0xbf8431cf5000b3a0	-0.009860629681577582
138	0xbf90d3a78256092d	-0.016432397203524452
139	0x3fb8bfb80e72d8c4	0.09667539932965769
140	0xbfc0468c5139c28b	-0.1271529575929161
141	0xbf93a82d3b5f80c8	-0.019196230648845597
142	0x3f953f23517bc62e	0.020748664711339675
143	0x3fab217f6cc2ef6d	0.052989942575975536
144	0x3fc0de072470c918	0.13177575377773887
145	0x3fb6f33eae4ac0a6	0.0896491218106826
146	0xbfc264fe0b36af0a	-0.14370704219378921
147	0xbf937c29a7e86f05	-0.019028330682075118
148	0xbfb55aa70e0209c4	-0.08341449825278519
149	0xbfbfd4013975f67e	-0.12432868626452806
150	0x3fbfa04b975a5b2e	0.1235396618379638
151	0x3f7cb07d77eb07b7	0.007004251586012636
152	0xbfa5899c6f82b5a6	-0.04206551419461428
153	0x3fae608962f43d73	0.05933026631293616
154	0x3f9293dee005ec2e	0.018142206595694592
155	0xbfb0d4bf373066d8	-0.06574626061810862
156	0xbf946ba1d184241c	-0.019941833889820612
157	0x3fa411e079e325f6	0.039198889616795116
158	0xbfbe208bacf7d192	-0.11768410656788422
159	0xbfc083305eaa89b3	-0.12900356886264105
160	0x3fb3fc63c07510b9	0.07806991051353664
161	0x3fb7fa3abbdc5994	0.09366194807475942
162	0x3f992bf8e1abe804	0.024581803106208625
163	0x3fb8ae03bf00467f	0.09640525258171272
164	0xbfaeff2336f46bac	-0.060540295084329315
165	0x3fd699edd268bc60	0.3531450800682645
166	0xbfd4b1f352832a29	-0.32336123521659715
167	0xbfc03a55dafbd67b	-0.12678025429311277
168	0xbfb5e7d98b937988	-0.08556899697894071
169	0xbfc40d2796d661e6	-0.15665144791706992
170	0xbfc02297f8b8fd1d	-0.12605571407946395
171	0x3f9c867da660d29a	0.027856791763229617
172	0xbfa7daf7cfbfe5b3	-0.04659246836667865
173	0x3fc35b9e4ba18368	0.15123346989551156
174	0x3fb7aed05766a59b	0.09251119741261109
175	0x3fafd3f1d8fc4f2e	0.06216388486623568
176	0x3fba1cfb18756387	0.10200471255428854
177	0x3fa105d0c9e18904	0.03324749435775412
178	0xbfb188d10561a844	-0.06849390393623006
179	0xbfae229b7637fcab	-0.0588577825365005
180	0x3fcf126723965e79	0.24274911153473847
181	0xbfc62c9cb73853a4	-0.1732364554051432
182	0xbfa25c8a70bcde83	-0.03586228014176831
183	0xbfcdcae2e2479e12	-0.2327540974504108
184	0x3fd05120cdc727e8	0.25495166869643393
185	0x3faf0a0ec0040dc8	0.06062360853141119
186	0xbfbb16646638258d	-0.1058104276236433
187	0x3fc12dbc5bda92c3	0.1342082451348202
188	0x3fbe54f495db95c4	0.11848381670605251
189	0x3f84fb632c60559a	0.010245108405835524
190	0xbfb2c623ea0b3a44	-0.0733358808895242
191	0xbfca434e30cbb69e	-0.20517899878125417

base.actor.actor_fc3.bias f8 [3]
0	0xbfa5c002b450843f	-0.04248054934601741
1	0x3fc1f758bda19169	0.14036092051822927
2	0xbfae5b8f2bb7a5cb	-0.0592922917238173

base.critic.critic_fc1.weight f8 [64, 11]
0	0x3fada2f4a5dbc5d6	0.057883877989194296
1	0xbfbfd4bffacaa3e2	-0.12434005616036317
2	0x3f7284c9117fcd05	0.004521165297762812
3	0x3fb9168c3f768190	0.09800030278575478
4	0xbfc48b53e1700a1a	-0.16050194270799595
5	0x3fc44b86eb7017af	0.15855490203847242
6	0x3fb7cad0241ca7e3	0.09293843156470376
7	0xbfd0a3f169083311	-0.26000628716501334
8	0x3fd83781dfd77dc4	0.3783878980593409
9	0x3fc03ff7e601b052	0.12695215922156194
10	0x3fc2297c6a5c759f	0.14189105218330852
11	0x3fd93ad523912097	0.3942158553441088
12	0xbfaba6146222b44a	-0.05400146196311846
13	0xbf70adfe8ba6ca54	-0.004072183912671241
14	0xbfb256d73a3c6c59	-0.07163758441713365
15	0x3fd3057bd790db4c	0.2972097020278184
16	0xbf7cc8596f557faf	-0.0070270055342404455
17	0x3fc34d116ced29e0	0.15078943079636442
18	0x3f8a7b6f2cfa0843	0.012930744705276115
19	0x3f925e122464dd17	0.017936976882279767
20	0xbfb312b274fe1c9a	-0.07450404506936295
21	0x3fb211ef1a8ab502	0.07058615110391389
22	0xbfa2b891d7fd8571	-0.03656440507507853
23	0x3fca74b4af6293a3	0.2066865784046544
24	0xbfa9fbed9ff0c0cd	-0.05075018479726765
25	0xbfc9fffe34955ca3	-0.20312478606749548
26	0x3fb9a6f4c36f1f9a	0.10020379802074189
27	0x3fd3e201eb446281	0.3106694028406665
28	0xbfb618eb8da9ee6e	-0.08631775101269465
29	0x3fb2d312dbbec96e	0.07353322853922403
30	0xbfc4d4208d681fe5	-0.16272360710740866
31	0xbfc2ed743fe9bdc0	-0.14787152405504678
32	0x3fafa27f7f4a26bd	0.061786636627471726
33	0x3fdca0bd4686ae4e	0.4473107517939966
34	0x3fe41d3c457aaa38	0.6285687787070122
35	0xbfd22d416e10349e	-0.2840121817433302
36	0xbfe22c40a6f7eb7a	-0.567901922331074
37	0xbfec3acf44538e84	-0.8821789106845732
38	0x3fc9c094b80894c0	0.20118960367213923
39	0x3faa58189f154a87	0.05145337049420556
40	0xbfa11109dbb4daf0	-0.033333118505131654
41	0xbf87c603ea2ee1b4	-0.01160815294666482
42	0x3fb63a0fb68c23de	0.08682344633793046
43	0x3fbd768e3cd7d273	0.11509026513506075
44	0xbfd6f0b173c46d5f	-0.35844074540519516
45	0x3fc8c2beaa4c99f1	0.1934431392230205
46	0x3fc44808a505c996	0.1584482961439561
47	0x3fc0c03fbbaadf3b	0.13086697257471677
48	0xbfd33729cdf1f77d	-0.3002419005568909
49	0x3f93e4bde43fd18d	0.019427268081885486
50	0x3fb13b014b6c5c7e	0.06730659572018458
51	0xbfc1c12e3c164a90	-0.13870790418566914
52	0x3fc8fdbff66c7c2e	0.19524383098993908
53	0x3fd50162ac532e67	0.32820956066709644
54	0x3fa840042322b45f	0.04736340454960763
55	0xbf8621b1af12631d	-0.010806453852909176
56	0xbfb33efd800f411f	-0.07517990471319934
57	0x3fdb9afda88954f9	0.43133489092481586
58	0x3faf9bc86075504b	0.06173540284604025
59	0x3fc07d7695ea1d16	0.128828833771174
60	0xbfc0c547124af3e4	-0.13102043526842444
61	0x3fc5edcf29bc4488	0.17131986177313174
62	0xbfa1d625320f402c	-0.03483692394331714
63	0x3fb3860a78bb9200	0.0762640518910942
64	0x3fb1b930cc415511	0.0692320345563824
65	0xbfaccee5b49182a8	-0.05626600102619267
66	0x3fb67cd844ee50db	0.08784248049625225
67	0x3fc2e4a25f7f09b1	0.14760236418631004
68	0x3fcea05f4afbe739	0.23926917229965186
69	0x3fcb4661bf21c3f1	0.2130853827725612
70	0x3fc5131cefe5efa6	0.16464578355578147
71	0xbfd634aaa13a612e	-0.34696450943876556
72	0x3fc6dd6a14956c40	0.1786320305353417
73	0x3fab30b003ebeae6	0.05310583160276909
74	0xbfa48b2856265aae	-0.040124187961898414
75	0xbf72142b48587d10	-0.004413765976578846
76	0xbf5809451043be5d	-0.001467053837639918
77	0x3fdcd6dd1f8c700e	0.4506142433253907
78	0x3f925c5cccbc73c0	0.017930459972479218
79	0xbfc9e6fdfb2f62c7	-0.20236181988618382
80	0xbfd843f15fac7e2a	-0.3791469034494833
81	0xbfd721838540911b	-0.36142051709090744
82	0x3fcebdcb785f37fc	0.24016707780396007
83	0xbfd041d922c34949	-0.2540190543633299
84	0xbfc9990bbcdb60e9	-0.19998308869867934
85	0x3fd215cd6027561a	0.28258070364003773
86	0x3fbfc3f33dd2a6ef	0.12408371219012414
87	0xbfb2bfd8f4a3d42a	-0.07323986027388743
88	0x3fc487394e910e1a	0.16037670456181347
89	0xbfbb32fa4f0c755c	-0.10624660901927058
90	0x3fc467e130ffd3ee	0.15942015545411387
91	0x3fd17051fd6104ae	0.27248048538246905
92	0xbf79805eee2e164e	-0.00622593958076363
93	0xbfa36e23fdc89f29	-0.03794968102402969
94	0x3fba95af035d0315	0.10384649116623408
95	0xbfbfca7a64e3bab4	-0.12418332064747056
96	0x3fc92d2667c42d2b	0.19669036928858338
97	0x3fc6fc5fd31bb807	0.17957685287495925
98	0xbfb77e42d5592e5d	-0.09177034100246702
99	0x3faf63b624bc1f54	0.06130761335776805
100	0x3f805c1c61c4b7cc	0.00798818753591126
101	0xbfb33551a9921822	-0.07503233327779005
102	0x3fbc4ea4ffa532a0	0.11057502023067878
103	0x3fb1e17c098859c0	0.06984687073450058
104	0x3fbbcf43a2a1358c	0.1086313507123206
105	0x3fc625bb7cb7dd25	0.173026500604217
106	0x3fcc8f8dd248029a	0.22313092010155772
107	0xbfd95db90a43bfd2	-0.39634538652808005
108	0xbfd6a1211596685e	-0.3535845480743144
109	0xbfc78d6707ba21e8	-0.1840027606706507
110	0xbfdb97986e96f4cf	-0.4311276512124324
111	0xbfd0ccfef96ef34e	-0.2625119624970481
112	0x3fca6cb85beeb6ee	0.20644287575617376
113	0x3fdc73d1dbe546eb	0.444569077245531
114	0x3fd807be658aebb3	0.3754726401927499
115	0x3f8ee8de07a4a115	0.015092596634148006
116	0x3fc7f664a13a6698	0.1872068202254027
117	0xbfa8cff27f869549	-0.04846151167593377
118	0x3fb5f0c7ee6f3bb0	0.08570527621416946
119	0x3fac145128a25457	0.054842506609170165
120	0x3fbbc7eb1684d146	0.10851926135803067
121	0xbfe0e172dc80107e	-0.5275205904622593
122	0xbfc3ce71d5e2d10c	-0.1547376913419004
123	0x3fd3b51e29e45b54	0.3079295548536056
124	0x3fda69d4c467dfb0	0.41270941906213476
125	0xbfe43e528f53e1db	-0.6326077269905527
126	0xbfd354f6bd6b5133	-0.30206078050584323
127	0xbfb6892b9a2e069e	-0.08803055299906723
128	0x3fc11ec58ab1ea44	0.13375157615867483
129	0xbfc4a84ad24f0a45	-0.16138587254507022
130	0xbfa2b95046e148cd	-0.03657008042559227
131	0xbfc95677e11d9949	-0.19795130245183604
132	0x3fd6099510964fb8	0.344334856222527
133	0xbfc750156d01385d	-0.18213146040438036
134	0x3fd5e0e5a57c12ad	0.34185162697421384
135	0x3fd47ac3f4cdfb7b	0.3199930086774924
136	0xbfead487256471ec	-0.8384433489150616
137	0xbf931209ed81bfc9	-0.018623499985949175
138	0x3fa8bf41c5eb6ad0	0.048334174547297715
139	0xbfa578324ff461d6	-0.041932651767811954
140	0x3fc01f6757321701	0.12595836408234365
141	0x3fc40744394a7246	0.156471755956675
142	0x3fa275eaa05147db	0.03605588156700864
143	0xbfd34d38846ea148	-0.30158818180872915
144	0x3fc86b13eccd35d1	0.19076775610521549
145	0xbfdb06373ddcd955	-0.42225438157347145
146	0xbfbeacdaf3190de1	-0.11982506213194412
147	0x3fa7eb19b9e10e39	0.0467155494120814
148	0x3fdc45007d97c311	0.4417115427486787
149	0x3fcd9e64fe0058ef	0.23139631655130397
150	0x3fc2907051785516	0.14503292062787726
151	0xbfd27e542b85a387	-0.2889604973811903
152	0xbfd385293b731488	-0.3050025063096844
153	0xbfce04d9626c2253	-0.23452298455983342
154	0x3fb5668b2cf6c4ae	0.08359594199898154
155	0xbfa5a2df857e2a12	-0.04225824837256566
156	0x3fc36b48aa09d898	0.1517115431085514
157	0xbf91e58f47f204d0	-0.017477263227651474
158	0x3fbdb83e70fc9b14	0.11609258898225178
159	0xbfc46f57daa0f764	-0.15964792418702267
160	0x3fa6fdb021431c5f	0.044904235897370574
161	0xbfbfff2c0b55faf9	-0.12498736645464338
162	0x3fc5ebac73f3e322	0.17125468885185408
163	0x3fb589a12a1f275f	0.08413131025659258
164	0xbf90ecacc2c0dc44	-0.01652784289055044
165	0xbfb473d6b4efa692	-0.0798925582636463
166	0x3fab47dad059b1ee	0.05328258317317479
167	0x3fb80ffc0e5e82b1	0.09399390555200672
168	0x3fc4763f2846d47e	0.1598586031592823
169	0xbfc3e8eda8769ad5	-0.1555459091734607
170	0xbfa411453ad7813d	-0.03919426291736492
171	0x3fbb93c63039a5ea	0.10772360494015457
172	0xbfbd3b33541c9ede	-0.11418457797537537
173	0x3fc9d038353747fd	0.201666856750819
174	0x3fcd4687da6b8065	0.22871492543254415
175	0xbfc06fa68a9f7732	-0.12840730446526433
176	0x3faff58ca75ac2ce	0.06242026846792258
177	0xbfc99b5db40a32b2	-0.20005389491088504
178	0x3fd9d13a572e2150	0.4033952571267223
179	0x3fbfdbf45f456a38	0.12444999052005634
180	0x3fb44ae6348a6f5c	0.0792678716920227
181	0xbfc28e88f29806a0	-0.1449748215236939
182	0xbfc2a50584af0716	-0.14566105822273617
183	0xbfc2921d88ae7573	-0.14508408712292073
184	0x3fd0979e7f434233	0.25925409725190035
185	0x3fc993e2fcea74d3	0.19982564305693148
186	0x3fd26bf759215ee8	0.2878397341168992
187	0x3fbb047f842d4a8e	0.10553738572097357
188	0x3f5d9d9618feb132	0.0018075910374860224
189	0xbfc7d38e099b6d1a	-0.18614364117716137
190	0x3fb73d64d6d49293	0.0907805466163814
191	0x3f8dadd0372cc4ea	0.014491678890041066
192	0x3f90358e82f644f2	0.01582930254295873
193	0x3fbda6d7026274ea	0.11582702453820884
194	0xbfd24455f2ed21c5	-0.28542088244696756
195	0x3fdcae2fd7b2577e	0.4481315237438749
196	0x3fd68f03beebc4fe	0.35247892040850093
197	0x3fc116eaa4e4b261	0.13351185847695304
198	0x3fd76f6c1a543581	0.36617567607103046
199	0x3fb2ee7ddc720b8f	0.07395159370393699
200	0x3f8bd5249aaf115e	0.013590131731583351
201	0x3f9aa60ecaa03deb	0.02602408515673275
202	0xbfe9ceb07a7e16d8	-0.8064806358749719
203	0x3fc52b7db24cd59b	0.16538974004803894
204	0xbfe153544ef0eddd	-0.541422037298101
205	0xbfc8310f4c9dc682	-0.18899718514471792
206	0x3fce14ab9a7b5812	0.2350058082872129
207	0x3fd0d2df56aaf344	0.2628706308712945
208	0xbfca61e1f6bbb3b7	-0.20611214206237857
209	0xbfb9a6931aed3917	-0.10019797713650679
210	0x3f6ecac89b9ced57	0.0037588041422204443
211	0xbfc50853adcd4644	-0.16431661592882751
212	0x3fad44f39b3e36ee	0.057166683865132004
213	0xbfd23dfafbc39bd4	-0.28503298364961194
214	0xbfa78a2fb818095d	-0.04597615358581451
215	0x3fc3fd06face3498	0.15615927931176965
216	0xbf5221883a0324a7	-0.0011066274965279373
217	0xbf64e8d36d5af0ed	-0.0025524262844936947
218	0x3f5ed953cdc8264d	0.0018828695675686847
219	0x3fc0f74d7d231eb1	0.13254707918371403
220	0x3fcda6ca22da39a1	0.2316525144746722
221	0x3f938fd73769d9fe	0.019103396184130254
222	0x3fba93285be85b8c	0.1038079475768951
223	0xbf9477ac42ad8250	-0.019987765855491724
224	0x3fab1ae2f42d0705	0.052939503008486745
225	0xbfb32422f3100c63	-0.07477014955661469
226	0x3fd551d658f6857e	0.3331199520854041
227	0x3fb26aff226e36bc	0.07194513884152348
228	0xbfc15c5173cc4f57	-0.13562982706263924
229	0xbfc624e464e1e8c6	-0.17300085950757288
230	0x3fcb41f4c75dada5	0.2129503224817714
231	0xbfc55dd1ac1b1341	-0.16692562965013205
232	0x3fc4b4ff8783bd4c	0.16177362553524188
233	0xbfb482015db962b9	-0.08010872400462689
234	0x3faf6601f4c30b71	0.06132513153854447
235	0xbfb4df47ed7e71c6	-0.08153199718657964
236	0x3f8b04bfb3f70210	0.013192651443092479
237	0xbfc599f275b59656	-0.1687605929138722
238	0x3fc7c39cbf7b496d	0.18565711354910822
239	0xbfd160aba8b8a65e	-0.2715253017109712
240	0xbfc371944852c636	-0.1519036629811567
241	0xbfc8b0519f3a6b2e	-0.19288082384886124
242	0xbfa39449843f5404	-0.03824071635578011
243	0xbf970f0e3ee3a94e	-0.022518370235880263
244	0xbfbcdf78a3035e31	-0.11278490047276858
245	0xbfd20b530a4d34fe	-0.2819411850549186
246	0xbfb2791bb8e7a780	-0.07216046585349822
247	0xbf9a4164c41fd604	-0.025640081854325217
248	0xbfca02b30d3eb295	-0.20320737978672257
249	0xbf93d2792fb77b0b	-0.019357579743764435
250	0x3f9b908fd828c6df	0.026918647354427058
251	0xbfc08cc5380f8a91	-0.129295971272843
252	0xbfc201a357de02ca	-0.14067498960868924
253	0xbfd604129e761185	-0.3439985797379211
254	0x3f9f5a3bd410eb25	0.03061765176628763
255	0x3fd20003a977dcef	0.28125087308531155

base.critic.critic_fc1.bias f8 [64]
0	0xbf6eaaed8ca77053	-0.003743614162187861
1	0xbfc41dc14beb3a62	-0.1571580525109822
2	0xbfe71cc7d0fa3c51	-0.7222632485953772
3	0xbfc2362973d75112	-0.14227789074232838
4	0xbfe37609a4a51c97	-0.6081588950845739
5	0x3fdf505a28c91d0e	0.48927930815666876
6	0x3fe175bf55fa254e	0.5456234626046041
7	0x3fc71b0bd819fae5	0.18051288654165557
8	0x3fd2ad28f31bb53a	0.2918188451866005
9	0x3fc2a8535ca28557	0.14576189063249487
10	0xbfc27ebfcaa1e02f	-0.14449307817608445
11	0xbfc5fb0cb59a4e23	-0.17172392718622218
12	0xbfab2699af7e68c7	-0.053028872177678425
13	0x3fbf308ae064e3e1	0.12183444956180224
14	0xbfd923c6ef536c9c	-0.3928086602370031
15	0x3fccc5c4adfdc50f	0.22478540893238416
16	0x3fd60ae772f5f6f3	0.34441553331986013
17	0xbfc918ee673ece35	-0.1960733417632682
18	0x3fc7281bc57fe99b	0.180911513743763
19	0xbfc294c1e266c634	-0.14516471438177947
20	0xbfaaeb9422c7c67c	-0.05257857250752537
21	0xbfb8971be1202c15	-0.0960557388900017
22	0x3fa42fe1cd5a0ef2	0.039427810971600766
23	0x3fd6b1946d2cd0ff	0.35458861028315874
24	0xbfc66132509151ef	-0.17484120305984116
25	0x3fe17e4d1b071ed5	0.5466676261794087
26	0xbfc742ded134da31	-0.1817282220378771
27	0x3fcf11ae472c507e	0.2427270743870657
28	0x3fe52e936f3fdd7f	0.661935536655548
29	0xbfcbd12857ebb0c3	-0.2173204831409575
30	0xbfd9ab82d0149a48	-0.40109319992408077
31	0x3fd2718043639d6c	0.2881775529953845
32	0x3fe17bdae9e5cd7d	0.5463690346063427
33	0x3fdd17efc29df143	0.45458597188532596
34	0x3fbcd9e8cf2ec21f	0.11270003374262004
35	0xbfc4575613a6a5c2	-0.15891529044647085
36	0x3f9ec09065a7331b	0.03003144855920246
37	0xbfc171a246b928bf	-0.1362803311661249
38	0xbfdf35cfed72151f	-0.48765943706560394
39	0xbfceb8c14df0ddd4	-0.24001327806193606
40	0x3fd714fce35cef39	0.36065599635525164
41	0xbfdc9342d15c86dd	-0.44648809857799937
42	0x3fdad28f1ac4312f	0.41910150159744125
43	0xbfd5a1ecaa41bcda	-0.338008085504908
44	0x3fd1f9989ab348e6	0.2808591376061841
45	0xbfce9b21f2301e66	-0.2391092712934892
46	0xbfdd61499feb7b69	-0.45906296364949256
47	0x3fd9e29e853dfd23	0.40445673953941447
48	0x3fd999da1905ea6d	0.4000153774610798
49	0x3fde279e387929f1	0.4711680938241037
50	0xbfbc1698c35d6f8a	-0.10971979875233565
51	0x3faa5f1c5fca4c46	0.05150688809694563
52	0x3fc2c5a388d356c8	0.14665645771918023
53	0x3facdf699148af2e	0.056392001137594114
54	0x3fe2d06a6c2eae08	0.587941371244086
55	0x3fcff49f6e63025a	0.24965279474237684
56	0xbfa6accf26357e5a	-0.04428717938821754
57	0xbfc494e764d03053	-0.16079418585320812
58	0x3fe032fc4aa8ca90	0.5062238176527263
59	0xbfd0466cddd9ca6b	-0.2542984167586499
60	0xbfd4a675f62127f9	-0.3226599601372296
61	0xbfc848ea806755a0	-0.18972522039136397
62	0xbfb7dbe1bed5feb1	-0.09319888028221147
63	0xbfd79f11bf1c7cff	-0.3690838209458462
