results/Hopper-2d/cmorl-ipo/4/final/EP_policy_39.pt (torch, 85897 bytes, 13 tensors)

base.actor.actor_logstd f8 [1, 3]
0	0xbfd06a2695ad8474	-0.2564789258668221
1	0xbfb670bf0623a111	-0.0876578702915405
2	0xbfe0c40fe5b5216f	-0.5239333616710108

base.actor.actor_fc1.weight f8 [64, 11]
0	0xbf9faa6f26224423	-0.030923592283731104
1	0xbfc9ac8d0ea388c5	-0.20057833876405176
2	0xbfa6eca6c58c53e6	-0.04477425729252342
3	0x3fc21e62d50f5c63	0.14155230906792146
4	0x3fa08aa9e2c8be6b	0.032307919438946474
5	0x3faad5134511e3b5	0.052406885320074016
6	0xbfa390267845e4bb	-0.038209154302373226
7	0xbfbfd93700c18ab0	-0.12440818565805034
8	0xbfbc42118a998cd6	-0.11038312562736805
9	0xbfb137d6368c3578	-0.06725825149279341
10	0x3fa32a0fbb56957c	0.03743027841418731
11	0xbfc8bb52993d731a	-0.19321663362907132
12	0xbfc032cf9dba48a9	-0.12655062867685743
13	0xbf98cbacfd0db95a	-0.02421446127430591
14	0x3fc73bc6875a3b6e	0.18151170357711116
15	0xbfaaf60866be5aa9	-0.05265833143419247
16	0x3faa0bfa1aafcfd9	0.05087262702718904
17	0x3fd1bf3e1e3fd4e3	0.2772975249675495
18	0xbfd2f452ec6f9db1	-0.2961623486466705
19	0xbfc414bf80108587	-0.15688318017150157
20	0x3fa4a4ac0ebf73a5	0.04031884841945236
21	0x3fcf18da28d9a0c4	0.24294592852243657
22	0xbfc5bf3a7c9b5341	-0.16989832958520348
23	0x3fb4a31876c856df	0.08061364078488563
24	0x3fbcc2e0270d9d18	0.11234856561133133
25	0xbfcfa1c581250447	-0.24712437444580557
26	0x3f809f1bee36fa31	0.00811597653125515
27	0xbfc7990a0b2cd8bd	-0.18435788674987022
28	0xbfcb3f71898d9ffe	-0.21287364212480492
29	0xbf95818d8d658933	-0.021002017741360745
30	0x3f86c89088d4a184	0.011124734092462736
31	0xbfc9a8f2aa17c94e	-0.20046838097875724
32	0xbfae06b4f4deaea1	-0.058644919291819926
33	0x3fda08bcd5a1abb5	0.4067833029027342
34	0xbfc03d173861e49b	-0.12686434033438307
35	0x3fcc46dd975a158a	0.2209126462004572
36	0x3fae9854bead3699	0.05975594356150999
37	0xbfc343bd43982eba	-0.15050473976622475
38	0xbfd0e38d7cffae8e	-0.26388871390256774
39	0x3fc25b42b3304aaa	0.1434100508636978
40	0x3faa5c960d3a993b	0.051487626185279876
41	0x3fc5b261cc1fa22e	0.16950628725978006
42	0x3fcb6f43dc6a7379	0.21433304083339147
43	0xbfd21671f844975b	-0.28261994595447043
44	0x3fb05c4032bc320d	0.06390763510371063
45	0xbfc120b50bee44df	-0.1338106449370917
46	0x3fb6d545d82e5d4a	0.08919178512438922
47	0xbfa5bdf8886d7faf	-0.04246498742463644
48	0xbfbcde6a0af91e43	-0.11276877181909932
49	0xbfc4abaac5818a6d	-0.16148886340950544
50	0x3fa049d33b9316a4	0.03181324102619712
51	0xbfb8145fa894b5e7	-0.09406087747330326
52	0x3fc190b5e658dcc7	0.13722871539514456
53	0xbfdbf6adab4df94b	-0.43693105439151186
54	0xbfc440f8a66397e4	-0.15823276638474149
55	0x3fbbfb24f419425f	0.10930090865554963
56	0x3fb0f9a4da3a9d56	0.06630926444869564
57	0x3fd781c54f985f32	0.367295577745142
58	0x3fa3191734de0242	0.037300801471250825
59	0x3fce238c34b60f37	0.23545982908046323
60	0xbfcda1366215a4e5	-0.23148231305393732
61	0xbfc1d8db54e4f132	-0.13943044324140313
62	0xbfb29a4e07a312dc	-0.07266700445604662
63	0x3fc9cec0ee35d228	0.20162212020262982
64	0x3fbef9f8a278e33b	0.12100175825697772
65	0x3fc7dbc28d1ee403	0.18639404192597916
66	0xbfacbbcc594a7c9e	-0.05612028684594715
67	0x3fd00cc137a1556c	0.2507784884704367
68	0xbfd46a6d0a9ee7cf	-0.31899572407894267
69	0xbfd7d043eb7a44b4	-0.3720865058504146
70	0x3fb00feabf551948	0.06274287387086475
71	0x3fbd34dcb0dc4f1d	0.11408786123166377
72	0xbfd7983db4ff61e3	-0.3686670558504643
73	0x3fc2d6b4ae7f494e	0.14717730064746565
74	0xbfc130c44354dbd6	-0.13430074012441534
75	0xbfba8c17112f8ea3	-0.10370010537695377
76	0xbfb9d08ee85185e0	-0.10083859607541212
77	0x3fd7e13bdece25c6	0.373122184355989
78	0xbf5d5f0939347656	-0.0017926778862781454
79	0x3fd8c330654e155e	0.3869133939081929
80	0xbf9d165219a5b353	-0.028405459227929097
81	0x3fb91be85a8c186c	0.09808208666444934
82	0x3fbea2d86bb0ca81	0.11967232350506586
83	0x3fc50dde85605bb0	0.16448575508613095
84	0x3fc4427cca7afb54	0.15827903639543683
85	0x3fc72f069b6b3c91	0.18112261380017405
86	0x3fa5800403a39943	0.04199230713293158
87	0x3fd4df91c5aa3bcf	0.32614559462757325
88	0xbfc293a9b74a7a10	-0.14513131570579718
89	0xbfc8246a745446e9	-0.18861132316720067
90	0x3fcbb6fcf11029ec	0.21652185221348874
91	0xbf470e665f7fbcae	-0.0007036208980916359
92	0xbfda064a2c516a83	-0.4066338951867367
93	0xbfcfcae82aa1fe39	-0.2483797271888635
94	0xbfbcd05b19870580	-0.11255425809124198
95	0x3fc4fc1325cd1ce5	0.16394271226656723
96	0x3f886fe2322fda6a	0.011932150990088892
97	0xbfa4329282df92c2	-0.039448336101292295
98	0xbf93c9cdee2d3d0e	-0.019324510252144704
99	0xbfd49c83d2bcb86f	-0.32205291347316395
100	0x3fc055a57ec58188	0.12761372270598437
101	0x3faff1d419c3c8e5	0.06239188017379308
102	0xbfd1c830b1252940	-0.277843640321084
103	0x3fb3670df51b8e51	0.07579123720238924
104	0x3fcd78af82a23fc3	0.23024553183176807
105	0xbfcd6c6f1f640190	-0.22987164528605009
106	0xbfa1f3db399672da	-0.03506360128378612
107	0x3f929826ffabd92d	0.01815854011052769
108	0x3fac46e5711621ea	0.055228395514010334
109	0xbfcefcb1cec4d4de	-0.2420866260160101
110	0x3fc7033ea9e78112	0.17978652282818836
111	0x3fd817a756f56f60	0.3764437054830889
112	0x3fc79a071d35a36c	0.1843880550980218
113	0xbfc621b7ac5bae27	-0.17290397563861967
114	0xbf85a8ad3b4b8ea3	-0.010575631496471621
115	0x3fb913494725a241	0.09795053469645955
116	0x3fab45444af44350	0.05326283850639035
117	0x3fd7c0bdf28a5a4a	0.3711390369948374
118	0x3fc4ff7831d5bb00	0.16404631074279763
119	0xbfb123707931ffbe	-0.06694701155538405
120	0x3fda0a1c9038cf38	0.40686716159983716
121	0x3fe3cd38389bf328	0.6188012223861721
122	0xbfae737868baaaf5	-0.05947471884186043
123	0xbfc97102811cd215	-0.1987612848694346
124	0x3f9d8fc714eceba3	0.028868780758084644
125	0xbfc2658a7830f393	-0.14372378224097968
126	0x3fc5ae4ff903f819	0.16938209208450486
127	0x3fb3177dc6840b94	0.0745771989495963
128	0xbfc56efae8bb9ddd	-0.16744934429082906
129	0xbfc658a6c02f2f87	-0.1745804251098628
130	0x3f8791d825628969	0.011508644715210807
131	0xbfb7647265833416	-0.09137644747097826
132	0xbf61eda823c709e2	-0.0021885189036947453
133	0x3fc02984e2ac0462	0.12626706188169395
134	0x3fc2be7f8ac1ea24	0.14643854403750922
135	0x3fa88a0c0d5737f6	0.04792821562624276
136	0x3fbc7408bb024e62	0.11114553990983603
137	0x3fd4cb5ac6c90554	0.32491177952404837
138	0x3fa7728a98463273	0.04579575642410285
139	0xbfab9f6a8fe134fe	-0.053950624526445154
140	0xbfb4c3d909f13a92	-0.08111340038997586
141	0xbfa093457ce47e40	-0.03237359189574507
142	0x3f9e780c0ac948b3	0.029754818113652614
143	0xbf55156c6db42183	-0.0012868460533486954
144	0xbfd558c4c85c91ec	-0.33354301039278655
145	0xbfbbe81d471b3845	-0.10901053415293045
146	0xbfc5a929aca76f09	-0.16922493868229818
147	0xbfca5e4b10e7f92e	-0.20600260091300399
148	0xbfbfe8bee86d8bbc	-0.12464516806134801
149	0xbfc604c8e11c117c	-0.17202101699525574
150	0xbfcb7b0472149631	-0.21469169206936692
151	0x3fbe4c6a361258fd	0.118353498650638
152	0x3fb8d0eedb0c62e1	0.09693806503163273
153	0x3fc5e6c1b8ff84b3	0.17110463650809535
154	0xbfc64342623e2a8c	-0.17392759129537116
155	0xbfaee4ab2a4481cd	-0.060338353070850205
156	0xbfd209e5ed7c186d	-0.2818541354357709
157	0x3fc92ccf19372bc4	0.19667996150232459
158	0x3f95aae08bd88771	0.02115965703536155
159	0x3fd419048c25826f	0.31402696310218564
160	0x3fbdfa7e659b110b	0.11710348110779394
161	0x3fabcb66bb181e90	0.0542862037073607
162	0xbfb4bf722d075940	-0.0810462341245044
163	0xbfb03b0c7c0ff24e	-0.06340101269592788
164	0xbfc52ee3669cbb82	-0.165493416885024
165	0x3faeca70fa604db2	0.06013825470304414
166	0xbfb2f83c72af347f	-0.07410028266822798
167	0x3fae55fc545852b0	0.05924976853944963
168	0xbfca61fdc4f771d3	-0.2061154567480928
169	0xbf874c5fcfb4c146	-0.011376141096292824
170	0xbf9fb0347b4fad66	-0.0309456062567909
171	0xbfb068295bab3886	-0.06408937919624877
172	0xbfcdba9dbc8629ef	-0.23225757317807402
173	0x3fcdc07ee1819013	0.23243700037994638
174	0xbfd1d9a732bd4c46	-0.2789094920637506
175	0xbfa0da1684159f03	-0.032913879035559666
176	0xbfa272e48202c6d1	-0.036032811041321396
177	0xbfc0e22d473418d7	-0.13190237023099513
178	0xbfd269dd2ec7cfb6	-0.2877114254799794
179	0xbf7584ef5aea2d8b	-0.0052537298021308005
180	0xbfb7fb43134923da	-0.09367770405619016
181	0x3fccb93526634bc1	0.22440208792121832
182	0x3fc8bffa6e213038	0.19335871102737356
183	0xbfc226cdcd8416b8	-0.14180920157393984
184	0xbfd13de2b205cac6	-0.2694021929266167
185	0xbfc62c62f3ff33f9	-0.17322956956778038
186	0x3fce269b3266f547	0.23555316887897446
187	0xbfae6c1b99fabd46	-0.05941854719764676
188	0xbfc98a234517a593	-0.19952813028002633
189	0x3fb5845d44880232	0.08405096934439696
190	0xbfc502b43b6aa1f4	-0.16414502049634871
191	0x3faaf5a741ca9315	0.05265543630711115
192	0xbfcdd53279ff036b	-0.2330687614139849
193	0xbfc5e6e8a3859745	-0.17110927566971604
194	0x3f8c5ca21190d10c	0.01384855857950431
195	0xbf9f6ace0db2d380	-0.03068086584672214
196	0xbfa32b304b8937d1	-0.03743887826986703
197	0x3fe1d71dc3468d79	0.5575093091942299
198	0xbfd5521bcf24059d	-0.3331365130289557
199	0x3fa28c707af32166	0.03622771740771462
200	0xbfd09bdb05076c0f	-0.25951266757118757
201	0xbfcac59993c816f6	-0.20915527072809653
202	0xbfd9f9f383fda25b	-0.4058808125469448
203	0x3f7e149a54c745d3	0.007343867164722312
204	0xbfd013ac8a3a66f1	-0.2512008046993364
205	0xbfa05e73ba143793	-0.03197061201545561
206	0xbfaadcd3a5b787f3	-0.052466024378887165
207	0x3fa12229d60e37ca	0.03346377122862483
208	0xbfafdb76d3640d10	-0.06222125368551634
209	0xbfcaca5351be0f1a	-0.20929948321656228
210	0x3facf2c2bcce2cfa	0.056539617106944065
211	0xbfc0f5e93debc802	-0.1325046112393125
212	0xbfc53950d8c462d1	-0.16581163963635118
213	0x3fb053601231e769	0.0637722057744249
214	0x3fcb7f8e1c57b8ca	0.21483017333907234
215	0xbfc8f17a5a78b8ba	-0.19486932199055734
216	0x3f9be77df0ec9948	0.027250259237143554
217	0xbfc1c5fb93f092cd	-0.13885445331211202
218	0x3fb59b0bc369c10c	0.08439706345393833
219	0x3fd8c472184a545d	0.3869900929651687
220	0x3f6f69d9c9b7235d	0.0038346532507812906
221	0xbfb5e7c7c50a6cd4	-0.08556793747486618
222	0x3fcc5a895ea1ace0	0.2215129577701651
223	0xbfbfd7907d2f38b6	-0.12438300186406334
224	0xbf69119917a3f95b	-0.0030601492009047332
225	0x3fdd824a5acc8d05	0.4610772978505369
226	0xbf4d409dd7d65436	-0.0008927126615839779
227	0x3fc0396e994508b8	0.12675268634672476
228	0xbfbe7f3276a29a0c	-0.11912837406507765
229	0xbfd6c1143f063a0c	-0.355534612223807
230	0xbfb99b39131818c6	-0.10002476421513781
231	0xbfda2cef5a91745f	-0.40899261326359765
232	0xbfc572921d6065be	-0.16755892214204765
233	0x3fb2752014c02034	0.07209969050029558
234	0x3fa7bdb2f5923848	0.046369163968038196
235	0xbfa6fd1d632e9d0e	-0.04489986263006972
236	0x3fd2cb680a9a23a5	0.2936649421249576
237	0xbf9ad2e4a10bd2e6	-0.02619511826465528
238	0xbf79df483e18f9b3	-0.006316454122098514
239	0x3fb33fc3883f739c	0.07519170833934513
240	0xbfc307fe4a6bc83f	-0.14868143686141086
241	0xbfcc62ca9103e1dc	-0.2217648704606877
242	0x3fc1312ca00d0e6f	0.13431318106642062
243	0xbfd4237bca889d52	-0.31466574457814034
244	0x3fbb2b85accb897f	0.10613284557942924
245	0xbfc2849b3783aa2c	-0.14467182360324793
246	0x3f5f639e91d83898	0.0019158409626274572
247	0x3fa08fbbaf50c2cc	0.032346596861662386
248	0xbfd20c7c552e8cbd	-0.2820120651105745
249	0xbfc2c2931f681d2e	-0.1465629485466961
250	0xbfc67d804a957ebc	-0.17570499078555268
251	0x3fb34b01a98c53f3	0.07536325826033856
252	0x3fa8196060020c3d	0.0470686070630326
253	0xbfe09db719477fe5	-0.5192523473488079
254	0xbfd0e19517652b5e	-0.2637684563130075
255	0xbfbed05b9d7c1087	-0.12036678881492167

base.actor.actor_fc1.bias f8 [64]
0	0x3fd16268f228cf33	0.27163146637325325
1	0x3fbba28d968bea3b	0.1079491131348868
2	0xbfd1142001e1485e	-0.26685333427042746
3	0x3fc157e2c6c1cb7a	0.1354945631497591
4	0x3fc21daedb31aa3b	0.1415308542521688
5	0x3fc6aacd14ad33b6	0.17708743581388625
6	0x3fa294b0967514d1	0.036290663114905926
7	0x3fa12aa583e6f095	0.03352849230893288
8	0xbfc07a0d4fdd4f09	-0.1287247314418141
9	0xbfc3302e920daadb	-0.14990789538872815
10	0x3fb9443d65beb4c2	0.09869750722892248
11	0xbfc108cac18eec41	-0.1330808110340929
12	0x3fd33415753f9ffe	0.30005394411136865
13	0x3fc1dfbf276f791f	0.13964070725973785
14	0xbfc5a40e080ada23	-0.16906905548758386
15	0x3fb74776c9bbe5b9	0.09093420434137202
16	0x3fbd324c72911675	0.11404874608077782
17	0xbfafcc98cc7bbf68	-0.06210782524237751
18	0xbfc7747badcd2d31	-0.18324228273773138
19	0xbfb127a92f9be208	-0.0670114270432195
20	0x3fd032456a033b10	0.2530683074264042
21	0x3fc54cfcef9fef9f	0.1664119882624364
22	0x3fbde4f697cb76de	0.11677495199134166
23	0xbfd0998e81dac195	-0.2593723552809249
24	0xbfbbb7b9caf0c4d1	-0.10827218250848893
25	0xbfb0aa79a4f33393	-0.06510124470805882
26	0x3f9bda346fea6e66	0.027199572878642185
27	0x3f90a05001bdc082	0.016236543756747775
28	0xbfcfcfe19f43bdc2	-0.2485315349253892
29	0x3fd38e1f8b21a094	0.3055495127396253
30	0xbfbc7e103d911d54	-0.1112985754308416
31	0xbfb4e71a2503e1e0	-0.08165133861246643
32	0x3fcf3120fdf9d5e3	0.24368679429214443
33	0xbfc0ca77899c7ded	-0.13117880076696
34	0xbfbea490ee62a01a	-0.11969857997849012
35	0x3fb82f1bb69652bf	0.09446881492324176
36	0xbfc9b209c4224865	-0.2007457931218283
37	0x3f8ff682c6326178	0.015606900857435532
38	0xbfb50b3fe2eafb2a	-0.08220290460574789
39	0xbfd8a6c0e27d3228	-0.3851778232390495
40	0xbfaf0430ba0a810a	-0.06057884474762616
41	0x3fd97a0bb02da04b	0.3980740757456302
42	0x3fa8af03f5cb7920	0.048210262064218634
43	0x3f924129a47a8ad4	0.017826700843793855
44	0xbfb3965c8cdb94c4	-0.07651308478269231
45	0xbfb28e266d3ba574	-0.07248153845616462
46	0xbfcd90d2d25c47a3	-0.23098216315753203
47	0xbfcdc7f4868b9c59	-0.23266464776608833
48	0x3fc5471448a94c7a	0.1662316660682313
49	0x3fcea8f7d485dbdc	0.23953149678319974
50	0x3fc6e2c7f05f13cd	0.17879580723652425
51	0x3fbb141665676ef7	0.10577526069340225
52	0x3f8f89913a3f7a5e	0.015399107542120646
53	0x3fae8cbf84740e78	0.059667572897549925
54	0xbf9eeb753ce65d06	-0.030195075838119777
55	0xbf8c29347e2034fc	-0.013750467394880499
56	0xbfc115b34f32bc08	-0.1334747444829818
57	0xbfcb04f46998a56b	-0.2110887065512473
58	0xbfb74145e66475a6	-0.09083973765196748
59	0xbf8f571b09d8b0ef	-0.01530285953330021
60	0x3fa300950903dc9b	0.03711381659552978
61	0x3fcec23ab52caab7	0.24030240866098548
62	0x3fc9d97ce3197b7b	0.20194970215649363
63	0x3f9e118181e77d1c	0.029363654664732328

base.actor.actor_fc2.weight f8 [64, 64]
0	0x3f704ad64dbb4b3e	0.003977620242681832
1	0x3f928c3a61c3c29c	0.018113052575190566
2	0x3f9d02873e302a23	0.028329957171118757
3	0xbfcb81afc3650db8	-0.21489522019156282
4	0xbfced1f28e0f74a2	-0.24078208862821265
5	0xbfbad15081e88e51	-0.10475638553230594
6	0x3fd4c5657cf2ae48	0.32454812242460607
7	0xbfd1ce8b1aa397ea	-0.27823140717953143
8	0xbfcac8d06e3db58d	-0.20925336249221652
9	0x3fb824d3e46119b4	0.09431194615999666
10	0x3fca08a34e08f250	0.20338860807705084
11	0xbfc421799558c346	-0.15727157394715102
12	0x3fac9e473e7be6c6	0.05589506757492084
13	0xbfb23d20a2787618	-0.0712452313095685
14	0x3fc16fd86cf58ea3	0.1362257511165029
15	0x3fc156df22c0616d	0.1354636115727418
16	0xbf80cd3694d430b8	-0.008203913132568949
17	0xbf91f1e00682d5a5	-0.017524242780117345
18	0xbf7d9eab4302ab2f	-0.007231396666763242
19	0x3fbc446e90657a82	0.11041918778708218
20	0x3fccb8c0011a4c9e	0.22438812307209316
21	0x3fc21f6887aa5858	0.141583505862118
22	0x3f8bdd32f4c6823a	0.013605497450783866
23	0xbfb95d56934f77ec	-0.09908047768064393
24	0xbfd51c0b549d91e2	-0.3298366857837022
25	0x3fb3b7a05ea1ba93	0.07702066717477356
26	0x3fc31d0afb2da4c4	0.14932381882252888
27	0x3fdfb6a4f5181d4c	0.49552272734623126
28	0xbf92c4b4029f97f6	-0.018328488025780097
29	0x3fd199f27b506b6f	0.2750211910476343
30	0x3fdc175e6b9d0814	0.4389263201629785
31	0xbf8a1903ca15c6fa	-0.012743024449011642
32	0x3fc52342b343caef	0.16513856652417
33	0xbf9dd81f395c7da6	-0.029144752384238658
34	0xbfbc727f2e5a37c6	-0.11112208253527375
35	0x3fb71e0a5c34aab7	0.0903021311866422
36	0xbfb180dbc604ba5b	-0.0683724745219733
37	0xbfb5b7e592c7b9bd	-0.08483729203701436
38	0xbfa5da06116d6a5b	-0.042679013850563684
39	0xbfcfb5061f6a449a	-0.24771191152516253
40	0xbfab374bec75c03b	-0.05315625440096069
41	0x3fc7686a25457626	0.18287398166550978
42	0x3fa5880d0faea18e	0.042053611912083885
43	0xbfc51c0bc3904823	-0.16491839455608312
44	0xbfd099792575965b	-0.25936726244103675
45	0xbfc7e34cad0235ff	-0.1866241307038052
46	0x3fbb74a97600ff40	0.10724887019113982
47	0xbfc0df6d71c8967d	-0.13181846671902867
48	0x3fd5a9f3e005d191	0.3384980857583964
49	0x3fa799c16db5ae7c	0.04609493698339137
50	0xbf952b0da1cd66f3	-0.020672047615653843
51	0x3fa56f93cbf1d0c8	0.041866892476635054
52	0xbf603150a02c6bc2	-0.0019766401977796286
53	0xbfcfce23bedfc1f2	-0.24847838230154157
54	0x3fa44af7fa09301f	0.039634465476950924
55	0xbfb4c5f9ab67098d	-0.08114586290961352
56	0x3fceb395ea20a32f	0.23985551769262645
57	0x3fc3117c3239b463	0.14897110416805778
58	0xbfbcc0c025fa3f55	-0.11231614043412937
59	0xbfd9f9c20af12aaa	-0.40586901730118063
60	0x3fb17a779c9fe50e	0.0682749516853571
61	0xbfa016f2455414ba	-0.031425066912598124
62	0x3f6892b1c76ec985	0.0029996368643533966
63	0xbfb5b3be0bd0011f	-0.08477390087501079
64	0xbfbcc6dcdd550bf8	-0.1124094047891474
65	0xbfc33c77b11dc337	-0.15028282306914217
66	0x3fc4f7a4b6f75b14	0.16380747732065315
67	0x3fc6e7d0a69557dd	0.17894943365052898
68	0x3fbb4fa0bdc6bc7a	0.10668377526484277
69	0x3fb9028b4811c9e2	0.09769506940373376
70	0x3fcbb9f0f0120679	0.21661197397411394
71	0x3fd892b9d8346eab	0.3839554416060575
72	0x3fbbb8cdcc0f7a27	0.10828863365120665
73	0xbfbfb592e8a179d2	-0.12386434726202047
74	0x3fc6a3aad29d66a0	0.1768697288887795
75	0x3fbe8a7fbb368973	0.11930082626944287
76	0xbfcaf7c8cbe0525e	-0.21068677859206536
77	0x3fc291822edc210c	0.1450655678565983
78	0xbfd1bb4fc44a5faa	-0.27705759209629355
79	0x3fbb54c9b3462e24	0.10676251055536362
80	0x3fa0b7897376173e	0.03265027555884935
81	0xbfc6761ccdd26ac1	-0.17547950792216763
82	0x3fd814a355d6a72f	0.3762596452967157
83	0xbfd27a3371135d5d	-0.2887085537199335
84	0xbfb5b0c07218bf10	-0.08472826753199691
85	0xbfb3a18936229ddb	-0.07668359347973512
86	0x3fc56a526af25854	0.16730718824391266
87	0xbfa4fa3ecc86b81d	-0.040971720186789386
88	0x3f9269fcada7a96e	0.0179824334135587
89	0x3fd259cee94c9ab9	0.28673146041038994
90	0x3fc6ad2f6fcf4dd5	0.17716019591772061
91	0xbfd1ac33432154a0	-0.2761352687424026
92	0x3fc23112028b9ac5	0.14212250828059872
93	0x3fb1a79044191e6d	0.06896306669761439
94	0x3fc541599a3eff92	0.16605682403132654
95	0x3fa5c678523ae44f	0.04252983096871132
96	0xbfc82c60b616a867	-0.1888543023208655
97	0x3f801d9901d778b9	0.007868953102783004
98	0x3fc829229a2a38c5	0.1887553456076089
99	0xbfc44b0f4358f013	-0.1585406378598014
100	0xbfa991181c887fa6	-0.049935105784469955
101	0xbfc9bc1aae593d1a	-0.20105298531641652
102	0x3fc4c89ca74b0bd2	0.1623721901761131
103	0x3fc1ba4114900ef7	0.13849652771033735
104	0x3f9bb341b2309e38	0.02705099725804258
105	0xbfd2f540f0243ca4	-0.2962190957195594
106	0x3fd287e56273dba6	0.2895444356394655
107	0xbfc45d1b83752871	-0.15909141463118062
108	0x3fa4f0fc1df3820e	0.04090106835952066
109	0x3fb6b1cee3cdc7a2	0.08865063726059799
110	0xbf5951cb204d595d	-0.0015453799871543918
111	0xbfa6009031562c93	-0.04297304727796205
112	0xbfc38a102b330af1	-0.15265085324616437
113	0x3fad05b1611d7328	0.05668405828939732
114	0x3f863ada230b2601	0.010854438967174753
115	0x3fbe0fcfbac7bc18	0.11742876348556341
116	0xbf9f3e1d628d2b4e	-0.03051038660059229
117	0x3fcd1bda4ae00b52	0.2274124971009664
118	0xbfd5a701f709c8fb	-0.33831833958460295
119	0xbfc0d5b456b3749a	-0.13152174218604246
120	0x3fcf0d268be7bfbe	0.24258882361709583
121	0xbfc1860efe8bc94b	-0.1369036429310405
122	0xbfbe7b8a041b73ab	-0.11907255745195637
123	0xbfc88a90b59aa23e	-0.19172867648491548
124	0x3fd6f66867d0270c	0.35878954065320623
125	0x3faf5638aa1c8609	0.06120469166331694
126	0x3fb1c9206bbba29a	0.06947519903372737
127	0x3fa9488bccb2ed0f	0.04938160775915367
128	0x3fb9909603ec7904	0.09986245723527892
129	0x3fa17ebaffc36bb0	0.0341700017176757
130	0xbfb1f620c9bf4a2e	-0.07016186643094421
131	0x3fd925590f04dc17	0.39290453402230824
132	0x3fd15e77250a7d92	0.2713907109955126
133	0xbfd10910a22b38e1	-0.2661782821350141
134	0xbfca7c430c0eceb8	-0.20691717232477003
135	0xbfb9bc117dbe968a	-0.10052594489988045
136	0x3fbb64772912a16a	0.10700173142197902
137	0xbfbc93214c5b6d01	-0.11162002672374528
138	0xbfc68dee24f7ad95	-0.1762063675408682
139	0x3fc2a43c1be85e74	0.14563704836540448
140	0xbfc436a23cf893f9	-0.15791728951549525
141	0x3f7e27d21ca107fc	0.0073621947759097105
142	0xbfc2f25e93ef534d	-0.14802152846700736
143	0xbfb2a0b3fb81691c	-0.07276463403960459
144	0x3fa3df1c71bd22f6	0.038811577686436324
145	0xbfc59a583b92b4b5	-0.16877272518960287
146	0xbfa6665e9ce1ab15	-0.043749767923904205
147	0xbfd9052c9527f946	-0.39094080511121765
148	0xbfb270ae210b7132	-0.07203186327700875
149	0x3f4ba93398f9f971	0.0008441450062972989
150	0xbfb1ce6d89302d12	-0.06955608939476957
151	0xbfaa8acdf9e10c08	-0.05184024501115664
152	0x3fa1eac952191df5	0.034994403144590715
153	0xbfc3641cdc5df42f	-0.15149269828899167
154	0xbfd239276151ad68	-0.28473839286626523
155	0xbfd1b25bf2ed6fe9	-0.2765111801470526
156	0x3fbf2785787561ab	0.12169679823762773
157	0x3fd02b742b25e70e	0.2526522084586852
158	0xbfd15989ade0797f	-0.27108995418702614
159	0xbfa30b08ad2c1b28	-0.03719355691833065
160	0xbfa1ae985963f88c	-0.03453518000786557
161	0xbfc5df7b9599fded	-0.17088265232813118
162	0xbfb3c63049ee1215	-0.07724286847048518
163	0xbfc07b2fd07f6318	-0.1287593620352474
164	0xbf8cb3d82c6b4e86	-0.014014901023450276
165	0xbfc1d74a4329518a	-0.13938263205876594
166	0xbfd638d77a133722	-0.347219342435766
167	0xbfa7c466754b3377	-0.04642028981979867
168	0xbfa0dad50053f421	-0.03291955594065877
169	0xbfc98871d76185c0	-0.19947646156928833
170	0xbfd18f70fd9aba0c	-0.2743799664121134
171	0xbfb27b409dced14a	-0.07219318249446363
172	0x3fc230e90fc9e8b1	0.14211762686665488
173	0xbfd0374a310d6ac6	-0.25337462225222074
174	0x3fd392fdcee8455a	0.3058466454104597
175	0x3fbde3e7b057a863	0.11675880484804817
176	0xbfc663073001a61c	-0.1748970970541429
177	0x3fd6e842f56e19bb	0.3579261204507948
178	0x3fc8c9d1f9b53fd9	0.1936590642239924
179	0xbfcac34c795383c2	-0.20908504413730894
180	0x3fe22c363ef4b886	0.5678969602211204
181	0xbfd324c9511ac3a1	-0.29912026329389546
182	0xbfbbe4b709a60655	-0.1089586638027183
183	0x3fcb800f0ffd84ff	0.21484554558541188
184	0xbfd7a2cb2d6b8200	-0.3693111365846846
185	0xbf88af48243299e4	-0.012053073506035746
186	0xbf93fb92bb915248	-0.01951436300108103
187	0x3fb0ad0c7da933ad	0.06514051502126846
188	0x3fc57b62f384390e	0.1678279580159558
189	0x3fbf73b9982251db	0.12285957302294241
190	0x3fcc19c883787843	0.21953684253179703
191	0x3fd0f8ce8350a55d	0.26518595527394045
192	0xbfce3f8544cfb3da	-0.23631349430016152
193	0xbfcdace1d1af7737	-0.2318384431700282
194	0x3fd1e0643922e60e	0.27932077007025746
195	0xbf9fa6183bd37b82	-0.03090703835629994
196	0x3fbc505cdb13a268	0.11060123776008768
197	0x3fd6d95cdccf6d49	0.3570167690611084
198	0x3fca19919973ec82	0.2039052962571511
199	0x3fb1a0ec9e47f739	0.06886175979886112
200	0xbf998ed971d8ecd6	-0.024958989690486565
201	0xbfa39dbbd08f3729	-0.038312787255206544
202	0x3fbe1a077c51c913	0.11758467469352167
203	0x3fb2371fc3a09bfe	0.0711536266904744
204	0xbfa529b5e4558acc	-0.04133385097772688
205	0x3fcbbf1ee5b1e68e	0.21677004066059563
206	0xbfc3e7a3d8d66acd	-0.15550659263393243
207	0x3fc00e59dffc6289	0.12543796002207255
208	0x3f5ef9796f83f813	0.001890534009418858
209	0x3fe533766bda9cfa	0.6625320536158192
210	0xbfc7f1e60322daa5	-0.18706965592510474
211	0x3fdc9101dd54d207	0.446350542205693
212	0xbfd6fbac27e1a739	-0.3591108693568575
213	0xbfd6b8046de6d7d1	-0.3549815247782791
214	0x3fcdc6da04ac08f4	0.232630970269447
215	0xbfbb592849c04b90	-0.10682918358388194
216	0x3fb5256f6554d696	0.0826024649039375
217	0x3fd16eb154fc6654	0.2723811464253221
218	0x3fca3a63e7a01fd5	0.20490692910993738
219	0x3fc2b77623c0dd57	0.14622380014200573
220	0xbfc7cd49a503efaf	-0.18595238263503464
221	0xbfa5020789834734	-0.04103110841391669
222	0x3fb61869c38a88ef	0.08631001495317368
223	0x3fc4d26852d1286b	0.1626711277370448
224	0xbfb5d16fd0f9d0bf	-0.08522700168561224
225	0xbfbdb92330fe2005	-0.11610622354612594
226	0x3fd108010ad64f66	0.26611352976146063
227	0x3fb8b4ed0d1cebcd	0.09651071138516372
228	0x3fbb69e706b5676e	0.10708469308647547
229	0xbfc5e8b494b14a72	-0.17116410503747975
230	0x3f93462f1151e7bf	0.018822417671323196
231	0x3fbf18602444c393	0.12146569142784207
232	0xbfd1bc777d6bf4af	-0.2771280979939758
233	0xbfb64650ae3ea457	-0.08701042417546155
234	0xbfc00f0b278463db	-0.12545909337566638
235	0xbfd857a58ef53db9	-0.3803495307992893
236	0x3fcc661c08ae8be3	0.22186613487164583
237	0x3fdcd471876728a0	0.4504665205282752
238	0xbfaebdb280f14f07	-0.060041025390686946
239	0xbfd62aed9407b4cc	-0.34637011962952324
240	0xbf9e0240b382f745	-0.029305468517797157
241	0xbfd031769cf8b15a	-0.2530190022396447
242	0xbfc991c11b7217b3	-0.19976056900139624
243	0x3fcd03399684f790	0.22666091775493813
244	0xbfd61413b55b2f91	-0.34497540197912097
245	0x3fb51c1be3dbf179	0.08246015847175227
246	0xbfc07afa0cd60913	-0.12875295283090135
247	0xbfbc68c72d5fb725	-0.11097378595124192
248	0xbfa2fbb9c73a9a89	-0.03707676465028437
249	0xbfba1c0bd03764f0	-0.10199045022399722
250	0xbfd45a973e7a5c19	-0.31802922345508616
251	0xbfd2f913a9866de1	-0.2964524417418187
252	0xbfda81c0564a0585	-0.4141693918864678
253	0x3f8d5b98da39be7b	0.01433486381503645
254	0xbfd32091c79b9373	-0.29886288159314417
255	0xbfc82850ff7d5e05	-0.18873035883983405

base.actor.actor_fc2.bias f8 [64]
0	0x3fbd51987cc24dc5	0.11452630086778644
1	0xbfbeb9c3ce7cf19d	-0.12002204695904202
2	0x3fb8187344a4e4d6	0.09412308145410306
3	0xbfbcccc57b621267	-0.11249956381113578
4	0xbfd3c3b2f0f7f489	-0.3088195183953038
5	0x3fd1dbe416ab2efc	0.27904607976664386
6	0xbfca6da7b967b28f	-0.20647141030294278
7	0xbfb18462a5ab2aa8	-0.06842628998416933
8	0xbfa9e678b2c4acfb	-0.050586482832239064
9	0xbfb47113240ed464	-0.07985038404770389
10	0x3fcd81b6ffbeaf28	0.23052108275930405
11	0x3fb76dc4e6d68f63	0.0915186942643778
12	0x3f863b15de40d99a	0.010854883999951426
13	0x3fced482c2e085ad	0.2408603145168348
14	0x3f9786057f245a5d	0.022972188840038366
15	0xbfad77956e357ed9	-0.057552976325266854
16	0x3fb334f3bead092e	0.07502673535512791
17	0xbf97f88aece83566	-0.023409052571925847
18	0x3fc0a8c78e2c03d6	0.1301507419775862
19	0x3fc724c07d85decb	0.1808090794472633
20	0x3fc3e8b6782a1bac	0.1555393301716469
21	0x3f7523c54bc1ece2	0.005161066710680036
22	0x3f9a16b7a45f0411	0.025477284820002725
23	0x3f8f430d1e92eaba	0.015264608855763629
24	0x3fc69419eaed35ae	0.1763946911909619
25	0x3f989e7dde186e7b	0.0240420977407738
26	0xbfc1928c2e172b5a	-0.1372847771693511
27	0xbfaefb2aca6a81c0	-0.060510003289212744
28	0x3f843b2b972d77e7	0.00987848334414916
29	0xbfc6feb607f5a1b3	-0.1796481646408786
30	0xbfc7ace5af9b6113	-0.18496390413816552
31	0xbfbc347119b354c7	-0.11017519833997645
32	0x3fc441aab91ff228	0.15825399436279608
33	0x3fc40a81e5a157b7	0.1565706607095174
34	0x3fca443505b056c2	0.20520651605391121
35	0x3fd14ed51f395958	0.2704365544244829
36	0xbfc0bfe47620f1de	-0.1308560921478507
37	0xbfc27df8168deef5	-0.1444692716721573
38	0x3fb5a7b8dc21464b	0.08459048628108083
39	0xbfa199300bc2b8bc	-0.03437185424387354
40	0x3f829075030fabd4	0.009064592510147941
41	0xbfcbf119205cd198	-0.21829523163036124
42	0xbf909c3fcfc7ed30	-0.016221043641036548
43	0x3f934f1080059d8f	0.018856294454420882
44	0xbfb9a0d72771520e	-0.10011048043208623
45	0x3fc6e580f33c25f9	0.1788788974447895
46	0xbfa52c1e2715ed16	-0.041352216979215026
47	0x3fb82b02df26b335	0.09440629909540806
48	0xbfb3ac2936ac88aa	-0.07684571823895917
49	0x3faad0bd9f88795d	0.05237381527352867
50	0xbfc70bc0911a3231	-0.18004614911150577
51	0x3fbde936e28f7783	0.11683981925258817
52	0x3fc9cd450a0b26e4	0.2015768336335021
53	0xbfc2bd1dec336610	-0.14639638932457943
54	0xbfbfcf79437e62fa	-0.12425954721255641
55	0xbf694e542fa36c28	-0.0030891079196471334
56	0xbfa827c6a38e79f0	-0.0471784662870397
57	0xbfc92fcedb4b03e3	-0.1967714854017962
58	0x3fba6e6473699f2a	0.10324695413293897
59	0xbfcd4eb9b048c6f3	-0.22896500690108432
60	0x3fd0063156a3172a	0.2503779741349371
61	0x3fcfa3658b88c649	0.24717397034833002
62	0x3fb477dd9e96e86f	0.07995400544942453
63	0xbfc4f8638a9598a2	-0.16383022562803712

base.actor.actor_fc3.weight f8 [3, 64]
0	0xbf9200dd44249538	-0.017581422123062768
1	0xbf8fb3f1a68fce88	-0.015479934592782088
2	0x3fb802e1c5609917	0.09379397457869164
3	0x3f3bfa4bfc712112	0.00042690615777420213
4	0x3f9ec8a958e27417	0.03006233792313048
5	0xbfb5db18dd92400c	-0.08537440690474812
6	0x3fabe8715b856ba5	0.05450777284814671
7	0xbfaae51368bc05bc	-0.052528959784477774
8	0xbfb1c3a497250637	-0.06939152422003124
9	0xbf9a93b05f670fc3	-0.025954013655578267
10	0x3fb5053979d2c6a6	0.08211096977427221
11	0xbfc1b0d3acaadbbb	-0.1382088273146261
12	0x3fc7095e56e40c82	0.17997340433803194
13	0x3fa94ac466e05388	0.0493985534268751
14	0x3f89d5daae19fe19	0.012614925802380704
15	0x3fc51e5680e23c30	0.1649883393588154
16	0xbfbf00075f307f03	-0.12109418939553156
17	0x3f99d0b1e61a247b	0.025210170430487438
18	0x3fc39870473b2a6a	0.15308955648500283
19	0x3fac596f127a6ddd	0.05536982632221641
20	0x3fb5f1334651203f	0.08571167437287473
21	0xbf93aec5f0784b7a	-0.019221394350164435
22	0x3f8d97d3b8b9c8fe	0.014449743342286766
23	0x3fba7713b6486602	0.1033794708277114
24	0xbfc0ae1ee4f555a0	-0.13031374148947084
25	0x3fbc91d96579c605	0.11160048224862613
26	0xbfc41d3837e6e62f	-0.15714171151721376
27	0x3f80e8f70c2467f2	0.008256845529604793
28	0x3fad80157198e8b1	0.05761782657323645
29	0xbf8ab50d3f582743	-0.013040641303650019
30	0x3fc08c987252773b	0.1292906339849028
31	0xbfc48b950ad71a6d	-0.16050971059140143
32	0x3fc3c675769236e4	0.15449398316962182
33	0x3fc18a1ff0b33e81	0.13702773335397825
34	0x3fc220e7980afbf4	0.14162917064638203
35	0xbfc104e64ac6c6d3	-0.13296202326960457
36	0x3fc8667974e9835a	0.1906272717342528
37	0x3fcc67a6ccdddbf0	0.22191319468740245
38	0xbf81e17ed6201b29	-0.008730879697407783
39	0xbfa854ae89ca8773	-0.04752107078571912
40	0xbfbdd82afe60a3d2	-0.11657971105945755
41	0x3fb29d309689a4d4	0.07271102595554463
42	0x3fad420fb9c0b6fa	0.057144633698369376
43	0xbfbc8b24c652641b	-0.11149816362230107
44	0x3fc71ce707d47794	0.18056953317949065
45	0x3fb47f0701aac325	0.08006328383158896
46	0xbf9677c9ceda8fe3	-0.021941331148482745
47	0x3fc4fba6b7fd76b8	0.16392978652850387
48	0x3f9633e92e6149ae	0.02168239923077813
49	0x3fc73971087e7037	0.18144047655812454
50	0x3fa5aed3d8d5e00b	0.042349453181429984
51	0xbf93a144b6174449	-0.019169877637811337
52	0x3fa925ce56581f88	0.04911656192785957
53	0xbfc0afed452232ca	-0.13036886096633388
54	0xbf92c1f100410bf1	-0.018317952766903237
55	0x3fae73e011e2846c	0.059477808173377195
56	0xbfb1d33269f61cde	-0.0696288593954821
57	0xbfa1cc95dc4ca6c0	-0.034763987676638575
58	0xbf9c073811733fb2	-0.02737128836162101
59	0xbfb8b453d4b831e9	-0.09650157874438715
60	0x3fc8c36975af1953	0.19346349951065153
61	0xbf80b0baeaf16ee4	-0.008149586005110128
62	0x3fa9cb2d578b09df	0.05037824338571161
63	0xbfc751acc636ce8f	-0.18218002012655574
64	0x3fbd48acd213f597	0.11439018372398944
65	0x3fc6f931cf78f324	0.1794798148202058
66	0x3fac7fffa66f67f0	0.05566405207328262
67	0xbfc0200d3e39b1ac	-0.1259781411967088
68	0xbfd0b2d623683b86	-0.2609153123639135
69	0x3fd05ba918503084	0.2555945146020877
70	0xbfad056aade28d74	-0.056681951261704194
71	0xbfc9e9f5cc77e2ef	-0.20245239719203975
72	0xbfb856890af4c38b	-0.09507042424662708
73	0xbfc4b88812d68f61	-0.16188145561056458
74	0x3fc953f0b913466f	0.1978741553962666
75	0xbfa05572c5e62565	-0.031901919038385164
76	0xbfa665d55c63675f	-0.04374567749773805
77	0xbfa5327faa4ad295	-0.04140089944613582
78	0xbfc5b2b0dec055c8	-0.1695157134678722
79	0xbfbc22d945ff0166	-0.10990674933328179
80	0xbf86ebd49b2f4e9c	-0.011191998468269397
81	0xbfa444eaf8e7af79	-0.039588301547921874
82	0x3f9e39fdf61a183e	0.0295180970629405
83	0xbfc023381254edcf	-0.12607479949097786
84	0x3fa8c0eb5bbc0c2d	0.048346857975069525
85	0x3faf6eb51ccaa433	0.061391505970569325
86	0x3fc715ad1e303b07	0.1803490064052868
87	0x3fb44f950bf7b4c8	0.07933932821443357
88	0x3fc747388db4ef82	0.18186098975445125
89	0x3f7cfa404a9e8632	0.0070745955835334485
90	0xbfa940c56b9d3d30	-0.049322289835453836
91	0x3fbc0e11abb6ef39	0.10958967630625417
92	0x3fc162f016579406	0.13583184328959436
93	0xbfcec55d57bc5342	-0.2403980902096468
94	0xbfbe6a1c79f7e1ae	-0.11880662896863356
95	0xbfc2bffb579f80ce	-0.14648381975621877
96	0x3fb105048ce7bf06	0.06648281517095364
97	0x3fc5f54f40a865b1	0.17154875428313468
98	0x3fa1f18c447f8388	0.03504598938139397
99	0x3fcf9fb359b76842	0.24706117516217502
100	0xbfb222ea6dc36486	-0.0708452718712512
101	0xbfb6951d62b43b79	-0.0882128110863344
102	0xbfd9582c56c300c2	-0.3960066649706385
103	0xbfba955be0d793b1	-0.1038415359431173
104	0xbfc60ee9771d54a6	-0.17233007732526068
105	0xbfccb3a76bc0d3a9	-0.22423260461223762
106	0x3f8e8720ceb4ced1	0.014906173999953339
107	0x3f8bf797e96d3b67	0.013655840693585565
108	0xbfd031148e575c2d	-0.2529956235934517
109	0x3fc41f7bd3188466	0.15721080596361786
110	0xbfb7d9f2d9033b48	-0.09316938207778691
111	0x3f7a90da171f8712	0.006485797801333753
112	0xbfb3fe6f629b37af	-0.07810112149601765
113	0xbfc1e327f5c22265	-0.1397447538368112
114	0xbfc8976dfcc1096b	-0.1921212658072123
115	0x3fc6640edddd6ee4	0.1749285300564828
116	0x3fc3252fa296b0c6	0.1495723289384669
117	0xbfa8f0553df2517f	-0.04870859509643121
118	0xbf946d034894f864	-0.01994710093026021
119	0xbfbe491dc6ffc6d9	-0.11830316646935603
120	0xbfcdcc4327bc960f	-0.23279609146372635
121	0xbfcc03caad381962	-0.21886571367231072
122	0xbfb3e2432adb02ef	-0.07767123981740175
123	0xbf659150d430ce80	-0.002632768505941574
124	0xbfac8e8a9ff25810	-0.05577500536416846
125	0x3fc4f107e3f646c1	0.1636056769462382
126	0x3fa08cbe7fab5051	0.032323792538279
127	0x3f90ede6a2f6825a	0.016532520004718478
128	0xbfca3db77da57d2c	-0.20500844607429636
129	0x3fb23d28270f535e	0.07124567941293722
130	0x3fcf6970d0530c8a	0.24540529415216766
131	0xbfd56d5f2badb0ee	-0.33480052247502
132	0xbfa3456bd2cbb746	-0.03763901661100859
133	0xbfa8baaa7bb58ee6	-0.0482991481792661
134	0xbfd2ef66580d2229	-0.2958618030429841
135	0xbfb3e273e345c965	-0.07767414377830091
136	0x3fafd9ca5ff9d689	0.06220848485547232
137	0xbfa2c5c7fd82c11d	-0.03666520089734802
138	0xbfdac762a5b0a9fb	-0.4184195154254266
139	0x3fb88a9bfe0eb339	0.09586501076291833
140	0xbfa8f94cce05c47e	-0.04877700819896179
141	0xbfc03ab1be512dc2	-0.12679120819880835
142	0xbfaf96cb58f29c65	-0.061697344406007194
143	0xbfc01882e44458f4	-0.12574802537773844
144	0x3fd166c4d1b125e0	0.2718975112698825
145	0x3fba1e4dcd4beba0	0.10202490102885386
146	0x3f7c3ce54d6ac9d9	0.006894012177030417
147	0xbfc5e24471059a85	-0.1709676315178578
148	0xbfcea4d2b30f1b32	-0.23940500014415417
149	0xbfb7a8d86f4f40ba	-0.09242012708205297
150	0x3fc2b52ef4cfee8f	0.1461542792675243
151	0x3f98050ea51ba03c	0.023456791713130296
152	0x3fcd653ef458ca6d	0.22965228014944064
153	0x3fbec8fca2be5f42	0.12025431607469009
154	0xbfabdc7bf4af011c	-0.05441653596744997
155	0x3fa7a45e9779fcd0	0.046175914755616554
156	0x3fb77dd1eb8b0cc0	0.09176361084523688
157	0xbfa01079b9a3790b	-0.03137569800468228
158	0x3f80e64df60c3719	0.00825177104118384
159	0xbf7824c61792d202	-0.005894445225909541
160	0x3f983b215bca2756	0.023663064219852835
161	0x3f9dc7ae9898e326	0.02908203894023411
162	0xbfb13c0dbc5be9eb	-0.06732259605988815
163	0x3fd5b3e6a98139ee	0.33910528710558097
164	0xbfcb6d02832f3c84	-0.21426421552175523
165	0xbfab6a45ffd27967	-0.053545176962176914
166	0x3fa386fd1d4ee50f	0.0381392572666731
167	0x3fc876a6f4df77aa	0.19112097698865443
168	0x3fc0fc50ef0aa5df	0.1327000777430802
169	0xbf7abc58169401a5	-0.006527275175585966
170	0x3fc6c7381bbff857	0.17795468668913614
171	0xbfb4c2c44d2d247b	-0.0810969055575174
172	0xbfc4a24e196c5020	-0.16120315781938732
173	0x3f911593a2ee3337	0.01668387109707511
174	0xbfd1284d38aea83b	-0.268084817270054
175	0xbfc15520f2c2b464	-0.13541042188208785
176	0xbf89ae57bf8b52ce	-0.012539563687292168
177	0xbfa06e1ccde03250	-0.03209009183055811
178	0x3fc14cf465271d8b	0.1351609701070909
179	0x3fc646d29aa0b4b7	0.17403633642371627
180	0xbfcfc857e5981181	-0.24830149374623647
181	0x3fa823dd363513bc	0.047148621432405474
182	0x3f9e40ad5eb11540	0.029543599037670676
183	0x3fbefdec28c3d577	0.12106204982031508
184	0x3fb0dd5b9b6b677d	0.06587765259192042
185	0x3fafd4b99b936713	0.062169838181672564
186	0xbfb5f6c0ae959845	-0.08579639684975955
187	0x3fb8070c898b793a	0.09385755880382343
188	0xbf9c6f855bdbb9e9	-0.027769168597780256
189	0x3fd090a6a28abd08	0.2588287913631153
190	0x3fb9e5bacbd7b125	0.10116164662003209
191	0x3fc3093af3c93a05	0.14871918586364088

base.actor.actor_fc3.bias f8 [3]
0	0x3fafcd29ce42ee86	0.06211214678611747
1	0x3fb77ac175b39787	0.09171685336658984
2	0xbfb1b61d3e6b3617	-0.06918509267708149

base.critic.critic_fc1.weight f8 [64, 11]
0	0x3fc1ea69c42944fa	0.13996622160133382
1	0x3fafd2ba1b24332d	0.06215459424320211
2	0xbfd16dd0184bf77f	-0.27232744572381046
3	0xbfc1196ad005a38f	-0.13358817250562224
4	0xbfab646515a36eb5	-0.05350032700672839
5	0x3fe9e04cc7680b9c	0.8086303610474377
6	0xbfcd107a6fb2c1f8	-0.22706537679688643
7	0xbfc98652657ed871	-0.19941167789301376
8	0x3fc9410799c48d95	0.19729704864685674
9	0x3fa72c36ae178633	0.04525919795174751
10	0xbf94cbe6822e150e	-0.020309068389470268
11	0x3fc4cb21878b5c3b	0.16244906538369883
12	0x3f883b729b0300c4	0.011832137446959108
13	0xbfcaafef6aa298be	-0.20849411684793567
14	0xbfca5a70a4bc80c6	-0.2058850101830158
15	0xbfd822ab08224d9e	-0.37711597246490125
16	0x3fc7155f77c664a0	0.1803397497977004
17	0xbf8d4e77395a9ccd	-0.014309817731670194
18	0x3fbd6a2105a27678	0.11490064990581483
19	0xbfcaac7eb183b2cd	-0.20838912646958932
20	0xbfbdf8f2341a8ad4	-0.1170798661428692
21	0xbfa4f5ed14c9e11a	-0.04093876723067265
22	0x3fe5f97fed73a1b3	0.6867065084198231
23	0xbf7b9209e1faf54d	-0.0067310701412542475
24	0x3fe0085bbe14e47d	0.501020308735988
25	0x3fce50a5a7bfd1fc	0.23683615389712986
26	0x3fbd417b36c4d441	0.11428041541223967
27	0xbfc5c91c2a825284	-0.17019989085806142
28	0xbfc0ff69a5bd7094	-0.13279457657597915
29	0xbfb5cb68c1c67303	-0.08513502817954692
30	0x3fc2be4a6ca7a745	0.14643221192755554
31	0x3fba8b68723a1e4f	0.10368969715829589
32	0x3fc85483ad225a87	0.19007917360132273
33	0xbfa92ead01450815	-0.04918423309801782
34	0x3fa615e5b2629843	0.04313581278374603
35	0x3f9a2336994008f3	0.025524952987333326
36	0x3fbfcf0ac2228cbb	0.12425296058295292
37	0xbfb4430814d7026b	-0.07914782055650853
38	0xbfc1b3ad0561d869	-0.13829577219775338
39	0xbf98f7bbaf41c989	-0.024382526943051572
40	0xbfb64668d78ca191	-0.08701186430392328
41	0x3fc43a992eb26231	0.1580382802974483
42	0x3fb77f2dc8c810a0	0.09178434516803913
43	0x3fbe2e09604796e7	0.11788996315553
44	0xbfb502f2560f7ddb	-0.08207621193968555
45	0x3faf989a593a3494	0.06171114291383009
46	0xbfc23d42d004bbaa	-0.1424945369448925
47	0x3f8c97d2fc9e8cc5	0.013961456617670351
48	0xbfc0ea2764f6e14f	-0.13214580945874352
49	0xbfdaa454b0bb0d9e	-0.4162799573789132
50	0xbfdadc3bd1f9b2e2	-0.4196919966259839
51	0x3fae984ef2b0803c	0.059755770802667446
52	0xbf91044a856eed41	-0.016617931741831574
53	0x3faf4651f46b38a1	0.06108337505939799
54	0xbfaeb75bdf487dcf	-0.05999266720413809
55	0xbfc1011c50eb365d	-0.1328463931189842
56	0xbfa7a77b41dc3cad	-0.046199657239520554
57	0x3fc20dc0a96181b6	0.14104469557333993
58	0xbf8b66d7418ceaf2	-0.013379747093144687
59	0x3fa3fd35cfb16ae8	0.0390412155181446
60	0xbfb14244950da846	-0.06741741789815689
61	0x3fad01ece299afbb	0.056655314122365984
62	0x3fb0d3e5ee0374e8	0.06573330937267807
63	0xbfbebfc310710104	-0.12011355544473551
64	0xbfc062dee4390863	-0.12801729339304577
65	0x3fab931eca1fd98b	0.05385681359614399
66	0x3f9cfa2f25898257	0.028298126855931773
67	0x3f9c02e636a96193	0.02735480984333234
68	0xbfc700cd31afd995	-0.17971196104163015
69	0xbfbdf64e65627d92	-0.11703958487713909
70	0x3fd43fbd55ea5ac1	0.31639035597019577
71	0x3fc20d242b4ab88d	0.1410260402094007
72	0x3fafca2a5d2a53cc	0.062089275238725955
73	0xbfb8edd2a1a82d6a	-0.09737888762190541
74	0x3fb6972832b93dd9	0.08824397314423695
75	0x3fa953137f2d681a	0.04946194579561354
76	0xbfb1330e1e3e6bbb	-0.06718528974890507
77	0xbfac14a5c7ad96f6	-0.054845028519407465
78	0xbfba830c14e4ca32	-0.10356212148762081
79	0x3fe21d068d503351	0.5660431633019504
80	0x3fd1a4281173c827	0.27564431862185973
81	0xbf7f8620db395657	-0.0076962741328166695
82	0xbfc3708816e9af89	-0.151871691882999
83	0x3fcf31aa05e85f77	0.24370312965833893
84	0xbf859434a8f79399	-0.010536586195437002
85	0x3faa285f669e9df4	0.05108926894837032
86	0x3fbe5ab82aa20a1f	0.1185717681965248
87	0x3fcdbb7d534ecbc1	0.23228422706378463
88	0x3fbe9d905126fb90	0.11959173184639682
89	0x3fccc00a2a0ea31c	0.2246105866772944
90	0xbfb9d1aaf8111733	-0.10085552746121777
91	0xbfb08ee09222fd60	-0.06468013351240165
92	0xbfd57e4b4ee9008f	-0.33583338457175044
93	0xbfa464b028779dc9	-0.039830689372873325
94	0xbfadb559f90b5bc8	-0.05802422680942915
95	0x3fc9785c28712cb5	0.19898559546195363
96	0xbfd1b8f8e3e54429	-0.2769148088019074
97	0xbfc3d0f9cbb3c765	-0.15481493421935535
98	0x3f9b2920678e9480	0.02652407295285686
99	0x3fbd834e65e1e815	0.11528482425083582
100	0xbf9c2e6e76a17463	-0.027520872107164595
101	0xbfc85d4e0c4f68c6	-0.19034743882259003
102	0xbfc63efee3039e05	-0.17379747471498788
103	0x3fb26656469ed7ac	0.07187403892643712
104	0xbf9421c31637a598	-0.019660042029419594
105	0x3fc74a9efeec9c87	0.1819647545573597
106	0x3fad37a195a7b70d	0.05706505729527409
107	0xbfb4e131d531dfc4	-0.08156119780494381
108	0xbf993acbe0b7c795	-0.024638352957431293
109	0x3fada6f3806d4951	0.0579143614073866
110	0x3fe0d65089e4ef3d	0.5261614506957596
111	0xbfbad90b22f3ba19	-0.10487432101556528
112	0x3fc925afd3509033	0.19646261041737176
113	0x3fc2487f9cbee105	0.14283747819514062
114	0xbfca52344ec74958	-0.20563367697338708
115	0xbfdce1621fa82088	-0.4512563046596445
116	0x3fd741fab94560c7	0.3634020623480975
117	0x3f86857fba3fa3b3	0.010996816512447305
118	0x3fa4a171bf4e11d1	0.04029422245278947
119	0x3fa911ff3b4cbe03	0.04896543120264243
120	0xbfbfade60ab88f39	-0.12374723207227313
121	0xbfd306fd62880948	-0.297301622602522
122	0xbfa1de06b08612ea	-0.03489704994993821
123	0x3fc3667e6f2a4df3	0.1515653651045877
124	0x3fca7ac0f8b43cfe	0.20687114852669447
125	0xbfbf55c4712fa573	-0.12240245593388525
126	0x3fe0e0c75606ba28	0.5274388008309119
127	0xbfd43204c9dfb75f	-0.31555289949652904
128	0x3faf7b7b9aea3129	0.061488974247455204
129	0xbfc294a905c4fe84	-0.14516175061907088
130	0xbfc28917730186da	-0.14480870357060988
131	0xbfd43df0fbf2f476	-0.3162805996360655
132	0x3fd02d740b462227	0.25277424908611795
133	0xbf9c4f5c6fdb0e7d	-0.027646488501672273
134	0x3fd69560111654c0	0.3528671423785674
135	0x3fccdf0155cd39af	0.22555557908567667
136	0xbfb4837fa7f1c6f0	-0.08013151025968646
137	0x3fc6306a39acbfc3	0.17335250679161449
138	0xbf9b87c061e08db1	-0.026885038351009253
139	0x3f84cc1510ce5ae8	0.010154881072407432
140	0xbfac907054a5a472	-0.05578948052681988
141	0xbf8a57001959da08	-0.012861252568865403
142	0xbfb553fb69c8966d	-0.08331271488767707
143	0x3fd51be832ba2d33	0.32982830957253667
144	0xbf1154d864270aa3	-6.611414668270892e-05
145	0x3fd5bb0f230d5974	0.33954218314229156
146	0xbfcd89ba8ca8bf5e	-0.23076564663051163
147	0x3fcfbf1393997f65	0.24801869112979627
148	0xbfd6293203d92157	-0.346264365919088
149	0xbfc060246b5e5e81	-0.12793402903183806
150	0x3f8c0b0ad046938e	0.013692936402387248
151	0x3f9a7386cbb657fb	0.025831323798762167
152	0x3f9b99d64b70c587	0.026954029421351968
153	0x3fb0625e9f1789ac	0.06400100120621371
154	0x3fcb50710fc292bd	0.21339238423856513
155	0x3fa1883f5d5ce167	0.034242611071422506
156	0xbfd1111a6d09b2a0	-0.2666688980887475
157	0xbfa52819b6a9e553	-0.04132156710415793
158	0x3fca61dc9c64cabf	0.20611150394832653
159	0x3fce6ab13f325313	0.23763099275370134
160	0x3fc7643143cf724f	0.18274513064433726
161	0x3fd40a1e4eb8d958	0.3131175774355106
162	0xbfde309dc7ee8ecd	-0.47171730541797957
163	0xbfd2accf950c7d6c	-0.29179753833337574
164	0xbfd96a33afcc541e	-0.3971070496348278
165	0x3fc6dedc0a047696	0.1786761330521826
166	0xbfbd0e6934b59545	-0.11350114380691874
167	0x3fd083ff258e80ff	0.2580564371837823
168	0x3fb3d94fc9664946	0.07753466288548791
169	0x3fc2ab8fb60c83eb	0.14586063756090026
170	0xbfbf748fed87306c	-0.12287234829926924
171	0x3fc0b8007c15a771	0.13061529215638815
172	0xbfb31a97d48a6eca	-0.07462452830298641
173	0x3fbd5c1df88c762b	0.11468684499819719
174	0x3fa23f75218075c4	0.035640392627310585
175	0x3fbf2cc80157496d	0.12177705795992262
176	0xbfc3dee60a60d3ee	-0.1552398253130884
177	0x3fae781837c8be46	0.05950999909361747
178	0x3fd58116b851cf76	0.33600395202596844
179	0x3fc1484608fa8500	0.13501811445625123
180	0x3f9b2eb4055728b0	0.026545346094089595
181	0xbfd729f7c7832d89	-0.36193651660570275
182	0x3fc0ce77690ebc4a	0.13130085592044544
183	0x3f98419e45277cc2	0.023687813731041236
184	0x3f71de46d495054d	0.004362370187039955
185	0x3f815ec00fc8e24b	0.008481502992354303
186	0xbfa9c32a66014ebe	-0.05031712050609148
187	0x3fbf888ae91e9f6a	0.12317722503087017
188	0xbfb78eb9f0112d92	-0.09202158080113623
189	0x3fc2f78b6db2bd2c	0.14817946297032714
190	0x3fcb77163e2ece8e	0.2145717433573861
191	0xbfae176f5f711932	-0.058772545242890564
192	0xbfc0b06572c64f51	-0.13038318733435486
193	0xbfcfc7008365e242	-0.24826055923382923
194	0x3fcad552b15c567d	0.20963510189237758
195	0xbfd362f90488c1cc	-0.3029158157615057
196	0xbfc1c10605019a2e	-0.13870311016508324
197	0x3fb82f8d876583e7	0.0944755988653153
198	0x3fbbd015cbb4b30c	0.1086438772515061
199	0x3fbaf5574c6a1a8c	0.10530610671603763
200	0xbfcbcae60d760c6d	-0.21712947518617245
201	0xbfb201bbbd3a7e5a	-0.07033894891582673
202	0xbfd060012eda3f59	-0.25585965705339714
203	0x3fc1ff5d79808b40	0.14060562546463906
204	0xbfd624d83927cefb	-0.34599881726829523
205	0xbfc248647054ba40	-0.14283423886213775
206	0x3fc6981aa29dff87	0.17651684704105383
207	0x3fb0528b6793408e	0.06375952986423014
208	0xbfc2dbd831306c86	-0.14733412172140364
209	0xbfc268091656ffe4	-0.14379991141140558
210	0xbfc4c2c3e54d3e3f	-0.16219376274465166
211	0x3fda630063c8a6f0	0.412292573399653
212	0xbfa2a57994f00091	-0.03641872351727316
213	0x3faab11d376d0767	0.052132523551803804
214	0xbf9538eac6c95a60	-0.0207249339894936
215	0xbfc962ea0685eba8	-0.19833112066757264
216	0xbfd927664c96e553	-0.39302976111828974
217	0x3fe15d98ba3aa742	0.5426753651893039
218	0x3fd22736e463e78b	0.2836434584020188
219	0x3fc656857e99befc	0.17451542550724486
220	0x3facafcb8dda2a72	0.05602871042818415
221	0x3fa66d4e3c69ac7c	0.043802685618026665
222	0xbfc602e608a46e37	-0.17196345731723436
223	0xbfc448e604bb90d1	-0.15847468596542183
224	0xbfb06cd6d024f6e7	-0.0641607530751248
225	0xbf9b0beebce87a93	-0.026412706642185823
226	0x3fa506228d60867b	0.04106243110460369
227	0x3fd4c34e4c64d03a	0.32442052326519255
228	0xbfdd2c8b2ae28d30	-0.45584372699723286
229	0xbfc99cb5230aac32	-0.20009483538646716
230	0x3fc0029c2bd977b4	0.12507965222442652
231	0xbfb9e886ab75575d	-0.10120431600566122
232	0x3fac584caea3603a	0.055361172025812214
233	0x3fa10ea72de92474	0.033314918855986614
234	0xbf90f8a1fe055aaf	-0.016573458794790493
235	0x3f926978390f126a	0.01798045967349752
236	0xbfd81dc1106d772d	-0.3768160496164111
237	0x3fbe970d1741fbf2	0.11949235742393663
238	0x3fbdb43c3b4d81d8	0.11603142211743689
239	0xbfbc11c5726c27ce	-0.10964616817014347
240	0x3f868afbd4bc8260	0.011007277898501033
241	0x3f819fe1a2124350	0.008605730780148285
242	0x3fe5c4f466414110	0.6802923199811932
243	0x3fc1d7ae0994e74a	0.13939452617506226
244	0xbfb8d00287071e1c	-0.09692397877289988
245	0xbfb14ab522914d72	-0.0675461968797231
246	0xbfdf29d255a3398d	-0.48692758906408856
247	0x3fc46e3f12b85604	0.1596144524962001
248	0xbf9e77b53aeec597	-0.029753524515120224
249	0xbfc5139fc649d20e	-0.16466138059662722
250	0x3fcadf22930e2660	0.20993454151566748
251	0x3fb18c7dfa87b18c	0.0685499893804204
252	0x3fc44c9ac981fbb5	0.1585877880024477
253	0xbfcad9da82169ad9	-0.20977336265533245
254	0xbfc38bc8ba44e9a2	-0.15270337195563594
255	0x3fcc25474c8411d6	0.21988764988067427

base.critic.critic_fc1.bias f8 [64]
0	0xbfb64b2978e5789e	-0.08708438111850333
1	0xbfcb086ca80d8a2c	-0.21119459348399638
2	0x3fd4f2ed662d27c7	0.327327108174924
3	0xbfce209b8664b703	-0.2353701025216922
4	0x3fda2e68ca0c978f	0.40908260089269616
5	0x3fd53e41161cffcd	0.3319246974897368
6	0xbfd2a709d9f047e5	-0.2914452198320972
7	0x3faeeec9f2ee5db2	0.060415564446141615
8	0x3f85166d23154384	0.010296681054258412
9	0x3fc92751609a6f1a	0.196512386483726
10	0x3f8673e72eb87d44	0.010963255036641535
11	0x3fd09c97b1499298	0.2595576506921957
12	0xbfb500b57aaddcad	-0.08204206700416945
13	0xbf74d3dc2640b5d8	-0.005084857901278515
14	0x3fca5e526ed6c32f	0.20600347911888536
15	0x3fae30400b43ecf4	0.05896186959759034
16	0xbf8aaaec625bf41d	-0.013021322967228294
17	0x3fc483c72c2ad371	0.16027154594999218
18	0x3fa4423b1c08cbe8	0.039567801639712574
19	0x3fc8c58d62bdcdc1	0.19352881738050878
20	0xbfd328cba3e31250	-0.2993649578532187
21	0xbfce20b39fa9a5a9	-0.23537297531156057
22	0x3fca1158d565cb20	0.20365438861662088
23	0xbfd9b23ad3749e72	-0.4015032830234083
24	0x3fcad3207f5dc5de	0.20956808299119606
25	0x3fc4ee1bb843dd15	0.1635164880496879
26	0xbfe253b3a0fd749e	-0.572717489656174
27	0x3fb2d4b5e9e21c8e	0.07355820617714157
28	0x3fda024dbd975c45	0.40639060511370345
29	0xbfd5b278ffa87abe	-0.3390181061421734
30	0xbfc08b2ec3e3b387	-0.12924751820483157
31	0xbfba162bd35dde3c	-0.1019008055717387
32	0xbfc662f44ac95589	-0.17489484454806029
33	0xbfd9b8d8e8dba242	-0.40190718402894643
34	0x3fd04385d9fa4617	0.25412126814725994
35	0x3fd3a59868db8fac	0.30698213806158026
36	0x3fd801bfa859bed1	0.3751067298935427
37	0x3f9efb6b02a5afeb	0.03025595859200784
38	0x3fe4492aa7104744	0.6339314711533253
39	0x3fe62e0bbaf48260	0.6931208278147771
40	0xbfca62b41383b70c	-0.20613718941552184
41	0x3fa5c53548510a83	0.04252020366449918
42	0x3fb0c92a4ec7c681	0.06556953833912794
43	0x3fbc0cfd40151122	0.10957320036419962
44	0xbfcd805fc6fbd750	-0.23048016754153844
45	0x3fd2b82e08f89a84	0.2924914443596338
46	0xbfcfbd29cd883165	-0.247960305554794
47	0xbfe0c09ddcfac985	-0.5235127750404877
48	0x3fc14654770f889c	0.13495879949102096
49	0xbfb93158798c0183	-0.09840920417264525
50	0x3fcf7d669145efd5	0.24601442426126022
51	0xbfccd7a3e06a64c0	-0.22533081491272888
52	0xbfc441b608bcaae4	-0.1582553427372978
53	0x3fcf392860a6ec6f	0.24393181533182282
54	0xbfdc9e7b6c9677d8	-0.44717298130296745
55	0xbfb0dae41f0ecfba	-0.06584001310585466
56	0x3fdb23801bb69d99	0.42404177385693625
57	0xbfd3c4a90105f592	-0.3088781843178704
58	0x3fadc679950810e2	0.05815486854774733
59	0xbfb135fcc3011320	-0.06723003159374885
60	0x3f908e281c181b91	0.01616728469346246
61	0x3faa0992cf72786e	0.050854289839876596
62	0xbfc351f1d21c734d	-0.15093825110752804
63	0x3fa09fdc1abe577c	0.03246963335474981
