results/Ant-2d/cmorl-ipo/2/final/EP_policy_40.pt (torch, 104969 bytes, 13 tensors)

base.actor.actor_logstd f8 [1, 8]
000000 f8 9d e0 ea 4d b4 f9 bf 57 2e 36 5c 31 18 fc bf
       -1.6065196204089016 -1.755906448556649
000010 c9 08 bc d3 5c b3 fa bf 02 ea 39 54 c2 c4 f9 bf
       -1.6687896986846218 -1.6105368890845289
000020 30 59 28 a6 1d 70 fb bf 97 30 f2 f5 7a cf fb bf
       -1.7148720255405117 -1.7381543738620502
000030 46 54 6f 6b d4 55 f8 bf 6a 61 1f e6 f6 ee fa bf
       -1.520954532306193 -1.6833409299052513

base.actor.actor_fc1.weight f8 [64, 27]
000000 dd 93 b7 af f1 ca bc bf cd 9c d0 58 9f f4 a1 bf
       -0.11247168102234135 -0.03506944617429895
000010 20 d9 81 0c fd 5b df bf ce d3 3b 6e 10 52 ca 3f
       -0.4899895307675184 0.20562940008644975
000020 87 40 b9 92 69 eb bd 3f 9f 76 9e cb fa 25 a5 bf
       0.11687335807914866 -0.0413053868826243
000030 b7 61 61 fd 5d 9d c7 bf 73 f1 9c 75 19 c2 be bf
       -0.1844899642189952 -0.12014922257816867
000040 f4 cd e1 cb e1 db aa bf fc 07 18 03 38 eb a0 bf
       -0.05245881665987531 -0.033044577005071546
000050 45 40 f5 1f 0d d6 c0 3f f6 ba 04 eb f5 52 c1 3f
       0.13153232632112313 0.13534425712119685
000060 0c 26 6d 5c 23 6a cd bf 87 d9 95 d5 0f 6e b5 bf
       -0.2298015786457629 -0.08371066059576125
000070 b3 46 65 09 d4 71 bd 3f da b9 8a d3 68 df cd bf
       0.11501813153634081 -0.233380416194861
000080 b7 55 f5 e2 2e 67 a0 bf 42 5a 7b 65 c0 d4 91 3f
       -0.03203722496497668 0.017413145250282598
000090 d1 18 49 ed 29 70 a5 bf 92 00 3d 1a a6 32 b4 3f
       -0.04187136670638981 0.07889783993323565
0000a0 b8 c6 52 71 bf cf a3 bf 59 a7 43 25 2a fa b7 bf
       -0.038694365104118444 -0.09366095933697006
0000b0 a6 34 3a f3 9e 38 a7 3f 3c 1d 56 b1 43 72 99 bf
       0.04535385817607933 -0.02484994668841732
0000c0 07 d3 17 47 ed 7f cd 3f fc 82 4d dc 67 28 cd 3f
       0.23046651812878613 0.22779558426829982
0000d0 77 36 09 2d 58 67 c6 bf fd f5 63 75 18 c0 92 3f
       -0.1750288219358713 0.018310911335893455
0000e0 d8 56 2e bd 68 4c b9 bf c4 8b 31 1d 81 79 ca 3f
       -0.09882216089894358 0.20683301854577796
0000f0 38 46 75 4a 3a db ae bf fa da 17 e8 72 30 d9 bf
       -0.060266324605106225 -0.39358208337164025
000100 fb 68 c7 f5 22 93 c4 3f c6 79 2e e2 20 7e a8 bf
       0.16074025154995994 -0.04783728371625133
000110 70 38 82 ec ef 70 b6 3f 23 e9 a0 c1 29 6b b6 3f
       0.08766078495156804 0.08757267930278494
000120 9a ca 4e b0 a1 6d c4 bf 85 d7 ba 4b 6e 94 aa 3f
       -0.15959569081094999 0.05191368746220263
000130 c0 8f 12 0f 54 14 a7 bf 97 7b ae 28 5a 38 a4 3f
       -0.0450769680403762 0.039492433038723344
000140 7d 8d 21 ab 2b d6 ba 3f a8 99 7c bd d4 9e 85 3f
       0.1048304837036564 0.010556852371860284
000150 59 02 f9 54 6b bc bc 3f 9e 3b 5a 85 3a 96 bb 3f
       0.11225004982498756 0.1077610564773139
000160 17 d8 bb 27 95 15 c6 3f fe b2 65 fb 0d 8c aa 3f
       0.1725336498272447 0.051849781931059255
000170 8b db b3 bb 00 41 b9 bf 07 14 a8 45 13 95 89 3f
       -0.09864811499197239 0.012491369784592988
000180 7b e1 4e 0b 50 4e df 3f fd df 19 6d e7 7a ab bf
       0.48915482620534306 -0.053672058170320704
000190 f1 8e 40 57 f1 46 cc bf 36 8d a1 27 0c de b5 bf
       -0.22091500053749472 -0.08541942565493774
0001a0 d2 8c 86 73 92 1b c0 3f 6a 06 b8 06 b0 b3 cc bf
       0.12584143296144262 -0.2242336304480433
0001b0 23 e0 b8 0f 01 2f d4 bf 38 2b d7 a3 65 b9 97 3f
       -0.315368905404741 0.02316817104819366
0001c0 66 e8 d1 f9 09 94 c2 bf 3b 3c 66 8c 33 07 c4 bf
       -0.14514279077758657 -0.1564697680991872
0001d0 5d 0a 5c ed 2a 68 bd bf d1 ab 17 b4 b9 18 81 3f
       -0.11487072272215344 0.008347941215978512
0001e0 2a 67 e9 d5 49 d3 bb 3f 4b 9b a0 75 a5 f4 b4 bf
       0.10869275543646198 -0.08185800668489411
0001f0 cc ec 53 5f 9d 57 bc 3f 9d 2c a0 00 77 dc c2 3f
       0.11071189477290772 0.14735305338431184
000200 58 8d 70 c0 6a 46 a0 3f 09 a3 90 2a 5e 79 c2 bf
       0.03178723906628517 -0.14432885244720975
000210 de cf 62 47 28 4a ca 3f 89 0b ce ee bb 24 d3 bf
       0.20538810239452138 -0.2991170723036523
000220 be 17 52 5a 42 fe c4 bf c2 35 35 e9 f2 66 d4 bf
       -0.16400937471570204 -0.3187835004253793
000230 19 86 96 c3 c3 6c bd bf 9d b6 80 b2 bd 89 a9 3f
       -0.11494086766335733 0.04987900547017186
000240 db bb b1 4c 9f 03 b4 bf 67 4e 44 c6 97 1d b8 3f
       -0.07818027136248366 0.09420155134676521
000250 37 88 a8 f1 1f 78 d1 3f 27 28 1c 5e 73 d3 b1 3f
       0.2729568347878088 0.06963273093802567
000260 ed d4 78 ec 9d 55 cc bf 4b 6a 04 f6 7d 16 ca bf
       -0.22136282011493993 -0.20381140244065174
000270 b2 ed 4f b0 e4 02 b5 bf f3 3c f8 60 9d 81 cb bf
       -0.08207539848802162 -0.2148930285916105
000280 73 f8 2f 8d ad 36 c1 3f 5a 5e ae 44 a9 92 b1 bf
       0.13448113817134164 -0.06864412237916309
000290 cf ac 0b e3 fb 95 c8 bf 58 6b 4e 5c 95 51 c0 3f
       -0.19207714639865123 0.1274897289957504
0002a0 99 e4 6d 92 fa 2e c5 bf dc 3c e8 67 a6 0f d4 bf
       -0.16549617910257977 -0.313455201598982
0002b0 f9 30 54 1b fa c7 cc 3f 88 bf 56 35 21 72 d7 3f
       0.22485281309526053 0.3663409253012948
0002c0 01 49 24 f3 20 b7 c0 bf da bf 55 1f 9f 74 a6 bf
       -0.13058864471583578 -0.04385850198275394
0002d0 21 49 8c 24 3b 31 a8 bf 3d 1c 6d 75 76 51 c2 bf
       -0.04725060292379824 -0.1431110452051331
0002e0 dc 73 0b 1d ef 31 c4 3f 84 dd e6 1d de a6 b8 3f
       0.15777386587333708 0.09629619817757457
0002f0 7e 5a 0b 94 26 99 a6 bf 9a a3 e0 83 28 d3 c2 3f
       -0.04413719708616258 0.14706903876620175
000300 e5 b0 81 f0 55 bb ba bf a2 38 a7 8a f4 c0 b6 3f
       -0.10442101594680116 0.08888176331604083
000310 53 9e 90 b0 02 fd c1 3f 70 fc a8 74 ef ba 93 bf
       0.1405337679036501 -0.019267789359443233
000320 21 9f 46 60 8a b1 c3 bf c7 06 c8 df 1c 52 8b bf
       -0.15385560704202653 -0.013340211467041908
000330 0e ba 58 72 b3 68 73 bf 06 7e 15 7c ad 52 c7 bf
       -0.004738522494831544 -0.18221062239443614
000340 9c 4f 8a 45 32 34 bb 3f 4f fa 90 e8 78 89 d4 3f
       0.10626520345459628 0.32089064323000555
000350 22 6d aa 10 b5 e1 c4 bf 79 fd 1b 32 c5 b6 49 3f
       -0.16313803972011792 0.0007847273702451938
000360 63 59 20 92 f8 82 d0 3f 01 45 55 1a 74 60 c2 3f
       0.25799383421089866 0.14356852803988576
000370 18 2c 70 9a ad d1 b8 bf bd 7c 84 51 a4 a5 cb bf
       -0.09694943447554782 -0.21599248867366852
000380 cc 3d d0 ad 06 ef a8 bf 6b 34 81 71 eb a7 a5 3f
       -0.048698624341450975 0.042296750646166746
000390 8e ff 7a f5 b2 31 b0 bf f4 13 aa e0 36 ac a7 3f
       -0.06325834744620648 0.04623576633915852
0003a0 e2 39 29 32 cc f9 bc bf 87 02 b9 ed 6b 1f a0 bf
       -0.11318660950312379 -0.031489727753528256
0003b0 53 27 e6 3c fe 58 89 3f 52 71 03 22 0e fd b0 3f
       0.012376772149554382 0.06636131601721232
0003c0 b3 b4 e8 5c 4f 64 ac bf c9 78 0a f7 85 eb d8 bf
       -0.05545280465262561 -0.3893752014645427
0003d0 8d e6 b1 ae e8 5d ca bf 37 de 7a ed e7 36 90 bf
       -0.20599087266946406 -0.01583444964373212
0003e0 72 9f 40 42 c3 70 90 3f 2a 99 91 20 50 44 be bf
       0.01605515567658195 -0.11822987361083351
0003f0 13 40 03 3a bd a4 c5 bf 82 3d e1 e7 8a 21 d2 3f
       -0.169089940382492 0.28329727787510006
000400 6d f9 8a b2 6d c9 c5 bf 39 fc 0f 1c fe e0 5e bf
       -0.170209610156188 -0.001884697107243273
000410 15 1d 6b 23 8b 9c c4 bf 62 0a 89 8f 94 92 4e 3f
       -0.16102732877173112 0.000933001078984152
000420 4c f7 bd d3 68 36 b4 bf ec f3 ec 01 24 fc c2 3f
       -0.07895522279247053 0.14831972211859978
000430 1b da bb 7a da 1b d2 3f 7c a6 57 2a dc d5 ce 3f
       0.28295003877374975 0.24090148990153526
000440 ca d6 36 50 1f 5e ac bf 0a 6d 6e 3c 0b 24 a2 3f
       -0.055405596296095164 0.035431243063806475
000450 fc 96 72 4b 37 38 bf 3f 2d b8 c8 3d 7c ac c1 bf
       0.12195153800947972 -0.13807633415984935
000460 96 c1 8b 66 c6 24 bb bf f2 52 ac 23 e0 25 aa bf
       -0.1060298920017487 -0.05107021747077124
000470 3a c3 c1 e9 c8 7c bf 3f 17 8c 23 f2 08 06 be bf
       0.12299781519847111 -0.11727958594887898
000480 69 f2 66 cb 2c df b4 bf c8 e7 43 45 df 87 cc bf
       -0.08153037992355795 -0.22289648897259284
000490 68 e1 f1 7c af 26 cd bf 8d f2 9a cf 07 f8 bc bf
       -0.22774308777639907 -0.11315964525688056
0004a0 b7 87 37 67 b7 4b 6c bf 28 48 1a f4 99 23 ab 3f
       -0.0034540731519294393 0.0530059919812092
0004b0 81 eb 06 ed 40 30 6f 3f e6 01 59 d3 ad e1 c3 3f
       0.003807188804981932 0.15532467670165245
0004c0 4a 8f d5 94 44 59 a6 bf ce 1c 88 26 02 9b ad 3f
       -0.04364980999778696 0.05782324524266756
0004d0 b7 75 30 ee bb 3d d0 3f 09 72 c2 a5 be 6e c8 bf
       0.25376795063661056 -0.19087966054657127
0004e0 c7 71 b0 f1 5e f2 62 3f cb 83 30 4a a3 0f ce bf
       0.0023128370644498217 -0.23485222933325497
0004f0 31 ab 12 a5 9f e3 d5 bf 4d 2a 13 25 79 fd a7 3f
       -0.34201804275896835 0.04685572221349741
000500 44 6f b6 8b 8c 4f c5 bf 3d 2a 70 e3 5a 4d a9 3f
       -0.1664901430311777 0.04941829706520593
000510 7a a8 d7 d3 98 c6 b2 3f 5f 90 cd 52 c9 79 c1 bf
       0.07334284946378658 -0.1365291265784689
000520 ae 2f 29 9f 59 d7 c3 bf f7 28 95 05 3d 17 b9 3f
       -0.15500946303870705 0.09801083933158226
000530 f0 78 af 3d a9 e9 c2 3f 22 96 78 5d ae d8 cf 3f
       0.14775577079758007 0.24880008281722704
000540 b7 82 70 ca bb 2a c4 3f e1 0d 76 cc 83 d6 b0 bf
       0.15755412468663163 -0.06577323667266156
000550 ca cd 73 2a 0a 10 bd bf 99 74 e8 13 f1 c5 c1 bf
       -0.11352599655565779 -0.13885320159980521
000560 e3 ad c1 a4 b8 50 c5 bf 5f 92 bd d1 47 e1 c1 bf
       -0.16652591748002896 -0.13968751660572118
000570 ba 32 d1 e1 ec 96 bd 3f d7 f9 b2 a0 19 6b be bf
       0.11558418763270142 -0.11882171796148754
000580 93 61 5c 66 ce b0 ab bf 28 f4 9a fd ee 1f aa 3f
       -0.054083299632284774 0.051024883706738244
000590 ec 73 00 b8 26 ff ab bf 54 fe ad 8b ec 3f 7e 3f
       -0.05468102451434462 0.007385181433050631
0005a0 57 63 96 a7 87 fb bd bf 4c ce f4 75 17 da cb bf
       -0.1171192917012268 -0.21759312877257952
0005b0 e9 bc 46 b0 f5 f4 d1 bf 1d b4 8e a4 a8 3a c3 3f
       -0.2805761548469961 0.15022762331992193
0005c0 57 20 4c e4 93 6d 78 3f c7 9d d2 84 73 36 b0 bf
       0.005963876440326108 -0.06333086006872356
0005d0 e2 21 cb cb d7 1d b6 bf 46 78 09 99 b9 0e b7 bf
       -0.08639286733080767 -0.09006843553785968
0005e0 af e9 fc 8c 3a 28 c6 3f 53 9e 48 e9 7d 90 c6 bf
       0.17310268291641992 -0.176284541042366
0005f0 8d 8d b9 f7 37 b8 c8 bf 3c 5d 3b 75 43 39 bb 3f
       -0.19312190624178208 0.10634252178293918
000600 b0 4b 40 a0 5e 33 b4 3f c5 ec d0 3f 98 9c c4 3f
       0.07890883839017593 0.16102889171620496
000610 d8 ab d3 1a 6b 9c cc 3f 5b 06 a6 5d 69 7e a2 3f
       0.2235235100737032 0.03612069385691249
000620 a9 11 c1 36 ac 20 d5 3f 2f b4 0b 1e d3 25 c2 bf
       0.3301191839894054 -0.141779317541848
000630 30 97 a4 2d ba 11 ad 3f a7 85 fc 8a 4a 9c 8b bf
       0.05677587325253197 -0.013481695524719962
000640 94 d1 b6 de ad 20 cf bf f9 7d 50 a5 73 a5 c1 3f
       -0.24318478941644328 0.13786168643945
000650 89 d8 0a 91 90 e8 b5 bf ed 4d 59 20 62 a1 c9 3f
       -0.08557990590165522 0.20023752765210592
000660 d9 36 81 56 8a 0f c1 3f cc fb 25 2a 87 a1 b3 bf
       0.13328675483574307 -0.07668347147954008
000670 0a 0a 95 c4 e0 2b a6 3f 7b f8 6e 51 74 d6 ac bf
       0.04330351257023686 -0.05632365697918914
000680 b6 e2 a4 7f 90 52 b4 3f fe 26 54 26 eb 94 b2 3f
       0.07938483349142697 0.07258481679687276
000690 e6 2f 24 ce a1 23 c4 3f b0 a3 e1 18 00 22 68 bf
       0.15733740392204182 -0.0029459001444149466
0006a0 d5 2b ec 68 22 db ca 3f b7 f1 ab 78 06 a7 b5 3f
       0.20981245158358655 0.08457985349736573
0006b0 01 6d a7 d3 12 83 77 bf 1d 80 1b 0b 8d cc d2 bf
       -0.005740235845645759 -0.29373479923924767
0006c0 6e 97 e4 8e 19 16 d9 3f 4c 4e fb 0a bd a9 de 3f
       0.39197386698139425 0.4791100127451713
0006d0 91 cc 5a 90 3a 40 69 bf 1f 06 47 66 8e d7 93 3f
       -0.003082384474362217 0.019376969330329282
0006e0 9e 16 25 c0 37 ac bc 3f 06 3f f1 22 99 4c c3 bf
       0.11200283471142788 -0.1507750912301093
0006f0 c9 3a 5b 71 09 13 a0 bf a4 2d 79 25 16 ec d4 bf
       -0.03139523991341304 -0.3269095769835195
000700 c3 a9 4c f2 5b dc c2 3f 8e 71 65 b9 f0 7e b8 3f
       0.14734982806233007 0.09568695570255256
000710 1a 50 41 e2 79 90 d3 3f 68 5e 97 f9 26 a3 d4 bf
       0.3056931218645801 -0.32245802282475333
000720 fb fb 00 e6 95 86 c7 bf f5 81 e2 c7 87 20 a8 3f
       -0.18379472475677958 0.047123187208175134
000730 b4 d5 65 89 d5 a8 5f bf a5 3e 27 c2 1b 43 d0 bf
       -0.0019323430365977114 -0.2540959735897366
000740 03 f5 9a e5 1e be c3 3f a1 2d c9 ea bd 38 7a 3f
       0.1542395230407366 0.006401769508168982
000750 f5 7f 00 d9 77 04 b4 3f 20 3c cd ee 00 34 bb 3f
       0.07819317863368254 0.10626226263160321
000760 1d d3 9b b8 2b 3e c4 bf 79 33 ec 6b 46 92 a6 bf
       -0.15814730180832096 -0.04408474032798088
000770 2a c5 c4 8c 37 cc 98 bf 03 df 8f d4 6c 7b 98 bf
       -0.024216525999866047 -0.023908329461817434
000780 94 bb 36 d3 32 56 c0 bf 24 d4 c4 ea 1b cf 87 3f
       -0.1276305705373174 0.011625497915341461
000790 b1 9b 6f 33 85 3d ca bf 44 c0 b1 18 09 8b 9a bf
       -0.20500245105287498 -0.02592100346777239
0007a0 82 ef 05 37 42 7e c0 3f 74 30 13 10 b0 16 d3 bf
       0.1288531082790279 -0.2982597500783932
0007b0 39 12 e5 a9 32 de 98 3f 26 e8 df cb 56 8f a6 bf
       0.024285117740207893 -0.04406234015182546
0007c0 82 c9 02 e3 b0 7d ad bf b3 42 3e 2b 91 d8 9c 3f
       -0.057599570952691984 0.028169887794833936
0007d0 d6 06 b9 2c 6d 97 94 3f bb be b9 8b de d9 c2 3f
       0.020108896116886786 0.14727384398019247
0007e0 e0 22 1e 32 13 51 c7 bf 12 40 b6 b2 d0 45 cb 3f
       -0.18216171214250831 0.21306809164207202
0007f0 f6 db 69 0e 26 1d ce 3f 8e 96 d7 aa 07 86 c2 bf
       0.23526454643044276 -0.14471526948834817

base.actor.actor_fc1.bias f8 [64]
000000 23 82 08 19 31 a3 c6 3f 99 05 75 3a a5 d7 c0 3f
       0.17685521814657176 0.13158097605086708
000010 9d 09 b7 44 e6 e3 c0 3f 47 f7 20 5a ba c0 b1 3f
       0.13195494036888258 0.06934704494866849
000020 d4 83 68 8b 6b 1c be bf b9 1f a9 40 0d 1f a5 bf
       -0.11762115624925623 -0.04125253118814904
000030 45 ca e3 0e 9e b3 90 bf 33 c2 fb b3 5c 8b b1 3f
       -0.01631018606071623 0.06853274721266515
000040 fc 34 c0 0e b6 1a be bf 18 28 93 b7 8c 54 b1 bf
       -0.11759507999541435 -0.0676963756733645
000050 fd d8 da 96 7b 02 b7 bf 7a df 2e f2 bc 15 8c bf
       -0.08988163407306966 -0.013713337078897093
000060 19 66 25 e6 fa 83 b2 bf c1 42 07 8a 8b 7b b7 bf
       -0.07232635611344342 -0.09172889823754372
000070 cc d0 35 b8 5e e2 b8 bf 49 95 c4 7b 71 ee c8 3f
       -0.09720413205451733 0.19477671187739024
000080 8a 37 af a0 15 cf a3 3f 6c 64 5b ec 56 2b c0 3f
       0.03868930422286983 0.12632261792058175
000090 c6 2d 17 28 15 8f c6 bf 6a 74 25 de d9 48 ec 3e
       -0.17624153573556905 1.3487136077012212e-05
0000a0 31 82 0f 11 99 de b4 bf cd fc 51 d2 7c 47 c0 3f
       -0.08152157465475153 0.12718162793678403
0000b0 be fb 7c bd c2 06 80 bf cf 71 25 84 ad 59 94 bf
       -0.007825395019265598 -0.01987334364945231
0000c0 cb 67 52 6f df 75 aa 3f 37 c9 60 6f 78 39 c3 3f
       0.051680548037623085 0.15019135893232669
0000d0 80 13 19 0c 03 37 78 3f 56 32 03 d0 89 2d bf 3f
       0.005911838439321637 0.12178860977582792
0000e0 ea 0c 45 7f b6 5f b3 3f d5 fa 08 b8 82 9a ca bf
       0.07567921263857938 -0.20784028993690265
0000f0 7a c3 99 08 0c 6a b0 3f c9 df e6 a3 f0 8e a8 3f
       0.06411814889885462 0.04796554566149742
000100 66 dd 49 06 18 8d a6 3f d3 e0 49 fa 5a 53 c2 3f
       0.044045210616725325 0.1431688043701401
000110 18 72 4b 45 8a 6a a6 bf 51 06 19 b1 5a b7 c1 bf
       -0.04378158660776793 -0.13840802810050204
000120 4d 76 38 8f f3 a9 b1 bf 2c 2b 2d 7e fb 11 ac bf
       -0.06899950262637695 -0.05482469477882143
000130 70 97 b6 2e b6 2c 77 bf 8c b0 ac 80 e0 86 b1 3f
       -0.005657874727523424 0.06846430913418738
000140 11 4b 66 af a5 b0 87 bf c6 ef 16 a5 9d d1 c9 bf
       -0.011567396559973216 -0.20170946656241834
000150 52 bc dc 76 90 eb ae bf 3f bd 38 36 74 47 b2 bf
       -0.060390963086654495 -0.07140280078669024
000160 7d df 16 b4 46 50 c2 3f a4 68 aa d0 5a 03 74 3f
       0.14307483476090602 0.004886011835561064
000170 9a 9b 89 f5 3d a5 8a bf c7 e3 c7 b1 02 14 c6 3f
       -0.013010486655913134 0.1724856727667243
000180 80 d7 f9 f0 41 40 99 bf 4b 99 11 55 f5 c3 ba bf
       -0.024659185727123667 -0.1045525868117682
000190 27 e9 1c a7 23 98 c3 bf 7c 8c 11 8a 59 17 bf 3f
       -0.1530804220181576 0.12145003910841184
0001a0 21 11 db eb 70 b2 a3 bf 3a 8b 45 63 1e 48 d0 3f
       -0.03847077254389065 0.254401776261307
0001b0 93 95 ad 83 9b 36 b1 3f 2e f0 05 c7 8a b0 c0 3f
       0.06723949398800348 0.1303876373093557
0001c0 75 68 11 c2 b4 81 c2 bf 25 b8 4c 23 61 ef c2 3f
       -0.1445833156201989 0.1479302809106581
0001d0 7f 5c c3 59 64 9c b6 bf 4f f0 a4 46 8d 69 8e 3f
       -0.0883238524578349 0.01484976169432897
0001e0 ce a4 43 e4 25 6f b9 3f 7c 65 d2 26 9c 9a c9 bf
       0.09935223410470259 -0.2000308217582577
0001f0 db 94 67 c2 bc 04 b1 3f d8 85 b6 34 ec 7e b3 3f
       0.06647853609281944 0.076155436391239

base.actor.actor_fc2.weight f8 [64, 64]
000000 83 c2 81 80 aa 21 d1 bf ad db 74 3c f1 1d b7 bf
       -0.26767981099605026 -0.09030063367832382
000010 7e 0b 2e 52 67 6f bb 3f f6 13 89 f1 3e 71 b2 bf
       0.10716863399833973 -0.07204049488889538
000020 82 c9 7c 19 be 5b cf 3f c3 79 e2 f0 62 a2 96 bf
       0.24498726124290832 -0.022103830292161463
000030 8d 6b 32 6a ad 6c 65 bf 60 ff b4 19 bd ae c7 bf
       -0.0026152979858812876 -0.18502010112023992
000040 e4 65 1a 2d a6 f8 7d 3f 88 a9 61 73 e6 22 b9 bf
       0.007317208409995033 -0.09818878476077064
000050 d4 f1 9c 5a 14 2d b7 3f 58 a3 e0 ac 57 40 af bf
       0.09053160869820626 -0.06103776917763665
000060 af f0 69 f4 76 be a1 bf d7 22 bb ca d2 4c c2 3f
       -0.034656255088493786 0.14296946429228427
000070 75 ef 67 f2 2d 39 d2 bf 28 a9 a0 f6 81 ce b9 3f
       -0.28473995850048733 0.10080730696850948
000080 9c 6b 34 7e 34 d7 cd 3f 3c 05 b6 79 eb 5c a5 bf
       0.2331300369486059 -0.041724547011663365
000090 8c be f3 9c 3d 37 83 3f 40 95 08 6f e8 5f 93 bf
       0.009382706978129172 -0.01892054727263326
0000a0 43 70 42 62 95 67 c2 3f 6c a5 fc 6a 5f af 9a 3f
       0.1437861184866752 0.026059618859254938
0000b0 33 a9 40 f2 b7 57 ca 3f 6e 7f 9d 12 ff 9f 9a 3f
       0.20580195740451188 0.02600096274488755
0000c0 c8 05 df 17 9b 3e 81 bf b8 d3 4c 5b a6 a2 c0 bf
       -0.008420192399969731 -0.12996367891324012
0000d0 86 71 a9 e2 b8 89 b2 bf 08 24 24 f7 cd 79 b2 bf
       -0.07241397413003456 -0.07217108997078026
0000e0 2f d2 c1 4a a8 08 9c 3f 89 49 ca e0 f2 78 a1 bf
       0.027376775324642274 -0.0341258906747895
0000f0 04 9e 30 9f f1 fb c4 bf 4c 2b 50 42 41 99 d5 bf
       -0.16393871567673568 -0.3374789378728351
000100 96 3a fa 40 2b 7a bb bf 65 36 70 99 0e c9 d5 bf
       -0.10733290039409335 -0.34039654716693796
000110 71 cd 11 4e 5b e2 c3 3f 32 b2 c9 87 29 4d d0 3f
       0.1553453570555621 0.2547096086553068
000120 7f b7 95 c2 1a 32 bc bf 30 6c f6 5c 20 85 c9 bf
       -0.11013953447920065 -0.19937519587696917
000130 04 f1 cf c1 4e 1e bd bf 35 e9 f5 eb 90 52 83 3f
       -0.11374370795960337 0.00943482608885358
000140 43 7d b3 95 79 77 c3 3f c5 6c 58 11 fc 5c ad bf
       0.1520835858309316 -0.05735004150138815
000150 b4 ee 47 58 b0 d7 8e bf 79 30 9d fa d7 fd aa 3f
       -0.015059831327554597 0.0527179234910315
000160 12 ef 89 92 4e 2b b8 bf e9 d3 6b 21 92 15 a2 bf
       -0.09441081121070408 -0.03532082231496487
000170 19 ed 2f 89 de fb b0 bf ec e1 fd a3 2b b6 a6 3f
       -0.06634322022721441 0.044358600395700026
000180 ac 37 5a 58 51 00 d3 3f f5 95 a8 9d 06 9c 7f 3f
       0.29689439418950303 0.007717157214334848
000190 3a e1 cb ad 5b 36 97 3f 98 2f d7 9d 33 83 bb 3f
       0.022668297274294626 0.10747072795419255
0001a0 ad 32 13 5e d4 8b c8 3f 2e 06 91 8a b5 d6 c9 3f
       0.19176725953584164 0.2018649031252137
0001b0 46 df d2 64 7d 59 de bf 67 4d 28 73 65 20 ba bf
       -0.4742120251280436 -0.10205682813130111
0001c0 f3 68 cd 71 b9 97 d4 3f a2 61 eb 8b 30 83 96 3f
       0.3217605220176118 0.021984823741918576
0001d0 4c a8 53 dc 42 ec 9f bf 89 58 b1 22 60 5c bd 3f
       -0.031174702356033188 0.11469078871718542
0001e0 74 d5 14 24 de c2 c0 3f f5 c8 99 83 21 d7 c0 bf
       0.13094689142023308 -0.13156527448479208
0001f0 b4 48 97 ed 93 7e a9 3f 29 0d c8 80 1a ff 87 3f
       0.04979383731155576 0.011717040114496218
000200 80 a9 99 37 e8 6a ba bf 72 8e 43 14 31 0f ca bf
       -0.10319377286365317 -0.20358861436317316
000210 ef bf d1 b8 50 9b cf bf a7 7c 33 b1 55 94 b4 bf
       -0.24692734741574848 -0.08038840843390692
000220 2f 30 67 4e 1b 64 ab 3f 31 e3 8a 1f 15 16 88 3f
       0.05349812824314914 0.011760869050122831
000230 19 cc b5 3d ab 43 74 bf 3a 4b d5 af 22 de b3 3f
       -0.004947346601841062 0.07760826866914963
000240 b8 21 fc 13 8d bc d8 bf 18 4f 73 c9 d8 e7 bc bf
       -0.38650824500703207 -0.11291270178054125
000250 1c 0a 01 bb d1 ef ab bf 1f 54 f9 50 8d d9 ce 3f
       -0.054564050748485665 0.24101416066938072
000260 d3 ee a1 3d 71 7b b4 bf 17 77 23 a8 c4 30 b8 bf
       -0.0800085807294935 -0.09449414353317952
000270 81 53 63 a8 31 59 d3 3f b9 b3 83 9a 98 27 c1 3f
       0.3023189682401651 0.13402087731028958
000280 4d bb 71 a6 fc ff a0 bf 97 47 67 88 03 b2 bf bf
       -0.033203025167373036 -0.12381002502595916
000290 9c 96 3c 5d 48 46 a7 3f 28 bd 6e b5 11 c7 ce bf
       0.04545808923857672 -0.24045010909092324
0002a0 66 22 25 35 81 6c c0 3f ae 6c 48 27 fd 8d c4 3f
       0.1283113011834473 0.160583156758411
0002b0 08 59 7e 52 c7 ae c0 bf 14 14 b6 4c 07 75 d2 bf
       -0.13033381965642143 -0.28839285365421685
0002c0 0f 2a 3e 00 8f 14 83 3f bd c6 b8 0b 88 e4 b7 3f
       0.009316556162748872 0.09333086286712962
0002d0 cf aa 70 e6 15 a3 c7 3f a6 59 ee d3 06 35 a6 bf
       0.18466447593649213 -0.0433733113961126
0002e0 4f 6a 7c 0c 50 64 b4 bf be 82 92 d7 ce 14 b6 3f
       -0.07965565018495478 0.08625500452991283
0002f0 13 48 9f 8f ff 88 b5 bf f9 f6 4f be cb ba ba bf
       -0.08412167793656548 -0.1044127788190642
000300 f5 f0 7a 6c f0 07 da 3f 65 9b 91 b7 79 5a 91 bf
       0.40673456758283005 -0.016946698979519854
000310 b7 e2 aa c1 66 6a cd bf ee 2c 05 38 de 5c 80 3f
       -0.22980961281225173 0.00798963173351416
000320 b6 03 7a 85 31 e7 d0 bf 48 97 30 1c 84 19 b0 3f
       -0.26411092791391455 0.06288934410312408
000330 66 0d 42 4a 8e 2c b8 bf 8c 2c 82 7a f6 03 c7 3f
       -0.09442986786784999 0.1798084352670667
000340 4c 19 0e 06 fb 53 c7 bf 83 4d 53 b5 8a 3e 7d bf
       -0.18225038333566557 -0.007139722661310246
000350 3b f2 6a d6 96 cb cf 3f 96 f0 73 4d fe 58 c9 bf
       0.24840054959885713 -0.19802836210135827
000360 e4 2a 20 62 5a 11 c0 3f 8c b1 5e bb 3d cc b8 3f
       0.12552957335750314 0.09686647247753494
000370 8a 7a df e9 4b dc c2 bf 42 96 8f 14 da 66 ca bf
       -0.14734791678980158 -0.20626379016828095
000380 45 f5 1d cd cf a2 c6 bf 8a 70 63 91 84 81 c5 bf
       -0.17684361949424435 -0.16801507090611195
000390 1a 84 bd 51 a0 da b8 bf 88 b6 67 f2 7b 10 b4 3f
       -0.09708597179043502 0.07837652843564957
0003a0 75 15 0b 58 b4 de ad bf 00 dc 27 75 74 7d ac 3f
       -0.05833972525355594 0.05564464502452182
0003b0 2b fc d7 4f 90 c2 b8 3f 8f c9 93 40 25 65 c1 bf
       0.09671880673703075 -0.13589921620548437
0003c0 66 9e 32 29 55 be 90 3f be 1e 5f 57 68 9a b9 bf
       0.016351061477193694 -0.10001232274145885
0003d0 fd 50 8e 6e b5 9e 9b bf 9a 7c 3c 8b 6c 64 96 bf
       -0.02697261321334653 -0.02186746215658939
0003e0 9b 6e 3b d9 c8 a1 c0 bf a5 ad 3f f5 ae 2b da 3f
       -0.12993727309264078 0.40891622495720475
0003f0 ce e6 8f f6 66 5a df bf 08 27 81 de a5 fa b9 3f
       -0.4898927123864326 0.10148083383787931
000400 08 f6 96 dc b8 17 6e 3f a1 ea 9e c2 ce 87 c4 bf
       0.003673420961347377 -0.16039452078787966
000410 3e ab 9d 85 de a9 d7 bf bc 5e db 36 ef 0d d0 bf
       -0.36974299477030914 -0.2508504901611379
000420 46 87 3c 6a 04 42 ad 3f 8f 07 ce 19 85 a0 d5 3f
       0.0571442966159013 0.3379223587036159
000430 20 fa f0 be 7b 4f cb bf d8 10 d0 33 33 cd ca 3f
       -0.21336314032846904 0.20938720731658722
000440 55 3b 2c 2c 73 bb cb 3f 44 d1 22 60 dd b9 c6 3f
       0.2166580167472271 0.17754714197293187
000450 e1 af 1e 30 85 7d ad 3f 42 fd 9c d5 b6 a8 c4 bf
       0.057598268627174105 -0.1613987486871143
000460 1b a4 a6 03 1e 23 d4 3f f9 da fe 5c 58 38 b5 3f
       0.31464338642632733 0.08289100904844905
000470 ee 00 9c 22 8a 38 a1 bf 74 ca a3 8d f7 bc b1 3f
       -0.03363448784330268 0.06928965766909717
000480 65 f5 e2 96 99 48 a8 bf ec fe 82 e5 72 f3 c4 bf
       -0.0474288937270824 -0.16367946821809853
000490 e3 fb 42 b7 91 1e aa bf 11 aa 81 5e 6c b0 80 bf
       -0.051014474507148376 -0.008149000772580657
0004a0 74 3d 05 a8 d8 a1 96 bf 17 89 4f 45 64 5e c1 bf
       -0.02210176969066198 -0.13569310554800815
0004b0 26 eb 15 bc b4 a4 bf 3f d1 5a 01 18 cc 58 b6 bf
       0.12360696403440538 -0.08729243837420177
0004c0 56 a4 b9 1b 30 fa d2 bf 5c 11 3d 1e 6e 2d d1 bf
       -0.2965202589753678 -0.2683978362367918
0004d0 00 29 6d 18 78 14 ba bf 05 2d 26 52 b0 88 b8 3f
       -0.10187483402583908 0.09583570485681399
0004e0 c8 66 8b f7 fd bc b4 bf 23 1a 7a 76 1c 58 ab bf
       -0.08100878995483207 -0.053406609976310436
0004f0 56 c5 42 68 9f 7e ac 3f 0e 8a 38 66 cd a7 9c 3f
       0.05565355441775448 0.02798386513144107
000500 98 9f 85 fb 78 7e bd 3f b3 a1 1c c6 92 f9 aa bf
       0.11521106854126939 -0.05268534344060374
000510 32 f7 9e 67 21 3e c1 bf 7e ff 4e 44 35 49 91 bf
       -0.13470857200257452 -0.01688082913801691
000520 cc 48 d1 2b 6e 64 b1 bf aa 8a 8b 1c 1b 6f ad 3f
       -0.06793869561923599 0.05748829577875843
000530 c5 05 f8 4a 05 a7 9a bf 8a bf 81 64 f3 29 d0 3f
       -0.026027758312926048 0.25256047072525034
000540 00 03 ce 22 d1 0c c6 3f c6 9a 7d 19 e9 0e af 3f
       0.17226614188623302 0.06066063343205523
000550 13 d0 b6 bb b2 15 b9 3f 92 7d cb a8 b9 cb b1 bf
       0.09798733790268015 -0.06951485033959262
000560 b6 84 8d 95 1b c8 b0 3f f4 02 2d 55 05 64 d6 bf
       0.06555340195838508 -0.34985478704406536
000570 88 d0 4e 75 b5 31 ac 3f f5 18 c5 cb 8b 7b b5 bf
       0.055066748208816796 -0.08391641354419106
000580 a5 23 39 bd 6f 08 c2 3f ab 72 fc 66 f8 5e b7 bf
       0.1408824609700591 -0.091292882102105
000590 57 66 89 27 33 e6 74 bf f8 2d d7 85 1d ef dc bf
       -0.005102348157913625 -0.45209444113126507
0005a0 8d 90 37 5d d5 7c b3 3f ba 54 d4 14 ce 20 bc bf
       0.07612355733687277 -0.10987556465655049
0005b0 ba 46 09 23 66 92 63 3f 5f b5 8c 46 e0 47 cc bf
       0.002389144407325042 -0.22094348377997172
0005c0 f5 ff 50 70 90 b5 c7 3f a0 cb 83 1f b0 57 a5 bf
       0.18522840007972233 -0.041684631201767575
0005d0 a6 a7 8b 72 26 5a a0 bf 57 da e9 19 a8 7a c2 bf
       -0.031937791330917606 -0.14436818375880264
0005e0 a2 9a 12 aa 0c f9 97 3f be bf 7e 19 56 09 8f 3f
       0.023410985832607374 0.015154526379632102
0005f0 10 8a 6e 3b 38 b1 a5 bf 0c 04 bb 05 1b 35 c8 bf
       -0.042367703680856406 -0.18912065295992908
000600 aa e0 10 cc b8 86 d2 3f 0c 4f 33 a7 9b 74 b8 3f
       0.28947277000726024 0.09552929718057274
000610 41 47 38 84 4a 2b b5 bf 77 f6 79 37 12 38 c4 bf
       -0.08269181945823069 -0.15796115597543167
000620 29 4c 52 45 9c e7 c3 bf 37 e1 6c 96 ec 1c b7 bf
       -0.15550568947637203 -0.09028509781353909
000630 16 fa c4 d6 8a 43 99 bf a6 0f 82 63 19 ee b3 bf
       -0.024671716078268423 -0.07785185508151801
000640 b5 68 e6 4a 51 41 96 3f 2e eb 11 02 6e fb b9 3f
       0.021733541676078178 0.10149276304757102
000650 95 61 65 26 47 7f a7 3f e5 4f 44 14 bd b0 c1 3f
       0.04589292854024333 0.1382061337432098
000660 5a dc f6 1b cf ca c9 3f dd 60 d3 b6 fb be 95 bf
       0.20150174012607885 -0.02123635581378457
000670 b0 51 08 24 c8 2a a5 bf 03 1a a5 b2 2d bc a4 bf
       -0.04134202422952471 -0.04049818807338925
000680 cb c0 9e d7 d2 fb c5 3f 0b 50 86 d2 26 82 c2 3f
       0.17174754646612764 0.14459691314243658
000690 7e 99 dc 95 9e 60 87 3f 69 85 97 ac 49 2b bb bf
       0.01141475577203432 -0.10612926925343448
0006a0 f1 7f 3f d3 7b 5e a7 bf 56 78 80 83 11 80 80 3f
       -0.045642728364100445 0.008056771112077293
0006b0 0e ed e4 ee 16 ca d2 bf 99 e4 15 16 9b ca d1 3f
       -0.2935845692588409 0.2779910770110035
0006c0 6a bb 30 e2 80 eb cd 3f b2 3f 4b 1f e4 15 c4 bf
       0.23374949497653158 -0.15691806343101927
0006d0 b3 79 ce 6b 1e 32 72 bf a8 95 0c 9c e6 da cc bf
       -0.004442328293320963 -0.22543032283389874
0006e0 52 07 93 ba 59 b3 c6 bf ed fa a6 3c 3f f7 cc 3f
       -0.17734834299158792 0.2262953802255291
0006f0 65 f2 54 f9 82 00 98 3f aa b2 24 e4 63 30 87 3f
       0.023439451663977446 0.011322765731699509
000700 bb 22 bc 98 45 bb b6 bf 34 3b 79 38 75 32 d1 bf
       -0.08879504183654323 -0.2687047053813558
000710 db 7d a7 95 a7 3f b1 bf b3 d5 37 ef 0d 73 95 3f
       -0.06737754253071364 0.02094671032496871
000720 e9 d4 bd 14 ab 94 d0 bf fd a1 e6 e5 e6 4a c9 bf
       -0.2590739920190815 -0.19759832597380003
000730 60 79 04 6e 76 c5 b0 3f dc 52 e6 e5 77 35 ba bf
       0.06551304040883599 -0.10237836230073633
000740 ce 5e 61 e0 fb ca a2 bf 98 58 8b 52 37 87 c9 3f
       -0.0367048941995428 0.19943896799549488
000750 16 0e 17 98 e4 1e c9 3f f6 0b 2b 37 66 c9 c8 bf
       0.1962552778842201 -0.1936462182403315
000760 89 e5 a2 e9 f8 ab c8 3f 86 0c 0c 40 b8 c6 c7 3f
       0.19274817855857077 0.1857519448022666
000770 84 3a cd 5e 41 94 c3 3f d1 55 a2 73 bf 72 b0 3f
       0.15296189431179041 0.06425091336344414
000780 20 bf 14 bf 63 1e c5 3f 74 be 6c 0a 8c 18 c4 3f
       0.16498991804245922 0.1569991160299541
000790 0c 60 3a 03 93 0f b3 bf cc 5f e6 81 aa c7 ca bf
       -0.07445639447030333 -0.20921832411545294
0007a0 d6 05 6d ed d8 95 ca 3f dd b7 c2 03 c1 62 a8 bf
       0.20769797890720437 -0.047628432950076884
0007b0 56 40 ed f7 37 22 c6 bf cb dd c2 92 c5 b1 b2 bf
       -0.17291926961707088 -0.07302508194958716
0007c0 8d 08 a8 3d 19 6b 6a 3f 2d 63 85 b8 8e e4 b6 3f
       0.003224896715665676 0.08942501072796168
0007d0 a5 7b 82 0f e8 53 b4 bf 0b f2 4d 0b b5 63 d1 bf
       -0.07940531138090863 -0.2717106447596797
0007e0 4e 87 71 4a fb cd cc 3f 7e 28 df dc 7c 15 c1 bf
       0.2250360597127447 -0.13346825394393486
0007f0 b1 e2 fa 81 93 28 bb 3f a6 0e 74 12 92 3b c7 bf
       0.10608789370861406 -0.18150545025865944

base.actor.actor_fc2.bias f8 [64]
000000 78 b9 6a 6f 54 01 91 bf d0 4b 8c 8b 89 6a bb bf
       -0.01660663538012261 -0.1070943799680173
000010 72 7a 92 69 b0 f8 9a bf ab 80 38 4a cb 0a a4 bf
       -0.026339298671354823 -0.03914485245718543
000020 19 1e 8a fb 72 4b 57 bf e0 6f fd 8c 0e 26 aa bf
       -0.0014217970730515726 -0.05107160063809579
000030 23 d8 6f 72 a2 92 2a 3f 9a d0 38 5e 2d e6 90 bf
       0.00020273430820311284 -0.0165030564077858
000040 26 00 bf b6 35 32 be 3f 9e 46 63 2d 24 a6 ab bf
       0.11795364104818926 -0.05400193265962837
000050 84 d5 2c e5 b9 8a a5 3f ba a9 cd f5 6b bd af 3f
       0.042074021554451085 0.06199204803018028
000060 9a 32 1b 78 51 8f ab 3f 65 12 e3 c8 02 07 64 bf
       0.05382780638828884 -0.0024447492970430134
000070 6e b3 96 08 4f 95 be bf 33 6b bb 3f 7b 5d bf 3f
       -0.11946577033695657 0.12252016359290678
000080 be 46 25 43 73 c4 61 3f b6 9b 23 f5 e9 76 91 3f
       0.0021688700882485914 0.017055183016875218
000090 54 d6 1c eb 4b ad 9c 3f f4 5f 98 15 91 0f b3 bf
       0.028004823899399803 -0.07445627953745754
0000a0 d8 36 e9 e9 1b a0 b3 3f 4a d3 19 94 6b 8b a5 bf
       0.07666182003705602 -0.04207931692955087
0000b0 04 fd bc f1 a6 3d b3 3f 42 28 0f 05 b7 51 99 bf
       0.07515948678791423 -0.024725780185498765
0000c0 d0 95 8a 77 3d 96 bb 3f 22 23 ff a5 a5 1b a9 3f
       0.1077612320755954 0.049039055360088804
0000d0 f4 e1 23 8e 71 5a ad bf eb ff 4d 84 e7 2f 9c 3f
       -0.05733065471753554 0.027526490640866468
0000e0 aa 1c 78 78 a1 71 b5 3f 04 47 de 04 ac f0 a6 bf
       0.08376511756078978 -0.04480493125369203
0000f0 ab bb af 6f 93 2e a8 3f c1 97 e8 e2 e8 98 ae bf
       0.047230346091843366 -0.05976035852317763
000100 0b c9 e3 57 54 f4 72 3f cd 87 dd b1 9e 4a b8 3f
       0.004627541986552917 0.09488860933700423
000110 5d 8f 3e 2b c0 4a c5 bf 64 19 0f 55 df 56 b1 3f
       -0.1663437091020751 0.06773181749949725
000120 94 80 87 2a 9c b6 a1 bf ab 8a 94 f7 28 97 a0 bf
       -0.03459632891804279 -0.03240325948924768
000130 f5 08 e5 19 11 bc b9 3f 6f d7 ae 67 6f 48 8c bf
       0.10052592165178338 -0.013810034133580477
000140 6f fe a9 7d 29 38 b2 3f 40 14 be aa 33 89 bb bf
       0.07116946523637478 -0.1075622836925314
000150 21 72 69 54 26 84 bf 3f 63 e1 2d 5d 3f b7 cc bf
       0.12311019478642794 -0.2243422703720724
000160 50 99 12 3a 01 52 b8 3f 7a ba 37 5d aa 5f b5 bf
       0.09500129382886269 -0.08349098945448388
000170 eb 10 b1 fd 80 e2 c1 3f 2e 41 04 14 96 7c a2 bf
       0.13972484957969952 -0.03610676760047436
000180 1d 3f 74 f6 ac 80 af bf f7 3e bc eb fe 70 aa 3f
       -0.06152859219048266 0.051643339420591454
000190 b7 ef ba 81 89 07 c0 bf ad af 17 c9 99 3f 9b 3f
       -0.12523001512988483 0.026609805010522503
0001a0 35 4e b6 bb d0 89 95 bf ac dd b5 d8 79 97 bf bf
       -0.021033536393203007 -0.12340508976728043
0001b0 b9 ed 6f fe fa 09 61 3f 19 0a e3 3e ec eb 92 bf
       0.002079954359485572 -0.018478099191961393
0001c0 e2 e8 1a c2 63 ed 91 3f f3 5b 52 ef a2 89 9c bf
       0.01750713226531609 -0.027868791443861295
0001d0 0b e6 c6 7d f1 d1 b5 3f 00 12 49 7d 10 0f 78 3f
       0.08523473091818105 0.005873741542533839
0001e0 2a 7b 52 b2 2d c6 a8 bf cf aa fa 35 34 33 ac bf
       -0.0483869819811303 -0.05507815512586022
0001f0 29 ee dd 1f b8 4c b9 bf 14 7b 3e 78 0c 9d a5 bf
       -0.09882689264298307 -0.04221381156752649

base.actor.actor_fc3.weight f8 [8, 64]
000000 21 e8 f7 73 bd f2 8f bf b5 e6 6c e3 5d cf b4 bf
       -0.015599708653997681 -0.08128916551950278
000010 c2 31 84 c4 53 e7 a0 bf f6 21 f7 53 62 11 a4 bf
       -0.033014886606995045 -0.03919513010947988
000020 b0 b3 ee 9f db 76 c0 3f 18 64 69 93 21 db 77 bf
       0.12862725552750254 -0.005824214129995141
000030 c5 8e 96 f1 74 de aa bf 53 bb 05 69 05 dc 64 3f
       -0.052478460779892745 0.002546320502168889
000040 71 73 03 5b 5b ae a5 bf 18 3f 58 76 f8 6d b6 3f
       -0.042345862255138374 0.08761551751399244
000050 24 9e 2e 99 71 b4 b4 bf 19 eb 54 b3 94 25 ba 3f
       -0.08087835302159668 0.10213593843665726
000060 13 14 f7 d5 fc 2e c1 3f ef c9 c5 13 fb 6b b1 3f
       0.134246448970004 0.06805390579919622
000070 c4 b9 8a d1 8d b8 ab 3f bf 02 93 e3 58 ed aa 3f
       0.05414241011509405 0.05259206560140716
000080 c3 ee cc 9d 75 84 a0 bf ad f4 2c bd d5 45 ae 3f
       -0.03226058532024247 0.05912654814026417
000090 af 47 76 79 27 36 c4 bf e2 a8 4d b2 f7 bc b4 bf
       -0.15790265494120834 -0.08100841620549518
0000a0 ba 74 a8 c2 e7 1d b0 3f ec f2 8d 9f 54 8c b7 bf
       0.06295631887811029 -0.09198502440808526
0000b0 0e 82 38 02 08 2e 7b 3f a6 b6 7b 35 a7 c3 a6 3f
       0.006635695728193015 0.044461465147702925
0000c0 5f c4 d2 f3 30 fa b6 3f 9f 1d 15 25 ec cb b8 3f
       0.08975511505811216 0.09686160950979293
0000d0 30 bd 55 05 ed d6 a8 bf 7d 9c da 77 42 07 b4 3f
       -0.04851475420115958 0.07823577333566507
0000e0 27 9b b1 65 d0 58 b1 3f 28 90 f8 78 fc f6 ad bf
       0.06776144488104006 -0.058524980322801234
0000f0 cd 99 85 b3 fc 62 c0 3f 2b c0 03 0a f0 11 af bf
       0.12802084699360564 -0.060683728430263116
000100 99 c9 19 bc 3a a0 a8 bf 88 8c 97 ff 7d c4 bb bf
       -0.04809745355750578 -0.10846698274649402
000110 30 61 2c ff b0 14 95 bf 0c f4 35 2c 30 01 97 3f
       -0.02058674390272691 0.022465470026407572
000120 e7 e0 06 ed b0 32 a1 bf 47 6f e2 54 e8 99 bf 3f
       -0.033589867528862 0.1234421927678656
000130 d9 f8 05 38 c3 08 a4 bf 48 70 77 f2 b6 78 b2 bf
       -0.0391293531310894 -0.07215445918649366
000140 0a 2c ce 4e bd bc b6 bf dc 60 e5 98 f1 af 9d bf
       -0.08881743596991512 -0.02899148460105115
000150 28 a4 5c e8 99 74 9a bf 2d 3e d6 14 b1 2a 91 3f
       -0.02583542328571667 0.01676441850355397
000160 69 90 7e 2a 23 8a bb 3f e6 36 df cc 74 1c 71 bf
       0.10757655894718855 -0.0041775286208129755
000170 b8 86 35 fc 64 f2 a8 bf bc cc b4 f9 7c 17 c0 bf
       -0.04872432306980329 -0.12571680252731265
000180 7c 41 f4 c4 cc f5 a1 3f 84 6e fe 9b 4d f7 a4 3f
       0.035078429262401095 0.04094927338811963
000190 c3 08 d1 a9 1a c4 a3 3f 89 e6 f6 bc 7c dc bd 3f
       0.03860553095775423 0.11664561856641788
0001a0 83 6a b2 b1 25 bd b4 bf 10 5b f6 83 78 50 b0 bf
       -0.08101115787796158 -0.06372788640724658
0001b0 bd 47 8c 89 0f 6d a7 bf 45 3a 3f cc b2 2b bb 3f
       -0.04575394205143322 0.106135535111414
0001c0 21 bf 0e 07 97 db c8 3f 9f 7d 39 cb c5 23 9f bf
       0.19420135349855008 -0.030409899262279102
0001d0 97 b7 47 7c e4 cc 98 bf b4 cd 00 c4 5f d2 b3 bf
       -0.024219102940996242 -0.07742880377991562
0001e0 80 d5 60 d2 34 f2 a0 bf dd e5 24 fd 9f 23 ab bf
       -0.03309788768857924 -0.05300617184770904
0001f0 e1 8b 2d e2 4a eb a9 3f 51 45 a7 f6 06 1a bb 3f
       0.05062326441727528 0.10586589357196387
000200 81 45 fc ef 0b 66 92 3f 04 65 db 5b ee 34 9f 3f
       0.01796740200285774 0.030475353580958334
000210 92 23 da e7 56 10 a4 3f a2 6c a5 2a 71 79 a5 3f
       0.03918716030336279 0.04194215436538086
000220 b8 66 60 07 42 6e a7 bf 53 6b bc d5 08 b4 b5 bf
       -0.04576307621046055 -0.0847783586327016
000230 8a 88 05 48 14 11 7f 3f 35 18 82 ea 54 9d bc bf
       0.007584647392237307 -0.11177569127366456
000240 84 f4 dc fd bc c6 b3 bf 90 de 16 78 a8 67 ad 3f
       -0.07725125501470315 0.057431473407118294
000250 26 48 1e 2e b7 67 a6 3f 07 dd fe c9 50 50 b2 bf
       0.043760036830591084 -0.0715380185273383
000260 37 83 99 ec 9a 10 71 3f dc df dc 20 7b 70 b9 bf
       0.004166226551746636 -0.09937257339777211
000270 5c 4b d1 de 90 a2 a2 bf ce c6 30 5c fb 94 80 3f
       -0.036396529387863835 0.008096660376483735
000280 09 ab 41 6b 33 4c 79 bf ec 74 49 d8 4c ac bb 3f
       -0.006176186423639826 0.10809784202998046
000290 12 2a 87 19 b4 44 b3 3f 07 c3 e9 30 46 7c b4 3f
       0.07526708243600691 0.08002127355736031
0002a0 a0 ab 78 c1 82 2b 9c bf 30 f8 7e 3e eb 3c b8 bf
       -0.027509730394892906 -0.0946795489862502
0002b0 63 79 df 79 1f 6c b5 3f 37 ff 63 a6 ff ad ad 3f
       0.08368107533849449 0.057968129216531876
0002c0 b6 7a 4f e7 e5 cd a2 3f 2a a0 e3 0b bf ac a0 3f
       0.03672712753881539 0.03256794948703175
0002d0 13 69 55 0f ba 9f 62 3f d2 a8 c5 f2 3b 58 98 3f
       0.002273429296718929 0.023774086659081935
0002e0 f2 12 a2 1d ae 20 a6 3f 2e 83 c6 33 18 65 a2 bf
       0.043218079678842516 -0.035927540130847965
0002f0 b2 31 2b a8 ce 0f 9d bf 32 57 4d 4c f8 a1 a2 bf
       -0.028380612386898547 -0.03639198237821829
000300 27 93 c9 de 8c 70 95 bf d7 51 82 51 f4 3a 8b bf
       -0.020937157724250668 -0.013296040284594675
000310 92 55 7b 53 33 95 b9 3f 0a 86 3a bf aa cd a9 bf
       0.09993286884431132 -0.050397239535652075
000320 f9 05 a2 b1 61 2e ab 3f d7 d6 e5 b7 36 ef b3 3f
       0.05308823865290075 0.07786886205380071
000330 42 3a 96 f3 bd e3 78 bf 9f a0 21 9d 4f 1b 93 bf
       -0.006076566694345477 -0.018658870664154944
000340 fe ac 16 a8 7a 03 ae 3f 43 dc 6e 85 33 7d b3 bf
       0.05862029363501085 -0.0761291695369986
000350 0a 61 d7 4d 38 6d a9 3f c4 c8 fa 06 ad 8b be 3f
       0.0496614069958828 0.11931878490830444
000360 bb a9 99 9c 87 79 b8 3f f2 6f d4 38 e2 63 b6 3f
       0.09560439656494328 0.08746160399863337
000370 12 29 fb 7a f6 b1 b7 bf 98 4a eb 53 92 da 8c 3f
       -0.09255924704044485 0.014088767229087737
000380 79 68 39 4b 46 bb a0 bf cf cd 42 57 5c 98 91 bf
       -0.032678791697166205 -0.01718277247046079
000390 b6 b3 9e 57 16 83 98 bf 8a bd 28 24 d6 e5 97 3f
       -0.023937558267494295 0.023337694127062693
0003a0 c5 62 5a a1 f5 21 c1 3f 2e ec bc b3 1c 55 9b bf
       0.13384886148994304 -0.026691864462218877
0003b0 28 0e 2f fb f7 dd 94 bf e7 9b 43 de 57 3e 71 3f
       -0.02037799330334003 0.004209845767241461
0003c0 cf c8 da 9c 4c 95 b2 bf 42 bd e9 93 40 b4 92 3f
       -0.0725906260438791 0.01826573279180122
0003d0 05 91 f3 a3 ce fa a0 3f ad 39 d5 b1 29 e0 68 3f
       0.033163506997683036 0.0030365766857933436
0003e0 fd f9 d8 a6 0a f9 b2 bf 25 95 a7 77 c3 78 71 bf
       -0.07411257337023609 -0.00426555971578083
0003f0 a1 93 8c 57 60 1d af bf e4 48 4e cd c8 18 95 bf
       -0.06077099865641534 -0.020602357416984143
000400 c5 58 94 ac ca f6 65 3f 24 d8 48 da d7 a0 c3 bf
       0.0026811560134190914 -0.15334604414391706
000410 45 51 5d 03 e5 32 b3 bf be 2f b6 47 2d e5 af 3f
       -0.07499533970014223 0.06229535580050037
000420 75 a5 c3 9e 73 1a aa 3f 9e 9e 03 67 4a ad 71 3f
       0.05098306000747758 0.004315653452273386
000430 78 49 51 f7 fd 93 83 bf d1 a9 62 d4 e6 ee b3 3f
       -0.009559616193801843 0.07786410031500358
000440 5e c3 92 e9 32 dc a3 3f 8f 65 9f 81 30 66 92 bf
       0.038789359104504526 -0.01796794692186193
000450 8c cc ac 6b a3 bb b6 bf 1b 40 c0 8b 82 12 88 bf
       -0.08880063418182454 -0.011754054918157
000460 6a 92 7c 24 73 06 a0 3f 52 56 ea 6b 99 88 26 bf
       0.031299207881862426 -0.0001719176561506991
000470 44 ca dd c5 7d 84 ac bf 83 98 70 d7 a9 d3 8d bf
       -0.05569832840310032 -0.01456387222976852
000480 33 cb 8b b3 d1 16 74 bf 0d 47 68 da d4 d3 b1 3f
       -0.004904574533372496 0.06963854152880007
000490 9f b0 a2 c1 d0 ff b2 3f dd 3a 15 5e 0d 00 a9 bf
       0.07421593406133063 -0.04882852338288555
0004a0 a7 8b ea 12 34 01 97 bf 99 f8 a5 86 1c 82 a0 3f
       -0.022465528158715078 0.03224267142921739
0004b0 d2 bc 7c 38 3a bc a4 bf 1a 3c 0c c6 a7 55 99 bf
       -0.04049856128255559 -0.024740811789396223
0004c0 ec 55 b7 7a 98 94 c0 bf db 55 47 61 82 1a 62 bf
       -0.12953477851867434 -0.002209906242778043
0004d0 dd 8a 11 69 47 5a be bf b3 ce 7b d8 e5 64 b3 bf
       -0.11856504740857639 -0.07575832877392479
0004e0 5a 26 2f 43 ef b8 a9 bf 88 09 1f 0b 8f c6 a6 3f
       -0.05023906417006847 0.04448363314397158
0004f0 60 39 02 b1 d3 71 65 bf 9d 6a 60 ef 66 f9 87 3f
       -0.002617753467411152 0.01170616548556796
000500 8e 9e 79 e3 1a a3 a1 bf 8a a9 52 6e df 6a 8d bf
       -0.034447517650559964 -0.0143639998953702
000510 8c d6 db 17 0c 59 b1 3f cc e5 8d bf d4 d5 a6 3f
       0.06776500303734617 0.04460015142735649
000520 bb 3c 3f ad 99 c6 98 3f b9 22 3c 5b c3 5c b3 3f
       0.024195100020560228 0.07563420274176282
000530 73 8f 79 df e3 cf 42 bf d3 96 ed 40 cc c5 a9 3f
       -0.0005740988407976058 0.05033720295504698
000540 c5 86 62 c6 c4 5b b7 3f b5 19 fc ea bb 24 95 bf
       0.0912440285051402 -0.020647941796619402
000550 a1 df 69 bf 8d d4 b6 3f 28 fb e7 2a 85 b9 c3 bf
       0.0891808121031077 -0.15409912676838045
000560 ba dd 75 57 02 b0 c0 3f 97 62 9c 3b 15 5b 9e 3f
       0.13037137289550832 0.0296443288453668
000570 5e 55 98 d4 e0 5c ab 3f c8 9d 8c 26 13 80 a5 bf
       0.05344297976641131 -0.0419927582318525
000580 cb 40 cf a4 70 1f a3 bf 81 75 f6 af ec 99 9f 3f
       -0.03734924327693675 0.03086061309806132
000590 05 00 a0 47 a1 60 b5 bf a1 09 5b cd 4e 8d a1 bf
       -0.08350570677430376 -0.03428121811659258
0005a0 04 b3 91 e8 0f 13 b7 bf 4e b5 38 64 b5 6c b3 3f
       -0.09013461521108118 0.07587751099409454
0005b0 f1 13 6e 8b ee 08 8e bf e5 ad 6c f1 39 63 9a 3f
       -0.01466547358519141 0.02576914344824201
0005c0 dd d7 58 9f a4 9a ad 3f a6 ad 2a ca e0 0d ad 3f
       0.05782045788912147 0.05674650638442395
0005d0 68 a6 7b 55 4a 8f b6 bf b2 cc f0 cf d5 b3 94 bf
       -0.08812393748271463 -0.02021726686161846
0005e0 82 31 b9 d1 0d 59 b3 bf 68 55 a8 22 f6 25 8e bf
       -0.07557760591698151 -0.014720843250908458
0005f0 26 d5 16 94 81 8b 6a bf f9 95 62 02 c0 a2 a8 bf
       -0.003240349848705154 -0.048116684237623226
000600 a5 55 f1 68 eb b8 a1 3f 89 bf 31 81 2f 8d ad bf
       0.034613949356450825 -0.05771778537825784
000610 92 9a 16 70 e0 11 b4 3f f6 27 9c 22 8a c4 9e 3f
       0.0783977769520823 0.030046614038873508
000620 00 68 0f 15 a2 8d b1 bf fd b2 c2 c8 bd dc 93 bf
       -0.06856740011372153 -0.019396748903704786
000630 ec d9 02 70 35 69 b9 bf b9 35 f6 6c 5b f2 a5 3f
       -0.09926160797736089 0.042864663172717817
000640 90 57 48 6c 85 9c a8 bf bb ac a4 78 f1 e8 a0 bf
       -0.04806916186150467 -0.03302721593566945
000650 bd 13 61 8b 68 0d be bf ea 80 1e e9 37 0d a4 3f
       -0.11739209559261972 0.03916334839527898
000660 68 b1 57 79 57 30 a1 bf 54 96 0b 5f 05 17 96 bf
       -0.03357194286567983 -0.02157219307527776
000670 d4 74 d1 b4 60 65 a1 bf fa 29 10 a2 3c 24 9b 3f
       -0.03397657592061312 0.02650542010455046
000680 82 83 66 3a 92 f4 94 3f 33 88 df 39 f7 d2 97 3f
       0.020464215101700052 0.0232657078812581
000690 c7 e4 d6 75 fc 25 a0 3f 11 5e 7a fa 5d b4 ae 3f
       0.031539811501212926 0.059969841791083785
0006a0 fd dd e5 ab f1 56 8a 3f 0d 8a cc 1a a9 85 a8 3f
       0.01286114507523361 0.047894749184951825
0006b0 68 7a 95 de 5c 10 9a 3f a4 a0 cd 8d 1a f3 9b bf
       0.025453044019167953 -0.027294554619772385
0006c0 1f 4f 5b 60 dd 98 95 bf f7 9d 7d a3 32 ae 99 3f
       -0.021090945249695566 0.02507857439868918
0006d0 7b b8 a5 ed a0 95 91 bf 30 d3 4f 3c f0 20 7a 3f
       -0.017172350411265285 0.006379068775449068
0006e0 64 8e 63 f2 f4 41 95 bf 9e e1 45 98 8c 4d ac bf
       -0.020759417814487327 -0.05527915343094779
0006f0 bc 32 03 d3 4f fd 58 3f 1f ed b3 65 ac c4 bd 3f
       0.0015252379926550671 0.11628224833468835
000700 53 e2 26 90 8b c4 8a 3f 4f d2 5a 56 4d 76 a1 3f
       0.013070192658106416 0.034105698386529874
000710 05 63 65 0e 55 bb 8f 3f 21 b8 07 16 4e c5 b2 bf
       0.015494026662666647 -0.07332313573689976
000720 73 4e c2 64 00 af a7 bf a2 84 55 58 10 d7 b3 3f
       -0.04625703077286127 0.0775003638896288
000730 0d 6a bf 5c f1 4a aa 3f 5d 31 57 1a 5a d6 98 3f
       0.05135301835226267 0.024255187852575733
000740 79 ac 84 94 24 f8 a4 bf 47 9e d4 b9 18 3d b3 3f
       -0.04095568001715661 0.07515100991133138
000750 dd 67 77 eb 09 f9 52 3f 8b 7e 3a 23 3f 2b 96 bf
       0.0011580082772213375 -0.021649347806145285
000760 1d 9a ad e3 6f 99 b3 3f 73 c5 bf 4a b0 d7 a9 bf
       0.07656001385257878 -0.050473698734900284
000770 9a f4 be 24 d0 67 c1 3f ed f4 20 89 b4 7e 9d bf
       0.1359806231902539 -0.028803654546426683
000780 bc 22 9b c5 3b a4 8b 3f 9b 8d 1e de 1c d4 b1 bf
       0.013496844261127953 -0.06964283392749453
000790 d6 69 bb 47 13 40 90 3f 3b af 08 d7 f6 6a a8 3f
       0.015869427922419486 0.047691072224863316
0007a0 39 22 4d 5c 5b 8b ab bf d8 d8 2f f6 65 38 8f 3f
       -0.053797583596466976 0.015244289947059661
0007b0 96 ec d0 1b c8 8e a5 3f bd f9 82 1f 1f 83 b1 bf
       0.04210496272613644 -0.06840700644804705
0007c0 9d ed da 3a 52 9e b3 bf f6 a7 72 ac d0 c5 ad 3f
       -0.07663453995603793 0.0581498346812878
0007d0 34 7f c2 09 2f 26 93 3f 31 49 f0 03 31 09 b4 bf
       0.01870034691876228 -0.07826525064618718
0007e0 a5 84 bf 01 f6 5e a2 bf b9 b2 54 46 a7 2f b4 bf
       -0.03588074466075256 -0.07885213343679255
0007f0 29 b9 16 79 f3 e7 a6 3f bb 52 c6 1c 33 b7 a0 3f
       0.04473839619764625 0.03264770246747647

base.actor.actor_fc3.bias f8 [8]
000000 2e b7 40 7f b0 8f 98 bf 6e 8a 1e 23 61 4e bd bf
       -0.02398563172044204 -0.11447722537426738
000010 6d c5 5c 1f e6 90 a6 bf 15 bb 8f 1a b1 e6 a8 bf
       -0.0440742409977116 -0.048635038845409685
000020 8a 52 e3 5e e2 b9 b2 bf bc 3e 54 cb b3 1a b4 3f
       -0.07314886871911078 0.07853244508828089
000030 47 c5 38 4e 43 ea 8b 3f 7d da e7 cd d0 43 a3 3f
       0.013630414795530966 0.037626767287226116
