results/Ant-3d/cmorl-ipo/1/final/EP_policy_58.pt (torch, 105481 bytes, 13 tensors)

base.actor.actor_logstd f8 [1, 8]
000000 be 13 ee fe 6c 90 02 c0 ca 6d 54 8c 55 cd 02 c0
       -2.3205203930287714 -2.350260826422276
000010 bb 12 5c 35 da 5a 02 c0 23 67 ba 15 ef 8d 02 c0
       -2.2943615120624066 -2.3193036744604725
000020 fb f0 38 16 59 67 01 c0 fe de c9 c9 0c d6 02 c0
       -2.1754628883483043 -2.354516579125515
000030 00 b7 3e 4f a7 aa 01 c0 3d 42 10 db 1d ed 02 c0
       -2.208326930142789 -2.365779601510694

base.actor.actor_fc1.weight f8 [64, 27]
000000 9f 68 d4 93 8a 77 b9 3f 2c fe e7 68 09 6c b1 3f
       0.09948030575870569 0.0680547600859362
000010 2c c3 4b 88 d1 0f a4 bf 9b 4a da e6 9d c0 d0 bf
       -0.03918318547028429 -0.2617563967152507
000020 5f fb 37 ef 8d ec 8a bf 1a 70 8f a0 ee 66 c7 bf
       -0.013146504271387803 -0.18282873954638107
000030 d0 8d 93 78 fb 63 a4 bf 99 f8 4a a5 40 1e b0 bf
       -0.03982530447845145 -0.06296161685438263
000040 ec 13 ce 6a e8 64 c9 bf 50 5a c0 fc d0 8b c1 bf
       -0.1983919641026256 -0.13707935658813364
000050 1b ad bf 7f 5f 3f c1 3f 8a e8 14 92 1a 85 b5 3f
       0.13474649179202278 0.08406225267836667
000060 e7 a2 f2 b2 fe 97 b0 bf c1 6f 35 c9 7c 59 c8 3f
       -0.06481925839274148 0.19023094010014854
000070 43 78 3e e1 21 6b c2 bf e0 1e 2f 77 af 52 bd bf
       -0.14389441965335167 -0.11454292926566323
000080 ac 3e 28 1d ba ee b1 bf 03 08 78 d6 41 6e c6 bf
       -0.07004893504949433 -0.17523978206742194
000090 65 d8 07 23 da 3b bc 3f 94 fe de cc 71 49 c5 bf
       0.11028827052345631 -0.16630384925337138
0000a0 be a8 c0 80 cc a1 b5 bf 76 7a 2d 78 66 8d 86 3f
       -0.08450010436414154 0.011011887114077395
0000b0 7e 7e b9 56 33 01 d9 bf 90 b4 34 b0 b1 f2 b9 bf
       -0.39069827527234924 -0.10135946800137874
0000c0 54 8f 7c 90 7d b4 b2 bf 1c 3d da e7 e5 69 b5 3f
       -0.07306656625274616 0.0836471262975817
0000d0 27 48 5f 1b 85 f2 cb bf ed 6b 24 29 43 3b b7 3f
       -0.21833862148793168 0.09074802164506908
0000e0 03 28 6e 44 2a 15 83 bf 06 77 96 2f 29 47 cf bf
       -0.009317712987257925 -0.2443591577875212
0000f0 52 92 00 36 74 f2 ae bf c9 31 d9 34 c1 40 bc 3f
       -0.06044352683264677 0.11036307850117234
000100 18 a4 b1 68 ba a5 c1 bf 17 bb 42 65 1b 7d a4 3f
       -0.1378701220703824 0.040016990767403886
000110 c0 84 a6 29 54 73 9a 3f 65 b7 78 d5 91 61 d4 3f
       0.02583056930746319 0.31845517966109177
000120 7b da a0 48 ec 7b b5 bf 63 7a e7 b2 a0 6c 84 3f
       -0.08392216466095619 0.00997281595203709
000130 03 84 7d fb f0 9f 54 bf b0 2d fb 09 24 f3 b9 bf
       -0.0012588361114114217 -0.10136628383332069
000140 e3 1a 8b ff 99 a5 8c 3f 8a e6 1d 34 7c c5 d4 bf
       0.013987734900536569 -0.32455353822261
000150 9c d9 1b df 4f 54 a2 bf 07 70 51 d8 89 8a af 3f
       -0.035799499497375126 0.061603839546222665
000160 b7 11 e0 be 7d c9 c7 3f 96 d2 05 42 7c f2 a4 3f
       0.18583652324754293 0.04091251665059763
000170 74 88 a7 94 17 d8 94 bf 95 4c 15 6e 03 7d a7 bf
       -0.020355575988908872 -0.045875651538744545
000180 51 5a d4 c7 92 17 c6 bf 69 6f 95 0e e0 90 c7 3f
       -0.17259440190601308 0.18410874092193844
000190 25 f8 ab da 12 33 c1 bf 29 12 dd f1 40 dc c5 3f
       -0.1343711440785579 0.17078410920852719
0001a0 c1 87 86 a0 f0 33 c8 bf ce ac c2 c3 b0 bc c1 bf
       -0.18908508146438233 -0.13857087668052376
0001b0 b3 7b 19 49 f5 9c bc bf c3 41 2f 7d 78 4c ca bf
       -0.11176999125153379 -0.20545869934586677
0001c0 21 23 a3 63 7a 3d bd bf 65 91 d2 31 61 cd 9b bf
       -0.11421933109808126 -0.02715064875214192
0001d0 02 78 61 c4 d1 07 d2 bf 35 9d e8 5a c8 6e c3 3f
       -0.2817272584705962 0.15181831778429858
0001e0 ec 31 42 69 d8 0e bd 3f 30 d1 04 71 08 cb ce bf
       0.11350777215756808 -0.2405710746621792
0001f0 db 29 28 7c eb 79 c2 3f 4f 75 37 2d cb bf cd bf
       0.14434569895122604 -0.23241557796328968
000200 a9 bc c8 a1 ab 4f d4 3f c0 1f 3c a5 ef 79 be bf
       0.31736269759398766 -0.1190480974584025
000210 e1 0e 31 ba a4 1e c7 bf c9 89 1c 63 91 c9 a6 3f
       -0.18062266436947197 0.04450659117562201
000220 43 49 98 bd 31 01 c7 3f 0a a6 4e a0 30 2f c8 bf
       0.17972394712030323 -0.18894012286664036
000230 51 a8 c6 19 2a e9 d2 bf 8d ba 71 64 ef ca b8 3f
       -0.29548122899234835 0.09684654428722635
000240 50 88 36 41 3f 25 90 bf a7 e1 63 dc b9 84 aa 3f
       -0.015767086367880545 0.05179386916455835
000250 44 9c 90 0b d3 3c c2 3f 6d 1a 71 d6 bd 61 bb 3f
       0.14248121323291418 0.10696016774554958
000260 d3 0d 71 51 e9 6a c2 bf b1 bf 50 4d f4 d0 bf bf
       -0.14388767696992363 -0.12428213965972536
000270 4e c7 49 c7 17 f7 d4 bf 4a eb 3a de 42 1e cb 3f
       -0.3275813528226664 0.21186099864083935
000280 8d 49 ad dc 64 ed d3 bf 89 e6 c7 ab 84 a5 d7 3f
       -0.3113643794105421 0.36947743201708555
000290 b7 f7 97 a0 a4 0f d2 3f 09 29 f8 ba e7 04 d0 3f
       0.28220477755518963 0.25029938944557323
0002a0 87 b5 84 2e 45 57 b0 3f 42 b5 10 b6 b1 1a cb bf
       0.06383163819983483 -0.21175214185624652
0002b0 4f b0 13 41 21 31 a5 bf cc 37 92 b1 31 b3 b9 3f
       -0.04139045638461935 0.10039053521378988
0002c0 1e b5 c3 ba 3a 10 ba bf 02 50 7d ff 42 98 b9 3f
       -0.10181014117889162 0.09997957932984039
0002d0 49 f5 28 d2 9c ca 85 3f 8f bd 3e c1 eb b9 c5 bf
       0.010640359080862043 -0.16973635612292212
0002e0 0f 2f f1 37 14 0c b6 bf af 3e dd 62 7d 36 d4 bf
       -0.08612181058668632 -0.3158257928343841
0002f0 d0 73 df 9a f9 fd cb 3f 74 2d 4b b7 31 93 cb bf
       0.21868820249701892 -0.21542951059232573
000300 ae a1 6c 68 88 24 e3 3f 64 a4 40 1c 74 71 b1 bf
       0.5982095756090098 -0.06813741388090616
000310 f8 63 1d 39 94 f6 b5 3f 5b e9 23 2b 7b 46 c2 bf
       0.08579374689487895 -0.14277591330012282
000320 ec ec d7 a7 40 75 bf bf 7c bd 6c 04 ad d7 c2 3f
       -0.12288288209667869 0.14720690456440966
000330 fe dc 3a f6 e5 de c6 bf bb d6 48 3b 80 9d c2 3f
       -0.17867731593080544 0.14543154616119644
000340 bc 5e 44 3e f7 59 a6 3f c0 7f e6 07 9f 06 7f 3f
       0.043655134535752066 0.007574673857021652
000350 78 c7 a9 ef f4 ef b8 3f b8 67 f4 c2 d7 e6 80 3f
       0.09741144992019979 0.008252797734303971
000360 68 4f b2 fe 83 13 b6 bf 59 41 a8 e3 0e f7 b6 bf
       -0.08623528450180873 -0.08970730836904774
000370 b6 7f b6 57 a4 5e b1 3f 01 8c ea 7b 91 44 af 3f
       0.06785037175586592 0.06107000959061538
000380 2c ab ea c5 69 af b2 bf b9 36 71 e7 d0 a9 d5 3f
       -0.0729890926547056 0.3384897480180871
000390 54 f6 29 b0 d0 1f a5 3f 6d f3 a2 ff e5 e4 9c 3f
       0.04125835562170424 0.028216928222480165
0003a0 7f e8 46 23 17 e5 c5 bf c2 dd 8f 93 07 72 b2 bf
       -0.17105378363141097 -0.07205245354258863
0003b0 ae 04 92 8d 82 98 c7 bf dd a7 f2 bc 45 22 d1 3f
       -0.18434173500648882 0.2677168221658784
0003c0 bc 1e 72 4c ae 99 be bf 3b 89 ed ef ff c5 b2 bf
       -0.11953248373367392 -0.07333373649229184
0003d0 7d a0 bf 64 cd ab f8 3e 97 27 2f 77 d2 c9 c2 3f
       2.352819710430041e-05 0.14678412265339766
0003e0 84 05 fb 7c 74 9b b9 bf 41 84 93 cf 0a fe bb bf
       -0.10002830554278402 -0.10934512679843157
0003f0 27 70 61 04 5f 8d bd 3f 7e 63 ba db e3 8e da bf
       0.11543840271900817 -0.4149713178426778
000400 18 a4 9a 99 58 be d8 bf cd c2 5e 8f 10 54 a5 3f
       -0.3866178035773955 0.04165698766826651
000410 d7 f4 2a ff 8c 98 c7 3f 05 a0 61 77 6a de c5 3f
       0.18434297999730262 0.17085009411971455
000420 fe f3 37 44 e6 58 d2 bf 3d 1c f9 2e 43 5d bc 3f
       -0.2866759935566846 0.11079807183078656
000430 ed f2 43 7f dd 8c b6 3f 45 6d b2 89 40 75 dd 3f
       0.0880869327265363 0.46028150031061826
000440 85 87 01 f7 46 a5 aa 3f de c7 bd da 5a 01 a6 3f
       0.05204221501550336 0.042979087068388586
000450 a6 18 1a 77 17 06 e0 bf 31 6d 08 16 e6 ee c7 3f
       -0.5007436109742869 0.18697811199022277
000460 09 62 2e 0a 80 65 bc bf f0 97 d1 e5 22 a3 d2 3f
       -0.11092376946033523 0.2912070507358058
000470 77 81 f9 fb e9 6d d2 3f 54 76 be 6c 6a cd ac 3f
       0.2879586182298434 0.05625469758454629
000480 88 0f 9a 54 59 f8 a4 3f 4c 90 e5 41 87 93 c2 bf
       0.04095725209938822 -0.1451272079240219
000490 dd 53 d4 d3 db 18 c7 3f f7 8a 4a 6b 7c d9 ad 3f
       0.18044612735016488 0.058299911591594915
0004a0 62 41 b1 2f 59 51 b7 3f 62 9e 15 53 5c d7 ba 3f
       0.09108502783170061 0.10484864262036234
0004b0 d8 f0 9b 01 8a 50 c2 bf dd 14 68 c5 1e 20 c1 bf
       -0.14308285788127395 -0.13379273070328326
0004c0 0f b7 28 41 43 49 b6 bf e5 72 35 60 c3 0c a8 3f
       -0.08705540028378443 0.0469723753874172
0004d0 ee 17 0f af 98 2c cb bf 73 be d0 87 46 f3 a2 bf
       -0.21229847476769187 -0.03701229484465509
0004e0 45 19 16 0d 68 fc d0 3f 2c b9 11 7c 7e 5b b0 bf
       0.26540566709481467 -0.06389608887704828
0004f0 09 27 fe 2d 8d e4 c8 3f e2 83 00 77 5b 66 92 bf
       0.19447483773938526 -0.017968587053591174
000500 f3 f7 f4 6a a8 ad ca 3f 14 8f 75 ec 9b d4 95 bf
       0.20842461798196119 -0.02131885176403532
000510 3f c5 9b f3 4c d0 cf bf db 72 6b 84 0f 17 da bf
       -0.24854432959504355 -0.4076575081979123
000520 37 41 5d 27 ff 74 bd bf 8e 45 b8 7a b2 5b d8 3f
       -0.11506647788087752 0.3805967520175607
000530 b2 34 61 4d 30 06 9f 3f 25 78 22 7b 7e b7 cd 3f
       0.030297045443422994 0.23216229450639606
000540 99 df 1a 0f 62 40 bf 3f a5 0d cc 68 7d ba c5 3f
       0.12207615727208888 0.16975371949238852
000550 23 9b 14 b2 8c 49 c9 bf b4 9f 77 70 0b 09 c0 bf
       -0.19755705542885335 -0.12527602187696874
000560 00 67 b1 a1 17 74 c0 bf 64 67 03 31 65 0f be bf
       -0.1285428561703199 -0.11742241331685715
000570 fc 24 20 e1 c6 68 c0 bf e0 b0 3d c6 59 3c c4 3f
       -0.12819753639659115 0.15809175662742003
000580 a8 bb 41 8a 49 03 a8 bf 26 10 39 fb bc 1d 9b bf
       -0.046900079848334386 -0.0264806297621051
000590 02 97 ad 66 ec 7b b2 3f 40 94 90 be c2 cd 9b bf
       0.07220342165745922 -0.027152102357053787
0005a0 4c 03 33 67 8c a6 c3 3f 97 60 8a 57 75 7d c5 bf
       0.1535201553251916 -0.1678911855167413
0005b0 d8 d0 49 9b 27 01 b2 3f 87 4c 2f 77 50 b7 b5 bf
       0.07033011952609358 -0.08482840451988426
0005c0 c1 93 f8 89 c3 fe b6 bf 99 83 d3 a6 14 1d c4 bf
       -0.089824887451484 -0.15713747163593153
0005d0 29 6a a9 a5 4c 91 c4 3f 89 fb 0c 0e e2 9c c3 bf
       0.1606841858764068 -0.15322519002981164
0005e0 40 b2 62 c2 95 00 db bf 45 17 77 af 8c fe d3 bf
       -0.4219107054039206 -0.31241147170327493
0005f0 d4 62 b4 68 89 2b b5 3f 7f fe 1e 9d bd 30 db 3f
       0.08269556814446882 0.4248498949418504
000600 f9 cd c3 3a fc 4d 9a 3f 4a 7e e1 49 da 41 e0 bf
       0.025688115202639115 -0.508038658426764
000610 10 fd 52 f3 08 9e c5 3f 27 d5 d7 15 ec 29 b6 3f
       0.16888534432471447 0.08657718213347164
000620 1d de bb eb 79 ec c2 3f 2b 42 95 90 88 3c af bf
       0.1478416825336674 -0.06100870861940096
000630 93 68 2c 4f 11 bf ad 3f 52 6c 8c bd 3f cc 9f 3f
       0.05809835521195441 0.031052585548519147
000640 0d 19 35 ea 4c 71 cf 3f a7 a5 3a e4 d4 4b cd bf
       0.24564515529545652 -0.2288766970062117
000650 4c 33 4d 47 ea 89 c4 3f 36 f4 ea 6a 4b 26 9c 3f
       0.16045883637925795 0.02748983230661769
000660 b8 da cf 70 ef 2e 72 bf ba df 40 dd 4e f2 96 bf
       -0.0044392922545656785 -0.022408706907498056
000670 43 07 dd 84 3b c8 bc bf d9 fd df d6 2f 7e a6 bf
       -0.11243030542121084 -0.043931479434828176
000680 d7 47 50 f3 d4 fe c7 3f 53 d2 87 a6 75 69 c4 bf
       0.1874643505148572 -0.15946837073683415
000690 31 ed 70 82 61 92 bc bf ef ff 3e 0b 35 fd ce bf
       -0.11160859522435797 -0.2421022705948412
0006a0 2e dd e3 f1 b2 38 83 3f 79 32 9b 77 03 58 bf 3f
       0.009385488516712028 0.12243673009943191
0006b0 70 60 82 b6 04 78 ce bf 48 3f a8 c4 e8 6c 81 3f
       -0.23803767119966635 0.008508509160520497
0006c0 40 6b ef fd 24 93 db bf a1 e9 e7 0a d0 f9 d9 bf
       -0.4308559875332101 -0.40587235512762204
0006d0 31 c2 04 d7 a3 d9 81 3f 99 a7 d5 ae d4 fc d1 bf
       0.008715896605822145 -0.2810565669411687
0006e0 69 d1 92 e1 05 37 93 3f 47 f8 21 aa ad 17 8e bf
       0.0187645834855216 -0.014693600420511056
0006f0 2e 09 6a 96 30 b2 b7 3f 24 38 e0 a8 ef 42 c4 3f
       0.09256271049710982 0.15829272981540143
000700 c8 ec 54 f5 78 ec 57 3f 2e 9a 4c 42 04 90 b1 bf
       0.0014601880296385861 -0.06860376948007094
000710 07 d0 5e e9 9b 3b b1 3f f6 f7 88 59 2c d8 b2 bf
       0.06731581161039922 -0.07361104188836962
000720 7d 66 fb 2c b6 d4 c2 3f bc 22 3f 1a 03 5d b5 3f
       0.14711644359958945 0.08345050230776513
000730 d9 c8 fe ad 77 2a c5 bf 14 8a c7 76 8e 36 d1 bf
       -0.16535850520955966 -0.2689548644977162
000740 ce 71 9c 97 ee de c2 3f d8 7e 8b 68 a9 92 87 bf
       0.14742834475408845 -0.011510203841168673
000750 f0 58 fa a0 32 8e b7 bf 8c 5f c1 97 bb 34 a6 3f
       -0.0920135157597064 0.04337106921656106
000760 cb a2 d1 e8 5c a2 d5 bf 9b 1c 64 53 9e 8e ad bf
       -0.33803484665126565 -0.057728717498372016
000770 5e ea 17 cf 5a 33 b5 3f 1b fe 76 57 fc 74 c9 3f
       0.08281486087791154 0.19888262053244507
000780 5b 55 f6 24 45 b9 a0 3f ad 35 83 50 ca c0 bd 3f
       0.03266349865149706 0.11622299638403062
000790 96 55 3b 7a 90 11 99 bf e3 50 d9 04 0f 93 c7 3f
       -0.024481065235553233 0.18417537438165885
0007a0 09 c7 41 5d 56 39 d4 3f 9d 1a 71 1b fb c0 c8 bf
       0.31599959475634926 -0.1933893093102669
0007b0 65 37 5d 11 c5 4e dc bf d3 13 c5 c5 07 7e cf 3f
       -0.442307726819186 0.24603364140253223
0007c0 b5 e4 89 b6 49 0b d4 3f de b4 26 08 04 de a0 bf
       0.3131889612773862 -0.03294384574415131
0007d0 01 59 e9 18 0b ab a1 bf 03 9d 9c 53 5b e4 c8 3f
       -0.034508082190471974 0.19446889479261395
0007e0 43 1d 68 44 4b ea 7f bf c0 63 b4 52 33 d7 b1 bf
       -0.007791799557259896 -0.06968994874149725
0007f0 bb 23 66 11 aa 9b ad 3f 91 dd 46 73 17 7a aa bf
       0.05782824957265783 -0.05171273500621532

base.actor.actor_fc1.bias f8 [64]
000000 22 c4 68 b0 f6 c3 c5 3f 86 5e f6 01 a7 27 a0 bf
       0.17004283536655956 -0.03155252360300857
000010 4e 5a f7 19 45 25 b4 3f c6 69 fb 9e 83 92 80 3f
       0.07869369396153411 0.008091953553436403
000020 11 70 9b f5 73 77 c2 3f c3 d6 23 54 1d ed c4 bf
       0.14427041523492837 -0.1634861622657607
000030 46 76 34 e2 38 b4 ba bf 16 43 6b 87 29 e1 cc 3f
       -0.1043124725587968 0.2256214057183789
000040 cf ce c6 68 8c 9f c8 3f 8b 79 38 89 df 24 9b 3f
       0.19236903301281535 0.02650784754779915
000050 f6 bd 75 d6 d8 88 c3 bf 3c 78 6d b2 e4 f8 c0 3f
       -0.15261373969722997 0.13259562217985088
000060 0c d5 a9 6e 79 91 7f 3f c2 5f bb 78 b2 70 92 3f
       0.007707094521369539 0.018008030527965742
000070 64 83 20 ec 39 8f c2 3f 35 d0 0f e6 c2 9c 92 3f
       0.14499591855658445 0.018176121990066647
000080 64 9f 4b 3c 71 7a bc bf a6 87 63 38 d7 0d a9 bf
       -0.11124332162910161 -0.048933721192738575
000090 95 78 52 2c 9c 65 c3 bf 15 30 82 44 8c ef b2 3f
       -0.15153839267890548 0.07396771118709496
0000a0 ce 3e 84 18 e6 fd 72 bf bc a9 2f 2a 3e b9 c0 bf
       -0.00463666802558267 -0.13065316257354975
0000b0 9c f3 ff 98 ac 4e b0 3f ea ba 04 1a 70 22 c2 bf
       0.06370047316882083 -0.14167596121247722
0000c0 cf 28 dd c1 7f 11 b5 3f 41 59 71 75 a1 81 be 3f
       0.08229826434140651 0.11916550748114664
0000d0 17 52 1e 33 07 aa b7 bf b8 fe 0c f3 99 6e c2 bf
       -0.09243817327507774 -0.14400028579438184
0000e0 d2 b5 d7 5d bb 3f a4 3f a2 6b f5 d6 84 05 8e bf
       0.03954873581447384 -0.014658963975923648
0000f0 66 16 74 c9 ea 12 99 3f 43 af 3a bf f6 01 cc 3f
       0.024486225648635694 0.21880993211140706
000100 c3 1c 87 be d4 8e b9 bf 8a d6 b0 b9 07 cd 3c 3f
       -0.09983567859227364 0.0004394668446282354
000110 cc 47 f1 84 17 85 bd 3f 20 4f a2 c9 cd cb b9 bf
       0.1153120708052306 -0.10076605007844508
000120 38 81 09 ae 98 be 9b bf 51 dd 0b 61 38 b7 af 3f
       -0.027094255087264346 0.061944734426954036
000130 98 87 57 03 5c 68 cb 3f 88 08 9c 48 65 d0 be bf
       0.21412229693583806 -0.12036736509984014
000140 79 77 81 45 1f 88 c5 bf 4f be a2 e4 16 3e d7 bf
       -0.16821661847910344 -0.36316463782984426
000150 1f d8 a1 21 e7 05 95 3f 1d ca 53 2b a5 fe bc bf
       0.02053033011221583 -0.11326057727618673
000160 55 05 73 05 f4 1a 87 3f b3 3e 5b 6d d5 ae ab 3f
       0.011281877914714281 0.05406825027386954
000170 a7 ed 32 32 97 53 af 3f f4 c8 0c ab 48 76 cf bf
       0.061184620740699906 -0.24579723693893352
000180 3e 8d be 30 8e 4a 64 bf ff 07 9a 58 de 92 87 3f
       -0.0024769570499799934 0.011510598257931546
000190 3b fe 48 a3 91 cc c0 bf 5d ca a0 9d 76 35 c7 bf
       -0.13124294732004835 -0.18131907173809028
0001a0 4f b8 1b 82 4c dd c6 bf f7 89 df 15 7d f4 c9 bf
       -0.17862850525802051 -0.20277370040919582
0001b0 2e d0 d8 e7 66 80 c6 bf 03 76 d5 8f 6a ab bb 3f
       -0.17579351730967246 0.10808435451095737
0001c0 2c c5 56 14 06 72 b4 bf 79 4e 37 a4 83 b0 a7 bf
       -0.07986486431652356 -0.04626857165899607
0001d0 5b 33 9d 77 26 bf a7 3f 5c 7a bb 1a 2a 72 a8 3f
       0.04638023576862934 0.04774600578615626
0001e0 22 4a b9 f4 1e 6c af bf 57 e5 52 bf 52 41 bb bf
       -0.0613717721686451 -0.10646550341598036
0001f0 fe 19 d1 ad 6b 31 96 3f 63 f7 3b 5b d4 23 c1 3f
       0.02167289970773289 0.13390593008801507

base.actor.actor_fc2.weight f8 [64, 64]
000000 1f 19 a2 64 1b 50 7e bf d4 c8 06 85 f4 8a c7 3f
       -0.007400614742556293 0.1839280747931925
000010 79 f4 55 ec 9d 95 b5 bf c0 e4 05 c2 85 e7 a8 bf
       -0.08431422252574973 -0.048641376432848826
000020 4c 93 f1 85 4e 29 c5 3f 77 7b 36 c1 81 c8 72 3f
       0.16532308140008423 0.00458574948734635
000030 08 04 47 36 78 2f c4 bf 30 7d 7a ee 6c f7 d7 bf
       -0.1576986565615075 -0.37447665490067816
000040 49 51 41 91 98 73 84 3f 46 81 bd bd e2 4e af bf
       0.009986106808505328 -0.06114872518696983
000050 3a f1 b4 d2 4c 9e b5 3f f1 7c 59 36 42 59 c5 3f
       0.08444671768387915 0.16678645757472269
000060 92 33 e2 22 29 21 b2 bf 91 f8 21 c1 3f 38 88 3f
       -0.07081849195146919 0.011826036530916436
000070 83 5f 41 e1 68 77 b2 bf c3 a7 f3 e2 a7 f0 b4 bf
       -0.07213454722784544 -0.08179711619200618
000080 c9 08 fb ed bc c2 c0 bf 4e 7a f7 93 1d c5 b2 bf
       -0.1309429323210394 -0.07332024443119531
000090 b3 ec 82 a8 9f 7e b3 3f ea 03 4e 97 2a 00 93 3f
       0.07615087379501766 0.018555322155865563
0000a0 c5 2e 23 c6 79 71 ca 3f 9f 05 f3 55 ea 02 d2 bf
       0.20658800291709248 -0.28142794030653734
0000b0 ac 61 50 56 f7 38 c5 bf 49 92 ad 50 03 79 d1 3f
       -0.1658009692626029 0.27301104429924244
0000c0 e0 51 0e d9 be 11 c3 bf cb 8b 7a 76 17 0c cf bf
       -0.1489790496676866 -0.24255650792210157
0000d0 db fe e4 0f c9 d0 97 3f 25 c4 1f c1 69 a5 cc 3f
       0.023257390589832432 0.22379800729643864
0000e0 74 9d 21 39 aa 6c 9d 3f 70 4c c6 8c 93 de d5 3f
       0.028734836327570304 0.3417099833251944
0000f0 20 16 73 03 3e 82 c1 bf ca 0f 6d 03 cd c1 c0 bf
       -0.136787177738527 -0.1309143320778488
000100 7d 96 0d dc f1 88 9e bf f4 a4 0f fe 95 fd 83 3f
       -0.029819277816747636 0.009761020484761997
000110 1a 0d a2 76 4e dc d0 bf 4f 51 a4 f3 7c eb 93 3f
       -0.2634464415097725 0.019453003283233013
000120 d2 54 7c 98 11 8f aa bf 5d 02 22 fc f3 5d c3 bf
       -0.0518727778091176 -0.15130472003149267
000130 3e 6a 75 6a ad 44 a4 bf a0 83 8f 15 07 88 c9 bf
       -0.03958646702331635 -0.19946373512996463
000140 72 b9 d3 a4 58 77 c7 bf 2f c5 ff 1b d5 91 bf bf
       -0.18332965896793102 -0.12331897672244872
000150 d3 2b f8 c4 d2 5e b2 3f 3a c5 3b 52 20 97 c8 3f
       0.07175938900779437 0.19211200728708794
000160 65 4d db 00 ad cf cc bf cd 1a 87 11 6e 9c 86 bf
       -0.22508776227787589 -0.011040553960709154
000170 4c 28 03 4b d2 1e c3 bf dd a4 5b be 86 c3 b8 bf
       -0.1493780962248955 -0.09673349521075943
000180 ba 73 2d 90 af f8 b2 bf 01 7a ee 82 39 11 bc 3f
       -0.07410714406928678 0.10963782736369156
000190 33 b4 96 df a7 91 c8 bf 84 fd 4c bc f8 aa d0 bf
       -0.19194506089607585 -0.2604352797388503
0001a0 57 02 06 43 b3 2a c7 bf 55 a8 d7 e4 26 72 b0 3f
       -0.1809906079543164 0.06424182021115261
0001b0 19 5e f4 62 38 5d a6 3f 2e 9c 82 c0 9c 5d b7 3f
       0.043679964141287005 0.09127216052967022
0001c0 55 6e a9 23 e1 9b ae 3f 51 c0 8d 3a 4c b1 b7 3f
       0.05978301582646554 0.09254909925016476
0001d0 cd 8d 8b 73 33 57 c0 3f 53 c3 26 d3 13 0a c9 bf
       0.1276611627755372 -0.19562003908279255
0001e0 18 39 e3 4d c2 96 c2 3f 77 da 4b 21 5a de c7 3f
       0.14522579959015824 0.18647314668460854
0001f0 cf 3c ed 97 f3 74 c0 bf 69 ee 26 74 f6 63 be bf
       -0.12856907766624778 -0.11871280990356471
000200 ec 0c ab c7 e9 8c 77 bf e9 b0 d6 39 6e 03 9b 3f
       -0.005749619677490641 0.026380274086179965
000210 7d 6b 6f 61 54 51 a5 3f ae 5b da 56 76 0e c8 3f
       0.04163612069506593 0.18794135323397881
000220 6e 2a 3f 5b 42 f8 d4 bf ec 62 ea 37 d5 32 b5 bf
       -0.3276525393563706 -0.08280689826132076
000230 97 3f d6 6e b6 1e b3 3f 4d de b0 d7 9a 12 c2 bf
       0.0746873875234527 -0.14119277507573927
000240 6e ea 77 e1 02 21 c8 3f 04 1b b5 35 0f b5 b1 bf
       0.1885074234886192 -0.06916899739472276
000250 3b 0a 4f 23 a6 89 9a bf 9f 64 f5 49 9e d0 ba 3f
       -0.025915714173388543 0.10474576287869518
000260 64 87 22 9b 20 e0 bc 3f 27 e1 0e cc df b8 ae bf
       0.1127949122187864 -0.06000422826713452
000270 05 1b bb 7b 94 26 a4 bf 97 82 77 f3 48 02 d7 3f
       -0.039356842140071215 0.3595144631963562
000280 29 4e ef 06 a8 56 d3 3f eb 93 85 74 ad c8 c8 3f
       0.30216408421731217 0.19362419309177822
000290 3c b7 95 d6 b3 39 ad bf 03 dd 17 96 6c 2b a0 bf
       -0.05708086008495036 -0.03158130008881168
0002a0 05 53 8f 9d f7 71 b0 3f 07 d8 76 34 bd 6c a0 bf
       0.06423900219608576 -0.03207961335594694
0002b0 d8 65 16 1c bb 05 c5 3f 1c fd b8 87 a6 f3 d1 bf
       0.16423739310702845 -0.28049624685441343
0002c0 8c 53 b1 63 77 ba c5 bf 7f 3c 75 1e 9b fc 99 3f
       -0.16975300185972875 0.025377677663808825
0002d0 57 2c 51 43 27 4b d1 bf f5 5c 3f b1 5a 00 8c 3f
       -0.27021199773725385 0.013672550710835266
0002e0 f0 82 6b 03 51 2b c6 bf e9 e4 a4 21 ad fa ca 3f
       -0.1731969134043747 0.21077503340510553
0002f0 c4 28 69 10 cb 59 c1 3f 58 9d ef 24 24 f3 d8 3f
       0.13555277158076795 0.38984016043692327
000300 4b 77 1a b7 65 03 9f 3f 19 05 0a 64 29 c3 b2 3f
       0.03028639726709707 0.07329043094980071
000310 df 8e b7 91 16 53 d0 bf 14 6e 1c 5d 2d eb a0 3f
       -0.255071298887044 0.03304425965890459
000320 9d c7 91 e0 71 64 c0 3f c9 19 9d 04 00 f8 b5 3f
       0.1280653330355194 0.08581543076170485
000330 f7 1a 5c 61 5b 14 bf bf 95 f2 63 50 59 f0 d5 3f
       -0.1214043724722663 0.3427947316229532
000340 01 35 67 28 85 77 c3 3f 71 79 16 94 f1 25 de 3f
       0.15208496544656927 0.47106589757631584
000350 f6 cd 7a 29 35 e9 c0 3f 84 d5 68 e2 97 bd cf 3f
       0.13211693311096412 0.24797342829849012
000360 e9 24 c4 e3 0a 0d d8 bf 43 45 2b 69 b9 ba c4 3f
       -0.3757960533408338 0.16194837222296074
000370 3f 6d 14 90 e5 64 84 3f 6f c5 13 46 b9 79 d5 3f
       0.009958070239511783 0.3355544266078913
000380 88 7a 95 7b cf ad bd bf 01 b6 44 ad 3b b5 87 3f
       -0.1159333874434002 0.011576143479568481
000390 6d 1d ae 7d 50 fb 8b 3f 57 6e 2b 19 7c 63 b5 bf
       0.013662937961057076 -0.08354926695340602
0003a0 13 b5 f7 85 7d 63 c0 3f 50 d3 8f 80 55 a6 5e bf
       0.12803620377909705 -0.0018707118017548714
0003b0 c4 86 ad 8a 94 8b 90 bf a7 69 52 cb b9 5f d0 3f
       -0.016157456363891112 0.2558426366391821
0003c0 5f 94 d9 f2 4f cc af 3f f3 4a 8f 63 c9 27 c5 3f
       0.062105654139295245 0.16527669297519018
0003d0 69 0c c0 04 bc 0e 7e 3f 60 bf 08 4a fd 57 c8 3f
       0.007338270614130151 0.19018522372197832
0003e0 91 c6 6a 06 4c 1a cd bf 26 da a1 32 4e 62 81 bf
       -0.22736501992544736 -0.008488284034894166
0003f0 85 dd 66 eb 40 03 c7 3f d7 ca e2 1e 55 5a c6 bf
       0.17978679174641968 -0.1746317292032333
000400 d0 7f 6e dd b8 fa 7b 3f 58 5c f1 84 1f 8d c6 bf
       0.006830904129770901 -0.1761817359099236
000410 ca 14 cc a3 a3 38 c5 3f 1e aa 47 9a 2e 6e ae 3f
       0.16579099176320816 0.059434372265816146
000420 38 19 c0 07 8e 84 ac bf be dc 74 55 2e 02 62 3f
       -0.055698812910167594 0.0021983056027710937
000430 4d e2 d3 6d 06 a1 62 3f e0 ce c6 96 ab 35 c0 bf
       0.0022740483824430836 -0.12663788663996112
000440 00 f6 69 18 29 25 c2 bf 06 75 b5 6c b7 15 c5 bf
       -0.1417590493401093 -0.1647252350621004
000450 8c 43 46 c5 7c 19 c0 3f 68 f6 42 6f e8 0e cc 3f
       0.1257778132681121 0.2192049544591328
000460 8f 71 1f d6 4a ee bc 3f a9 02 f5 d5 00 16 a3 bf
       0.1130110523949439 -0.037277246587568875
000470 d5 5e 42 18 5d 94 d2 3f 0a 34 59 46 ed f8 88 3f
       0.2903053986460525 0.012193540295948341
000480 27 72 2d 1a c4 d5 bd bf 6f f4 b6 ec 14 72 af 3f
       -0.11654306067561802 0.061417249580224424
000490 8f c1 b0 88 f6 05 b2 3f 6f ec 30 9c e7 0d a9 bf
       0.07040348851365351 -0.048934209648415876
0004a0 a6 a3 f1 f7 e4 ef 9d 3f d1 1f d1 8b 52 05 c7 3f
       0.029235437043471223 0.17984992815968195
0004b0 f4 ca 1a 0a bc cb ae 3f c6 02 5c ff 24 6b ca 3f
       0.0601481211027898 0.20639479130479382
0004c0 7f ae 61 cc 38 1e c1 bf 3a b6 f9 2f db 84 c1 bf
       -0.1337347982365493 -0.13686694948721528
0004d0 4d 53 20 29 42 9d 6c 3f 2a 61 b2 d0 cf ef cf bf
       0.003492955417650745 -0.24950597467683028
0004e0 9e 5d b2 8e 58 6d c5 3f 76 6b 4c 5d 36 2d c1 bf
       0.16739947288145357 -0.1341922717627672
0004f0 22 ee 38 67 96 09 c6 bf d2 0b 5d 83 2f 84 bc 3f
       -0.17216758766322565 0.11139199215999376
000500 31 6c 9b 72 96 d1 2c 3f f3 a2 8a 05 9e db bb bf
       0.0002198692466695864 -0.10881984362880441
000510 24 ba 27 d3 a6 57 c3 3f 22 7f 9c ec f2 98 c9 bf
       0.15111241636573525 -0.19998013070380077
000520 83 2d 5f c4 95 24 c7 bf 02 1a c0 26 14 b4 cd bf
       -0.18080398643938275 -0.2320580662928507
000530 30 16 cd 43 e5 1d 88 3f 96 21 4c 63 c6 81 d3 bf
       0.011775771266580554 -0.30479583451281067
000540 b8 53 1d c7 79 85 87 3f 50 45 37 02 23 27 50 3f
       0.011485053433412648 0.0009858934289364747
000550 fd dd d2 9d 43 c8 c0 bf fd 0f 91 d7 67 be cb bf
       -0.1311115761397871 -0.21674821878161757
000560 ef 38 0f 75 68 bf d0 3f ba b4 eb ec 07 26 9b bf
       0.26168261939609655 -0.026512264094823414
000570 d2 ee 97 c7 10 fd 92 3f 65 24 3a 51 69 a8 5a bf
       0.01854349344465229 -0.0016270664681619304
000580 67 d6 46 8b 18 7f d5 bf 34 f3 8b 92 39 ea 4e 3f
       -0.33588231660119167 0.0009434491267651169
000590 16 87 55 2e 2e ee ab bf 5f 6e e1 c0 d5 67 ca 3f
       -0.054551547199265624 0.20629379194257333
0005a0 f6 9e b4 65 2b 36 c2 3f b7 51 a2 40 fc 37 97 3f
       0.14227812257853828 0.022674504704427636
0005b0 03 04 65 92 19 24 c9 bf 75 16 f5 0f f1 d7 c0 3f
       -0.19641418121503315 0.13159001616638802
0005c0 c5 01 2c 92 76 e4 cf bf bf fd 60 c3 f5 ef b0 bf
       -0.24915964257526305 -0.06616149921409596
0005d0 5f 0b 9c 01 db 97 bf bf c9 06 bd 44 8c 55 96 bf
       -0.12341088094039553 -0.021810714431245857
0005e0 28 1f 0b 6d d4 a1 c3 bf 13 21 30 9d 8a 55 b3 bf
       -0.15337615322482034 -0.0755240091094758
0005f0 d2 98 10 f6 f9 98 d5 bf c0 fa cc 27 66 ec d4 bf
       -0.337461939141929 -0.3269286526373598
000600 45 85 d5 2c 5d 58 ba bf 01 0e c7 f6 83 e8 85 3f
       -0.10291082710820827 0.010697394341042889
000610 34 43 b0 c8 d2 c8 b0 bf b3 2d c6 72 57 c6 c3 3f
       -0.06556432151434138 0.15449040512281229
000620 14 a8 b7 2f 6e 29 ba 3f ec a9 29 7c 94 75 c4 3f
       0.10219467797256271 0.15983825743326407
000630 da 01 97 de 62 63 cc bf 82 9e a4 cc c4 0c c5 bf
       -0.22178302639623731 -0.1644521712525951
000640 46 cb 17 af aa 61 c8 bf 4a 77 03 fb 27 2d 9f bf
       -0.190480552191355 -0.030445694633150645
000650 3a 68 fa 4f 7e 75 b8 bf e5 29 8a 38 ec 29 a5 3f
       -0.09554280712691901 0.04133547010595232
000660 fb 2e bc e1 99 d0 b5 bf be fd 17 c0 9d 6b b7 3f
       -0.08521425019369737 0.09148584308422067
000670 00 5d 69 98 cb c0 a4 3f be 2a 66 80 05 e4 50 bf
       0.04053341136448729 -0.0010309270597611965
000680 cf f5 1b f9 33 2a c2 3f ac a0 ac 4e 49 0d c4 3f
       0.14191293395553692 0.15665546742935044
000690 39 1b 74 2e 39 20 e0 3f d1 aa ae c0 01 c6 bc 3f
       0.5039335162444792 0.1123963447013623
0006a0 31 81 80 ad d2 24 b3 3f 04 38 50 86 62 41 cf 3f
       0.07478062377822849 0.24418288763303064
0006b0 8a 1a 68 58 0b 06 d8 bf 31 7f 19 9b 9f 4c b2 3f
       -0.3753689158769836 0.0714816812192083
0006c0 6e 48 b8 d5 3a 75 b8 bf 63 e2 8f 42 ea 69 b9 3f
       -0.09553878515024092 0.09927238583612445
0006d0 3d 38 40 93 4a 43 a6 3f 0c 07 49 5a 55 df ae bf
       0.04348214194770648 -0.06029764868845974
0006e0 42 2b e9 d5 c0 ec b3 bf e3 5f f0 03 84 e5 c6 bf
       -0.07783131811553992 -0.17887926285106834
0006f0 b6 fa 8b 2a fe 6c c6 3f 7a 46 73 ae 5e 65 b8 3f
       0.1752011974094409 0.09529678114929566
000700 6a 28 b6 4a 5e 98 a9 3f 8e b8 3d a2 7b 25 b7 3f
       0.049990603084624066 0.09041569434131899
000710 e0 5f 6f e8 d0 6f c6 3f cc fa 2d a1 2d 5a ce 3f
       0.17528735494010927 0.23712702150438358
000720 51 80 99 03 dd c0 a6 bf f3 02 44 8d df 69 b8 bf
       -0.04444018048229793 -0.09536549757832428
000730 df ac 6f c9 66 b1 cc 3f 97 0e e3 b4 2d d4 ca 3f
       0.22416386447671408 0.20960017521257576
000740 74 52 df e9 51 0e c4 3f e8 e5 ee b1 e9 79 cf bf
       0.15668701095150406 -0.24590798557419125
000750 03 0c b3 b9 9d 87 c1 3f 10 f4 c0 23 15 b3 a0 bf
       0.13695117537835708 -0.03261629163214519
000760 88 35 7c 80 c3 53 a0 bf b5 a7 1a de db 1b b0 bf
       -0.03188906615660431 -0.06292509243453888
000770 96 90 e0 6a 65 33 8a bf e3 47 e9 91 04 02 ac bf
       -0.012793342899449816 -0.054702894984657545
000780 31 b8 78 b3 9b e0 a7 bf b6 e0 32 d1 d7 a3 82 bf
       -0.04663549962820957 -0.009101568290461475
000790 d0 f3 dd 95 fc 88 56 bf a8 2f c6 57 2e 8d c5 3f
       -0.001375433602759591 0.16837100301597485
0007a0 5c 0a 96 be ac 21 c2 3f c3 67 b9 5f ca 6c a3 bf
       0.14165267282449434 -0.037939380822265466
0007b0 60 ed ee 4e bd 2b b0 3f 2f de 04 bb 73 9b a3 bf
       0.06316741158564332 -0.03829538019129718
0007c0 f0 11 9c 79 e6 e6 d5 3f 32 4f 00 86 24 95 6a 3f
       0.3422180354685045 0.0032449448917847507
0007d0 fe 39 d8 90 f3 94 94 bf c5 c2 4d 84 cc 2f c3 3f
       -0.020099454608549998 0.1498962064756794
0007e0 03 a1 5d bd e6 28 a6 3f 91 68 fd ab ee d2 b3 bf
       0.04328080236047251 -0.07743732165309526
0007f0 a2 0a 5a 53 56 86 b5 bf af 66 ea 67 73 a5 cd bf
       -0.0840810731406614 -0.23161165784840906

base.actor.actor_fc2.bias f8 [64]
000000 d1 bc 58 d1 96 5f a0 3f 4a ec a3 18 c2 75 be bf
       0.03197928719998234 -0.11898434735842148
000010 24 d4 62 73 d9 97 75 3f d5 bf 2a 8e 8b 1f c0 bf
       0.005271768013860121 -0.12596268121478596
000020 49 ca 39 99 ed 5c b3 bf 8f b8 b7 eb f7 bc bc bf
       -0.0756367205702101 -0.112258429573304
000030 9a c7 37 92 ae 6b 9f 3f 77 d9 97 f9 9c 0b b3 bf
       0.030684211420470932 -0.07439595311720902
000040 1a 06 8d 57 6b c0 c1 bf 7d 1b da a9 72 ff aa bf
       -0.1386846711630348 -0.05273016284359409
000050 28 ef 79 8a 2d 05 c3 bf 6e a9 f1 52 76 0f b7 bf
       -0.14859551679170946 -0.09007968449592393
000060 62 d7 3c d7 b5 57 b3 3f 02 b1 2a 28 3e b7 c0 bf
       0.0755571032030651 -0.1305921264769339
000070 c9 83 3b ca ea f5 b7 3f 0e a3 1a 52 39 4e 91 bf
       0.09359614789310834 -0.01689996303199153
000080 bf 94 59 09 ab 1c b4 3f 1f a0 bf 9b f9 35 d0 bf
       0.07856244066495587 -0.25329437455957476
000090 a8 01 ae 0d 22 0f c4 3f 81 49 2c 6c 1e c0 83 3f
       0.1567118231578324 0.00964378135316646
0000a0 e9 ac fb 06 e6 cc bf bf fa 75 45 0f f4 16 98 bf
       -0.12422025366292967 -0.02352506011208353
0000b0 3e b8 95 1c 4e dc c0 3f ec 1e 66 e6 65 9e 86 3f
       0.13172317882293955 0.011044307798115459
0000c0 a1 d6 ad 75 21 e1 c1 3f b9 0c e1 f1 9a d9 84 3f
       0.139682943783261 0.010180674082340567
0000d0 fd 83 b5 d7 5f e6 bd bf 5c c2 7f 49 30 5c b2 bf
       -0.1167964841493045 -0.07171918672953254
0000e0 77 54 e0 8a 4e 54 b6 3f 3e 36 16 bd 8a db c4 3f
       0.0872239197781982 0.1629498885417195
0000f0 d2 23 8f 4f b8 0b bb 3f c0 f3 0c a1 24 26 be bf
       0.10564758245813202 -0.11776951724910045
000100 ce 26 fc a9 f0 e8 88 3f 1d 93 e0 ef b9 2f b0 bf
       0.012163047969369425 -0.06322824579599425
000110 fb d8 b6 2b 14 61 af bf da 72 76 7e 37 66 b0 3f
       -0.061287527404987295 0.06405970418422716
000120 df fb 18 bd c4 ed ba bf 75 26 b3 76 86 58 c1 3f
       -0.10519055954590283 0.13551407619370406
000130 f8 2c 54 70 9b c3 93 bf 7e b4 c9 f6 be d4 ab 3f
       -0.019300869685179273 0.05435749781177267
000140 10 77 0f f8 58 4c b7 3f f0 4a 5a 58 52 a9 ad 3f
       0.09100872093355528 0.05793244675182574
000150 42 5b ae bb 08 ce b9 3f d7 28 d4 c5 de 56 b1 3f
       0.10080008108193986 0.0677317841511099
000160 68 d9 46 c8 29 e6 a4 3f b4 91 5e 29 ce df c9 bf
       0.04081850595268827 -0.20214249629965553
000170 a4 4b 82 cd 03 89 99 bf 17 63 60 29 40 7e c1 bf
       -0.024936732691070454 -0.1366653635057211
000180 a7 3e f4 75 c3 73 b9 bf e9 08 fb db 9e cf c0 bf
       -0.0994226611112433 -0.1313360761760756
000190 c2 84 77 ff 1d 34 a0 3f 25 47 70 fe 80 2a c5 bf
       0.03164762252323207 -0.1653596155525118
0001a0 e7 1b f9 26 3f ce b6 3f 73 3d 45 41 0c 26 b5 3f
       0.08908457471362362 0.08261181443707759
0001b0 fe 8a ed dc a0 c6 b8 3f bc 3e 39 d3 a9 aa b1 bf
       0.09678082841632471 -0.06901036650492193
0001c0 77 90 87 60 0c 5b c0 3f f4 73 cf f8 79 5c a2 3f
       0.12777857507092324 0.0358617893432224
0001d0 fc 7b 7c bc 0c c6 b5 bf 05 de 49 5b ee 82 b8 3f
       -0.08505324937549114 0.095747849738352
0001e0 ee 80 5d ab 44 e5 b1 3f 5f 7f f2 55 f0 64 8e 3f
       0.06990460571023835 0.01484096300401888
0001f0 f5 00 21 38 68 a7 9b bf 06 01 21 d1 d7 dd a0 bf
       -0.027005794931256728 -0.03294252803653035

base.actor.actor_fc3.weight f8 [8, 64]
000000 4e 6c f9 d5 03 fc 92 3f 1b 2d 5e 7e de 49 ba bf
       0.018539485869365095 -0.10268965325501649
000010 63 3b ec 7b 67 5b 97 bf f7 46 59 c6 f1 8d 90 3f
       -0.022809616984030067 0.01616647503971699
000020 42 fd 97 9d 6c 31 bc bf 27 b2 a4 51 14 71 9e bf
       -0.11012915465834275 -0.02972823856650755
000030 cc 51 f7 96 32 e4 a2 bf cc d0 86 d4 60 1a a2 bf
       -0.036897259644010555 -0.03535750002211699
000040 01 66 2e 67 1f 4c 99 bf d3 9d de 15 7e 5a a6 3f
       -0.02470444743412337 0.04365915314638937
000050 48 83 ae fe 7a 17 a8 bf a5 2e 91 b6 04 8d 8e 3f
       -0.047054141606401034 0.014917408772951399
000060 3e 85 77 60 51 2b b6 bf ed 1b c1 9a 63 b1 94 3f
       -0.08659847836635934 0.02020793563886152
000070 1f 68 53 ca 2c 3c ba bf 1e 53 b4 c0 3a c2 b6 bf
       -0.10248069705576811 -0.08890120701500989
000080 1c dd 2d 49 a6 cc bb bf 6a cf aa 85 7d 07 c1 bf
       -0.1085914543781325 -0.13304108645172202
000090 b6 58 3f 29 4a 1f 9e bf 41 77 e6 16 35 bb 8e bf
       -0.02941623570208015 -0.015005507241592777
0000a0 1b d3 95 d0 48 40 90 3f 47 ca cb df 64 d9 a8 bf
       0.015870225649865604 -0.048533584898809816
0000b0 32 eb 9c d2 a5 df ac bf 64 c9 ee 8e 86 2d a8 bf
       -0.05639379688223868 -0.04722233290466951
0000c0 37 90 38 29 2d 55 88 bf 5f d3 04 2e e7 4c ab bf
       -0.01188121110960348 -0.05332109867814582
0000d0 da 6a cc 58 39 c8 9e 3f c1 0b 2c 22 f6 29 84 3f
       0.030060668988066343 0.009845660131309832
0000e0 71 69 cf 64 e4 07 b8 bf da ce 29 f0 5d 0b 92 3f
       -0.09387042485415066 0.017621486457257564
0000f0 16 72 2b 91 53 28 a2 3f 20 6c 56 73 0c 4a 9d bf
       0.03546391627398664 -0.02860278562512175
000100 66 a2 5a 2c 51 7d ad bf 18 b5 5a 66 03 c1 b6 3f
       -0.05759671846800955 0.08888264893422038
000110 93 f8 f5 0a f4 80 a8 3f 5d e0 f3 1f 3d 5e 96 3f
       0.04785883554267047 0.02184386737369014
000120 a9 e7 27 8b a1 9f b3 3f 48 e5 e1 bd 00 3e 8c 3f
       0.07665452620849912 0.013790136141539691
000130 73 96 7e 29 4d ce ac 3f 13 0c 19 47 c7 44 92 3f
       0.056261454882854965 0.017840493883579066
000140 cd f9 3d 2d cc 64 9b 3f 2e 49 18 8e 0c 3a b3 bf
       0.026751699696882448 -0.07510450810540156
000150 3e 25 2f 0a cd 0f 95 bf 76 a7 08 2c 46 d6 93 3f
       -0.020568088289825363 0.019372078359232124
000160 e2 a8 23 9c 05 71 b4 bf b2 fe 48 74 54 72 b0 bf
       -0.0798495775412991 -0.06424453581802927
000170 e1 5e 35 b9 b5 79 b6 bf 81 b2 95 7d 60 4e 98 3f
       -0.08779464503947622 0.023736484208188195
000180 86 06 47 57 75 82 9b 3f 3f 3e 11 76 b9 45 a0 3f
       0.026864846660606755 0.031781955397147225
000190 6f 33 d1 ad 64 31 bc bf c6 31 15 25 2f c3 c0 bf
       -0.11012868159850851 -0.13095654783900396
0001a0 4d dd 2d 50 e5 49 c2 3f e2 53 6f 1c f2 fb 9f bf
       0.14288011946676207 -0.031234534249808273
0001b0 1f 4e e9 99 c8 51 ae bf 8d 60 a8 1c 98 a1 87 bf
       -0.05921770933914793 -0.011538685202183064
0001c0 2b 2d 0d 31 2c 83 b2 bf c2 0b 84 11 69 33 bd bf
       -0.07231403539224306 -0.11406571080810493
0001d0 ae 22 42 8d 01 2c c1 3f 25 bc 30 47 fe cd 9a 3f
       0.13415545842533078 0.02617642697822133
0001e0 8e 04 33 49 e2 de ae bf 8b 82 5a 51 1e 24 97 bf
       -0.06029421943231582 -0.022598718371798426
0001f0 ed d4 72 b1 1a 50 b0 3f 34 25 ee 39 2a 88 a1 bf
       0.06372229416122695 -0.03424198109775958
000200 32 f8 22 ff 0c 1e 90 bf be 64 01 52 ea f5 b4 3f
       -0.015739634582807756 0.08187736990057012
000210 a6 1d bc d7 77 31 84 bf cf 4a c4 8d 95 ce af bf
       -0.009859977980808687 -0.06212298732329701
000220 4a 81 33 c6 5e 47 93 bf c0 2c 5e 71 1a b2 9f 3f
       -0.018826943251839347 0.030952847642350845
000230 3a 7c 58 9a 77 d2 a7 bf b3 c0 19 40 5c 03 5d 3f
       -0.046527612296124635 0.0017708207018607813
000240 20 8f a5 94 82 3d 4d bf 34 47 57 db b0 95 8b bf
       -0.0008923423386417474 -0.013469106382135367
000250 cc 62 4b 57 d5 eb 5e bf dd 80 f8 43 39 27 aa bf
       -0.001887281742872715 -0.05108050303192766
000260 a5 28 64 09 b7 83 87 bf 24 fd 6f 1a bb 7f a2 3f
       -0.011481695150468882 0.03613075921748024
000270 c8 b1 39 cc 2c be a7 bf b1 43 39 25 8f 5f ac bf
       -0.04637279503808461 -0.05541655854597794
000280 46 9c d8 6f 07 8f ae bf 2c b1 af 01 59 5e b0 bf
       -0.05968497505482921 -0.06393963137788167
000290 2d c7 43 22 12 e6 9b bf e6 0e a3 d1 c0 13 c3 3f
       -0.02724483808646665 0.14904031978777893
0002a0 59 67 85 2b 96 f6 b1 3f 3b 84 4f 8e ca 0a b9 3f
       0.07016886293913895 0.09782091116314089
0002b0 af 14 17 7a 8b 7e b0 bf 8d a0 b2 05 f7 bd 9c 3f
       -0.06443092089382917 0.028068408701671422
0002c0 59 5f 15 1b 93 29 b0 bf c2 64 93 57 9b f6 b9 bf
       -0.06313437854020999 -0.10141917121963487
0002d0 61 63 b2 a5 f0 72 92 3f ff e3 2a bf 01 f7 8b 3f
       0.018016586411792605 0.013654721876593
0002e0 0d 57 78 e7 62 cc 97 bf 88 fc 83 ad b7 f3 a2 bf
       -0.023240609529316326 -0.03701566689596186
0002f0 e7 cd 1a 30 ba 03 b2 bf 05 0a b3 b5 a0 ba 97 3f
       -0.07036937403136499 0.023172865953492678
000300 58 20 85 12 e1 ae b3 3f 31 00 48 5a 70 09 81 3f
       0.07688719465397875 0.008318784480252446
000310 b6 82 43 cc b2 f0 b1 3f 82 1c 78 68 87 18 af 3f
       0.07007901656062185 0.06073401594408613
000320 d9 35 06 74 5d b2 b7 bf 03 5b c2 92 07 05 a1 3f
       -0.09256538469909205 0.033241497673932606
000330 c4 4d 42 01 8c c6 b0 bf 83 9e ed c3 68 81 b7 3f
       -0.06552958517777713 0.09181837829020804
000340 4d 2e 0b 11 f4 de b6 bf b3 95 93 fa 9e b8 ab 3f
       -0.08933949867349007 0.05414292153163149
000350 51 1e 30 bf 04 6e a2 bf a3 ef eb 99 57 87 ab bf
       -0.035995624864935245 -0.05376695398260203
000360 fa 43 89 df 7e c3 ac 3f 8f 5a 3d ef e9 d8 a5 3f
       0.056179013049252505 0.0426705460110287
000370 89 99 c4 f0 e9 8b 86 3f d0 d4 81 54 20 1a ac bf
       0.011009051952510134 -0.05488682777005638
000380 0d 1a 74 f6 41 69 99 bf da 3e 48 ac 51 e7 a4 3f
       -0.024815588633851294 0.040827324181120964
000390 22 5f 2d 21 44 d5 b7 3f 71 86 66 5d d2 6a bf bf
       0.09309793291083371 -0.12272372036252378
0003a0 7c 73 3b 58 ff 77 ad bf 4f ed 65 36 d4 2d b7 3f
       -0.05755613281301117 0.0905430443580617
0003b0 db 23 51 7e 32 17 a4 bf 6c 99 42 46 d0 b9 8f 3f
       -0.03923948089556691 0.015491130012674069
0003c0 32 a4 7d 0f 3f 12 a7 bf 7f d0 aa 1b c2 98 b1 3f
       -0.04506108345123784 0.06873715568036863
0003d0 bb 77 e9 1e 1a 90 8f 3f 07 6f c6 85 41 71 9a bf
       0.015411571567877638 -0.025822662153230726
0003e0 5d 1d 09 59 5e 49 b4 bf 4f f1 c2 ed f1 6c c1 3f
       -0.07924451516838844 0.13613723859260538
0003f0 0b 47 7a 86 fa 6c 90 bf 49 e2 81 01 49 78 bc bf
       -0.01604072042261521 -0.11121040617752799
000400 e5 5d ad 6a 41 a1 9b 3f 95 f2 e0 22 d0 c9 af bf
       0.026982328544674323 -0.06208658624425315
000410 16 cb d4 4e 8b 47 7f bf f1 0c 58 25 c4 c9 95 bf
       -0.007636589213961617 -0.02127748945168845
000420 8c 84 a7 03 6b 1b a1 bf 1a de 41 5c a2 76 b4 3f
       -0.03341230792626346 0.07993521454215405
000430 c4 a4 b3 85 15 fb ba bf f3 88 4e e6 16 b3 9d bf
       -0.1053937388820883 -0.029003484541711932
000440 d5 4e 10 c0 50 43 b4 3f 12 c1 8f 25 90 90 a0 bf
       0.0791521519570851 -0.03235292871966257
000450 f2 38 6f 25 ad 5c b5 bf 31 26 72 b3 0d d9 a1 bf
       -0.08344537891318618 -0.03485911193372394
000460 9f 34 51 a3 95 4a b8 bf d7 f1 fe 07 fb d4 b0 bf
       -0.09488806950794747 -0.06574982590877397
000470 dd 25 56 27 d2 5a a2 bf 03 79 af 46 b0 d6 68 bf
       -0.035849158574887 -0.0030320589917060005
000480 67 ed 66 50 3e 6f ad 3f 06 64 2c 52 f4 67 90 3f
       0.057489344896988474 0.01602155448481215
000490 25 cf 93 06 2f 05 a4 bf 1e ec 05 0a 26 ff 8d 3f
       -0.039102048447516226 0.014646813565141466
0004a0 c9 30 ff f3 bf af a3 3f 8b 5a 56 c1 ed 23 c2 3f
       0.03845023969151524 0.14172145786570342
0004b0 c1 ca 9d 2f a9 ad af 3f 33 fa ea c1 4a 31 91 3f
       0.061871802389665394 0.016789596639450188
0004c0 bc 08 b4 e4 9c a0 b0 3f d9 b3 74 dc 3b ab 9c 3f
       0.06495075782371179 0.027996955233152796
0004d0 06 16 71 93 fb 5d ac 3f 59 86 b3 e4 68 8e a9 3f
       0.05540453123880344 0.04991462508929762
0004e0 e9 ff 91 b5 a6 c9 b5 3f ce 7f a9 2f 42 76 ae 3f
       0.08510820324772762 0.05949599105656454
0004f0 03 b4 e1 e5 7f 88 7e 3f c8 3e 5c ee 73 64 a7 3f
       0.007454394914117482 0.04568826946899446
000500 b6 47 08 68 3b d1 a3 3f 74 4b 8f de 84 d6 a8 3f
       0.03870568890501096 0.048511650245607024
000510 8f 09 bd 66 d3 7f bb 3f 60 aa 71 fb 6e c2 80 bf
       0.10741921671163922 -0.008183352516615006
000520 a0 4f 2c 4b d2 72 9d 3f 1f 58 43 64 70 55 a6 bf
       0.02875832160778169 -0.04362059806742046
000530 8d bd 5e f8 c3 5a 9e bf 4e e7 2d 8c 3a 5b c4 bf
       -0.029643117937380437 -0.1590340790242472
000540 d1 4c 02 61 31 b0 a2 3f 71 08 9f b7 c0 5c b4 3f
       0.03650049504462916 0.07954029543819431
000550 88 1c eb 09 85 a4 91 bf 6d 81 bc f3 68 ed 93 3f
       -0.017229155283328385 0.01946033466004009
000560 5d a9 12 d5 45 c7 ae bf d3 e0 9b 7c 71 00 95 bf
       -0.06011408067691335 -0.020509503584407462
000570 92 cb 59 b0 05 24 b4 3f 68 18 f9 8d 1a 96 b4 3f
       0.07867465548933542 0.0804154011358108
000580 4c d2 b5 32 f5 41 b4 bf 3e bb 45 e2 c0 cf a9 bf
       -0.07913143623393032 -0.0504131580554401
000590 e2 a7 31 d5 79 3e 98 3f 86 63 05 70 1c 94 a6 3f
       0.0236758266804954 0.044098747896618426
0005a0 f3 7b d0 7f 4f 55 97 bf 4a ab f5 38 52 06 94 bf
       -0.02278637139908919 -0.019555363394299342
0005b0 aa 2b f8 b0 20 bf 6f bf 36 a5 cc d8 f9 58 bb 3f
       -0.003875316476983544 0.10682641547159197
0005c0 ba 00 48 3f d0 e2 b9 3f 72 f2 f8 5d 89 6f 6e bf
       0.10111714882805503 -0.0037152941656855504
0005d0 df 93 54 b9 5e c7 b9 bf 7f e5 b9 74 c0 ab 8a bf
       -0.10069839501063836 -0.013022903024863862
0005e0 b5 73 83 9f 7c 06 8e 3f aa 43 63 ac 11 ec a1 bf
       0.014660810106244296 -0.03500418881743113
0005f0 82 f1 ce 7e 58 56 91 bf 9f 19 f5 11 75 b2 92 3f
       -0.016930945148247563 0.018258885594400472
000600 a0 0d 97 e7 6d e6 bb 3f b7 35 62 6e f7 14 a6 bf
       0.10898482231191631 -0.04312871191460082
000610 a1 01 08 ef 96 16 b6 bf f9 a8 26 95 10 78 b9 bf
       -0.08628218970989689 -0.09948829308874342
000620 16 c1 17 50 e5 e5 ae bf f7 de 10 7c 02 c0 a8 3f
       -0.06034771540351096 0.048339917797816705
000630 22 04 4d 83 ad 5c 6c 3f e1 1e 2f 6b c5 64 98 3f
       0.0034621609615048824 0.023821911494251394
000640 fc be 27 f1 17 4e b2 3f d2 31 7b 4b 96 6a c1 3f
       0.07150411260203876 0.13606527982336886
000650 5a 8f e5 41 18 76 9c bf e6 fd be 41 43 58 b0 3f
       -0.027794245740906255 0.06384678225639781
000660 d1 f4 fa 1b 9e 50 87 bf 6a 5b c3 e2 53 a5 c0 3f
       -0.011384234646693166 0.13004540035646112
000670 9b 80 8f 3f 4f 05 a8 3f d5 60 67 49 b8 d1 b1 3f
       0.04691550875554747 0.06960632125936013
000680 e2 e8 e9 5d f9 8b 99 bf 84 30 4e 00 95 82 bb bf
       -0.024948021275556516 -0.10746127374130948
000690 52 6b e4 3f 4c b1 a3 bf 86 7e 24 f4 04 db c3 3f
       -0.038462050246571025 0.15512144013426993
0006a0 ad 6b 6e 87 4c 18 a5 3f 27 fa 96 1a 8f 95 80 bf
       0.04120101121153339 -0.00809776115317813
0006b0 72 5b f3 18 cc 71 a0 bf ec ae 14 ed a1 e8 ad bf
       -0.03211820416043211 -0.05841547030499136
0006c0 8f 87 0e e5 8e 0d a1 bf 6f 4f de ff 54 13 a7 bf
       -0.033306565724401264 -0.0450693666781764
0006d0 01 4a 6e a1 48 8f bf 3f 1f 5d 94 c8 36 ff b3 bf
       0.12328008595640229 -0.07811300656282015
0006e0 b7 9e 7b 02 cd 6b 9d 3f 09 56 03 c7 64 f0 90 3f
       0.028731539989989865 0.016542029043952442
0006f0 81 23 cd 40 ef 94 8a 3f 72 13 34 ae 63 7f b5 3f
       0.012979382672385633 0.08397505763066507
000700 aa 40 3d 4b 87 eb a8 bf 5f 71 97 26 bb 46 b0 bf
       -0.04867193978736968 -0.06357927028824893
000710 05 d5 c1 4d 02 65 9b bf 17 3a de b8 87 1e 85 bf
       -0.026752506252212722 -0.010312137917734039
000720 9e 5f 95 49 4f ad 99 bf 25 3b b8 d4 ae 1f 90 3f
       -0.02507518660181029 0.015745860799195505
000730 4d 36 d1 3b 15 27 76 3f 81 ad 30 c2 8b 39 9c bf
       0.005408366149891442 -0.027563270308900826
000740 71 80 d6 97 8a 71 76 bf db 88 99 ef a3 ce a8 3f
       -0.005479375247347305 0.04845154094506806
000750 8c 29 7d f5 f6 0d 98 bf 28 2c cf 54 e5 bf 2b bf
       -0.023490771039442346 -0.0002117125935952879
000760 5e b2 97 57 41 2a 67 bf 59 79 4f aa 36 60 a5 3f
       -0.0028277660573990246 0.041749676027154244
000770 7c ed a3 2e ab 8b c0 3f 28 92 e7 c1 f3 a2 a6 bf
       0.1292623498664901 -0.044211976451866086
000780 54 c9 75 c2 43 81 63 bf 62 7a 2f cc 0f 25 9f bf
       -0.0023809741430166707 -0.03041481670140412
000790 a3 e4 ea 10 ac a3 7e bf 3e 9d 18 b8 09 50 aa 3f
       -0.007480308659688325 0.05139189121501396
0007a0 44 cc 3e a7 74 3f a9 bf ba 23 db 9e 53 0c a8 bf
       -0.04931225339478165 -0.04696904482040716
0007b0 eb 70 f0 c5 ae 52 a7 bf 0d e5 fa df 81 2e a3 bf
       -0.045552693998816306 -0.037464197722735994
0007c0 bb 9f 28 47 ba 6a b2 3f a9 5f 0d 1b e3 5b 93 bf
       0.07194103467247619 -0.018905209089410544
0007d0 7d dc ce 64 37 f1 48 bf 2c 36 60 45 35 09 a9 3f
       -0.0007611771085213184 0.04889837715027698
0007e0 ca 66 82 31 81 26 9f bf e0 74 53 d2 3d 6b 96 bf
       -0.030420321127713014 -0.021893468820839312
0007f0 f4 63 97 8c 93 b2 9c 3f 7f 67 6d 78 86 4e b4 3f
       0.028024964767471475 0.07932320060845476

base.actor.actor_fc3.bias f8 [8]
000000 bb b1 09 98 4f ae af bf 70 59 05 1f 1f 21 92 bf
       -0.061876761731443485 -0.017704473751416427
000010 09 20 f9 4b bb 09 91 3f 2a b9 e6 07 22 8e 86 3f
       0.01663868571475294 0.011013284555556686
000020 73 03 dc 8c be 1f b1 bf 58 f5 7e 81 c0 50 88 3f
       -0.06689063013983602 0.011872772170927234
000030 5a 3f 50 d6 2a a9 a8 bf 3c cd e2 99 cb 6f aa 3f
       -0.04816564432269273 0.05163418057909516
