results/Ant-3d/cmorl-ipo/1/final/EP_policy_3.pt (torch, 105466 bytes, 13 tensors)

base.actor.actor_logstd f8 [1, 8]
0	0xbf84504ac315dc81	-0.009918769911321458
1	0x3f73254d406bfc6d	0.004674245609520883
2	0xbf800547cfc1c8f6	-0.007822571780910153
3	0x3f658f6505348f2f	0.0026318524411567327
4	0xbf617f5fa62150d1	-0.0021359317916368266
5	0xbf8df02260e5ac4a	-0.014618176061693817
6	0xbf9406417f603939	-0.019555114173322983
7	0x3f80f0d1a11eeb0a	0.008271825532451444

base.actor.actor_fc1.weight f8 [64, 27]
0	0xbfaf2d2065445349	-0.060891163217240925
1	0xbfb206c010f5eaee	-0.07041550077512301
2	0x3f9e6f6ab8c92228	0.029721896675512977
3	0x3fc3fdd41be4078d	0.15618373262264776
4	0xbf979a8f92fd418a	-0.023050540300859214
5	0xbfb5728a4e086735	-0.08377899556253683
6	0xbfc4b79eae223ac8	-0.16185363295195132
7	0x3fac3affc3753496	0.05513762722930797
8	0xbfce4baf3207c590	-0.23668470328224744
9	0x3fb63557b05fffe0	0.08675144248991229
10	0x3f85cfb662ef1ef7	0.010650086302021118
11	0x3fb904610d6b1af5	0.09772306993100328
12	0xbfa63c771192883f	-0.04343006219393474
13	0x3fcf02f3665f207f	0.24227755068409704
14	0xbfbea124bf3bfc17	-0.11964635533148314
15	0xbfc97805caf32f7b	-0.19897529992737958
16	0xbfa5f7fbdf13e4ce	-0.04290759180180147
17	0x3fc1cd954ab427fd	0.13908640048640555
18	0xbfaf52f4c89ff445	-0.0611797804740282
19	0xbfacf0658b365396	-0.05652158092849573
20	0xbfc0cc8a363c7312	-0.1312420620751245
21	0x3fbdae91f700f133	0.11594497948039333
22	0xbfa562f96408eb87	-0.04177073808792558
23	0xbfc019828b6a2a7a	-0.12577850158080023
24	0x3fb7f9ff0eddc8d9	0.09365839112232112
25	0xbfab5939c998e20d	-0.05341511331466018
26	0x3fc4fa0f42ef4b1f	0.16388121383951046
27	0x3fb865becb9c0a3c	0.09530250998435802
28	0xbf96f0c9de2018bf	-0.022402910406548623
29	0xbfaa73ac8dc9451f	-0.05166377287663181
30	0xbf99436b98e1264a	-0.02467125053980216
31	0x3fb7702330b9a6d2	0.09155483188228722
32	0xbfb3d8decb637979	-0.07752792802373233
33	0xbfb48ebc1276557d	-0.08030295801866845
34	0x3fbac855a357c9c0	0.10461936223854362
35	0xbfbe8a60647873db	-0.11929895832913877
36	0xbfc64301cc82e2cf	-0.17391989217664736
37	0xbfcbe6028e1cb70c	-0.21795684756346423
38	0x3fd1bef0cf572e58	0.27727909324742006
39	0x3fae3ded89c5921f	0.059066222255556015
40	0xbf2cf0361ba45df0	-0.00022078190324557835
41	0x3fcedca0bd6a90a4	0.24110802887765204
42	0x3fd1b85aa87b2f9c	0.27687708333245964
43	0x3fc06149c1f1c077	0.12796899766863465
44	0x3f97951b80bcb995	0.023029737217422037
45	0x3fb99a161811d573	0.10000742042196524
46	0x3fb0872737d44eb6	0.06456227410336166
47	0xbfb4bb32c669f5e3	-0.08098141998376422
48	0x3fc2713a2f09a077	0.14408042237051052
49	0x3fa5c1f4fb6a1e24	0.042495399179696386
50	0xbfb165f6918b812a	-0.06796208432524922
51	0x3fa5c715b1fda21e	0.04253452108133991
52	0xbfaf9d97d5583529	-0.06174921492866254
53	0x3fd10d50936ad0af	0.2664376678105879
54	0x3fb8c24201afc0e0	0.09671413937735762
55	0xbf816621c7448e6c	-0.008495582479162787
56	0xbfb0b2eec9c90d87	-0.06523029734039741
57	0x3f923f2c0aa88a67	0.017819107199225217
58	0x3fb6ba273d0c60f7	0.08877797356069893
59	0xbfa306f8233bfdd5	-0.0371625464449569
60	0xbf8e11045dd1d3c2	-0.014680894959591021
61	0x3fabc02cc1aad69e	0.05420055259803046
62	0xbfb45eb35f25b8a6	-0.07957001755650825
63	0x3fb5803400e39d2a	0.08398747464854198
64	0x3fb162b8a99a0917	0.06791261807123693
65	0x3fc176a27be10f7a	0.13643294380937815
66	0x3fd076aad8ce9198	0.25724288151311603
67	0xbfb4f358f936efaa	-0.08183818897572218
68	0xbfa0e8d6a75805c2	-0.03302641670962771
69	0xbfc709e2055fe638	-0.1799891020053097
70	0x3fb7ea524beeb1a7	0.09341921190088574
71	0x3f88e4d4958ee0a5	0.012155209364081829
72	0xbfb1ce56c60ada4d	-0.06955473265666363
73	0xbf94742436d5b886	-0.01997429451642365
74	0x3f9649308a100395	0.021763571192426296
75	0xbfa341dfc2b0f5dc	-0.03761195422746841
76	0x3fb1c4ac558f9425	0.06940724457634014
77	0xbfa86e5385461ab5	-0.04771672250631324
78	0x3fcc3312fcf35599	0.22030866004085395
79	0xbfb589a8b95fc037	-0.08413176084263872
80	0xbfaeae9fc573cf1c	-0.05992602620417939
81	0xbfa02b9d8c16f133	-0.03158275923803657
82	0xbfb65bfda0520e0e	-0.08734116710734716
83	0x3fa560d9482a14dc	0.041754522379997744
84	0x3fc6b348a22dfb89	0.177346305073993
85	0xbfaf9940999744f2	-0.061716097592247623
86	0x3fb9ec0236badc91	0.10125745617084393
87	0x3fa07079efcb9385	0.03210812618434659
88	0x3f75cbf8a06d4280	0.0053214752177416225
89	0x3fb3b409ab64c350	0.0769659083787364
90	0x3f95a2d10a3d8c2e	0.021128908395791672
91	0xbfc0db067cb97212	-0.1316841229444355
92	0xbf76b4df224b3af9	-0.005543586365731151
93	0xbfc482b29404c870	-0.1602385733363607
94	0x3fce454617fb7fb6	0.23648906870857694
95	0x3fbc2a7a9ab67177	0.11002317692913786
96	0xbfa5c5285581bc08	-0.04251981776985053
97	0x3fadf76f726ffe55	0.05852840682927921
98	0xbfc43a783298c428	-0.15803434820694062
99	0xbfb44233c5af72f0	-0.07913516594221526
100	0x3faf5ddc61ce3ec4	0.06126297658840721
101	0xbfc0ea201cfce093	-0.1321449414770127
102	0xbfb154d12998c2f4	-0.06770045533700025
103	0xbfc547de42f51577	-0.16625574368860516
104	0x3fc940c413d01e4b	0.19728899924688145
105	0x3fa2c3dffce4406e	0.03665065729194415
106	0xbfafb7cc7b5a276e	-0.06194914823306773
107	0xbfbf44d7ad391456	-0.1221442029864915
108	0xbfcac66f15694f7b	-0.2091807226703358
109	0xbfb81abce8f843fa	-0.09415798843134829
110	0x3f90a79f11c0939e	0.01626442476130629
111	0x3fb3773786660a38	0.07603785544601116
112	0xbfb985f9751c1cf1	-0.09970053776861555
113	0x3f9e4d7a9b2db923	0.029592433663702466
114	0x3fbd718a2295a0a0	0.11501372665736875
115	0x3fbf77d3fe0790e3	0.1229221816243498
116	0xbf9529c055b946ed	-0.020667081100618146
117	0x3fbde5947aa6962c	0.11678436273958742
118	0xbfc21b5d508f9174	-0.1414600985873552
119	0x3fa911c4c42400e2	0.04896368879599479
120	0xbfb73f7c0504e16b	-0.09081244585548169
121	0x3fc76820798b9a69	0.18286519942121807
122	0xbfa0392d0863e6e5	-0.03168621756954141
123	0x3fcd5f334c9b9f6e	0.2294677852689761
124	0xbfaa2dae82a3541a	-0.05112977356626676
125	0x3fd510ef6910909b	0.32915864238953824
126	0x3f7602f46abc7309	0.005373911622680757
127	0xbfb753bf1115c6dc	-0.09112161795726642
128	0xbfaf5e4ce17b879c	-0.06126632931206119
129	0xbfab882f9d9faa5d	-0.0537733917152152
130	0xbfbeb8bd37493c3a	-0.12000639533765503
131	0xbf95f43908ac28a9	-0.021439448503806222
132	0x3fb74916ea3e389e	0.09095900744270799
133	0x3f9aadce2998cfd7	0.026053639687418553
134	0x3fb1c145f7943932	0.0693553666535294
135	0xbfbad26fe45755d2	-0.10477351498351276
136	0x3f96ccb32e87c186	0.02226524325846093
137	0xbfb61e283629151c	-0.08639766046788505
138	0xbfae613019cdc883	-0.05933523478496829
139	0xbfa412244c95ad5e	-0.03920091090079823
140	0xbf6b9f8b629c51d6	-0.0033719751708167585
141	0x3f83f43ad6e59c85	0.009743175204404384
142	0xbfb1470b910345c6	-0.06749031343794973
143	0x3fb0b6e22debea4f	0.06529058095103689
144	0x3fd0fb98e24c2d69	0.265356274598807
145	0xbf80f910298d22ee	-0.008287550228162268
146	0x3fba9cc919adb496	0.1039548576061001
147	0xbfc35929822f38e0	-0.15115851265586056
148	0xbfc550e2bf419804	-0.1665309366100588
149	0xbfb1f04b97052d0d	-0.07007286488549287
150	0xbf90adcd678f12d6	-0.016288003392918103
151	0xbfbbd35f6f3ac3bd	-0.1086940428310887
152	0xbf8ce8fa0df3b486	-0.014116242934017597
153	0xbfc0e34dba9a2b3b	-0.1319367562431014
154	0x3fa0502391ed730b	0.031861411631984714
155	0xbfba1578f2549016	-0.10189014354961076
156	0x3fb2ec429817f815	0.07391754353736275
157	0xbfb603559eb245b2	-0.08598837971137277
158	0xbfd3694aa22e4b7a	-0.3033014854237802
159	0x3f9abd743b989aa1	0.026113334786851742
160	0x3fa5a0be9f038fb4	0.04224200907790934
161	0x3faaa4005694cf04	0.05203248078251302
162	0x3fb7f88f2ed70aa0	0.0936364640574916
163	0xbfc8c99b9beb91e5	-0.19365258324900406
164	0xbfcc53f7e5c8b866	-0.22131251068043695
165	0xbfc97d0097f364de	-0.1991272680232105
166	0x3fc0565a1aced5f4	0.12763525303823509
167	0x3fcf84e3bf7e9d39	0.2462429699928437
168	0xbfc62d080e6803b3	-0.1732492513984006
169	0x3fbce179d6e8693d	0.11281548973821472
170	0x3fb26c8976b91f3e	0.0719686426974677
171	0x3f9aadd336f7745f	0.026053714971443372
172	0x3f92836c05ee7220	0.018079460012460413
173	0x3faeb74039d7b6b6	0.05999184328162015
174	0x3fb82c3ab40dea52	0.09442488571031873
175	0x3fb2ed4c5a17fe50	0.07393338393739524
176	0xbfb6beaf77a98772	-0.08884712859574309
177	0xbfa532f913ad8e41	-0.041404517795652136
178	0x3fcbacb7744cbc4a	0.2162083928937782
179	0x3fbba8b95a148a45	0.1080432743952225
180	0x3fad056848c2d1a3	0.05668187988468112
181	0x3facc1c5b1076bad	0.05616586481092809
182	0xbfc1950cd4e6c0b2	-0.13736114879202926
183	0x3f9c3df59d7d268a	0.02758010648475432
184	0x3fc282efc9ee41bf	0.14462087020775802
185	0x3f818590fc8ad05e	0.008555538851716612
186	0x3fc8e1e87e5a7d98	0.19439417047122443
187	0xbfc2ec448d39ad2e	-0.14783532043234388
188	0xbfd0413d19bea8ae	-0.2539818526662526
189	0xbf80dd1cb8d81137	-0.008234238043777082
190	0x3fc5037814607858	0.16416836733782492
191	0x3fb8340b6b55a57f	0.09454413767311641
192	0xbf957aa3986b9fa5	-0.020975643327716082
193	0xbfb837c512941e1f	-0.09460097983912207
194	0x3fc2e15fde5115a8	0.14750288348493013
195	0xbfc5c988f99a7b51	-0.17021286189716503
196	0x3fc4eb004c965fd1	0.16342166652316206
197	0x3fcb04960d2acf17	0.21107745783739837
198	0x3fd0d6a0f3dbc98f	0.26309989752112356
199	0x3fa609295f26c898	0.043038647523091444
200	0xbf9eafa7e82c37aa	-0.02996694902963496
201	0x3f8fa2c52a17845e	0.015447178217927678
202	0xbfbbfb5915cd6fe2	-0.10930401594435993
203	0xbfa2a072b91f72ce	-0.03638037214088784
204	0xbfca6a96e2d0cd5c	-0.2063778502939425
205	0xbfae233b59c7a82d	-0.05886254759737173
206	0xbfa8fab7b386ccf2	-0.048787823357452256
207	0x3fc63f54c52b96b8	0.17380771281675833
208	0x3faec32c9f4574a9	0.060082811777399776
209	0x3fb2c443c158c187	0.07330726118448726
210	0xbfc27c685a884a45	-0.14442161961103941
211	0x3f909f114bca53d4	0.016231794596553176
212	0xbf9e61f4f1f2836f	-0.02967055060128437
213	0xbfbf16e3ba5e07ab	-0.12144301700575848
214	0x3f99101bdbbd1468	0.024475512778071723
215	0x3fd10d3d38e35bba	0.2664330535457641
216	0xbfb811e734eb939b	-0.09402318040845474
217	0xbfbaed77f98a3092	-0.10518598406105387
218	0xbfbbbeb8329e06c1	-0.10837889896177001
219	0x3fa7f14f13af8425	0.046762915757206515
220	0xbf83610ff0b82490	-0.009462475331945691
221	0x3fa86b7dca4fb1f0	0.04769509405727834
222	0x3fb9cf91b07f1975	0.10082350310321948
223	0xbfc157d06f9dbe2b	-0.13549237680443701
224	0xbfa4590d8b6a97af	-0.03974191977367469
225	0x3fb6c090eefc288d	0.08887582621187758
226	0xbf93aa8ee5a2cca4	-0.01920531536661642
227	0xbfb2db410f7eccd5	-0.0736580527143816
228	0x3fd22faf39c2ac6b	0.2841604293886976
229	0x3fb735409fc613de	0.090656317717801
230	0xbfc6b27ab963fdb1	-0.17732175876879588
231	0x3fbb7dc9276ba9f5	0.1073880883447272
232	0xbfd0af146981a42a	-0.26068601897583454
233	0xbfc32c7d908d1355	-0.1497952419105341
234	0xbfaffa9de4239723	-0.062458929156305375
235	0x3fc4db24d9800bf1	0.16293774242521367
236	0xbfc06efe514e82a7	-0.12838725061466968
237	0x3fb74607ea70f781	0.09091233705200176
238	0x3fc3b0d8a4b6c1e8	0.15383441965742795
239	0x3fbbeedc1cb5c420	0.10911346150329893
240	0xbfb53fe1acbb7d77	-0.08300600497340392
241	0xbfcc43fa6dea069c	-0.2208245312395335
242	0x3fc82681bc8abe58	0.18867513376379708
243	0x3fa0a312501a5dd7	0.0324941370756126
244	0x3fbe93b842d773c0	0.11944152480960124
245	0xbfa0164f4498f87f	-0.03142020904896103
246	0xbfbab49d19d946ce	-0.10431844597885773
247	0xbf70ca518ddf7efe	-0.0040991960249525655
248	0xbfc2d00333252683	-0.14697303769417056
249	0x3fc6b64fe9cb26f0	0.17743872562123597
250	0xbf708d83857fe0a5	-0.0040412080343161004
251	0x3fa583288d9a07e4	0.042016284261094744
252	0xbfb2cee33ac405d4	-0.07346935448369801
253	0xbfa0df9217f619df	-0.03295570890900356
254	0xbfc558c82fee426f	-0.16677191105238218
255	0x3fbce1617e1ebe7b	0.11281403855422838

base.actor.actor_fc1.bias f8 [64]
0	0xbf88b6182fc816b9	-0.012066067655733691
1	0xbf8c840fc712b545	-0.013923762572029328
2	0x3f33eb02cb07db1c	0.0003039247340263383
3	0x3f99f88504041c0c	0.02536208951007883
4	0xbf6b6a124d3e7ccc	-0.003346477265906955
5	0xbf1ab646f18033b2	-0.00010189826969071619
6	0x3f985250c446e1c9	0.02375150869349499
7	0xbf7df6716a58eace	-0.007315104512197036
8	0xbf84b0a209a4d388	-0.010102525634104756
9	0x3f726659db8e50df	0.004492140776069158
10	0xbf87286f4d240297	-0.01130759195484758
11	0x3f94b720f0b75d10	0.020229830448298236
12	0x3f847f961dd2fb1e	0.010008976731453564
13	0xbf67261807a405e2	-0.002825781758588817
14	0xbf959ef95cbf39d4	-0.021114250455690556
15	0x3f7ed22a757c7e99	0.007524648528288624
16	0xbf8fa87784f0080c	-0.015458043808397569
17	0xbf64dacb2f1e58ba	-0.002545735210286085
18	0xbf67dbab1fc17c4f	-0.00291236326852088
19	0x3f6bd252a1f53849	0.003396188156023637
20	0xbf85a815171e9729	-0.01057449795537087
21	0xbf8179031754394a	-0.00853159346527534
22	0x3f75b8d4a88aa576	0.005303221413364914
23	0xbf86a3c97328aefb	-0.011054586245414102
24	0x3f84379d26c7e46c	0.009871700044629082
25	0xbf76513e87b0081c	-0.005448574312142209
26	0x3f28bc90c8d24f87	0.00018872516048828674
27	0x3f97bbd2bcc083e7	0.023177426119335733
28	0xbf5e1b07d88afc5d	-0.0018374992961722938
29	0xbf812a56b4d28ba4	-0.008381535905135191
30	0x3f8517e30f420087	0.010299466994411212
31	0xbf506d3e155d58fe	-0.001002607944845801
32	0x3f93899fbcdd4257	0.019079681303369202
33	0x3f87baf2b23245f1	0.011587043822404804
34	0x3f7e36125952799c	0.007375785518119928
35	0x3f50be728df681e3	0.0010219687172608953
36	0x3f6ad8d7670d2b32	0.0032772261696768718
37	0xbf76132e8094c3a2	-0.005389386796466862
38	0xbf62a40bf9b19fe2	-0.002275489224803793
39	0x3f93792c535e039a	0.019016926372845334
40	0xbf77ed5baa3c7b4e	-0.005841596666669014
41	0xbf61579498de3906	-0.0021169569290072658
42	0x3f72d87a79b2c0a8	0.004600981158702812
43	0xbf72d6c25df237c9	-0.0045993416271254495
44	0x3f81638f6dddba79	0.008490677395198919
45	0x3f96ae740925f9e1	0.022149861391420948
46	0x3f817a7c7bd82d63	0.008534405259544802
47	0x3f691aab1b9a68fb	0.0030644742917732538
48	0xbf879286db227838	-0.011509946405848223
49	0xbf471d23695e1bf2	-0.0007053778560796016
50	0x3f8c71eaeb2a5e0a	0.013889155675584259
51	0xbf90d053cc8572a4	-0.016419705732334436
52	0x3f89d6ab64cb4c58	0.012616480840199326
53	0x3f8cc5b299dc5583	0.014048953361945454
54	0x3f93182175da8153	0.018646738832673048
55	0xbf885c05443aa056	-0.011894265312847246
56	0xbf5ef76e376f536f	-0.0018900467236921644
57	0xbf9465f507792223	-0.01992018564331678
58	0xbf66c82a386628d6	-0.002780992948094067
59	0xbf251c6606b42c84	-0.00016106362759446904
60	0xbf8bbc6292b9ea47	-0.0135429097201626
61	0x3f90ff010e6d96be	0.016597763543720438
62	0xbf8c9d9d18e09f18	-0.013972499200533714
63	0x3f218c29af05c4f9	0.0001338768847847572

base.actor.actor_fc2.weight f8 [64, 64]
0	0x3fce6a71d1da659a	0.2376234316514399
1	0xbfbd91bc85da6642	-0.11550501125238902
2	0xbfc340df588235eb	-0.15041724988661484
3	0xbfb8c90b6c3bf3f9	-0.0968176974528915
4	0xbfa8da160e669134	-0.0485388653353617
5	0xbfc0aba7d183da4b	-0.1302385113737777
6	0x3fb25782c9c6a815	0.07164781023189477
7	0x3fbbc65e4a3a6ff1	0.1084956103535999
8	0xbfcbe9bb05eacf0c	-0.2180703905956921
9	0x3fc40afda7eb9c30	0.15658541392551362
10	0xbfb5bb6cd1350b40	-0.08489112956617095
11	0xbfbefd7f284e2788	-0.12105555280700575
12	0x3fbff014dc939cd3	0.12475710282488998
13	0x3fc9525ee05b91b2	0.1978262515541594
14	0xbfb4b33a7ebfe984	-0.08085980982278868
15	0xbfa9c3e92857430d	-0.05032280557100508
16	0xbfbc21cb8f7a8cae	-0.1098906731881921
17	0x3fb0c741cad8e6c1	0.06554042055440858
18	0xbfb48c2cc473e970	-0.0802638988133475
19	0x3fa29f4da15758e1	0.03637163729188032
20	0xbf94596c6feb33df	-0.019872373896578806
21	0xbf952eb55eb6d534	-0.020685991197486334
22	0x3fa7dfbd7c95f011	0.04662887712308373
23	0xbfabe18ba9faab3b	-0.05445515108052353
24	0x3fc02fc4da78e3d3	0.1264577929266851
25	0x3f983c05183d6388	0.023666457752685527
26	0xbfc9e0f13ca1fe5b	-0.20217719517312358
27	0x3fa4e1a9f0f0ee69	0.040784178411254875
28	0xbfc1b3a1b0630cf2	-0.13829442131655117
29	0x3f407e890faea8cb	0.00050336544460563
30	0x3fd38685a9718ef2	0.3050855784151586
31	0x3fa4b0cf343513b9	0.04041144859596763
32	0xbf98be303ab32031	-0.024163011152978867
33	0x3fb6d6909590d0f8	0.0892114987516982
34	0xbf8047a88cf11556	-0.007949177552414238
35	0xbfbc0d19400efa3e	-0.10957486928871504
36	0xbfc50ae095b9fba7	-0.16439444838394232
37	0xbfb5249dbbdc4377	-0.08258996807513862
38	0xbfa76a4336a7cc63	-0.045732593938645726
39	0x3fc40de8df9fa5ab	0.1566744892036643
40	0x3f759dc5b74f38d5	0.005277416542368314
41	0x3fc0374a9017ef4c	0.1266873553830642
42	0x3f7a5ad35fcd5114	0.0064342743688323885
43	0x3f79c29d334433fc	0.006289114058984243
44	0x3f960ea107c47ba3	0.021540180300799638
45	0x3fcb84764178907a	0.21497991749595596
46	0xbfb5c131092ae202	-0.084979119051134
47	0x3fcbb5213fac4587	0.21646514519720148
48	0x3fc27b3bba65e9aa	0.14438578225583615
49	0x3fd50732dfccc206	0.32856437545254413
50	0xbfbf00365b4978ed	-0.12109698990522917
51	0x3fb0a944d9c9a1ad	0.06508283917503972
52	0x3fa8947f2c763cba	0.04800794046161046
53	0xbf988c7abcf1535e	-0.023973386556764502
54	0x3fc3886be5d74c6e	0.15260075304704251
55	0xbfc04f5df13c9771	-0.12742208747038888
56	0xbf9f23a7e1b6dc53	-0.03040945353651765
57	0xbfb8fbce5f9b6743	-0.09759225687176092
58	0xbfca304972fd945e	-0.2045985995747825
59	0x3fc79e8b118fbd5b	0.18452585561270038
60	0xbfba89a8a1531fe2	-0.10366300524321972
61	0x3fb2141e695ff8da	0.07061948845509694
62	0xbfae0e594f2ab424	-0.05870322314635981
63	0xbfb51e0e759d5f90	-0.08248987552121734
64	0x3fbada54b2d6e8a8	0.10489396444509913
65	0x3fb982f0fc600d74	0.09965425645355258
66	0xbfa6e83123a02eb1	-0.04474023399242578
67	0x3fb25caac1f1efee	0.07172648653971667
68	0x3fc33d28623f3fe3	0.15030388638706346
69	0x3fd1f61f025c5112	0.2806470416119434
70	0xbfa4dca0c3c40c25	-0.04074575795859684
71	0xbf5d092ca1956656	-0.0017722068644928832
72	0x3f9dcddc1cee3716	0.029105605378894138
73	0xbfd0385fab323ec3	-0.25344077795396575
74	0xbf9cf5283be2d83c	-0.028278950362356378
75	0xbfa6efa4bb27b25c	-0.04479708466155749
76	0xbf745d421bae19b9	-0.004971750483383657
77	0xbfa558640bf1d08a	-0.04168999334152186
78	0xbfb1cf4ecd68ba48	-0.06956951632376118
79	0xbf622efeb2c6cdbc	-0.0022196745469160433
80	0x3fa1b280becffa4e	0.034564994137316604
81	0x3f99d922f8c426c2	0.025242372926220787
82	0xbfb4ebe8b3e18d43	-0.08172468558909878
83	0x3fbad7065b2f32b6	0.10484351850682114
84	0x3fc6df5bcafa9971	0.17869136248664177
85	0xbfa68a194ff9b892	-0.04402236081374257
86	0x3fcb73e69eff9821	0.2144745136603783
87	0xbf95dd1e37ce718a	-0.02135131087890011
88	0x3f630705b21dd642	0.0023226844068016403
89	0xbfc8fbe3e19b9761	-0.19518707767491164
90	0xbfa8233d6291cd60	-0.047143858225264124
91	0x3fb8eb824cdb9f98	0.09734358192838355
92	0x3f91044ac451465c	0.016617935402172143
93	0x3fb655035483fb14	0.08723469556205671
94	0x3fabbe969df602fc	0.05418844869837433
95	0xbfb25c897deeda93	-0.07172450375115096
96	0x3fc3d452ae522466	0.1549170828987229
97	0x3fc142e4a58ce60a	0.13485391696467303
98	0x3f83678bfc48651b	0.009474843632278287
99	0xbfc9c94b932bcb01	-0.20145554243170952
100	0x3f7701a897043d24	0.005616816095666697
101	0xbfa74477593aca8b	-0.04544423069218791
102	0xbf98f79fdeda48c8	-0.024382112480972024
103	0xbfc187162328de11	-0.13693501202372763
104	0xbfa69839f56394f9	-0.04413014526816456
105	0x3fb82ac17a5b8db9	0.0944024013256727
106	0xbfd013e949ad015d	-0.2512152881136183
107	0xbfa20f274c4df094	-0.03527186209154923
108	0xbfc543039c943a62	-0.16610760827502974
109	0x3fb5452e8d8f5645	0.08308688121845716
110	0xbfd533b7a1c97f10	-0.3312815742446995
111	0x3fc70fce80729a36	0.18016988059862776
112	0x3faed52cc49c535b	0.06022014522583304
113	0xbfb328381fedde5d	-0.07483244685669761
114	0xbfb6bbeb72a128ee	-0.08880492733547715
115	0xbfb6988b37471e86	-0.08826513385349175
116	0xbfa752bde71d15ad	-0.045553144895659294
117	0x3fa78c670a8a0c7b	0.045993061100511455
118	0xbf7ab749b1d74971	-0.006522453184020769
119	0x3fb6cf6bb08ee43f	0.08910248814108089
120	0xbfd6a697caa12639	-0.3539180258563622
121	0x3fc2cda99b714a98	0.14690132226913444
122	0x3fd331952efa454f	0.2999012907758542
123	0x3fbca5e28646f4f2	0.11190620210887284
124	0xbfb7324506772e01	-0.09061080367899167
125	0x3f90ea8c36bd53f6	0.016519728508985275
126	0x3fc27b64f63f5fc8	0.14439069770628365
127	0x3fc67480f94f956c	0.1754304139459849
128	0xbfc30a90dcbd25f3	-0.14875994470848716
129	0xbfb8d8f1dd399828	-0.09706031466484488
130	0x3fc5c9ae55da10c0	0.17021731559737496
131	0xbfbb30dbddb200e3	-0.10621427690967127
132	0x3fd2ec1c83100983	0.29566109465681495
133	0xbfa5ed4c8c3f4a1f	-0.04282607280733352
134	0xbfb07a1e4512a7f9	-0.06436337648725034
135	0xbf93265d863cfee2	-0.018701039617780142
136	0xbfc4d3fdc9ff3262	-0.16271946299675039
137	0xbfb2bbf3f2dfd703	-0.07318043403196488
138	0xbfaaf85bf928a5d0	-0.05267608086098685
139	0x3f81c82dab77996d	0.008682591243041238
140	0x3fb7a4b40d06fe1e	0.09235692327546771
141	0x3f9c9c5ed6e45ec6	0.02794025599095453
142	0xbfcb587146efb8f9	-0.21363655055706213
143	0x3fb651b82685b03a	0.08718443813785451
144	0xbf9a27c6b9b2ac4c	-0.02554235943231857
145	0xbfb274a89e5cfc76	-0.0720925699833844
146	0xbfbc14065d075254	-0.10968055506902746
147	0xbfc498739ca1b5fb	-0.1609024538806095
148	0xbfc28185c83dccbd	-0.14457771565830582
149	0x3fb1e38bf76ba7c8	0.06987833776989227
150	0xbfc0af5ecd0a3a19	-0.13035187732425937
151	0xbfb34b805e0483a1	-0.07537081046440487
152	0xbfc5b10706e2ed93	-0.16946494899989925
153	0xbfbaa183bb70d735	-0.10402701688948642
154	0xbfb6af53868c1e95	-0.08861276659819801
155	0x3f77c5f83d20068d	0.005804032976813323
156	0xbf93a1031a1d8d10	-0.019168899983367516
157	0xbf89d97aa0975690	-0.012621839547971164
158	0x3fab5d014849503f	0.05344394690897091
159	0x3fc643d5a0d35e96	0.17394514420333412
160	0xbfbc171b8ff5b280	-0.10972759499208884
161	0x3fbe7aedfbfd54a0	0.11906325723733113
162	0xbfaf824e41cd3c2a	-0.06154102853053474
163	0xbfc7e8148b38923e	-0.18677002714061247
164	0x3fa03a2fa0a6cea3	0.031693924294271335
165	0xbf95eb6a44193020	-0.02140584984435645
166	0xbfbd97bb33fb1c10	-0.11559648531975619
167	0xbfce52b299fe72de	-0.23689873236880649
168	0xbf58e29f1a25acaf	-0.0015188745242891535
169	0x3fa1a414818a4ceb	0.03445495683004104
170	0xbfcb303a8f298ede	-0.21240932455395173
171	0xbfc7f8418dca4989	-0.18726367400502067
172	0x3fb39dce9fafe0f4	0.07662669561966934
173	0xbfbd6a5a883bdd57	-0.11490407777806887
174	0x3fb1ed98dbd2378a	0.07003169409492052
175	0x3fa56bc45ba83b37	0.041837822140328766
176	0x3fc0c3267f284d51	0.13095551689967036
177	0xbfc2ff7c79053d97	-0.14842182072832763
178	0xbfbb3e281b135f48	-0.1064171854117123
179	0x3fc0e7647a59abce	0.13206153844961793
180	0x3fd49c102fed6936	0.32202534370812275
181	0xbfb6136f753d7041	-0.08623406040482086
182	0x3fc75718afa8a3f7	0.18234547211730476
183	0x3fae80a2423838a7	0.059575148185204534
184	0x3fb3e2df99a80c4a	0.07768056393983716
185	0xbfb5984d9971091b	-0.08435521122104143
186	0xbf604ddab72a26c1	-0.0019902488505224307
187	0x3f98e3785386a325	0.024305229280488966
188	0x3fcaa64094ec0a81	0.2081986167105079
189	0xbfcd00c5bdd07351	-0.22658607261919397
190	0x3fa0779065dc4ecf	0.03216220134177449
191	0xbfc97b4363f3984e	-0.19907419567533896
192	0xbfa0a14ceecb1c2c	-0.032480625295243065
193	0xbf9e6a0271bdaf56	-0.029701269333073675
194	0xbfcf018ca01b2820	-0.2422347814338659
195	0xbfade91ea9aede50	-0.058419187749163215
196	0xbf9c8fadc86c835c	-0.02789184127607612
197	0xbfc58292f430c208	-0.16804730342256868
198	0x3fa8c8c823f032db	0.048406843554493505
199	0xbf86954da5d425a8	-0.011026960967245383
200	0xbfa0187f10d9a9f3	-0.03143689232532045
201	0xbfb2dc21e3aca4a4	-0.07367145355660171
202	0xbfadefefde5999a5	-0.058471198932966297
203	0xbfa3480e74adacf4	-0.03765912222191928
204	0x3fafda957de1238c	0.06221453820814479
205	0x3fd5310c5658b842	0.33111866409570123
206	0x3fb735c32f7b4bb0	0.0906640997812207
207	0xbf966f1dba274920	-0.021908249365716448
208	0x3fb35245f5fa0ccd	0.07547414069454135
209	0x3fc605d1ea60d540	0.17205261177302056
210	0xbf925715abee842d	-0.017910326594236792
211	0xbfba8d4730b015ac	-0.10371823252361051
212	0x3fc9c054e90eeb31	0.2011819971065392
213	0x3fb0d0faaea01b70	0.06568876994434247
214	0xbfc3103bc4122b6d	-0.14893290590074618
215	0xbfb3b6381c33a925	-0.0769991940357256
216	0xbfa6764e57104078	-0.043871353271357216
217	0xbfa069e4c2597ce1	-0.03205790398055242
218	0xbf88ebad5b141bbe	-0.012168268529888834
219	0xbfb9843be42a83c8	-0.09967397995434546
220	0xbfb1b702a68bb678	-0.06919876638468192
221	0xbfb881bb8469d630	-0.09572956068753835
222	0xbf8f3bbbe479c6ec	-0.015250652227425353
223	0x3fbe518854a9c9f8	0.11843158785794816
224	0x3fc264d9e99d3a27	0.143702735013407
225	0xbf85841c7c84ec97	-0.01050588850977467
226	0x3fb87c440be081db	0.09564614572491996
227	0x3f945644a59a39e7	0.019860336883135956
228	0x3fb2f595cee7b811	0.07405983258624384
229	0x3fc86c2aa8f7590c	0.1908009839086805
230	0xbf921781013d4b0b	-0.017667785359047488
231	0xbfb69b5dfae056d6	-0.08830821394834784
232	0x3fb6b3d1b3e736ac	0.08868132249991828
233	0xbfc0ffe486f421e3	-0.13280922498257927
234	0x3faac1213a90e171	0.05225471343914279
235	0x3f55bb94fa00b799	0.0013264613007879288
236	0x3fb7050338f42d9e	0.08992023601984164
237	0xbfa9e22954602fcb	-0.05055359988190807
238	0xbf98aac3b6ef04e0	-0.024088914909729975
239	0x3faf88493c1d32f6	0.06158665522398181
240	0x3fb1c2673d536fcb	0.06937260863509136
241	0xbfba46fc47c9d88e	-0.10264565231941189
242	0xbfab0e275b3889b3	-0.05284235943351536
243	0x3f9a72f6eb5c1e4a	0.02582917987368053
244	0x3fbbddc4480b0793	0.10885264166702617
245	0x3fcc622a98ad0131	0.22174580054162044
246	0xbfcc7efd2ede2062	-0.2226253966184713
247	0xbfb9a2e9ab42e467	-0.10014210158523583
248	0x3fb2d9c48959b4d7	0.07363537171632416
249	0x3fc56e9b66e591d9	0.16743795894866656
250	0xbfb955beff013224	-0.09896463132572159
251	0x3f96a91e0d5c11f8	0.02212950665036037
252	0xbfc565a80f54b7ef	-0.16716480969029088
253	0xbfd1e1ee9f35f0c5	-0.27941480205459995
254	0x3fd70548168b408c	0.3596973629146383
255	0x3fd50314b87c87c9	0.32831304565672476

base.actor.actor_fc2.bias f8 [64]
0	0x3f8a0e71b0c10023	0.012722862440682608
1	0x3f55f1a73ffbb023	0.0013393529224528043
2	0x3f7785307b5c9488	0.005742253668164506
3	0xbf9be520e30a8350	-0.02724124322651572
4	0x3f827d382339fbd9	0.009027899336841049
5	0xbf90f9894390d286	-0.016576905011066255
6	0x3f76713d529c3612	0.0054790873925987405
7	0x3f84448cc2940584	0.00989637345128603
8	0x3f76cd1891760a1e	0.005566688508567922
9	0x3f49d3ad94cd018d	0.0007881734432900065
10	0x3f952876477692b1	0.02066216288735018
11	0x3f55579d84adb90d	0.0013026273979580034
12	0x3f83ef9c02c8e652	0.009734362444862619
13	0x3f8d434099c5f073	0.014288429920945788
14	0x3f92f513ca40becc	0.01851302072480969
15	0x3f8777232651f04f	0.01145770512288649
16	0x3f673de33b7139b5	0.0028371275070988252
17	0xbf7b85742344c7af	-0.006719068205983377
18	0xbf9518ab4773b807	-0.020601917491994495
19	0xbf685307bdb9cc46	-0.0029692794030835882
20	0xbf76f16e2c2de115	-0.005601339685078939
21	0xbf847464f75b0d43	-0.009987629698463457
22	0x3f730d693c466cb5	0.004651461673712711
23	0x3f677df543a37f0b	0.0028676786724729556
24	0xbf842799aedfec7a	-0.009841156625034698
25	0x3f5f28e9aa89edd0	0.0019018442054904335
26	0x3f854b8399a84389	0.010397937895534575
27	0x3f83f229854d6d4e	0.009739231472556977
28	0x3f642b6a49f549e2	0.00246210822630498
29	0xbf7a113ba6bfdc35	-0.006364090932030432
30	0x3f72cf41a6767b00	0.004592186399718257
31	0xbf81541a5dc05732	-0.008461194978774598
32	0x3f8116b8d6653507	0.008344120066477346
33	0x3f911e738a14785a	0.016717725088817616
34	0xbf59208f687deb9c	-0.0015336418600486517
35	0xbf7de449e99f3b7d	-0.007297791214979974
36	0xbf6b55317e8b5b64	-0.0033365217862910013
37	0xbf644fe17ba642ef	-0.0024794963803248453
38	0xbf817e9b682bb4b3	-0.008542265049494046
39	0x3f7db6bc60703118	0.007254348608523274
40	0xbf7e23a4eafa7026	-0.007358211718067087
41	0x3f87a35db769fc5e	0.011542064819194117
42	0x3f59191c2f6cbf02	0.0015318656202900076
43	0x3f77ef1d3bcf479b	0.005843271440385235
44	0x3f839c46ea533c5e	0.009575418497119677
45	0xbf624e6a6cc77276	-0.0022346571551977125
46	0x3f918336db2a49cf	0.017102105261594332
47	0x3f8eaa629fbb6681	0.014973421573290626
48	0x3f590e260f511722	0.0015292522123373027
49	0xbf8a087b1a2627cf	-0.012711488471513292
50	0x3f7d0fc0445bd97c	0.007095099490234676
51	0xbf83e45f9c99c15d	-0.009712931601115466
52	0xbf6ff44334c79408	-0.003900653135348712
53	0xbf45c74c0f3fbcd7	-0.0006646272072411652
54	0x3f84d31e644d5793	0.010168301998117168
55	0xbf9121907b0290e3	-0.016729600437103264
56	0x3f749218a11545b8	0.00502214070123002
57	0xbf7e611461c5f3e4	-0.007416801087285461
58	0x3f9342760623a00b	0.018808216213898315
59	0x3f33e970e32b2eb4	0.0003038311580609674
60	0x3f683d23d14ba2fd	0.0029588412820554786
61	0xbf6cb9b6e60c16b3	-0.00350652429949857
62	0xbf72acc317e737d6	-0.004559290011867353
63	0xbf64b5e5200b9d1e	-0.0025281405545346655

base.actor.actor_fc3.weight f8 [8, 64]
0	0xbf463de58d285742	-0.000678765378611536
1	0x3f922af617cbda31	0.017742009355936787
2	0xbf8d4c8d18ab1dca	-0.014306165995903525
3	0xbf7da863398e18e6	-0.00724066505143226
4	0x3f7fe606749ece6a	0.007787728516564488
5	0x3f80cdfc6bbe0435	0.008205387151749214
6	0x3f6415aad4f13817	0.0024517380293565083
7	0xbf61090a66efe4c4	-0.0020795062223411837
8	0xbf88263f92d665b5	-0.011791702908157878
9	0xbf7192baa2285520	-0.004290322338893732
10	0xbf633e78d1865f59	-0.0023491248832207376
11	0x3f8345b1ccac3206	0.009410275515187482
12	0xbf6102642b3a4212	-0.002076335565853301
13	0x3f8784ed41bf2467	0.011484006470612053
14	0x3f71fe1e8930b747	0.0043927376564577075
15	0x3f61a877cb9f2e17	0.002155527091394448
16	0xbf7e00f9e4ded053	-0.007325149677786485
17	0x3f93375cb1a35c96	0.018765877096339333
18	0xbf3ad2866fbe55eb	-0.0004092767919642015
19	0xbf70ffc83cb85bd3	-0.004150182892337778
20	0xbf78f3e9da258cd6	-0.0060919890259782585
21	0xbf4c2bdba58c57cb	-0.0008597204679030521
22	0x3f74250a6b8dccc5	0.004918137267725335
23	0x3f896c059bb52ef4	0.012413066686938624
24	0xbf7e25430e989d2e	-0.007359754506558942
25	0xbf5c79e4be1e5f69	-0.0017380460562658967
26	0x3f892595a5a6dd0d	0.01227871810702521
27	0xbf3a977e463f0904	-0.0004057582175357596
28	0x3f5f2baf4a219149	0.0019025050937893798
29	0xbf58c1da6f24c5c2	-0.0015110619684260839
30	0x3f45e240092e120a	0.0006678402590841192
31	0xbf7a01e662341392	-0.006349468170132948
32	0x3f778fccf9ad49f9	0.0057523733947442085
33	0x3f7e6f145329745e	0.007430152315092446
34	0x3f7bd712edd27877	0.006796907369020492
35	0xbf729a74003c79b2	-0.004541829231838811
36	0xbf6e5864abf29a51	-0.0037042585605207364
37	0xbf8a2253c5021a8b	-0.01276078648539893
38	0xbf55e7438885f66e	-0.0013368758683038012
39	0x3f76f6e8d2a719f8	0.005606564964585996
40	0xbf849385ac6b352f	-0.010047001194289777
41	0x3f52ae57e3583151	0.0011401994974021455
42	0xbf78134a74e64db7	-0.005877772184607214
43	0xbf4bb337e5173630	-0.000845339100288894
44	0x3f3d53fd4d6af2a4	0.00044751104489274885
45	0x3f80b588bb4516e1	0.008158748831771092
46	0xbf7ed506b2a53242	-0.007527376330767556
47	0x3f84cd94a575c214	0.01015773897117448
48	0xbf6fee6ce1684e22	-0.003897869736883456
49	0xbf68b88115caece2	-0.0030176659768962203
50	0xbf82aacce034b1a7	-0.009114838211268529
51	0xbf88228086640196	-0.0117845574391147
52	0xbf8ac8632de036e1	-0.013077521169204189
53	0x3f90c5fba85d5253	0.016380245352893685
54	0x3f5c1c7eee239ebf	0.0017157783082043935
55	0xbf7cb3fdc6c84de0	-0.00700759059374742
56	0xbf4bec184441ca8c	-0.0008521193017386338
57	0x3f76970e807238fb	0.005515152594979473
58	0x3f6d087a5bcbb0bc	0.0035440816703752025
59	0x3f5161d4ab0062c5	0.0010609223209085289
60	0x3f8eb7dd418fd0e8	0.014999130786215578
61	0xbf48ecbeb9d27834	-0.0007606440809870886
62	0xbf8fe83fb19cd9da	-0.01557969818859999
63	0x3f8a094ef3ca380a	0.012713066878202301
64	0xbf74c8eb8978bcf8	-0.005074424806976945
65	0xbf9504d735381356	-0.020526278136475305
66	0xbf7650344be3713a	-0.00544758251473026
67	0xbf8018fffef5551c	-0.007860183685503723
68	0xbf61baaef8727f4d	-0.002164212931873444
69	0xbef1ef2c5a3d40df	-1.710345317401738e-05
70	0x3f68611d7a6da9c0	0.002975995611838672
71	0xbf732c6ee951ca1b	-0.004681046722100147
72	0xbf779ea8bf08ab60	-0.005766543545670938
73	0xbf62656a2af02071	-0.002245623930779366
74	0xbf7fbdd3a650866f	-0.007749392277249008
75	0x3f1a6b668a5ee178	0.00010078252179724311
76	0xbf83f5032d68d8b6	-0.009744667838372894
77	0x3f72bb89b7c03abd	0.004573381385866324
78	0xbf73d2376084a882	-0.004839149776936337
79	0x3f5637cb9b6f5f69	0.0013560760833026492
80	0xbf9510a2dd1dcef4	-0.020571274515034113
81	0x3f7a7066355a8109	0.0064548485294440095
82	0x3f801ca35cdea29b	0.00786712290921914
83	0xbf8ae1242ff60307	-0.01312473555913264
84	0x3f822a31953168c7	0.008869540563115298
85	0x3f4e850a17a13d40	0.0009313868788555571
86	0xbf8c01e870643c35	-0.013675514154355731
87	0x3f7c7838ed8a85e6	0.006950590490903496
88	0xbf7870577b70e120	-0.00596651241999549
89	0x3f83c4ea989eb1e3	0.009652931959714678
90	0xbf7c4a557d09a15b	-0.006906827868626254
91	0xbf44c23622c02e55	-0.0006335033735935339
92	0x3f684416e55bdc71	0.0029621550737562387
93	0x3f7b3d57cc68e788	0.00665029808311058
94	0x3f781a20d146679e	0.005884292786868443
95	0x3f7ac39c8d1bdcb0	0.006534205940389601
96	0xbf868178bca39fd6	-0.010989135033426505
97	0x3f654c23fb3e7307	0.0025997832071439383
98	0x3f60779cd66719bb	0.002010160754454674
99	0xbf7098b00f735756	-0.004051864372021393
100	0x3f76e87723510ceb	0.005592790014875985
101	0xbf8230d276ddb677	-0.00888218331575817
102	0xbf4c99a8685dc34f	-0.0008728096297386608
103	0x3f824bd399589df9	0.008933690182927544
104	0xbf7664fab84b6b7a	-0.0054673951860547635
105	0xbf6db465a5363c8a	-0.0036260590802111347
106	0x3f72a6bc2832081f	0.004553542126020132
107	0x3f8c872b36bc09fd	0.013929689033379761
108	0xbf854116a9d9fc3f	-0.010378052767235356
109	0x3f5eaa8c1e5ca13e	0.0018717163415634254
110	0xbf816db41aec33aa	-0.008510024139036638
111	0xbf5e586f972c30d9	-0.0018521394492295089
112	0x3f19b4bb37e8eca0	9.80605382005389e-05
113	0x3f54de6d9e16617a	0.0012737341388398813
114	0xbf8221ddfe9d4f49	-0.008853658993451712
115	0x3f936a66820c9b52	0.018960572898460377
116	0xbf72a23549864db0	-0.004549224999567711
117	0x3f84b22de6f4edc3	0.010105475054493667
118	0xbf882393ec229862	-0.011786609309933197
119	0x3f76455d095b9146	0.0054372438660020336
120	0xbf94ebaeef3b6693	-0.020430310584606714
121	0xbf944675ef7c791b	-0.019800036184386288
122	0xbf830d2ce73ca4f9	-0.009302473837652135
123	0x3f92bc7efa02b6ad	0.01829718018478015
124	0xbf78c1f68a608ba5	-0.006044352578132105
125	0xbf202fdc51b636ec	-0.00012349667018123707
126	0xbf570d840298d0dd	-0.0014070309793057713
127	0x3f1cb4a5f56a1d34	0.00010950339251724202
128	0x3f86f500eff20ddf	0.011209494898372916
129	0xbf93c9da87b1508e	-0.019324698001881795
130	0x3f8e6df89b42b46f	0.01485819076364178
131	0xbf80a3635c511edb	-0.008124138121402271
132	0x3f7cbca32e0db7ee	0.00701583616397093
133	0x3f62cb45c93a6ee8	0.002294193554758784
134	0x3f8a50fbfaabcd71	0.012849777781844126
135	0x3f74a96cc35e788c	0.005044388633818408
136	0x3f8bb2a77aac537c	0.013524349623858838
137	0x3f8e48288e0bc57d	0.01478606875886856
138	0x3f8dfba9a04bf288	0.014640164570203909
139	0x3f926435ca132ebc	0.017960396250414887
140	0x3f81ce2a393dddaf	0.008694009658696126
141	0xbf774fbd55e12451	-0.005691279975573131
142	0xbf881e6ac28d7704	-0.011776765882753455
143	0x3f733305aa5d2ae4	0.0046873303707097615
144	0xbf5649c3022c4991	-0.001360359609581783
145	0xbf6cc370596e6f32	-0.003511161262805284
146	0xbf9019b7b3bad45a	-0.015723104805790512
147	0x3f743d9d23bd075b	0.004941572023939712
148	0x3f4466894e42089d	0.0006225748479809116
149	0xbf6377af043cc73e	-0.0023764055530585406
150	0xbf791282ee8eb52a	-0.006121169521901929
151	0x3f53cfccea647c33	0.0012092114571442658
152	0xbf85a00e21f0df53	-0.010559187327188779
153	0xbf6f972cf731b9b6	-0.0038562658533500506
154	0xbf894dc3268cf8cc	-0.012355351079915165
155	0x3f440ae5f6e56c29	0.0006116507409318395
156	0x3f7c04b2340957e5	0.00684041605616945
157	0x3f6fae79ceb16717	0.003867376236979757
158	0x3f8839428ae82f46	0.011827964653114652
159	0xbf92f945c57d3f54	-0.018529024294650157
160	0xbf76173176fa7479	-0.005393212529864682
161	0x3f865846997ac2d1	0.010910560187171655
162	0xbf6a0eda2cbdf4d2	-0.0031809102273983947
163	0xbf69d928f80f52ce	-0.0031553077865090545
164	0xbf8813ee5fc5ffdc	-0.01175676564957933
165	0xbf7f7932914e07aa	-0.007683942346263276
166	0xbf49bd23f1871c7f	-0.0007854867463316233
167	0x3f88e4271e914235	0.012153916950553437
168	0xbf90c49bf96cd46e	-0.016375004862500146
169	0xbf8dd8089d3c4e32	-0.014572207735489593
170	0x3f86f87e8133ff75	0.011216152494398316
171	0x3f85b8a6a966bffb	0.01060610012504525
172	0x3f813049b79c4739	0.008392883220526325
173	0xbf643e236c047786	-0.0024710361323191958
174	0x3f7d34495d33c294	0.007129942491915248
175	0x3f7fdc0e814ca867	0.007778221760228111
176	0xbf8be4170816f9a7	-0.013618640837077601
177	0xbf9076e88eba6f9e	-0.016078599654619212
178	0x3f81dc2bc0dcb7fc	0.008720723937212675
179	0xbf81e6efb1d591e0	-0.008741257299967609
180	0xbf69a8e9d6f5f456	-0.003132302015443271
181	0xbf590548c6071d48	-0.0015271387747917854
182	0xbf57753b3647f0a1	-0.001431758713009969
183	0xbf807f69796f3884	-0.008055519121537687
184	0x3f49c77967656e6f	0.0007867186348379916
185	0xbf93b7c2e8130e12	-0.01925568143339091
186	0x3f8b57b788e29bd4	0.013350900521187294
187	0xbf6443493f504c3c	-0.0024734907733630334
188	0xbf779e568b4e75db	-0.005766237319134028
189	0xbf61e9dd03d7a565	-0.002186710042896211
190	0xbf7c2c3681d68d5e	-0.006878102224990938
191	0xbf86819ed1a43a81	-0.010989418766738314
192	0x3f5802a9521daacc	0.0014654782794091712
193	0xbf847285c79c38c4	-0.009984059480782632
194	0xbf855de37ed23f7f	-0.010432984645632136
195	0x3f89277b59bb6312	0.012282336879637454
196	0x3f81c644de92f916	0.008678949396536722
197	0x3f9034600cbef22d	0.015824795511195134
198	0xbf7bf07ac2261488	-0.006821136021590075
199	0xbf85abca95d11411	-0.010581572243731715
200	0x3f414b84eee9825d	0.0005278014267098941
201	0x3f76960e24405d16	0.005514197579052712
202	0xbf490e351891bf84	-0.0007646331079182865
203	0x3f742830abf95feb	0.00492114078914339
204	0xbf8d2b4af8345959	-0.014242730807876457
205	0xbf834debbd8a9351	-0.009425965997545001
206	0xbf92dcd5667225eb	-0.01842053830890748
207	0xbf74120d3ae53c17	-0.004900027923510761
208	0xbf6fb733aafb7a6c	-0.0038715371264140177
209	0x3f80839e22f50862	0.008063540880019985
210	0xbf6240edd8253437	-0.0022282262226896127
211	0x3f829e48563adbba	0.009090962535408188
212	0x3f7debf84dc6d33f	0.007305116593148863
213	0x3f422d36c1fd115c	0.0005547063228524096
214	0x3f6b2cab1c07efeb	0.0033171979887338574
215	0xbf6afab4ef0c6bfb	-0.0032933744299845614
216	0xbf709cb9ce6a28d2	-0.004055715375793594
217	0xbf773c3901f3ff25	-0.005672667203952907
218	0xbf79d21e35246d6b	-0.006303899763476432
219	0x3f83f6212c343a0f	0.009746798669337612
220	0x3f4a828f5bc655ab	0.0008090209953929747
221	0xbf763dafd7017ad9	-0.005429922937848907
222	0x3f25fcac6bc139e0	0.00016774754283450845
223	0xbf89a3e1aab3565c	-0.012519610425822218
224	0xbf81457f07c2eccb	-0.008433334755287089
225	0xbf92c0f5c6b7b3e8	-0.018314209226378525
226	0xbf7ab2feb78857bd	-0.006518359172806795
227	0xbf2d1d09e838187a	-0.00022211786209442084
228	0xbf8d2f5834a13fe4	-0.014250458818565855
229	0xbf7f6b3c9c5f8c2a	-0.0076706283198033996
230	0x3f8fec967074b60a	0.015587973887330814
231	0xbf8bf27057397ecb	-0.013646009122737187
232	0xbf7176496f1a48da	-0.004263197757284421
233	0xbf851a2d44fba05b	-0.010303834598247066
234	0x3f8963b1df8fb9d4	0.012397184023908027
235	0xbf73318410123848	-0.004685893888689625
236	0xbf72d9f9cab61551	-0.004602409123781585
237	0x3f76c21480747628	0.0055561829424540035
238	0xbf802351305f1088	-0.007879862106968241
239	0x3f8368d6c0b333e6	0.009477308040368681
240	0xbf8011b449b27fcf	-0.007846268176137898
241	0x3f823a4c33b6a1db	0.008900256469886727
242	0xbf70ba1cde1a8e8e	-0.0040837409630146825
243	0x3f5a7c8bd158b060	0.001616608181744382
244	0xbf68fdf68b45f9cf	-0.003050786525079042
245	0xbf56bcbc04aa0f50	-0.001387771235983732
246	0xbf8105570e692925	-0.008310966613085011
247	0x3f5391a8b20970e0	0.0011943957726066531
248	0xbf8a5506d20af776	-0.012857487950323803
249	0xbf824bf2478494ce	-0.0089339187694101
250	0xbf864b820f44d74d	-0.010886207667322312
251	0x3f836fc02c2feb75	0.009490491245733182
252	0x3f8540db8e70a1e4	0.010377612385199471
253	0xbf7db7e4af1ea4d8	-0.007255452439417463
254	0xbf9029a9a5942d4e	-0.01578393052208798
255	0x3f68ebba8def812d	0.003042091716892645

base.actor.actor_fc3.bias f8 [8]
0	0x3f6b91e1d772c342	0.00336546048819067
1	0xbf6d0b2a1e4fa5c7	-0.0035453627228789505
2	0x3f8bbddbcebb0102	0.013545720335401249
3	0xbf88a0299d67a0dd	-0.012024235836137038
4	0xbf6246ff8f6f58ff	-0.0022311202442139018
5	0x3f573b9e1cee8ad9	0.001418022544137079
6	0xbf4f56d9ed99c2aa	-0.000956398401468735
7	0x3f80bd668965b5e8	0.008173752849610375
