results/Ant-3d/cmorl-ipo/4/final/EP_policy_66.pt (torch, 105481 bytes, 13 tensors)

base.actor.actor_logstd f8 [1, 8]
000000 e6 6d 7b 0c 91 70 02 c0 9d 7c e2 26 a4 61 03 c0
       -2.30496415855099 -2.4226763761394765
000010 d8 5d 42 30 ec 6a 02 c0 23 60 b7 65 19 7e 02 c0
       -2.302208306336734 -2.311571879061391
000020 cb 5c 8d 48 85 c8 02 c0 0c 96 7a d5 2c ad 03 c0
       -2.3479104679241565 -2.4595581701312366
000030 89 85 07 2f 0d 4e 01 c0 3d a1 af ae 20 ea 02 c0
       -2.1631110834284226 -2.364320149168775

base.actor.actor_fc1.weight f8 [64, 27]
000000 be ed ff da 97 10 bc 3f e5 65 99 ac a3 d7 ce 3f
       0.10962819191620718 0.24095579078384258
000010 a7 51 10 59 54 42 dd 3f 18 ba 90 73 97 7c c0 3f
       0.4571734304202217 0.12880223410452696
000020 b2 56 3f 9b 99 78 cd 3f 31 53 39 36 4e 99 d3 3f
       0.23024292068901314 0.30623202605538596
000030 57 e5 61 84 6e eb d2 3f 34 0d 21 57 53 bf 7d 3f
       0.2956196110531741 0.0072625403864237555
000040 ad 00 a6 15 37 69 c8 bf 4b 98 4a 90 5b 72 37 3f
       -0.19071091229489437 0.0003577683967627184
000050 ce 51 2b f6 1a 7a 8b bf 1f 9b db 60 cf e9 b2 3f
       -0.0134164911627658 0.07388015856450324
000060 f5 0d 81 e2 32 6e 7b 3f 2a f0 25 8c 11 47 b3 bf
       0.006696890610388352 -0.07530316993319333
000070 26 3e 7e 02 5c bc c5 bf 36 21 5b 80 4a bb bb bf
       -0.1698107731030955 -0.10832658418360527
000080 27 99 ba 14 b5 82 b3 3f fe 5d cc 51 0f 87 cd 3f
       0.07621318584515234 0.23068419927652423
000090 88 f2 e9 15 9c 20 cb bf 58 3b 62 11 62 ce b4 3f
       -0.21193266935360477 0.08127415584952524
0000a0 69 f7 da 7a 35 0d da bf 8a de 8a 3f 54 a5 b3 bf
       -0.4070562076338918 -0.07674147178010507
0000b0 0a c7 dc 99 48 8f d9 3f ce d8 6d 4e cb b4 bf bf
       0.3993703367769831 -0.12385245003483478
0000c0 2c a3 dd 05 27 c3 c0 3f 38 f4 d6 71 7f de b2 bf
       0.13095557962812998 -0.07370754746712371
0000d0 bd 58 cb d7 1b cb cb bf 58 3e 40 fa ed 30 c6 bf
       -0.21713588749725501 -0.17336821288380366
0000e0 b4 ff a4 3d 58 c0 7c 3f 2b f7 a2 9e fe 72 90 3f
       0.007019371691342192 0.016063669617088976
0000f0 b1 df a5 ca 07 5e b2 3f d1 b1 2f ee e0 f7 bc 3f
       0.07174729058703978 0.11315732779593836
000100 1e 7b af ec 4a 9d cf bf 0e 49 f7 8d 1b d7 c6 3f
       -0.2469876914683135 0.17843956405574385
000110 a0 f4 94 50 27 e2 d2 bf 25 33 3f 0a d3 2a c2 bf
       -0.2950533186847881 -0.14193189621291782
000120 8e 01 d9 6b b6 4a c1 3f f7 f7 f5 46 fa 93 be bf
       0.13509254709243773 -0.11944545967523355
000130 71 8e 3b a3 35 50 c7 3f 11 a2 dc 6f 4a f7 93 bf
       0.1821353003534685 -0.019498026921754234
000140 40 e1 2a 68 f5 3d aa bf 50 1f fe 0a bd 45 af 3f
       -0.05125395676208422 0.06107893714130219
000150 bf ca 16 82 14 6b c3 3f 1a 42 64 14 2a fa 73 bf
       0.15170532562259173 -0.004877247213031422
000160 ff d9 27 06 73 01 92 bf c5 7a f0 91 e4 37 8a bf
       -0.017583653689110076 -0.012801919654575564
000170 01 9c ac f9 4e 63 a0 bf 63 bf d0 d4 5e 52 a5 bf
       -0.03200766370564879 -0.04164406154484259
000180 52 84 6d 92 0e d5 d0 3f e1 8c cd 76 63 97 c0 bf
       0.2630039625128734 -0.12962001133846626
000190 ab 50 89 e9 11 c0 95 bf 6c bc 87 85 c3 40 c4 3f
       -0.02124050128834713 0.158226432991316
0001a0 98 da 7f 74 34 9d 89 bf ff a3 c4 46 46 86 ca 3f
       -0.012506875806122239 0.20722273307299585
0001b0 31 c9 87 1c 70 0f b0 3f 5c b4 50 aa 03 33 a7 bf
       0.06273556419890693 -0.045311083355365794
0001c0 f1 23 82 5c 9f 47 d4 3f 79 19 53 4b 39 91 b1 bf
       0.316871490802952 -0.06862218941669153
0001d0 92 a1 9a 9e 72 75 ba 3f 54 96 e9 63 4d b1 d1 bf
       0.10335461017769479 -0.27644667393756106
0001e0 09 63 f4 22 18 73 cb bf 8c 2d 64 f9 1e 77 8d bf
       -0.2144498987843451 -0.01438736151296529
0001f0 1d bd f1 20 2d cd 94 bf 41 dc ac c4 5a 90 b9 3f
       -0.02031393540931702 0.09985892583505153
000200 2f 09 c5 e2 fe 25 cc bf db 16 e7 fd 2d 8d d0 bf
       -0.219909535148028 -0.25861692233261885
000210 38 18 93 9a 21 cf c1 bf 80 2c 49 82 76 31 c7 3f
       -0.13913364455783195 0.18119698869336176
000220 01 8c 14 51 cc 79 d2 3f 31 d0 d5 21 8b f6 c5 3f
       0.2886839668082644 0.17158641006574407
000230 03 e6 99 61 9d 30 c2 bf 68 65 aa d7 e4 a2 c9 bf
       -0.14210860505754405 -0.20028362780139308
000240 d1 52 d2 fe 22 98 b9 bf 2f e0 28 04 00 fc 9e bf
       -0.09997767182569396 -0.030258178953062206
000250 83 4d be 6a 9b 5c d3 bf 3b 32 e9 de a6 c8 d8 bf
       -0.30252728866727113 -0.3872468163361053
000260 eb f6 fd 0a c7 c3 b2 3f 07 ab 9c ad 66 75 b0 3f
       0.07329982775078363 0.06429139841626973
000270 ee 97 94 dc a7 d5 91 bf d8 2c 86 68 6c d4 b9 bf
       -0.017416594350969143 -0.10089757491930429
000280 7d 49 15 7a 16 e7 bd bf 35 ae 76 00 c4 b1 9e bf
       -0.11680737000032156 -0.02997499707059444
000290 09 5d ef a5 ed ad bb bf ad 53 99 1e 42 90 ce 3f
       -0.10812268544338023 0.2387774133118489
0002a0 9b 75 9b 85 c7 6d c8 3f 8e c6 d2 01 d1 2a d4 3f
       0.1908502008799758 0.315113307743652
0002b0 47 70 01 f6 56 45 c1 bf 85 4e be 32 49 29 a8 bf
       -0.1349285794448198 -0.04718998665262312
0002c0 a4 69 73 68 5d 2c c1 bf 86 2c fa 13 a7 f8 aa bf
       -0.1341664085401365 -0.05267831915724579
0002d0 ce ca 4e 44 7f 2a ce bf cd 99 36 b6 30 8b ce bf
       -0.23567190966931267 -0.23862275025494598
0002e0 df b6 ba bd 7e b8 c6 3f 98 f2 29 db c3 a0 d3 3f
       0.1775053430950981 0.30668732073517324
0002f0 c5 bd 06 ae e8 f1 c7 bf 58 6c 38 77 fa d1 ce bf
       -0.1870699739206271 -0.24078303166683912
000300 e0 99 12 11 06 e0 c1 3f d4 90 55 6c d8 1f 9c bf
       0.13964916070581435 -0.02746523057193502
000310 fe 2c a4 88 11 17 aa 3f c7 77 0d 6b 43 df 96 3f
       0.0509572486208416 0.022336057099316322
000320 be 14 dc 40 d7 51 c7 3f b0 14 9a 78 33 c8 88 bf
       0.18218508402802586 -0.012100603216149558
000330 a1 a0 b2 a5 1a ae c2 3f 7d 9b f0 16 f4 df a4 bf
       0.14593823519431218 -0.040771129417683995
000340 ad 70 0a 44 7d 46 c2 3f 5b dc 37 26 85 10 94 3f
       0.1427761633139019 0.019594269235281164
000350 c3 09 4f 99 63 7a da 3f 1f 33 55 41 c5 98 c2 3f
       0.413720035281724 0.14528718652800252
000360 c7 a3 25 3b db f1 ca 3f 19 8f 88 26 0a 2d b9 bf
       0.2105058707050189 -0.09834350052602438
000370 db ee 4a 56 aa 6f c7 bf 20 1a 62 18 3e e4 7a 3f
       -0.18309525693427173 0.006565325316961551
000380 d6 05 e1 98 ce 77 b0 bf ea 9c 9a d7 45 6a c7 3f
       -0.06432811005017611 0.18293068912064508
000390 1b c0 df d2 04 68 a9 3f e0 d6 26 f9 7a 59 b2 3f
       0.04962172578950704 0.07167786200337956
0003a0 4a 8c 65 d6 26 c2 c7 3f f3 97 6c 3d 6c c4 d3 3f
       0.18561253994548316 0.30886369703728106
0003b0 93 0e c8 3a 57 bd 7d bf 4b 2d d2 9e 60 fc b7 3f
       -0.007260647526439751 0.09369472386804494
0003c0 55 21 15 87 f0 0d c4 bf dd af b7 2a e6 be c6 bf
       -0.1566754016478266 -0.1777007778722454
0003d0 c8 12 77 62 24 40 b0 bf 3d f6 bb 5e cc f2 8f bf
       -0.06347873119291159 -0.01559981979471125
0003e0 55 3b 76 88 f3 63 a1 3f 05 0c df bc 53 bb c0 bf
       0.03396569290918331 -0.13071676943044977
0003f0 42 d0 31 ed 48 35 ca bf 3e a4 f5 d8 53 21 85 3f
       -0.204751125161808 0.01031747346742595
000400 14 c6 75 ba 73 79 72 bf d4 2a 26 8b 01 2c d4 3f
       -0.004510356964020374 0.3151859148862688
000410 72 6a 74 cd d2 db d2 3f 8a 1d 2b bf 97 a9 c8 3f
       0.29466695846500734 0.19267556032557948
000420 c7 51 f1 ba 1f 9c d7 3f 53 fb f4 a8 d4 8b b4 bf
       0.36890404945486605 -0.0802586472027376
000430 47 ff b5 50 16 b4 cd bf 03 fa 05 64 40 d7 9e bf
       -0.23205832425082404 -0.030117994408550796
000440 6e 85 d8 96 d2 bd cb bf c1 06 50 86 65 82 b1 3f
       -0.21673042645947355 0.06839594391933713
000450 f1 0b 60 88 6e 3c c5 bf b9 1b 7d 81 bf 7e c8 3f
       -0.1659067312139935 0.19136804411593092
000460 a9 75 67 3f 68 76 c9 3f 9d ba 69 99 84 eb b5 bf
       0.19892600150971632 -0.08562496896204626
000470 d3 a1 c6 08 1b 18 d1 3f b5 83 71 28 87 df d4 bf
       0.2670962892248358 -0.32614306401779497
000480 7b 69 9f 75 72 27 c4 bf 59 a2 30 43 45 b4 a3 3f
       -0.1574538301782232 0.038484730197812574
000490 60 f0 2f ee cf 25 b7 3f ef 39 47 fa 5e 08 a8 3f
       0.09042071881407443 0.04693886571077487
0004a0 51 64 d4 c1 ad bd db 3f a3 42 a9 19 d9 7b d0 3f
       0.43345207146336856 0.2575590849492448
0004b0 37 28 2e b7 fe a5 80 3f 6a 75 57 34 1f 80 af bf
       0.008129110303134108 -0.06152436746536234
0004c0 4b ef b1 7f e2 25 87 bf 1e 69 48 7d d6 42 ba 3f
       -0.011302728197044273 0.10258236464179446
0004d0 9f 32 0e ec 0b d1 c6 3f 49 09 eb e1 21 58 b4 bf
       0.1782545950521994 -0.07946979299143665
0004e0 cf f2 a9 ed 6d 95 97 3f af a6 5b 96 54 7e b4 bf
       0.0230309654530057 -0.08005264921998888
0004f0 2e 38 b5 7f 13 1d ce bf 1e 1b 19 8d 13 c1 b2 bf
       -0.23526233421074622 -0.0732586116292677
000500 63 d5 29 8c 4c 92 b6 bf 45 35 a3 dc 0a 2e d8 3f
       -0.08816984579046543 0.377810206858005
000510 e6 1b c5 b0 6f f2 b1 bf 06 87 8c 70 c6 18 d8 3f
       -0.07010553422615792 0.3765121554480263
000520 75 3f 21 95 34 c2 bc 3f db d5 3c 43 39 30 df bf
       0.112338339241658 -0.4873183399789391
000530 00 57 5f fe be 22 cf bf 3b 66 f5 45 ac 4d a0 bf
       -0.2432478658726538 -0.03184259752260884
000540 97 d8 3c e1 92 96 cb 3f ea db f1 cd 51 13 b3 3f
       0.21553264615949239 0.07451354291866577
000550 71 34 43 40 3d 50 c0 bf cd 57 7d f2 fd 88 c6 3f
       -0.1274487079412299 0.1760556634932854
000560 ac a4 06 0f 63 18 b1 3f ed f2 12 ad f1 d1 c0 3f
       0.06677836529583442 0.13140698386077734
000570 0d bf 91 03 16 cf 90 3f 61 2f d8 70 18 d5 c0 bf
       0.016414970367292493 -0.13150315771087676
000580 46 4b 1b 30 ee f7 be 3f 09 01 10 de fb 70 b6 bf
       0.12097061800458872 -0.08766149684379711
000590 34 3e a9 f0 84 d8 b0 3f 99 aa 3c a9 cb 19 d0 bf
       0.06580382228389042 -0.2515744354920258
0005a0 a4 3d 01 c0 4d b7 bb 3f f5 1d 22 74 64 78 b1 3f
       0.10826574266069727 0.06824329219136145
0005b0 a8 42 56 21 1c 78 9f 3f 4a a2 31 4a 49 50 cd 3f
       0.030731620344854577 0.22901264307735608
0005c0 d0 18 0a 7c 23 06 a4 bf f6 8a 45 cd b9 6f c3 3f
       -0.039109333888562525 0.15184710047750344
0005d0 54 2c ba d8 31 62 b1 bf 5a c0 3d d8 d0 5d b0 3f
       -0.06790458241646152 0.06393151549650736
0005e0 c1 a9 fd ec 3c 1d c2 3f e8 ad 37 e7 84 0b dd bf
       0.14151727268047234 -0.45382807330926633
0005f0 ba c8 52 c3 86 7e ad bf 60 73 f7 c6 2c 5b ce bf
       -0.05760594496077105 -0.2371574374691603
000600 da 0e 40 4d e7 5c ce bf bc 1f c4 fa 2a b8 b0 3f
       -0.2372101905058262 0.06531017896861518
000610 de a7 d0 cc 47 9f b3 3f e5 cf 16 50 37 52 b8 3f
       0.07664917707793914 0.09500451760578661
000620 fe 8a b2 ab 63 9a d5 bf bd 0d 04 ea b4 82 d6 3f
       -0.33754817740752674 0.3517277036009679
000630 f8 0a a9 58 39 88 cf bf c2 c8 cd 61 6b 8e bd bf
       -0.24634472684018482 -0.11545439851559805
000640 33 c7 0f c8 12 6e 98 bf f5 47 ee 9f 19 2c c6 bf
       -0.02385739656523995 -0.17322082814331421
000650 e3 fb 6f 57 ba c4 b8 bf 2e 56 77 5d 3b 57 a2 3f
       -0.09675182947829301 0.035821776542132575
000660 e1 55 bc ce 93 fc a8 3f 5f 9a 73 c4 19 4b cf bf
       0.04880201243046734 -0.24447939007150674
000670 ba 0f 41 e3 9d e5 9b 3f e3 d7 89 14 9f 7c b0 bf
       0.027243105884067843 -0.06440157176424992
000680 45 89 da 7d 56 a1 c3 bf 86 fb ce 6a e7 fa a7 3f
       -0.15336114068220233 0.04683612040343292
000690 43 f2 53 5f bb 1f 85 bf 19 73 d8 31 b5 56 b5 bf
       -0.010314430090596299 -0.08335430590564065
0006a0 38 dc f8 78 2b 5a ce bf 0f 14 90 39 7b 4b cd bf
       -0.23712676436272928 -0.22886600790676012
0006b0 cc dc 32 21 d9 1c c8 bf a5 b4 11 49 a0 3c c8 3f
       -0.18838037606267333 0.18935016219930847
0006c0 21 b5 78 08 1f 62 cd 3f a2 61 6d 49 e8 ac b0 3f
       0.2295569220890821 0.06513835709245666
0006d0 42 68 4b ff 4c f0 dd bf 3a 6c 14 10 5b 76 80 3f
       -0.46779179507359825 0.008038245609489281
0006e0 f5 4e b2 aa c0 1d c3 3f 7b 63 c6 b1 23 3e ab 3f
       0.14934547743597873 0.05320846123794972
0006f0 6e 3e 07 88 68 5d b9 bf 40 68 3b 68 d0 fc c5 bf
       -0.09908154793742494 -0.17177777375656156
000700 9f 81 b0 a9 c0 04 a5 3f 8f 3a ca ef d3 41 d2 3f
       0.04105188437847861 0.28526781479823965
000710 c0 c4 03 f3 2f d9 75 3f 2b 46 f4 da 3c c4 d4 3f
       0.005334079076633802 0.32447739965673134
000720 b5 18 77 8c 01 a2 c6 3f 57 4a 4d 84 17 e2 b0 bf
       0.17681903227475507 -0.065949888038895
000730 2c e8 5b 5c b4 44 b1 3f cf 34 ea bf 78 56 b5 3f
       0.06745459799631764 0.08335070310041036
000740 16 3c b4 74 54 b9 c3 bf b2 86 55 61 80 ed d0 3f
       -0.15409331987800162 0.26449594025880707
000750 e9 e5 dc d3 f9 bc af 3f fd 06 07 0c 33 2b be bf
       0.06198864661423526 -0.11784667056693006
000760 a3 7d 38 3a 74 9a c0 bf da 53 b3 e4 49 a6 8c 3f
       -0.12971356241994866 0.013989045421490976
000770 a4 74 28 f6 37 dd c2 bf af 8a 60 e1 63 9e c7 bf
       -0.14737605590281533 -0.18452118401281356
000780 37 3d 43 25 79 b2 cd 3f ee 49 c7 72 01 60 b2 bf
       0.23200907058206052 -0.07177743007859025
000790 36 a8 05 5d 3f 52 c5 3f f3 54 98 e7 ad 28 ce bf
       0.16657249490828158 -0.23561643417693964
0007a0 9b 21 46 a6 90 7f b9 bf 04 52 42 eb 5f 39 a8 bf
       -0.09960273799345602 -0.047312734096667725
0007b0 a0 2d 6c 74 fa 04 bc bf a8 db e9 1a f1 f6 c7 3f
       -0.10945096342418603 0.1872235661901105
0007c0 23 d8 68 2d 78 45 b5 3f 1b 3a ab 97 ad d0 95 3f
       0.08309126957541983 0.02130385626042584
0007d0 08 84 88 66 b9 17 c7 bf 0c 14 05 43 51 1d b3 bf
       -0.1804115057612139 -0.07466609846331113
0007e0 9a 8c 25 39 e4 8d c4 3f 8f ab d0 0a e4 1a 9c 3f
       0.1605801848446376 0.027446330223181156
0007f0 0d d2 80 83 2b dd d5 3f 60 88 25 be 95 e1 cb bf
       0.34162414400205493 -0.21782180580618427

base.actor.actor_fc1.bias f8 [64]
000000 f6 0c 70 ca f7 a2 ad 3f 56 61 6f 8d d8 29 d5 3f
       0.057883971654541996 0.33067907154101783
000010 15 9d f6 eb 36 d1 b8 bf 03 95 b4 06 a5 24 b7 bf
       -0.0969423605043754 -0.09040290273386024
000020 7d f5 a8 cb 12 15 9c bf 15 2c 74 20 b8 5c a0 bf
       -0.027424138718051595 -0.03195739170231363
000030 3b b6 6b e9 20 0c b3 3f cb 67 ac ed 5c 4e b0 3f
       0.07440381716488613 0.06369572451185872
000040 10 d2 69 19 b7 ea b8 3f 74 2c 5c 86 69 37 bd 3f
       0.09733147020762822 0.11412677316927661
000050 8c 11 ae 79 17 63 bf 3f e5 15 f9 5d fd 6c 9e 3f
       0.12260576935483963 0.0297126377684175
000060 b9 b1 8f 28 cc 6d 9d bf 11 6e aa d9 63 04 a0 3f
       -0.02873915669981539 0.031283493347668785
000070 6e 10 5c c5 c3 49 ba bf c7 52 2c 70 1d 33 c0 3f
       -0.10268806045866238 0.12655990578845985
000080 bf 87 fa d1 bb c8 c4 bf 5a 43 a5 3e 3a 23 b4 3f
       -0.16237590554106693 0.07866252927239029
000090 da 80 6f fe 28 1b ce bf 7e 5e 37 8b fb 7d 95 3f
       -0.23520386146174738 0.020988397953117126
0000a0 b2 47 54 4e f2 c8 ab bf 7a b0 b6 c7 c7 93 bd bf
       -0.05426747518698906 -0.1155361998159509
0000b0 7b 07 22 83 78 90 c3 bf a4 88 fa 08 f3 f3 bd 3f
       -0.15284639742827352 0.11700362176137219
0000c0 c3 89 11 6b 4e 8f d4 bf 8b af b6 81 a8 d6 a7 bf
       -0.32124672370823876 -0.04655958732050099
0000d0 c5 4d 89 9b a0 e2 c0 3f 92 89 cd 1b 3e b1 b8 3f
       0.1319161185698318 0.09645450762540111
0000e0 29 15 b2 7f 7b db b9 3f f5 3d a2 c8 87 f9 b1 bf
       0.10100528590745185 -0.07021378181729417
0000f0 79 77 b9 bb c0 99 c6 3f 15 d2 3e 40 02 a3 b4 3f
       0.17656716505274142 0.08061231678477328
000100 60 e7 dc 00 7f 81 c8 bf 1d 2e b9 9b 79 5c a0 3f
       -0.19145190755971964 0.03195552850646897
000110 6f dc af 65 72 f5 ca 3f 7b ce 41 b8 b8 40 b8 3f
       0.21061544385131323 0.09473757265532783
000120 a0 69 be d1 a0 1a c0 bf 02 a2 0e a8 e5 6e ca 3f
       -0.12581262818714567 0.20650931077877038
000130 e0 53 60 af 97 e7 9d bf 3f e5 ed ab 81 53 a4 bf
       -0.029203767851942675 -0.03969960426088414
000140 95 dc 06 da f2 8a ca 3f 10 cb 35 3b 3c 1f ae bf
       0.2073653759559632 -0.05883205626277832
000150 a0 4b 07 e7 e2 ce c0 bf 93 43 f1 ab 18 cf be bf
       -0.13131366997421612 -0.12034753988088047
000160 f7 7d 48 cc f8 af ab bf f1 74 1c c0 d5 02 93 bf
       -0.05407693380061212 -0.018565502024206763
000170 70 c0 bb ec 52 1b bb 3f f5 41 98 b9 9f 33 c4 bf
       0.10588568000435017 -0.15782543718570677
000180 f4 5c 5e 0f d5 f6 ca 3f 3f 3e 66 c2 46 c2 9f 3f
       0.2106577229539891 0.031014543166348437
000190 31 9c 79 19 e1 52 76 3f c2 ac 1e ce 37 35 4c 3f
       0.005450133604973082 0.0008608362661467683
0001a0 3c 50 fd db 8e bf 9e bf 20 f9 b2 40 db 38 a0 3f
       -0.030027610947698444 0.031683780334321066
0001b0 87 0a db 9c 50 67 b7 3f ce 33 0c ec 74 0d b1 3f
       0.09142021016581668 0.06661158335573633
0001c0 72 b0 d6 1a 4c bb b1 bf fe 8e a2 44 f7 db ba 3f
       -0.06926417975654589 0.10491891313227694
0001d0 f2 c1 53 42 85 1b b3 bf 22 20 6b 47 f1 36 ca 3f
       -0.0746386801654422 0.20480171191434332
0001e0 96 a1 4e ff eb 1c c9 bf 2d d9 8d 4f 1d 83 ad bf
       -0.196195125257202 -0.057640949212258576
0001f0 d1 1b b5 b5 77 09 c8 bf d8 01 09 b3 d5 3c c4 3f
       -0.18778892872270928 0.15810652963592875

base.actor.actor_fc2.weight f8 [64, 64]
000000 fb 34 c5 55 ff 7b b4 bf f0 4f 4d 8f 2d 67 ca bf
       -0.08001705020906862 -0.20627374169509904
000010 31 a7 25 13 f7 59 a8 3f 7b 00 ef b8 89 d0 d2 3f
       0.04756137951592477 0.2939781480781744
000020 b6 8b 40 fa c6 4d b2 3f f2 a0 89 ab be 7c 9b bf
       0.07149928674384295 -0.02684305116636749
000030 42 20 14 fe 77 5d b6 bf c1 53 0a 4e 77 16 b9 3f
       -0.08736371949282876 0.09799905448228598
000040 11 de 65 36 c1 3f cf 3f 00 80 ce c1 7f 74 b7 3f
       0.24413314014576362 0.09162138444526136
000050 c1 aa dd 88 6e 9d a5 3f d3 63 60 61 e8 a4 a4 bf
       0.04221673413015515 -0.04032064617803823
000060 4d e2 c3 c3 31 08 a4 bf 20 1e 10 f3 17 f6 ad 3f
       -0.03912501826011248 0.05851816980435509
000070 3c be 29 85 8a 1f d1 3f e2 6e ff 00 58 b9 c9 3f
       0.26755011562542896 0.20096874283523564
000080 1a 82 1a 66 02 05 c5 3f 6f 31 13 f1 97 6e bf 3f
       0.16421537385487356 0.12278127322787723
000090 49 e5 74 31 70 ec 9e 3f d1 ce 84 06 b0 b1 c2 3f
       0.030198815363495588 0.14604759519862978
0000a0 e9 f3 10 1d ba 0d a5 3f 2a a6 21 19 03 22 d2 3f
       0.04112035374462392 0.2833259339737163
0000b0 67 f4 5e 10 b3 44 cc bf 6e ce e9 19 f8 fc c1 3f
       -0.22084654139863177 0.14053250565813208
0000c0 0c 2f 8c d3 14 c4 c3 3f f6 fa fc 31 45 47 c6 bf
       0.15442142800781544 -0.1740499967654256
0000d0 6a 6d fc a2 8d 3b b5 3f f4 51 4d 50 34 9e d1 3f
       0.08293996075774648 0.27528102724070824
0000e0 79 cd 5d 79 7e 9f b3 3f 53 76 a4 b4 79 e1 ce bf
       0.07665243590400007 -0.24125596352034737
0000f0 97 2c 99 30 0e ea 92 bf 30 97 32 5d 16 c7 b2 3f
       -0.018470975605208464 0.07335033202488428
000100 b3 0f c3 66 7b 6f c9 3f 77 f3 20 9b a5 25 ce 3f
       0.19871466176675553 0.235523892160838
000110 1a 25 d5 b1 c1 a1 bf bf d0 83 47 7d fb 39 ad bf
       -0.12356196014038226 -0.057082995455637
000120 a2 94 58 1d 71 a7 cd bf 8d 1c e3 f3 0a 6c cb bf
       -0.23167241986189874 -0.21423470409920178
000130 18 04 fc 2f eb be d7 bf 14 22 d0 91 94 a8 99 bf
       -0.3710277527425787 -0.025057145499916514
000140 cf c1 09 c5 c6 0a c9 bf 7f e5 72 42 a8 8f 9d 3f
       -0.19564137097360265 0.028868321471894994
000150 25 ff 9b a6 54 88 ba bf 7f 7e a7 76 8b 1e cd bf
       -0.10364274089442611 -0.2274946526876995
000160 60 74 5d f9 b7 93 c8 3f 83 c3 79 65 79 5c ac 3f
       0.19200801540401624 0.055393022191203144
000170 c7 c1 9a 2a 0f d7 d1 3f 0e d0 8e 96 a3 8a 8a bf
       0.27875117455098714 -0.012959745437775918
000180 2d 95 98 3d e0 a5 c8 bf 36 0a 88 a3 95 be d0 3f
       -0.19256213195436925 0.261632356356276
000190 63 20 c0 61 e7 89 c1 3f 25 af c5 06 6d 45 cd bf
       0.1370209910676322 -0.22868120985673915
0001a0 55 53 ca 55 f3 30 ac 3f 92 2d 37 4a 53 f8 a0 3f
       0.05506096288914956 0.03314457207633405
0001b0 68 4c 2c 47 b6 c2 c0 3f 50 06 02 0e 08 3a c7 bf
       0.13094213938947807 -0.18145847972850726
0001c0 96 15 37 6b f3 84 a2 bf 77 13 db 28 c7 13 b5 bf
       -0.036170584523954094 -0.08233303782897204
0001d0 d2 7c 0a 41 ad 34 af 3f 79 36 ec c6 12 cb b1 3f
       0.06094876688916319 0.06950490337859518
0001e0 71 20 37 c4 9a 58 c7 bf bf fc b8 f4 da a5 a5 bf
       -0.18239149647547806 -0.04228100049339777
0001f0 0e e2 02 0c b3 2a bb 3f ee 9b c2 2b 22 a5 b9 3f
       0.10612029116862962 0.10017598694194849
000200 38 82 33 14 24 24 93 bf af ff bf 94 51 21 ba 3f
       -0.01869255421923041 0.10207090264884643
000210 55 f9 dc a9 e5 20 d2 3f bd de 13 d7 80 2a 8d bf
       0.2832578810520279 -0.014241224826477045
000220 f3 c2 5b dc 62 36 c3 bf 19 d6 2b 37 8e ad a6 3f
       -0.15009723434152242 0.04429287360646245
000230 ad 3d 39 70 ad a1 d1 bf 9c 63 0c 9e e4 4b b3 3f
       -0.2754930110868042 0.0753767858372058
000240 ff ab 3f cd 7b a3 a9 bf af c9 40 cf 1f 5d d1 bf
       -0.05007540588834302 -0.27130885352667183
000250 a5 04 7b 15 b3 66 c5 3f 98 bc 33 15 09 db c2 3f
       0.16719664143423532 0.1473094323659765
000260 db 4f 92 31 25 fc 9a bf 4a 14 d1 85 31 9d b5 3f
       -0.02635248293934454 0.08442983166703857
000270 5a ff 33 5a 41 74 a0 3f 92 2a e3 86 4c f3 be bf
       0.032136957417604875 -0.12089994710110322
000280 41 67 fd 7f fc b8 b8 3f 47 d4 f5 4f a6 59 bc 3f
       0.09657266735794413 0.11074294521479643
000290 3e 21 6f 7d 1f b8 c5 3f 97 60 d3 4d 72 68 8f bf
       0.169681488272781 -0.015335934639026312
0002a0 e2 82 0e fd 0b 81 ae 3f 14 70 88 84 01 a0 b3 bf
       0.059578299179752894 -0.0766602467123792
0002b0 25 b2 95 2e e5 ad bc bf c9 de 9f 7b 2a 96 ce 3f
       -0.11202843081782328 0.23895770107605177
0002c0 e6 3f 4d 45 61 2b b5 bf 12 0b 2c 28 04 6b cb bf
       -0.08269317571580323 -0.2142033764030989
0002d0 04 85 0d 40 6a 0a cb bf 1f 81 b5 1e 5f 86 92 3f
       -0.21125534179285677 0.01809071183140631
0002e0 0a 96 9c f0 93 68 ac bf 34 86 cf 29 1d 83 c5 3f
       -0.05548536598352534 0.16806377927336913
0002f0 50 94 d5 ff 6c 89 7a bf db b3 dc 50 81 eb b5 3f
       -0.006478715685578854 0.08562477325604283
000300 39 f0 03 21 08 78 a5 bf a7 e3 21 af 79 f7 b9 bf
       -0.041931394605825685 -0.10143242383664007
000310 22 52 f7 b6 b9 ed d0 3f f6 ad fe d8 82 cf b1 bf
       0.2645096098688403 -0.06957261846280702
000320 74 90 77 f0 04 07 b3 3f f3 22 3f dc 2d 74 d2 bf
       0.07432585593011415 -0.2883410120817153
000330 d7 51 0d f8 bb 9d c9 3f a1 ba 71 74 f8 38 b6 bf
       0.20012616741099862 -0.0868068012511949
000340 a8 9b 73 61 34 b4 cb 3f a8 be b8 e7 5b 0b bb 3f
       0.2164369083249913 0.10564207465426512
000350 d0 25 f2 dc 2e ee b8 bf 16 45 4e 12 3b d8 51 3f
       -0.09738438505350833 0.00108915108396374
000360 54 3f 26 5f 2b 76 9f bf f3 1e 5e 63 33 6b c1 bf
       -0.03072421806569932 -0.13608400680481444
000370 7a 22 27 c9 5f 89 d6 bf 61 f8 6f cd 68 e0 bb bf
       -0.35213465350947326 -0.10889296546517492
000380 07 ec 81 55 e5 1a a9 bf 21 95 75 f1 16 ae 9c bf
       -0.049033323944023315 -0.028007849204546468
000390 99 98 4e 6c c6 34 c0 bf 5a 49 a3 42 7f b2 c3 3f
       -0.12661056793621553 0.15388479951668438
0003a0 cc 5b 26 9e 27 ee b3 3f 35 98 38 d9 2c 58 cd 3f
       0.07785270320014986 0.22925339323518448
0003b0 f4 3f e2 54 8b 5b d6 3f c1 e1 67 06 28 09 d1 bf
       0.3493374184554334 -0.2661838591152695
0003c0 fa d3 7d 07 4b 04 d0 bf 26 14 56 88 02 26 bf 3f
       -0.25026202899545036 0.12167373493692021
0003d0 06 fa a3 14 b4 38 d0 3f 5f ea 55 67 26 6c 98 bf
       0.25346090331723337 -0.023850059563736866
0003e0 ea 79 7c e5 52 3a d2 bf 65 98 ea af 9c d1 c2 3f
       -0.2848098031116978 0.14702185239474655
0003f0 41 0c 4e ee 9b 7e 86 bf 1f 73 fa 1b 7d 2e b3 3f
       -0.010983675203311562 0.07492811139168197
000400 42 d8 76 27 18 2e d0 bf 6a 05 f3 77 44 86 c6 3f
       -0.25281337598733356 0.17597251755618554
000410 ba 69 9c 07 93 85 80 bf 0c e3 18 22 8d a1 ab 3f
       -0.008067272825020722 0.05396691361642611
000420 15 6b c3 fe 0c e1 c8 3f d2 87 ba 22 66 37 a6 3f
       0.19436800422303038 0.04339141057904751
000430 b5 e6 86 d9 64 9b c0 bf e8 aa c3 9b 70 48 bd bf
       -0.12974224683221328 -0.11438659479942326
000440 2c f2 53 d3 f6 d3 a5 bf a7 44 88 16 6c 0e d4 bf
       -0.04263278321920824 -0.31338026237888034
000450 f2 f9 6a 8a 12 5c ad bf 8c 26 51 98 ff 79 ad bf
       -0.0573430818526396 -0.05757139906252204
000460 54 60 26 f5 88 84 c2 bf 65 b6 4f a6 f9 79 b5 3f
       -0.14466964693270035 0.0838924437554965
000470 a7 4f 97 35 0e 07 b7 3f fc 54 1a 85 6f 83 ac 3f
       0.08995140846610515 0.05569027423659098
000480 b2 5b 64 91 48 f7 c1 3f 50 fd d0 74 b6 ec b2 3f
       0.1403589925691598 0.07392444946252863
000490 d3 3a e1 f7 7f 0a cd 3f ae d0 de a8 b6 d1 cf 3f
       0.2268829307890515 0.24858744855521792
0004a0 13 b4 13 12 ae 49 ba 3f 5a f5 90 af 5e b3 c2 3f
       0.10268676701862516 0.14609893391199585
0004b0 87 f3 54 08 8f 5c a0 3f 92 db 97 67 95 ee b0 3f
       0.031956166998930384 0.0661404970086166
0004c0 c8 04 d2 a8 22 2b c3 bf 70 57 99 02 59 be c3 3f
       -0.14975388758833774 0.15424645068076925
0004d0 ab 7b 0d b3 e8 7d bb 3f bb 4b 06 6b 8b a5 c5 bf
       0.10738996859934839 -0.16911452031908233
0004e0 1c 35 bf 27 38 c5 b3 3f 6d 1b 1c 56 01 ab d7 bf
       0.0772280785597172 -0.36981233033332367
0004f0 0d 77 c1 fd 4c 57 97 bf 2e 8c 46 c0 5c 60 cb 3f
       -0.022793963420887176 0.21387824428993113
000500 d7 2c 7d 32 14 a6 c5 3f 6a e9 e2 d0 2c 79 c2 3f
       0.16913082566529766 0.1443229694321631
000510 64 fe 52 fd 41 a8 b0 bf cd 1d c7 78 95 84 cc bf
       -0.06506740984604559 -0.22279613873818818
000520 df 13 b3 e1 af 4a c3 3f f0 7f 3f 37 5e bd b1 3f
       0.15071676750645133 0.06929577683285948
000530 ef 3d 03 b5 37 78 c6 bf 03 77 c4 8a e4 dc aa 3f
       -0.17554375017651533 0.052466527881035695
000540 e8 0e a3 5b f2 01 95 3f 80 51 69 db 8c ff c2 bf
       0.020515238612246828 -0.148423773893807
000550 92 25 51 d8 09 c0 ba bf 24 bd 08 5b 03 b5 a5 bf
       -0.10449277430702456 -0.04239664541489166
000560 37 df 7b 27 15 7d c6 3f 35 66 e7 7c c3 a2 cb bf
       0.1756922190468175 -0.2159046516306248
000570 fe 52 3b e7 6b 6a b0 3f 73 11 c6 27 26 55 b6 3f
       0.06412386317544969 0.08723677130735101
000580 02 01 0b d1 63 7b cf 3f 5b a0 1c 13 d0 67 a7 3f
       0.24595306117226562 0.04571390374468428
000590 52 6d 05 fd 81 99 b6 bf 87 64 97 52 52 03 a9 bf
       -0.08827984263682723 -0.04885346658893135
0005a0 eb b8 dd 58 ed 20 c4 3f 49 c9 1a a5 86 5c af bf
       0.1572548564831274 -0.06125279202878404
0005b0 bc d1 80 ea 4e bf bb bf e3 e4 f3 22 b0 72 c8 bf
       -0.10838788247276104 -0.19100000101733547
0005c0 31 62 63 4c 29 4c d9 3f 36 79 ef 69 b9 e4 86 bf
       0.3952735181788141 -0.011178444428818862
0005d0 5b f6 23 2a 15 b8 b4 bf 60 fc 33 d8 34 f8 81 bf
       -0.08093387869663486 -0.008774197433466024
0005e0 a5 8f eb 50 4f 07 d4 3f 00 47 8f 89 04 80 bb bf
       0.3129461565242713 -0.10742214544668727
0005f0 c9 23 b8 e3 6a 3c a5 bf 5d c9 cf 28 10 d9 72 3f
       -0.04147657422806323 0.00460153877519284
000600 dc 96 45 c3 bd f3 71 bf f9 45 4f 76 8e 2b 80 3f
       -0.004382840405332291 0.007895577416920029
000610 91 ec 91 60 f3 ef b6 bf 3c d1 cb bd 4a 0b d7 3f
       -0.0895988569990769 0.3600642064550532
000620 bb 5e 3c 29 93 c4 87 bf 34 ad e5 6c ba 0b a9 3f
       -0.011605405517499326 0.04891760424910743
000630 c6 a3 4f 6e c5 24 ba 3f e6 a1 1b 69 08 b2 82 3f
       0.10212358420507348 0.00912863322032904
000640 7f 56 c4 fb 8b 41 9b bf 78 d7 8f 3e 4c c0 d2 bf
       -0.026617228738436523 -0.2929869280773043
000650 7d b4 bd 85 e4 f4 c2 bf ee 6c c8 01 85 d3 bb 3f
       -0.14809853105854023 0.10869628232505921
000660 33 d6 46 6c fb 69 a3 3f 3f c2 39 45 30 88 cb bf
       0.03791795441376813 -0.21509364490658986
000670 35 c6 e8 90 e6 55 c5 3f 5d c7 4a c3 99 e7 9d bf
       0.16668397975586094 -0.029203798813518634
000680 9e be bf b1 00 d2 b0 bf 93 30 d9 db b4 e3 9c bf
       -0.06570438708853962 -0.028212381285172738
000690 33 aa b3 d1 d7 fe ca bf 97 70 28 08 8b ec ab 3f
       -0.2109021924910209 0.05453905558189936
0006a0 a8 2b aa 47 bb 33 b0 bf 13 6d e9 ee 1f 98 c1 bf
       -0.0632893609965054 -0.137454978614962
0006b0 38 fd 43 6f 20 1a b6 bf 8e 71 07 ff 3d f8 c3 3f
       -0.08633616177029502 0.15601324989883064
0006c0 86 40 75 05 73 c7 ca 3f 30 ff 84 72 ec 62 bb bf
       0.20921170965676 -0.10697820468794528
0006d0 02 79 f7 bf 70 1d 8c 3f 49 34 dd 47 86 31 ab 3f
       0.013728028162344422 0.05311221720931109
0006e0 5b 43 ba c7 e2 6d bb bf cc 66 a7 5a 0d c3 c3 3f
       -0.10714547516023513 0.15439001966915666
0006f0 da aa b9 db bb 51 bb 3f 2c ab 05 ff e1 16 c4 3f
       0.10671590914140996 0.15694832756283839
000700 77 8a ab 9f 07 3c 75 bf 74 23 4a fc 01 b9 7c 3f
       -0.0051842019845219555 0.007012374645122377
000710 b6 ee dd 16 ce b0 d1 3f 73 e4 6a c0 df 19 a9 3f
       0.27641632302377717 0.04902552818152452
000720 f1 17 86 6d 0d e3 cb 3f ea 44 de 82 5e 5e b3 3f
       0.21786659095613417 0.07565870947862022
000730 4b db 34 e5 81 5e a9 3f 09 4d a8 c3 eb f5 b5 bf
       0.049549159268670616 -0.08578370596687902
000740 f2 12 21 08 c8 64 c7 bf dc 78 d3 ee f6 1f c1 bf
       -0.18276310345586172 -0.1337879816191564
000750 f7 6a 80 88 c9 7b c2 3f fe 21 24 a1 89 d2 cd bf
       0.14440268674010046 -0.23298759811611086
000760 33 a9 51 a2 cf 73 a8 3f 21 25 a9 6d a5 18 74 3f
       0.04775856834824523 0.004906316952266538
000770 ee 1a 89 d0 a9 4f a7 3f 2c 53 e4 04 94 c9 b1 3f
       0.045529658037187434 0.06948208922797211
000780 e5 30 97 19 58 b6 d1 bf 02 db 47 04 1f 19 d1 bf
       -0.27675440310555494 -0.26715827386890123
000790 70 f0 ae 81 7f 7d 74 bf f9 ed f6 5b d1 78 c0 bf
       -0.005002496788559893 -0.12868706694085555
0007a0 cc d2 25 92 aa 2f cc bf 04 d0 99 65 ac 76 ce 3f
       -0.220204659806447 0.23799662552812617
0007b0 83 0a 8e c3 2f 6d d0 3f 7e ce 7b 87 c5 53 c2 bf
       0.2566642198291122 -0.1431815063038932
0007c0 d1 89 c3 b8 53 fa d4 3f 19 be 47 32 fe cb b6 bf
       0.3277787498792835 -0.08905018546624212
0007d0 3b 84 f4 3e 95 1a ce 3f ec 87 05 33 85 86 cc 3f
       0.23518624853116585 0.22285523406304664
0007e0 2e 0c 06 03 bb 3d bb bf 13 07 22 74 3c c5 b0 3f
       -0.10641068290537767 0.06550958476330164
0007f0 de 7f 25 86 0b ae b3 3f 1c eb a6 9a 0f 0b 64 bf
       0.07687446618137936 -0.0024466805236590516

base.actor.actor_fc2.bias f8 [64]
000000 4d 42 fd 37 a8 46 95 3f a8 c5 8f ba cc d3 b9 3f
       0.020777347962680093 0.10088805727698136
000010 bc e4 09 92 93 92 8f bf 06 ee 97 09 32 ba 97 3f
       -0.01541629113602238 0.023171216807879723
000020 20 7f fe d3 be 83 bf 3f e9 6c bd 6e 1a 92 95 bf
       0.12310402560842393 -0.021065152176885347
000030 d7 22 90 9a f1 5e b3 3f c3 e2 2c ab 9b 25 a4 3f
       0.075667476878276 0.03934942688505807
000040 9a 07 6b 3d 17 ef b4 3f 20 5c 62 fc 71 4a a5 3f
       0.08177323579277954 0.0415835972391323
000050 26 98 e9 06 79 c6 bf bf 45 3a d1 60 29 41 b0 3f
       -0.12412220400582949 0.06349428762153149
000060 96 a8 a5 a7 e2 83 9b 3f 8a 9c f4 6c 79 44 c1 3f
       0.026870290262572448 0.13490217037290037
000070 12 2e 8f 36 79 7f a0 bf 04 8b e6 9f 04 c2 95 bf
       -0.03222254553801575 -0.021247932681613527
000080 47 1e b2 97 c7 97 ac bf 58 88 7f 73 70 6f c3 bf
       -0.05584548689608631 -0.15183835639533316
000090 c5 85 db 82 47 7c a4 bf 1e 80 17 28 d8 3c c6 bf
       -0.040010676120583656 -0.17373182256324154
0000a0 6e f1 8e b1 ef b4 b7 3f 22 6a 11 9c 26 27 b7 3f
       0.09260461888238122 0.09044114408735784
0000b0 f9 30 9b 42 60 dc c4 bf 19 57 27 1b 13 90 b2 3f
       -0.16297534229523317 0.07251090443545784
0000c0 67 49 e2 c8 31 74 a7 bf 51 bb 71 85 6d da 9f 3f
       -0.04580836846538965 0.031106673497954877
0000d0 1a ce a8 87 a9 89 c5 bf 55 72 3a f4 2b 05 99 bf
       -0.16826361774438753 -0.024433790952217944
0000e0 41 82 ca 27 9a 41 bb 3f 36 2c df a0 f2 70 a3 bf
       0.1064697596689337 -0.03797109807745651
0000f0 c3 d9 cd 1f 22 5f b9 bf 58 3d 13 72 df d3 a2 3f
       -0.09910786892382988 0.03677271144408206
000100 c0 f2 60 07 2a 43 a9 3f 65 ce c4 dc a3 d4 ac 3f
       0.04934054699012824 0.05630981512004211
000110 13 b1 48 71 6a 78 c6 bf 57 ef ce 98 fb 09 9a 3f
       -0.17554979831164327 0.025428706361466293
000120 69 b3 b0 9e 12 06 9a 3f 79 55 f1 bb d5 8d c8 bf
       0.02541379064148278 -0.1918284576119438
000130 e4 87 65 3d 06 73 ad 3f 8b 45 b1 47 70 07 d0 bf
       0.05751819133253358 -0.2504540157434227
000140 ce 8e 95 05 24 f2 b1 bf a6 28 d3 57 94 e0 c8 bf
       -0.07010102402051219 -0.1943536213714811
000150 89 de 39 6a 23 83 af 3f 3d 10 90 8c a0 45 bd bf
       0.061547381131217334 -0.1143436759157916
000160 2d 3a 88 24 da e8 b3 3f ef 04 32 cc 79 6d c4 3f
       0.07777179138086217 0.15959093542554778
000170 5e 94 72 39 e0 c1 af 3f 69 e0 e5 77 a3 24 c1 3f
       0.06202603055252419 0.13393061975853307
000180 3d fd 23 ea 6c b7 c4 bf c1 de db 2b 57 5c cd 3f
       -0.1618477004303517 0.2293805088190677
000190 e5 42 a4 72 54 03 92 bf 87 67 74 a9 13 a0 9c 3f
       -0.0175908274623592 0.027954394548124675
0001a0 d6 f4 2d 84 03 9c ca bf 30 dc af 7d 7d e2 b8 bf
       -0.20788616136625276 -0.09720596617249622
0001b0 47 9a a9 d1 f9 45 a0 bf 2a d1 66 70 e3 79 a1 bf
       -0.0317838734088594 -0.03413305995073508
0001c0 57 e6 08 a8 db 87 93 3f 62 6d f4 8b 9f e2 bd bf
       0.019072944766071433 -0.11673924605240907
0001d0 75 e4 7a 73 74 53 c1 3f 59 f1 ce 36 af 12 ad bf
       0.13535934103655092 -0.0567831758885144
0001e0 12 fb 78 ee 90 5e a8 bf d3 9c d9 b6 53 eb 86 3f
       -0.047596482382223596 0.011191038148537313
0001f0 9e 29 19 37 19 83 7c bf c7 e4 8d 7e b9 72 b0 bf
       -0.006960962769492344 -0.06425055827812108

base.actor.actor_fc3.weight f8 [8, 64]
000000 2c a1 66 78 a7 c7 a3 3f 18 ab fa 94 87 2f 97 3f
       0.03863261551606664 0.02264224859997474
000010 df ca 3a f1 e8 8d bc bf 93 10 af 12 31 98 a1 3f
       -0.11154037370105695 0.03436425545763302
000020 8d 4c 1c ba af ee 4e bf fe 3f c7 45 70 9e 9d 3f
       -0.0009439809839214705 0.028924707659655262
000030 e2 84 68 a1 28 bd b7 bf 6f 62 09 f4 e3 3a 9e bf
       -0.09273008289939669 -0.029521524209800306
000040 cb ff fb cc 14 03 a4 3f 2c bc eb a9 b9 e6 54 bf
       0.03908600809336312 -0.0012757123110380781
000050 e5 1e 3a a3 00 3b 96 3f e6 4e e4 93 22 6c 9d bf
       0.021709451639735717 -0.02873281505260552
000060 96 f9 2f 4a 55 4b a4 bf 54 02 a3 98 dd 98 a6 bf
       -0.039637246423797 -0.04413502205125455
000070 e9 30 90 bc d3 22 5b bf 62 84 27 84 43 1b 9f bf
       -0.0016562526454917909 -0.030377440396368256
000080 2f 84 bd da ae 0f ad bf 0e 16 0b 5d 15 89 a3 bf
       -0.05676027698678642 -0.03815523873121772
000090 2e 1b 25 3e 67 c3 aa 3f fd 08 7b 3b e8 90 b2 3f
       0.05227205880742357 0.07252360775149565
0000a0 0b ce 7f ff 29 59 b2 bf 78 30 56 9e 6a bb 99 3f
       -0.07167303550505026 0.025128999628166032
0000b0 d8 14 22 16 04 6f bd bf 78 b5 8f c4 4a c6 c5 bf
       -0.11497521915778763 -0.17011389348719397
0000c0 e1 6a 67 c1 dd c8 b4 bf d7 bd b4 42 da ed a5 bf
       -0.08118997546936725 -0.042830296175789755
0000d0 76 5a 9a 01 e9 1a 98 3f af 27 51 ee 2a e8 98 3f
       0.02354015419276797 0.024323149486270953
0000e0 54 6e 42 b6 da fe b1 bf d5 77 45 f6 b4 40 bb 3f
       -0.0702950186700318 0.10645609867557877
0000f0 fe de 94 f0 33 c4 a1 bf 0c ae ed 49 70 19 8c 3f
       -0.03470003425394273 0.013720395332447864
000100 3d fd 95 16 72 5c bf 3f 0a 2a 82 62 1e 0a b1 3f
       0.12250435878194295 0.066560648965755
000110 e9 e4 3e b1 aa d5 45 bf d9 69 7d 90 8c d2 bb bf
       -0.0006663402041261732 -0.10868147399506912
000120 c6 c6 a2 28 62 05 79 bf 69 7e ec 5b e3 ec a0 bf
       -0.00610864966636066 -0.03305731293789622
000130 c9 ec 76 cb d3 ac ac 3f 47 85 22 ac 77 d9 d0 bf
       0.05600606783578994 -0.2632731610302312
000140 d2 47 34 b3 18 1c c7 3f f8 22 7e d2 e9 a2 a5 bf
       0.1805449366589174 -0.0422585553597567
000150 5a a8 6d d7 36 73 b5 bf 5a d9 04 19 28 47 91 bf
       -0.08378927955132678 -0.016873003508601193
000160 88 a9 2e 4d 4e f4 a7 3f af b8 3c 8e a1 83 9c bf
       0.04678578083197055 -0.027845882708043387
000170 59 f5 33 a3 40 ea b9 3f 44 3c 7c e9 7b 65 60 bf
       0.10123065933654142 -0.002001516357160978
000180 78 e3 36 12 7d a2 a1 bf 6a e5 96 0c 6a 81 af 3f
       -0.03444281432479718 0.06153422740630783
000190 cd bf 67 78 a3 85 ae 3f 58 4b d3 45 c0 f8 a0 3f
       0.05961333126822375 0.03314782001839117
0001a0 b9 a5 8b b1 b7 68 b2 bf 6e df 0b c8 63 a2 94 bf
       -0.07191036305052635 -0.02015071781622118
0001b0 5d 6d f9 85 36 cb 9e bf 3d ed 0c dc d0 e7 8b 3f
       -0.030072071005958424 0.013625747409256145
0001c0 c9 f5 04 c8 8c b4 89 3f 52 88 1a 31 9e f9 99 3f
       0.012551402906519809 0.02536627936081743
0001d0 6a 9a 7e ce 7e 41 b1 3f 07 77 96 27 f4 7f a8 3f
       0.06740562955256171 0.04785120948075244
0001e0 cc dc ec 71 3c e9 7c 3f 71 c5 46 91 c3 4e 9b bf
       0.007058368790971058 -0.026667648069353903
0001f0 0b 70 ed 97 35 10 97 3f 3d 25 fb 2b 4e 4f be 3f
       0.022522771261137147 0.11839760373836312
000200 e0 28 04 69 b8 90 ac 3f e2 fd c2 a2 83 99 a5 bf
       0.055791628665319726 -0.04218684541546815
000210 b4 f4 0a e3 6e 40 b2 3f 39 22 98 3e b9 31 98 bf
       0.07129567187344571 -0.023627180524302658
000220 2e 05 2b ef d6 1d 8a 3f 1a 37 19 ac b5 9f a7 bf
       0.012752226995305618 -0.04614036298572284
000230 a0 34 0d ec 56 ed a3 bf 7c a7 55 19 ba 14 a6 bf
       -0.03892013198365274 -0.043126884071923194
000240 0c 4c 33 3a 8c 7c 95 3f a8 10 7b 99 93 27 b7 3f
       0.020982924511212572 0.09044764039123498
000250 49 d8 05 3d c1 fe 95 3f 75 a2 c7 64 dd ce b4 bf
       0.021479625081575447 -0.08128150663800134
000260 c1 6a 23 25 d2 31 a8 3f d8 3a 80 71 d8 24 a8 bf
       0.047255103143205364 -0.0471561087180043
000270 c8 93 ba 9f d6 58 89 3f f6 3d e0 55 da e5 a8 bf
       0.012376477002655664 -0.048628638251212594
000280 c7 ff d2 54 a1 7d 8b 3f cf 9c 8c 52 8c b5 a7 bf
       0.01342321434128725 -0.046306977345290094
000290 f4 b1 32 5b 4d 31 a7 3f ac ec 5f 12 eb 93 b1 3f
       0.045298020727702865 0.06866330336190413
0002a0 d1 df 9e 58 1b 27 a0 bf 29 1d eb 1d 04 20 a2 bf
       -0.0315483613662192 -0.03540051331725131
0002b0 77 80 15 d4 bd 37 a1 3f e4 16 a3 1f cf b6 93 bf
       0.033628399027976145 -0.019252048784230605
0002c0 81 70 52 63 34 70 b3 3f f6 df 97 fb 9f 04 a2 bf
       0.0759308569417403 -0.03519153543669511
0002d0 dd 02 ea 1d 94 87 a9 bf ca 69 5f e1 09 04 a0 bf
       -0.04986250748789243 -0.03128081203586282
0002e0 cf f3 2e ed c7 ec b2 3f 89 aa d7 c9 8e f1 91 3f
       0.07392549076662579 0.0175230322546818
0002f0 02 02 d6 11 5b 4d af 3f e5 96 05 f4 c9 41 ae 3f
       0.0611370524666235 0.05909567931921148
000300 fc ec 26 e0 35 bd 80 3f 23 94 ff 0a 8f a1 ac 3f
       0.008173390296056564 0.05592009553200963
000310 d1 7f 65 9a df 9a aa 3f 50 a1 14 1b 5f 1b 8a 3f
       0.05196284064982105 0.012747519506391441
000320 82 ba 96 22 39 30 96 3f ed 00 82 a9 b6 02 8a 3f
       0.021668331848270224 0.012700488136261312
000330 1f 58 74 82 8a c6 60 3f 46 28 45 00 1e e3 93 bf
       0.002047796751536004 -0.019421070829857244
000340 37 9d d1 61 dc dc b6 3f 08 77 de 97 b1 9f a8 3f
       0.08930756939081595 0.04809336642141032
000350 16 eb 5d 5d c6 2d ba bf c7 d6 f8 c8 48 be 80 bf
       -0.10226096896614609 -0.008175438531093161
000360 83 ce 79 97 3c 34 71 bf 2b 6b 69 80 56 7a a1 3f
       -0.004200207411134141 0.034136489081637876
000370 d9 e7 cf 94 b1 42 93 3f 17 43 2f c5 cc b7 98 3f
       0.01880910368706865 0.02413864091414827
000380 04 3d 5e a9 dd 4e af bf 7b b3 16 db e1 57 87 bf
       -0.061148573803729206 -0.011398090838008681
000390 53 25 26 61 a0 f5 9e bf 31 2f 15 be a9 d4 b5 3f
       -0.0302338656706856 0.08527623072330638
0003a0 26 e1 a6 ad 11 66 99 bf 74 92 c0 cb 28 c9 af bf
       -0.024803425048703386 -0.06208159911355873
0003b0 a1 63 cb 29 4b 83 95 3f 98 0b 8e af 8a c4 b6 3f
       0.021008657861645855 0.08893648897178108
0003c0 57 fc 10 18 aa 1a a6 bf 21 11 f3 9f 1a eb 7f bf
       -0.043172183454310335 -0.007792572024474504
0003d0 94 41 b8 1b ec 63 af 3f b2 7c 96 fe ec f2 98 3f
       0.06130922163368094 0.024364188231285673
0003e0 c0 85 59 83 05 34 a0 3f 07 f0 d1 1c bd dc 75 3f
       0.0316468928183542 0.005337465973862982
0003f0 b6 03 cb 49 03 df 8a bf c5 61 72 d3 da 4a b5 3f
       -0.013120675744518678 0.08317344343448159
000400 88 77 85 55 19 22 c2 bf 72 7d df 8d fb ee a2 bf
       -0.1416656177124731 -0.036979542797548684
000410 3c fe 83 51 74 2a 91 3f 93 ae 7b 40 61 64 96 bf
       0.016763513064687027 -0.021867293892610617
000420 3c 73 27 f6 de 38 bf bf 99 68 fc 4b 3b ed 8d 3f
       -0.12196153173085816 0.014612639671714599
000430 87 3f 04 ad 4f 25 a1 3f 69 24 a3 cb c2 c4 b7 3f
       0.03348778712290739 0.09284608337033408
000440 9a a3 94 28 81 4e 89 bf 11 2e 61 28 ff a0 83 3f
       -0.012356766749307902 0.009584420604503515
000450 c0 73 cc 0e 3c d3 b6 3f e3 56 25 a0 98 e2 b2 3f
       0.08916068421645118 0.07377008352099383
000460 4a 2c 19 e2 03 f9 a9 bf c7 7f 6d 87 a6 3c 9f 3f
       -0.0507279599665585 0.03050480081162712
000470 6e c3 72 81 8c 93 b3 bf 82 59 88 a6 32 b9 92 3f
       -0.07647016678198579 0.018284598745674348
000480 af 3c f1 ad 09 1f b8 bf 51 87 39 7c ce ef c0 3f
       -0.09422359940184565 0.13231831613216596
000490 74 54 dd 7d 47 16 a2 3f 14 2e 91 4f 45 98 b7 bf
       0.03532622729714144 -0.09216721718365078
0004a0 57 ac dd c1 cc b2 94 bf e6 62 1d ed 27 c7 9a 3f
       -0.020213317234646002 0.026150344703043248
0004b0 2d 16 00 03 5a 3d a1 3f bd 3c c7 e8 86 c3 49 bf
       0.0336712006247065 -0.0007862480866211091
0004c0 02 9e 67 d2 84 1b b1 3f d4 6f 86 58 9b 41 82 bf
       0.06682615410647233 -0.008914197577546114
0004d0 bd 54 97 97 fc ec a3 bf 12 37 c3 26 8e ff a8 3f
       -0.03891743994214767 0.04882473204780359
0004e0 78 9d eb 59 5f fb a1 bf 2c 76 e2 49 16 6a a1 bf
       -0.03512094471607957 -0.03401250507270634
0004f0 77 4e 82 ee 68 85 c6 3f 8a b2 7a 7a b5 60 9c bf
       0.1759463467211508 -0.02771266517690888
000500 e8 d9 82 2a 2f 71 b2 3f 39 f8 07 e1 2c fe 81 3f
       0.07203955448026245 0.008785582177548533
000510 f8 09 b2 a4 31 dd c0 bf 67 18 63 00 5a 1d 60 bf
       -0.13175030271311505 -0.00196712091846778
000520 e1 bc a7 27 bf a5 95 bf 2c 41 e5 e4 32 43 b1 bf
       -0.021140085978854087 -0.06743162239331885
000530 c3 ad b7 00 d4 36 92 3f 89 e6 8e 63 c6 7c ab 3f
       0.01778727774028056 0.05368633237180826
000540 b9 3d e1 08 b7 3a 8d 3f 32 07 22 91 a9 a0 b0 3f
       0.014272146185389955 0.06495151322635875
000550 24 af f9 4d 7d 5d 9a 3f 55 69 37 3d 7d 77 91 3f
       0.025747259029613848 0.017057377683025027
000560 2a 03 5a a1 1c 52 af 3f 27 99 d7 b8 c0 ff 9a bf
       0.06117333860038905 -0.02636624458491457
000570 28 38 55 b5 07 51 a2 3f e8 13 ac 17 ff a3 a5 bf
       0.03577446068321449 -0.04226681865660692
000580 3c 0e 17 de 2c 10 70 bf 3c 44 57 5d 7a b5 9f 3f
       -0.003921675933671372 0.030965721079898353
000590 e9 39 51 bf c1 02 9f 3f 04 f6 8d 2c 89 e2 b1 3f
       0.0302839539547736 0.06986291253812033
0005a0 b8 2b 2f a9 74 b0 ba bf 6f a5 6f 04 16 27 88 3f
       -0.1042550004050743 0.011793300638560848
0005b0 1d be 25 99 d5 80 a4 3f 9b d0 36 0e 09 1f b3 3f
       0.04004542822337618 0.07469231221222332
0005c0 7d 6c 5b 0e f9 7f 8f bf 58 5b 8f 28 a0 1e b4 3f
       -0.015380807638783129 0.07859230985864707
0005d0 6e c6 69 c7 49 c8 b0 3f 75 2a 8f 71 d9 3d ae bf
       0.0655561553810686 -0.059065623390400036
0005e0 b5 5f 3f d0 c6 dd 86 bf f8 c1 6b 69 7e e2 a7 3f
       -0.011165192823611262 0.046649885529294666
0005f0 97 21 c3 c8 84 ca 86 bf a7 0d e2 d5 e6 cc b0 3f
       -0.01112846124341686 0.06562655183556974
000600 2c 33 17 ee 71 69 a1 bf 4d 06 8d b0 ae e5 95 bf
       -0.03400760680560774 -0.02138398125248946
000610 de 7b 8a e9 ad 72 9f bf cf a8 ea be 62 4b be 3f
       -0.030710904483040362 0.11833779488611927
000620 c2 de a6 11 f4 72 a1 bf 4c ef 62 2b 80 d0 a7 bf
       -0.034080149798169326 -0.04651260881061478
000630 39 31 16 97 69 c0 7b bf 79 15 01 8c b1 23 a7 3f
       -0.006775295697832023 0.04519419511829432
000640 35 e7 26 a6 48 8e a4 bf 12 2d 8f c7 c2 42 9e bf
       -0.04014803913328394 -0.029551547460681844
000650 79 91 51 51 2a ef 99 bf 83 35 07 d9 a3 0c c0 bf
       -0.025326405728621524 -0.12538574311330927
000660 cf 75 b8 99 26 72 67 bf a0 d3 5f d9 8c a4 a0 3f
       -0.002862048522515016 0.032505418333961034
000670 96 7b c3 b2 db 7d 9f bf 63 fe 0b 88 b9 2f ab 3f
       -0.030753548417915853 0.053098485810548345
000680 c1 2d 13 ac db bc 68 bf a5 f4 53 14 e9 ba c3 3f
       -0.003019742057039671 0.1541415547616555
000690 6d 3e 45 61 c7 e0 a3 3f 7e d7 32 cc c8 ae b2 3f
       0.038824301360929826 0.0729794977695217
0006a0 15 62 ea 1a f1 8a a4 bf e7 cd d8 50 0c f3 b0 bf
       -0.04012254193839141 -0.06620861982155866
0006b0 5f dc d2 11 28 9d 9f bf e7 3d e1 38 8e de 82 3f
       -0.030872942054625315 0.009213553534350672
0006c0 9f c0 e8 fd c3 db 93 3f 62 7f 45 b7 f3 fe a7 bf
       0.01939302670706466 -0.04686700451088545
0006d0 2b 5c 32 ae db 9d b0 3f 14 ea 0e aa fa cd 91 bf
       0.06490872385835249 -0.017387310628445077
0006e0 4a b6 0e 4e 62 63 b6 bf 2a 77 5b 95 b2 39 ae bf
       -0.08745397954654624 -0.0590339476891429
0006f0 9b 54 b4 2b 15 27 97 bf 24 ee 7f 74 fa 0f ae 3f
       -0.02261002616167627 0.05871565506091894
000700 1e 1f a4 66 e4 79 a2 bf 5a b3 2f 23 f9 6d b3 3f
       -0.03608621361678231 0.07589680775681754
000710 a1 4f a7 76 f6 3e 92 bf 65 12 5d fe 62 fb 92 bf
       -0.017818308822668553 -0.018537089133376834
000720 42 05 33 e4 b9 64 8d 3f dc d3 66 15 e7 9b c3 bf
       0.014352276112165389 -0.15319527192119053
000730 42 c3 bf b6 0d 4a ba 3f f5 f1 03 34 84 21 99 3f
       0.10269246780059141 0.024541917490738602
000740 7a aa 41 2b ac c3 a2 bf 94 1f 7f 94 c6 b5 68 3f
       -0.03664911296876468 0.0030163649098291032
000750 dd 9b c1 e4 18 2f a4 bf 9a 37 a8 ba 85 05 79 3f
       -0.03942182342944254 0.0061087821764099996
000760 67 fc bd 04 4a 5a ab 3f 2a c9 a2 c1 63 9b a1 bf
       0.05342322643172608 -0.034388654124443654
000770 cf 06 15 d9 75 8e a7 bf e7 f2 fd 29 f6 d7 a0 3f
       -0.046008761166843486 0.03289765608403688
000780 51 51 08 16 ea c3 b0 3f db bf d2 fd d0 ec a4 bf
       0.06548941648390395 -0.04086926554134581
000790 6f 17 4c 53 b0 80 b0 bf 30 06 64 e2 96 01 ae 3f
       -0.06446363481162874 0.058605876098237863
0007a0 86 0b 44 b5 98 de a7 bf de 62 cf cf f9 41 b2 3f
       -0.04662015164105697 0.07131921123017146
0007b0 05 d2 45 19 e4 3d b6 bf 9b cb bb 91 51 53 b9 bf
       -0.08688188187608865 -0.0989275913996565
0007c0 5f 42 d3 bc 75 30 b9 bf e2 f2 0b 70 68 81 9d bf
       -0.09839568958273891 -0.02881396469000464
0007d0 92 b7 d3 ec ac 29 b6 3f d9 5a 4a eb 65 a4 95 3f
       0.08657341749105132 0.021134941564549734
0007e0 0e 6b d9 44 47 5b ab bf e5 9c 26 e8 9d 71 5d 3f
       -0.0534307738823455 0.0017971078928924963
0007f0 7a eb e8 c4 63 72 a2 bf fd bf 9a fe 21 fd a0 bf
       -0.036028974329801636 -0.03318124993290892

base.actor.actor_fc3.bias f8 [8]
000000 44 74 46 8c 70 74 77 3f 7d 4a 7f 10 57 a6 82 bf
       0.00572627986948954 -0.009106331053691403
000010 1e 18 a6 12 5d 22 ae bf 4d e4 50 9c 57 92 ac bf
       -0.05885592320105125 -0.055804002601185766
000020 d6 af 2b 3e 93 fd 8e bf 3c 13 9a 4c 3b 8b a9 3f
       -0.01513209374885342 0.04989037809449434
000030 78 a5 60 e2 ad 9b 92 3f bd c0 fc 6a f5 3c a8 bf
       0.018171994153964616 -0.0473400776958228
