results/Ant-3d/cmorl-ipo/4/final/EP_policy_90.pt (torch, 105481 bytes, 13 tensors)

base.actor.actor_logstd f8 [1, 8]
00000000: 98f6 ef2d 4f73 02c0 8fe5 087a 2b5c 03c0
00000010: 731e 8287 8368 02c0 7722 95e6 d47c 02c0
00000020: 6698 c97d bdc4 02c0 1eb5 3c8c 85b1 03c0
00000030: 9120 1493 834b 01c0 13ad a174 d9e8 02c0
-2.306303366551969 -2.420004800220972 -2.3010321222862387 -2.3109529508840825 -2.346064551081372 -2.461680503466268 -2.161872052242025 -2.3636960136260625

base.actor.actor_fc1.weight f8 [64, 27]
00000000: a093 6982 13fe bb3f dda0 826b d7fd ce3f
00000010: 2fa6 af70 3b2e dd3f 6738 acb4 ee68 c03f
00000020: ee89 a47c c96e cd3f eb79 355c 9693 d33f
00000030: 64b8 fd87 bfe4 d23f c969 8255 43c2 7d3f
00000040: 04d2 df09 714b c8bf 4603 a8c1 68fb 4b3f
00000050: e8f1 5d9e 9f8e 8bbf 74b6 3f02 6112 b33f
00000060: 895e b33e 2d7a 7a3f b596 8377 845c b3bf
00000070: ee4e 9614 e3ab c5bf 89de 0f61 02e1 bbbf
00000080: 6ef4 5c2d 7718 b33f ed53 d5d5 ea85 cd3f
00000090: ad1e 05b3 822d cbbf 3676 f73d 9fc7 b43f
000000a0: f9ef f581 3e02 dabf cf1e 1330 dc6d b3bf
000000b0: 0a22 6640 7c8d d93f 9721 e47a 09ea bfbf
000000c0: ee66 37b8 3cbc c03f f5e0 7f8c 2afd b2bf
000000d0: 7a95 ae40 fee6 cbbf cf93 d727 703c c6bf
000000e0: 224f 432c 3995 7b3f 1487 a402 3b59 913f
000000f0: c5d9 4a80 8f37 b23f 7cd2 9a48 08de bc3f
00000100: 50dd 746c 18a3 cfbf 1aec 0c67 d9d0 c63f
00000110: 8809 982b 1bdd d2bf d3ea e872 dc2c c2bf
00000120: 1f10 b78c d267 c13f 88a2 b9f6 39a4 bebf
00000130: bbc4 99ed 9541 c73f 4e4b 6cea d825 94bf
00000140: 9180 3ace d057 aabf de12 76ff 7727 af3f
00000150: 9e28 a8ae 2e6c c33f bb6b e559 8789 75bf
00000160: 61d8 4709 cd83 92bf fef1 6f1d 4d90 89bf
00000170: 2965 7d13 1398 a0bf 8221 cef9 d690 a5bf
00000180: 424c 8b13 42d1 d03f f804 308f deb1 c0bf
00000190: 4aed 8645 5271 95bf 00d3 b205 8333 c43f
000001a0: f42a 7b83 241f 89bf da8a 5d67 40ad ca3f
000001b0: c3f2 3a46 b42c b03f c8bb cba1 8d6f a7bf
000001c0: 4512 354e 514f d43f 2868 1712 4994 b1bf
000001d0: b9f7 bf1f 0034 ba3f b817 f01e d7b0 d1bf
000001e0: 247c cc27 0765 cbbf 6082 f259 c47e 8cbf
000001f0: a7c2 6cdf 64c6 95bf e5dc 9eb9 9784 b93f
00000200: 63d5 8ad2 0a45 ccbf e8f1 8156 9191 d0bf
00000210: fcf9 5416 b0b4 c1bf 334d d7c0 a311 c73f
00000220: 82eb 6b51 b56d d23f b5eb 8d9a 87fc c53f
00000230: 45c0 6a78 4143 c2bf c480 5a95 aec3 c9bf
00000240: 71e3 419b f3f5 b9bf 3e44 b777 e158 9ebf
00000250: 1587 561e 1556 d3bf d49a 0141 84c5 d8bf
00000260: 050c 2f66 b9f1 b23f 4096 f9bb 08ae b03f
00000270: b67f 1718 95c4 92bf d2ea 5e5e d8c8 b9bf
00000280: 1b4e e57e a302 bebf bff8 6b8a 879b 9ebf
00000290: 04da 76d7 d66c bbbf 836a 02d5 468d ce3f
000002a0: e28f 6de7 7471 c83f b2da 95a3 dd36 d43f
000002b0: 6cb1 3a36 2550 c1bf e5ba f74b b01a a8bf
000002c0: 3c02 b9c8 e344 c1bf 25dc c7b9 5c8a aabf
000002d0: 7b8d fcc6 4b22 cebf 5dd1 5126 3576 cebf
000002e0: a39e fcaf 0cdd c63f 7231 4abb a79a d33f
000002f0: af19 791e b7dd c7bf c785 0ba2 eebc cebf
00000300: 949f 20dc efbd c13f d1e4 9e2d 8a10 9cbf
00000310: bdd2 1619 0a82 aa3f 3206 fbb9 f53a 973f
00000320: 2625 c954 dd55 c73f 0607 6da3 d13a 8abf
00000330: 4bbb 39b9 f99d c23f 46db d6ef 12ed a4bf
00000340: b545 be4d 383f c23f 84f4 2da9 a5c7 943f
00000350: 23b3 8223 9a7b da3f 2e53 dca9 9093 c23f
00000360: 56e8 bcca b6e9 ca3f 5f9c 628f 0244 b9bf
00000370: de9b 6ea6 d24a c7bf 8f95 f368 213e 7a3f
00000380: e839 3555 4a5b b0bf 5184 4e02 bb80 c73f
00000390: e956 9df2 4a73 a93f 8b87 f69a a483 b23f
000003a0: e668 f07d 48ac c73f fbdf 3bbb 03b8 d33f
000003b0: 86f3 b5f7 a3c7 7abf d860 5b23 73b8 b73f
000003c0: 5237 0bb5 99fe c3bf 013d 8099 2dbd c6bf
000003d0: 3b8f cc8c 9a51 b0bf 9a3f 5f5b c722 8fbf
000003e0: 2341 520e 9094 a13f 70ec d3e0 d8b3 c0bf
000003f0: b73f 59ce e662 cabf 791b 466a d4dc 843f
00000400: 32ae 8fc3 b0ca 6ebf 7287 73ee 0630 d43f
00000410: f1a8 28d8 cae0 d23f a4ab c662 30aa c83f
00000420: 0a98 cfb9 1e8b d73f a47c 0720 6e50 b4bf
00000430: 36aa 7747 cbc3 cdbf 481a 6021 e0c6 9ebf
00000440: b582 5e4b 59c3 cbbf b88a a48d 3b62 b13f
00000450: 1694 3543 6634 c5bf 5107 2ecb f459 c83f
00000460: 5e34 09f6 b055 c93f d9a5 f96c d0dc b5bf
00000470: 3af9 38ef 3a15 d13f 7211 7811 5ed7 d4bf
00000480: 77ce 95b5 862b c4bf bbfa fce6 0fb5 a33f
00000490: 118f db22 fa45 b73f c2ff f7dc e201 a83f
000004a0: 11a9 a8ff 20c0 db3f 0396 73ec 4e7c d03f
000004b0: f55c 5ab6 fe86 803f ecbf 8e81 0a1f afbf
000004c0: 1cc6 303a ddd1 84bf 68c9 1978 7596 ba3f
000004d0: d4da 1a57 63b2 c63f 0816 11ff 1b94 b4bf
000004e0: a463 b28c d186 973f 3a62 835c ea77 b4bf
000004f0: c0ec fe43 503d cebf 86c2 2ce2 3f9a b2bf
00000500: 2b3d 1ede aea7 b6bf 7187 efa5 3e2d d83f
00000510: 3827 ec7f 7fee b1bf a6af 9ed4 4009 d83f
00000520: 84ed fc83 dbc4 bc3f f0ca 8b2a 9f3c dfbf
00000530: 4d1e e461 8f16 cfbf d679 afca e44f a0bf
00000540: f56a 02f2 9396 cb3f 2e4f 784c 0d0b b33f
00000550: b38e 0c07 3559 c0bf d359 8a7b fdb3 c63f
00000560: 277f d593 3ad1 b03f e956 e490 52d6 c03f
00000570: 4875 caa8 b10b 913f 751f 2131 8de1 c0bf
00000580: 315d 5970 15df be3f 954e 13d4 757d b6bf
00000590: 5f8a 57c1 45ce b03f 0c16 2280 3128 d0bf
000005a0: d3cf e992 ebc1 bb3f c6eb 2c19 4187 b13f
000005b0: e3b4 f97a 3363 9e3f c092 0dc5 0a4b cd3f
000005c0: 95b2 28fe 4f00 a4bf 27f6 8184 8d8b c33f
000005d0: cc02 28c0 3b4d b1bf 90ba 6bd1 fa56 b03f
000005e0: 03b1 874f 0f2b c23f c3cb f975 7f02 ddbf
000005f0: 9395 09a5 ca59 adbf 21e9 f513 f85e cebf
00000600: c437 ddfd 8a52 cebf 9b2b 371e cace b03f
00000610: fcad b258 95a9 b33f df89 0721 4f2f b83f
00000620: c501 c045 8e93 d5bf 9002 067e c37a d63f
00000630: ef13 7ef9 4fa2 cfbf 68b4 ec1b f097 bdbf
00000640: 2a45 3ae8 65ed 98bf 6590 41a3 c337 c6bf
00000650: fa33 1500 c0e3 b8bf 11ba 4450 1992 a23f
00000660: 278f 3530 bc65 a93f 5d34 14e3 de71 cfbf
00000670: 2c92 4f58 eef0 9b3f 256d e012 388f b0bf
00000680: 6c98 d1ec eb9b c3bf 4f18 7b63 fed8 a73f
00000690: c3b3 f4b2 524d 87bf faa7 a87f a63e b5bf
000006a0: 1896 e602 1d5e cebf fa8d 1a7b c052 cdbf
000006b0: 928e 5897 b1f8 c7bf 5578 2692 cb39 c83f
000006c0: a989 a7b1 d250 cd3f 02b8 deb0 c7c1 b03f
000006d0: b8ca e57e a6e1 ddbf ce41 4bcf 0593 7f3f
000006e0: 93b0 5262 5b11 c33f 6d24 ce02 6f23 ab3f
000006f0: d16d d3bf eb5e b9bf 78dc 7f57 0cee c5bf
00000700: 7f06 bc95 ffef a43f af6b b737 3149 d23f
00000710: 7883 cc1d f3f2 753f 152d 2a13 50bd d43f
00000720: 9874 8259 33bf c63f b551 82a3 ed12 b1bf
00000730: 8474 43eb c136 b13f 3d21 2f12 c053 b53f
00000740: df29 82b9 09b9 c3bf 155a 61b5 ffe9 d03f
00000750: e6ee 00d6 7995 af3f 7afa c41f 6941 bebf
00000760: 930e 4fe2 da96 c0bf 737f 52f6 0b6e 8c3f
00000770: e395 cc1d feeb c2bf d8f5 fbb6 3d9e c7bf
00000780: 3e06 706f caae cd3f c4c4 036c 9939 b2bf
00000790: 8c34 fa54 9960 c53f 9f49 5ab1 3531 cebf
000007a0: b7d5 bb41 2091 b9bf 8fab 23db 95f8 a7bf
000007b0: 572d de2c 3b15 bcbf 81e4 cb56 c1ef c73f
000007c0: 85a8 1047 313d b53f fb8c ee6d e68e 953f
000007d0: 6990 a70e 6906 c7bf 3b65 e298 e51d b3bf
000007e0: ee5e 6184 f185 c43f b5a3 34d7 e283 9c3f
000007f0: d1ef 3f8b 9ed9 d53f ee48 efdc e6eb cbbf
0.10934564527413082 0.24212162732624778 0.45594678883080325 0.12820228406821174 0.22994345270224364 0.30588301663183753 0.29521168022518496 0.007265341781158737
-0.1898022936071727 0.0008539449220848836 -0.013455626507259802 0.07449919037727587 0.0064641730670797004 -0.07563045423338617 -0.169308075954738 -0.10890211934735751
0.07459206445214914 0.23064933243827515 -0.21232637158594994 0.08117099058969121 -0.40638697329973145 -0.07589508222292383 0.39926058091126093 -0.12466487169525063
0.1307445430273257 -0.07417550974048821 -0.21798685224818454 -0.17371942468085286 0.006734107333801894 0.01694194987897564 0.07116028673303905 0.11276294491364952
-0.24716477676131854 0.1782485726524506 -0.2947452474328647 -0.141994052990262 0.1359809100232505 -0.11969339631617448 0.1816890154036964 -0.01967562609486189
-0.05145123021543541 0.060847997602683654 0.15173896339576215 -0.005258110728699468 -0.018080905620046276 -0.012482264004568751 -0.032410236481789596 -0.04212066459064358
0.26277210148436236 -0.13042814246731615 -0.02094009923324095 0.15782201555489195 -0.012266431105123023 0.20841221854342146 0.06318213190656778 -0.04577295875593951
0.31734116208489055 -0.0686689061325586 0.10235596442359353 -0.27641847630763605 -0.21402062838839797 -0.013913663859342396 -0.02126462567975076 0.0996794536757651
-0.22085700302492758 -0.2588847489166981 -0.13832665529658061 0.1802258197409202 0.2879460616238064 0.1717690949115799 -0.1426774824117293 -0.20128423969891263
-0.10140917339766788 -0.02963592808902526 -0.3021290584821242 -0.387055457575497 0.07400091881486055 0.06515554990036154 -0.01832802733940727 -0.10072090438817874
-0.11722776268043626 -0.029890172790140165 -0.10712950477941524 0.23868642235614254 0.19096242237276245 0.3158487412942278 -0.13525834224618494 -0.04707861831035646
-0.1349148492900144 -0.051836869886692484 -0.2354216310132918 -0.23798241015505087 0.1786208972273374 0.3063144043924445 -0.18645371425573162 -0.24014075195650106
0.13860891579065238 -0.027406844171967763 0.05177337223304821 0.022685851551392307 0.18230787887504468 -0.012807500648367231 0.1454460291310745 -0.040871230866676586
0.14255431934411225 0.020292843295000043 0.4137940737517047 0.14512832921959656 0.21025738620102413 -0.09869400025000762 -0.1819709122330257 0.00640690851944238
-0.06389298038741453 0.1836160432112899 0.04970773898700804 0.07232121260906703 0.18494516515131137 0.30810635838088246 -0.006538048265949286 0.09265822995382977
-0.15620728817014623 -0.17764825816309585 -0.0637451738116938 -0.015203053928331479 0.03433656859226832 -0.13048850038453308 -0.20614323688141464 0.010186824315281605
-0.0037587597293986747 0.3154313400865397 0.2949702368665746 0.19269375632333408 0.36786621232602157 -0.07935226709331517 -0.23253766049977437 -0.030055524861405197
-0.2168990724576553 0.06790516098093746 -0.16566160470679908 0.1902452461327422 0.1979275895450056 -0.08540060673262619 0.26692078935220176 -0.3256449862094747
-0.15757831446136425 0.038490769335557805 0.09091151572243585 0.046889390443538584 0.4336016174953708 0.2575871762367969 0.008069982471438733 -0.06078369933618419
-0.010165909136136846 0.10385832006594387 0.17731897118729611 -0.08038496949401275 0.022975229465916805 -0.07995476492522693 -0.23624614067180083 -0.07266616126868017
-0.08849614069753346 0.3777615185227808 -0.0700454413710333 0.3755647732129951 0.11237880680430662 -0.48807505755318825 -0.24287597923124551 -0.031859540693165364
0.21553277317874345 0.07438738934461916 -0.12772238582794201 0.17736786396262846 0.0656925784037382 0.13154060435106565 0.01664617150037387 -0.1318832864656049
0.12059148781678598 -0.08785187175390725 0.06564746828329636 -0.2524532080936701 0.1084277375865093 0.0684700666869694 0.029675297146629098 0.2288526022122337
-0.03906488397146749 0.15269631357289024 -0.06758473817172755 0.06382720578015211 0.14193908103278127 -0.4532774593455395 -0.05732568039529009 -0.23727322554243194
-0.2368940105029066 0.06565535772021606 0.07680638709523885 0.09447187954314228 -0.33713108836675715 0.3512428980539335 -0.24714088136911935 -0.11559963876489265
-0.02434310178666014 -0.17357678863038753 -0.09722518922826842 0.03627089600410128 0.049604302296556484 -0.24566255653226934 0.027286266460480643 -0.06468534909111108
-0.15319584906973505 0.04657740558973044 -0.01137795075063675 -0.08298721901579134 -0.2372471107639036 -0.22908788691448462 -0.18727702989518896 0.18926376949542836
0.22902902292760288 0.06545684879412764 -0.4668976058230032 0.007708571142487531 0.14896719265869204 0.05300471219295209 -0.09910462792634368 -0.17132715485033478
0.040893542316564606 0.285717300806648 0.00535864798874363 0.3240547358661428 0.17770997877679373 -0.06669507257385628 0.067241783082368 0.0833091778178003
-0.15408441122083524 0.264282157067471 0.0616872857794684 -0.1181855871736647 -0.12960372972712672 0.013881772474917153 -0.14782692389523708 -0.18451663431908005
0.23189669076241332 -0.07119139563635019 0.16701046609197012 -0.2358767620067512 -0.09987069706752193 -0.04681843090096215 -0.10969896169097147 0.18700424898250748
0.08296497330653281 0.021052933177668525 -0.17988312926820818 -0.07467493994262935 0.16033762897381315 0.027846855530842613 0.3414074287281866 -0.21813665187671155

base.actor.actor_fc1.bias f8 [64]
00000000: 38a4 64a9 705f ae3f 0d4e a555 0621 d53f
00000010: 0c05 8dde 32f5 b8bf 7439 2e95 c402 b7bf
00000020: 024d 292f 326f 9cbf 0bee cb51 e298 a0bf
00000030: 0fe2 6ed8 4ce5 b23f 9f1b 7d28 5f71 b03f
00000040: 5a76 9d42 ebda b83f 90b6 dd80 d32a bd3f
00000050: 68c1 71fb 724b bf3f 4168 ec59 9c47 9f3f
00000060: b69b ab00 b4ea 9cbf f37b 98e1 4435 9f3f
00000070: 320f 08d7 cb48 babf 4b84 f509 5036 c03f
00000080: 0725 b7d7 74c3 c4bf 7211 d833 9e19 b43f
00000090: d705 5125 3404 cebf db7b 4431 848e 953f
000000a0: afd2 a49c feb9 abbf 9f9c 3ba9 e4a0 bdbf
000000b0: 3c26 9e79 4697 c3bf 83e3 5f52 2d3c be3f
000000c0: df40 584e 5192 d4bf b17f b6ac de45 a8bf
000000d0: 332d da27 91e4 c03f 5279 50e0 dc84 b83f
000000e0: 4c23 510f 86bc b93f 3c4d 5d94 82e3 b1bf
000000f0: 0758 06e0 5092 c63f 550f 8a57 144d b43f
00000100: b338 dd74 469c c8bf 7129 582d 9579 a03f
00000110: bdab 28ca 64ea ca3f 2d92 c46a 3968 b83f
00000120: 7429 7474 442b c0bf b852 1ffb c167 ca3f
00000130: fa49 44ef 285c 9ebf 20e3 ff3d 46fd a3bf
00000140: 55c8 5f9e 3b7d ca3f 9602 7bb6 cccb adbf
00000150: fa55 c24a 3dd8 c0bf 42ba e469 dfe6 bebf
00000160: 6a81 414b 6ab5 abbf 0674 f675 5dba 93bf
00000170: 4c60 23bc 3521 bb3f 32de 26a3 2d34 c4bf
00000180: 6bdc 12f0 d7ed ca3f f5a0 5f6f 6643 a03f
00000190: eb29 498c bdfc 713f 78da 9c9b 016e 343f
000001a0: 1c5f 68c1 fa74 9ebf 698a 074d d569 a03f
000001b0: e674 7bc4 a42b b73f 9b95 7e29 063d b13f
000001c0: 8104 96fe ec95 b1bf 6dcf 015c c1db ba3f
000001d0: 7ba9 abe1 980c b3bf 6d46 77fc 8430 ca3f
000001e0: 58c8 ed79 9c12 c9bf 1697 ed4b 1630 adbf
000001f0: 95b7 6d52 cb03 c8bf 131b 690e 1856 c43f
0.05932190006053201 0.3301406704315191 -0.09749143536921084 -0.08988598482230775 -0.027767929199694848 -0.03241641281598725 0.073811343040582 0.06422991503232688
0.09709043861718084 0.11393472572464192 0.12224501265314347 0.03054661082124022 -0.02823907140819034 0.0304766428654339 -0.10267328262130773 0.12665749059945805
-0.16221485646227782 0.07851589933131267 -0.2345032865724039 0.02105146933274314 -0.054153401013910744 -0.11573628551160418 -0.15305405557983132 0.11810572873208795
-0.32143051768163206 -0.047408064444652516 0.13197531171713592 0.09577732540535536 0.10053289293240403 -0.06987777826480096 0.17634020746908183 0.07930113923253874
-0.1922691412568774 0.03217760256309788 0.21027812834776496 0.0953403363860807 -0.1263204163190711 0.20629143487771784 -0.029648437122043327 -0.03904170519667205
0.20694680436241933 -0.05819549300713793 -0.1315991034540927 -0.12071033797540401 -0.054118463217266946 -0.01926561386573058 0.10597549288957103 -0.15784235445402
0.21038340780589534 0.03176422223606493 0.0043914226740277935 0.0003117326665348706 -0.029743116430920855 0.03205744328785871 0.09050969883851998 0.06733740342186538
-0.06869393554190319 0.10491569992319479 -0.07441096791777639 0.20460569693982525 -0.1958804698329597 -0.05700750042778517 -0.18761579060395364 0.1588773794521435

base.actor.actor_fc2.weight f8 [64, 64]
00000000: b311 b904 5a91 b4bf 620b 6101 4e64 cabf
00000010: 253a c547 85e0 a73f 9528 d2db 5cdb d23f
00000020: ab6f 20c1 ac48 b23f 617a 9f24 3e8f 9bbf
00000030: 8f1c 206b 5f87 b6bf 4b44 9ac4 1848 b93f
00000040: d1a4 82af 983f cf3f c97d 8d16 fe4d b73f
00000050: 852b 1b45 bca3 a53f 0867 b24f 7644 a4bf
00000060: 7984 67b2 776c a4bf be19 e171 6e7b ae3f
00000070: 2269 0d8c 681d d13f 4826 3809 0abf c93f
00000080: c1d6 ba61 0912 c53f fee9 f1db 3762 bf3f
00000090: 0342 1812 8ac8 9e3f d095 ba04 a8b9 c23f
000000a0: 3838 da39 0032 a53f f864 3d89 5a1b d23f
000000b0: 404a 0e37 0c4c ccbf f040 f1c0 33fa c13f
000000c0: b326 7a9c 12c0 c33f 650e ecb1 f846 c6bf
000000d0: 1755 6556 b030 b53f 4928 9cb3 e694 d13f
000000e0: 7bfa f0f5 1ecf b33f 2152 a9e4 bdf3 cebf
000000f0: a348 4760 0144 93bf 72ad 49f9 82dc b23f
00000100: c605 6b5e fc70 c93f edfc eb51 a92f ce3f
00000110: e03f e68d 1ab4 bfbf 016a 7d0a 7fb6 adbf
00000120: dbeb d068 ccae cdbf 4324 3246 dd71 cbbf
00000130: 1bb3 634d 61b1 d7bf 58fa d28b 94aa 98bf
00000140: 96fb c070 af05 c9bf aea0 e9b7 166e 9e3f
00000150: 2ae0 bfdc ed85 babf a612 f307 dd1b cdbf
00000160: 65b4 e2a6 0fb0 c83f 137b 4860 8b37 ac3f
00000170: 0011 d922 add9 d13f ebe6 52b0 998d 8abf
00000180: 921f 8668 bda9 c8bf f330 dc1e e2b9 d03f
00000190: 7fc8 c126 3e8c c13f d4b5 ed26 5654 cdbf
000001a0: 22f3 5e32 7c5d ac3f e6b4 4241 bd49 a13f
000001b0: e5af ed64 b4a8 c03f b360 8b4b e82e c7bf
000001c0: 948b cef8 84c1 a2bf 8db3 e52a 2034 b5bf
000001d0: c42e fd19 31f8 ae3f 808d a512 efe4 b13f
000001e0: 1dd6 b7cc 4577 c7bf 8eb0 51d7 b1ff a4bf
000001f0: 238d 6844 061b bb3f 1bc2 285c 08e9 b93f
00000200: af85 ac1e d4cc 93bf d710 c079 fa46 ba3f
00000210: bad0 fb36 8b28 d23f 4796 4b7b d84c 8dbf
00000220: 72e6 c920 ec19 c3bf 1249 b156 fb60 a63f
00000230: 10c4 8454 3d94 d1bf 0ce8 309f d329 b33f
00000240: ed9d 7fff 8643 a9bf 0cc4 41b7 3863 d1bf
00000250: 3967 78e4 0a56 c53f 1d9c 0bfb ffd9 c23f
00000260: d1ae ac6b e09a 9abf f5d0 7338 81af b53f
00000270: cbb4 7516 5e6c a03f 4f75 3e4e d0f8 bebf
00000280: 2e01 abd7 b296 b83f 1c7d 2355 3023 bc3f
00000290: 294c e73b 0abf c53f 2e77 80d5 3f24 90bf
000002a0: 22d6 361c d6fc ad3f de87 762b d1d5 b3bf
000002b0: 922f 280f 27c7 bcbf eb44 cd8f a79d ce3f
000002c0: 1cf7 81e4 965e b5bf c7ae f11d 4d78 cbbf
000002d0: adba 7efe 4a26 cbbf b970 dbe5 e7e2 923f
000002e0: 6cdc bfe3 4924 adbf 46d8 4acd 259d c53f
000002f0: 9dec 4016 18c2 77bf bec7 6431 39de b53f
00000300: e8b4 67e0 5057 a5bf 7570 f4c3 e712 babf
00000310: cc13 3db0 a9f1 d03f bf20 0a77 27d3 b1bf
00000320: 37b0 0379 9114 b33f b269 6870 d478 d2bf
00000330: cdad 6d6c 4592 c93f bd11 2cab 9149 b6bf
00000340: d8a0 1eff c4ac cb3f 0813 3fd7 09cb ba3f
00000350: 2f7c a9b0 5609 b9bf f10b 3e4c 9be8 3a3f
00000360: c734 923f 1a4d a0bf 3c3d f6d0 015f c1bf
00000370: 2fe5 8eac 4497 d6bf baea 74bd a2ee bbbf
00000380: 873d af2b e2a7 a8bf a543 b212 b43c 9cbf
00000390: e341 6cd4 0646 c0bf 0f14 23fe 6dcf c33f
000003a0: 6bb9 727b 79be b33f ab59 7ada d25b cd3f
000003b0: 9f5e 7b6a 306e d63f 980c a6ff 3c00 d1bf
000003c0: e31c df52 05f5 cfbf 4d4f 688d 7224 bf3f
000003d0: cf7b b26d 7239 d03f 430a 6343 347e 97bf
000003e0: 8901 b409 8541 d2bf d56c e42f e0ac c23f
000003f0: b4f7 a8a1 1157 85bf 01ed d218 6934 b33f
00000400: 3d31 1726 d92a d0bf ca98 5f01 fb94 c63f
00000410: 0e58 b9af ecc4 82bf b3f0 d221 cfca ab3f
00000420: 38fc d3b3 ecf2 c83f 21ec 32c4 823c a63f
00000430: 5e8c 481a 73c4 c0bf 68a6 8951 bb41 bdbf
00000440: a5d2 66f9 bf79 a5bf e187 ca21 fe05 d4bf
00000450: a1e6 cee9 8c9a adbf 99cc d201 155c adbf
00000460: 203f 0c20 f79f c2bf 702b ccd5 9b46 b53f
00000470: 6243 47f5 3d13 b73f 47d7 c749 55d0 ac3f
00000480: 9961 289b 6cf3 c13f fa84 4c12 3708 b33f
00000490: e223 5348 c60e cd3f f1e1 b485 d8ec cf3f
000004a0: 64cb f772 0b34 ba3f f1ac 68b1 1ac7 c23f
000004b0: 589a e8cb c004 a03f aa80 cdaa 0e1b b13f
000004c0: 3fd1 8a2c 5c28 c3bf 33d2 21e5 80dd c33f
000004d0: a174 10bb d06f bb3f 04ea 0b28 d1b2 c5bf
000004e0: f1f9 08cf 6e1f b43f bb98 745b 3ab0 d7bf
000004f0: a891 e5f5 374c 97bf ade5 018c 0164 cb3f
00000500: 913c 43ec 84a1 c53f a8f8 37be 2a90 c23f
00000510: 820e cff7 76a7 b0bf ad06 b219 5f99 ccbf
00000520: 41c7 392b cf46 c33f 1460 aed7 1bb1 b13f
00000530: 498a a26f bc9a c6bf 95b5 13f1 f2a6 aa3f
00000540: 4199 6103 68ce 943f d417 e1a2 68f2 c2bf
00000550: 8ad2 6579 55bf babf ced2 1572 eabd a5bf
00000560: 5387 2506 769b c63f 257f 7378 ed89 cbbf
00000570: fd5f eb15 5c7e b03f 9aa6 09bb 3a54 b63f
00000580: c9d7 cda4 817f cf3f 1490 ffb1 2a9b a73f
00000590: 4e9f aeca 1590 b6bf 6f9d 5da3 4668 a9bf
000005a0: 54c8 fc71 cf1a c43f d213 0574 9784 afbf
000005b0: 0bc1 499f a6f1 bbbf 9cfc 26ca fc5f c8bf
000005c0: eb3a 1205 3046 d93f 7845 fa90 4533 87bf
000005d0: cd1f 973f 7475 b4bf 9d4f 64ee 6406 83bf
000005e0: 15a3 64ff 4f0d d43f 9c79 db9b 4398 bbbf
000005f0: 3908 201b 5c2b a5bf 7938 9cfb aa09 743f
00000600: 1399 7ebe 255f 72bf 7946 1cef 330e 803f
00000610: eef3 4b35 6fca b6bf 884e 7b21 1506 d73f
00000620: ae3f 713b 90ce 88bf 74cc 3c23 02f8 a83f
00000630: cdc3 a16b a1f5 b93f efd0 6d4d bf8d 823f
00000640: 4876 183c f870 9bbf 0813 7260 7fbc d2bf
00000650: 530e a6c1 7bdb c2bf 934a e373 dbe3 bb3f
00000660: 7701 219e 2d47 a33f 1e74 d5ee ce92 cbbf
00000670: 2a7c f169 8e5c c53f c167 7f28 a3e0 9dbf
00000680: f555 62ed d3b3 b0bf 5ad0 a155 d8db 9cbf
00000690: 3d71 e773 6af9 cabf f0ec d443 b9d6 ab3f
000006a0: e55a 96d4 af36 b0bf 9c45 fc5d 1390 c1bf
000006b0: 8c2b 8f4c 42c8 b5bf 810b 4680 8fe7 c33f
000006c0: 0650 a90c e7da ca3f 3717 42f1 647e bbbf
000006d0: 00ec 0d34 4436 8d3f d792 e45b 2d37 ab3f
000006e0: 8f43 77d6 1827 bbbf cef0 153a a0bd c33f
000006f0: 7660 4d14 e863 bb3f 428c e654 d700 c43f
00000700: ef0c c24e ebeb 77bf b0ed 2375 086b 793f
00000710: 60c7 6ad1 a0b4 d13f 99d3 4fff b82e a93f
00000720: faae bc82 13e3 cb3f 8bbd 7828 ed92 b33f
00000730: 0d44 2937 fe69 a93f 2720 aa20 a621 b6bf
00000740: 8eb0 b7a3 297b c7bf b426 5da9 4925 c1bf
00000750: 3e46 4703 f884 c23f a11f 221d bbc8 cdbf
00000760: c4fd b1ba 3983 a83f 400a ad3e 63b6 723f
00000770: c1cd 24ae ce5a a73f fad2 1eb5 51fd b13f
00000780: 5099 dc69 09c3 d1bf 9993 3d84 a211 d1bf
00000790: b0e5 5250 486e 75bf a42f b161 b889 c0bf
000007a0: cb91 3a15 0f4d ccbf fc29 fe5c 6671 ce3f
000007b0: 3254 d70f d778 d03f 3cf4 2046 794c c2bf
000007c0: 859d baa1 6000 d53f 8f1c c851 15f4 b6bf
000007d0: 8d45 823f 1b07 ce3f 5ddc b412 5e78 cc3f
000007e0: d659 d1ef 826c bbbf f7f7 4208 b4b6 b03f
000007f0: 7592 2bbf 28b3 b33f c458 1f5a bcdd 60bf
-0.08034288993173426 -0.2061860567792691 0.04663483143905393 0.29463883845222344 0.07142142977721615 -0.026913615212715295 -0.08800312390677532 0.09875635909908557
0.2441283089622517 0.09103382158854524 0.04226482719021533 -0.03958482478010522 -0.03989004185474072 0.059535457040101644 0.26741994549742476 0.2011425538078575
0.16461293479885877 0.12259244079351814 0.030061871866623246 0.1462907813158112 0.04139710146147063 0.2829195347054134 -0.22107079208633884 0.1404480640508221
0.15429909363256442 -0.17404087722399023 0.08277418240807709 0.2747132066730314 0.07737916473795707 -0.24181340851886637 -0.018814107419367187 0.07367724023941039
0.1987605534578007 0.235829510689633 -0.12384191479054563 -0.058032960920815675 -0.2318969260976179 -0.21441236426861296 -0.37020142133296624 -0.024088212045848628
-0.19548600202139416 0.02971683022988774 -0.10360609664337575 -0.22741282356414166 0.19287295960149034 0.05511127043086197 0.2789109077750851 -0.012965393727756921
-0.19268004993159288 0.26134541524585514 0.13709236996107063 -0.22913624668892274 0.05540073504332656 0.03376571103704311 0.13014845779559817 -0.18111900032704895
-0.036632686016012134 -0.08282662436768203 0.060487303183064195 0.06989950375787224 -0.18332741256715304 -0.041013295682973724 0.10588111086012879 0.10121204614620931
-0.01933604657381743 0.10264554474275954 0.283724597640013 -0.014306727659867081 -0.14922858811387446 0.04370866235025707 -0.2746728253724209 0.07485697399616259
-0.04934331768873421 -0.27168100258046546 0.16668831020143118 0.1472778297240617 -0.02598143250649693 0.08470924022896383 0.032076778642343116 -0.12098409567120892
0.09604947820026119 0.10991193846301822 0.16989257740951416 -0.01576328030215917 0.05856961340343171 -0.0774813395605913 -0.11241382713359219 0.23918623467992658
-0.08347457007218079 -0.21460880243409106 -0.2121061079646628 0.01844370212971633 -0.05691748528618565 0.1688582661060442 -0.005800336923182628 0.08542211013698783
-0.041681792634202186 -0.10185097250035986 0.26474992953108933 -0.06962820678939162 0.07453259663060484 -0.2886248681767497 0.1997763423381528 -0.08706007412917578
0.21621000725759276 0.10466062073744464 -0.09779874623335226 0.0004105929513046883 -0.03183824563994047 -0.1357118864366188 -0.3529826817644616 -0.10911004186065557
-0.04815584929712729 -0.027575315133222884 -0.12713704464159922 0.15476775082621017 0.07712516082640312 0.22936473529689513 0.3504754104483058 -0.26563954320608607
-0.2496649412771382 0.12164989425974433 0.25350628578774786 -0.02294236813828322 -0.2852490038640317 0.14590074861994276 -0.01041997694585093 0.07501847129872276
-0.2526152488687961 0.17642152373372816 -0.009164666283293623 0.054281685713676885 0.1949134710375533 0.043430410814345295 -0.13099516661995642 -0.1142842363421096
-0.041944503016030844 -0.31286576557078943 -0.0578197513018044 -0.057343155357920846 -0.14550675453983164 0.08310865373293352 0.09013735998384001 0.05627695584909858
0.14024121833859907 0.07434410282850826 0.22701338321192482 0.24941545990601768 0.10235663945040369 0.1467011801008549 0.03128626336210932 0.0668191115378273
-0.14966919112124263 0.1551972502526425 0.10717491690634741 -0.16951956229588927 0.07860462717596996 -0.37013110095211815 -0.022751688369128026 0.2139894422178207
0.16899167572271215 0.14502462661761695 -0.06505530881900692 -0.22343052630099206 0.15059842692022055 0.06910871520665324 -0.1765971703617473 0.05205496971926064
0.020318627554297256 -0.14802272751893375 -0.10448202337085824 -0.04246456759111582 0.17661929416777386 -0.2151467168941902 0.06442809615271013 0.08722273889875468
0.24607868716310424 0.046105703571612505 -0.08813606451314834 -0.04962368721208576 0.15706818643372122 -0.06155846873529182 -0.1091560496222465 -0.19042930479733833
0.39490890975223064 -0.01132826183973877 -0.07991720726488367 -0.009289539837972255 0.31331252995237097 -0.1077921157370611 -0.04134643393628363 0.00489203252960923
-0.00448527091785979 0.007839589819499825 -0.0890264039152979 0.3597462489098935 -0.012112738431966221 0.04876715355057906 0.10140427472812448 0.00905942397160017
-0.026798132579747752 -0.2927549783565131 -0.14732310252667222 0.10894557551663757 0.03765242152485631 -0.21541773473555365 0.16688709424031006 -0.029177235934049642
-0.06524395509253351 -0.02818239233643314 -0.21073656710985658 0.05437258675598311 -0.06333445491905428 -0.13720933999188112 -0.08508695954439655 0.15550416720733654
0.2098053752730495 -0.10739737405864679 0.014263661230634384 0.05315534350146372 -0.10606532321913974 0.1542244228002176 0.10699320312176205 0.1562756695321657
-0.00584022442865549 0.006205590283794235 0.2766496701325334 0.049184590497964815 0.2178673160900571 0.07646066892697527 0.04963678763727595 -0.08645094201540414
-0.18344612592716597 -0.13395043153496078 0.1446828857429398 -0.2326883213283937 0.04787617115016077 0.004568469691380417 0.04561468005922676 0.07027159377942019
-0.2775290998273663 -0.2667013446246585 -0.005232126689571556 -0.12920288820384684 -0.2211016515403926 0.23783568897881924 0.2573754934977074 -0.1429587929177688
0.3281480388054308 -0.08966191527007282 0.23459187127131678 0.2224233237591048 -0.10712450365949819 0.06528783036898732 0.07695250193826005 -0.0020588568449780593

base.actor.actor_fc2.bias f8 [64]
00000000: 171e 1fcd 0f69 953f 567a 304b 47cd b93f
00000010: 7fd9 b531 d3b7 8fbf 8752 cab7 55a9 973f
00000020: 288d e73e 3dab bf3f 0dbf d539 aa53 95bf
00000030: cd09 e43d 6853 b33f f5b3 aac1 70ff a33f
00000040: bff7 0eee 7fd9 b43f a2f2 4cd4 eaa1 a53f
00000050: f82b 443d 48f3 bfbf 53bb f813 4629 b03f
00000060: 1f8c c034 4f77 9b3f 4310 2a0c cd40 c13f
00000070: 662e d12f 5b13 a0bf c9b0 5a80 17de 95bf
00000080: 8cf7 af8d 6f60 acbf c8ce 4edd f44d c3bf
00000090: ae93 6258 7d76 a4bf 7c59 9916 4932 c6bf
000000a0: 64a9 5ddb f3b1 b73f b605 c113 453f b73f
000000b0: 93a9 e72c 22e4 c4bf 8c79 a2b8 2a6c b23f
000000c0: f519 b13b fd4d a7bf 44d5 5412 258e 9f3f
000000d0: 72e4 4e42 e190 c5bf ad74 b56f 6e55 99bf
000000e0: 099c 2c70 0a7e bb3f 6b13 f344 cba4 a3bf
000000f0: 94d6 9d8d 9742 b9bf 1d08 b596 7939 a33f
00000100: fcfc 6e8f dded a83f f0f4 b777 9be6 ad3f
00000110: b20c 90ef 184d c6bf a209 5fa2 368f 993f
00000120: 9ef8 41d3 eabd 993f f38b 1e13 3694 c8bf
00000130: 08c8 e73f 06a8 ad3f 6b0b c898 e202 d0bf
00000140: 60ec 4bb9 14ed b1bf bb21 7d9f d1e9 c8bf
00000150: 37cd 40b4 852b af3f 588d df26 353f bdbf
00000160: c77f cb6a ecf0 b33f 0256 5f2e 8c77 c43f
00000170: e3c2 3878 4ad0 af3f ae3d d6f5 cd11 c13f
00000180: eaea 5915 d4cf c4bf f369 76ea 444a cd3f
00000190: 2f96 f734 e3a4 92bf 8e01 84cb 0560 9d3f
000001a0: 1eb6 b2eb 8ba3 cabf 88ef 96cd 74fe b8bf
000001b0: 637e c754 924d a0bf 95c1 6290 0249 a1bf
000001c0: 317c e88c d20f 933f 351d 5adc 3024 bebf
000001d0: dc6b 78a0 284d c13f f3b6 4e5f 6de3 acbf
000001e0: 319a 810f d852 a8bf f5d1 c98f 482a 863f
000001f0: ee1b 5860 e17a 79bf efc9 5f03 fc5e b0bf
0.02090859116995433 0.1007885511939802 -0.015487337069072236 0.02310689863459683 0.12370665345911347 -0.02082696893688678 0.07549144278531301 0.03905823101136
0.08144378244375526 0.04225095597801 -0.12480594154128244 0.0631297873266992 0.026822316736922255 0.13479006856880646 -0.03139767607407577 -0.021355025490877453
-0.05542324642736593 -0.15081654363677033 -0.039966504134361855 -0.17340959170787673 0.09255909066783868 0.090809171030762 -0.16321208183883282 0.07196299560243896
-0.045516885315510715 0.030815676921709625 -0.16848388421729826 -0.024739957397618074 0.10739197958592696 -0.038366653601349686 -0.09867236335215984 0.03754787411391212
0.04868976951501655 0.05840001903923475 -0.17422782609364657 0.024960378322938966 0.025138539451739043 -0.19202304776726428 0.057922549534751566 -0.2501760952001663
-0.07002381824342896 -0.19463558471239914 0.06087892365794761 -0.11424572180799453 0.0778949509362966 0.15989830269124644 0.06213600843000735 0.1333558512092003
-0.16259242098370602 0.22882901619307425 -0.01820712099824656 0.02868660978947584 -0.2081160450810992 -0.09763269442822609 -0.03184182438758112 -0.03376014721414148
0.018615045404768608 -0.11773972873389911 0.13516719661205812 -0.05642263210698486 -0.04750704945836438 0.010822836769173153 -0.006220703483911001 -0.06394934732796974

base.actor.actor_fc3.weight f8 [8, 64]
00000000: dc63 d55d da33 a33f 09b5 87eb 6ec1 973f
00000010: 9335 2e95 94d1 bcbf 31b3 d498 6456 a13f
00000020: b041 2081 4be2 4ebf 6c5e 9201 d357 9d3f
00000030: 220e b205 09d4 b7bf 7114 cd4a d999 9ebf
00000040: 84dc ce51 5927 a43f c337 bf60 daad 56bf
00000050: be9a aa53 b3d9 953f 14ac 345d dc04 9ebf
00000060: 0d89 5e2c 6a1c a4bf 4b88 0a0a 8d83 a6bf
00000070: 8a5f 93af d238 5cbf 5793 7e5e 14ca 9ebf
00000080: 2b7c e3f8 6615 adbf 6d99 c343 2304 a4bf
00000090: b67c 873f ffb3 aa3f ee9b 6dd6 999d b23f
000000a0: c290 45bd 1669 b2bf c40b e299 1e13 9a3f
000000b0: 0921 b93e fa90 bdbf 783a 69e6 79bc c5bf
000000c0: d756 38ae 278c b4bf a0fa 350e adcb a5bf
000000d0: b847 0441 d325 983f bda3 2c32 1078 983f
000000e0: 910a e956 4109 b2bf 30cd 8b9d bb39 bb3f
000000f0: 174b 0cd1 75ad a1bf f142 4022 17eb 8a3f
00000100: 72b7 a328 cc65 bf3f 5938 3f5e 9603 b13f
00000110: 9cac be09 e71f 25bf b34a 52ee 3db6 bbbf
00000120: 2d2e 81c7 fac6 78bf e2f0 4813 abc6 a0bf
00000130: a92d 384e edbd ac3f 2027 e14b c9dc d0bf
00000140: b0ca 6064 5cfe c63f 8471 f555 1e58 a5bf
00000150: 0298 e8b2 3340 b5bf 56ff d756 c19e 90bf
00000160: a54a 8a1f 24d3 a73f c9f7 777e 2a78 9cbf
00000170: 2689 f162 c509 ba3f 283b 607b d328 5dbf
00000180: ffe8 f2e0 d4e0 a1bf c402 d86b 25a7 af3f
00000190: 7bec 5913 9792 ae3f 501d faf1 edb1 a03f
000001a0: fdb2 a5db 2885 b2bf b8bf 48c7 131b 95bf
000001b0: d93d 58ef 1611 9ebf 28a5 87e4 1d50 8c3f
000001c0: dd9d c286 3137 8a3f 431f 808a 7d60 9a3f
000001d0: 9694 a537 732b b13f 9dc6 57fd f2a1 a83f
000001e0: 66d5 fdf8 277b 7a3f 5e75 a67d 9bb6 9abf
000001f0: df06 ec62 be39 963f 5f49 bf53 4d4c be3f
00000200: 172c 54b6 8e2f ad3f 822e 4676 b27a a5bf
00000210: e2a3 423a 87b4 b23f ce42 d41f 8edd 97bf
00000220: 126e cf23 2a55 8a3f 5bd6 d765 32b8 a7bf
00000230: b9b0 1dc4 0a87 a3bf 8e9f 8c99 02ec a5bf
00000240: 3e35 0816 be30 953f 9cb4 127f 2aff b63f
00000250: c5d8 9a94 5cbe 953f fc61 c45c 7dae b4bf
00000260: 2e78 4679 9457 a83f 7a49 00b9 d409 a8bf
00000270: 972b f02c 8ea1 883f 19fc 1578 0325 a9bf
00000280: 7e54 924f bb2c 8b3f 1222 3151 3f3b a7bf
00000290: d1af ab6f 1181 a73f a135 ab3a 1296 b13f
000002a0: 6f73 3cb5 0248 a0bf 998b c2d4 07b5 a1bf
000002b0: 2010 2f98 786c a13f b7d9 0419 19eb 93bf
000002c0: ecf1 adde ad39 b33f b29d 5abd 9316 a2bf
000002d0: c69b 780b 19d1 a9bf efbd d0a1 3240 a0bf
000002e0: 5846 cd4c d728 b33f d552 1dfe acf2 913f
000002f0: 8613 430d c903 af3f bfe7 3016 5152 ae3f
00000300: 3221 bf90 2720 803f 2d6c 03f8 2ba5 ac3f
00000310: c27d 0f3b aa71 aa3f ed9d 7862 b028 8b3f
00000320: 0a0e 5df5 3509 963f 50de 9b65 eca0 893f
00000330: 083f 9b69 e93a 573f f61d c21e 1c49 94bf
00000340: 0d8b f527 d8f4 b63f e361 46ad d348 a83f
00000350: 8d0a cb08 7750 babf 3a4e 4b5d 551e 81bf
00000360: b0a0 b3ee 84dc 71bf 7c4e f26a 7af1 a13f
00000370: d947 5903 ca7c 923f 1fa2 2a5b 4a30 983f
00000380: 3620 3a5a 72aa afbf 0612 7f8c 0553 88bf
00000390: c82b 4b22 0ffc 9fbf dd2e 3b0c f7d6 b53f
000003a0: 7628 931e c6d1 99bf ce15 65d4 fcae afbf
000003b0: af1d 5e7d 80a7 953f 5259 708a 0972 b63f
000003c0: a967 e140 3a28 a6bf 6ab1 a9d6 5f4f 80bf
000003d0: 3aac 4d8a 1558 af3f 3170 12d9 8868 993f
000003e0: 353a b9ec 0cd9 9e3f 9f05 768d 91dd 773f
000003f0: 7916 fea1 2e72 88bf 9625 6eb8 c050 b53f
00000400: dca1 d99c 8120 c2bf 08e0 4ae3 53a9 a2bf
00000410: 6ce8 69f1 9a51 903f b199 79db 436b 96bf
00000420: 08fd 13f0 ce36 bfbf d863 61c6 c2aa 8d3f
00000430: 4ce9 bb1b 935b a13f e636 1aab 93ac b73f
00000440: 5b80 8568 a6f7 88bf dffb f499 59d0 823f
00000450: 81a2 9c4e 36d4 b63f eec3 1155 3ed4 b23f
00000460: 7905 c99f 7003 aabf 1c3e e5fa 4023 9f3f
00000470: 878e 24b9 5bc8 b3bf c067 0891 b2a3 923f
00000480: d635 b02f b628 b8bf d6fd f6a0 f1e6 c03f
00000490: e6dc 1f81 78ee a13f 0933 7e6d 8ab4 b7bf
000004a0: ef9c 1617 4497 94bf 22fd 9fb8 961b 9a3f
000004b0: ce82 1c81 5780 a13f a747 188e 246b 59bf
000004c0: c3d2 d687 3eff b03f 357f 5568 46c2 81bf
000004d0: fa2a dbb1 c7c3 a3bf 4bfa ea29 542c a93f
000004e0: 5b2e 8b0e 478a a1bf a722 a8fa 786b a1bf
000004f0: 6665 ab1d 377d c63f c1b0 024e 5b4f 9cbf
00000500: 11f0 2e5e 037b b23f 40f3 c85c 65b9 823f
00000510: 847f e966 5ce8 c0bf 3414 5b5b 8342 61bf
00000520: 8fc0 1693 3f1d 95bf ce56 90e6 3e49 b1bf
00000530: 83f7 9927 fc00 923f 500e 38af 5d9a ab3f
00000540: e32f 9f51 98ba 8e3f 5092 e555 919e b03f
00000550: 786b d069 cd1f 9a3f cadb 27d2 3319 913f
00000560: 655d 3b61 98a9 af3f cd50 2282 504c 9bbf
00000570: a34d 3231 8445 a23f 5d3c 5db4 c3c1 a5bf
00000580: 1b79 b78e edcf 70bf 0948 e8af 61c3 9f3f
00000590: fb82 8db0 b316 9f3f bf6c bb46 8c0c b23f
000005a0: eebb 7d80 82a2 babf 65bf 5718 914d 883f
000005b0: dbef c929 2f90 a43f 1f5f e3bb cc46 b33f
000005c0: 5db1 f2e3 6e0e 90bf f300 2397 7728 b43f
000005d0: 0874 3f23 23c3 b03f 7965 2d46 880b aebf
000005e0: bc09 44cd 44aa 86bf 155e a2df 080d a83f
000005f0: 140f 7eaa 215d 86bf 1e63 fd2a 4c07 b13f
00000600: ba0a 7ac2 4166 a1bf 526f 0bfd 7c6b 96bf
00000610: 1cd1 14d0 1905 a0bf 8289 c5cb a55e be3f
00000620: eca9 aa2f 9e52 a1bf 60a5 c351 dedd a7bf
00000630: ccfe f405 a59a 7cbf 8c3b b99f ee50 a73f
00000640: b0f9 beab 9876 a4bf 0425 81ff 9b67 9ebf
00000650: e8b1 0808 90c6 99bf 4e43 4675 2920 c0bf
00000660: 86cc 0816 66d8 68bf f891 0c63 ecd0 a03f
00000670: a35b b102 e338 a0bf 83d8 62a0 fe24 ab3f
00000680: 405f 92e6 848b 66bf 78fd 35c5 d3a9 c33f
00000690: 4b88 820e 58ad a33f 161f 2327 e099 b23f
000006a0: ff7a ff85 a2b4 a4bf 83e8 7c0c d909 b1bf
000006b0: 9991 af0b 94f9 9fbf c2b6 e3e5 d719 823f
000006c0: 92e8 f2df aaa6 933f 2c19 a25a 1439 a8bf
000006d0: 2b98 46bf 36af b03f 9149 552e 651c 91bf
000006e0: 1131 2042 1656 b6bf 2485 ae67 760c aebf
000006f0: 2d78 48e3 dd8f 96bf 4bd6 9781 0e84 ae3f
00000700: c01a 93f9 5278 a2bf 93d3 221d 308d b33f
00000710: f6ae 5317 7064 91bf 82fe c5dd 0c0f 93bf
00000720: 4d2e 6013 4a16 8d3f 2a40 b5e6 1083 c3bf
00000730: a7de 7ec0 a658 ba3f 4f32 e66e 2482 993f
00000740: a324 8a34 1899 a2bf df46 3994 0e26 693f
00000750: b761 ed9c 50bb a4bf 9b67 80bd 6329 7b3f
00000760: 5774 2957 658c ab3f 1d10 56fc 1fd1 a1bf
00000770: 5303 3da4 d8e7 a7bf f0d0 1d99 3ecb a03f
00000780: ecdc 462d 7fed b03f cb07 c300 96db a4bf
00000790: 921f ba49 dd6b b0bf 3fd4 560d f4ec ad3f
000007a0: bf1b 2e78 991f a8bf 0fd4 f802 b160 b23f
000007b0: bc42 e001 659b b6bf b315 234a f178 b9bf
000007c0: fbf4 2f58 db0f b9bf 9fb5 9574 1f75 9dbf
000007d0: 4815 58f1 af75 b63f aba0 e036 e577 953f
000007e0: ebb5 c063 1edb aabf 41f3 78e0 4f99 5a3f
000007f0: 4fe8 749a ec80 a2bf 5fab 7750 ffd7 a0bf
0.03750498195103777 0.0231988269096535 -0.11257294313528225 0.033862250953779933 -0.0009425038026638546 0.028655335398609358 -0.09307915104914646 -0.029883761587616357
0.03936270831712199 -0.0013842232319691706 0.021338273984521143 -0.02931541746981388 -0.03927928725831196 -0.04397240397999321 -0.0017225320319109471 -0.0300677473711802
-0.05680391109648782 -0.039094068548183404 0.05215451860908031 0.07271729931890977 -0.07191602822200863 0.02546356024005171 -0.11549343139006764 -0.16981433630504106
-0.08026359561366846 -0.042569549545978136 0.02358179172831118 0.023895505010987018 -0.07045372363885806 0.10634968372669529 -0.03452652146201823 0.013143711788900588
0.12264705650497179 0.06646098900748267 -0.00016116805352104225 -0.10824954098124344 -0.0060491367403972375 -0.032765718559376614 0.0561365278227542 -0.26347572717769374
0.17963747884058057 -0.04168791579533873 -0.08301089399228093 -0.016230603147050125 0.04653275380146241 -0.02780214688208796 0.1017115942536618 -0.0017797532323162255
-0.034918453654841024 0.06182209912731687 0.059712144005026745 0.0326074941522686 -0.072344354271717 -0.020611104048100265 -0.029362066610756663 0.013824685608556722
0.01280058567529257 0.025758706644438033 0.06706924542011658 0.04811057417454132 0.006465107100543354 -0.026087216896134684 0.021704649722784516 0.11835177702531528
0.05700345969861347 -0.041951729715120414 0.07306714222308089 -0.023306103413292693 0.012857751100390256 -0.04632718556596834 -0.0381396641158473 -0.04281623958951207
0.02069375047181165 0.08983102419252237 0.021233984537240475 -0.08078750147650021 0.04754318218623187 -0.0469500041800925 0.012026892420200315 -0.04911051598445954
0.013268912664253781 -0.045373896275638384 0.04590658653418667 0.06869615490287241 -0.03179939710955792 -0.03458427879493015 0.03403069360459221 -0.01945151534274611
0.0750988644267136 -0.0353284996647817 -0.050423414850505874 -0.03173979020391104 0.07484193444295195 0.01752729702941987 0.060575754994295614 0.05922177692305252
0.007873829941573793 0.055947660470075135 0.05164844485238575 0.013261201863385497 0.021519511318969044 0.012513968325477937 0.0014178542536917322 -0.019810141923270984
0.0896735284382368 0.047430624868130676 -0.10279029812503833 -0.008358637723552598 -0.004360694186495248 0.03504545741557494 0.01805415769042171 0.023621713461269175
-0.061847280038876226 -0.011877101278408918 -0.03123496672450779 0.08531135605442892 -0.0252142864381217 -0.06188192455969564 0.02114678158934929 0.08767757062773754
-0.043275661869031375 -0.007963894594660476 0.061218903668156036 0.024812830208802154 0.030124856899698755 0.005826538624547877 -0.011936535185451224 0.08326344015781326
-0.14161701353738365 -0.03644811772886675 0.015936299309466426 -0.021893558760348323 -0.12193005906373255 0.014485856703844321 0.033901784072400604 0.09247706343941395
-0.012191104950659495 0.009186458598035628 0.08917560023531658 0.07355107857598828 -0.05080749464515128 0.030407920182652245 -0.0772759749420918 0.01820258150301135
-0.0943712107111517 0.1320478473626127 0.0350225122091901 -0.09259858296554681 -0.020108283909988364 0.0254958677469378 0.03418229533258953 -0.001551423738764582
0.06639471832643111 -0.00867133146192565 -0.038603058300926876 0.04916632663433925 -0.03425809910330876 -0.03402307567381984 0.1756962675924953 -0.027646471630462303
0.07218953179739197 0.009142677206108396 -0.13209109330182056 -0.002106911236156717 -0.02061938605555774 -0.06752389077186224 0.017581882397727632 0.05391209377196715
0.015004339209461598 0.06491955134476624 0.025511941512472686 0.01669770212353309 0.06184078394806639 -0.026658304159881397 0.03568661785643747 -0.04249393059455351
-0.004104545554098028 0.03101875911858801 0.030360038424421792 0.07050396658762546 -0.10404220234862269 0.011866696887380799 0.0401625383865107 0.07529906832803278
-0.01568005815777106 0.07874247970449115 0.06547755823653756 -0.05868173462540489 -0.011066949381078987 0.04697444658193831 -0.010919821753993676 0.06651760148578176
-0.033983283033213366 -0.021894410080548106 -0.03128891625456928 0.11863170838254258 -0.03383344966762877 -0.046614596825586885 -0.006983418104311755 0.04553933810949848
-0.03996731850155599 -0.029692113370662035 -0.025171518793443953 -0.12598150469104968 -0.0030328744762982444 0.03284395894141662 -0.03168401153441571 0.05301662166441281
-0.0027520747867803286 0.15362021569670126 0.03843188454745013 0.07266045527933004 -0.04044063459126867 -0.06655651621704987 -0.031225503171201294 0.008838354781313899
0.01919047347903608 -0.04731048208582175 0.06517355127161355 -0.016709881737662583 -0.08725108255766069 -0.05868883147855744 -0.022033183095224885 0.059601262397262454
-0.036074250188496304 0.07637310706452487 -0.016984702514419824 -0.018612099681830425 0.014202669826793324 -0.1524373175147969 0.10291521262740365 0.024910516041517557
-0.036324268735435504 0.0030699047800134406 -0.04049159923187367 0.006631269083323145 0.05380551041592046 -0.034798621704823264 -0.046690721558212765 0.03280063265893485
0.06612391333952744 -0.04073780783939148 -0.06414588022209802 0.05844843542892208 -0.04711608497660035 0.0717878944640946 -0.08830863281060436 -0.0995016866682679
-0.09789820578585655 -0.02876710080220379 0.08773326532544445 0.02096517703481086 -0.052452993084766884 0.0016234664962119923 -0.03613986382920641 -0.03289792878407271

base.actor.actor_fc3.bias f8 [8]
00000000: 483f cc64 f020 773f f077 ef29 b277 81bf
00000010: 0522 6f46 d944 aebf 95f7 bd87 ff8d acbf
00000020: 073e 46a0 6774 8ebf a350 6ffe ee7c a93f
00000030: c806 0a62 d8b7 923f 9ffe 565f 6825 a8bf
0.005646647489598262 -0.008529083161132406 -0.059119024131693045 -0.0557708600235706 -0.01487046201580623 0.04978129249471521 0.018279438957057775 -0.047160398138200714
