results/Ant-3d/cmorl-ipo/4/final/EP_policy_30.pt (torch, 105481 bytes, 13 tensors)

base.actor.actor_logstd f8 [1, 8]
000000 d1 dc ee a8 82 4f fe bf 78 e0 c3 79 20 23 00 c0
       -1.8944117163608107 -2.0171517861272683
000010 bc db 12 f2 6a ab 00 c0 80 a6 f3 13 96 a6 ff bf
       -2.0837000762944324 -1.9781704692235564
000020 46 cf 39 27 c9 fb fe bf e4 9f 32 03 e6 9a fe bf
       -1.9364711315401606 -1.9128170132553288
000030 c9 a9 a3 40 47 c0 fd bf cb 52 b8 e9 97 ba ff bf
       -1.8594429516766573 -1.9830550317466755

base.actor.actor_fc1.weight f8 [64, 27]
000000 f5 fe a3 d7 a3 0c 9f 3f 26 84 38 8f 72 57 ae bf
       0.03032165530839755 -0.05926092146206256
000010 8a 0f b2 2b e5 79 d1 3f c2 04 b5 66 3a 40 e2 3f
       0.273064892455516 0.5703403478620646
000020 56 5f a4 2a 69 42 b2 3f a5 65 13 b1 2c dd ad bf
       0.07132584849420928 -0.05832805310792403
000030 5f d7 e5 cd 6b 3e a0 bf 61 dd 64 94 2d dd 73 3f
       -0.03172623527909368 0.004849603696406164
000040 ff da 93 05 e1 f2 c7 3f d9 f8 4c d6 63 f2 a3 3f
       0.18709957859365287 0.038958663854360594
000050 fe 10 e1 c5 5d 84 a8 bf c7 1b 40 bc 0c 94 b5 bf
       -0.047884874730273794 -0.08429030986745466
000060 24 77 95 99 52 b3 cb 3f 6a 57 6f da 97 52 b4 3f
       0.2164099931641711 0.07938527186283087
000070 44 a4 85 5f cd 94 d3 3f a7 10 a5 66 46 50 c2 bf
       0.30595716789554595 -0.14307479869797143
000080 11 71 e3 39 fe eb cb bf 20 56 71 5c f8 99 c9 3f
       -0.21813943697532825 0.20001129640392978
000090 2a 95 a5 a6 41 d8 d2 3f de 29 7b 51 9c 94 ab 3f
       0.29444924615957524 0.053868184038566844
0000a0 66 29 20 20 53 9c a9 3f f3 e7 71 3f a9 ed c9 bf
       0.05002078787954893 -0.20256534192941408
0000b0 9e 04 96 e6 0f 22 ca bf c2 89 dd 7a d3 0d b7 bf
       -0.20416449317057056 -0.09005471944468638
0000c0 f9 1f 07 72 d2 c7 a2 bf 8b d6 22 8a a7 db bc bf
       -0.03668077127400688 -0.11272666094267884
0000d0 da 87 a7 f3 1b 37 9d bf 26 ea 79 3d 12 5a da 3f
       -0.028530537363515275 0.41174751285112376
0000e0 55 56 5d 0a 08 b5 cd 3f c1 9f 8b c5 37 85 ce bf
       0.23208714014133372 -0.23844048639079854
0000f0 39 d2 28 cc 70 3a bb bf 76 d9 54 75 26 4f ba 3f
       -0.1063604830204178 0.1027702366307944
000100 8c 1a aa d5 61 27 b1 3f 75 4c bc 15 dc 73 af 3f
       0.06700717417161622 0.06143081441236912
000110 d0 1a ea 6d 60 f2 b9 3f f3 f6 f6 d0 a5 27 b5 bf
       0.10135462459048061 -0.08263622619321236
000120 a2 5e 44 e0 d0 9d 86 bf 78 18 32 75 89 14 cf 3f
       -0.011043197483146475 0.2428142378086624
000130 cc 75 a0 88 40 81 c1 3f 5c 66 8e 21 7d 82 b2 3f
       0.13675696059446663 0.07230360097164507
000140 9b 88 7d 2d f0 51 96 bf 56 3a 69 0f ed a3 c3 3f
       -0.02179694440508993 0.15344012501232623
000150 f6 f6 35 5d 73 8b cf 3f 6f bf d6 21 a8 80 54 bf
       0.24644319583233426 -0.0012513772884225856
000160 0c 30 e1 36 5c 0c be 3f 76 ef 86 0a 1a 40 c3 3f
       0.1173761018737311 0.15039372934358725
000170 61 47 c2 c0 6a 5f d1 bf f4 5b 9b a9 8c 04 c8 3f
       -0.27144879173385134 0.1876388385923914
000180 e8 07 ae d2 b5 b4 bd bf 83 5d 45 cf 01 b8 cb bf
       -0.11603866952466968 -0.21655295010235073
000190 32 21 5d b6 7f 42 9c 3f 37 14 c8 d0 f3 a0 ba 3f
       0.02759742308197239 0.10401843878942506
0001a0 66 40 1e 32 42 cf c3 bf dd b2 30 68 c6 70 d3 3f
       -0.15476252982307698 0.30375824141337465
0001b0 39 3b f2 86 48 f9 c9 3f 40 e2 e1 d3 88 ab a5 3f
       0.2029200228612014 0.04232432924704144
0001c0 8f 25 17 8f a3 56 cd 3f 51 81 0c cf 62 06 be 3f
       0.2292065094646145 0.11728494219687959
0001d0 2a c8 37 b1 3f 7e 9b 3f 6d 9a 81 9e 14 85 92 3f
       0.026848788444063278 0.018085786985830788
0001e0 9b d8 5d 60 62 51 a8 bf 60 b4 78 5d 6d f3 d1 3f
       -0.04749591280317241 0.28048261764599225
0001f0 8b 67 a6 16 a5 4c c3 bf ab 43 79 85 1f 2d c5 bf
       -0.15077651601751216 -0.1654395486571308
000200 e9 1d fa 49 2d 19 c0 3f 87 38 07 cd 16 4a d7 bf
       0.12576833831938863 -0.3638970377186372
000210 7d 1c 48 a8 fd 42 c2 bf f2 30 5f 47 ab d1 aa 3f
       -0.14266939846877227 0.05238089796293534
000220 e7 0d 6b 18 57 e6 cf bf 75 50 cf 36 17 86 84 3f
       -0.24921692554754246 0.010021382675326354
000230 9f 7e 9f ea cb 83 bd bf 08 7e 07 2a cc 2d c1 bf
       -0.11529230573750703 -0.13421012928209586
000240 22 14 c6 38 a3 ef bf 3f a0 2b a8 a0 c6 c5 96 3f
       0.12475032936170341 0.022238830142707777
000250 23 65 80 e6 d1 aa 48 3f fb 7c 8e 24 73 d2 df 3f
       0.0007527851967125448 0.49721983499507844
000260 5e 33 e2 2c 1c df ac bf 73 f8 6e 66 29 75 d6 bf
       -0.056389694670633914 -0.3509009838416041
000270 31 b6 7b 85 98 26 87 bf 2f 95 9b 36 06 f0 82 bf
       -0.011304084371171448 -0.009246872464653137
000280 13 f6 a3 57 7a 37 b4 bf 39 9d 55 04 ef d6 98 bf
       -0.07897152557048796 -0.024257406844666127
000290 b5 57 0d 9b 8b b1 cb bf 84 05 2f e5 dd 7f be 3f
       -0.21635575362114215 0.1191385921984161
0002a0 38 e9 fd a2 54 11 d4 bf 3a 79 5f 03 06 5a c3 3f
       -0.3135577766148745 0.15118479885763653
0002b0 31 c8 11 fb fb f1 a8 3f ba 54 bd ff c4 c3 c8 bf
       0.048721193693282656 -0.19347441184314623
0002c0 78 52 b9 fd ce 5b bb 3f c7 12 b0 ea 39 7c a6 bf
       0.10686963743621358 -0.043916520975505295
0002d0 a2 ad 76 ef 2f 19 e0 bf 40 8a c9 d8 fb 83 b7 3f
       -0.5030746151946242 0.09185766260774475
0002e0 a9 33 17 ae bd b4 a1 bf de a6 0d 5c 5f 2e c3 bf
       -0.03458206892137323 -0.14985267634192828
0002f0 59 08 28 2f 54 16 4e 3f 50 0c f7 fb 1e 9f c2 bf
       0.0009181891494452018 -0.1454809885309225
000300 5e 04 1c a1 17 e1 c0 bf 26 5e 3f 6f f5 d4 98 bf
       -0.13186927191421466 -0.024249873080263516
000310 45 f1 4f ee 3f 5f c0 bf 9f 23 0c f5 a4 1a bf 3f
       -0.12790679107991756 0.12150031073191635
000320 2a 40 53 eb 1e 6a c4 3f da 5f 80 e8 a3 26 cd 3f
       0.15948854914177107 0.22774170734987714
000330 e9 cf 28 43 76 35 c4 bf f0 35 aa 29 c1 16 c0 3f
       -0.1578815296103351 0.12569441351335753
000340 fe d7 2f c9 f3 ee d0 3f 4e 4f b2 ce fb ac b6 bf
       0.2645844902721136 -0.08857702060987302
000350 73 cf 19 c3 57 a4 b8 bf 66 9e 62 35 b0 56 d2 bf
       -0.09625767243579535 -0.28654103482629123
000360 d6 ca 38 4e 3b 24 b3 bf 42 66 b0 2d 44 5d 85 3f
       -0.07477160129273427 0.010431797642058819
000370 c7 fe 1e 39 96 be d2 3f 1e 7a cf 66 03 3f c7 3f
       0.29288249567251196 0.18161051292459346
000380 e6 6c 62 6f 51 44 b8 3f 83 4f d1 05 0a 55 c4 bf
       0.09479245156619562 -0.1588451889425607
000390 d1 14 87 65 29 a2 a5 bf 43 2e 56 0e 12 60 aa 3f
       -0.04225282062865577 0.051514209985807934
0003a0 d1 57 b2 c1 9a e4 4d bf 83 30 2e 23 ec bf a2 bf
       -0.0009122615478129819 -0.03662050179909306
0003b0 02 c8 22 e9 d4 a0 d3 bf b2 dd 25 50 2e d3 c7 bf
       -0.306691386863463 -0.18613222993347517
0003c0 63 39 1f 63 ce 38 c5 bf 9d 83 e2 b5 3e 26 a3 bf
       -0.16579608764591133 -0.03740116091035548
0003d0 80 08 71 12 08 f9 b7 3f 3d b9 51 8c 59 d9 ab 3f
       0.09364366960747539 0.054392622355282395
0003e0 0c 14 42 58 c6 66 c0 3f 04 2e 18 f2 82 e9 ce bf
       0.12813643750647008 -0.24150120564478084
0003f0 71 0c 14 68 6f 6c 95 bf 75 e3 bf 22 33 fb cb bf
       -0.020921459891735276 -0.218603507964669
000400 15 26 6f c6 a7 40 b0 bf c6 d8 ac 43 cc 88 9a 3f
       -0.06348656267723414 0.025912467604222632
000410 81 20 ab a2 fc 3c 9c bf 6b b7 65 7c 2a 61 bd bf
       -0.027576396397109185 -0.11476388489765348
000420 df 12 79 91 52 22 ba 3f 96 49 d9 ac ba 2d bb bf
       0.10208622027955581 -0.10616652221623321
000430 ba 74 59 a4 f0 5f c6 3f 5d 40 79 62 84 29 a5 3f
       0.17480285668253775 0.041332375546176726
000440 9b b8 19 e3 da 5c bf 3f 55 c5 d8 22 81 f7 c5 3f
       0.12251060528226036 0.17161573602201466
000450 d5 e3 aa 99 d1 41 b5 3f ab 1f cd 2f a2 4d d0 bf
       0.08303556443833256 -0.25473837535946114
000460 39 e4 3e 9c 42 50 a3 bf 9b fa b7 c9 51 4e e0 bf
       -0.037721711705167534 -0.5095604839151123
000470 d5 31 b5 de 65 0b ad bf ec 70 ab ce 25 57 c3 3f
       -0.05672758430100414 0.1510970362786631
000480 ed 1a 88 4b 52 3b 87 3f 0d 93 c1 2a 72 e8 ce 3f
       0.011343615465205537 0.24146868789389267
000490 08 54 01 6d df 8f ba 3f ff 21 f7 da ae be c1 bf
       0.1037578240514706 -0.1386316842238244
0004a0 9f c1 08 7d 81 77 b8 bf d7 8c a9 2e 0f 87 be bf
       -0.09557351400940782 -0.11924834145752371
0004b0 ef cd 64 23 a1 a8 bc bf 75 44 78 06 83 9f a7 3f
       -0.11194808115106246 0.046138853587884755
0004c0 b5 e1 08 9a fa f7 cd 3f 5a aa 87 c8 c2 4d c8 3f
       0.2341302158472566 0.1898730734968293
0004d0 f4 f6 fe e3 7e dd ad bf e7 05 9d 5d ab 10 ae bf
       -0.05833050282624966 -0.058720927407659045
0004e0 df 3a 60 13 d5 5c c9 bf ab 00 6e d6 71 43 c3 bf
       -0.19814551778878006 -0.1504957482357033
0004f0 3b 63 82 7e b4 f1 9e bf 89 d6 50 9d c0 eb c1 3f
       -0.030218906613842505 0.14000709229883437
000500 85 85 bb 30 42 b5 a5 bf dc 05 61 15 c0 31 b7 3f
       -0.04239851803664422 0.0906028797335447
000510 6e e7 a9 26 71 e6 c9 3f 80 5c bb 21 22 5c b4 bf
       0.20234503162265177 -0.07953084300548774
000520 9e 2d 64 1a ad e7 d0 bf 13 b3 8e 0f dc da 80 bf
       -0.26414039208676765 -0.008229941582464961
000530 9a bf e0 04 50 42 c5 bf 39 3b 7a 05 eb de cb bf
       -0.16608619917087425 -0.21774041907743838
000540 50 49 10 0c 5f 6d 9c bf c2 9c 6d b2 6a 7d a3 3f
       -0.027760968314461565 0.03806622913435255
000550 50 f7 29 b2 98 cb cb bf 4f 55 82 e5 03 2d d3 bf
       -0.21715077113543169 -0.29962251103400644
000560 86 c1 6f b0 97 5c c5 bf 61 74 67 44 90 b4 96 3f
       -0.16688819994989162 0.02217317025666821
000570 4c e8 e2 95 ae 3e ce bf 8e 21 76 68 06 d7 ab 3f
       -0.23628790205640582 0.05437488579906634
000580 75 8c fd 00 f3 11 be 3f 7e dc 8e e3 f6 4d a6 bf
       0.11746138357334408 -0.043563571241457474
000590 9d bc e5 06 e0 47 cb bf 44 5c 5d d8 d2 c7 59 bf
       -0.21313095413959085 -0.0015735205683620338
0005a0 66 e5 25 89 86 91 aa bf ed 0c 70 4c e6 37 c7 3f
       -0.05189152168436344 0.18139342052754817
0005b0 32 9c 86 38 92 3b b3 3f 0e f6 3e 13 f5 cc c5 bf
       0.07512773399376796 -0.17031730117553007
0005c0 c9 90 64 79 63 5c d7 bf 2f 82 6e ba 6a a8 97 bf
       -0.365013950870218 -0.02310339701546321
0005d0 09 de 81 1e cf b0 be bf 59 3e 0d 80 e8 d6 b1 bf
       -0.11988539213950146 -0.06968548895133021
0005e0 db 27 62 e3 82 f1 bd 3f 3b 85 7e 95 e2 ef c9 bf
       0.11696641970971149 -0.2026332120849846
0005f0 6c 13 0a f9 d3 68 bd bf 7c ef 66 92 57 65 db 3f
       -0.11488079862654182 0.42806042954520485
000600 fe a6 3e 2e 81 d3 bd 3f 7f fd 62 46 af 59 bc 3f
       0.11650855425855508 0.11074347942757433
000610 9b d9 35 69 cf df ce 3f 71 04 ee 08 0c e7 c5 bf
       0.2412051452371998 -0.17111349521659094
000620 78 e2 69 eb 1a ec cc bf 8d e3 69 d9 e5 e8 cb 3f
       -0.22595535750203388 0.2180449782934172
000630 46 4d e6 83 12 64 82 3f aa 96 4c 30 67 f9 ba 3f
       0.008979935312516073 0.10536808900050212
000640 13 dc 8e db 11 c9 d5 bf d1 1a 89 11 a9 b7 c4 bf
       -0.340397324001459 -0.16185487133244306
000650 90 93 b8 fe 41 e8 b5 bf 46 90 9d 8e 0d 9f c8 bf
       -0.08557522267126516 -0.19235391105314842
000660 80 60 60 89 da 5d 9a 3f 80 3b 68 d0 92 1a a6 3f
       0.02574864829520651 0.04317148965866746
000670 ea d7 18 89 e2 e0 8e 3f 16 4a 69 2a 45 03 c9 bf
       0.015077371415014047 -0.19541229792464837
000680 4e ba 22 bf c9 77 b5 3f 43 38 55 66 bb e2 b0 bf
       0.083859070934275 -0.06595965622293058
000690 01 43 72 f9 c1 79 bc bf 55 66 49 39 c7 ce 99 3f
       -0.11123287525175486 0.025202858802322165
0006a0 d1 64 a1 94 e6 45 ac 3f a2 f3 7d 94 92 2e 7c 3f
       0.05522080005966646 0.0068803525717812414
0006b0 d8 1a 07 5b 75 b5 ce bf 65 f5 d6 e9 9e 18 ba 3f
       -0.23991267151560325 0.10193818291641817
0006c0 de 2d 2e f7 f9 2f b1 3f e4 86 b5 60 5f dc 9c 3f
       0.06713831219365526 0.028184404637960805
0006d0 fc 31 f6 b5 5a a5 dc bf f8 7e a7 c0 97 ed b9 bf
       -0.44759242791840825 -0.10128162816499386
0006e0 f2 c5 a7 be f6 58 c0 bf bb 39 0f f1 ef a4 c8 3f
       -0.1277149611410518 0.19253348608476792
0006f0 02 57 70 2f c8 18 c0 3f b5 b5 fd 52 5d a8 84 bf
       0.1257562858233357 -0.010086754889665575
000700 51 65 7c bf f1 aa c3 3f 27 e3 f1 9b 24 01 ca bf
       0.1536543068876122 -0.20315988173003882
000710 63 37 ae 88 d0 37 ca bf 14 9c 24 e0 e2 9f bf bf
       -0.20482832597593434 -0.12353342029801723
000720 9e ef cb f4 61 a6 bf bf 31 73 48 e7 27 64 ba 3f
       -0.12363254763107398 0.10309075733716778
000730 e4 81 3c 4d 76 32 c7 bf d5 85 37 7c ba 3d e2 bf
       -0.1812274815683984 -0.5700352121459057
000740 37 10 c6 f5 d4 99 ca bf dc e2 05 26 7a 16 c0 bf
       -0.20781957626980027 -0.125685947957911
000750 c9 a0 71 02 d8 6e c0 bf 46 29 a9 a1 d7 ca a1 bf
       -0.1283826839383038 -0.03475068901441829
000760 6b a9 eb eb e3 89 c1 bf d2 62 21 38 4e 22 be bf
       -0.13702057857092184 -0.11771096105929793
000770 4a 96 a0 53 9a 10 da bf f7 5c 7b 16 eb 9d aa 3f
       -0.4072633568451677 0.0519860711044035
000780 09 09 e0 91 dd d8 b7 3f 5d d4 be 91 50 43 a2 bf
       0.0931528550281976 -0.03566982058638566
000790 fa 3e 90 a4 5d 9c b6 3f 36 21 96 2e 68 41 d8 3f
       0.08832345264113065 0.37899212407548377
0007a0 bf 9c fe 84 bc 40 d6 3f 7a 5a ea 66 d3 98 cc bf
       0.34770119655372506 -0.22341387295883292
0007b0 b7 4b db 3d 6d 0d 80 bf 50 5c 7a b8 a4 51 d8 3f
       -0.007838109445776327 0.37998312011172164
0007c0 7a e7 b0 6b 3b 0d a6 3f 81 7b 7b e5 e8 9a 61 bf
       0.04306970300281328 -0.0021490620382417784
0007d0 c5 47 cb b7 26 d6 c3 3f 82 9c 3b 98 f2 9a a3 bf
       0.1549728772575333 -0.03829153164206735
0007e0 57 fd a6 f9 64 97 a7 3f 07 09 0f 0d 27 c0 b4 bf
       0.04607692286981074 -0.0810570151216191
0007f0 ac 43 30 af a2 58 c3 3f a7 92 ed 07 df cd c0 3f
       0.15114244035842483 0.13128269087896635

base.actor.actor_fc1.bias f8 [64]
000000 64 c1 6e 1f f7 8f ae 3f 47 07 c4 14 f6 e3 a4 bf
       0.05969211825083923 -0.04080170634735097
000010 4d a2 4c 91 82 b2 9d 3f 73 93 e0 5a cb d2 80 3f
       0.029001274221771834 0.008214558325627874
000020 27 1a 2c 0a fa de a0 bf 65 63 1b 68 0d 36 a9 bf
       -0.03295117735074298 -0.04924051185452675
000030 3f e5 08 c1 f4 29 9c bf b6 1b 38 75 1e 00 9a 3f
       -0.02750379970732308 0.02539107885788968
000040 31 fe ea 17 32 d7 c2 3f 44 7f 16 46 0f 2d 93 3f
       0.1471922508990118 0.018726576474022552
000050 ae a8 ce 7f cf 29 c2 bf aa 08 9e 7c a1 22 be bf
       -0.14190095654095586 -0.1177159241906646
000060 8b 6f ee e4 f3 c9 90 bf 85 8a 8a f2 ae 0f 82 bf
       -0.016395388458121423 -0.008818976189393321
000070 02 92 e8 b1 7b 3a 74 3f 78 d2 ce a5 39 31 af 3f
       0.004938586409967362 0.06092243336698727
000080 12 af 67 72 8d ea 6a bf 2c 1f 1b de e5 11 a4 bf
       -0.0032856714853916136 -0.03919905029539303
000090 fa 41 6b 8a b5 92 b6 bf 07 5d f0 fa 56 13 94 bf
       -0.0881761038720085 -0.01960502535447708
0000a0 d5 e5 fc b3 6f 03 bf 3f cf 89 3c b1 45 9e aa bf
       0.12114618438945197 -0.05198877132922385
0000b0 06 47 51 44 ac dd 92 bf 3c ec 07 0e 35 64 b2 3f
       -0.018423740072029758 0.07184154121925784
0000c0 bc 68 75 55 90 56 bb 3f b3 ca 96 31 09 9a 98 3f
       0.10678960882561034 0.024025100375818464
0000d0 d2 21 b6 94 f2 db 63 3f f7 30 dc 18 4f 1d c0 3f
       0.002424215117290831 0.125894438875896
0000e0 57 74 04 9c 68 8f bf bf 58 f6 bd 13 68 a9 b0 3f
       -0.12328199204462585 0.06508493883117106
0000f0 22 d8 09 b4 8a 47 c9 3f bf bf 6f f9 20 c6 af bf
       0.19749578276577134 -0.06205847782973661
000100 d1 1c 73 61 47 20 91 3f 9b 3b 72 34 6a 5e b4 3f
       0.01672469646726144 0.07956565647530882
000110 42 ff 4d 81 c3 ec c1 bf 56 53 a9 d6 76 b4 99 3f
       -0.14003795446114436 0.025102478839772978
000120 3f 69 04 40 e8 3f b8 3f da 3e 9f 4f 66 d3 ae 3f
       0.09472514689369847 0.060206601352204195
000130 f1 e7 54 a1 5a e4 90 bf 15 e1 89 40 dd 6b 78 bf
       -0.016496101471808747 -0.00596224238017153
000140 09 bf 3e 68 cd 38 ae bf 20 15 b5 d4 68 81 ad bf
       -0.05902711770556663 -0.057627941098454594
000150 0b ca 15 76 d6 79 ad bf 1e d5 e0 06 7a 68 c2 3f
       -0.05757017318218879 0.14381337486126083
000160 8e ea 9e a5 da 49 c7 bf 3a 57 9a 82 5c 05 ae 3f
       -0.1819413479514264 0.05863465399049379
000170 c9 41 54 06 1e 06 bd 3f cb 76 51 54 db 2b af 3f
       0.1133745923473334 0.06088147548937924
000180 dc 3d 15 52 df 84 91 bf 68 af a0 7d c6 19 a9 bf
       -0.017108430275866712 -0.0490247753481004
000190 50 36 a7 fa 5c 2f a5 3f e4 fb 83 0e 33 41 c8 bf
       0.04137697753649816 -0.18948972901122751
0001a0 8d 54 20 9f 00 14 86 bf 0c cf 95 e4 09 1b a9 bf
       -0.01078033910384082 -0.04903441348406376
0001b0 7a f0 46 2b 05 6e a0 bf 0b cd 93 8d 97 6f b0 3f
       -0.032089387448167764 0.06420275885084352
0001c0 4d e8 2c e8 57 0a c8 bf aa f2 f0 5b 54 3a b2 bf
       -0.1878156551045457 -0.07120253796251555
0001d0 ce 4a 71 c8 0e f7 b4 3f 3b 41 84 1c 0c 1b c0 3f
       0.08189480203263175 0.12582541839993575
0001e0 39 a5 9c d3 4d b9 91 3f 77 79 5e 09 98 66 c3 bf
       0.017308441200986045 -0.15156841714356137
0001f0 06 9c cc da 24 43 b5 bf 53 b0 d9 5f 94 6f 85 3f
       -0.08305578557757096 0.010466727423782773

base.actor.actor_fc2.weight f8 [64, 64]
000000 f7 59 05 bd 2f fd 95 bf 47 1f 71 af 0e fb c7 3f
       -0.02147364226524392 0.18734916273592203
000010 ac 89 a7 41 36 70 bc bf fa fb 04 74 a2 d4 c6 3f
       -0.11108721831218443 0.1783640924931829
000020 94 9b 33 01 23 20 cc 3f ea eb cb bd 6d dd b2 bf
       0.21973073538466947 -0.07369123347955023
000030 e0 fa 98 b6 bb 08 b8 bf b8 28 00 2f fc b6 37 bf
       -0.09388325889538462 -0.00036185890985563794
000040 27 ce bb b2 72 98 a2 3f b0 9c 69 f0 7a fa 78 3f
       0.03631933624083344 0.00609825156298098
000050 97 2e 2c 9d 5d 4b bc 3f 78 47 2b e4 7d fd b7 bf
       0.11052498900624595 -0.09371172733815836
000060 11 ee 53 9c 55 10 c1 3f e8 f4 d8 52 a0 db b3 3f
       0.13331098683544032 0.07756998083728528
000070 80 e9 19 56 46 b6 bd 3f dc 12 00 90 40 b8 b3 3f
       0.11606254198151156 0.07703021541244531
000080 a8 d0 e4 69 6f c9 bf 3f bd 74 fc d5 f2 88 b5 bf
       0.12416740737245624 -0.08412091945907015
000090 97 aa dd c6 d1 17 7c bf 7f ee 95 7c e6 bc a7 bf
       -0.006858653488829212 -0.046363070209705086
0000a0 b2 5e f7 d5 7a 44 bc 3f 46 92 f6 a6 4b 98 b9 3f
       0.11041991924082131 0.09998009516000037
0000b0 a0 9f 53 7e ef 0f 9e bf 77 96 c6 49 19 db 9b bf
       -0.02935766418968877 -0.027202983024514595
0000c0 02 27 d2 68 2a 8d c1 bf 9c 32 e9 6b f9 d3 96 bf
       -0.13712053411682495 -0.022292992793426877
0000d0 a7 56 b6 70 3d 4d b0 3f 70 14 da a5 16 76 c4 3f
       0.06367858888401177 0.15985377405391743
0000e0 6a 88 70 33 87 df c7 bf 1d 31 d5 f7 3f 65 bc 3f
       -0.1865090371293861 0.11091995049099919
0000f0 34 54 f8 1e cb 0d a4 bf 5d e9 9f 5b fd cf b7 bf
       -0.039167735605737525 -0.09301742064409298
000100 2c 20 3f e4 8f 3d 90 3f 5d 2c b8 ec 51 19 b8 bf
       0.01585984068495365 -0.09413635281832584
000110 ba e7 f7 22 1e 9b a5 bf 3e e6 62 9c 0a 14 b2 bf
       -0.04219907929287055 -0.07061830823922663
000120 16 f4 26 b6 cd f6 b0 3f 01 71 fe 7d 70 b3 a0 bf
       0.06626592347215907 -0.03261901414882296
000130 34 43 21 7a 90 06 d2 bf 87 b8 c9 3f b9 7b af bf
       -0.28165065695525304 -0.06149081138288275
000140 30 8e d8 ad 67 eb ad 3f dc 80 16 6c 44 d5 c0 3f
       0.05843662259237836 0.13150840070466685
000150 68 94 9a 13 45 1b d7 bf 90 66 59 ce 29 e3 c5 3f
       -0.36103941835819464 0.17099497390409057
000160 62 af 27 5f 8b 31 cc 3f 8a d4 af 71 cd e5 ba bf
       0.2202619757293816 -0.10506900811727085
000170 4f ca bf 42 51 47 c8 3f 1d 3a d3 5f f7 a0 56 3f
       0.18967643508183804 0.001381150795441883
000180 66 43 78 5f 64 fd ca bf a8 46 c5 71 8a 28 bb bf
       -0.21085791265116 -0.10608735349276321
000190 ce 09 52 4c e6 ae b4 3f 94 a7 78 79 50 90 c6 bf
       0.08079375613491566 -0.17627912455764927
0001a0 10 1e 92 02 da 17 82 3f 61 b0 d0 27 a2 25 91 bf
       0.008834555819944107 -0.016745122604490684
0001b0 b5 fe 20 08 42 56 a2 3f aa 30 e8 69 37 d3 a6 bf
       0.03581434582929203 -0.044580203703021695
0001c0 26 21 a3 3b 8e e7 ac 3f 3e f7 66 26 2d 21 d3 bf
       0.05645412900918449 -0.29889992475715477
0001d0 33 31 32 a9 50 4c 73 bf 44 dd d1 98 0b 14 d7 3f
       -0.004711451608397521 0.3605984680538834
0001e0 00 31 4a 44 72 fb c4 3f db 9e 7a d4 06 5d d1 3f
       0.1639235337683047 0.2713028979292013
0001f0 2c 59 a2 88 9e 87 73 3f b9 96 80 3d 02 c4 d3 3f
       0.004768008491870906 0.30883842474063844
000200 9c 53 b1 c5 d5 11 a3 3f 73 20 fd c1 0e 11 b0 3f
       0.03724544561615703 0.06276027904562102
000210 8a 39 0d 68 6c 3b ce bf 31 6c 2d 91 95 6d bd bf
       -0.23618846016547607 -0.114953372901639
000220 bb d2 d2 b7 b3 a7 c8 bf 18 37 5c 5b d9 bb c7 bf
       -0.19261785960920527 -0.18542019806812315
000230 8c be a7 1e 63 f8 d1 3f 7b 83 e2 50 95 5e d9 bf
       0.2807853507392586 -0.39639790438564376
000240 8d 85 a7 a4 b6 15 aa 3f b1 c8 85 0e bd 01 76 3f
       0.05094691047612363 0.005372751715514366
000250 2d b8 f6 a7 07 bb c7 3f 89 05 02 3f e3 ad b0 bf
       0.18539519978861688 -0.06515331543234572
000260 40 f4 d6 95 9b ea a2 3f b0 a5 bb d6 a4 5a c5 3f
       0.03694616512391535 0.1668287323475801
000270 e9 8b 7c b3 a2 f1 d4 bf 8b 0b f2 92 93 35 95 3f
       -0.3272482636259029 0.020712190479126796
000280 7e 1d f9 3e cb 96 c3 bf 7a 42 0e d1 32 e4 ad 3f
       -0.15303936552866654 0.058381641406531196
000290 49 f9 9c 53 d3 87 db bf 0d 5c 51 a9 98 24 b0 3f
       -0.43016513028478137 0.06305841573463074
0002a0 e4 d8 ca c0 2a 5d b7 bf e0 a4 79 bc c5 96 c1 bf
       -0.09126536566586513 -0.13741370871438274
0002b0 3c 7b 73 4e 9c 23 d1 bf 19 e9 a3 52 ba 1b af bf
       -0.2677984968303695 -0.060758421504902134
0002c0 b0 eb bc b3 a6 12 be bf 98 c3 b5 ea 31 7c 76 bf
       -0.11747209442266526 -0.005489535319939252
0002d0 1c 68 8f 31 0d 1d b2 bf 6d 06 83 a2 a6 71 ac 3f
       -0.07075579128232373 0.05555458768641306
0002e0 9b 11 d6 d7 05 c4 d9 bf 12 23 5c 96 6c 18 a6 3f
       -0.4025892837310267 0.0431550916237652
0002f0 ac 8b d1 68 5c 72 cc 3f 17 2c 7b 53 ea 06 ce bf
       0.22224001997082377 -0.2345860393164407
000300 18 9a 97 a4 0d 05 c9 3f 24 ec 73 9b 56 bc c4 bf
       0.19546671425560258 -0.16199762907476256
000310 65 24 3a fc 4a 0d d2 bf fb 78 56 35 36 66 72 bf
       -0.2820613349109123 -0.004492007972116459
000320 a2 da 83 63 d4 19 8b bf a6 ac e4 27 71 e3 ba 3f
       -0.013232859885176144 0.10503298973042038
000330 6e 33 55 09 63 6d cf 3f 4f 99 4d 34 0c 4d c2 3f
       0.24552572208122164 0.14297630838263806
000340 a5 ab 59 6a c2 09 c1 3f 9f 22 4a c7 a0 0b ca 3f
       0.13311033432850397 0.2034798596471505
000350 db 61 22 74 26 a3 c5 3f c4 cb 0d 5c 64 e2 9d bf
       0.1690414492666282 -0.029183929556392277
000360 51 9b 58 ac 1e 4d b8 3f 93 de 23 a1 71 e6 ce bf
       0.0949267550246138 -0.2414075886551826
000370 1f 01 50 4d 73 e3 a7 bf 0b cf 8d 6f ac 9b ae 3f
       -0.046657183826029895 0.059781445138382315
000380 7a 50 dc ca a6 13 c7 3f 40 43 a7 45 db 6f c8 bf
       0.18028721719076995 -0.19091359044116452
000390 d8 30 6e e7 14 15 d2 bf 19 b8 62 d5 54 8f 96 bf
       -0.28253672218921855 -0.022031140827202565
0003a0 3f 71 dc c7 25 6d a3 bf 8e 26 20 3d 0e 01 b1 bf
       -0.03794210495672922 -0.06642235748599942
0003b0 b7 01 20 83 2c 83 b9 3f 1e cc 12 78 48 87 a9 3f
       0.09965780450148186 0.04986025300731732
0003c0 42 75 5d e9 4c 77 c0 bf 92 08 8a 91 05 ca bf bf
       -0.12864076037195998 -0.12417635729983292
0003d0 7f 52 4e e5 3f 29 ae bf bc 83 98 87 98 a0 a3 bf
       -0.05890845941681721 -0.03833462386342698
0003e0 ba 1c b7 38 f9 25 c3 3f b7 32 d9 10 f3 5c b1 bf
       0.1495963599138344 -0.06782454644526124
0003f0 a5 b6 65 f5 c0 7f a3 3f 7f 00 c0 fd ba 4c c4 3f
       0.03808405871937496 0.15859162702691162
000400 ed 30 67 47 28 19 a9 3f 7f 5e 8f 47 9d ae b7 bf
       0.049020060268590494 -0.0925081538874739
000410 f7 1c 8f 6d b0 5d a6 bf 34 85 fc 4e 1c 39 7a 3f
       -0.04368354165449689 0.00640212114356702
000420 4f d1 59 6f 7c a2 d2 3f 05 a9 c9 67 e7 10 d1 3f
       0.29116736291986894 0.2666567338516333
000430 08 be ad b7 ef 8b a3 3f 0f c2 f5 0f c3 59 a8 bf
       0.03817700497790716 -0.047559829424134496
000440 d5 2e 10 ac ea ca c1 3f 54 7c 2b 11 1f 18 75 bf
       0.1390050258781829 -0.005149957042447435
000450 35 4c 4b 63 e7 a7 b9 bf 9d e3 cb 75 1c 15 aa 3f
       -0.10021825956509718 0.050942315463493794
000460 d9 ee 55 5c ca 2e 95 3f 28 b5 35 85 09 aa b2 3f
       0.020686303983423613 0.0729070615977504
000470 f2 de 61 7e 02 66 ce 3f 91 c8 db ee eb 26 b3 3f
       0.2374880902386774 0.0748126466894823
000480 a0 80 70 2c a0 25 69 bf 90 7b 6c 8a f4 ae ba bf
       -0.0030696991339170393 -0.10423210505949343
000490 26 93 90 9a 7f d5 ca 3f f2 0a e4 53 e0 91 cb 3f
       0.20964045569521622 0.21538929077367858
0004a0 c2 af 49 56 d0 88 a8 3f 09 db a1 07 d1 8d ba bf
       0.04791880658453308 -0.10372644840559188
0004b0 ca 5c aa 58 67 40 c3 bf fc f9 97 68 95 66 82 bf
       -0.15040294484490452 -0.008984725241131912
0004c0 dd bf f5 8e a8 e9 d1 bf f6 bd 5b 51 c5 ae bb bf
       -0.279886378869376 -0.10813554035461678
0004d0 62 57 8f 94 07 cc b9 bf 36 27 c9 d0 40 a4 b9 3f
       -0.10076949479056688 0.10016255471523725
0004e0 b2 20 b9 7b 93 26 d0 3f e4 b7 4a 60 a4 a2 d3 bf
       0.2523544986947953 -0.3068018856382635
0004f0 7e 16 87 8d 1e 72 d0 3f 8c 97 64 e4 5a 68 c0 bf
       0.25696529217780284 -0.12818466331480882
000500 75 c0 48 31 8c 86 be 3f 47 c2 67 b8 36 76 c3 3f
       0.11924053385951246 0.15204509739079894
000510 d6 5e c8 f2 8d 06 c5 3f 4e 52 79 50 f6 10 b6 3f
       0.16426252703307992 0.0861963221044075
000520 f4 04 d4 76 5d 2d c6 3f c3 c3 0e 5d 7d d7 b1 3f
       0.17325943281324607 0.0696943618957127
000530 f8 88 82 69 ac 3d a8 bf 6b 2c be 10 35 89 b5 3f
       -0.047345531348826186 0.08412486704598769
000540 6b 27 02 43 4e 62 78 bf 2e 39 eb ab 8b 5a 9d bf
       -0.005953126630751852 -0.02866571652230581
000550 3a 3b 64 23 79 bb 93 bf f3 22 88 b9 98 a5 c5 3f
       -0.019269840989234434 0.16911610659760576
000560 98 f3 be 0c dd 1b d5 3f 9f c2 a3 6f 60 fd c3 3f
       0.32982565159528 0.1561699433437029
000570 03 09 d3 75 e6 73 b1 3f 76 04 a8 ce af 6a c2 3f
       0.06817474724360655 0.1438808211387685
000580 21 3b c8 ab 55 c5 c4 3f 04 ec 51 01 55 a4 d2 bf
       0.16227217567253496 -0.2912800324335765
000590 98 f0 8a 9a ce 12 b0 bf 3f dd 50 f9 97 e5 a2 3f
       -0.06278697274223288 0.03690791052252473
0005a0 25 8a 4f 9e b1 81 a2 3f 58 55 39 a3 bd 25 8d bf
       0.036145735335385155 -0.014232141059589296
0005b0 4c 1a 2e 2c d3 59 b8 bf c4 09 56 0e 0b 26 af bf
       -0.09512061909308861 -0.06083712148667389
0005c0 4b 83 ea 0a 64 48 b4 3f 1e 96 de 07 bb 97 b4 3f
       0.07922959581857218 0.08044022504926615
0005d0 31 81 ab d7 37 ee b9 3f d0 fd 5a f4 f8 22 a6 bf
       0.1012911702669086 -0.0432355688367313
0005e0 d8 62 c5 78 f6 78 43 3f 98 b9 c4 2c fd 49 c5 bf
       0.0005942538714790125 -0.16632046400031864
0005f0 e0 da e5 19 fd e8 cb 3f 6e 73 12 cb 1d 60 b6 bf
       0.2180477501348923 -0.08740411956610014
000600 6f ba ab 2d 9f 78 c8 3f af fa 1b 8d 75 ee b3 3f
       0.19118108491916838 0.07785734839488144
000610 ad be 08 9e 56 8f 9d bf bf 27 8e db 75 95 b1 3f
       -0.028867104907645814 0.06868683443295164
000620 56 0e 03 71 9f 55 b5 3f be f0 22 f3 e0 a9 c3 3f
       0.08333775052147394 0.1536217868032334
000630 42 08 fc 22 ed 6f c8 3f 90 bf a9 ec b2 e6 c3 bf
       0.1909157200644263 -0.1554778724271242
000640 b7 50 6c 75 0f 03 b3 3f 08 4c 3a 6b 27 52 d4 bf
       0.07426544777655662 -0.3175142810006837
000650 b7 48 ca 84 62 a8 d0 bf 06 71 0d 5f 27 c9 c2 bf
       -0.26027739494123686 -0.14676372662768972
000660 62 f0 73 48 f5 d3 cf bf 07 11 65 c1 2b 26 cc bf
       -0.24865594899881943 -0.21991488402466805
000670 87 56 ea a4 64 ea 99 bf dc 7d 17 3e 28 42 a5 3f
       -0.025308201375614316 0.04152036436039072
000680 c2 15 95 17 0f 83 cd 3f 8f cb d8 9a c1 ea b1 3f
       0.2305621018551119 0.06998834639015981
000690 e2 db 3f 87 e4 39 c1 bf 9f ae 02 3a bf 58 90 bf
       -0.13457924465157506 -0.0159635428578172
0006a0 2a 11 7b bc d1 99 b1 3f e9 88 53 ec 3b 28 d2 bf
       0.06875334598141039 -0.28370569304219245
0006b0 33 64 3b 7e 24 12 c5 bf 8c ff 7d 10 a6 30 c6 3f
       -0.16461616672202836 0.17335964017183547
0006c0 c0 8b 04 0a 5e 45 92 3f 89 09 bd 19 41 9e 7b bf
       0.017842740403590573 -0.006742719935404992
0006d0 1e 09 30 87 4f 4e c5 bf 2b 04 77 15 1c f8 cc 3f
       -0.16645235157927457 0.2263217072304838
0006e0 5c 3c 7a 6a 83 71 bc bf 61 1b bd 2c 93 ba 85 3f
       -0.1111070761637491 0.010609769633118384
0006f0 46 64 17 fd 3f d9 c3 3f 2f 2e 9f 30 82 3d cb bf
       0.15506744249322163 -0.21281459211455586
000700 e8 0c f3 f3 12 7f a7 3f 6f ae 33 3b b9 a4 c1 bf
       0.045891372946721465 -0.13783946409909073
000710 7f 97 18 ba 94 08 a2 3f 4b ef 64 e6 dd 4e b0 bf
       0.035221717564396286 -0.06370341181621801
000720 6b 92 e0 cc 01 94 c0 bf a6 d8 3c f8 23 be d2 3f
       -0.12951681617518615 0.29285525552712455
000730 30 70 b7 60 76 6a c9 bf 2c 99 42 a5 98 d6 d2 bf
       -0.19856147501457277 -0.29434791697203155
000740 2d 65 e7 23 28 4d ca bf 4c ca cb 2b f4 0e b9 bf
       -0.20547963860625754 -0.097884426777264
000750 14 88 2b ea b5 d4 c1 bf bb bb 40 2f ab 19 c1 3f
       -0.13930391248783336 0.13359584624546791
000760 86 99 81 8c 34 43 c7 bf a5 1c c2 99 05 95 ce bf
       -0.18173844204575235 -0.2389227867863372
000770 12 98 64 68 9c ae c5 bf 7c f7 52 27 59 fc b7 3f
       -0.16939120385467327 0.09369427881298792
000780 72 f3 70 68 8f 4c c1 bf ae e4 b3 30 43 01 9f 3f
       -0.13514893150013624 0.030278253409936333
000790 d7 e4 2a a3 33 8c ab bf c6 c0 d6 ca 6f ad ba bf
       -0.05380402914802012 -0.10420893385048932
0007a0 84 61 c6 2a e0 01 cc bf a0 9a 84 35 5e 00 c1 bf
       -0.21880724037761123 -0.13282373059447128
0007b0 24 d7 b1 86 86 b6 a8 3f e7 a1 ad e6 4d 4e d5 bf
       0.048267558996413024 -0.3329043152539541
0007c0 a2 65 0a 4d 0d 01 bf bf 30 4a ab 1d ee 2b b1 3f
       -0.12110980158686016 0.06707657074301987
0007d0 0d a0 12 b4 05 1e b0 3f 3c 6b 56 f1 61 f2 c5 bf
       0.06295810362155425 -0.1714594295889017
0007e0 18 1e 25 2e d4 36 b5 bf 31 b8 b3 09 b7 b3 b5 bf
       -0.08286787153803521 -0.08477348315111112
0007f0 e9 41 29 9d 92 0f 85 3f 0f 3e bd 13 6f dd d2 bf
       0.01028360883825115 -0.2947652523771191

base.actor.actor_fc2.bias f8 [64]
000000 22 d3 2e 43 9d 1d ba 3f 26 90 90 4e 79 dd b0 3f
       0.10201437845428221 0.06587942283709988
000010 53 00 19 05 20 89 b7 3f 62 84 ff 14 a9 bb ab 3f
       0.09193611263708705 0.05416611081432944
000020 6a ab 60 31 18 f1 bd bf b4 58 42 e1 93 7d b0 3f
       -0.11696006017215912 0.06441616296283109
000030 c0 ff b4 8a 77 7e a1 bf f6 fa 4c 08 79 e8 92 bf
       -0.034167991334924874 -0.01846493828929404
000040 ff 6e ab 7e a1 37 9b 3f 1f d1 2c 01 57 64 6f 3f
       0.026579402309706342 0.0038320254619980255
000050 a2 3b 15 0b c2 65 bc bf d5 9c 2a 8e 9a 33 a7 3f
       -0.11092770357684725 0.04531558022909513
000060 17 d6 33 53 f8 88 b5 bf 6d 35 66 8c 19 d5 b7 bf
       -0.08412124663649255 -0.09309539487568026
000070 4f b6 ab d6 bb 5d 95 3f cf 0b b2 d3 20 9f a9 bf
       0.02086537835832863 -0.050042177049384066
000080 62 9c 07 97 56 c2 b1 bf 47 6f f5 44 94 c0 a9 3f
       -0.06937161624192492 0.05029738752156603
000090 5d 7f 33 f2 9c 86 8e 3f b7 5d 44 e1 8d 11 b2 bf
       0.014905191556351555 -0.07058035611804923
0000a0 7e 09 69 8d cf 9b a8 bf e7 d0 7e 11 50 5b a8 3f
       -0.048063741695403714 0.04757166112486449
0000b0 c1 ba 59 38 05 50 c5 3f cb ba df 02 d0 89 84 bf
       0.16650452853669687 -0.010028481567102251
0000c0 e3 2a 20 6a cf 9b 92 bf 6d 27 98 fa 12 8b a9 3f
       -0.018172493793865107 0.04988917645466882
0000d0 63 e0 45 11 75 25 7c bf 43 ab b0 04 02 74 ac 3f
       -0.00687165956002653 0.05557256991627082
0000e0 55 cf 9d 4e 42 24 af 3f 42 99 4d 3e ca 64 92 3f
       0.06082350930856132 0.017962608387642527
0000f0 aa 38 fc 04 91 a4 b8 3f 40 cd 13 cc 48 6d 9b 3f
       0.09626108524045898 0.026784074264424307
000100 3d a5 17 ad 86 bb a9 bf 4c b3 57 7a b6 83 82 3f
       -0.05025883543914709 0.009040284737204772
000110 d4 36 1a a5 3f 28 67 bf c0 6c 67 1d ca 20 b1 bf
       -0.0028268092217505845 -0.0669065782343976
000120 4c 2d 25 fa c7 d0 84 3f 7d c8 14 09 1f 85 32 bf
       0.010163843461347931 -0.00028259284688936915
000130 a3 a4 b3 10 d8 7a a0 bf 37 ae af be 3d 9c bf bf
       -0.03218722537878562 -0.1234778013746841
000140 26 bd 57 ea 30 f6 be bf 05 c3 42 be 0d a2 79 bf
       -0.12094407769449286 -0.006258062061690555
000150 bb f0 4d 88 dd 94 a3 3f 74 92 3e f5 21 63 bb bf
       0.03824512757179962 -0.10698139417088176
000160 28 47 d8 5e e6 7b 5f 3f f7 6c 67 bf c0 7b b1 3f
       0.0019216298782151562 0.06829456971120239
000170 b4 52 2b d9 64 dd a0 3f c7 b5 06 e6 1c 8b ab bf
       0.0329391017054709 -0.05379572208344601
000180 b8 cf a4 1f 02 70 a2 bf b3 3d 48 d0 2d be 9c bf
       -0.0360108054759673 -0.028069225156341648
000190 33 54 2a 1d ef fd 94 bf 76 1a 4a 3b 25 3c b1 bf
       -0.0204999314833751 -0.06732399652001128
0001a0 47 d7 8a 6a 30 8c 9e bf ae 6d 41 50 61 00 8b bf
       -0.029831654074505633 -0.01318431879206269
0001b0 ea b3 98 1e 34 55 aa bf b7 33 95 f3 b2 58 ae 3f
       -0.051431301817821254 0.05927046988890743
0001c0 85 55 c6 3c 93 cd 96 3f 52 4d 7d b1 81 0c b0 bf
       0.02226858194770422 -0.06269083579291149
0001d0 dc 6a 4a 0c e5 30 a5 bf 05 07 54 64 a5 4e b4 bf
       -0.04138866210015177 -0.0793250436727498
0001e0 d8 08 ae ef 1e 97 97 bf bf bf eb 03 2f 6b a3 bf
       -0.023037417773147023 -0.037927121380448174
0001f0 db 61 b9 20 a3 7a ac bf 3d 7d 13 b7 a7 d9 a9 bf
       -0.05562314772095408 -0.05048870191398656

base.actor.actor_fc3.weight f8 [8, 64]
000000 36 45 5e 8f 59 78 9d 3f 34 fc 5f ba 98 9f ab 3f
       0.02877941072035136 0.05395200038037054
000010 1d 7f bf 0a d1 23 62 3f 63 28 8b e2 4a 1e bc bf
       0.0022143442965755337 -0.10983722716187709
000020 7c 6d 7e 26 9d 0d a4 bf be 36 8b 82 c1 7f b4 3f
       -0.039166365574796 0.08007440030197707
000030 4b 72 f6 80 de 78 a1 3f 95 18 89 94 60 b4 9b 3f
       0.034125283472552136 0.02705527216519295
000040 ac 66 b1 50 a0 a0 b1 3f ca 98 63 c2 6b 9c ae 3f
       0.06885721178096088 0.05978714702523431
000050 1a 0e 81 a0 2e 39 aa bf 80 4e 17 c5 74 07 9d 3f
       -0.051217515080250034 0.028348755387766378
000060 40 91 8f db f9 7e b1 bf f1 0f b4 31 f6 af b7 bf
       -0.0683437500989088 -0.09252871240101947
000070 73 60 ae 16 c2 ff b8 bf 67 ca 93 61 27 ae af bf
       -0.09765255979289282 -0.06187556329850424
000080 b8 b7 06 46 af a4 b5 bf d7 19 4e 43 b1 c9 a6 3f
       -0.08454413852334042 0.04450754114718663
000090 4c 87 42 43 bc 3b ae 3f 96 4e eb 33 17 b2 97 3f
       0.05904949494403286 0.023140299362082027
0000a0 d1 14 b2 94 d6 7c 81 3f 1a 2a ea cd 36 3f b7 3f
       0.0085388912323289 0.09080832030500866
0000b0 85 2d 48 f9 71 fb a9 3f 82 10 22 75 c1 06 a3 3f
       0.05074649971001136 0.03716091685149171
0000c0 0e 97 d4 c6 17 04 9b bf b6 45 f2 a2 44 8f a6 bf
       -0.026382800589224202 -0.04406179894534594
0000d0 28 cf 34 71 6b 4f 88 bf ee 27 6d 7f b1 a2 b1 bf
       -0.011870231048852611 -0.06888875351901877
0000e0 96 fd 96 77 e8 78 bb 3f 89 7f 64 6f 12 d9 a3 3f
       0.10731366080925961 0.038765503022886234
0000f0 6f c0 aa ce c5 e7 a5 bf 09 1f 99 b2 21 96 96 3f
       -0.0427839102534343 0.022057081723942527
000100 6c ef 57 da fa 91 a9 3f 76 b9 13 e4 12 45 87 bf
       0.04994186320615665 -0.011362216554030562
000110 ed ab 21 cc 93 ff b1 3f 85 68 a7 b3 59 a7 69 bf
       0.07030605062179492 -0.003131556700492646
000120 80 e3 6b e7 8f 3e ac bf 3b 00 4e 44 a3 eb a3 3f
       -0.05516481113404037 0.03890714844510553
000130 fd 88 7b 1d 82 d2 b5 bf 79 c1 62 2d ba 75 9b bf
       -0.085243351171389 -0.02681628133785938
000140 54 e3 17 fd d7 3b ac bf d4 56 b8 f5 81 92 a2 bf
       -0.05514407124059653 -0.03627401470673211
000150 16 d1 5b 27 01 38 7b bf 26 e4 6a 9a bd 84 a4 3f
       -0.00664520693475292 0.04007523069362433
000160 0a a4 a4 80 21 17 a5 3f 43 4c 2f 22 9e 61 a2 3f
       0.041192099526888695 0.03590101401609804
000170 0a bf 94 fb 08 94 9a 3f 51 50 4b 86 74 d0 7e 3f
       0.02595533404854592 0.007523017095724852
000180 78 c6 a5 d2 65 03 a6 3f 91 60 6f 7c 05 f6 a5 bf
       0.042994672740758355 -0.04289261955244784
000190 8f 40 a1 da 3f 77 b5 bf 77 14 9a 5b f6 e3 a0 bf
       -0.08385085189479667 -0.032989214593762854
0001a0 42 51 e1 62 20 15 a6 bf 67 35 bf 21 15 4b 95 bf
       -0.04312993247063669 -0.02079422968363556
0001b0 66 cb b2 3a 3f 3b b1 bf 85 34 cc 8b 6a f3 a6 3f
       -0.06731028731409835 0.04482586819185833
0001c0 74 24 b4 3c 2d 2f 22 bf d3 f8 66 89 c5 a6 ab bf
       -0.00013873507700904212 -0.0540067415454232
0001d0 9a d2 4f 46 5d 33 b1 3f 54 ef 27 ec fa 45 98 bf
       0.06719000784489496 -0.023704453147714702
0001e0 e9 0c 30 51 24 79 a9 3f 60 ee c8 21 8b 6e 8e 3f
       0.04975236407337908 0.01485928246358198
0001f0 2c 3b 1c 99 b0 de b1 bf 89 a3 db 6c 9b 5e 8a 3f
       -0.06980422723812002 0.01287576127966063
000200 04 d0 9e 35 b4 4e 8d bf ab b0 bb be 5a ee 94 bf
       -0.014310272108424733 -0.02044050015585756
000210 e0 dd 35 bc f6 43 a8 bf 08 73 fd 64 fa 62 ae 3f
       -0.047393522715477365 0.05934889300144702
000220 15 f1 83 76 81 12 a4 bf fa f9 f1 ad 8d 3e 85 bf
       -0.03920368739815864 -0.01037321745957075
000230 e2 e5 21 26 48 e1 b6 bf 84 c6 70 b2 a1 1d a6 3f
       -0.08937502795188082 0.04319482138852229
000240 be 32 2c 02 5b 82 53 bf 6c bd bc de 1e 16 35 3f
       -0.0011907471422915451 0.00032175305999523093
000250 b7 c7 96 28 ff ac af 3f 26 b3 31 b6 52 09 81 3f
       0.0618667351767636 0.008318563637851616
000260 a4 26 10 47 b7 58 b8 bf 01 d8 06 6d 62 51 8e 3f
       -0.09510369763315879 0.014803666069251877
000270 ca 49 c2 3a 09 d4 87 bf df 83 ec 42 ac a6 65 3f
       -0.011634895425491804 0.002642952392662753
000280 42 fa cb 2c b0 fb ae 3f cf d5 f3 8f f8 1d bf bf
       0.060513978451116404 -0.12155107035126565
000290 cc 54 e2 3e 09 99 b2 bf a2 bc 36 76 f4 11 c0 3f
       -0.07264764580971245 0.12554794094237304
0002a0 c4 6b 1b 9f 0a 36 78 3f 05 39 f5 fe 94 84 b4 bf
       0.0059109129813021445 -0.08014804100568902
0002b0 b9 e7 c4 58 89 fb a9 bf dc e3 4c 6c 2d c5 a8 bf
       -0.05074719627960129 -0.04837934443498401
0002c0 59 6b 08 99 ca 7f b3 bf 5c c6 b3 3c f4 87 74 bf
       -0.07616869197992794 -0.005012468386881599
0002d0 67 5c 08 fd d6 55 7c 3f be fd 15 9d 83 8a 86 3f
       0.00691780071112822 0.011006382209187811
0002e0 13 8e 04 5b 3f 7c a5 bf 27 39 d8 33 4b 1f 87 3f
       -0.041963558064051075 0.011290156860039048
0002f0 82 26 76 6f 7a 52 14 3f 8a 71 41 2c f4 0c b2 3f
       7.752296720844358e-05 0.07051015930614404
000300 d8 6a 61 70 d6 54 81 3f 90 3e f1 6a 6e 20 c1 3f
       0.008462596230108074 0.13380222532076802
000310 36 9a 5f 11 48 68 60 3f eb 57 01 b5 6a cd 96 bf
       0.0020028503013123323 -0.02226797799843176
000320 c6 bc 0c a7 e3 22 87 bf 86 5c d1 6b 63 ce 93 bf
       -0.011297014747098887 -0.019341996627499934
000330 d0 43 77 d2 e3 ee aa bf df 01 6c cf 14 9e 87 3f
       -0.052603835527072484 0.011531984882368227
000340 6f d5 f6 fb 08 50 97 3f 18 df ac d1 fe 65 69 3f
       0.02276624715678593 0.003100393002934864
000350 a5 86 40 60 dc ca 89 bf 92 cc 31 1a 35 58 91 3f
       -0.012593957602862924 0.016938047145640463
000360 56 a5 26 94 79 ee 99 3f ea b5 9e 11 26 45 9c bf
       0.025323772113244068 -0.02760753138107034
000370 a1 86 b3 d2 55 6a 89 bf 9d 14 29 19 a0 1a b6 3f
       -0.01240984963664299 0.08634377111691767
000380 a7 09 7f bc ff 56 82 3f 0f e2 89 9b 8e 06 a0 3f
       0.008954999866436731 0.031300026404043384
000390 22 15 99 61 22 c2 a0 bf 80 88 de f8 af 97 70 3f
       -0.03273112717992378 0.004050910369104099
0003a0 a8 8c 4a c3 32 24 76 3f 24 0c 49 93 e4 6b 9f bf
       0.005405615131766663 -0.030685016145309288
0003b0 b7 2d 7e ef 42 ef a3 3f bc fa 28 d7 e6 45 a2 3f
       0.03893479512688763 0.0356895578047349
0003c0 f4 df 1f cf 3d 42 92 bf c0 a2 04 c2 45 c8 c7 bf
       -0.017830816046597378 -0.1857993314127011
0003d0 cf 7d 13 0c 59 77 61 3f af be a2 02 7d 75 b6 bf
       0.002132104797609925 -0.0877302295145863
0003e0 8e e3 ea fa a5 6f a4 3f 55 05 5b 37 60 ce a9 bf
       0.039914309386808275 -0.0504026477406209
0003f0 6d d5 0a ba 8a 94 ba 3f da 64 03 1a 7c a4 43 bf
       0.10382906953858191 -0.0005994420971787943
000400 64 54 8c b4 19 e6 83 3f 5b e9 53 08 46 1f b6 3f
       0.009716225454704915 0.08641469672503403
000410 07 98 20 cf 45 16 af 3f 25 a2 9c 7d f1 7e ac 3f
       0.06071680215272584 0.055656000693776776
000420 17 05 ee 8b 0a 6c 8c 3f 3c 68 a1 b7 94 05 a6 bf
       0.01387794723064188 -0.043011329093773004
000430 bb c4 bd fd 00 46 89 3f 8a e7 a8 5f af 9c b6 bf
       0.012340553039140159 -0.08832832417911454
000440 9c 41 6d ae 32 33 a4 bf 2f 04 ec be 3b a2 a2 3f
       -0.03945310954316314 0.03639399247732233
000450 9c 26 db a3 ca fd 70 bf 21 a2 65 30 fc cb 75 3f
       -0.0041482844951105345 0.005321488488654797
000460 2c 06 4a 84 da c3 b1 bf ed 29 51 ec 6d ab 90 3f
       -0.06939473848071803 0.016278951214454485
000470 3a bc 1d a7 0f af b9 bf 1b 49 94 4b 8c 67 88 3f
       -0.10032747106537068 0.011916252190108658
000480 f6 22 6e f1 78 b4 8d bf f7 0d b1 7c d0 f2 89 3f
       -0.014504380100122099 0.012670162968908534
000490 4d 64 20 4e a6 05 66 3f 43 5a 05 7d 84 62 59 bf
       0.002688240828331112 -0.001549367316405218
0004a0 05 3b 81 59 09 81 80 3f 04 1d ab a7 2a 96 b0 bf
       0.008058617633790907 -0.06479136079279973
0004b0 a0 25 6c d2 71 b6 92 bf 48 00 44 61 dd bc b1 bf
       -0.01827409598175722 -0.06928809761666443
0004c0 3b 7d 6a b5 21 be a4 3f ba 3a 07 4a 88 2e b3 3f
       0.04051308955717522 0.07492877776460719
0004d0 9e 00 6d e7 3b 51 bc 3f dd 8b 03 04 8b 53 b7 3f
       0.11061453247112005 0.09111851547235923
0004e0 fb 34 d3 9a 2a e1 ab 3f 42 ad 5c a6 f1 b3 66 bf
       0.0544522584910769 -0.0027713508342423207
0004f0 f0 aa 86 ec 9d 0e a8 3f bb bb c1 5d 4c 52 ae 3f
       0.04698651802330811 0.05922163624278861
000500 f7 e3 b6 4e b7 3e a0 3f eb 6f 67 ec f7 4c 37 bf
       0.031728485449498516 -0.0003555398256176445
000510 67 0d e0 08 21 a6 b0 3f 7f 2e 34 da 2a ed ac 3f
       0.06503492800407217 0.05649694360371615
000520 c2 9f d5 35 13 81 a1 bf b1 e7 6d 18 25 34 9e bf
       -0.034187889405813646 -0.029495792022750048
000530 9e 2d ac 1e 81 0e 8f bf b9 dc d5 ac 78 f1 9e 3f
       -0.015164383648445686 0.030218015240703198
000540 c3 a6 71 32 cf 16 9d 3f d7 3a c1 1b 2c 29 8a 3f
       0.02840732331643526 0.01277384242726269
000550 2a 78 3d 48 d9 2f 9d bf 60 7d f2 c6 df ad 9d bf
       -0.028502841028391547 -0.028983589666152
000560 23 1f f2 e5 8d 1f 81 3f e5 bd fd e8 cd a1 8d 3f
       0.00836096628178457 0.014468773529840948
000570 f3 83 b1 61 05 91 b2 3f d9 ac 3b fb e4 ed 65 3f
       0.07252534518330815 0.0026769134800495972
000580 18 b6 15 e6 f0 ca a6 3f 4e 3c 69 c3 9a bc a8 3f
       0.044517067038082725 0.048313938478366056
000590 3b d9 26 2b e1 bd 7b bf 72 5d 5b d7 b2 c7 72 bf
       -0.006772880139058575 -0.004584978674493244
0005a0 e3 88 dc 67 44 7e 89 bf 6f 69 a6 55 4d f5 7f 3f
       -0.012447866839981397 0.007802297676244726
0005b0 2a 7a 04 f8 61 07 a4 3f 0c 63 50 af e7 3d 95 3f
       0.039118825460026166 0.02074396140605743
0005c0 12 db 40 83 8b 81 81 bf f5 38 27 1f f4 b3 7d 3f
       -0.008547868674310819 0.007251695251808456
0005d0 88 ff 48 22 2f c9 b1 bf 91 7f 18 f6 71 20 a1 3f
       -0.06947607600250028 0.03345066193673952
0005e0 cf fa ab 25 57 6d ad bf 78 49 01 3f a2 42 87 3f
       -0.05747482619152821 0.011357562587509959
0005f0 53 53 1e fe eb b8 b0 bf 8f 53 c4 57 48 0f 93 bf
       -0.06532168344558657 -0.018612985951296287
000600 8b 5e 87 68 3d 6b a7 bf 3d 35 e4 9a b8 f3 b0 3f
       -0.045740050325261704 0.06621888906029923
000610 3f 97 81 be 24 4e a4 bf 0a 49 65 28 a3 d3 a3 3f
       -0.03965868783488568 0.03872403972731504
000620 0e f8 22 e4 be 0b b6 3f 97 fe ba 1e cb d9 ab bf
       0.08611672467938566 -0.05439600706222086
000630 7e 63 f5 f4 53 9d 94 bf fe 0c d9 bf d9 d8 9b bf
       -0.020131408525546395 -0.027194406828368926
000640 43 14 33 d5 29 99 9e bf e1 3b 72 0d 8a 13 a2 bf
       -0.0298811470390954 -0.03530532278193
000650 a3 21 96 6b 19 17 90 3f a9 7b e0 2d e5 50 a2 bf
       0.015713116828494866 -0.035773431635099336
000660 45 c8 e0 11 af 8a b2 bf 78 90 f5 f4 f6 92 9f 3f
       -0.07242864786601995 0.030834063244939064
000670 03 44 b8 f5 9d 16 7e 3f 6a 39 2e 7a 6e d9 8c bf
       0.007345788031231318 -0.014086592773108381
000680 d1 db f5 da 68 dd 89 3f 74 72 22 3f 16 a7 a9 bf
       0.012629336530819575 -0.050102896887641274
000690 e7 6a a0 15 db d8 a4 bf 74 4d 94 64 41 b3 a5 3f
       -0.040716978445024136 0.042383235481021325
0006a0 1a c8 51 93 72 62 8a 3f ea f1 64 bc 0e 9e 91 bf
       0.012883086319764248 -0.017204504250217946
0006b0 9a 1b 95 5d 4e 90 a5 bf 54 dc 7b f3 2c f9 a8 3f
       -0.042116593288077556 0.04877605888571482
0006c0 3d e2 26 8d 9a 30 65 3f 98 b2 c4 73 5c 47 9a 3f
       0.0025866526204618976 0.025662846151294078
0006d0 ce 64 6b d3 28 d4 a7 bf 6c 85 75 7c 87 69 a6 bf
       -0.046540523345990445 -0.04377387422824594
0006e0 88 9b 7b 9f 0e 93 bc 3f 3b bb 00 6c c0 1a ba 3f
       0.1116189135897071 0.10197069775379657
0006f0 f6 50 43 0c c9 7b a5 bf bc 9f 8c ef 8f b7 85 3f
       -0.04196003222173943 0.01060402345463262
000700 42 f5 75 28 31 6e b3 3f 28 74 16 9d aa 96 b6 bf
       0.07590014684497695 -0.08823648772381942
000710 05 8b 82 c0 df 5b a8 3f 18 cc f2 96 90 09 c0 3f
       0.0475759432313421 0.12529189463165902
000720 8d 02 6a 71 ab 91 a5 3f 47 90 2d 05 75 ae b0 3f
       0.04212699660729866 0.06516200424590678
000730 b9 59 49 1a 92 cb 8f 3f d1 74 d1 51 ba ac b7 3f
       0.015524999072266664 0.09247936723245977
000740 fa ee 9c f1 d3 1a b3 bf 90 57 c6 1c 04 3a a6 bf
       -0.07462811135058792 -0.04341137744192658
000750 fd f4 1c 82 91 97 b5 3f 9f f2 be 0f 00 2b 88 bf
       0.08434400011624983 -0.011800766449476639
000760 1f 77 0d b6 86 f9 8b 3f 49 cc 50 6e b7 4f a5 3f
       0.013659527235798273 0.04162381383539377
000770 27 0c 35 99 b4 47 c0 bf 9a 0c 84 3a fb 59 6a bf
       -0.12718827706166388 -0.0032167345817711414
000780 b0 5b 7c a8 3a 61 8c 3f fe c2 fd 66 46 76 a8 3f
       0.013857324854638836 0.04777736670701492
000790 8c 8e be be 43 e6 ac 3f 1c ff d4 e7 3b 06 41 bf
       0.056444279703353833 -0.0005195419795782394
0007a0 76 7e 69 8d a3 97 b5 3f d3 24 dd ef 20 f2 95 bf
       0.08434507563060287 -0.0214314600373527
0007b0 5d 86 6f b6 1e f7 96 3f e8 f8 1a 32 18 0e 8b bf
       0.022427062878597293 -0.013210476903051618
0007c0 3e 62 c1 ef 5c f0 a9 3f 4c c7 7d 86 35 7f a8 bf
       0.050661949412362337 -0.047845528285405864
0007d0 bb 2b c5 e5 2a 80 94 bf 12 2e af 9c ff 51 80 3f
       -0.020020170473155945 0.007968899697423235
0007e0 35 d2 29 e8 ce 78 74 3f a8 d4 31 95 5f 18 64 3f
       0.004998024206191822 0.00245302837862001
0007f0 69 8c 58 a7 11 f0 71 3f 61 54 11 4a c9 ca a5 bf
       0.004379338226075815 -0.042562761584726834

base.actor.actor_fc3.bias f8 [8]
000000 75 87 a9 54 cd f5 99 3f c3 cc c6 92 c8 99 8f bf
       0.02535172299611284 -0.01543003747869987
000010 43 7e 67 bd c9 1c 8c 3f b8 45 a9 e9 ec 15 aa bf
       0.013726783840808504 -0.05094852783498588
000020 5c e9 21 65 43 56 a0 3f a4 5e 0f 5a 29 a4 93 3f
       0.03190813645865617 0.019180914041355593
000030 55 dd c2 5c 0d e8 90 3f ac cc 24 8e 91 4d 96 3f
       0.0165102088801324 0.02178027563168132
