results/Ant-3d/cmorl-ipo/4/final/EP_policy_29.pt (torch, 105481 bytes, 13 tensors)

base.actor.actor_logstd f8 [1, 8]
0	0xbffe04eacf00fb97	-1.876200493439432
1	0xbffea88ca172c546	-1.916149740846167
2	0xbffed1f39a918277	-1.9262577092960365
3	0xbfffbfd761724045	-1.984336262368758
4	0xbffeb5494ad4423e	-1.9192593501103512
5	0xc000209052fed7da	-2.0159002765676464
6	0xbffc19f31b56802b	-1.756335360325475
7	0xc0006ffe9333699b	-2.0546847820343834

base.actor.actor_fc1.weight f8 [64, 27]
0	0x3fba990ce73792e6	0.10389786381672259
1	0x3fca202dac09add3	0.2041070070293772
2	0x3fdac882edc9940b	0.41848824712207094
3	0x3fc5e9e4df32877c	0.1712003793555218
4	0x3fc527f459b5289d	0.16528181438690562
5	0x3fd2eff338de4719	0.2958953910211775
6	0x3fd3f3d0fb2e010c	0.31175636796253126
7	0x3fa8d6c1be2a9296	0.04851346441617925
8	0xbfc9669205fc72b3	-0.19844270031253117
9	0xbf8bc7bb343d30bb	-0.013564550906857034
10	0xbfb6b0ea28bc1a3c	-0.0886370038461814
11	0x3fa99711b133daeb	0.049980690842792296
12	0x3fa5d59c5d2b4ff1	0.0426453460437698
13	0xbfb5dfd0e512af6d	-0.08544641106226232
14	0xbfc7adf5f737b0ab	-0.18499636241120263
15	0xbfc271831e97cffa	-0.14408911699103993
16	0x3f86fb1a249b8e07	0.011221126787353887
17	0x3fd25b4d033cde07	0.28682256046474247
18	0xbfc726b08f979eb2	-0.18086821566907002
19	0x3f95509e25f5b011	0.02081534487426501
20	0xbfdb31a7f433ecec	-0.42490576599057195
21	0xbfaa1ce1c44e4c9c	-0.05100160142242169
22	0x3fd7426ff2cdaadb	0.363430010903057
23	0xbfb9fa59a95cd735	-0.10147629151182687
24	0x3fbd40a811d54620	0.11426783023241471
25	0xbfb59b4bedf34727	-0.0844008880551682
26	0xbfcec6c131bd1bc1	-0.24044051102302258
27	0xbfc2c515e46866d6	-0.14663957264638466
28	0x3f99de592ae40626	0.02526225399288342
29	0xbf20dff091bd078a	-0.00012874423634384415
30	0x3fb0cb528d5a2938	0.0656024546716808
31	0x3fba6b76a12ffa38	0.10320226130713983
32	0xbfcf4334d1daec3a	-0.24423847433885887
33	0x3fcaf06827a4bd62	0.2104616349765634
34	0xbfd598b4a5abdb61	-0.33744541338767503
35	0xbfb98fa41a079db9	-0.0998480380582042
36	0x3fbafed02d9ffa97	0.10545064081086718
37	0xbfc0b8e081416ddc	-0.13064199744518035
38	0x3fc8ed57a8d2a54b	0.19474311583807444
39	0xbfa0c4d8717b38b5	-0.032751811840726765
40	0xbfb6f3e9b9aede65	-0.08965931685713142
41	0x3fb04e44c855407e	0.06369428530638463
42	0x3fc5c9bbbd097f25	0.17021891336752862
43	0x3f9aa5f309994ae8	0.02602367158972188
44	0xbfa166af4a38bcbf	-0.033986547289140294
45	0xbf9ce814c0549fa0	-0.028229068983960937
46	0x3f817e1eb4e594ba	0.008541335959942099
47	0xbfa68d112686f065	-0.04404500575353224
48	0x3fd01dc38b1f0a99	0.2518166407209406
49	0xbfb0ae99a8ecbd2d	-0.0651641881383866
50	0xbfb01c320093789b	-0.06293022646011297
51	0x3fca8707e69ea45f	0.2072458149025662
52	0xbf9c6c8fa7e0f383	-0.027757877942565578
53	0x3fc6b0ecad1b649e	0.17727430775156433
54	0x3f96d6da1cd8a776	0.022303970347059963
55	0xbfa22723655a65b6	-0.03545485126705776
56	0x3fd18bf2d58f1926	0.2741667829071893
57	0xbfb521e6f8a6b410	-0.0825485570009763
58	0x3fc703d483ffed43	0.17980438657091655
59	0xbfd2a1a192a795c8	-0.2911151821302522
60	0xbfc79a02fb367c01	-0.18438756242991874
61	0xbfa112d68f54b1ef	-0.03334684848445934
62	0xbfa330cf2cacff58	-0.03748176021917854
63	0x3fb9970672b306d7	0.09996071148182338
64	0xbfc998ea2c9a1c46	-0.1999790876181768
65	0xbfcc9c415de5d1e4	-0.22351853451586046
66	0xbfbfcebd0efbdfee	-0.12424832931344529
67	0x3fcdda6cfc822ba0	0.23322832421794448
68	0x3fd241a513dc795a	0.2852566427190105
69	0x3fc4e6e7f9b9d643	0.16329669660233223
70	0xbfc4448ffc550158	-0.1583423597421738
71	0xbfc54d9d803f1123	-0.16643112909344734
72	0xbfb0ac7179bfa634	-0.06513127539042146
73	0xbf83b5cb46b6bf81	-0.00962408837844442
74	0xbfd3e8f3547159e8	-0.3110931706081872
75	0xbfd945fc547028fd	-0.39489658590231597
76	0x3faec054e60c086a	0.0600611239260765
77	0x3fb5cf9c57b73560	0.08519913808341562
78	0x3f641164ee1b727e	0.0024497004786623857
79	0xbfbc3b75ce573e8c	-0.11028229034058706
80	0xbfb45c399081507c	-0.07953223970372564
81	0xbfb6aeb4be423a60	-0.0886033024309909
82	0xbfb6bc548b67210d	-0.08881119159116597
83	0x3fcfade834a1f3ac	0.2474947220797764
84	0x3fc3bc3beff1252f	0.15418194976727181
85	0x3fcf27dda25db897	0.24340410640747187
86	0xbfc6b4397fea7756	-0.17737501855747934
87	0xbfaadfb4e18c2838	-0.05248799565568202
88	0xbfb1a5ef277b60ae	-0.06893820489802024
89	0xbfb05f4bf8253099	-0.06395411308511924
90	0xbfd1683eae367913	-0.2719876004502037
91	0xbfd010162ee252c0	-0.2509818513729378
92	0x3fc1a432fa74a70c	0.13782345990448908
93	0x3fd1fa8e6d2226e7	0.28091774613913717
94	0xbfc5cffc949a4db1	-0.17040974861138872
95	0xbfcf823aa993d813	-0.24616177826072824
96	0x3fc4225b67632029	0.15729849384502018
97	0xbfa0ed4b3f68c6ce	-0.033060409059897475
98	0x3fb2713d12588552	0.07204038331885457
99	0x3f63a027e789d39c	0.0023957042106367964
100	0x3fbdf46637f25cb3	0.11701048723112954
101	0x3fa495b1861e4587	0.04020457040963792
102	0x3fc487510e7c72c9	0.16037953574495692
103	0xbfad6b8f8a74cc16	-0.057461248065372825
104	0x3fc8cda8a4392e0f	0.1937762071487303
105	0x3f6e1c170d2c5ab6	0.003675503752116195
106	0x3fdcd36e91cde2cf	0.4504047798032333
107	0x3fbc723d6596e35d	0.11111816148958327
108	0x3fc8c1aa7af52922	0.19341021541397035
109	0xbfa9fadc58f63097	-0.050742040500240275
110	0xbfc3ea33de34b8b3	-0.1555847964277227
111	0xbfb4b44eed94eeb9	-0.08087628650985836
112	0xbf92fb882a16fa58	-0.018537643021540567
113	0x3fc788e5529a4efb	0.18386522801721825
114	0x3f8a74b21d0df917	0.012917891990352133
115	0x3fb19b892dcc82b1	0.06877953880440192
116	0x3fc8ff7960722db8	0.19529645165708387
117	0x3fd27720d14e5b71	0.28852100791976115
118	0x3f8a8c25636640be	0.01296261987297986
119	0x3fbc3f6e2c433d86	0.11034287052756583
120	0xbfbf988c19cbf69b	-0.12342143659403819
121	0xbfcabfa3ae7ab917	-0.20897336978436762
122	0xbfac2de22e287902	-0.05503756345227552
123	0xbfa2bdd83984973d	-0.03660464956401064
124	0x3f363f79ceb2747a	0.00033947681249363976
125	0xbfc1c1c0b598cb60	-0.1387253653243432
126	0xbfcc151c4cf97d7d	-0.21939424284481027
127	0xbf80a9ccbbbb44a2	-0.008136367301093298
128	0xbf928e262343cbb9	-0.018120380308527227
129	0x3fd5ac44c9a9304e	0.3386394471497213
130	0x3fd0839b112c0a54	0.25803257634121235
131	0x3fc47bf536abc7cb	0.16003289384349126
132	0x3fd9ede125cb9f35	0.4051440114112553
133	0xbfbfcfbccd0758cc	-0.12426357274611916
134	0xbfcc415acb3a74ac	-0.22074446604975628
135	0xbfa93440d2afe707	-0.04922678539146657
136	0xbfc9dc846b88d6d3	-0.20204215288838742
137	0x3fbc94272b963e93	0.11163563551076043
138	0xbfc570553a1a8b8b	-0.16749062859625172
139	0x3fc65378756526f3	0.1744223187654864
140	0x3fd016244318a35c	0.2513514189945931
141	0xbfbac3fac01065cb	-0.10455290974677849
142	0x3fd082149066be91	0.2579394731683147
143	0xbfd54da07fc8553e	-0.33286297301068035
144	0xbfbd07901aebdc86	-0.1133966508603966
145	0x3fa2b90fedb2898e	0.03656816269473771
146	0x3fa9ad334ad89072	0.05014953888556385
147	0x3f95865b1d1eafe2	0.021020339634261982
148	0x3fdd85794a463e8a	0.46127159360273906
149	0x3fd00d88f9b50bbc	0.2508261145159698
150	0x3fa5bb53e1692ede	0.042444821611381064
151	0xbfaac0b552c5293a	-0.052251497606067024
152	0x3fa0ceaaee1958b7	0.032826749386616276
153	0x3fbc7a082af75725	0.11123705910662503
154	0x3fb8e8fb4d4acea5	0.09730501782433494
155	0xbfa1fd7871def65b	-0.03513695135141567
156	0x3f8becfe33a6d2d3	0.013635621978076362
157	0xbfb68da33922a50b	-0.08809871811776675
158	0xbfc677c720e73f6f	-0.17553032976729407
159	0xbfc0b0769752751a	-0.13038523091101056
160	0xbfb29130dda3e104	-0.07252793704163102
161	0x3fd72afb23afd152	0.3619983528617655
162	0xbface8626365cc31	-0.056460451730253054
163	0x3fd4295a7dfacd77	0.3150240164061055
164	0x3fb1aecc397a2594	0.06907345202684773
165	0xbfdbe3f7ac1c185a	-0.4357890301474804
166	0xbfd140a0eda9f659	-0.26956961831442566
167	0xbf96a24d72fff57c	-0.02210351004031484
168	0x3fd0e838bd1f726a	0.26417368382479955
169	0x3fbaf5f4b6faf4b3	0.10531548945705786
170	0xbfc23b991549b733	-0.14244378604365124
171	0x3fc911dd59450f9f	0.19585768565059156
172	0x3faf832cb0090362	0.061547657478974185
173	0x3fc00af748a74659	0.1253346543076528
174	0x3fa00aad5dd77e08	0.03133146067170506
175	0xbfc1641abaeb88e1	-0.13586744429546285
176	0x3fb34ac8285aeee9	0.07535983071550913
177	0xbfb4d787a4a5848d	-0.08141372461024528
178	0x3fbb18cad632e116	0.10584705094777677
179	0xbfceac4e6cfab639	-0.2396333725095461
180	0x3fbc3a01b3b6c8c9	0.11026011121319636
181	0x3fc1aaec7de49aa0	0.13802868029707316
182	0x3f9b093f875f0405	0.02640246642818413
183	0x3fcd5c61006bc92c	0.2293816806846477
184	0xbfb05fbdd8b5ae4b	-0.06396090069545683
185	0x3fc28faa4ef35c20	0.14500931601534806
186	0xbfa1ccd857c3b1ec	-0.03476596900313553
187	0x3fb12174c18c8694	0.06691674924197805
188	0x3fc6d9f0395456d7	0.1785259513787227
189	0xbfdb778e14035fe8	-0.42917205767071076
190	0xbfb27259bf98633a	-0.07205735137575867
191	0xbfc9c6e04e0d89b6	-0.20138171969581514
192	0xbfcd67d6b6ae786b	-0.22973140640255293
193	0x3fbbe0e46ad12f37	0.10890033347930915
194	0x3fc15f0973b2c3b9	0.1357127966816998
195	0x3fb3c0a6517a4441	0.07715835084151569
196	0xbfd638f12684a424	-0.3472254635003671
197	0x3fd9cbbba770112b	0.40305987693160955
198	0xbfca180820674721	-0.2038583906383389
199	0xbfbe48c3af780520	-0.11829779657275141
200	0xbf765af93e173707	-0.005457852939299241
201	0xbfc604160fc99f06	-0.17199970026853623
202	0xbfb5bdc6df8997dd	-0.08492701489885186
203	0x3fb03a594e78861a	0.063390332849416
204	0x3fa1cfda90a9d9de	0.03478892341529492
205	0xbfc89852ea99472e	-0.19214855628029553
206	0x3f96e69e7126244f	0.02236411634070051
207	0xbfbbabab71ec9c88	-0.10808822184900369
208	0xbfc514ee94dd9561	-0.16470129269434167
209	0x3f7a6d470846481f	0.006451871366509847
210	0x3f982f805835f5c1	0.023618703254660426
211	0xbfa213f43d5d2c35	-0.03530848740646101
212	0xbfc83f8c643c82fb	-0.18943934339861088
213	0xbfc278b35ee28917	-0.14430849202205628
214	0xbfca7aec84b96d09	-0.2068763397281617
215	0x3fc96ec1682ce6c0	0.1986924894970823
216	0x3fcdd21b20112c2a	0.2329744249894657
217	0x3fb72a4557a71688	0.09048875226934616
218	0xbfdaafec8537b362	-0.4169875431969584
219	0xbf8b1e6acec25a45	-0.013241609988012057
220	0x3fc0fae200c16b67	0.13265633618251657
221	0x3fa6721675f1c489	0.04383917035819091
222	0xbfb2256ef93cc00f	-0.07088368973632007
223	0xbfc759b9cc5bd97d	-0.1824257133336679
224	0x3fb1fa29563796f4	0.07022341113005465
225	0x3fd2a72b4ba1df04	0.2914531935307283
226	0x3f9fe3582dba1a99	0.031140687743141802
227	0x3fd5e861915b6f81	0.3423084182265868
228	0x3fc03974f0033ee9	0.12675344199532582
229	0xbfa6ff0cfaff6977	-0.04491463245331578
230	0x3fb713269350aad2	0.09013596626816003
231	0x3fb33bca450f7212	0.07513107477229422
232	0xbfc9d35f5a93de5a	-0.20176307604536953
233	0x3fcc8bd0d298c9c9	0.22301683695839206
234	0x3fa74feacb22f346	0.04553159455961135
235	0xbfbd7a225bdeeeea	-0.11514487021389255
236	0xbfb6dae4efae9877	-0.08927756167995136
237	0x3f9b9e73c0d649a9	0.026971634526100328
238	0xbfb1252b55ad3603	-0.06697340814317702
239	0xbfce27dfd54b1555	-0.2355918685408748
240	0x3fcf98859bc04c29	0.2468420992377969
241	0xbfb2b64e7472c86c	-0.07309427588441658
242	0x3fbae1e3ad5ba916	0.1050092981564926
243	0xbfce7a0cac8cdb1e	-0.23809965539268146
244	0xbfb9e4eafa6fc5e3	-0.1011492597024453
245	0xbf931c3f028908c7	-0.018662437944166024
246	0xbfbda53d24253a70	-0.11580259449440589
247	0x3fc7b97ca97d09fc	0.18534811282923147
248	0x3fbe9829adfb6ece	0.11950932023631397
249	0x3f905edcb3dcb0ef	0.015986870267782057
250	0xbfc21d2fda13e108	-0.14151571415255426
251	0xbfbe3c9d87375aae	-0.118112416755461
252	0x3fc4fb2abd5594be	0.1639150070651904
253	0x3f93a9f478715792	0.019203014231912237
254	0x3fd5c1db3e1eb646	0.3399570566788025
255	0xbfc59c53381378c9	-0.16883316267098383

base.actor.actor_fc1.bias f8 [64]
0	0x3f9e6d3613739e74	0.029713482796891857
1	0x3fd3fa79c3307448	0.3121628194947488
2	0xbfade0e9e2886c9e	-0.05835657968801765
3	0xbfb213072102b40e	-0.07060284191057084
4	0xbf90578d1459d0ba	-0.01595898091041257
5	0xbfa9399ef8ea4706	-0.04926773823275536
6	0x3f4b4fbc841c9a6c	0.0008334799278813649
7	0x3fa99d2923f9733f	0.05002716602459722
8	0x3fbcececfa0e46c9	0.11299019913556231
9	0x3fbabef5b0b00013	0.10447631419810958
10	0x3fb9e01f6407d891	0.10107608978418826
11	0x3fa80927395a8973	0.046944833518199135
12	0xbf7311a33a628a27	-0.00465549241030997
13	0x3fb014914750b47c	0.06281383505911892
14	0xbfb1ca5fdf7f0933	-0.0694942398686507
15	0x3fc05e95504977e7	0.12788645191443423
16	0xbfbc3f87c5e6ffcc	-0.11034439641571153
17	0x3fa82ace8c7b912e	0.047201590203061236
18	0xbfce5586df228bdd	-0.2369850720907313
19	0x3fa198527b55979f	0.034365251117193234
20	0xbf97b727a26a670f	-0.023159617698730147
21	0xbfbe70e5ee3621c0	-0.11891018930157937
22	0xbfc29d6b0df88c89	-0.1454290216653116
23	0x3fb9f05aed18926b	0.10132377899624039
24	0xbfd1c7cfdb847662	-0.2778205531811634
25	0xbf9211432bea338d	-0.01764397578749626
26	0x3fbf5a4d77b9f8c1	0.12247165844925957
27	0x3fb92049cc103d19	0.09814892990128889
28	0x3fbaf0dab7f87cb8	0.1052376460215666
29	0xbfafb82040afc0da	-0.06195164479857036
30	0x3fc3f991e9f17473	0.15605377123839367
31	0x3fb35c848219c374	0.07563045669827578
32	0xbfc3b7159e178c68	-0.15402479380927336
33	0x3f87eb97c967ed08	0.011679826578066002
34	0x3fc6e52a1a87205d	0.17886854453377313
35	0x3fba477acd0a4bfe	0.10265319352974697
36	0xbfab98a1cf37fb16	-0.05389886526608316
37	0x3fca58557c6a36f6	0.20582073759981484
38	0x3f65b1d095492353	0.0026482652558893842
39	0xbf8199b6d3abbb94	-0.00859396775692093
40	0x3fcb59d00a001679	0.2136783646421241
41	0xbfaaa089cfced30e	-0.052006060235191595
42	0xbfbbb478f2f05623	-0.10822254115222356
43	0xbfb853ab8fbdb7a5	-0.09502670535377307
44	0xbfad5125fe512d1c	-0.057259738249366005
45	0x3f924d9ee9b62ed7	0.017874224676730357
46	0x3fc0cf51a28bb4f9	0.13132687031558257
47	0xbfc10fe9a7859ff3	-0.1332981174448374
48	0x3fcafd9c7f48449f	0.21086460318523323
49	0x3fa94c764ec9bc47	0.049411484830550516
50	0xbf67c8714143da6f	-0.0029031955729082386
51	0x3f934e5948f69cc2	0.01885356433708974
52	0xbf8a01d2f28e9691	-0.012698791529895533
53	0xbfa516ce31a71e07	-0.04118961673844628
54	0x3fb12272d4c0d471	0.06693189329310358
55	0x3fab04bd0abb5caf	0.052770526466411886
56	0xbfa529bac14d44d2	-0.04133399591104027
57	0x3fae6740b3caaa62	0.059381505915855795
58	0xbfad744f1e899538	-0.057527992704118736
59	0x3fc7b15185e4abd9	0.18509882962948046
60	0xbfc2cb7594edf0d9	-0.14683408519693478
61	0xbfb0de1045c05016	-0.06588842108641332
62	0xbfc7bd2f387ea67e	-0.18546095140964164
63	0x3fc23c59919e9d3b	0.1424667321236742

base.actor.actor_fc2.weight f8 [64, 64]
0	0xbfbb1d1dcc76b03e	-0.1059130310229088
1	0xbfcd4d5a68a86adc	-0.22892313108680795
2	0x3fa8d8624bfb95f3	0.04852587869190108
3	0x3fd29df7c1999a5e	0.29089158922434943
4	0x3fad8a0ce74195e3	0.057693865994945324
5	0xbf93f6229266bd4a	-0.01949361818850307
6	0xbfb8632e7e061404	-0.09526339127303635
7	0x3fba50022a2aee29	0.10278333215222148
8	0x3fcfae17f40a6e01	0.2475004140477353
9	0x3fb4e2444ae9c987	0.08157755688606559
10	0x3fa8b57c4e659566	0.048259625024722294
11	0xbf8fa81c46cf2dc1	-0.01545736399739084
12	0xbfb1c922215710e7	-0.06947530092208219
13	0x3fb6e2a9899f52e4	0.08939609155579437
14	0x3fd16f1af73329e5	0.27240633144961485
15	0x3fc6e3ee5e6c502e	0.17883090601446966
16	0x3fc5c0642d9ccaf1	0.16993381716891734
17	0x3fbf137d29a2cbf2	0.12139112726690351
18	0x3f8fd335298d7d54	0.015539565401637624
19	0x3fc03e829280fd08	0.1269076552725681
20	0x3fa3bfeae97e4781	0.03857359028110264
21	0x3fd21547223663e3	0.2825486978632041
22	0xbfc993c3c39c13ed	-0.19982192088369236
23	0x3fc3cde49aa40413	0.15472085524382403
24	0x3fbde4e285291b89	0.11677375555983195
25	0xbfc2ac7850f85394	-0.1458883662568523
26	0x3fb32093f0a729da	0.07471584916417076
27	0x3fd2eeedf127fa3d	0.2958330969849248
28	0x3fb1301d8dba60f4	0.0671404334083297
29	0xbfd0868ff9a2a403	-0.2582130372853159
30	0xbf90ff3b8ac0fc5a	-0.016598635047781897
31	0x3fb5e622655b4fd1	0.08554282164123996
32	0x3fc4d9b6af203202	0.1628940920931115
33	0x3fcc58d68d30859f	0.2214611234094663
34	0xbfc11977d750d31b	-0.13358972562277746
35	0xbfacf2865015638c	-0.05653781631071472
36	0xbfcbfd9492d811d7	-0.21867615862005493
37	0xbfc91a79b18b6f83	-0.19612046403096536
38	0xbfd6838043f05c21	-0.35177618631991164
39	0xbf96131b9aacb04d	-0.02155726558264375
40	0xbfc51133de3b926b	-0.1645874819870586
41	0x3f7b8a5b7ca681c7	0.006723744745983535
42	0xbfb82de171c98da7	-0.09445008304606138
43	0xbfcc3247d6c76f45	-0.2202844427800931
44	0x3fc658d4b535ee61	0.174585903627178
45	0x3fade92ee3fb7ec1	0.058419671373255884
46	0x3fd07dfb5f1e9af4	0.25768932618159046
47	0xbf84dde2f7abee22	-0.010188840087258792
48	0xbfc4f221a7289e07	-0.16363926565212258
49	0x3fce746e0950ba13	0.23792815642214346
50	0x3fb68b886d9f1e0c	0.08806660343463352
51	0xbfccc9ad2c94b581	-0.22490467716981402
52	0x3fa70dd31c9752a7	0.045027348747372735
53	0xbf570a1f21d20927	-0.0014062217735789169
54	0x3fc4816f59a1facd	0.16020004154775905
55	0xbfc728fe3e956b87	-0.18093851142733916
56	0xbfa863c2e17b875c	-0.047636117958758745
57	0xbfb474071aff6409	-0.07989544304963671
58	0x3fa324768669e204	0.03738756552496983
59	0x3fa5ebae14079fd3	0.04281372065071278
60	0xbfc6b30738a06ab0	-0.1773385073182303
61	0xbfa55fdda18b56cb	-0.0417470225999473
62	0x3fb902306b000007	0.09768965351395319
63	0x3fb01fe524e7f7f3	0.0629866805174684
64	0xbfac51e309f27c15	-0.055312247242220426
65	0x3fbe0513e64db448	0.11726498005528285
66	0x3fcd8aef78113f9a	0.23080247271218185
67	0xbf9f35a6537cd7cd	-0.030478094907458165
68	0xbfbdf79a82d230d1	-0.1170593804728839
69	0x3fb2ccb10a14065a	0.07343584533739414
70	0xbfd0c34226951338	-0.2619176270275605
71	0x3fbceac7199bc913	0.11295742392738743
72	0xbf8deee9a74dba5c	-0.014615846079064791
73	0xbfd029ca9071e5e4	-0.2525507364840378
74	0x3fc989c6a798d69f	0.1995170896859024
75	0x3fbffc29247979e4	0.12494141712657086
76	0xbfafbfcab6500ed2	-0.06201013064858575
77	0x3fba2a433f4a7c0d	0.10220737738789883
78	0x3fb02386c02b72ba	0.06304208938258685
79	0xbfb51e4d1dd0271a	-0.08249361017092519
80	0x3fb688c07877d4df	0.08802416745296025
81	0x3fbca42fbe5083fa	0.11188028713560519
82	0x3fc4033d880babf0	0.15634888785220324
83	0x3f565b40a01e20f2	0.0013645297153477812
84	0x3fb1cd176815cd59	0.0695356968988582
85	0xbfb587aa41fe0ade	-0.08410133467809142
86	0xbfbb78dc37d24d5d	-0.10731293070630472
87	0x3fd1bd5ce0419ba7	0.27718278789546463
88	0xbfa88b09fe7bbb0f	-0.04793578368650319
89	0xbfcf32857a169600	-0.2437292905935209
90	0xbfcd3b426e3e8bb9	-0.2283709562589971
91	0x3fa93a1bf1bb2ebf	0.04927146268673032
92	0xbf9c6b4ef6e6c89e	-0.02775309926955371
93	0x3fbbc2cd5bd12adf	0.10844119540812923
94	0xbfa5d8f80019ed76	-0.04267096520649265
95	0x3fbc1a66f0d7873f	0.10977786426476842
96	0xbfaae6e358a31b11	-0.052542786188089725
97	0xbfb38269db20180c	-0.07620870208492664
98	0x3fcef6afe5df901c	0.24190329288751478
99	0xbfb15425f5413604	-0.06769025075592344
100	0x3fb8cf820e3fb081	0.09691632125731255
101	0xbfd4fec07a8edade	-0.3280488201957449
102	0x3fc9dd91df660c3f	0.20207427414070087
103	0xbf37e46f4af16f2c	-0.0003645679198080894
104	0x3fc9cb759490b1f9	0.201521585027322
105	0x3fbe78f6fcbf8b23	0.11903327627764475
106	0xbfb814c24bc7039e	-0.094066756725637
107	0xbf71a8d5aecc8252	-0.0043114039406480665
108	0xbfa3b631ce9b5ea8	-0.038499409170694776
109	0xbfc75b253c8bc158	-0.18246903854697893
110	0xbfd7a1a56f5e4748	-0.3692411029415905
111	0xbfbf19624ed939a3	-0.12148107934010581
112	0xbfac038cc5454b15	-0.05471458347405737
113	0xbfa13fadb307d1e9	-0.033688953499140535
114	0xbfc00d00b042a76d	-0.1253968105932545
115	0x3fc05f58fe1d44d2	0.12790977867056214
116	0x3fb46ea2875606a1	0.0798131542597056
117	0x3fcc6362593b9447	0.2217829642969795
118	0x3fd3b513af9d35cb	0.3079270567876306
119	0xbfd074428c360582	-0.2570959443329103
120	0xbfcfb53c4690ad74	-0.2477183670574551
121	0x3fc01af0183a8497	0.12582207854305658
122	0x3fcd8e1c82a2308e	0.23089939478484606
123	0xbf971a8981656988	-0.022562168619836537
124	0xbfd20231c5acdd05	-0.2813839369222964
125	0x3fc4b3bbf2dbf34c	0.16173505171163993
126	0xbf738020cc336737	-0.00476086436830219
127	0x3fb1a95451178b9e	0.06899001102242017
128	0xbfccc0d88e444462	-0.22463519045462293
129	0x3fc956a164a6b5c9	0.1979562512837403
130	0x3faea0782d09110b	0.059818034646499006
131	0x3f9fdf9b431b4f77	0.03112642857634237
132	0x3fc605bdff1e17da	0.17205023724471752
133	0x3f99605836c3baae	0.02478158792740242
134	0xbfc2f08d9c7635d0	-0.1479661001180106
135	0xbfbc012db9320f2f	-0.10939298411727515
136	0xbfa39de399e09cc0	-0.03831397298227435
137	0xbfd20b660c4f2ba1	-0.2819457168777096
138	0xbfb08d6441b0597e	-0.06465746501667088
139	0xbfb569d9c2956264	-0.08364640236448789
140	0xbfc5b82c23950ea1	-0.16968299615301866
141	0x3fabe57544864716	0.054485001196679914
142	0x3fbe02865e48ad15	0.11722602655270394
143	0x3fa96cecea79df9b	0.049659160254065436
144	0x3fc3856e7a0cac58	0.1525095077462051
145	0x3fbe74046ae737c5	0.11895778284016874
146	0x3fc95ef886602b02	0.19821077882109966
147	0x3fcb9878154caa59	0.21559048690808671
148	0x3fb50470798c2cd7	0.08209898917646129
149	0x3fc5198d817c53e8	0.1648423082594086
150	0x3fa102144648aa94	0.0332189880176276
151	0x3fbb9c9360711e04	0.10785790543115331
152	0xbfc37412d4f5a1bc	-0.15197978399670642
153	0x3fc6ced9d521effe	0.1781875887571686
154	0x3fb9c087940e85f9	0.10059401859918883
155	0xbfc85994b9e2f0d0	-0.19023379398811935
156	0x3fbd2e2c000b93d1	0.11398577691177471
157	0xbfd34db0dcab8c88	-0.30161687421622974
158	0xbf93844c296ef653	-0.019059362439057214
159	0x3fcc771298c6100d	0.22238380870487653
160	0x3fc038b133a872ff	0.12673010847438346
161	0x3fbd691ccb437f13	0.11488513910762448
162	0xbf91a77de6f6a272	-0.01724049303234882
163	0xbfcb2794864d87c6	-0.21214539106136793
164	0x3fc23ed009d6624d	0.14254188995689035
165	0x3fb9e8be2ce4a43d	0.10120762439750393
166	0xbfcb9fe784e0f41d	-0.2158173941442393
167	0xbf88bc0989c83d3e	-0.01207740260818346
168	0x3f91a844a5314159	0.017243454535049583
169	0xbfbf104cc181707c	-0.1213424656320416
170	0xbfb6b694267744ac	-0.08872343005284006
171	0xbfa3b47ea6a394b3	-0.038486440507577234
172	0x3fc6ed814a5d5375	0.17912307864267132
173	0xbfc906b1622dc58d	-0.19551675123106485
174	0x3fb0727685898e16	0.06424656639278967
175	0x3faf1ba170f6986b	0.06075767997690281
176	0x3fcfab2bf8506581	0.24741124748906532
177	0x3f9c39de5587be3e	0.027564500780441252
178	0xbfb82f119ad741d8	-0.09446821241659309
179	0xbfb025ab94970f3e	-0.0630748021858922
180	0x3fc375c39cf21e83	0.15203137553566046
181	0xbfaeb974d0ce3f2e	-0.06000866936585535
182	0xbfb910faa1047182	-0.09791532927596872
183	0xbfc68967bde63f92	-0.1760682751887513
184	0x3fd78517069c6507	0.36749816556546516
185	0xbf66cef49a0dc4e4	-0.00278423093589507
186	0xbfb188e7b52880c3	-0.06849525616462686
187	0xbfacf783d1cdf5a1	-0.05657588897791333
188	0x3fd727ab5a1cf075	0.3617962245950886
189	0xbfc00a2d028329a2	-0.1253105413691858
190	0xbfb1f198c391488e	-0.07009272360417837
191	0xbf87db1ede4419ac	-0.011648408086796312
192	0x3f47dd97636c5cbf	0.0007283200455700175
193	0x3f992813237e6592	0.02456693557869511
194	0xbfc3a77ab5b8bd1b	-0.15354856370093092
195	0x3fd93cb979d8286d	0.3943313302885432
196	0x3fa3225cc7e04472	0.0373715394963562
197	0x3f9b2b8f3f5849c5	0.026533354035629637
198	0x3fc00c5a1d728fca	0.12537695348612338
199	0x3f90440c1fed7514	0.015884580086425862
200	0xbf91d4a5bf9878fe	-0.01741274816424098
201	0xbfd1ce694e3a9bb5	-0.278223348994682
202	0xbfc3a719b35da132	-0.15353699930279557
203	0x3fbd73445c185566	0.11504008530058271
204	0x3fa011cac8234094	0.0313857430752488
205	0xbfcd0c97a4f7c9a6	-0.22694678835939647
206	0x3fc4483ccb5bc61c	0.15845451287855006
207	0xbfae89f164506aad	-0.05964617108857815
208	0xbfaf48d34b8db89f	-0.06110248849187027
209	0xbf9f822557f18d42	-0.03076990460648444
210	0xbfcc8481efbbbe8b	-0.22279380994540463
211	0x3fb3a7b4476e6f1a	0.0767777132409119
212	0xbf78eb78bb71f9b4	-0.0060839382268781834
213	0xbfc1af7a3067ed45	-0.1381676422459838
214	0xbfb37e4d29438997	-0.07614595658700406
215	0x3fc284d1a0319bee	0.1446783096500605
216	0x3fca307116c5a635	0.20460332500378944
217	0xbfb712549b44c92d	-0.09012345114459626
218	0xbf9b1b7bd1ae9e29	-0.026472029374103343
219	0x3fb7cb96c5b1acbb	0.09295027090563483
220	0xbfc2ab898ca2dde7	-0.14585990302087667
221	0x3fbba5735ff186c3	0.10799332706803981
222	0x3fac5c5e4c6dfc73	0.0553922146127598
223	0x3fc5ad4f49f1e24e	0.16935149298275792
224	0x3f90492ef88ef634	0.015904172821811183
225	0x3fa19cc82ec4ea38	0.03439927645600388
226	0x3fc92aa0b9a52f65	0.1966133982153863
227	0x3fb1d1b9b5a566cf	0.06960640606612432
228	0x3fce3f352a8db11b	0.23630394532973117
229	0x3fb0ce28913e0ab1	0.065645728549536
230	0x3fb5c3201fb551e1	0.0850086285984797
231	0xbf927dddd5f0ff69	-0.018058267767855272
232	0xbfc7eb2cb3817c5f	-0.186864459657019
233	0xbfbe316a0a25ff36	-0.11794150111927312
234	0x3fc11784cf94ba5d	0.1335302365855168
235	0xbfcf628f25fb8a23	-0.24519528727167125
236	0x3faf7ae547988071	0.06148449419947689
237	0xbfa0aee8ab4af899	-0.03258444872834438
238	0x3f911f08fbc6adbc	0.01671995197982111
239	0x3faa8730f0fe8052	0.05181267682860437
240	0xbfd1c6aff8ee807d	-0.27775191602450616
241	0xbfd31f72a509cc1e	-0.2987944232656349
242	0xbfa0e5cfedca9e4b	-0.033003328110961926
243	0xbfc3e45c99d62399	-0.1554065467028323
244	0xbfc90f1f552e8f0a	-0.19577399882575036
245	0x3fce71507988ca22	0.23783307966512363
246	0x3fd096410dd3eb20	0.2591707835232899
247	0xbfc65c303e83a53d	-0.17468836834385995
248	0x3fd5d7a407aee656	0.34128666639626226
249	0xbfb39073c13cf29f	-0.07642291515089504
250	0x3fc849698a26977b	0.1897403645099834
251	0x3fced2d469b476e4	0.2408090129983328
252	0xbfb8eb1accb625a4	-0.09733741281356473
253	0x3fb041f350e9f399	0.06350632405697211
254	0x3fb5fe9de96d69a3	0.08591639470015493
255	0xbf9f0c17ad844706	-0.030319566693896703

base.actor.actor_fc2.bias f8 [64]
0	0x3f9e27acbb35e846	0.029448222090174413
1	0x3fbc678ca674eee9	0.11095503867994307
2	0xbf92f0a5614fb35a	-0.01849611669961191
3	0x3f8e557ec2a9de7f	0.014811506572399267
4	0x3fbaa06967505911	0.10401018879233372
5	0xbf984b4a5a5e21a1	-0.023724710240942696
6	0x3fbb0ae42af8b149	0.10563493775470535
7	0x3f9f6e4131ffafdf	0.030694025685008227
8	0x3fae9682693845d9	0.05974204573079662
9	0x3fa2f4cb63c53d67	0.037023883751880864
10	0xbfbff1157d6f2325	-0.12477239906651201
11	0x3fb0dd231b3e6836	0.06587428488856592
12	0x3fb0f1c7d580e91d	0.06618927919854341
13	0x3fbc20916ba3028b	0.10987194898462797
14	0x3f107ff6d49df8f9	6.294197114973037e-05
15	0xbfa3a5468a854d2d	-0.03837032738615629
16	0xbfb8b94f1cbdaa80	-0.09657759143525801
17	0xbfc49f6a1fd2670a	-0.1611149459247872
18	0xbfa24bcf4a61c797	-0.035734632329776854
19	0xbfc1e5690986a45e	-0.1398135468018919
20	0x3fb47dc44e809ee2	0.08004404942095847
21	0x3fb3218ed59d631c	0.07473080363469048
22	0xbfc1ac190cb290e5	-0.13806450958248387
23	0x3f84cc7b783ba25d	0.010155644041746454
24	0xbfa64674efe36fd2	-0.04350629261327267
25	0x3f91702410004d6e	0.017029345966944325
26	0xbfc5ff1a3a7a7ab8	-0.17184760909454666
27	0xbf98499d0ddc1852	-0.02371831318944146
28	0x3fb70f253a92a115	0.09007485084533003
29	0xbf650b0ae1e3fae9	-0.0025687420412617745
30	0xbfbac710368baed8	-0.1045999653976496
31	0x3f8d7855e0bed671	0.014389677926241991
32	0x3fb63b793603c76f	0.0868449932929971
33	0x3fa4087315b06344	0.03912696494825821
34	0xbfc607a8ade0f086	-0.17210873117608488
35	0x3f95ce26fd6447b1	0.02129422113018337
36	0x3f9af33f6886f439	0.026318541292983808
37	0xbfc3d4c06476c3c9	-0.15493016152825437
38	0x3fb1d370784399d2	0.0696325582135622
39	0xbfcb3da68f2b1215	-0.21281892767559954
40	0xbfa0ca0c9e103ea8	-0.03279151372418926
41	0xbfc22384912ffddb	-0.14170891846877862
42	0x3fa26ac8ea50338e	0.035970953562446714
43	0xbfb6b76582a85906	-0.08873590888865487
44	0x3fb5b7d5622cb4cc	0.08483632704583782
45	0x3fc3d2a2114b15bd	0.15486551136397778
46	0x3fb19d6944879267	0.0688081543262996
47	0x3fc32af927d34095	0.149748939939404
48	0xbfc27b069d700c6e	-0.14437945067774954
49	0x3fc6105ea76fb2e1	0.1723745648918316
50	0xbf9aaa907bd11b78	-0.026041276509455952
51	0x3f9c33fe3356bd63	0.027542087443803164
52	0xbfcc716dafbd0c68	-0.22221156197528846
53	0xbfb69aa924031a4a	-0.0882974350853171
54	0xbfaf24c50a530622	-0.06082740546254352
55	0xbf6912bbceab54a6	-0.003060690699707341
56	0x3fa08114e5eb74b3	0.03223481470716063
57	0xbfbd079e8993b9b2	-0.11339751108946564
58	0x3fc46713ee12d589	0.1593956863850219
59	0xbfad04dd1ffe44e7	-0.05667773261587588
60	0xbfa9a38bed8845f1	-0.05007588648380679
61	0xbf822753392565cc	-0.008864069158039188
62	0xbf96a88d3b29cb60	-0.02212734864810828
63	0xbfa6d04695cb951e	-0.04455776766352869

base.actor.actor_fc3.weight f8 [8, 64]
0	0x3fa34584d62813d0	0.037639762060315385
1	0x3f9856f4bc8b9dee	0.02376921082296051
2	0xbfb486b6d63427c8	-0.08018057565291692
3	0x3faf694e3f122575	0.061350293349344755
4	0x3f4054de1a1254eb	0.0004983982545520271
5	0xbf8853abedeef0ff	-0.01187834091057782
6	0xbfb62bfd3bc721bb	-0.08660872182293293
7	0x3f5d1592dd890ed4	0.0017751631004480533
8	0x3fa18df236217beb	0.034286088092578236
9	0x3f96d085612f1c6f	0.022279819542543707
10	0x3f852fe6c3c46c4d	0.010345270966857134
11	0xbf9810122b1a5db2	-0.023498805886075842
12	0xbf96cab3f74de01c	-0.022257625550509016
13	0xbf9b198d7299225c	-0.02646466266586099
14	0x3f9d3a8bc0af4b04	0.02854364741854011
15	0xbf97bfeff2f9e60d	-0.023193120198334017
16	0xbfa6570ca0829270	-0.043632883637916176
17	0xbf9465096aed4c75	-0.019916674758246395
18	0x3fac72feddc23a35	0.05556484658255948
19	0x3fb4499d103c089f	0.07924825331068285
20	0xbfb271351c8e3448	-0.0720399088588276
21	0x3fa008b43c147a3f	0.031316406568511194
22	0xbfb4ff452242f6db	-0.08202011190857254
23	0xbfba11fc7acab601	-0.10183694837424896
24	0xbfac83900a2e357a	-0.05569124340318417
25	0xbfa9a1125516d94d	-0.05005700386702703
26	0x3f93465a6513048f	0.018823063296399097
27	0x3f8e58dcf05c60a2	0.014817930302840236
28	0xbfae86303a2de6eb	-0.0596175261516246
29	0x3fb6a7785c1c000e	0.08849289177669581
30	0xbf976d4fd11435e3	-0.022877928863683904
31	0xbf21cd1ba3f60c82	-0.00013581240089530563
32	0x3fb5b87a4e826e40	0.0848461572335788
33	0x3fabd5a24adce0a2	0.05436427272656032
34	0x3f81985fb23df5e7	0.008591411234870129
35	0xbfbc18880a186807	-0.10974931951969334
36	0xbf01038282cde1cc	-3.2451076868281534e-05
37	0xbfa99ed15d060124	-0.05003980885067197
38	0x3f9cb1fe88f74c54	0.028022744283429837
39	0xbfceb7aae6c9c24d	-0.23998008984519217
40	0x3fc4d800321f2b5e	0.16284182021476118
41	0xbfa1dcf27d28a0b4	-0.03488881852928341
42	0xbfb3f2d6c7d67805	-0.07792417887546328
43	0xbf65b0700316abdb	-0.002647608541072694
44	0x3fa84f01c8c444da	0.04747777534260829
45	0xbf92734ad436da4a	-0.01801793022397139
46	0x3fb90a66ccfdd74f	0.09781496529271048
47	0xbf90743674ac43d4	-0.01606831633677415
48	0xbf8fc6b6ddcbbf83	-0.015515736240075522
49	0x3f99525a77730e07	0.024728215733160776
50	0x3f9a814c947d411e	0.025883862078729718
51	0x3f328a68cb6d2165	0.0002829080435060776
52	0xbfb097ce4cf12ef6	-0.06481637361974521
53	0xbf9a597a862acfaa	-0.025731958807866974
54	0xbf839eac3785315f	-0.009579987949699996
55	0xbfa545b6cef5ede5	-0.04154750133872279
56	0x3f85f9652cf16d7a	0.010729589876226287
57	0x3f9bc607fe2dac5e	0.027122616661852887
58	0x3fae1b66ccbf8e03	0.058802807325061955
59	0xbf6af821e24d211f	-0.0032921468540828692
60	0x3f9653262f47b03c	0.021801563869232363
61	0xbfa2c406c58ef81c	-0.03665181314089258
62	0x3fa4f1a9154abb14	0.04090622315322015
63	0x3fb8aaa4a623fdbf	0.09635380798498881
64	0x3fa6344a45a6d7be	0.04336769199601019
65	0xbf9b84f5e646e383	-0.02687439172743523
66	0x3faef50700964f03	0.06046316034476542
67	0xbfa1a4acd68e6241	-0.03445949668020321
68	0xbf8384035313db00	-0.009529138539148274
69	0xbfaa9f4f979133f9	-0.05199669575868166
70	0xbf9da192d02dc8ee	-0.028936666446903674
71	0xbfa618089c19f6ea	-0.0431521120599266
72	0x3f918e77ef2dba14	0.017145036671928862
73	0x3fb5fbe14da32851	0.0858746351761124
74	0x3f9e45f4df4a57f1	0.029563737991871567
75	0xbfb40fd0ad4ba27e	-0.07836631995054152
76	0x3fabbc2507023008	0.05416980467370541
77	0xbfb0d1644d96e93d	-0.06569506544375243
78	0x3f9ae737b683b64c	0.026272650255967187
79	0xbfa644244d3740d5	-0.04348863070083701
80	0xbfa239d2558c93ec	-0.03559739393521241
81	0xbf607a6c4deb32bf	-0.00201150086591037
82	0x3f9e541b83db0d84	0.029617719576675153
83	0x3fa897d738032189	0.04803345259421394
84	0xbf80f5e986838528	-0.008281540315183536
85	0xbf984c42ea08f862	-0.023728414091458545
86	0x3fa8aad654db2ecb	0.04817838464586329
87	0xbfac9d893eb7f760	-0.05588940516098151
88	0x3fb70329efb86232	0.08989202597184301
89	0xbfa1ae3e29a853ea	-0.03453249224200035
90	0xbfb31d5cef70a5b1	-0.07466679425910773
91	0xbfa6e0e378038ec4	-0.04468451347363847
92	0x3fb95f741982d7bd	0.0991127550394983
93	0x3f699e01829bb2b0	0.003127100896440936
94	0x3fa0e473fa48c13f	0.032992958357115125
95	0x3f993494cf058144	0.024614644179906678
96	0x3f85af31f771dce8	0.010588064540782274
97	0x3fb0147ffcf520be	0.0628128044674012
98	0x3fad12a3af255930	0.056782832269777095
99	0xbf80c2c418dde666	-0.008183986672281662
100	0x3f756a20664cf233	0.0052281633004978454
101	0xbf8355ed70d45969	-0.00944123745516086
102	0xbf76a4b58e1cf39c	-0.005528172683452317
103	0xbf8991d50b9c4a3a	-0.012485184113335202
104	0x3fb461d53e4851c4	0.07961781282967367
105	0x3fa74954b358db49	0.04548134507461172
106	0xbfb932bf9929585f	-0.09843060960096882
107	0x3f46190fa813080a	0.0006743742416335252
108	0xbf91e5ce901a5ea9	-0.01747820620093302
109	0x3fac3546dc923f13	0.055093969750599346
110	0x3f88b5a8d5936a6a	0.012065238015954455
111	0x3fa2ad08edec5278	0.03647640137038349
112	0xbfb085adbd12ca5d	-0.06453977457094014
113	0x3f91a07211fd1ad8	0.017213613841955716
114	0xbf9b31d91acdb3d5	-0.0265573427781652
115	0x3fb3b01b8aada6a7	0.07690593848897241
116	0xbf86713075f276df	-0.010958078956089632
117	0xbfaad186842211e4	-0.05237980235054687
118	0x3f963a88f548ef9b	0.021707668276789254
119	0x3faf216192660fc4	0.06080155288785208
120	0xbf97cdf9bd67ecab	-0.023246671853467998
121	0xbf90e376118804b9	-0.016492695636775
122	0x3fb08c38d407db73	0.06463961769609998
123	0x3fa5923db16fb381	0.04213135519953593
124	0x3facc408639a6923	0.056183111342038815
125	0xbf90d3eb54aa4da3	-0.016433407824093426
126	0xbf9093b401f83f93	-0.016188442821714565
127	0x3fb79727503e11c2	0.09215017041248699
128	0xbfbd627f20a4792f	-0.11478418871817973
129	0xbfa35c7abab35422	-0.037814936915005384
130	0x3f71d41c6add1094	0.004352675443275573
131	0xbf8ce0ba5779bbb0	-0.014100509447613735
132	0xbfbbd2e880ee46bc	-0.10868695399974632
133	0xbf78abce1bef248b	-0.006023221124402354
134	0x3fa37da0152a24fa	0.03806782015187511
135	0x3fb27853beb94ccc	0.07214854627936801
136	0xbf97eb5e0f44abe6	-0.023358792955303097
137	0x3f46817d64a9b0d0	0.0006868231078676294
138	0x3fb6453f9a670ba2	0.08699414748757175
139	0x3fa33ceffc5ee9ed	0.037574290806748546
140	0xbf9a1ace726ceaaf	-0.025492883428550325
141	0x3f9f7910680c2e33	0.03073526034408598
142	0xbfb0ac649055ee51	-0.06513050578899394
143	0x3f85a90a299a40b0	0.01057632388554483
144	0xbfb09d5eb9075048	-0.06490127579974214
145	0x3fb9320561a35762	0.0984195102094794
146	0x3f96055c9919c0a4	0.02150482830478552
147	0xbfb1bb73bf43815f	-0.06926654262088537
148	0xbf9ebd1a88fc696d	-0.030018248187027852
149	0x3f8ed5780fedb7fc	0.015055597292043636
150	0x3f6df00fb2224433	0.0036545092162403535
151	0xbf5428634c720113	-0.0012303323472054358
152	0x3fa4f015b529ed92	0.04089420162651004
153	0xbf9294653cf5fed2	-0.01814420876098561
154	0xbf9683b007f1b014	-0.021986723408574063
155	0x3f307e0ae019047c	0.00025165334236382903
156	0xbfaaa782c34bac31	-0.05205925592402883
157	0xbfa3249af59f6017	-0.03738865135500207
158	0x3fc560fb57457bad	0.16702214967059828
159	0xbfa6622d02077cd7	-0.04371777200480558
160	0x3fac984355146c88	0.05584917462894007
161	0x3fa25be747147848	0.03585741751361177
162	0xbfc35017ac415b27	-0.15088172827628307
163	0x3f5a9334db085c30	0.0016220108192379727
164	0xbf925345182c641c	-0.01789577446024647
165	0xbfb329053e1a65d7	-0.07484467283429495
166	0x3f82e43b322d7806	0.0092243790328972
167	0x3fb003c3cba3a005	0.0625574466863555
168	0x3f2ff0c9c62164c2	0.0002436872774207785
169	0x3fa7e7193017a37a	0.04668501579346347
170	0xbf71e0b52d6af719	-0.004364688610335476
171	0xbf9ae0d8dd4b318a	-0.026248348719307958
172	0x3fb0740a1d1c529b	0.06427062235554575
173	0x3f3697bc9afc6cf8	0.0003447375738560711
174	0x3f983e634574a176	0.023675490488274296
175	0xbf9f723379d4e8f8	-0.030709080039039244
176	0xbf8b55d86718b917	-0.013347330709703216
177	0x3f8f9310034efada	0.015417218304603453
178	0x3f91cf3748105210	0.017392028592512487
179	0x3fb6569178dcb32d	0.08725842667327006
180	0xbfbdf536849fce92	-0.11702290285011888
181	0xbf9112df95760ab5	-0.016673558709508558
182	0x3fa93ea137a9786c	0.049305952114750834
183	0x3fa3d3d747315a9c	0.03872559303333853
184	0xbfaa26a8629196c0	-0.051076185257256324
185	0x3fb4183a20415890	0.07849467551690936
186	0x3fb2b8c847620bcc	0.07313205473660317
187	0xbf9487a482f30821	-0.020048685543550108
188	0x3f6093a0499e44a9	0.002023518621122895
189	0x3fa5a8716e0bb2c3	0.042300743754684976
190	0xbf7cc0fa4a646cf5	-0.007019975373874878
191	0x3fad210e84b51015	0.056892827701205
192	0xbfb00e10b5a0dfa6	-0.06271461900985162
193	0xbfa1b3c7e325d290	-0.03457474372672664
194	0xbfa13bb6580be209	-0.03365869354997037
195	0x3fc0b3debade94d2	0.1304891979645278
196	0xbf7a0412fa5cdf6e	-0.00635154164574901
197	0xbfaff7388119e68d	-0.0624330194086272
198	0xbf839a01fc96186d	-0.00957109024126287
199	0x3fab8315142d997c	0.0537344538814066
200	0xbf9ee2db77927115	-0.030162266896341345
201	0xbf9a43e5e07fe0af	-0.025649635150302327
202	0xbfa0506439e68372	-0.0318633385352375
203	0xbfb812362898f829	-0.09402788630629345
204	0x3f7769ca103945ae	0.005716122922949136
205	0x3faa9fb9ef3a8cd9	0.05199986500999793
206	0xbf9f7649de055d78	-0.03072467248543151
207	0x3f999d0c9cbb1075	0.025013157907566048
208	0xbf44a3131bf5d2cd	-0.0006297915751206307
209	0x3fc037dfa0d8a2d5	0.1267051253683095
210	0x3fab8c72cb46abc6	0.053805911363574974
211	0x3faac6909902ac47	0.05229617946437109
212	0xbf9a12d30460ca0c	-0.025462433950631122
213	0xbfb37ad180f391f6	-0.07609280966023121
214	0xbf97cd48a39528f3	-0.02324403284482286
215	0x3fa5f2564b6b26cb	0.042864510256163856
216	0x3fa9b87724c44a18	0.05023548435032782
217	0xbfaae86bb1d59dcf	-0.05255447908239896
218	0x3fadd89c6bf70967	0.058293235949821214
219	0x3f52ed4b841de7fc	0.0011552083455783615
220	0xbfb40c5c7996a1c9	-0.0783136174055762
221	0xbfa55ec4dbb85b19	-0.0417386549199163
222	0xbf973bfce467ff1d	-0.022689773026285488
223	0x3fa58909f9602f17	0.04206114930283727
224	0xbfa1ddace24acea6	-0.03489437353473805
225	0x3fb102ef39ad909e	0.06645102651742937
226	0xbf979f686b19b5a8	-0.023069030320063938
227	0xbf9403e486f941d4	-0.019546099413050147
228	0x3f6018bf2d8f2d62	0.0019649251885078137
229	0xbfbc53c6abcaf72f	-0.1106533212104892
230	0x3fb9454053055f97	0.09871294047240863
231	0x3f9ae1371d09c2a7	0.026249753138872702
232	0xbfaea1b9a79b72af	-0.05982761546122128
233	0xbf78d0cc1a867352	-0.0060584996030258065
234	0xbfa8fa9e3a021bb3	-0.04878706415279712
235	0x3f5df3fffb27b658	0.0018281936469252327
236	0x3fa19b7692f470e9	0.03438921493418141
237	0xbf972bcbc5f43ff4	-0.022628005940589405
238	0xbfa428bca7bd5bb0	-0.03937329814532775
239	0x3fa268637ceaa3c9	0.03595267200336811
240	0x3fb0c85b1f6c2821	0.06555718915129251
241	0xbfa8875b1bc942ec	-0.047907683507792814
242	0xbfa737955e19637f	-0.04534594319984019
243	0x3fa89206a019195a	0.047989089053362036
244	0xbf97ce40c296d042	-0.023247730137612395
245	0x3fa87ff17dec824f	0.04785113012463126
246	0xbfaff31fe3b3336a	-0.06240176825085693
247	0xbfb9cae09ddfb480	-0.10075191358892432
248	0xbfb132a3529e295c	-0.06717892424618327
249	0xbfa8ccf8cdb4e4a4	-0.04843881140772879
250	0x3fad6b9662c4eaea	0.057461452061451215
251	0x3f77b0d99cae6892	0.005783891722695016
252	0xbfa5d3cf1f32f4ce	-0.04263159995887521
253	0xbf737de476a99ca7	-0.004758732257506149
254	0xbfa7583c7495913f	-0.04559506343028596
255	0xbfa5854150c08c19	-0.04203228102439755

base.actor.actor_fc3.bias f8 [8]
0	0x3f98a0b92d065e92	0.02405061089811384
1	0x3f85e7c5f221db0a	0.01069597859553319
2	0xbfa3c0ed0eb06e11	-0.03858128361045144
3	0xbfac677e3f8765c8	-0.05547709012507657
4	0xbf59a5fe8cae36f2	-0.001565455039528482
5	0x3fa862fbfc7a5344	0.04763019043927
6	0x3f97b5ee52a7dd01	0.02315494899263815
7	0xbfa105431331db27	-0.03324327096281925
