results/Ant-3d/cmorl-ipo/4/final/EP_policy_21.pt (torch, 105481 bytes, 13 tensors)

base.actor.actor_logstd f8 [1, 8]
000000 00 d7 52 a9 c8 71 02 c0 78 98 67 4c 3a 5d 03 c0
       -2.30555851253564 -2.4205213517298567
000010 61 aa b5 c5 5c 67 02 c0 94 6d 10 44 85 7a 02 c0
       -2.3004699178757595 -2.3098244969857635
000020 da 90 b7 da b2 c3 02 c0 54 4a 14 ab b6 ae 03 c0
       -2.3455559813756794 -2.4603093495909807
000030 57 61 6e 1f 5d 48 01 c0 0e a5 71 02 e6 e7 02 c0
       -2.1603338676033377 -2.3632316771442055

base.actor.actor_fc1.weight f8 [64, 27]
000000 f3 a8 83 44 f2 e6 bb 3f 9f ff 4d 0b 9b 07 cf 3f
       0.10899271176063845 0.242419605750908
000010 f6 3e ea 11 ed 36 dd 3f 88 61 7e bc 0f 60 c0 3f
       0.4564774203254126 0.12793156341355094
000020 33 03 a2 c2 01 78 cd 3f 33 8e 5c 55 1e 98 d3 3f
       0.2302248192172783 0.3061595758065067
000030 19 cb 17 f9 68 d9 d2 3f f6 43 5b 2d 8c 4d 7c 3f
       0.29451965642435735 0.006909892623029093
000040 4b 57 57 0d 8d 41 c8 bf d9 4f 3b 38 83 c7 51 3f
       -0.18950045730042073 0.0010851651613181716
000050 16 bf fd 1a 81 5d 8a bf 88 11 35 8b d5 15 b3 3f
       -0.012873657833295787 0.07455191277137463
000060 9a 98 e8 d4 de 7c 78 3f 43 31 8f 10 87 3e b3 bf
       0.0059784607279082195 -0.07517284540444273
000070 f1 3d 73 0e 27 a2 c5 bf 78 dc 62 53 d9 ee bb bf
       -0.1690110035474244 -0.10911329541964843
000080 d1 c7 e7 09 3a 2f b3 3f 16 4d 58 8e 29 7c cd 3f
       0.07493937246161343 0.23035163355289318
000090 5a 36 28 dc b6 24 cb bf f8 55 ce a4 bf c6 b4 3f
       -0.21205793142182722 0.08115766309341399
0000a0 ea ce 41 93 86 0f da bf f5 e0 35 77 38 54 b3 bf
       -0.4071976125771771 -0.07550385389720644
0000b0 5a 35 02 5e 92 80 d9 3f 66 56 d5 b2 e5 03 c0 bf
       0.39847239666490497 -0.1251189349374499
0000c0 0f 31 fe 90 46 ca c0 3f e6 55 22 b6 80 06 b3 bf
       0.13117296294911582 -0.07431797453531139
0000d0 41 da 5c 13 dc da cb bf 48 7d 35 06 ce 2c c6 bf
       -0.21761656709141344 -0.1732423334424118
0000e0 d1 55 00 d7 62 d0 7c 3f ec 7c 63 cc c2 0b 91 3f
       0.0070346699649425784 0.016646426892177255
0000f0 1a 6d 38 e3 41 64 b2 3f c9 c8 2d 14 f4 ce bc 3f
       0.07184230611203582 0.11253285877845366
000100 36 47 d7 3a c3 a8 cf bf 72 73 84 4b 66 db c6 3f
       -0.24733772633640577 0.17857054412243262
000110 a6 cc 07 39 77 e5 d2 bf 90 f6 8b 98 22 25 c2 bf
       -0.2952554757059239 -0.14175827454157686
000120 50 03 34 43 6f 63 c1 3f 33 5d e4 8c 62 b3 be bf
       0.13584700375943237 -0.1199246973013615
000130 2f a4 77 b9 53 5e c7 3f 4f d4 87 f6 89 17 94 bf
       0.1825661330797472 -0.01962104384616153
000140 38 a4 ef 38 29 55 aa bf 04 44 c3 e7 9f 13 af 3f
       -0.051430977058608496 0.06069659904608929
000150 ff e9 0f 1f a9 5a c3 3f 77 c1 c6 2f 25 70 75 bf
       0.15120424286563147 -0.005233903179416514
000160 35 cd a2 71 9d 3c 92 bf e6 d0 31 db d3 90 8a bf
       -0.017809352932727413 -0.012971549155033246
000170 48 8f 83 12 95 62 a0 bf 2a 97 61 aa f0 78 a5 bf
       -0.03200212336540048 -0.04193832473610677
000180 a2 1f 66 44 be cb d0 3f 00 45 d6 40 25 9f c0 bf
       0.26243549995023774 -0.12985673585766477
000190 4e 44 75 ad d0 95 94 bf 8a 99 c8 46 56 33 c4 3f
       -0.02010274943069517 0.15781668144445532
0001a0 7e 37 31 db 3f 21 89 bf 77 23 02 60 5d b8 ca 3f
       -0.012270449520794587 0.20875136554630178
0001b0 e7 f5 ee 35 8a 01 b0 3f 99 6e d4 26 3c 5b a7 bf
       0.06252349678739898 -0.04561794256207214
0001c0 eb 42 f2 e4 98 49 d4 3f c9 8d a3 ae fc de b1 bf
       0.3169920192531623 -0.06980876220364175
0001d0 88 7a 86 0f 90 21 ba 3f 86 27 bb 98 e1 b7 d1 bf
       0.10207462672267742 -0.2768482200159429
0001e0 68 41 97 fe ec 78 cb bf b2 69 d9 dd c6 45 8c bf
       -0.2146278613204331 -0.013804963727285766
0001f0 ba 2a 64 31 02 68 95 bf c7 cf dc ea 49 a4 b9 3f
       -0.02090457369289809 0.10016309722851623
000200 0f 9e c0 a9 a5 27 cc bf 2c f2 e2 ed dc 92 d0 bf
       -0.21995993412677747 -0.2589638064489772
000210 16 71 c8 7c 0c c5 c1 bf 60 6d 7c 33 4a 2b c7 3f
       -0.13882595150870064 0.18100860132185925
000220 08 a0 ad 8c f0 74 d2 3f 3b ef 8c 98 17 fe c5 3f
       0.28838742960078934 0.1718167776942837
000230 9a 53 be b3 60 44 c2 bf f0 37 e2 06 a2 b8 c9 bf
       -0.14271172310386931 -0.20094704948536402
000240 76 6e 47 e0 f0 ae b9 bf 59 8e dc e4 72 2d 9f bf
       -0.10032563663065183 -0.03044681093082455
000250 35 46 99 a9 c7 51 d3 bf cd 7a 1d 76 31 c0 d8 bf
       -0.3018664509046148 -0.38673054251368627
000260 7c ae 8a 64 8b d8 b2 3f be fa c8 0e f0 95 b0 3f
       0.0736167068923183 0.06478786812747736
000270 68 11 12 e0 ca fb 92 bf 11 1e a7 92 7e f6 b9 bf
       -0.018538637090857263 -0.1014174564398831
000280 74 80 cd 4a 9e 1c be bf 95 e5 7a 38 b9 46 9e bf
       -0.11762418104399491 -0.02956666381098712
000290 f3 21 69 33 ba 5e bb bf 2a cc 18 e6 81 8a ce 3f
       -0.1069141746057836 0.23860191092680455
0002a0 56 aa 02 ba e5 86 c8 3f 10 f2 ab 9e d4 3b d4 3f
       0.19161674101390486 0.3161517667320206
0002b0 f9 3b ad 67 a7 3f c1 bf 97 98 50 84 63 2f a8 bf
       -0.13475506365145387 -0.047236547376358455
0002c0 32 9b fc ba 43 3b c1 bf a5 99 8d 94 c6 8c aa bf
       -0.1346211112042624 -0.0518552833880677
0002d0 b0 76 0e 51 9f 27 ce bf b4 88 9b b3 7f 85 ce bf
       -0.23558417756878702 -0.23844906110668307
0002e0 ae 87 26 98 71 cb c6 3f 16 34 99 d2 2e 97 d3 3f
       0.17808360985969557 0.3061024719834803
0002f0 57 2b fc 73 a8 dd c7 bf 7b 3c 96 8a c0 b9 ce bf
       -0.18645196593601085 -0.24004370467125455
000300 ee 97 b9 21 6d cd c1 3f f1 f4 92 ec c9 3b 9c bf
       0.13908161303260108 -0.027571826042493922
000310 6f fa 83 69 49 8e aa 3f 14 34 42 ad 6e cf 96 3f
       0.051866811876597356 0.022275666546693954
000320 ce 68 c7 bc 8a 52 c7 3f 55 ee 04 7d 5a e5 89 bf
       0.1822064801952536 -0.01264448827770718
000330 ff e3 7c 36 0a b0 c2 3f e1 c6 3f a5 17 ff a4 bf
       0.14599731121577972 -0.04100870029641413
000340 27 75 a2 94 e2 35 c2 3f ec 9f f6 99 1a e3 94 3f
       0.1422694421534427 0.020397582671335998
000350 7c 5e 79 18 b6 7f da 3f e7 72 aa 21 cc a8 c2 3f
       0.4140448798184264 0.14577628749693547
000360 e1 f1 36 7d 89 f1 ca 3f cf 21 57 21 fb 31 b9 bf
       0.21049612630839845 -0.09841889919255851
000370 77 c2 e6 e3 5e 5f c7 bf 7f ad 37 36 b6 76 79 3f
       -0.1825979817199543 0.006216727986138592
000380 00 ba 0f e9 ae 59 b0 bf 15 39 32 90 ed 6e c7 3f
       -0.06386845769859661 0.18307275334195397
000390 19 38 87 3c 93 7f a9 3f e5 15 23 b6 7d 76 b2 3f
       0.04980144609326959 0.07212053009705917
0003a0 81 96 af 6e 3c bc c7 3f 42 54 7d fe e6 c2 d3 3f
       0.1854320087870072 0.30877089359757204
0003b0 18 a3 8d 63 b7 c1 7a bf 02 fd 84 3e 0a cb b7 3f
       -0.0065323985698817685 0.09294189478258733
0003c0 50 80 f2 21 78 0d c4 bf fd c3 e3 ec 4f ab c6 bf
       -0.15666104943830073 -0.1771030337036165
0003d0 45 8f 01 e1 f3 29 b0 bf a3 a3 d6 bc 59 ff 8d bf
       -0.06314014666855623 -0.014647198748962092
0003e0 ae 1b 09 54 de b6 a1 3f b4 1c 64 9c 70 aa c0 bf
       0.0345983007032865 -0.1302014125469434
0003f0 26 b7 78 9b 28 44 ca bf 6d 05 2b d7 96 2b 85 3f
       -0.20520503608116164 0.010337046090514968
000400 47 ee d1 b7 a3 19 73 bf 1f d3 ed b2 ca 2d d4 3f
       -0.004663123630162475 0.315294909224848
000410 5f 04 99 e6 0c e9 d2 3f a1 73 fb 3e b2 b1 c8 3f
       0.29547426719006425 0.19292285991005279
000420 0b 13 9a fd d0 98 d7 3f 4b 88 79 71 56 7c b4 bf
       0.36870217099958386 -0.08002224226359649
000430 d5 ef f8 70 94 d6 cd bf e1 2f e9 8e 81 4a 9e bf
       -0.23311095730048118 -0.029581093165958697
000440 9d 7b 7a d7 45 c8 cb bf f4 21 18 f8 50 7e b1 3f
       -0.2170493414059508 0.06833368355740516
000450 1d f9 4c ce 82 25 c5 bf 11 c7 66 c8 ba 64 c8 3f
       -0.16520724366450504 0.19057402405956528
000460 1a b1 ad df 25 66 c9 3f a4 83 67 13 08 d7 b5 bf
       0.198429807870874 -0.08531237100352357
000470 9a f6 11 3d e5 18 d1 3f 95 80 d6 d7 80 de d4 bf
       0.26714449848064137 -0.32608052328033327
000480 b8 d9 75 ab eb 39 c4 bf 68 e4 47 d7 41 61 a3 3f
       -0.1580175959786183 0.037851388482473436
000490 ac c5 a8 96 df 29 b7 3f 0b cb 87 c6 61 27 a8 3f
       0.09048268726544134 0.04717546032397565
0004a0 d8 ff 14 7e c1 ba db 3f a5 b5 04 7e 6d 77 d0 3f
       0.43327367127130634 0.2572892885826497
0004b0 ed 72 bf 0c 83 4c 80 3f a0 9e a5 30 f2 49 af bf
       0.007958434893163136 -0.06111103862604961
0004c0 fb ca d1 ab ac 42 85 bf 99 2e ca 84 13 5d ba 3f
       -0.010381077760233995 0.10298273078859167
0004d0 55 ab 93 95 ea d4 c6 3f 2f 39 92 87 5c a0 b4 bf
       0.17837269118839552 -0.08057192144244561
0004e0 46 1a f9 24 ab af 97 3f f6 3e 49 fc d4 71 b4 bf
       0.023131059772163697 -0.07986193808869388
0004f0 15 49 a0 8c 4e 3f ce bf 08 77 42 03 9b 97 b2 bf
       -0.23630697123059777 -0.07262581662731915
000500 a5 c0 00 46 2c 8f b6 bf 0d be 4b 24 4c 33 d8 3f
       -0.08812214573913708 0.3781309465839236
000510 fa bb 6f 5f 75 fd b1 bf e7 b0 59 44 ed 12 d8 3f
       -0.0702737195967841 0.3761552016719762
000520 81 ba 84 95 a1 cf bc 3f c6 39 3e b3 2c 35 df bf
       0.11254320049622814 -0.487620520631847
000530 ea dd eb 16 0c 25 cf bf 5a c4 93 1a 1e 73 a0 bf
       -0.24331809157568723 -0.0321282775347604
000540 7e 24 26 be 2f a1 cb 3f 50 08 7f 3d 54 07 b3 3f
       0.21585652145975937 0.07433058263180325
000550 08 06 b8 51 a4 56 c0 bf bb 4b 03 28 bd 9c c6 3f
       -0.1276441000955375 0.17665829137567166
000560 e8 94 e4 5f 0e fb b0 3f f2 c7 f6 b0 ea e1 c0 3f
       0.06633081284651932 0.13189443245715854
000570 ad c8 3b ad 4d b3 90 3f c2 0a e2 74 7a dc c0 bf
       0.016308988283477422 -0.13172846514870257
000580 89 2b 5f d9 49 d8 be 3f d1 ea eb 9a 37 8e b6 bf
       0.12048780018737494 -0.08810756237282226
000590 d5 18 bc 8c be bf b0 3f 0e ea 83 7b 93 26 d0 bf
       0.06542578636080816 -0.25235449850120595
0005a0 be e4 a1 52 3e b6 bb 3f 66 e1 78 5d e3 87 b1 3f
       0.10824956433670516 0.06847973854099151
0005b0 7a 83 bc db 8d 17 9f 3f b4 94 de 20 70 40 cd 3f
       0.030363289391178473 0.22852899174646313
0005c0 2b da 10 b7 09 0b a4 bf 7f a8 85 27 05 8b c3 3f
       -0.039146712872412635 0.1526800578097358
0005d0 63 29 5e de 2f 72 b1 bf 08 8f c1 8a 0e 61 b0 3f
       -0.06814860514547187 0.0639809693107588
0005e0 0e cd 7c 3f b2 27 c2 3f b2 dc f4 b1 f0 04 dd bf
       0.14183643436408783 -0.4534265268188832
0005f0 e8 01 e0 78 02 5b ad bf eb 59 5c 19 e7 57 ce bf
       -0.05733497357869394 -0.23705757845227934
000600 cf 5d be 96 48 5b ce bf d5 28 ad 8c e3 de b0 3f
       -0.2371607528736903 0.06590101418001677
000610 c1 a8 78 6b 17 9b b3 3f b2 08 e1 79 e6 49 b8 3f
       0.0765852582341351 0.09487762904703592
000620 8a fc 0d 3f b0 98 d5 bf 48 3f df 6d 77 73 d6 3f
       -0.3374443641441266 0.3507975171059923
000630 53 7c eb 71 90 af cf bf 7b 3f 3d b8 5d 9d bd bf
       -0.24754529535764166 -0.11568246601131975
000640 5b af 85 3c c1 d0 98 bf c6 53 4c 7e 8c 3c c6 bf
       -0.024233836478216513 -0.17372280280019775
000650 36 ca 04 ae 3f d6 b8 bf b8 bd 07 e4 de 7e a2 3f
       -0.09701917646888422 0.036124196372721185
000660 de 40 9e 09 4f 31 a9 3f 57 55 b5 07 da 6c cf bf
       0.04920432083520308 -0.24550938965209454
000670 47 e1 90 03 d3 56 9b 3f 52 0d f4 c9 4b 83 b0 bf
       0.02669839581742053 -0.06450341873646906
000680 ae 1d ad 16 3a 92 c3 bf 60 2a 6d 35 6f 0c a8 3f
       -0.15289999110448832 0.046969867011814825
000690 ce 7d ba c3 4d c1 87 bf 06 23 9d c7 78 39 b5 bf
       -0.011599166427287335 -0.08290820001014873
0006a0 51 e9 24 01 40 53 ce bf c1 e4 9d 4f 8a 62 cd bf
       -0.23691558891170897 -0.22956971061265644
0006b0 1c a3 40 49 c1 f9 c7 bf 11 9d 39 d8 24 27 c8 3f
       -0.18730941845685656 0.1886945777689353
0006c0 18 98 28 18 de 59 cd 3f ca 27 52 da b2 e6 b0 3f
       0.22930504016511644 0.06602018194294526
0006d0 91 b6 66 62 f3 ed dd bf 09 d2 3c 59 1b 85 7d 3f
       -0.46764835938925226 0.007207018690497787
0006e0 04 ad d1 d3 4a 0d c3 3f b7 9b 1c d9 e6 d8 aa 3f
       0.14884314863898152 0.05243607902803354
0006f0 6b c8 6f 09 46 7c b9 bf 3a 17 30 86 b3 e3 c5 bf
       -0.09955251436602601 -0.17101139118329362
000700 6f 3c eb 69 86 e7 a4 3f e6 36 49 be 30 44 d2 3f
       0.04082889597850047 0.28541201193443866
000710 f8 87 37 00 59 95 76 3f d3 a8 a4 45 e5 ba d4 3f
       0.0055135227771376735 0.32390720177739957
000720 e5 ec 80 64 8d ac c6 3f 07 73 5c 1a 00 e6 b0 bf
       0.17714087874796927 -0.0660095276220539
000730 e9 34 80 47 ef 5d b1 3f ca 18 74 b2 8b 4d b5 3f
       0.06783957954049281 0.0832145033528803
000740 f8 e0 03 cf 57 b6 c3 bf 9a 24 f4 8f 4b f7 d0 3f
       -0.15400216682588286 0.26509369905449776
000750 db 68 c2 5b 16 a5 af 3f 5d de 9a c9 87 35 be bf
       0.06180639143095031 -0.11800430938716873
000760 07 1e a7 aa 3d 9e c0 bf 17 88 12 60 38 29 8c 3f
       -0.12982912857681603 0.013750496322533263
000770 91 d2 77 2e 8c f0 c2 bf 90 3f b9 d2 c2 b0 c7 bf
       -0.14796592968891223 -0.18508181847800786
000780 2f 9f e9 82 27 ad cd 3f 19 c5 ec 6d 7a 58 b2 bf
       0.23184675113884043 -0.07166257079804374
000790 39 96 05 7c 4d 65 c5 3f d9 50 9f 5b 9a 32 ce bf
       0.16715401225808238 -0.23591927980181174
0007a0 b0 e8 60 ec fb 95 b9 bf d9 b8 84 41 f3 06 a8 bf
       -0.09994482537232119 -0.046928025958878634
0007b0 bb 9c 49 16 bb 19 bc bf 65 4a 2b e7 44 d9 c7 3f
       -0.10976762098435959 0.18631802833131697
0007c0 72 93 35 89 81 22 b5 3f 92 96 2c bd 5c c0 95 3f
       0.08255776977382626 0.02124161629321592
0007d0 7d 39 10 50 91 1b c7 bf 3f 74 ba 2d fe 0c b3 bf
       -0.18052879723877516 -0.07441700569548092
0007e0 d7 c8 5d 72 07 8f c4 3f 30 e7 d6 7b 77 36 9c 3f
       0.16061490139288168 0.027551524098931413
0007f0 50 4a d5 4b d9 e5 d5 3f 9d f5 2e 57 b0 e5 cb bf
       0.34215385823805367 -0.21794704682353663

base.actor.actor_fc1.bias f8 [64]
000000 7c e5 bf 6c da 97 ae 3f 4a b8 7e 71 81 23 d5 3f
       0.059752298140618415 0.33029209216590927
000010 1f 45 d1 00 97 e7 b8 bf 8c a2 0f fd 42 e5 b6 bf
       -0.09728378076512854 -0.08943575552224042
000020 ab 25 6c 7f d3 14 9c bf 07 54 c6 7f 08 9c a0 bf
       -0.02742319550728715 -0.03244043884038921
000030 2d 4e 0d 07 ce fe b2 3f e0 31 4b a3 b4 6f b0 3f
       0.0742005126206144 0.06420449244178128
000040 cc 5f ac 22 01 02 b9 3f f0 9c 4a 43 24 1f bd 3f
       0.09768683525578509 0.1137564338956627
000050 04 a9 b6 3f 2f 5f bf 3f bc a0 cf b8 72 bf 9f 3f
       0.122546151213701 0.031003754167529193
000060 04 04 61 c4 55 27 9d bf c2 ce 03 d8 a2 df 9f 3f
       -0.028470363722821204 0.031126541552068294
000070 e6 da e2 4c 37 22 ba bf 3a 12 54 b4 3b 29 c0 3f
       -0.10208459498504005 0.12625833802316483
000080 e8 c9 b3 02 bd d1 c4 bf 1b 31 a9 b7 52 0c b4 3f
       -0.1626507056422064 0.07831303581150843
000090 e7 7b 30 c6 ff 07 ce bf 19 ec 7a 94 e8 cc 95 3f
       -0.2346191137048372 0.021289476454267573
0000a0 57 77 dc 9c 45 ba ab bf f6 ef 1f 34 bf c4 bd bf
       -0.05415551700410386 -0.11628336927964242
0000b0 d1 24 54 4c 3c 93 c3 bf 86 0e 6c c3 2b 42 be 3f
       -0.1529307720850626 0.11819718857810288
0000c0 79 2e 42 7d 05 91 d4 bf 1d 78 31 85 bc 6b a8 bf
       -0.32135140640523435 -0.047696963557186424
0000d0 91 cf 0f e6 60 e5 c0 3f d2 e0 35 12 1d 74 b8 3f
       0.13200007661327764 0.09552175230590201
0000e0 1a 4c 06 4e 4d c0 b9 3f 0f 3e be 8f 11 e1 b1 bf
       0.10059054522416525 -0.0698405242858302
0000f0 45 70 bd 5e f8 a3 c6 3f 0e 3e 96 d0 a9 60 b4 3f
       0.17687897325493132 0.07959996550038559
000100 38 41 6b 24 45 95 c8 bf d6 7e 42 f9 b4 78 a0 3f
       -0.19205536154050562 0.03217092077943355
000110 1a e9 12 b5 bb f0 ca 3f 5b 90 f9 e9 67 4e b8 3f
       0.2104715952062371 0.09494637930180387
000120 e5 55 31 10 39 2a c0 bf ed e7 13 b9 8b 6a ca 3f
       -0.1262885407510758 0.20637651955604444
000130 dd 14 90 a4 13 ab 9e bf 38 62 a8 c4 61 ee a3 bf
       -0.029949480933301287 -0.03892808461768421
000140 12 ce 8b b3 0f 7b ca 3f 77 f8 ff 43 89 b2 ad bf
       0.20688053385639243 -0.05800274806095811
000150 1b 6f 05 ae 45 eb c0 bf d4 12 19 55 b5 ed be bf
       -0.1321799373353024 -0.12081464126192581
000160 28 20 a6 13 d5 c9 ab bf aa 28 33 1e 35 a1 93 bf
       -0.054274233482886125 -0.0191696452791709
000170 91 eb d3 db 28 27 bb 3f 91 82 31 d6 9e 2e c4 bf
       0.10606627814187976 -0.15767274340307272
000180 e1 10 04 95 9d e7 ca 3f 62 1c c5 41 a8 66 a0 3f
       0.21019334579626217 0.0320332126889802
000190 2f d7 32 3f e3 91 6e 3f 03 92 ef 3c eb 6c 37 3f
       0.003731674043218634 0.00035744422069530784
0001a0 fe be 65 ab 57 9d 9e bf b2 ba 86 a7 68 b6 a0 3f
       -0.029897088848371382 0.03264166874884235
0001b0 d6 d0 55 e9 80 07 b7 3f 4d e5 ff c2 5a 25 b1 3f
       0.0899582452455577 0.06697623501522294
0001c0 d5 23 54 0a a1 ae b1 bf 2a 18 b8 23 df 14 bb 3f
       -0.06907087804951513 0.10578722593354031
0001d0 26 82 7f 10 d9 f6 b2 bf 19 7e 04 d0 3c 33 ca 3f
       -0.07407910015854977 0.20468864590746774
0001e0 e6 50 e8 6c b7 17 c9 bf be 45 f9 f6 34 33 ad bf
       -0.19603627031086218 -0.05703130259338306
0001f0 04 45 12 24 31 06 c8 bf 7d 77 f1 62 99 5b c4 3f
       -0.18768896352097653 0.1590453847047079

base.actor.actor_fc2.weight f8 [64, 64]
000000 73 18 13 bd 4f 92 b4 bf 72 7b 30 77 1b 60 ca bf
       -0.08035753599242117 -0.20605796165269968
000010 79 b5 cc dc 0d 1f a8 3f 05 f7 8e 12 35 db d2 3f
       0.04711192436512141 0.2946293526873521
000020 8c ed d0 05 52 4d b2 3f 88 96 73 6c a6 69 9b bf
       0.07149231569285613 -0.026770210618357854
000030 60 bf 64 09 e8 4b b6 bf ad 1e 0b 29 a9 2f b9 3f
       -0.08709573964438055 0.09838349582707435
000040 74 17 2f 0a 6f 36 cf 3f 4b 32 46 06 47 5b b7 3f
       0.24384868619216216 0.09123653319529372
000050 9e d2 dc 0b 70 a4 a5 3f 11 85 55 aa 9e 1b a4 bf
       0.04227018494421951 -0.039273222248775615
000060 fb 4a 00 a0 1c 12 a4 bf e2 50 17 40 42 6c ae 3f
       -0.03920068219317404 0.05941969902383605
000070 2e 67 92 d4 76 21 d1 3f d2 eb 79 c3 05 c2 c9 3f
       0.267667491521581 0.2012335972284221
000080 0d 22 0f b2 2a 0d c5 3f f6 68 cb fd 5c 48 bf 3f
       0.16446431822102206 0.1221979255309725
000090 f5 46 33 4c de 88 9e 3f ff 5f 65 c7 25 ba c2 3f
       0.029818986321351344 0.14630577312595958
0000a0 e8 ab 35 6a 42 2b a5 3f 3b 3b 0f 50 cd 13 d2 3f
       0.04134566828255243 0.2824586183386832
0000b0 a6 e4 74 92 a7 51 cc bf 81 96 2f 9a 4a f8 c1 3f
       -0.22124189997865534 0.1403897526608269
0000c0 f9 f2 30 e7 d6 c0 c3 3f 7f ac ce d0 91 52 c6 bf
       0.15432249344475915 -0.1743948239867201
0000d0 7b a3 04 d5 6c 5a b5 3f 97 7f fa 69 fa 9a d1 3f
       0.08341102791440662 0.2750841174074536
0000e0 79 91 fb e8 54 af b3 3f d1 eb 02 31 34 f1 ce bf
       0.07689409912160795 -0.24173595803389827
0000f0 e5 00 dd 9c bb 40 93 bf 20 db aa b3 a9 d1 b2 3f
       -0.01880162377278873 0.07351170193110734
000100 91 a2 26 96 31 7b c9 3f 27 d2 c5 9a 8e 2a ce 3f
       0.19907207328403279 0.2356737380720386
000110 a9 43 f9 48 7c a5 bf bf df c6 14 d7 5b 4f ad bf
       -0.12361885816177555 -0.057246084218048436
000120 44 e9 21 59 3e a7 cd bf 67 76 d3 21 60 69 cb bf
       -0.23166636802836582 -0.21415330554639242
000130 f9 ba b9 88 fe b2 d7 bf fb 47 96 b3 bc 71 98 bf
       -0.37029994346714507 -0.023871372662661355
000140 72 0a 46 21 8f 0d c9 bf d1 0f 2f 0f 5f 19 9e 3f
       -0.19572629093825672 0.029393658925769565
000150 e1 66 2e 05 3b 97 ba bf ae 4e 8c 41 c8 11 cd bf
       -0.10387009502883472 -0.2271051712092364
000160 04 2a 37 9b b6 a4 c8 3f 97 ee ca 2e 68 22 ac 3f
       0.19252665118104073 0.05495000430297841
000170 22 02 e8 bd bb d8 d1 3f 02 7a 55 c7 f7 98 8a bf
       0.2788533548883 -0.012987075586974765
000180 47 79 fd d3 6e af c8 bf 69 de 3e 2f 13 c0 d0 3f
       -0.19285378790932325 0.26172332395387926
000190 b0 f3 5c 54 2a 7b c1 3f dc 56 61 1e f2 49 cd bf
       0.1365712081841628 -0.22881914599809405
0001a0 72 f2 48 d6 9a 7b ac 3f c8 bb 3b 0f 9e 45 a1 3f
       0.055630530031042805 0.033734263762986993
0001b0 db ae 2d 33 2e ab c0 3f 42 76 dc 35 5a 48 c7 bf
       0.13022401331851693 -0.18189551954212574
0001c0 7d 7e a2 18 24 65 a2 bf eb 2c cd 2e 49 1a b5 bf
       -0.03592789459912369 -0.0824323405515092
0001d0 32 95 0b 5e 56 bb ae 3f 3b 25 93 e7 b8 eb b1 3f
       0.06002302072537659 0.07000308660203285
0001e0 b3 da c8 27 36 76 c7 bf 0e 45 ce ed b6 52 a5 bf
       -0.18329503004652778 -0.041646687058468954
0001f0 8c 61 a9 c7 91 16 bb 3f 50 fb 05 ae 89 da b9 3f
       0.10581313252021668 0.10099087236993154
000200 79 ed 34 2d 91 c4 93 bf b6 9b 99 f9 80 4c ba 3f
       -0.019304531463814698 0.1027298554778174
000210 9b b3 85 6d 68 23 d2 3f fc 8a c8 58 f8 02 8e bf
       0.2834111280015407 -0.014654102525189831
000220 da 39 79 ab 37 29 c3 bf 34 48 b2 2a 8c 88 a6 3f
       -0.1496953570626392 0.04401052495190108
000230 3d 25 e9 b4 aa 8d d1 bf 4c a1 a8 52 06 2f b3 3f
       -0.27427165667593895 0.07493628995928708
000240 ee 68 3f b3 52 79 a9 bf 1c e1 31 db 30 5d d1 bf
       -0.049753746395895124 -0.2713129177641507
000250 ef 4d 06 06 5d 5c c5 3f 0e fa 7f ea 45 dc c2 3f
       0.16688120645686363 0.14734720182600863
000260 3f 59 d8 24 84 a0 9a bf c6 8d 8b c7 94 c5 b5 3f
       -0.02600294566044536 0.08504609939296079
000270 9d 3d bb 62 c3 32 a0 3f ea 61 aa 00 38 fd be bf
       0.03163729267327684 -0.12105131164788188
000280 f3 3d af ff d0 b1 b8 3f 51 b9 da 32 e3 27 bc 3f
       0.09646326296137157 0.10998363486826192
000290 58 c5 c1 64 11 c3 c5 3f e7 38 8e 8d b8 16 90 bf
       0.17001550121089326 -0.015711673393121208
0002a0 cc 75 a4 ae 9f 0f ae 3f 4c 91 2c cc ba c4 b3 bf
       0.058712949818282206 -0.0772206066581635
0002b0 7f 91 c2 ca 79 dd bc bf 7e 5b b1 3d 67 a1 ce 3f
       -0.11275445175357922 0.23930063736289847
0002c0 70 5a db c6 76 5e b5 bf 27 40 07 ca 12 7b cb bf
       -0.08347265581992658 -0.2146934019533557
0002d0 3e 71 40 db 5b 12 cb bf 3f 0e 97 4a 2e f4 92 3f
       -0.211497766548641 0.018509600927940403
0002e0 31 ff 36 9c d9 2f ad bf 4f c5 12 09 75 9c c5 3f
       -0.05700569183272675 0.1688371938994728
0002f0 af b0 f8 08 db 75 77 bf 5c 05 e3 07 9d d2 b5 3f
       -0.005727630239146616 0.08524495546864358
000300 98 d3 bb e7 ff 77 a5 bf a3 33 72 c4 1d f2 b9 bf
       -0.041931149518780575 -0.10135065122649549
000310 4d 1b ba ff 86 f0 d0 3f d3 0b 66 98 54 b3 b1 bf
       0.26468062375390816 -0.06914261551541694
000320 68 7d 2d 18 58 08 b3 3f 15 a8 56 69 5c 7c d2 bf
       0.07434607115054848 -0.28884039198840245
000330 79 bd 16 ec cb 9a c9 3f bf fe b1 d5 65 4f b6 bf
       0.20003651645445666 -0.08714901415987251
000340 06 e2 a8 b3 91 be cb 3f 07 45 e0 1e 8c db ba 3f
       0.2167532088513015 0.10491252664384741
000350 41 a0 7c 87 21 fb b8 bf 18 8c 47 fb 22 53 41 3f
       -0.09758195455344866 0.0005287094887161973
000360 7a 13 01 36 21 4f a0 bf 7d b0 54 e3 77 60 c1 bf
       -0.03185371193152427 -0.1357564792646179
000370 0b d8 1f c5 25 8b d6 bf 2c 91 97 13 71 dd bb bf
       -0.35224289179257146 -0.1088476822693038
000380 b2 b7 ba 0f b9 a7 a8 bf fd 88 5d b0 09 96 9c bf
       -0.04815462414749962 -0.027916098966110237
000390 8c 29 b0 7e 74 48 c0 bf a5 0f 6d 5e 45 ce c3 3f
       -0.12721115289634743 0.15473239050527102
0003a0 50 b1 d1 b8 fb dd b3 3f b7 67 88 f5 ab 5c cd 3f
       0.07760594618020389 0.22939061631114807
0003b0 9c 5c ec 89 bb 69 d6 3f 5e d8 48 fe 4e 07 d1 bf
       0.35020340413161377 -0.2660710795638631
0003c0 7c 62 3c 1f 30 02 d0 bf 65 c9 96 ee 8f 2f bf 3f
       -0.25013354349497496 0.12181949210097327
0003d0 2b be b5 7e 2d 38 d0 3f 5b 40 15 f5 61 3d 98 bf
       0.2534288155938806 -0.02367165621154786
0003e0 bb 7f 46 19 67 41 d2 bf 29 39 db a9 a6 cc c2 3f
       -0.2852418658094355 0.1468704537750878
0003f0 f1 34 40 81 6e ab 85 bf 31 1f 9c ec b3 16 b3 3f
       -0.010580886191770196 0.07456516768081368
000400 1b 8d 27 ac 36 29 d0 bf 33 8c 07 b4 64 99 c6 3f
       -0.2525154763408907 0.1765561942148409
000410 e4 45 18 98 a9 08 83 bf 2b 49 7e 2f 17 f7 ab 3f
       -0.009293866113725131 0.05461952643158193
000420 78 b9 17 3a 7e f7 c8 3f a7 de 23 7e 22 2c a6 3f
       0.19505288921886765 0.0433054713229784
000430 08 ef e8 51 d1 aa c0 bf 42 6e 88 bc 9c 4e bd bf
       -0.13021294116503435 -0.11448077776770396
000440 81 28 ed 4c de ad a5 bf 0f f6 1a cb d0 0a d4 bf
       -0.04234213532488785 -0.3131601317835199
000450 f4 f9 60 d2 c0 9c ad bf 95 78 1b e1 5e 83 ad bf
       -0.05783655708409077 -0.05764290330783798
000460 63 2a 9b 02 44 9a c2 bf 9f 8f 55 fb 34 8a b5 3f
       -0.14533281447650656 0.08414012085046217
000470 9b f2 1d 42 85 0c b7 3f 93 f7 d8 81 ec b3 ac 3f
       0.09003479828056486 0.05606021008541897
000480 09 f5 cb 60 44 f5 c1 3f 9c fc c4 d4 62 fd b2 3f
       0.14029745794679396 0.07417886442725535
000490 46 60 4a cf 4f 0d cd 3f ee c1 ce c3 88 f1 cf 3f
       0.22696874257667526 0.2495585399715447
0004a0 8b 07 84 e2 23 2e ba 3f ed 64 eb fe 56 cc c2 3f
       0.1022665431992477 0.14686095664254797
0004b0 d4 52 f7 6c a2 22 a0 3f b0 58 5b e4 f6 ff b0 3f
       0.03151424007561379 0.0664057071220181
0004c0 c4 61 3c 67 f4 24 c3 bf 2f 93 89 d5 e9 d6 c3 3f
       -0.14956526795209701 0.15499613691931688
0004d0 1b ab be 83 9d 70 bb 3f bb 0e d2 47 04 b7 c5 bf
       0.10718712297845594 -0.16964772707807704
0004e0 ee 31 f8 75 d0 f3 b3 3f 29 f8 22 e3 91 b1 d7 bf
       0.07793906097521816 -0.370213004887662
0004f0 fa 8a 5f ed d6 8c 97 bf b8 0b d0 97 a9 63 cb 3f
       -0.022998197782622555 0.21397895729759653
000500 08 64 23 95 6e a9 c5 3f 56 02 18 7e 02 88 c2 3f
       0.1692331531728828 0.14477568776057365
000510 78 64 c6 43 2d b4 b0 bf d9 d2 08 49 c5 98 cc bf
       -0.0652492800203549 -0.22341219011436556
000520 99 72 6f 35 f8 45 c3 3f 5a fe 60 10 ca ad b1 3f
       0.1505728016772039 0.06905806445956256
000530 40 19 d9 77 17 8c c6 bf e4 f3 f2 d3 08 22 ab 3f
       -0.17615025855975297 0.0529940375067566
000540 01 ea 4a ad d6 a8 94 3f 37 e0 cc bf 1a f5 c2 bf
       0.02017531807607931 -0.14810499539612618
000550 9f 26 91 cc 88 cc ba bf a2 52 ce de 16 ab a5 bf
       -0.1046834468299047 -0.042320933053962465
000560 84 29 76 0c f3 90 c6 3f a0 4c 68 5e 4f a1 cb bf
       0.17629850491023202 -0.21586029157387987
000570 26 e8 a0 69 50 63 b0 3f 0a eb a9 13 30 45 b6 3f
       0.06401541308233102 0.08699322204658358
000580 bb 3c fd b6 22 82 cf 3f d7 45 37 64 e8 9b a7 3f
       0.24615892348308485 0.04611135695780504
000590 5b 04 14 d8 a4 96 b6 bf 52 71 f5 c0 62 65 a9 bf
       -0.08823614383074256 -0.04960163693860643
0005a0 3e 17 62 9c ca 1c c4 3f 17 a8 4a 7b fa 6b af bf
       0.15712864528557619 -0.06137068514847515
0005b0 f3 34 36 d8 db 02 bc bf 7d df 9c c7 ee 6c c8 bf
       -0.10941862133605067 -0.1908243632003596
0005c0 27 64 de 20 16 4e d9 3f 70 13 b1 5a 5b 40 87 bf
       0.39539101800761717 -0.011353219704810263
0005d0 34 32 aa fd 9d a6 b4 bf 05 ee 18 49 da 92 82 bf
       -0.08066737597455004 -0.009069161754374564
0005e0 d6 00 1e 89 7d 08 d4 3f 4f a7 1e ac 83 88 bb bf
       0.31301821127273166 -0.10755179359571553
0005f0 7c ef 39 a6 73 39 a5 bf ba f0 36 74 38 ae 73 3f
       -0.04145394710664527 0.0048048215134565645
000600 72 5f 0c c8 b9 2b 71 bf d5 de 7b 4a 43 e2 7e 3f
       -0.004192090710397044 0.0075399998238407555
000610 fd ab af d6 56 d0 b6 bf 79 2b ec 43 c5 09 d7 3f
       -0.08911650410998102 0.3599713481241263
000620 b0 3d ba 21 eb d6 88 bf b8 5d 63 7b fc 11 a9 3f
       -0.012128674475461704 0.048965349256544
000630 83 20 73 56 cc cd b9 3f 5f c2 11 5e e1 84 82 3f
       0.10079648123348943 0.009042511637944615
000640 f2 91 3e 74 2c 1f 9b bf 59 8c a3 05 c2 c3 d2 bf
       -0.026486105532642364 -0.2931981139246936
000650 2b f3 f6 c7 91 e5 c2 bf 19 64 dd ea 5b 16 bc 3f
       -0.14763090385340524 0.10971617206577412
000660 27 05 89 bc f5 63 a3 3f 48 21 da 69 e6 9b cb bf
       0.03787200857596878 -0.21569519203718301
000670 9c 2c 0f 3c 1e 53 c5 3f 55 ca c8 9d f7 d6 9d bf
       0.16659906323034057 -0.029140347485915836
000680 47 dd b0 ff fd f4 b0 bf 5e 70 b8 a6 a8 3c 9d bf
       -0.06623828403904951 -0.028551707435426336
000690 1a 2b f2 b4 e1 fa ca bf 23 83 dc b3 28 b7 ab 3f
       -0.21078130088093233 0.05413176723073423
0006a0 99 ab 31 77 a2 4b b0 bf 4b f3 77 8e 4f af c1 bf
       -0.06365409288416259 -0.13816256004784075
0006b0 81 f2 13 14 5c f9 b5 bf c8 35 35 f2 c3 ee c3 3f
       -0.08583617677863666 0.1557240421920325
0006c0 6d fd 2c 6a 10 cc ca 3f 49 c8 81 35 82 a3 bb bf
       0.2093525427280655 -0.10796369367906879
0006d0 4a fb 25 0b 5a a9 8c 3f 93 36 51 6c f5 26 ab 3f
       0.013994887795659178 0.05303160617095872
0006e0 86 dc 48 55 dc 2a bb bf 36 85 37 dd aa ac c3 3f
       -0.10612275201934737 0.15370689202885907
0006f0 d9 78 48 1c d3 62 bb 3f ca 66 6b f4 40 0b c4 3f
       0.10697669449334359 0.15659343657062258
000700 71 ce a9 a2 7b bc 76 bf a9 6a c2 a1 d2 55 7c 3f
       -0.00555084509925373 0.006917784481766867
000710 8b bd bf 75 dd b6 d1 3f 54 00 fe 8f b0 d9 a8 3f
       0.2767861986057702 0.048535840584918916
000720 ae 5b 3a b3 c3 db cb 3f c0 45 ac fa 2a 91 b3 3f
       0.21764417888036064 0.07643383617348487
000730 1b 4d fb 45 57 48 a9 3f 30 fc 03 19 9f 07 b6 bf
       0.04938004235523349 -0.08605379448634731
000740 ae f4 17 14 d8 63 c7 bf 20 15 59 06 03 28 c1 bf
       -0.18273449879771902 -0.13403356370887654
000750 5a 53 10 ad ad 72 c2 3f 12 d5 5c 02 80 bf cd bf
       0.14412470770244107 -0.23240661731112106
000760 a8 c8 5b 95 08 af a8 3f f1 0d b4 3c aa 72 74 3f
       0.04821039984916925 0.004992165554770876
000770 8c 72 f9 af 0f 28 a7 3f 06 df b7 b6 46 e8 b1 3f
       0.0452275183022027 0.06995050393004129
000780 0c 7d ae 23 5f c4 d1 bf 88 8e 96 df 71 11 d1 bf
       -0.2776105736210901 -0.26668974718834493
000790 d9 3a 7d f4 da 5b 74 bf 0e a9 55 96 38 89 c0 bf
       -0.004970412533863843 -0.12918765392834825
0007a0 9b 2d e3 49 fa 45 cc bf 80 ed e5 73 c7 75 ce 3f
       -0.2208855496195213 0.23796933325852976
0007b0 3e ee 86 60 a4 72 d0 3f c6 0e 11 36 22 3e c2 bf
       0.2569971983573146 -0.14252116813633203
0007c0 3b 97 46 3b 9b f5 d4 3f 74 b6 8c b4 1a e1 b6 bf
       0.3274906233658503 -0.08937231929731998
0007d0 35 03 9b 0a 90 0a ce 3f 8b 12 17 32 f6 83 cc 3f
       0.23469734685752433 0.22277715154463737
0007e0 7e 7a 7f d0 b7 78 bb bf 29 82 7b a4 aa c7 b0 3f
       -0.10731076088220878 0.06554667010960515
0007f0 34 65 16 37 4b 9b b3 3f cd 0b 23 d7 62 36 58 bf
       0.07658834547909948 -0.0014778104055472752

base.actor.actor_fc2.bias f8 [64]
000000 ce c8 23 7d f9 b1 95 3f 05 ed 76 f3 8c eb b9 3f
       0.021186731589246936 0.1012504667659649
000010 ab f3 85 74 ff a0 8f bf 79 20 1e 81 99 de 97 3f
       -0.015443797820575108 0.02331008768626972
000020 cb 0c 01 52 d1 b4 bf 3f 98 fb f2 45 16 c6 95 bf
       0.12385280849507578 -0.021263454455716507
000030 30 7f 97 47 06 57 b3 3f 96 63 2b 0f 83 f4 a3 3f
       0.07554663894506741 0.03897485313581865
000040 20 64 d7 0c ac d6 b4 3f 64 16 c6 a3 c8 5c a5 3f
       0.08140063584814117 0.041723508827129746
000050 9a a8 10 05 03 09 c0 bf 68 4a fb c0 ce 24 b0 3f
       -0.1252750181896019 0.06306163989510483
000060 63 23 69 89 0c 77 9b 3f 03 6d e2 f0 04 2a c1 3f
       0.026821323286898912 0.13409482728898334
000070 56 d1 33 18 38 2e a0 bf 3b 64 8b db f7 fe 95 bf
       -0.031602623896022905 -0.021480438971455334
000080 42 06 e1 51 33 81 ac bf 35 8a 14 e1 b7 49 c3 bf
       -0.05567322134494336 -0.15068720331426425
000090 18 5a 61 99 63 86 a4 bf 36 1f 9a fd 46 25 c6 bf
       -0.04008780715291865 -0.17301261313354538
0000a0 54 ec a0 93 d3 b7 b7 3f 8b e3 35 cf 00 41 b7 3f
       0.09264871935094848 0.09083561953401735
0000b0 02 5e fa 41 20 e4 c4 bf 65 5f 79 dc b1 7e b2 3f
       -0.16321185323316462 0.07224570877712962
0000c0 39 54 b1 ee 37 8b a7 bf 57 68 7a de 0f ac 9f 3f
       -0.04598402775506156 0.03092980189703839
0000d0 54 eb b2 21 6c 9b c5 bf 8f dc fb 88 76 7b 99 bf
       -0.1688056149049212 -0.02488503657420132
0000e0 aa 71 9f 17 a8 76 bb 3f e0 b4 de f3 16 90 a3 bf
       0.10727930618981554 -0.038208691853790944
0000f0 99 56 6f d2 e0 54 b9 bf 11 7a 54 80 fb 4f a3 3f
       -0.09895138871737642 0.037719592490464866
000100 8e a1 05 42 d6 0b a9 3f b6 b6 ce 61 91 90 ad 3f
       0.04891843372280667 0.05774359053553495
000110 b2 98 2e 76 9f 51 c6 bf 24 c4 76 87 9f ee 99 3f
       -0.17436593313795395 0.025324337618887097
000120 88 b9 18 b5 29 30 9a 3f 0e ea 7a 24 41 9b c8 bf
       0.025574351957567326 -0.1922379902005819
000130 58 82 f9 47 1b 6d ad 3f 19 b4 b0 3d ff 0a d0 bf
       0.057473042045562195 -0.25067120575369156
000140 21 fc 3c 4c 4a 0e b2 bf 80 b2 ac a7 22 fd c8 bf
       -0.07053055154118272 -0.1952250784610392
000150 30 a2 08 19 46 16 af 3f 3a f4 97 81 be 29 bd bf
       0.060716810756563766 -0.11391821540742422
000160 3b 33 26 95 65 fc b3 3f b5 d5 e9 48 f2 64 c4 3f
       0.07807001963938102 0.15933064041352699
000170 7f 6d 4c 6c 56 e3 af 3f bb 01 1b d1 bc 12 c1 3f
       0.06228132316592915 0.1333843251250196
000180 ed 09 4c fc 1c da c4 bf 1d 84 3b c1 ef 5f cd 3f
       -0.16290628737631555 0.22949025092296518
000190 6f 82 1d f1 0d 71 92 bf 8a 53 15 7c 6d ac 9d 3f
       -0.01800939354086711 0.028978071878856627
0001a0 eb f8 ee d4 2c 9c ca bf 93 51 93 f2 07 ff b8 bf
       -0.2078910865511213 -0.09764146492245222
0001b0 84 08 1a 7d 7d 5f a0 bf 44 9c 37 30 d4 41 a1 bf
       -0.031978532334521 -0.03370535935010158
0001c0 93 2d f7 5e 34 d2 93 3f d0 6a 49 02 9d 21 be bf
       0.019356554313885232 -0.11770039850072611
0001d0 f2 5d d6 51 06 4a c1 3f d8 42 c7 58 9c 00 ad bf
       0.13507155414548283 -0.05664528449745426
0001e0 a6 ae 15 72 1d 46 a8 bf 36 a6 8f 5f 5f c9 85 3f
       -0.047409935165743364 0.010637993911546944
0001f0 d9 01 41 a4 e5 c1 79 bf 79 02 15 85 4e 73 b0 bf
       -0.006288430249754084 -0.06425944089006376

base.actor.actor_fc3.weight f8 [8, 64]
000000 16 fe 06 2d 94 90 a3 3f 47 4c 28 75 b1 0f 98 3f
       0.03821242379808269 0.023497364783974708
000010 88 19 16 f8 25 ff bc bf 3a 8e f6 0a 8d 96 a1 3f
       -0.1132682543448934 0.03435173758341788
000020 14 02 d1 20 70 ba 4d bf 59 a4 2b e2 f4 2f 9e 3f
       -0.0009072349072383767 0.02947981481967008
000030 29 05 7b cd 86 d5 b7 bf 1f 2f cf f6 52 62 9e bf
       -0.09310190693488053 -0.029671951593441933
000040 61 0e f6 3d 38 2f a4 3f b5 45 4e 9a 5d 15 58 bf
       0.03942275768625048 -0.0014699377145216245
000050 30 46 58 00 78 f5 95 3f 27 e2 4b 3e 5e ff 9e bf
       0.02144420148949261 -0.030271027138015463
000060 e9 e7 00 dd b1 58 a4 bf 0b 75 ae fe 53 a9 a6 bf
       -0.0397391874580107 -0.04426062091736512
000070 7f 7e ff 7a 5f 95 5c bf a5 eb 70 02 7b d9 9e bf
       -0.0017445976663949256 -0.030126497291557936
000080 91 9c 93 37 6a 4f ad bf 49 7b 4e ae 3c e2 a3 bf
       -0.057246512684110525 -0.03883542659536105
000090 76 12 44 df 8e 0b ab 3f ce d8 63 8f 20 98 b2 3f
       0.05282255626119518 0.07263377667172508
0000a0 c2 9d 03 9c 4e 7b b2 bf f9 b5 ce 25 87 e3 99 3f
       -0.07219401654184934 0.0252820126367421
0000b0 b6 eb 52 40 86 97 bd bf 1a 69 cc 87 f0 da c5 bf
       -0.11559332914741458 -0.1707440054968366
0000c0 03 7e f1 16 b1 c0 b4 bf ab d1 a1 93 55 e7 a5 bf
       -0.08106524286403531 -0.04278056552076078
0000d0 13 d6 56 bb 82 17 98 3f bb f2 98 51 6a ca 98 3f
       0.023527186092641438 0.02420965312033972
0000e0 d3 c2 0d 8b 3d 0b b2 bf 20 ee 58 dd a6 31 bb 3f
       -0.07048401493899385 0.10622637657154899
0000f0 0c 09 2d f6 19 d8 a1 bf 8c 76 19 3a d8 53 8b 3f
       -0.03485184793545856 0.013343514702849356
000100 2b a2 62 e8 6c 7c bf 3f 0a ed 39 0f 1b ff b0 3f
       0.12299233125180169 0.06639260408148942
000110 b6 d8 bf b6 ed aa 2c bf 75 ff 2f e8 a8 e4 bb bf
       -0.00021871711521698694 -0.10895782154693541
000120 eb eb 1f ee b9 7d 78 bf ed d5 e3 e7 ee d1 a0 bf
       -0.005979276933426351 -0.03285166340530652
000130 e3 e7 c5 30 db da ac 3f 96 ef 94 be 52 e9 d0 bf
       0.056357240394347995 -0.2642409192228511
000140 77 d6 c4 5b 66 07 c7 3f 39 4f b5 9e 10 43 a5 bf
       0.1799133251276321 -0.0415272897468228
000150 20 5c d5 b1 7a 73 b5 bf 5d 75 0e 66 4f 18 91 bf
       -0.08379332391392369 -0.016694298366578198
000160 29 c3 cd 92 a3 c2 a7 3f ca 70 3a d7 2e bb 9c bf
       0.04640685240781856 -0.02805779637002174
000170 f4 f8 5d 34 16 16 ba 3f f1 ad 35 b3 83 3b 5b bf
       0.101899516854221 -0.0016621385701353043
000180 22 94 79 ae 6b ef a1 bf f9 1e 17 72 20 e6 af 3f
       -0.0350297594530178 0.0623026026983648
000190 e7 a7 76 f6 3d d6 ae 3f 92 41 77 17 2c a8 a0 3f
       0.06022828706348076 0.03253305231521887
0001a0 94 d0 03 e5 b2 98 b2 bf 74 48 a3 75 f4 d6 94 bf
       -0.07264249888595692 -0.020351237945597636
0001b0 d0 70 76 87 8e b1 9e bf 4b 33 b0 c8 6a 4c 8c 3f
       -0.029974200265869666 0.013817629098434777
0001c0 59 6b 85 e5 fe 5b 89 3f 8e a9 71 5c e6 54 9a 3f
       0.012382499103002752 0.02571449221833571
0001d0 81 ca 2d 5c ab 5a b1 3f 0a 88 85 35 dc d9 a8 3f
       0.06778975487194751 0.04853714135494165
0001e0 6e f5 10 a0 14 d5 7d 3f 04 97 82 19 90 22 9b bf
       0.007283287589470928 -0.026499034459127394
0001f0 db 90 83 81 bf e3 96 3f e3 b6 ac aa 20 73 be 3f
       0.022353164939787767 0.11894420782911257
000200 5e 53 eb f7 5a d1 ac 3f 71 03 ff d0 e6 a9 a5 bf
       0.05628475452764435 -0.04231187154028405
000210 98 7a 4e 38 73 b5 b2 3f 26 b7 a5 56 fb cc 97 bf
       0.07308120846435384 -0.02324288097718532
000220 cf d1 d0 31 88 28 8a 3f f0 bc 84 75 91 c5 a7 bf
       0.01277262117410141 -0.04642920074035739
000230 be 65 e7 47 fb c9 a3 bf 0b 75 0e 78 5c 01 a6 bf
       -0.03865037205441578 -0.04297913518460391
000240 4e 27 75 6f 55 68 95 3f c9 b2 26 f9 55 15 b7 3f
       0.020905814102014468 0.09016930897514465
000250 13 7f 08 8a 82 a6 95 3f 18 a1 34 b7 b6 d0 b4 bf
       0.02114299743163801 -0.08130971882622295
000260 ee 6b a9 aa 57 57 a8 3f f4 97 2f 3b a0 3d a8 bf
       0.047541369993915214 -0.04734516832813532
000270 f8 d3 f0 ce e8 d1 89 3f d2 33 39 31 b9 17 a9 bf
       0.012607401671724347 -0.049009120234223894
000280 94 19 eb fe 4a ea 8a 3f 24 b2 95 84 0b 97 a7 bf
       0.013142190842143 -0.04607425683466129
000290 fe 19 83 e7 32 44 a7 3f 33 f0 d5 3c 0c 89 b1 3f
       0.0454421908958018 0.06849743352171415
0002a0 8a 5d 47 3b cd 3b a0 bf a8 f7 0b a6 72 99 a1 bf
       -0.031706250654390436 -0.03437383915841902
0002b0 75 ba 72 2a 09 86 a1 3f 50 9c 40 6c 54 b8 93 bf
       0.03422573702970492 -0.01925784979553341
0002c0 31 6a ff 55 16 6c b3 3f f4 a7 13 7a 4e 64 a2 bf
       0.07586803054383819 -0.03592152824587905
0002d0 0e d0 82 a9 c1 9f a9 bf 78 8a 85 5a c5 65 a0 bf
       -0.0500469703123657 -0.03202645044327296
0002e0 77 a5 85 67 50 15 b3 3f cf 3b 50 88 28 f3 91 3f
       0.07454397704500147 0.017529137916479528
0002f0 3d e0 ad 2b 5e 27 af 3f cf 20 e3 4e 8f 03 ae 3f
       0.06084722788995165 0.05862090909937622
000300 87 86 d7 a7 d6 4a 80 3f ae 1b fb 29 00 c9 ac 3f
       0.007955243107917965 0.0562210131880002
000310 79 73 cf 35 94 7b aa 3f d8 57 30 0e 59 5d 8b 3f
       0.05172408253540701 0.013361640687474294
000320 21 1e 78 77 c7 e8 95 3f 17 95 9d 24 b2 87 8a 3f
       0.021395794550725825 0.012954131834428879
000330 5d 36 a4 45 7f c2 59 3f 4a a1 cf 7e c6 26 94 bf
       0.001572250641916815 -0.01967916630738501
000340 85 c9 ea 2a e8 f2 b6 3f 27 6c c8 a1 c1 8c a8 3f
       0.08964396522313763 0.04794888591660423
000350 e2 4f e9 de 43 5c ba bf e8 04 11 e1 28 9a 81 bf
       -0.10297035400554891 -0.00859481751297371
000360 e2 da bf 81 92 5d 70 bf 83 47 de 71 8e b7 a1 3f
       -0.003995487491912116 0.03460354938501011
000370 21 cd ff 5f e3 f7 92 3f eb 9c e0 d3 f2 70 98 3f
       0.018523743376090644 0.02386836450764644
000380 a4 6c ce 90 5d 8e af bf f4 70 55 cf 77 da 88 bf
       -0.06163303749709684 -0.012135444655250606
000390 0b a6 92 bf b7 da 9f bf 78 9f 00 1b 0f ea b5 3f
       -0.03110777956741199 0.08560270699729056
0003a0 51 22 fe 72 16 7f 99 bf 82 b1 3a 66 a2 e7 af bf
       -0.024898863571737376 -0.06231410501399905
0003b0 58 c2 b5 71 0b dd 95 3f 76 82 13 9f b7 9c b6 3f
       0.021351031127269188 0.08832881578156013
0003c0 0f 71 1d 98 19 1f a6 bf 91 64 8c 6f 67 7b 80 bf
       -0.043206023997045866 -0.008047874538123419
0003d0 cf 58 77 a0 6d 75 af 3f 40 ff f5 8c 89 a0 99 3f
       0.06144278129402069 0.025026463726589343
0003e0 50 d8 b5 c2 ca 9b 9f 3f 8a 85 58 2d 7c 99 75 3f
       0.03086773694436601 0.005273327891275223
0003f0 e1 27 c9 a7 28 07 89 bf 92 3a 06 18 55 52 b5 3f
       -0.012220685596862015 0.08328754269153141
000400 d2 15 23 c4 eb 1a c2 bf 01 f5 f2 df 52 da a2 bf
       -0.14144656254772642 -0.03682192786934913
000410 7e 0a 44 23 16 cd 90 3f 7b a0 f3 41 62 a8 96 bf
       0.01640734281773825 -0.022126708293314295
000420 5e 3b 7c 10 1d 5c bf bf d5 60 ae d4 7b a9 8e 3f
       -0.12249929096672704 0.014971702030195303
000430 27 8c c7 87 2c 28 a1 3f 5a 84 94 b2 cf b3 b7 3f
       0.03350962789024719 0.092587452982586
000440 e6 95 68 b3 7e b2 89 bf 7a e6 17 59 ec 2c 82 3f
       -0.012547483301271489 0.008874746769822684
000450 11 6f e3 d0 13 c8 b6 3f 22 c6 80 8b 5a d8 b2 3f
       0.0889904389363745 0.07361379533610848
000460 4b 52 64 8c 9f 08 aa bf d4 42 3a 5b 73 2c 9f 3f
       -0.050847040069275616 0.030443003123368964
000470 9c c3 dd 3c 93 c9 b3 bf 6d 7f 1a 3e ac 75 92 3f
       -0.07729454265587637 0.018027011194703336
000480 81 b6 0d 6c c7 25 b8 bf 14 35 56 6e 06 fd c0 3f
       -0.09432646167780413 0.13272171390091414
000490 22 fd 15 53 9c e4 a1 3f f1 0c 4d 56 b7 bf b7 bf
       0.03494728578788854 -0.09276910645444382
0004a0 f3 87 ea d5 0a 55 94 bf 89 42 68 2f d4 31 9a 3f
       -0.019855660730748025 0.02558070697165474
0004b0 91 48 c5 83 91 76 a1 3f 96 5f 85 7d b0 6b 58 bf
       0.03410773023155501 -0.0014905189073797002
0004c0 14 57 0d 70 82 0e b1 3f 93 01 b7 40 3c 80 81 bf
       0.06662764773986068 -0.008545370793286355
0004d0 f6 0f d4 e5 bc e8 a3 bf ce f2 af a8 e9 54 a9 3f
       -0.038885024123402376 0.049475957719527494
0004e0 cd 99 5d 8a cb bc a1 bf c5 09 a2 46 15 30 a1 bf
       -0.03464351715119882 -0.033569970009029095
0004f0 27 94 62 bc ff 7e c6 3f de 18 c2 81 86 fd 9b bf
       0.1757507009362211 -0.027334310216723938
000500 88 05 dd 90 73 9a b2 3f db c6 90 c1 ce f5 81 3f
       0.07266924177840484 0.008769622118140521
000510 48 a1 f6 ea e8 f6 c0 bf 39 b4 51 96 9b 31 64 bf
       -0.13253509018728438 -0.0024650610744658932
000520 c8 14 fe bd c5 a3 95 bf df 87 3d f1 d0 45 b1 bf
       -0.021132554742071347 -0.06747156037957279
000530 a8 42 4f 3e 1d 24 92 3f d1 be db 8a 33 ac ab 3f
       0.01771588986213382 0.05404816694305981
000540 57 50 df 16 d5 a5 8e 3f b5 f9 8e 5f 73 a7 b0 3f
       0.01496473766375332 0.0650550945565332
000550 c7 89 c5 0d c1 0e 9b 3f 57 e7 e9 a4 d4 d2 90 3f
       0.02642346998744374 0.016429255071194273
000560 99 62 20 8e 16 84 af 3f a6 a8 0f b1 04 a4 9b bf
       0.06155462727492029 -0.026992867762523652
000570 17 54 db 45 ef 61 a2 3f 4a 5f 68 49 b3 cd a5 bf
       0.03590343215697816 -0.04258499404039513
000580 70 33 e4 11 58 fa 6e bf c8 38 d5 b5 29 11 a0 3f
       -0.0037814827075010535 0.031380942770384446
000590 34 86 43 dd 67 4a 9f 3f 86 41 c3 97 62 f5 b1 3f
       0.03055727279650551 0.07015052991051193
0005a0 53 70 cf e3 21 aa ba bf 61 c7 d0 a2 55 8e 88 3f
       -0.10415851413512316 0.011990231543766052
0005b0 ee ab a9 2b 13 6d a4 3f 6a 70 15 ca 47 47 b3 3f
       0.039894675331048166 0.07530640300450533
0005c0 2a af 7b 7f 2f 11 90 bf e8 44 e8 77 bc 0d b4 3f
       -0.01569055762858721 0.07833459784912444
0005d0 e0 ca f2 49 8d e2 b0 3f b6 f9 68 7c b1 19 ae bf
       0.06595690780049379 -0.05878977435758108
0005e0 ad e3 53 12 82 60 86 bf b6 1f 1d 9e 94 ff a7 3f
       -0.010926262077633664 0.04687179975604698
0005f0 48 1c 37 ec 31 e6 86 bf 41 0e d5 11 ee e9 b0 3f
       -0.011181249638765448 0.066069487908913
000600 11 ad fb 28 76 a3 a1 bf 95 7a a7 63 13 c3 95 bf
       -0.034450237753697384 -0.021251967389498267
000610 39 3f 4c 06 a1 2a a0 bf 6c d4 67 28 69 4d be 3f
       -0.031575233477381955 0.11836869465317229
000620 ee 6a ef db b6 47 a1 bf 44 6a 1f 4c 6c 00 a8 bf
       -0.03375026163822335 -0.046878227512668263
000630 01 2a 46 7e bf 8c 7b bf 9e 07 5c 41 1f 61 a7 3f
       -0.006726024647273566 0.045662857750371474
000640 30 d1 8b 6b 87 82 a4 bf 20 c7 d0 d0 31 05 9f bf
       -0.04005835712260575 -0.030293253297890677
000650 e3 f9 80 fc d7 af 99 bf 12 cc d5 bd 5d 25 c0 bf
       -0.025084852968797377 -0.12614032525343127
000660 10 42 90 e5 a3 ee 6a bf b0 30 f6 bb 0c e6 a0 3f
       -0.0032876206501060226 0.03300514025167567
000670 29 b4 12 ac fa 58 a0 bf c3 5b 03 3b e2 de aa 3f
       -0.03192885733128776 0.05248171778082835
000680 a1 32 00 b2 95 b4 66 bf b3 9e f2 f6 95 bc c3 3f
       -0.002771656392729874 0.1541926818656428
000690 bb 82 50 c0 fb 91 a3 3f d3 01 85 ab d2 ca b2 3f
       0.038223139978304364 0.07340733230103717
0006a0 ea 41 c0 ff 22 aa a4 bf 0f 16 48 31 bd 11 b1 bf
       -0.040360540122609326 -0.06667692616618857
0006b0 4e 46 ab b7 e2 fe 9f bf 3c a0 d8 9d b5 4e 83 3f
       -0.03124574895884385 0.009427470092376315
0006c0 39 20 8a d2 e2 bb 93 3f 7e fa 0b 57 47 33 a8 bf
       0.019271415806116663 -0.04726622521956346
0006d0 6b 11 de e3 91 b8 b0 3f 57 12 3a 19 e9 18 91 bf
       0.06531631291551825 -0.01669658867332865
0006e0 6c 80 3a 49 b5 84 b6 bf cc db bb 75 f0 f5 ad bf
       -0.08796246564679827 -0.05851699292355014
0006f0 6e de af dc 01 a9 96 bf 05 01 97 4e 23 ba ae 3f
       -0.02212908658472517 0.06001386961315983
000700 0d b9 fb d0 81 c9 a2 bf e3 41 1e 78 b3 82 b3 3f
       -0.036693627129226504 0.07621308977673595
000710 7a 54 29 a1 01 60 91 bf 30 a6 94 2c 97 c3 92 bf
       -0.016967797719491952 -0.018324243637073134
000720 de f3 fc 38 78 c8 8d 3f 13 61 a3 18 b0 97 c3 bf
       0.014542521704806018 -0.15306664660489186
000730 65 21 0f 90 5e 74 ba 3f 0a 83 e4 bf fb 5d 99 3f
       0.10333815590923263 0.0247725807067836
000740 0f 19 96 c7 97 82 a2 bf d8 24 82 36 92 46 65 3f
       -0.0361525946746487 0.0025971275063666303
000750 32 05 d4 d4 d1 ae a4 bf 3d c8 24 d0 ab 71 7a 3f
       -0.04039626811028042 0.006456061501284136
000760 02 77 d3 83 cd 78 ab 3f 21 d0 51 a3 6c b0 a1 bf
       0.05365602716640973 -0.034549136101219576
000770 1c 55 2f 81 69 10 a8 bf 19 f9 fa 8e 05 08 a1 3f
       -0.047000214595451534 0.03326432581296696
000780 ec 4f 65 d0 07 e5 b0 3f 25 8e e4 d2 9e 0b a5 bf
       0.06599472844874271 -0.041104281657933485
000790 97 63 93 c3 ad 6d b0 bf f4 c8 ca cf 60 d0 ad 3f
       -0.06417356514738369 0.058230424275636766
0007a0 1b 99 58 69 0b 53 a8 bf 8e 6d 06 d2 ec 62 b2 3f
       -0.04750857983553854 0.07182197692457334
0007b0 fb cd 64 19 d7 9e b6 bf c3 e1 64 e7 af 9e b9 bf
       -0.08836120958294906 -0.10007762336034091
0007c0 55 fa fc ec e9 30 b9 bf 81 b0 ed 07 bd 89 9d bf
       -0.09840261493534659 -0.028845742806354217
0007d0 fa 76 ea 5f 4a 84 b6 3f b2 b1 36 bc d2 94 96 3f
       0.08795609323211898 0.022052090394639463
0007e0 2c 75 2d 21 95 02 ab bf 44 23 0b 16 22 a5 5a 3f
       -0.05275407819747566 0.0016262848732131055
0007f0 ab 45 63 3c b8 b6 a2 bf 7b 12 63 0b 82 d4 a0 bf
       -0.03655029046206989 -0.032871307268156756

base.actor.actor_fc3.bias f8 [8]
000000 a4 c3 9b 2f 11 cc 77 3f df 23 4a 61 0f 06 82 bf
       0.0058098479582761355 -0.008800621182006139
000010 bf 73 79 db 14 62 ae bf 84 c7 0d 0a c4 a1 ac bf
       -0.05934205226069577 -0.05592167494513858
000020 bb 3f bb 98 44 61 8e bf 5e fb 70 5c 3e a5 a9 3f
       -0.014833961401933373 0.050088833603232116
000030 cd ca 7d 8e c2 3c 93 3f f9 ac b8 a9 72 18 a8 bf
       0.01878646845529879 -0.04706152269167236
