results/Ant-3d/cmorl-ipo/4/final/EP_policy_81.pt (torch, 105481 bytes, 13 tensors)

base.actor.actor_logstd f8 [1, 8]
-2.158107807424783 -2.4171679846996073 -2.3270693553517527 -2.2184666423566437 -2.1896361077789126 -2.3287813166957227 -2.040156409561669 -2.253287594594735
00000000: bd0d b106 ce43 01c0 cac8 192b 5c56 03c0
00000010: 9f13 c689 d69d 02c0 7c82 6170 6bbf 01c0
00000020: c768 88ef 5f84 01c0 9bf3 5519 58a1 02c0
00000030: 5356 0e86 3d52 00c0 9922 7aa5 bb06 02c0

base.actor.actor_fc1.weight f8 [64, 27]
-0.04914411544894747 0.0271467157897796 0.19236471946478562 0.5847840366449444 0.14892025733266617 -0.0032788146013111356 0.026402659984844496 -0.08998159167490967
0.2211303623918523 0.050290800287977624 0.0007377027589105215 -0.03419916510042167 0.15519844634744187 0.12695986717333563 0.1908799534622586 -0.2435820573028635
-0.19604762193345937 0.23698839591260737 0.32479230036600804 0.14826121785383026 0.0763344177633834 -0.21221165897557878 -0.15066638881303102 -0.11211399290532507
0.009449106914107164 -0.1283238460987551 -0.08313882798838095 0.5191466740615619 0.2636179961377917 -0.28900165746029294 -0.10832115630322071 0.07410326110103561
0.1392644836356674 0.1208175577251349 0.06530993337618711 -0.03366009967290807 0.056959728639081914 0.2904321375512107 0.17151265597066107 0.08175232636255678
0.05485555263467302 0.080240697311561 0.2588225744228087 0.025515796355390107 0.07999069387358519 0.13662506140916433 -0.27282321078070876 0.10312140505904312
-0.13712697650415798 -0.293890940379562 0.015872854722101648 0.1869094630490915 -0.22011410741512796 0.2958336335112462 0.2957960041465262 -0.004679874252360943
0.2041162075842401 0.08889034467294143 0.0668491530807962 0.010618184437737155 -0.06774414304316904 0.271597438313701 -0.09094893146420573 -0.18556270353271623
0.0853425639273741 -0.3169829938034185 -0.12113028495382488 0.03057740061038005 -0.2552400504186361 0.0060860534069417105 -0.10193302481661723 -0.12947528327269947
0.09185149988810475 0.03907222911678422 -0.02019420984242496 0.46972308776732136 -0.035149290211276704 -0.4343855089540213 -0.020065117846882828 0.05630083485621716
-0.07752661897579569 -0.0287633249246933 -0.2069849259505149 0.19969387785009346 -0.38886702624124136 0.12475136650061718 0.03770593665010872 -0.16540728723176762
0.10607946475249419 -0.09001702912571524 -0.5495433183337192 0.13536292989193313 -0.024264614784394983 -0.1498540953582814 -0.00606260404915744 -0.11435961057091466
-0.14955285130254736 -0.03381701355761645 -0.10267561602687696 0.04202248896465267 0.19383193280504182 0.21344251031631495 -0.16665819879077223 0.142287837513475
0.16931190602684898 -0.06650168728009838 -0.07476467421750359 -0.3496855725408594 -0.06983721309351272 -0.044847961125517546 0.34553866805757705 0.24105806501005805
0.11249762837364836 -0.18079993786458112 -0.009381867768584882 0.06243596539712967 -0.05176395996092847 -0.10627062280299027 -0.3222107249905043 -0.2044007279529059
-0.2251269449659886 -0.08100255802346859 0.0931627516659654 0.045414074795508325 0.016129893888716728 -0.21359821611291027 -0.03929855559444642 -0.2553010709920429
-0.03903149250463493 0.0742440227746839 -0.052528232835401305 -0.09879069230809737 0.07772573768506273 -0.12137292472285745 0.15602163545418277 -0.023047895050447968
0.1128982907585361 0.09300079985461655 0.16076554573731458 -0.2769562866420547 -0.019349703094725723 -0.5158904348813051 -0.014230875839650728 0.12473453597431115
0.017736118758730525 0.25766559020147073 0.005835279036078824 -0.14894037396387855 -0.07709758556481386 -0.09763824309801215 -0.10673339188954352 -0.06471589423377003
0.3632525228451153 0.23776577781812452 -0.15382956383232446 -0.01728125370458735 -0.19943360337823926 -0.10393705530214978 0.015421587808158957 0.11098732381908655
-0.10961912132273634 0.15456954723457483 0.3174191689077048 -0.05935396462940283 -0.2955780290063746 -0.16049684554391871 -0.1727464000595312 -0.23168052992402288
-0.0439136782840495 0.009823497394566925 -0.14451056369666448 -0.22745447932199303 -0.21249938221133843 0.09582490323790803 -0.24012592820635575 0.05482958870958391
0.13679111521379214 -0.01459366678057216 -0.20910586093896869 -0.10123859870558524 -0.00838202842546821 0.11711793371294398 0.02845061749295708 -0.21954320570537114
-0.37130706534979374 -0.04344529367747708 -0.12228732000655172 -0.01358124284049364 0.07860562492720902 -0.25237514873042466 -0.1652682751448108 0.46349060541161213
0.10390640900763788 0.14045214695664227 0.19254705629060578 -0.10949457524754337 -0.21058706910191669 0.18958686409017808 -0.06481885395432975 0.06509750149273598
-0.4487450167301922 -0.08163456454062536 -0.11062805279478964 -0.1859245295061506 0.04944033815694494 0.09736490143344448 0.016775910674288342 -0.19936688742933256
0.1440581433684218 0.024145335403484514 -0.12295571875534987 0.011195571414657721 0.0870777085977441 0.05194265172157741 -0.2579963834788091 0.04239292967094046
0.08352551367991229 0.04916348585167691 -0.4656657356960993 -0.04792478809600939 -0.11972668209088143 0.16859148371962582 0.17019390586451977 -0.018208636406082005
0.1840022378486142 -0.23222054422133287 -0.21764911791184138 -0.10263680457735694 -0.10813215233364003 0.10992422251109218 -0.1731703966882826 -0.5541640048954624
-0.2791171987001527 -0.10136709977550197 -0.10632998419862953 -0.00810059703892623 -0.07045098603941445 -0.1446701097365958 -0.3986116360195769 0.021304363214761236
0.13677967851545503 -0.029854407325068878 0.0854978230870038 0.4484024270828364 0.375560803971394 -0.17444106836938153 -0.13560355149431322 0.34701676145623384
0.12058710485509906 -0.04427691380026493 0.15984319840607003 0.009417439061599317 0.0509022631626005 -0.03602526178770024 0.22601525865940783 0.07372709975401578
00000000: 8fc4 49e1 6a29 a9bf 0b2c 0b42 59cc 9b3f
00000010: 34b3 8039 689f c83f e49c 1303 8db6 e23f
00000020: 8e54 7aa9 d10f c33f 8bd3 6e2f 2cdc 6abf
00000030: e535 a684 4c09 9b3f f55a 7c99 0809 b7bf
00000040: c614 50ed ff4d cc3f 8295 0d3d b7bf a93f
00000050: e4dc a19c 4c2c 483f 234a 508f 8d82 a1bf
00000060: 19e4 b9ed 8add c33f 50fd b48e 3840 c03f
00000070: 2c8c ca1a c16e c83f 970c 0165 b22d cfbf
00000080: fcd5 54a6 1618 c9bf 71f2 fcc0 a255 ce3f
00000090: a022 04a5 65c9 d43f 2f42 f93c 39fa c23f
000000a0: d459 da03 a78a b33f 5ba4 906b c029 cbbf
000000b0: 4679 4746 0949 c3bf 07cd f3ac 80b3 bcbf
000000c0: 8046 61a9 0d5a 833f 7342 2571 ea6c c0bf
000000d0: c3e4 3c13 9648 b5bf 957d 5d7c d99c e03f
000000e0: ae20 0304 1edf d03f 3c08 d2ce 007f d2bf
000000f0: 6188 c96f efba bbbf a9b5 f46a 6ef8 b23f
00000100: 82d1 5a29 6bd3 c13f af48 3643 e6ed be3f
00000110: c364 f4db 26b8 b03f 51ec 8c86 e53b a1bf
00000120: bc45 6357 d329 ad3f 4559 1fad 7096 d23f
00000130: 4a3e 1f70 20f4 c53f 9e5e 1970 b8ed b43f
00000140: 81cd 23e9 0616 ac3f 6eea c282 a78a b43f
00000150: 0733 278f 8c90 d03f 16dd 821b d020 9a3f
00000160: 9be0 2b26 457a b43f 3d7e 4815 ee7c c13f
00000170: 9924 f97b ef75 d1bf 4904 3f16 2a66 ba3f
00000180: 450b be73 608d c1bf 8056 61f2 1bcf d2bf
00000190: c0cc b33f f940 903f 20ec 8d37 a6ec c73f
000001a0: fd3b 5ef6 b22c ccbf b135 3f31 f0ee d23f
000001b0: 2432 065d 52ee d23f 8501 d02d 342b 73bf
000001c0: b434 14da 7a20 ca3f 60ea 4c83 84c1 b63f
000001d0: 3050 3fae 061d b13f 204c 3997 fcbe 853f
000001e0: 5baf dd1e ae57 b1bf b405 cf38 da61 d13f
000001f0: 5bb2 3ede 6d48 b7bf d5e2 83c7 84c0 c7bf
00000200: 4c5d 06a1 02d9 b53f cf86 f109 7349 d4bf
00000210: fc8c 6ef4 6402 bfbf 7e1c 799e ae4f 9f3f
00000220: 115b 4b5d da55 d0bf a02b 8385 b0ed 783f
00000230: 0e40 f85f 4818 babf 56f6 a565 a592 c0bf
00000240: 1ba3 1b74 9483 b73f 8210 7a74 4601 a43f
00000250: aafa 5d7b caad 94bf 0dc1 086d f10f de3f
00000260: 66be de77 16ff a1bf e615 b4e0 f8cc dbbf
00000270: a65f c543 f38b 94bf 6ed0 e388 76d3 ac3f
00000280: fe0b 12d5 c8d8 b3bf 50cc 800f 2274 9dbf
00000290: 0579 dc67 7b7e cabf d2ed 49a9 918f c93f
000002a0: deba 0c86 32e3 d8bf bb5f 409f b4ef bf3f
000002b0: a5f5 8d49 314e a33f 4a1b 97e4 102c c5bf
000002c0: 289f e317 0628 bb3f 2493 2d24 5b0b b7bf
000002d0: 0751 7fde db95 e1bf 0501 7d8e 9253 c13f
000002e0: 78ca cbbb d2d8 98bf 5724 5e43 6b2e c3bf
000002f0: 4f68 eae1 19d5 78bf e5a7 62e3 ab46 bdbf
00000300: 5c1a af3e 8c24 c3bf 0f84 8eae 7650 a1bf
00000310: 739d eefc f248 babf d172 99bf f883 a53f
00000320: 4bb8 281a 7ccf c83f 5a3e b18c 1552 cb3f
00000330: 3f54 b54c 0e55 c5bf 7e95 5ee4 7c36 c23f
00000340: 0cb8 9a35 03ac c53f 0531 ff2b 4106 b1bf
00000350: 9b07 a916 c723 b3bf b48b 7c98 3f61 d6bf
00000360: 9dc9 4702 dae0 b1bf ea1a a7dc 4ff6 a6bf
00000370: 66e2 b337 4e1d d63f f2de d39c fdda ce3f
00000380: b50c be02 a5cc bc3f 83a4 1fce 7324 c7bf
00000390: 1287 eef9 cc36 83bf cc20 f35a 9bf7 af3f
000003a0: 578b 4946 ce80 aabf 98e2 7631 8d34 bbbf
000003b0: 724c 90bb 199f d4bf a90c eb94 cd29 cabf
000003c0: 63e5 09b1 f5d0 ccbf 6267 9a69 95bc b4bf
000003d0: 3d56 9c9b 83d9 b73f 64b3 0c7c 8340 a73f
000003e0: 93bf f5da 5a84 903f 8b2d 58b4 2f57 cbbf
000003f0: 74ca 1db6 f01e a4bf b4da a24d da56 d0bf
00000400: 8698 a48f effb a3bf 90a1 bd01 a801 b33f
00000410: ff18 4a04 fbe4 aabf 4acb 9cc8 584a b9bf
00000420: 9731 6a7d d5e5 b33f 81f6 4dc6 4b12 bfbf
00000430: 4740 df56 84f8 c33f f1e9 ee0d de99 97bf
00000440: d10b 9502 e7e6 bc3f 939e e081 e6ce b73f
00000450: 43f7 a124 f793 c43f 8726 63dc a6b9 d1bf
00000460: 20a8 ea97 68d0 93bf 324d 44a8 2c82 e0bf
00000470: 680f 99d2 1325 8dbf b7ff b040 9aee bf3f
00000480: 6a5c 1bc8 6a29 923f 1a12 ced0 977d d03f
00000490: 75c7 f7c9 bbe6 773f 8e4b 9d69 7a10 c3bf
000004a0: caf7 99d8 aabc b3bf 57e2 f1e4 d1fe b8bf
000004b0: 9586 8e2b e152 bbbf b2f3 4389 3891 b0bf
000004c0: f7ca 7382 873f d73f ce1d ebe7 1b6f ce3f
000004d0: f3ac e8e8 afb0 c3bf a6f6 fa4d 2db2 91bf
000004e0: 0dd2 1d52 0a87 c9bf c682 5d6d 9e9b babf
000004f0: 08b7 4e7a 5a95 8f3f 6cd3 124e aa69 bc3f
00000500: c9ef 18ad ff0f bcbf 4c3e 2a57 efc8 c33f
00000510: ff40 657d 9850 d43f 8644 f191 a463 aebf
00000520: b9e7 ff1b c0ea d2bf 2374 5c1f 298b c4bf
00000530: 1bf3 60d5 8d1c c6bf 6462 9225 b5a7 cdbf
00000540: 2574 2788 da7b a6bf 5207 5680 571e 843f
00000550: 3479 8078 527f c2bf 3022 0277 3a1d cdbf
00000560: a34a 8204 2e33 cbbf 0797 8c19 fb87 b83f
00000570: 52b2 4848 72bc cebf f5b9 b8b4 9f12 ac3f
00000580: 6701 1d0b 5f82 c13f fc04 69cc 48e3 8dbf
00000590: f140 1119 fbc3 cabf 0e8a 88d6 c5ea b9bf
000005a0: c535 b1cf 982a 81bf 0f7b 12df 70fb bd3f
000005b0: 81a7 bb9e 2822 9d3f 0d23 48e4 fd19 ccbf
000005c0: cede 9cb5 7ec3 d7bf f10e 0527 763e a6bf
000005d0: afc4 24c8 384e bfbf b02d b68e 7bd0 8bbf
000005e0: b810 588c 7f1f b43f 28b3 8718 ea26 d0bf
000005f0: f419 68c6 8227 c5bf 58c0 0f80 d4a9 dd3f
00000600: c558 8844 9c99 ba3f 4277 ea00 56fa c13f
00000610: d1c7 dac6 61a5 c83f 7111 c723 d607 bcbf
00000620: a769 605f 84f4 cabf 975e 82e2 6144 c83f
00000630: 61e6 e5e9 f797 b0bf c16d f6d7 3aaa b03f
00000640: 7258 c604 3db8 dcbf 11d9 ecb8 00e6 b4bf
00000650: a316 c6bc 1e52 bcbf b565 e0fe 5fcc c7bf
00000660: 117a f976 3e50 a93f 1a56 6ffb e7ec b83f
00000670: 6da5 d34e b42d 913f ae07 b5aa da84 c9bf
00000680: 6fb3 3e4b 7f70 c23f 20bb a207 8eb9 983f
00000690: 1310 e9a6 067a bfbf 251a b028 b4ed 863f
000006a0: 4f4f a386 b94a b63f 6fc9 d22c 3a98 aa3f
000006b0: d1c6 6143 0383 d0bf e360 09ad 86b4 a53f
000006c0: e406 a395 ed61 b53f d9d6 c7d7 f42b a93f
000006d0: 83ae 6ba8 77cd ddbf bc86 140b 9989 a8bf
000006e0: f7f6 0968 68a6 bebf 4fde 7ade 6794 c53f
000006f0: a453 d5f5 e9c8 c53f f1ba 79e7 48a5 92bf
00000700: a2ad f9a4 628d c73f c4e9 711d 67b9 cdbf
00000710: 30a1 b721 eddb cbbf b293 06d7 6746 babf
00000720: 6f48 eb79 8cae bbbf a42e b96c fe23 bc3f
00000730: b4ac 3493 722a c6bf 44af b426 b6bb e1bf
00000740: 42c5 0a62 0edd d1bf 2918 6dba 31f3 b9bf
00000750: aba1 b71c 7138 bbbf 5bd1 e1ba 0b97 80bf
00000760: ef9e 0269 1309 b2bf 2d82 03d7 8c84 c2bf
00000770: b995 2061 da82 d9bf 1af9 139d cfd0 953f
00000780: 5c9a fd1a ff81 c13f cd18 695c 2792 9ebf
00000790: 2eb2 0972 2fe3 b53f c023 f117 a0b2 dc3f
000007a0: d8dc ad2e 3009 d83f cfe6 dcbd 1554 c6bf
000007b0: 07dc 7109 755b c1bf 2c93 67ca 8535 d63f
000007c0: 7106 ace7 cbde be3f 97da 7ab1 76ab a6bf
000007d0: aa30 d2ee bd75 c43f 85cd 4046 7349 833f
000007e0: 51c9 2687 dc0f aa3f 6c80 6a32 e771 a2bf
000007f0: db68 2b68 11ee cc3f cebd 457a c7df b23f

base.actor.actor_fc1.bias f8 [64]
0.10526990422052346 0.011777473134214 0.0036349780005194214 0.005381947178526709 -0.061920443667922105 -0.05226792730480274 -0.08362262531827204 -0.014570869568043182
0.1371972801586953 0.043941918505638784 -0.1316035128218407 -0.13368733763422794 -0.0570672723386347 -0.06005698695117653 -0.04265433307448466 0.02895637944454094
0.008359888454438334 0.009000740663374395 -0.13731512915444002 -0.01927954437520988 0.18502044055564482 -0.0694686330124307 -0.046846374399041574 0.08714485197775534
0.11432498691061614 -0.006993836917507177 0.002513952232303463 0.17581760212207231 -0.1518903270316566 0.08400284260493188 0.23131375154460998 -0.10052658544739258
0.10562496306842832 0.11106211416074362 -0.12715806101520047 0.0555841318740573 0.06302387696579294 0.10777620453399117 -0.010269837283304129 -0.013036388405223498
-0.0012723806254361484 -0.059924950193214734 -0.07049085327352712 0.16445451606206116 -0.25003662887828726 0.00870357660395498 0.08901470624096948 0.05897727307695239
-0.032768316128406104 -0.11855598042613354 0.16847774098275478 -0.19900617228698836 0.0032710850726764577 -0.026098289224278554 -0.05746043678626093 0.0983786566216777
-0.14705095469242108 -0.1321606738206285 0.0769449564356877 0.12247039596380055 -0.0008579158755315599 -0.16262877401531586 -0.15318496547361318 0.0166349647830705
00000000: d454 e1eb f7f2 ba3f 191a 87af c91e 883f
00000010: 6ffe 48f4 19c7 6d3f 94dc ed71 610b 763f
00000020: b9db 0351 09b4 afbf 39c3 ce9c dcc2 aabf
00000030: 8998 f2d8 4a68 b5bf b0f7 2602 55d7 8dbf
00000040: 0edd b033 ae8f c13f 7178 cf1d 8e7f a63f
00000050: 11e4 cd47 62d8 c0bf f59f 83ab aa1c c1bf
00000060: bb93 bbe8 eb37 adbf 2c05 b415 cabf aebf
00000070: 44da 2ceb c9d6 a5bf 5144 e6ba bda6 9d3f
00000080: b285 143c fd1e 813f b3cf 4ff6 fa6e 823f
00000090: 5d6f 7bca 8a93 c1bf 0a11 4b52 04be 93bf
000000a0: b895 a3f2 bfae c73f 0adf e242 b2c8 b1bf
000000b0: ccc9 f57b 3ffc a7bf 405c 4201 204f b63f
000000c0: bb8f e5ff 6644 bd3f 5717 59cd 91a5 7cbf
000000d0: 35ea e2d3 2398 643f d874 96f1 3081 c63f
000000e0: bc00 9769 2471 c3bf 1a5c c2d5 3581 b53f
000000f0: c8e4 ff62 b09b cd3f 9906 e03c 1cbc b9bf
00000100: c325 05d2 3c0a bb3f 871f 2514 916e bc3f
00000110: ddd4 bd20 b746 c0bf 9fb8 26f9 8575 ac3f
00000120: d169 6f32 5522 b03f 10b0 c2a9 3897 bb3f
00000130: 0de2 223a 5a08 85bf cdfa dd6e d2b2 8abf
00000140: b5ee 274b c0d8 54bf adac 96aa 7bae aebf
00000150: 5118 7a45 b00b b2bf 6f41 1578 d80c c53f
00000160: b665 f5a1 9900 d0bf 1c4d fa46 2ed3 813f
00000170: c502 2bf4 aac9 b63f 5942 25e6 4432 ae3f
00000180: 0ba5 3b3c 02c7 a0bf edea ac4a af59 bebf
00000190: 6bfc cfb9 ad90 c53f 6c5e d6c4 0879 c9bf
000001a0: c645 1b6d f6cb 6a3f 159f cc8a 82b9 9abf
000001b0: d529 9f51 746b adbf 5b84 d0f8 572f b93f
000001c0: 7af0 9fd0 90d2 c2bf 013f f015 a4ea c0bf
000001d0: a3c1 7b27 aab2 b33f 9487 6449 385a bf3f
000001e0: 5479 6650 b81c 4cbf c965 e408 05d1 c4bf
000001f0: f559 79a0 909b c3bf 6885 da96 c108 913f

base.actor.actor_fc2.weight f8 [64, 64]
-0.019566071103403825 0.20481167255811844 -0.11673412574490732 0.17314778777090822 0.24265974512314578 -0.04916623286502609 -0.09313038332230059 0.05537407266760816
0.013409734347025474 -0.017210212940325934 0.1280596373766836 -0.059656696565546626 0.14135201274551745 0.1314544983741199 0.10165597625038965 0.09044376735615463
0.16208845339285988 -0.07583645907610638 0.01548553637292857 -0.04603884759423694 0.13124088540240178 0.1470918762738809 -0.0008323615153957199 0.051157886192265134
-0.10814346822861463 -0.007393812120044421 0.08511333397916673 0.05806629777439546 -0.11264480721087462 0.10014040183840243 -0.14667587472114935 -0.06943981086928508
0.013089998836753373 -0.08901316244251119 -0.043173227784435365 -0.0957912430624695 0.0008228390107184992 -0.07163427648566326 -0.27205668396371285 -0.08664101913096611
0.0820802355880281 0.12103407604917991 -0.3434205583775372 0.22344491624176208 0.2791840326607333 -0.11479513175686593 0.18902489719350504 0.021384071481486983
-0.20277779378419594 -0.0855233066302361 0.1052074105029216 -0.12172892901604428 -0.026578764349551438 0.0032331903411613547 0.026519140472495255 -0.09406578802481383
0.09803429285653516 -0.28654023744106494 -0.06478352480994658 0.3897927369933566 0.144754344500418 0.32433523128322644 0.049539694270629514 0.3206165284944901
0.00676566924051767 0.12653888443003386 -0.28137840090653254 -0.2300642609609107 -0.17011429746313822 -0.19604377948415144 0.21515779490403886 -0.372377488474221
0.09609279786671326 0.057073713910406804 0.1963815217984845 -0.0715755703599693 0.05894528176011249 0.18395169446750634 -0.3414829260790447 0.06548678591440851
-0.1992135274458672 0.14699107363378788 -0.4324913326120227 0.014150027303871352 -0.0024385752443791078 -0.17402073820906414 -0.2527653136418013 -0.1427573408174841
-0.14344355627685934 0.012533407165777593 -0.06816049312841353 0.010758956079305366 -0.4620214311147713 0.07992617259819032 0.2132135237036695 -0.28902460748268377
0.15682009598886676 -0.21924594207804074 -0.26493287658508374 -0.018766252983323142 0.061365061952360994 0.1556331499889071 0.2796597575076733 0.13952575930950864
0.16087972454389324 0.14633263297244772 0.11402758754761502 0.0055019824860893345 0.04835191833261763 -0.2420050546821449 -0.022714746110921398 0.07754856835958394
0.18651016514247773 -0.19698687575293075 -0.30874929807584234 -0.03906374272581674 -0.01715448482274131 -0.08536247109651715 0.05371261747350508 0.04846060523051401
-0.12673082921955928 -0.16252404432222003 -0.11263940567862729 0.029863949528672516 0.1429237417901152 -0.12195300401479284 0.0085651309135194 0.16492424120813076
0.053211256168966777 -0.10629977590274109 -0.06354417372563667 -0.006638958659914906 0.3286190123575873 0.3049316827910538 0.06750168447733904 -0.027622459460972987
0.14766654204712445 -0.01959932442481084 -0.0837717124749365 0.0528216363133487 -0.006781262581817133 0.13075503470692812 0.22212310343720712 0.08619844896035307
0.030457692235643718 -0.07781282588815269 0.21009347571164527 0.2069927150417217 0.035146671936319124 -0.08933808854574933 -0.13215682207033222 0.027569011676315286
-0.2611753880541795 -0.10925284037728647 -0.1025696509668831 0.0655523454193662 0.24373799369553825 -0.3041243924369845 0.22705165232372404 -0.12726603355114816
0.13334964967660282 0.13293138624455078 0.20381072914712559 0.07490234643807238 0.16520182598512168 0.07746120990632242 -0.0856883324711419 0.05377305640226685
0.008433679844058802 -0.007157627240258799 -0.0010215982196096996 0.1749428408434198 0.3693360751287288 0.1472048943401879 0.08949642293944082 0.1709055646488361
0.17428662133729217 -0.28529507072036864 -0.0695668046534873 0.03929667236857363 0.022890459967839852 -0.04230270030951968 -0.09529009178818461 -0.07044961724336271
0.09528496799426071 0.07802158215226669 0.10957511898735507 -0.06348702377744353 -0.01958028212984193 -0.13578922788343328 0.21333841914064955 -0.0825396613389333
0.145956369178823 0.0571207782983028 -0.04260036120914189 0.0890149731385052 0.03508350095065682 0.1621199340470815 0.18023992118914345 -0.21133168124835827
0.13682660363894641 -0.389891828187802 -0.2979203170460067 -0.14999541705234468 -0.3032415446984906 -0.25627100392159363 -0.06044444285540984 0.03212863592401295
0.27961100429176167 0.07556717520012798 -0.12850989893864312 0.015131602730346628 0.11112263188915757 -0.267222642936576 -0.14678219334282586 0.16358680013986662
-0.0007598896034600428 0.016478367579327868 -0.22001941958254256 0.3015462037815874 -0.19158030884579216 0.07395852868212864 0.11788246226107853 -0.2521330193671571
0.09350409668450013 -0.0842854019196905 0.01447275788434232 -0.07038248197923992 -0.16080093072189566 0.37968172962189056 -0.19415523235403548 -0.27546940915246204
-0.1765468627128513 -0.07209916033121226 -0.1433904932395885 0.12795348032368725 -0.25690545659132746 -0.24387277118671505 -0.20520542794081087 0.07824675029844427
-0.09634692514379932 0.07773637251758433 -0.05541396454232191 -0.08552132451175934 -0.19765957912495527 -0.12629016567250423 0.010443089903621798 -0.2950274290049479
-0.12817574565245318 0.02016812587754898 0.013081273699564473 -0.22571235313975302 -0.09327960382499928 -0.1154162433576819 -0.04978444418178396 -0.2567743353109821
00000000: 8656 00ce 2009 94bf 72f3 bcd5 4437 ca3f
00000010: 94ca 66a4 49e2 bdbf 00e7 ecea b429 c63f
00000020: 9707 ae7a 790f cf3f d113 7204 512c a9bf
00000030: 061b a28e 64d7 b7bf 5cb2 4e8e fd59 ac3f
00000040: a288 bf13 9076 8b3f b18e f1d6 8d9f 91bf
00000050: 8938 3c19 4264 c03f d10b 7991 528b aebf
00000060: 709e fb9f d217 c23f 2fe7 b641 80d3 c03f
00000070: 6d39 7045 2006 ba3f 9df5 eb9e 5227 b73f
00000080: bed6 307f 50bf c43f a989 93a7 046a b3bf
00000090: af10 4382 e1b6 8f3f 918a 8661 6792 a7bf
000000a0: 75c7 5957 80cc c03f a942 0d17 e8d3 c23f
000000b0: a56d 58be 5a46 4bbf 70ac 41d0 5d31 aa3f
000000c0: df62 5153 4aaf bbbf 8347 f953 f948 7ebf
000000d0: 3ee0 e4c9 fcc9 b53f f5b3 e1a3 ddba ad3f
000000e0: 45f1 0843 4ad6 bcbf 0f7c e726 cda2 b93f
000000f0: 4e0f 856a 46c6 c2bf 6058 b9b4 cec6 b1bf
00000100: 5cad 44e7 edce 8a3f ada7 9a0d 91c9 b6bf
00000110: 9537 cb22 cd1a a6bf 644d 3260 c685 b8bf
00000120: ed4d 0952 79f6 4a3f c24e c7ba 9f56 b2bf
00000130: 1812 1270 6069 d1bf 30dc a817 1b2e b6bf
00000140: 5ea1 7fd7 3503 b53f af32 55d6 16fc be3f
00000150: 715b c038 9afa d5bf 3ba0 dbcf d799 cc3f
00000160: bbf7 75b4 26de d13f 86c0 a2b8 3663 bdbf
00000170: fdb5 c9c3 f731 c83f 355a acbe b4e5 953f
00000180: 613e 546c 9ff4 c9bf 00cc 05fd dae4 b5bf
00000190: 482a 6873 dfee ba3f 29dc 1989 a029 bfbf
000001a0: 0500 99ae 7637 9bbf 5470 ddd8 7d7c 6a3f
000001b0: de88 3064 d527 9b3f fa31 3d0b b214 b8bf
000001c0: dd8e b481 c618 b93f 6609 33dd ac56 d2bf
000001d0: ebd9 6030 a795 b0bf fab4 663c 5df2 d83f
000001e0: b7a6 ca73 4f87 c23f d954 d38e e8c1 d43f
000001f0: ec0c 7e4d 445d a93f 7f37 1c30 fb84 d43f
00000200: 682b fa81 51b6 7b3f 1650 2619 6d32 c03f
00000210: f86f 6c8d 1a02 d2bf 501b 67e6 be72 cdbf
00000220: 38d5 1728 4ec6 c5bf 41fd bb6a f617 c9bf
00000230: 38d1 4b66 4a8a cb3f 7bdb b063 08d5 d7bf
00000240: e4fa 37a0 8999 b83f ccb4 690d c438 ad3f
00000250: cee3 d49a 0723 c93f 477c e3cd c652 b2bf
00000260: 708d d372 132e ae3f 870f e4a7 ba8b c73f
00000270: 71b8 e933 dbda d5bf da91 d2f3 bdc3 b03f
00000280: 8d80 a630 d47f c9bf 62d0 077f 9ad0 c23f
00000290: 6bd0 5720 f0ad dbbf afa2 0f84 b0fa 8c3f
000002a0: 55d9 8c1d 10fa 63bf bf83 b7c1 4f46 c6bf
000002b0: ece6 e990 4e2d d0bf 429a 095f df45 c2bf
000002c0: 54f9 83c3 5b5c c2bf 5663 136f 1dab 893f
000002d0: 07a3 dd50 f772 b1bf 976b ffa3 ca08 863f
000002e0: 8d19 2c56 c291 ddbf 7e57 67a9 0a76 b43f
000002f0: a3a3 afab 944a cb3f ba26 3811 617f d2bf
00000300: 8e5a d04f ae12 c43f 2dc1 8043 4010 ccbf
00000310: 635c 2406 a9f4 d0bf a4cc 53eb 7537 93bf
00000320: 8ca1 67cc 3d6b af3f d41a b07c c9eb c33f
00000330: 032d 200a f2e5 d13f 458a 97e6 fadb c13f
00000340: 8db4 c0f1 b497 c43f 5924 7a18 07bb c23f
00000350: 3ad9 5b77 e930 bd3f ec66 742d 3f89 763f
00000360: 2dfa df27 95c1 a83f e2ca a989 05fa cebf
00000370: 42c0 bbce 8842 97bf 9bbe f414 39da b33f
00000380: c349 d4a9 90df c73f 89ce 8cae dd36 c9bf
00000390: 4784 796a 8cc2 d3bf a6f8 eeb2 2900 a4bf
000003a0: a671 2cfd f190 91bf 3650 aa9d 50da b5bf
000003b0: 6fce dc5e 3880 ab3f 7306 3815 d4cf a83f
000003c0: c94c 723f b738 c0bf 41bb 967f 96cd c4bf
000003d0: c06d a1a3 efd5 bcbf 365d 38ba a794 9e3f
000003e0: 3ebe 673e 534b c23f 5a7a e4e3 4f38 bfbf
000003f0: beb4 4669 988a 813f 9c3c 27cf 3c1c c53f
00000400: 59b1 0c7a 813e ab3f 000c 134d 7636 bbbf
00000410: 76c1 0054 6e44 b0bf e668 2ee5 7331 7bbf
00000420: aadb ba09 1808 d53f 4184 462d 0084 d33f
00000430: 0e4d 4157 ca47 b13f a571 14e0 0f49 9cbf
00000440: bb24 67bc bce6 c23f e488 b665 d811 94bf
00000450: 86e6 681d 1072 b5bf 225d f900 700b ab3f
00000460: 215d 3b50 abc6 7bbf ce42 edba 94bc c03f
00000470: 4173 79a4 876e cc3f 0d2a 40ff 1911 b63f
00000480: 9340 4120 4d30 9f3f 1c22 6696 8aeb b3bf
00000490: 106a a4cf 57e4 ca3f 09a6 cebe bc7e ca3f
000004a0: fc38 0f9d befe a13f 5155 9768 dcde b6bf
000004b0: 8920 5ec6 83ea c0bf 989a 210e 0d3b 9c3f
000004c0: ae9e 8df9 18b7 d0bf ba61 6a80 fef7 bbbf
000004d0: 8903 7730 0142 babf fb94 c0db 09c8 b03f
000004e0: d384 db7b ce32 cf3f a8b1 db27 c676 d3bf
000004f0: 18d8 9d4e 0710 cd3f 7f35 ffdd 404a c0bf
00000500: f5a3 25f0 9911 c13f 1322 444a e503 c13f
00000510: 7f62 2150 7816 ca3f e95d 58d8 cc2c b33f
00000520: fc3b ec5b 5525 c53f 5799 4173 7fd4 b33f
00000530: 9dc1 9ca9 abef b5bf b5b1 4e5d 2488 ab3f
00000540: a4dc eb58 ad45 813f 7036 9fee 5051 7dbf
00000550: 6c12 58bc e4bc 50bf cbc0 0bea 8664 c63f
00000560: 024c fac6 33a3 d73f 7c49 8027 9cd7 c23f
00000570: 2046 a2d1 3ce9 b63f 5482 6fc9 3be0 c53f
00000580: 9e12 6325 064f c63f 2e0e 9d41 4642 d2bf
00000590: 18bb df4e 21cf b1bf 154d 5485 b11e a43f
000005a0: b41f cfc3 9870 973f d347 b914 b3a8 a5bf
000005b0: 89f3 dc73 ee64 b8bf 2672 1372 fc08 b2bf
000005c0: 23f4 557d 9864 b83f cde5 b9ef 38f9 b33f
000005d0: 2189 8170 1d0d bc3f c830 d882 af40 b0bf
000005e0: 5395 937d da0c 94bf ac47 749a 8a61 c1bf
000005f0: 403f 985e ac4e cb3f afd9 12ba 5121 b5bf
00000600: 8e0a 22c4 b2ae c23f a732 6d45 ef3e ad3f
00000610: 7ed1 61ec b6cf a5bf 6cf4 7b6e afc9 b63f
00000620: d0ac 6cf2 76f6 a13f ad85 6193 58c0 c43f
00000630: 5072 780b 1a12 c73f b602 c9a1 ea0c cbbf
00000640: 4d0f edbd 8883 c13f 2ad5 c2da fcf3 d8bf
00000650: ffb2 a160 2011 d3bf ed14 65c1 0c33 c3bf
00000660: bf2f 5139 4f68 d3bf c067 307f be66 d0bf
00000670: 20ee 93f2 92f2 aebf 6211 1e21 2a73 a03f
00000680: b03a c28d 25e5 d13f 16ba 22d2 5e58 b33f
00000690: aaad 932a 0373 c0bf ba39 e756 51fd 8e3f
000006a0: 6d33 cf65 8872 bc3f 2b73 0a00 2d1a d1bf
000006b0: 7573 0548 c2c9 c2bf d939 548a 69f0 c43f
000006c0: e74a 6a7f 6ae6 48bf c3f3 6087 b4df 903f
000006d0: 1cc4 cba9 9829 ccbf 4364 de72 884c d33f
000006e0: d16e 861c b485 c8bf 8b34 f335 f2ee b23f
000006f0: ddeb 2e88 8b2d be3f 7b1d 1b88 f222 d0bf
00000700: 9a4c 4d6d e2ef b73f 2a79 c664 ba93 b5bf
00000710: bd91 5eae e4a3 8d3f b9e8 4f1a 9604 b2bf
00000720: b2f6 4ef9 1f95 c4bf cf57 e798 b44c d83f
00000730: 1268 a722 14da c8bf dbed d671 4aa1 d1bf
00000740: 9a13 c86c 1699 c6bf d30d b12f 1775 b2bf
00000750: 53bb 82a3 9e5a c2bf a026 b396 c760 c03f
00000760: 1651 8e95 2371 d0bf e1df 5014 3937 cfbf
00000770: f8d5 fbe4 2b44 cabf 1ed3 8ca1 fa07 b43f
00000780: 3b12 902c 31aa b8bf ee35 ace9 87e6 b33f
00000790: 5be6 e61a 385f acbf ea7b e3bb b9e4 b5bf
000007a0: 6d99 0aba e84c c9bf 8256 afb1 462a c0bf
000007b0: dc89 d7cc 2f63 853f 1bf3 bfb9 bae1 d2bf
000007c0: 9ddd db15 1068 c0bf b642 4304 f4a6 943f
000007d0: 0455 d6d5 5aca 8a3f aceb 8473 24e4 ccbf
000007e0: e4ec cf0f 2ce1 b7bf ebfe a53e eb8b bdbf
000007f0: 3079 38bf 587d a9bf 3738 279f fd6e d0bf

base.actor.actor_fc2.bias f8 [64]
0.0836853358041865 0.12533940480409744 0.09767225887614876 0.07536961109289932 -0.12806090767951467 0.04293547734001631 0.0016411707252931736 -0.05383651820567368
0.009800658613267682 0.01322831011183438 -0.09477860197276189 0.0450715607602422 -0.09203571307776438 -0.1412128664519358 -0.008894168604949649 -0.07131330084626375
-0.08150066274790167 0.03332401748409813 0.025946930879630632 -0.08059541836544004 -0.13135622328141766 0.05811282100077693 0.12675096735560462 -0.06799920937756909
-0.01832516899369505 0.05663793249497291 -0.006085670584508269 0.05087137971271317 0.07978838669229525 -0.002893668392873018 0.18078046608662893 0.03143360799506854
-0.058986308924133146 0.05520972250203203 -0.04559081726918397 -0.020473300075793677 -0.031703734389384196 -0.03934019760823338 -0.0537615486095559 -0.14484152691382984
-0.13107243534875015 0.016539000258708234 0.030402338675130838 -0.1055364106499982 0.006234980961190613 0.0865438790186461 0.047134227345880235 -0.05730474920762151
-0.09129881200246535 -0.014731948513841778 -0.011366844536974317 -0.02679475871560461 -0.014360796822841238 0.014695439603256285 -0.06434171652028689 0.07196156486420208
0.032822558970495005 -0.04494622342323766 -0.08003802293085553 -0.07580881492037722 -0.02698324519066902 -0.03172894435317077 -0.07455631977833097 -0.07414337824395219
00000000: d20a 6ff4 666c b53f 6850 4422 1f0b c03f
00000010: 2379 9995 0c01 b93f 0999 c13e 6c4b b33f
00000020: 6e96 30c1 4c64 c0bf fbeb 068e a3fb a53f
00000030: d006 e8a5 91e3 5a3f 9d39 0cca 7590 abbf
00000040: e334 c921 5e12 843f 574f 7eba 7117 8b3f
00000050: b067 d513 6943 b8bf 2ecc e39e 9e13 a73f
00000060: 59a8 bb09 a78f b7bf cdbd 9761 4313 c2bf
00000070: cd56 441a 1b37 82bf 188e e7a6 9641 b2bf
00000080: a7c4 1a39 3add b4bf 07f4 877a d80f a13f
00000090: 2204 3d0e d591 9a3f d045 16be e6a1 b4bf
000000a0: 6254 8fdd 47d0 c0bf 6a70 5ab3 f6c0 ad3f
000000b0: f7ab c32d 6039 c03f 4836 6e6c 6568 b1bf
000000c0: 991c 1646 d5c3 92bf 6ad4 8ea7 a5ff ac3f
000000d0: 07b3 27c2 49ed 78bf c145 5640 d00b aa3f
000000e0: 9faa 71ff 026d b43f 6989 9c63 76b4 67bf
000000f0: b581 cc76 d023 c73f 9d0f abdc 1018 a03f
00000100: e057 7b17 7433 aebf 7e8a 22e1 7244 ac3f
00000110: aa8e 56fa ad57 a7bf 3021 11e9 f3f6 94bf
00000120: 7b19 bacc 783b a0bf 3184 4afc 6524 a4bf
00000130: 18e7 1e3a a286 abbf 0e4b 99ca 2a8a c2bf
00000140: 356f 9d47 fbc6 c0bf bcf5 e084 99ef 903f
00000150: b78f 5369 ca21 9f3f 796a 4728 6f04 bbbf
00000160: 2fa8 1cf5 d989 793f 3ed7 0d5a bd27 b63f
00000170: cf10 f239 fa21 a83f 7f22 814f 0c57 adbf
00000180: 7fd8 b6e3 5b5f b7bf 9521 96a8 c82b 8ebf
00000190: f233 5c0c 8047 87bf d109 8dd1 1570 9bbf
000001a0: 9abd 9685 3169 8dbf 517b f883 a418 8e3f
000001b0: 621f 39e0 b278 b0bf a425 a9b7 126c b23f
000001c0: 6ed8 b252 1ece a03f 86ef 5cff 3003 a7bf
000001d0: 83ad ec32 5f7d b4bf 9cdf d4dc 3468 b3bf
000001e0: ef15 89ee 7ea1 9bbf e3bc aab4 c63e a0bf
000001f0: ee75 287b 1f16 b3bf cdd1 c578 0ffb b2bf

base.actor.actor_fc3.weight f8 [8, 64]
0.06412013518395274 0.1013365830938914 0.03058502219294528 -0.15942273707100663 -0.016608621745633947 0.06862270524762829 -0.021856634805069226 0.037709544243426533
0.0720510467728664 0.07782245713801582 -0.030398040398006938 0.026803007377465524 -0.06132724240712827 -0.1093957984648099 -0.10237502182128806 -0.07623399351484735
-0.08353091545192501 0.028290793603780572 0.08228708769874318 0.007253618636642898 0.02467453824336304 0.09482591285086032 0.06631717470469402 0.0485287589241252
-0.014083527721057398 -0.04638067803389319 -0.029072398040119758 -0.04449481517577422 0.07495834400586512 0.04454930073104709 -0.09155089694651199 0.049313528774286984
0.07112555237295141 0.0005164784489982465 0.07398737244303621 0.0022319703351889706 -0.07011044929178464 0.059308763019160854 -0.14173474621637133 -0.022391293087364386
-0.06916932039568685 -0.024045525668157926 -0.04689832693850587 0.07917085188567617 0.03849046705854378 0.0052305859339867485 0.02948722045068289 0.045285002608563885
0.07505523884503715 -0.028003459869954856 -0.08596905478244761 -0.035951631930407235 -0.03157553817853814 -0.01676749661680626 -0.09072166839533714 0.01921677441815788
-0.05644801553457907 -0.03377654135414637 0.06385069665301284 -0.004311698307955045 0.044233775438430774 0.03784516226500528 -0.10597973027512413 0.02628838167009029
-0.010434338309118435 -0.027306565144728012 -0.03646720346082535 0.07343622734651176 -0.038775498722388946 0.004732526826398181 -0.0791331681812367 0.06413907163552955
0.03516751510020929 0.05075182219013748 0.03778284640030068 0.03710868073032905 -0.09252534633369489 0.03260879775399261 -0.002612669261615745 -0.02524517131386968
0.05205603471640578 -0.14589083256081273 -0.06407892665855495 0.12499242512103695 0.002478406822239682 -0.10494401090730142 -0.10870148690353607 -0.00765795024108963
-0.08519221566884368 0.020860324426623274 -0.018719292387809134 0.013744577050403665 -0.07557708376356953 0.026451909884895985 0.031147427965027494 0.0728168422295379
0.012708430907708037 0.15343694916329267 0.0126854861643522 -0.003312465618762114 -0.02466685994352791 0.009128050264534468 -0.06449668924084666 -0.01771364408367759
0.013533329242288141 0.002765620378316372 -0.035604007263134 -0.0004098560906035959 0.028584677231746184 -0.05708663229822975 -0.017684018384450734 0.04656241256993675
-0.004222773580290624 0.03115158454614115 -0.009611085450768062 0.008666893244488444 -0.021552859381618997 -0.03908385409083366 0.049198885289194534 0.08656517099225904
-0.05376555795634203 -0.16918284271160275 0.05626306621544237 -0.1199332553186111 0.03998222903171011 -0.06753707666021344 0.13988182063843613 -0.018032756013800205
0.03498901816677934 0.09946164713568385 0.1098935174220254 0.07194746255341741 0.030893487536576496 -0.021808298106157073 0.012866000209465298 -0.0857063234400177
-0.04917907236869506 0.04999634350678749 0.003327315667039985 -0.013776588416246202 -0.0519955594919601 0.00630196350520601 -0.08289311112148182 0.0016631099496033487
-0.012460105908503036 0.014851422892907081 -0.0022267189260527127 -0.0135573541260799 0.012997575648896684 -0.06690825743493375 0.0005121153623445074 -0.07638681938106695
0.05102661370850591 0.050101280914652366 0.10590771365831551 0.07096559018982024 0.05828052062977132 0.009021385148081698 0.061200068890151664 0.06353118655675143
0.053286681959756436 -0.0013671905937762197 0.10731870345108145 0.07644856754788952 -0.07104790930567734 -0.015661361793707154 -0.02671598028039038 0.05611723397685475
0.04734593558194725 0.034952521563923644 -0.013687981384941714 -0.03383328147704144 0.00939033462951042 -0.010816979839752874 0.05701940215182207 -0.01627173437628745
0.08013984591368291 0.08801949551332605 -0.023126423925042848 0.010874026878257502 -0.023334735401169957 -0.013544752327136303 0.06293744991286986 0.059360646609710604
-0.0004799407623696918 -0.038324250218208435 -0.09145092060840262 0.04836118672994807 -0.05873341373990007 0.02260030444369221 -0.045375512460894676 -0.048990700170941634
-0.06435424600101426 0.08214730246457644 -0.04373815756167355 0.055422091486771866 0.0952289617186396 -0.06917306961613746 -0.03912491194302417 -0.03244858521379011
-0.07680809760972238 -0.029718144668030046 0.003997544985661134 -0.04971528199112715 -0.09168750110163931 0.04390716451891206 0.03974903786698772 -0.03838388298836275
0.0150403343536091 -0.07859858417759258 -0.07028311118939208 0.05243599298758587 0.03852576965369319 0.010841480270245897 -0.02938724703636793 0.1203509844113228
-0.005369805627089209 0.08083345259988367 -0.009439593257181775 -0.049521450965529054 0.09224689291664265 0.1277165976108152 -0.05832347171519465 0.02762607740827091
0.12955678705152668 -0.11544038950694442 0.036659889950493206 0.1165493794245539 0.02726134690166189 0.10375301363321243 0.013957877029325074 0.16147762474132085
-0.05185680673456265 -0.034831042670598 0.0596330806515334 0.0007381319458600915 0.014335593321850625 0.059910143637576185 -0.18283661360723444 -0.010271261868199662
0.03548916582566001 0.05366209754435017 0.06285511712792632 -0.032340190507492816 0.1073629797375905 -0.040569342081229524 0.031123713537739527 0.041847699672247496
0.06988855621388601 0.017710975505543146 0.007717751457243336 0.0244106075473054 0.016008096341107596 -0.017708835912043985 0.018696835799298466 -0.08152127279649009
00000000: 3653 a15b 2d6a b03f 8ad2 46be 31f1 b93f
00000010: aeb8 4318 ae51 9f3f 50b9 fad8 f667 c4bf
00000020: a4a1 eabc d901 91bf 6236 cdf2 4191 b13f
00000030: b2e8 c0ee 9561 96bf df8f 8b56 aa4e a33f
00000040: f532 88f9 ef71 b23f 0759 4d2c 2cec b33f
00000050: 55da 7cf5 a920 9fbf 998e 7b60 3f72 9b3f
00000060: 5f26 fcc8 4866 afbf fce5 b9f0 5c01 bcbf
00000070: f553 a6da 3f35 babf f55f fd2c 1284 b3bf
00000080: 5e2a 1236 4862 b5bf 7378 3905 43f8 9c3f
00000090: 7297 8c3e c410 b53f a410 276d f8b5 7d3f
000000a0: 3653 323b 4844 993f 9bfe 81d2 8246 b83f
000000b0: 4110 8590 29fa b03f 5c3a fdf0 c2d8 a83f
000000c0: 1344 cb17 d3d7 8cbf 0acd a44e 35bf a7bf
000000d0: 85c6 319b 27c5 9dbf fc03 0b40 06c8 a6bf
000000e0: 3a48 1154 7830 b33f fb26 667b 2acf a63f
000000f0: 2103 4e2c e16f b7bf 63fd ab72 9f3f a93f
00000100: 0b0d 5ac1 4835 b23f 28ab 1506 89ec 403f
00000110: 40b6 f520 d6f0 b23f 1986 0cf3 c748 623f
00000120: b6ea d026 c2f2 b1bf 3c28 11db b75d ae3f
00000130: ee63 da39 5d24 c2bf 74fd 193e beed 96bf
00000140: dc6b fca0 14b5 b1bf ef80 70e9 639f 98bf
00000150: 5741 e0b8 0e03 a8bf 7f3b a57b 8a44 b43f
00000160: c4cb 72c2 05b5 a33f 1400 68b8 aa6c 753f
00000170: c847 f1dd e531 9e3f 08f7 678a 982f a73f
00000180: 8e9f 3bf4 d136 b33f 55e5 4361 f0ac 9cbf
00000190: 8d36 c266 1102 b6bf e802 c296 4068 a2bf
000001a0: e82c a93f ab2a a0bf 2e7e 6ba6 7f2b 91bf
000001b0: 61e9 cb06 8939 b7bf ad73 a4e6 8fad 933f
000001c0: c94c 4a19 c1e6 acbf b8e1 f9a8 284b a1bf
000001d0: f395 f3ed 8458 b03f 57f0 90b3 24a9 71bf
000001e0: 61f9 c535 cfa5 a63f b8e2 7aec 7060 a33f
000001f0: 2b10 92d3 7c21 bbbf 00b6 266e 57eb 9a3f
00000200: bd31 582e 995e 85bf 5001 0d91 40f6 9bbf
00000210: 234d 7b4c d4ab a2bf d67d cb72 b7cc b23f
00000220: 0029 ccd5 61da a3bf b92f 26ff 6962 733f
00000230: 0606 5e41 1242 b4bf c705 120f 6b6b b03f
00000240: 1b56 79fe 7901 a23f 9ac0 0991 24fc a93f
00000250: db35 47f3 4558 a33f 14d9 44b4 e8ff a23f
00000260: 26e6 8db8 bdaf b7bf 209f d4af 19b2 a03f
00000270: 09be 1521 2a67 65bf f52f b3c4 ded9 99bf
00000280: d632 55ad 16a7 aa3f 7d44 5101 8dac c2bf
00000290: 977c 5cfe 7967 b0bf 4a80 24ea 80ff bf3f
000002a0: 412e ed87 984d 643f 7f07 c256 9cdd babf
000002b0: 7efa 4653 dcd3 bbbf 0f21 705d f15d 7fbf
000002c0: f5e4 2b34 28cf b5bf 0f02 c9ac 685c 953f
000002d0: 258a 7072 262b 93bf 8241 6ee7 1d26 8c3f
000002e0: 0872 170f 0559 b3bf e04d 7d9f 3516 9b3f
000002f0: cc73 db81 1ce5 9f3f b14e f9e3 1fa4 b23f
00000300: ce80 0eb9 e006 8a3f f5c1 536b d2a3 c33f
00000310: 1393 ad21 d9fa 893f 46fd 0d70 be22 6bbf
00000320: 2186 02f3 4442 99bf 4b3c e62a bab1 823f
00000330: bb5d fde2 da82 b0bf ff27 2188 8623 92bf
00000340: 8e55 03b4 5cb7 8b3f ba23 7f22 eda7 663f
00000350: 5779 9a3d b03a a2bf 205e 5581 3edc 3abf
00000360: 811d 8237 4d45 9d3f 01f4 8485 753a adbf
00000370: 5508 7e62 c21b 92bf cee5 6b4e 07d7 a73f
00000380: d4ea cf26 e64b 71bf 7284 6073 33e6 9f3f
00000390: 8558 850d faae 83bf 0311 58b8 f2bf 813f
000003a0: 01a5 b7e8 f311 96bf 2a58 3e86 cc02 a4bf
000003b0: 892c a2a6 9830 a93f 1168 6292 2229 b63f
000003c0: 99b9 25c2 2887 abbf 7bcd 3e8c c8a7 c5bf
000003d0: 7a6b bc3a 83ce ac3f 38d7 4b21 f2b3 bebf
000003e0: 6f89 39fc 8c78 a43f 5ee7 851f 1c4a b1bf
000003f0: fc37 79c2 a5e7 c13f 6b15 58c5 2d77 92bf
00000400: dead 7da1 14ea a13f 1970 a789 5176 b93f
00000410: abb8 5e47 fb21 bc3f f675 b21e 266b b23f
00000420: 3e13 84da 8aa2 9f3f 6ce6 961c ea54 96bf
00000430: 5234 0a51 7d59 8a3f ef3a 3c80 d9f0 b5bf
00000440: 373c f1d6 ff2d a9bf effd 8fe8 1e99 a93f
00000450: 9422 26ff e241 6b3f 8bf9 9565 e636 8cbf
00000460: ff41 1c77 299f aabf 40b4 7c72 16d0 793f
00000470: ea98 54a1 7b38 b5bf 39f7 f6b5 963f 5b3f
00000480: 98c1 0d1b af84 89bf fe28 fe3c 6c6a 8e3f
00000490: a87b df9e c43d 62bf a603 bc44 f5c3 8bbf
000004a0: 78e1 b612 799e 8a3f 8ef0 8349 e620 b1bf
000004b0: 718b d45d efc7 403f e84e 162b 168e b3bf
000004c0: af12 350a 2920 aa3f 9e43 0806 e0a6 a93f
000004d0: 2f7d 8e96 c41c bb3f 9cb1 0109 cd2a b23f
000004e0: 948b 32c4 f1d6 ad3f 3bb1 67d1 cd79 823f
000004f0: f7d3 ca8c 9d55 af3f f38d 8970 9443 b03f
00000500: 27b5 a858 6448 ab3f 1f8c cfb8 6966 56bf
00000510: f34e 9211 3d79 bb3f 37b9 7121 2292 b33f
00000520: 54c4 ea1e 3230 b2bf 84f3 db32 8809 90bf
00000530: e9e4 5616 6f5b 9bbf 405b 58e9 65bb ac3f
00000540: a591 d8f9 b93d a83f 3840 0f02 4ce5 a13f
00000550: e532 2cc3 7108 8cbf 9ea6 eb8a 9852 a1bf
00000560: b2d5 0e61 3d3b 833f 9bd0 3975 3627 86bf
00000570: 4b87 f5a6 a531 ad3f f63d fb9b 89a9 90bf
00000580: 7545 4e81 0b84 b43f 24e1 a316 7288 b63f
00000590: c6d8 b909 74ae 97bf 9f24 8b2e 1f45 863f
000005a0: 89a6 a295 0fe5 97bf 5b42 38e2 59bd 8bbf
000005b0: 1fc5 1131 ab1c b03f 8c5b b7c7 8464 ae3f
000005c0: e480 dee0 1174 3fbf 256f a972 3c9f a3bf
000005d0: 2ec2 33d9 5369 b7bf a33f cd26 ccc2 a83f
000005e0: 64ff 6356 4e12 aebf 0078 dcc1 8824 973f
000005f0: d218 1e8c 753b a7bf 0ead 151e 4f15 a9bf
00000600: 51df ee15 8579 b0bf de3b 8a09 9b07 b53f
00000610: 211e a108 d964 a6bf eabd d2cc 4860 ac3f
00000620: 08ae 36dc ec60 b83f e1e6 c387 53b5 b1bf
00000630: 6422 8232 2e08 a4bf 9ee2 96d8 199d a0bf
00000640: 663e 4d0b b2a9 b3bf a7b6 c9ed 6e6e 9ebf
00000650: 47ac a4cf ba5f 703f 6cd0 860c 4874 a9bf
00000660: 2cfa ae02 d578 b7bf 6d6f 56f7 ff7a a63f
00000670: b452 5f63 fc59 a43f e6cb 4164 0da7 a3bf
00000680: ce74 5b81 77cd 8e3f 68fe 8d6c 091f b4bf
00000690: 9502 05f0 12fe b1bf b5a9 07f6 e3d8 aa3f
000006a0: c782 6e51 a6b9 a33f 0184 9bd9 0e34 863f
000006b0: d53f c3c3 b017 9ebf 9c89 1676 52cf be3f
000006c0: f41a de38 a6fe 75bf 2cda 564b 80b1 b43f
000006d0: 72fa 9dc2 1055 83bf 5ee0 b128 e05a a9bf
000006e0: 5e0e 3c0c 7e9d b73f 378a f278 0459 c03f
000006f0: 093e 36f7 92dc adbf 56ef f0ab 024a 9c3f
00000700: f239 ae19 5195 c03f 3de0 9159 808d bdbf
00000710: 931c d3c8 15c5 a23f b85f ff1c 2ed6 bd3f
00000720: 94d9 8c05 66ea 9b3f d884 6ab8 8e8f ba3f
00000730: ce7b e68a f295 8c3f ab5d a67e 4cab c43f
00000740: 06f8 ffb1 f98c aabf e0c4 4fda 5fd5 a1bf
00000750: 12ee 5026 3a88 ae3f 232e a748 e62f 483f
00000760: b98a e3c3 fa5b 8d3f a07d 3ed7 8aac ae3f
00000770: c32b faad 3067 c7bf 6424 806e 1909 85bf
00000780: 85c4 2acd a22b a23f d4b9 f933 9979 ab3f
00000790: 9e60 73e0 4517 b03f 70f5 26b9 e48e a0bf
000007a0: eb28 c6e6 237c bb3f 6f11 eb3a 81c5 a4bf
000007b0: 7341 190f e5de 9f3f c8a0 02cb 0f6d a53f
000007c0: f0a4 4d67 37e4 b13f 0667 4e72 d322 923f
000007d0: 3163 b821 a69c 7f3f 015b 5d24 18ff 983f
000007e0: cb6c 0629 6d64 903f a3ad 5edc 4322 92bf
000007f0: fbc9 2f69 4325 933f 15d7 9600 94de b4bf

base.actor.actor_fc3.bias f8 [8]
0.008039047930445749 -0.029904770529082976 0.022162057323484967 -0.07671407577730345 0.030198122364118438 0.028175329809204085 0.015617310242434975 0.020992148301188927
00000000: 8430 9ebf c676 803f 92cc aa2d 5b9f 9ebf
00000010: 9e70 aa7d a6b1 963f fd3b 9b9e 88a3 b3bf
00000020: 1c67 d1af 41ec 9e3f 1693 5660 fed9 9c3f
00000030: cb23 f1e5 f7fb 8f3f 299f b439 f77e 953f
