results/Ant-3d/cmorl-ipo/2/final/EP_policy_39.pt (torch, 105481 bytes, 13 tensors)

base.actor.actor_logstd f8 [1, 8]
-2.3953145427682028 -2.3013022745112055 -2.425932380625668 -2.4022803813986013 -2.267982461595593 -2.450231724577822 -2.363466377448878 -2.487270872548468
00000000: bc94 c6ab 9a29 03c0 6ae3 b92a 1169 02c0
00000010: e1c1 683c 4f68 03c0 696f cfc6 de37 03c0
00000020: 1ea3 23fd d324 02c0 a777 2517 139a 03c0
00000030: 4cb5 620f 61e8 02c0 c81c 6f45 eee5 03c0

base.actor.actor_fc1.weight f8 [64, 27]
0.5124359860760859 0.25649935861928563 0.04029958154764412 -0.21709650391834087 -0.13372295508584833 -0.061829296258909136 0.029555074562357307 0.03106119428253399
-0.20691475167262402 0.2634953683092292 -0.052285622194717135 -0.04340277218357714 0.16259181514671692 0.03912077752694806 -0.059747712791783696 -0.0031932284530208814
0.046685868419448474 0.012696549552881698 -0.02569181361117164 0.12293368095173947 0.016881066794607914 0.27334856872021884 -0.13809372242449441 0.013172309174564146
0.1734804855689186 -0.3889087542722748 -0.054566984290630484 -0.09203307711183564 -0.42723260339092795 0.35189591645625384 0.30074757205864594 -0.12829026079125858
0.07425540189300796 0.025684064704345012 -0.03160076157610745 -0.0699519164004476 -0.2703334086030357 0.22385604970166065 0.12139541294751767 0.06498577149124943
-0.09681448943894745 -0.014987340753999906 0.0668907103556576 0.1478918373426525 0.3432275257050629 0.13684438484516293 -0.09030780183036084 0.0517792268573548
0.03915542130656926 -0.22855079726831326 -0.06915150033375389 0.07970222391402004 -0.2556705285328977 0.0004541663817755318 -0.04086063234191122 0.10421208245386065
-0.08251230452372198 0.07116057119170992 0.2962222201020383 -0.07007635472530885 -0.11847874530176875 -0.25853733625780473 0.2468977393434759 0.12171650932004448
-0.05060370019978124 -0.12490566857938519 0.06269626211570295 0.16459820098837724 0.24937617011196914 0.16537884939165037 0.4994082596667308 -0.11124624282791193
0.132285492189984 -0.17141301805310608 0.018556879159519715 0.2348699871877689 -0.1482779435165669 -0.11862104489812242 -0.004231132725409231 -0.08604023151858764
0.22488156056353864 -0.19612651405745798 -0.24264998391541162 -0.004471814390144213 0.38661142950237654 -0.2596414375216703 -0.052477406213748495 -0.027055319726777913
0.007801671486630824 0.09580451895209924 0.006046220384736939 -0.03717705599343774 -0.28085565921750777 0.01801457919306711 -0.11907215694551483 -0.2344815466707075
0.021482381533515334 0.042261790269681174 0.24624440895705435 -0.04872388000618541 0.15935331452737742 -0.13818204670329387 -0.08831611210466889 -0.34582665966284737
-0.08536878975976339 0.13039120981797528 0.2928454361657577 -0.2907566852842037 -0.29116798027492435 0.04244014017419195 -0.12316014578356571 -0.08279105583727228
-0.05219753232390754 -0.08402036569031521 0.14224135473514912 -0.006499500546505128 -0.15571938314543177 0.16138712370542935 -0.23180832116674616 0.08549805790788807
0.08465253083177823 -0.18132592775957326 0.40375461932524226 -0.26741908664973385 0.06454216421940218 -0.1590396638235344 -0.16804995282980167 -0.09077370854369417
0.034374424048695264 0.14911317246594794 0.05969097184047686 0.39673680486667684 -0.19570770671816637 -0.046063054278509416 -0.20964932539247988 0.1607597473796361
-0.112973596636344 -0.07087555823033662 -0.5689958247596839 0.32046929035656757 -0.04311839538449612 0.0019688665187877533 -0.040193460186329535 0.13854743472237388
0.3132493615381909 -0.06610219619686311 0.10697614133685092 -0.20383800197824975 0.10615205382073169 -0.10892580186073762 0.2971506394446072 0.07600191954943696
-0.038389377019350704 0.16998020614712958 0.10931496490887666 -0.16060907171441607 -0.09089806096298668 -0.03277742729895815 0.23570370171235028 0.09334121498042863
-0.08941740076168733 0.18626703983694276 -0.11055345009693121 0.2522777352796254 0.6156055275436977 0.17974772199560932 0.015363827121228451 -0.12513432638539387
-0.2049376096594283 -0.12127562624899356 -0.12531333527709151 0.2211723276935007 0.17192170061749326 -0.30207692422438875 -0.17005321777935228 0.14738588238139896
0.015431686101818958 0.014802614686217888 0.17124085454024593 -0.09538979587665783 -0.07855134679955314 -0.05683344761544026 0.08078101126940923 0.12522273094530006
-0.04125099812848796 -0.20444965028184828 -0.08552963710585702 -0.0018702951237999077 -0.3413700049544605 -0.15351718781353554 -0.17445391287946632 0.09483366662860361
-0.24192137198856356 -0.13370960207799534 -0.26220202366197537 -0.2813292418343048 0.067084248589852 0.1272453701890405 -0.12621321136044744 0.28935537343175227
-0.14095062550660994 -0.04102814894387224 0.0040294769114728275 0.09354420059418939 -0.10256609636595095 -0.12905806798945482 0.14827565115917968 0.06270869410984085
-0.12342172492604951 0.041766769407213696 0.01050015186978815 -0.14308266256625696 -0.02148585397412286 0.19595289653243675 0.2768171417229146 0.1527897946410952
-0.026428335699444843 -0.030241226816625878 0.5258545546356154 0.07612894157768073 -0.010996646240185632 -0.12860874521458515 0.13090055927119082 0.04342403748514571
-0.17365704747591942 0.009540253767858733 0.1857784127917919 0.14486860598428086 0.22231321855482747 -0.0594318696150593 -0.085982614514604 -0.047777881719557734
0.04698215915897182 -0.007052532067199371 -0.14008192208302803 -0.533838763014097 -0.36690772428913754 0.07361712030362162 0.1227373605578808 0.12234930049825236
0.18689480851369952 0.21672035642513682 0.0656152004616196 -0.11313035094640107 -0.40271268340331284 -0.048050798536577365 0.24702568182624554 0.0074391200785898825
0.31735392873679186 -0.07917061418229643 -0.31989144163105837 0.2715832587206268 0.04145585565769982 0.045182186263426356 0.006119925433119102 -0.05350183182719018
00000000: 8ab0 2f27 e065 e03f 68bf 2d49 7c6a d03f
00000010: 9f48 9491 25a2 a43f ebdd 3378 d1c9 cbbf
00000020: a1ba 6873 d51d c1bf 66c1 bbea 16a8 afbf
00000030: e664 b47a af43 9e3f aa05 7976 81ce 9f3f
00000040: 8237 bfbd 2e7c cabf 8147 62ad 1bdd d03f
00000050: 5430 c15a 2ec5 aabf 911c 2b5e e338 a6bf
00000060: b782 5300 cfcf c43f eb08 2578 a307 a43f
00000070: 8f2c e790 4097 aebf 6abb c778 af28 6abf
00000080: 0502 18cc 35e7 a73f 8738 d008 a600 8a3f
00000090: 358c f06c f44e 9abf 15be 43eb 9478 bf3f
000000a0: 2abd 3737 4549 913f b0f3 c3fe 8a7e d13f
000000b0: 2e4d cc1a 0ead c1bf 07c0 f068 15fa 8a3f
000000c0: 54a0 01ca 9b34 c63f b28f 2e8b e1e3 d8bf
000000d0: e56f f029 34f0 abbf f277 58d0 7a8f b7bf
000000e0: 9855 d66a c757 dbbf c0a2 3173 7685 d63f
000000f0: 6df8 95be 723f d33f bf33 3fb5 d06b c0bf
00000100: d18a aeea 6602 b33f fae9 bb67 ec4c 9a3f
00000110: ad03 ff9a f92d a0bf be81 3b69 5ee8 b1bf
00000120: eed6 3d7f 244d d1bf 317d 3da6 50a7 cc3f
00000130: 0177 7e10 c513 bf3f 729f 4253 e8a2 b03f
00000140: c951 eb99 d5c8 b8bf 50b6 23d3 aeb1 8ebf
00000150: f63d 62e5 bf1f b13f 9eb3 5da6 1eee c23f
00000160: 2a60 7f95 70f7 d53f 248e c6e6 1d84 c13f
00000170: 5b5f 6f7f 691e b7bf 6fd3 ed8b ce82 aa3f
00000180: 0315 f2eb 2d0c a43f 2bfe de0b 2741 cdbf
00000190: 4c1e 67a8 e9b3 b1bf 4812 216d 5d67 b43f
000001a0: 9f63 a6eb e75c d0bf dd07 b5c1 a5c3 3d3f
000001b0: 476c 344f afeb a4bf 64c5 fc9d a4ad ba3f
000001c0: 336d 72c1 861f b5bf 8777 0846 9437 b23f
000001d0: 03f4 eb0a 4ef5 d23f faa1 c423 86f0 b1bf
000001e0: 1a9b 5780 9f54 bebf 286c 012f e08b d0bf
000001f0: 3fe1 f759 589a cf3f ddb1 e92a d028 bf3f
00000200: e34c d46a bae8 a9bf 5d2b a261 d1f9 bfbf
00000210: ac4e 5ebb dc0c b03f aedd 1cc9 8d11 c53f
00000220: 8d2d 84ef 8eeb cf3f f02a cb56 222b c53f
00000230: 93bc a70f 4ef6 df3f 7eae bf3e a27a bcbf
00000240: b57a 5823 bbee c03f a5c8 529d dcf0 c5bf
00000250: 1481 6c14 9300 933f aa46 e440 3810 ce3f
00000260: d196 0f8b c5fa c2bf b06c 74e4 f25d bebf
00000270: 2004 e40a aa54 71bf e839 838c bb06 b6bf
00000280: 0203 0c42 ebc8 cc3f 91ac e071 ac1a c9bf
00000290: c553 a598 270f cfbf 8083 f388 0951 72bf
000002a0: b73d 7edd 3dbe d83f 59e3 b51e f79d d0bf
000002b0: fc14 ef8e 51de aabf a928 a3c5 63b4 9bbf
000002c0: 9a39 3a3e a5f4 7f3f bc51 b51b a586 b83f
000002d0: 2dd5 11ed ebc3 783f 4987 4eff de08 a3bf
000002e0: fc15 cf03 8af9 d1bf 5513 f1f1 6972 923f
000002f0: 5df6 f14b 837b bebf ffab 3bc7 7d03 cebf
00000300: 9fae 8138 7aff 953f 464a 285e 56a3 a53f
00000310: 108e a5d1 ef84 cf3f ac53 521e 56f2 a8bf
00000320: b3bf 337d b065 c43f 3614 be05 f3af c1bf
00000330: 5c0d 337d e29b b6bf fb8e 5524 0622 d6bf
00000340: 4a06 1ea0 bada b5bf 6d52 edbe a8b0 c03f
00000350: a358 c7c8 fabd d23f b1e5 98ed c19b d2bf
00000360: 4515 3b06 7fa2 d2bf 4fef 2bcc b6ba a53f
00000370: 289e 4f5e 6c87 bfbf d6ee 386d cb31 b5bf
00000380: 2db3 868c a2b9 aabf 467e d6d2 5b82 b5bf
00000390: 21f4 5cf7 f634 c23f d4e6 9964 389f 7abf
000003a0: 1041 fbdc 9cee c3bf beb8 2751 55a8 c43f
000003b0: 1209 2d23 e5ab cdbf 1dfd 9562 33e3 b53f
000003c0: de34 72cb c9ab b53f fd75 d220 b035 c7bf
000003d0: 1618 679d 1dd7 d93f af27 dff1 641d d1bf
000003e0: 900f 89d4 d585 b03f f4c7 7165 695b c4bf
000003f0: a2c9 bf2d a982 c5bf 3124 881d f23c b7bf
00000400: 6d49 3746 8699 a13f 5d70 92f3 2316 c33f
00000410: 4bb5 d7a7 d08f ae3f fc66 81c4 2264 d93f
00000420: e3ff f63b f30c c9bf 3e32 5c9f 9395 a7bf
00000430: 8236 1802 cad5 cabf 021f c180 c693 c43f
00000440: f955 dd6e d6eb bcbf be5e af8c e624 b2bf
00000450: 91e8 5cbb 3635 e2bf d40a 5da0 9182 d43f
00000460: ce97 1044 9d13 a6bf 8b45 de29 0321 603f
00000470: 92d7 06ba 3c94 a4bf a9e4 891e ecbb c13f
00000480: 8929 d30c 470c d43f 42fb dbd2 12ec b0bf
00000490: f579 7ed4 c962 bb3f 40db 1618 5d17 cabf
000004a0: c132 90ef c72c bb3f a7b4 aeb4 8fe2 bbbf
000004b0: d69a 991d 8404 d33f ebe6 e59e dc74 b33f
000004c0: aab4 9fbd c5a7 a3bf e743 2f51 e9c1 c53f
000004d0: 3c3c 3fc7 10fc bb3f ac27 3a8b d68e c4bf
000004e0: 7718 1b67 1845 b7bf ee92 97f4 33c8 a0bf
000004f0: 9a49 33f5 892b ce3f 7cb8 b5b9 35e5 b73f
00000500: 56fb f60b 0fe4 b6bf 2611 362e 99d7 c73f
00000510: 6254 a01c 3b4d bcbf 663c a283 5125 d03f
00000520: 2d2f 015d 0ab3 e33f cd35 c02d f901 c73f
00000530: 9672 37f8 1177 8f3f 2f54 b7cf 6604 c0bf
00000540: 8c94 9a45 653b cabf af95 8a60 eb0b bfbf
00000550: fb46 6272 440a c0bf d8a4 1cf5 5f4f cc3f
00000560: a5fa cfc0 8701 c63f 9be1 9a73 3a55 d3bf
00000570: a68f 78c8 4dc4 c5bf e12f 5c64 8add c23f
00000580: 291d 09d9 a59a 8f3f f5df c74f d550 8e3f
00000590: 47a6 fe66 38eb c53f 7e90 a935 776b b8bf
000005a0: e292 8fe9 f01b b4bf ac8c a70d 4619 adbf
000005b0: 3438 8a79 10ae b43f 8a1c 1067 4c07 c03f
000005c0: ed46 c7cf d91e a5bf 81d0 d1f8 672b cabf
000005d0: f759 3532 45e5 b5bf 7b68 ff18 96a4 5ebf
000005e0: 5358 c793 01d9 d5bf 293a 8482 73a6 c3bf
000005f0: 4cff 3c7d 8154 c6bf 51c8 bae8 0447 b83f
00000600: 7079 728e 47f7 cebf 6907 0b70 651d c1bf
00000610: 59af 24ff eac7 d0bf 5d8e 455d 4c01 d2bf
00000620: 7328 c5ed 6e2c b13f 7dc1 c387 9349 c03f
00000630: 86e1 8e27 c127 c0bf 69eb 7366 cc84 d23f
00000640: b768 738b ab0a c2bf 87d3 db3b a401 a5bf
00000650: 0b4f e078 3681 703f 6452 4842 83f2 b73f
00000660: f1f4 918d c541 babf 075b a68a f984 c0bf
00000670: bac9 4250 b2fa c23f 1b6b 604e ad0d b03f
00000680: c75c 2cf0 9098 bfbf a1bd 5339 7462 a53f
00000690: c4f7 1187 1a81 853f ea5f 2c5e 8850 c2bf
000006a0: 27fb 9440 6300 96bf 9ce6 1409 fc14 c93f
000006b0: f003 ab3e 5fb7 d13f 18b2 92b1 9d8e c33f
000006c0: 8b3a 1196 0710 9bbf bd5d ac60 8ef7 9ebf
000006d0: 879a 53ee ccd3 e03f 93f0 5ab2 2f7d b33f
000006e0: 97fc bcdf 6885 86bf 068f 5659 4076 c0bf
000006f0: 2487 8c7a 59c1 c03f 15cc b7e9 ac3b a63f
00000700: da82 d0e5 643a c6bf 488e 6d2f d789 833f
00000710: 222c 9f47 96c7 c73f 54b5 75f2 0d8b c23f
00000720: 85ab 9471 c274 cc3f 1f73 aca0 da6d aebf
00000730: 7963 5de5 f402 b6bf fb51 eaae 5776 a8bf
00000740: da9f 2aaa 0b0e a83f 9061 52a9 1de3 7cbf
00000750: 1fc0 0d55 34ee c1bf cc71 8f07 3515 e1bf
00000760: 322f 1e89 6a7b d7bf 7537 2154 92d8 b23f
00000770: e3ec 9735 b76b bf3f a316 54a4 4852 bf3f
00000780: 0be4 2d49 2bec c73f 3a99 9c1d 7ebd cb3f
00000790: 6767 1a64 28cc b03f 95f2 7f55 1cf6 bcbf
000007a0: 51b4 396b 0bc6 d9bf 13c7 8540 1d9a a8bf
000007b0: 31a0 5b9c 899e cf3f c54d 2d97 7b78 7e3f
000007c0: eb9f 4bda 864f d43f 389a b77e 8644 b4bf
000007d0: 15d8 04f4 1979 d4bf 1f28 96bf 9e61 d13f
000007e0: bf16 8eb0 b339 a53f e9f4 b998 1e22 a73f
000007f0: 6962 6df9 3411 793f 949f f293 9764 abbf

base.actor.actor_fc1.bias f8 [64]
-0.009285447443339876 0.06541914398316746 -0.023944729305116024 -0.06758553048213319 -0.02394106479722474 -0.08470548603433171 0.181695131778388 -0.09061991545058141
0.0017949908810798016 -0.17891116154060896 0.11480196006184837 0.2564508143165994 -0.06390716652131728 0.18461748374517503 -0.010059171151710393 0.162609419538182
-0.24701534855117002 -0.2155654611866151 -0.13204090279131409 -0.0001426402081958156 0.2166526067249823 0.24183894819850518 -0.20441892377189025 0.03390258743819224
0.1653636533268081 0.08619206123985042 0.3100133452901879 -0.1559276962196894 -0.005742074265030614 0.19332501692175044 0.06371378263083873 -0.16963733064720496
0.0598228178076076 -0.1041860290283414 0.15988524504998605 0.018100000738481607 0.027954026183007186 -0.03422894518031835 0.05282281763990362 -0.14103770120952375
-0.030273771935323483 -0.06773306174348082 -0.04628834703405744 -0.20778295552787937 0.045425624531789936 0.09922249632994791 -0.004258501609007854 0.11606461145368208
-0.056085766536183634 -0.021960368638730687 0.11323036713985145 -0.031073106586652077 0.23823067362225547 0.01715162403874295 0.055751994687184295 0.106311030716642
-0.2279232087709653 -0.12331427915941769 -0.06832858023532241 0.06608333340015071 0.12049062974637653 0.21631904772004631 -0.12721219079269225 -0.10314001867599192
00000000: e570 c8a8 3f04 83bf 1da5 f01b 4fbf b03f
00000010: fbb1 1b95 f784 98bf c583 1a0b 494d b1bf
00000020: 8f8c 57a9 0184 98bf 512a 4f3c 42af b5bf
00000030: ab50 6a3c c941 c73f 05fe 39e5 dd32 b7bf
00000040: bbf1 5fc8 bc68 5d3f a967 da99 8fe6 c6bf
00000050: 6e7a fb47 a963 bd3f 656e 21ad b069 d03f
00000060: cc67 3056 385c b0bf 8748 7ab3 8ba1 c73f
00000070: 7cc1 f818 e799 84bf 8911 78ad 62d0 c43f
00000080: 9493 d1ed 329e cfbf 27ca f826 a697 cbbf
00000090: 908b 9c5f b7e6 c0bf 34d7 ff0e 36b2 22bf
000000a0: a70c 3dca 45bb cb3f e5af b422 94f4 ce3f
000000b0: 1653 2438 662a cabf 47f8 9710 ae5b a13f
000000c0: 272c 7edd a22a c53f 5532 33d4 ae10 b63f
000000d0: 0d13 d636 42d7 d33f a9ef e651 70f5 c3bf
000000e0: 9745 df52 0085 77bf 71ba 96c8 dfbe c83f
000000f0: 2133 b4e4 8b4f b03f efbd a711 adb6 c5bf
00000100: 5594 13ac 18a1 ae3f 2078 6083 efab babf
00000110: 2d23 4da5 1e77 c43f dedb ea7c ce88 923f
00000120: 107c fdf0 fa9f 9c3f db88 40d0 7486 a1bf
00000130: 33ee 7da4 970b ab3f 9455 19fd 850d c2bf
00000140: 8e1b 8e71 1600 9fbf b0d3 0b35 f456 b1bf
00000150: 29f4 6431 1bb3 a7bf 8f48 54c3 a198 cabf
00000160: 2761 8707 0742 a73f 3dbd c340 a566 b93f
00000170: 6e1c 40d2 5c71 71bf 80a0 6a0e 69b6 bd3f
00000180: 2887 160a 46b7 acbf 9020 7264 c77c 96bf
00000190: b79c c753 aafc bc3f 8096 4ce2 a0d1 9fbf
000001a0: 204a 0ebc 577e ce3f 665c 4701 3290 913f
000001b0: a287 bc83 868b ac3f a4cc 2120 3337 bb3f
000001c0: b9d8 d573 962c cdbf 6d98 1e4c 8691 bfbf
000001d0: 9129 7e59 fb7d b1bf f0a9 c35b d6ea b03f
000001e0: 9c31 3c52 79d8 be3f a9cf bab1 57b0 cb3f
000001f0: 4ab6 8d33 7d48 c0bf 7349 1f5f 6267 babf

base.actor.actor_fc2.weight f8 [64, 64]
-0.23839353972093366 -0.009853185335475032 0.07130140893754111 0.17973265639327632 -0.057319510897552696 -0.040587793625852624 0.17943162461787326 0.24041603808934628
0.0700379371969079 0.17289812998881465 -0.14192900339939013 0.3300882921286923 -0.12591188526904232 -0.05817655800888611 0.0722324587247694 0.18914982095675897
-0.018756477387710135 0.20059539682795968 0.14227984442469155 -0.2399251765036034 -0.01826748991237589 -0.11131385719009777 -0.1652863457620573 0.053727071707178276
0.048414757859767 0.03410634220369942 0.27881238894797733 -0.10231302623707074 -0.2933841069424524 -0.1647450655209676 0.552904228739595 -0.027188659894894763
0.012565714124943651 -0.1747595077537109 0.23447572241087927 -0.2863229288376181 0.20347401358355527 0.15332762415857387 0.15098410026243123 -0.2313049900912009
-0.03156759821636383 -0.18267692145651707 0.006796259082681604 -0.2093289606691751 -0.005755359280866924 -0.12144118611464153 -0.1505429829106041 0.0902548437121955
0.2676902063716513 0.05783340181414112 0.07431327076141425 -0.10553610214350614 0.08074826280664615 -0.12061826625569948 -0.012252557259586072 -0.015248796083600124
0.023416914938742567 -0.12179254462303257 0.027134255865387077 0.2401197238570643 0.06064970140333597 -0.27562649316842125 0.2121263919219024 0.18697906596098232
0.25114704710488006 -0.16031073141880134 0.30302606753547107 -0.04030064949245142 0.09244156161315203 -0.00900004686343678 0.34278983722691037 0.22882183138941997
-0.18047714558417763 -0.024393221440517084 0.04219440352999845 0.048138659299639806 -0.0764841187837632 -0.08705023560648813 0.1276018204503302 0.4647040985439639
0.16688986255820606 -0.3232889540796643 -0.11401022219368045 0.009844994857858 0.1043514696911878 0.0024454160724339626 -0.09700233558580981 -0.13351124557402083
-0.27694392338064067 0.020726592129191566 -0.2910715719579376 0.22264312525974045 -0.08837049615188317 -0.13245540490146232 0.047677298939053765 0.14769828058692133
-0.07481792904657106 0.1530795459012797 -0.2880892130245121 0.08871322870750703 0.04174681169532575 0.04366354660441281 0.07361751277388269 -0.0969508371186385
0.2552638773877159 -0.0046112350250630315 -0.11901189358210412 0.1851254810580879 0.07011977086896289 0.10836643186556137 0.15727875129391483 0.013132570153730623
-0.3326010112851016 -0.05389173173948683 -0.019509172459519847 0.25372351619368216 0.156181740861209 0.02192912399004643 0.11965462477245949 -0.17044497256280133
-0.27243008128749757 0.12602860538969254 -0.1166750631446491 0.1907526486109467 0.1438259717429661 -0.12320886304938379 -0.18891295565081392 -0.023744724203997074
-0.3145018568923117 0.4909681344272386 0.09682941842408757 -0.20532449545994622 -0.13249063680896325 0.22107743483674513 -0.01319406297599747 -0.12094053304234939
-0.12681242338675408 -0.2253214344251079 -0.036254321423773 0.20246323506167851 -0.09476763180105813 -0.21116644967907225 0.20966570221454184 0.013718216710639088
-0.017543237422370232 -0.1839164782790456 -0.16033208505997204 0.04898544406345064 0.08883573926507335 -0.16296894067461204 -0.11330210124059811 0.03383208606674491
-0.3470069199020755 -0.17144986269521284 -0.07850947831527279 -0.22780458859493877 -0.06963141578534522 -0.2583612967232057 -0.1817708361990395 -0.38646163147849194
-0.1504994134182303 0.240889559651631 -0.08988881176176639 -0.03806642389452752 -0.039391279163885275 -0.13195977211482418 -0.02102427221686715 -0.03498869103453406
-0.08355246681505205 -0.3077235433962782 -0.2972457755710651 0.04985852473202807 -0.06406532567504186 0.020831635802127182 0.0564950656818546 0.10882918320684784
0.06303404898608322 -0.197646005882702 0.05443709100585437 0.33120046833217726 -0.24310624530940983 0.023530128466633545 0.0954677124166951 0.04419752907175176
-0.21583225371790865 -0.03224738969303823 -0.15173521684434504 -0.08953643661778288 -0.0025485312926209836 -0.09774863146841674 -0.17388280374503615 -0.06180894313783326
-0.00022631184217778146 -0.1248820352323747 0.22552561254456904 -0.07668970617674482 0.07627157157099403 -0.06475696616063185 -0.23613304208724625 0.19021389630530938
-0.26594919805521805 0.06347271934179184 -0.09448890934879264 -0.11515466633895917 0.001919818523684184 -0.11962830785490358 0.07278773517409123 0.05905359912497702
-0.017557654396141924 -0.1066173777326432 0.20563529103497882 0.10109915731572099 -0.19590743877379707 0.12943164838768528 0.4241336037861178 0.3276499380673026
-0.2063493192674532 -0.054140232391614036 -0.10971199368064166 -0.007103497728778813 0.10507243661642947 -0.22579506501080762 -0.09558137084550244 -0.14314605784775483
-0.0724951216484121 -0.22649129224910794 0.12737932182289627 -0.17583639110384872 -0.26740737376750057 -0.09079902780507577 0.3300220979390659 0.08913327359175341
0.13265895780649234 -0.10844091166947015 0.04145379478986266 0.22314737285140265 -0.11278709154791668 -0.35734714433630693 0.23838126014543487 0.09578829232179939
0.07648452613808651 0.02999522487891774 -0.2320050825964724 -0.033738635519012496 0.04975248023147122 0.10563923967505871 -0.12415775270974888 0.11466440575817118
0.1617922030880902 -0.23319946308801368 0.07723240740701981 -0.025239487832979714 -0.01998054090510641 0.05354172389067182 0.107428072167266 0.08545568311394403
00000000: 53ec 56f4 ad83 cebf e5e4 3726 e82d 84bf
00000010: 58a3 8b23 cf40 b23f e5bc 9dcc 7a01 c73f
00000020: ad95 74a1 fb58 adbf 8fcb 7a5c ecc7 a4bf
00000030: 860b cd8f 9df7 c63f 7789 83e6 f3c5 ce3f
00000040: 0a72 bd99 01ee b13f cab6 eba2 8621 c63f
00000050: fa24 fac5 ba2a c2bf f80d dfa4 2a20 d53f
00000060: 3d41 b472 e11d c0bf b182 155c 51c9 adbf
00000070: e3bb ee8f d37d b23f 3eda 86b3 0f36 c83f
00000080: a09e dfe3 e534 93bf 6057 8d26 1cad c93f
00000090: e88d 57d7 3936 c23f e6f5 4841 deb5 cebf
000000a0: 97c0 037f b6b4 92bf 0f1c 39a0 107f bcbf
000000b0: 42fe c25c 1a28 c5bf 80cb c85f 1d82 ab3f
000000c0: ef8b 4db3 d1c9 a83f ebbf b3f0 6276 a13f
000000d0: 9213 10eb 0fd8 d13f 399c a4bd 2f31 babf
000000e0: daf9 1e22 cec6 d2bf ed82 4bc6 5d16 c5bf
000000f0: 9736 8835 64b1 e13f cd55 4814 58d7 9bbf
00000100: 347a bd99 0dbc 893f bece 3b01 855e c6bf
00000110: 3ef8 baeb 4c03 ce3f d8f5 dc67 1d53 d2bf
00000120: 76af f6bc 6f0b ca3f 66cf aa55 3da0 c33f
00000130: 97eb 6b6e 7253 c33f a5f1 ebe3 669b cdbf
00000140: b6b4 e7d3 a029 a0bf bde1 b115 f561 c7bf
00000150: 3996 ece7 64d6 7b3f f202 1798 4acb cabf
00000160: 9b77 357e ee92 77bf 2af5 bf02 c516 bfbf
00000170: 7d25 1f12 fe44 c3bf 20aa 0c02 f11a b73f
00000180: d0d8 741a d621 d13f c4fa d0f2 569c ad3f
00000190: c03d 94cb 3106 b33f cef0 40fb 6904 bbbf
000001a0: a89e f60b ebab b43f b752 deb4 d6e0 bebf
000001b0: c03f c765 de17 89bf 1907 dcc3 c23a 8fbf
000001c0: e827 578f 9afa 973f a073 0dd4 cb2d bfbf
000001d0: 3c2b 2c16 15c9 9b3f 299a 8b3c 3ebc ce3f
000001e0: 7738 1448 7a0d af3f 4a73 844d dda3 d1bf
000001f0: 7c26 f625 f526 cb3f db65 ab16 eeee c73f
00000200: 095b 7310 cb12 d03f ab1f 52e2 0f85 c4bf
00000210: 199f 7972 c764 d33f 26c0 2767 49a2 a4bf
00000220: a46e eb0b 40aa b73f 7105 87d7 9d6e 82bf
00000230: 8a9b 12c9 44f0 d53f 52d5 36a5 084a cd3f
00000240: 09d0 fa06 e019 c7bf af0d 5361 89fa 98bf
00000250: ac9c 783e 819a a53f a300 bb5e a1a5 a83f
00000260: cbf2 d694 7694 b3bf 5df9 099b ec48 b6bf
00000270: 0043 dfa6 4155 c03f 2810 6442 b6bd dd3f
00000280: d157 dca2 a55c c53f 7688 3b27 c4b0 d4bf
00000290: ec46 bb1f c62f bdbf dee0 8cd7 9c29 843f
000002a0: d0f9 9c25 c7b6 ba3f d586 ccc1 6808 643f
000002b0: 0e07 fa22 25d5 b8bf 18bf b180 e516 c1bf
000002c0: e2ba 6f01 73b9 d1bf d9dd 680d 5a39 953f
000002d0: a1b2 96a8 eaa0 d2bf 8ebc d5e6 917f cc3f
000002e0: 6e54 e7e6 729f b6bf cf77 1d78 4cf4 c0bf
000002f0: 49e2 68af 2869 a83f cfeb 65fa c6e7 c23f
00000300: 1ad3 688e 4427 b3bf 4090 aa4d 1c98 c33f
00000310: 7152 11bd 0d70 d2bf a474 0500 e9b5 b63f
00000320: ea2b e38d d65f a53f 7afb 6281 115b a63f
00000330: 0dd5 c6e9 98d8 b23f 608f be22 c5d1 b8bf
00000340: c5be 4e4d 3e56 d03f a66f 07fa 3ae3 72bf
00000350: d429 c53e 9077 bebf 247f 6617 31b2 c73f
00000360: dd69 af8a 5ef3 b13f c7c7 d808 e7bd bb3f
00000370: dedf 94ca b521 c43f 11e3 94ba 3fe5 8a3f
00000380: a781 85c0 5549 d5bf f419 b172 b297 abbf
00000390: 151e be66 36fa 93bf 9cca 118f 013d d03f
000003a0: 4299 9d66 c3fd c33f a0fd 7799 9674 963f
000003b0: 517e 367c afa1 be3f 7461 760f 24d1 c5bf
000003c0: 20e4 6494 7e6f d1bf 152e 4191 b421 c03f
000003d0: 6c0a 77bc 6ade bdbf 1667 b431 956a c83f
000003e0: 6dc9 79b2 e368 c23f b5db 5fb5 9d8a bfbf
000003f0: 05cd 27bb 4c2e c8bf 1b84 a277 8950 98bf
00000400: 608f 7865 cc20 d4bf 4d8f 2f9c 056c df3f
00000410: 6a12 6c11 d0c9 b83f c7b9 88b4 1248 cabf
00000420: 7573 0f04 74f5 c0bf 34f2 40f0 434c cc3f
00000430: 88be dd27 7d05 8bbf 9e7d 2d72 f5f5 bebf
00000440: 3a18 96b5 633b c0bf 6dc9 f82f 55d7 ccbf
00000450: 4922 b529 ed8f a2bf 04bb 9db6 50ea c93f
00000460: dc0e 4e07 b142 b8bf 6328 b191 8007 cbbf
00000470: c05a 0d63 53d6 ca3f f496 0de1 4b18 8c3f
00000480: aeec fabb daf6 91bf 1db6 b33d 938a c7bf
00000490: 4681 ea02 c385 c4bf d211 77c0 9e14 a93f
000004a0: 6e06 dc62 f0bd b63f 5a09 3b8f 2adc c4bf
000004b0: be7d 65d3 5d01 bdbf de9b 6c6e 7052 a13f
000004c0: 4bc4 1d83 5c35 d6bf 1afe 96b0 11f2 c5bf
000004d0: 2945 ca79 3219 b4bf 7b6e f264 b328 cdbf
000004e0: 0d7e 924d 5dd3 b1bf cd9c fed1 fd88 d0bf
000004f0: 8eb4 6b4a 4444 c7bf a9f8 1691 c9bb d8bf
00000500: e267 5995 9043 c3bf 8267 5316 78d5 ce3f
00000510: bc07 cb02 f402 b7bf 2fc4 673b 717d a3bf
00000520: 1d53 83ff 172b a4bf ce75 cfcc 0ee4 c0bf
00000530: b1e4 5f06 6387 95bf a043 72a7 09ea a1bf
00000540: a284 78c8 b163 b5bf fd28 c616 beb1 d3bf
00000550: 9beb 3c25 1306 d3bf 893e 4d7a 0e87 a93f
00000560: 00f7 94ce 9566 b0bf 7722 f869 e354 953f
00000570: 0256 fad6 ebec ac3f 364b b9b6 3adc bb3f
00000580: 2000 eeda ff22 b03f ddc1 b9dd 764c c9bf
00000590: 7179 1eab 2ddf ab3f 7d05 fa72 6332 d53f
000005a0: 9454 87fe 1a1e cfbf af81 f030 4818 983f
000005b0: dc54 a76e 9270 b83f bcb7 dafb 0ea1 a63f
000005c0: 5ef8 912b 64a0 cbbf c5d6 39d8 ba82 a0bf
000005d0: 2ebc ff40 0f6c c3bf 90e1 1223 dceb b6bf
000005e0: d29b bf51 a8e0 64bf 19b7 62e7 0d06 b9bf
000005f0: cffa b5ad ca41 c6bf c12f c1fa 6ba5 afbf
00000600: 63ac f4eb c3a9 2dbf fe53 2ee1 44f8 bfbf
00000610: 8007 25f5 05de cc3f 4d0e f8c3 efa1 b3bf
00000620: ad0e 83a1 8886 b33f 971c d99b e993 b0bf
00000630: ff85 a286 9b39 cebf 0c22 f0cf ed58 c83f
00000640: 89da 02c9 4f05 d1bf dddc c285 bf3f b03f
00000650: b2de 7cd7 6c30 b8bf e559 e8b5 c67a bdbf
00000660: 44ac 8071 4d74 5f3f 2ca2 e9f5 f59f bebf
00000670: ba64 1f8e 37a2 b23f a5de e7f9 453c ae3f
00000680: 2e1f b43d a2fa 91bf f506 8cc6 464b bbbf
00000690: d107 f3d8 4152 ca3f 83fd 5266 a2e1 b93f
000006a0: 66cd 49b5 7e13 c9bf c43c 725c 3791 c03f
000006b0: 0758 5945 0125 db3f 7845 2272 37f8 d43f
000006c0: 0e1d e78c a769 cabf 2126 0abf 44b8 abbf
000006d0: 405a d6d0 1516 bcbf 6dc3 eaa6 8e18 7dbf
000006e0: 5d85 faf6 06e6 ba3f 11e9 e849 dae6 ccbf
000006f0: 6066 e34d 0578 b8bf 81f3 802a 9c52 c2bf
00000700: f876 9950 0a8f b2bf 05f4 84aa aafd ccbf
00000710: 713f b532 f74d c03f cf6c 9e8e ce81 c6bf
00000720: 3a9a 42d1 331d d1bf e96f eee6 9a3e b7bf
00000730: 1ac2 6601 151f d53f 52df 0f2f 70d1 b63f
00000740: 2a71 a6fe f7fa c03f 6a36 2b99 c8c2 bbbf
00000750: cfc9 d589 6e39 a53f 51e4 4ad6 1790 cc3f
00000760: 79f8 9b65 9ddf bcbf 5b94 8f8e c6de d6bf
00000770: 8ee6 26f2 4683 ce3f fe9f dcde 9485 b83f
00000780: 76c3 696a 7d94 b33f 0b81 9077 11b7 9e3f
00000790: f2f9 20b1 57b2 cdbf b5e6 54c0 3046 a1bf
000007a0: 7865 fa36 2879 a93f 8f24 9457 2c0b bb3f
000007b0: f4e7 6e6f cdc8 bfbf 7122 bf80 a55a bd3f
000007c0: f56c 815e 9bb5 c43f 1132 b4e1 7ad9 cdbf
000007d0: cc26 01c8 80c5 b33f 67e3 3d5b 61d8 99bf
000007e0: 8cac f966 c775 94bf 73ee 2922 d269 ab3f
000007f0: df77 a1f8 6780 bb3f 9852 3b74 6ce0 b53f

base.actor.actor_fc2.bias f8 [64]
0.06768656765263893 0.07726126265428293 0.01246917284628469 -0.1761408753956269 -0.10619610274101114 0.05153088086957727 -0.04978811394542929 -0.03125877765107153
0.10584999202984782 -0.08038599398155982 0.15170210461147707 0.11572806136912221 0.196214540267777 -0.14824381390002392 0.07015759095123243 -0.14977259605238935
0.0914379929293043 -0.20093854600703812 -0.06596604477420132 -0.1606868964216077 -0.07737594488863474 0.0551084227823029 -0.015967632798550842 0.006478187712311749
0.06613968832942238 -0.013396719584934663 0.004820131552749323 -0.013609257897915754 0.11348749953788079 -0.09045539550160644 -0.027446090942176045 -0.1459943528427339
0.004660756542837885 0.1276865438666628 0.016376312569556673 0.020097464481292637 -0.036564194462419305 -0.02764394357710867 -0.01867444835632299 -0.24965855017878746
-0.0804593143852499 0.18789793678144934 -0.007429485260911007 -0.007335047135991017 0.081892863744452 0.08293371467285814 -0.05355566486774662 -0.09368619010880745
0.06585825323462416 -0.00012111174198727997 0.02294220941507133 0.09621991740123007 0.045113592253762234 -0.01225232679903649 0.015652158763691613 -0.01210950085137745
0.013036136852878058 -0.09537428979273935 0.10472758118194672 0.044597659459675115 -0.06446799033553528 0.08452118161725074 -0.06845684444068396 -0.06517577769459795
00000000: c952 722a e853 b13f 2a0a 59e4 64c7 b33f
00000010: 05e9 a90c 7089 893f 5211 a8c1 c88b c6bf
00000020: 8b3c 3cf4 aa2f bbbf b447 2370 4162 aa3f
00000030: 6512 40e2 d37d a9bf ded5 7287 2601 a0bf
00000040: 8ad0 0c2e fc18 bb3f 7c0e 352f 2d94 b4bf
00000050: 8134 057d f96a c33f 0b53 cfae 5aa0 bd3f
00000060: 4d92 b9dc 8e1d c93f 0778 443e a7f9 c2bf
00000070: e1a1 b30e d9f5 b13f 64e6 f098 bf2b c3bf
00000080: 0e45 3ef5 7a68 b73f 1192 cdb1 5ab8 c9bf
00000090: 68a0 f394 26e3 b0bf cf65 8362 6391 c4bf
000000a0: 7735 cbf0 e8ce b3bf 6313 2bd3 2b37 ac3f
000000b0: 9f41 a8b2 d159 90bf 52a3 c945 df88 7a3f
000000c0: 36ae 57d6 87ee b03f 6385 ed43 bd6f 8bbf
000000d0: 9f86 1a36 46be 733f 2f49 c1ac 2bdf 8bbf
000000e0: 941f 054b 840d bd3f da17 6db5 1528 b7bf
000000f0: 32ae fffb d31a 9cbf e91b 6e65 f1af c2bf
00000100: 4d55 d14e 2817 733f 89f6 055d 0858 c03f
00000110: 8d49 a9bb f3c4 903f 53fc b702 6e94 943f
00000120: be62 d7c6 8ab8 a2bf 6875 62a6 b14e 9cbf
00000130: 7351 d803 651f 93bf 2ca3 17b6 cff4 cfbf
00000140: 9177 f14b fb98 b4bf 6229 bb22 0a0d c83f
00000150: 6731 8c43 616e 7ebf 2bea 04b9 5a0b 7ebf
00000160: 8de6 8e43 eef6 b43f ef76 41d8 243b b53f
00000170: 5bb9 3eea a56b abbf abaa 9a72 d1fb b7bf
00000180: 527c d023 16dc b03f c406 4de2 abbf 1fbf
00000190: c8f8 8a9c 297e 973f 7a4c 7656 dea1 b83f
000001a0: 8383 abf6 2019 a73f 24d1 3677 bf17 89bf
000001b0: 59e6 0198 1e07 903f 1839 05b1 ddcc 88bf
000001c0: 3526 98ab b0b2 8a3f aafe 890f 736a b8bf
000001d0: ca67 2a40 6dcf ba3f a403 b721 81d5 a63f
000001e0: 9745 2166 f980 b0bf c788 dd1e 2ea3 b53f
000001f0: 8562 0f44 6386 b1bf da8d b019 5caf b0bf

base.actor.actor_fc3.weight f8 [8, 64]
-0.09977969275330187 -0.10093528719945861 -0.12065423580035282 -0.0032804101910835905 0.04600225845833773 0.002291055957770041 0.08478140497240515 0.05885181869237598
0.0207434673709547 -0.002523985727656373 -0.04525057406391907 -0.0430166098418311 -0.06491830086009709 -0.08143824852288686 -0.03698640312668467 0.07050392231856151
-0.012552181322297271 -0.04595756956924054 0.02795956516480572 0.08407048058830074 -0.057274243694311874 0.08208929494615452 0.01717721803489331 -0.042927029729690716
-0.09272090957514394 -0.009508065651958985 0.06966965131070478 0.0337766096995837 0.06082947923719526 -0.020561343950762652 -0.08349666475052897 -0.04022108187937651
-0.03142100529477566 0.05130595101345491 -0.023147488325906674 0.09296221628538058 0.15336969173774873 0.030842971940702995 -0.0011486698391504598 0.07733036633025638
0.12134043493755525 0.041178437945500905 -0.040884160676181044 -0.005436904856738048 0.15725023648013173 0.1596314205839431 -0.04462328655341356 -0.013238496419899784
-0.06947628499369768 -0.000626442305255928 -0.017033066430546386 -0.049334927479407056 -0.032043256188958445 0.0016063751856630567 0.015653925058805522 0.020077351736683985
-0.03931280057649083 -0.05926530097460203 0.020107600461521158 0.1313328764923543 -0.03970975975803801 0.03831041701632581 -0.03264664431340902 -0.05386605465026118
-0.036990383952384825 -0.013213950709994529 0.0025415738657783037 0.0038161557172728404 0.05409330662505314 -0.0729790912914352 -0.035301090927353646 -0.0065398400635591335
-0.009158192130897112 -0.0884940440157931 -0.049942838439668014 0.02781955912294351 -0.0515519030855682 0.045596450897411385 -0.08728645121806512 -0.0065301916547193
-0.06374283428348801 -0.038929026733733336 -0.09269758999452518 0.0393934131321556 -0.03970678154062383 0.011996282031433181 -0.10231376669622404 0.02411634692638124
0.08356346369986506 0.049575415806198384 -0.07326890840974622 -0.09890600599602675 -0.03422996991942676 0.0598070648630923 0.07639075895070263 -0.04803356755414374
-0.014763005626400134 0.009921696025818024 -0.073641857274073 -0.013383524177180757 -0.06563319805006057 -0.05225217277689199 -0.01191074861373114 -0.0400429252905148
0.07571872604435091 -0.09100668803416469 -0.03485189507221032 0.0643830258097831 0.08535674215079438 -0.07470564259451276 -0.01025329959011191 -0.006145911543073932
0.05975600094926061 -0.038397424570021536 -0.046989053704683065 0.008151118196056847 -0.00942171988828215 -0.08796840825054739 0.09901812779532328 -0.052949973841828986
0.08916272777991303 -0.01664815871819158 -0.07301742044123521 0.045063700423462784 0.12307243178215804 0.029436404447918077 -0.06664526991700262 -0.02462215588441702
-0.02246462768980799 -0.029402447505616075 -0.013587630103171428 -0.01658512278772428 0.0818939195809334 -0.032371601062136934 -0.12390331994429232 0.007278417158092724
0.15241312225301784 0.0989555739682208 0.012953795449547612 -0.0821664405075276 0.05924666919670555 -0.047062262603748024 -0.09337364910726617 0.12405702047617857
0.010404507058690811 0.05423641055403572 0.005428480439283608 -0.14625952184333377 0.06065919542951655 -0.0143801379195667 0.09731646930608422 0.08073658955386695
0.01663235035395151 -0.030529638867709586 0.014198177549393431 0.0750909213571287 0.01240678703492074 -0.04643126871360694 -0.0005239698405724571 -0.05600976249109154
0.03503083045206758 0.06922419260914882 -0.029925240373264266 -0.05594955294794833 -0.05261587167678472 0.041648728283455484 -0.04762388879256133 -0.018674126553030072
-0.047953995367712464 0.03683456514317108 0.1572433827824369 0.08176642809129296 -0.04291152127071558 0.03680062895108871 -0.023636274943399788 -0.03343147634871333
0.08949814756602484 -0.0020554183931760332 -0.007221362886672047 0.009417499076772636 -0.006150837190653041 -0.015585944794884916 -0.0820708493322088 -0.033751698487820975
0.040580795356131495 0.005704521264147721 0.1134983320276956 0.010980787404730494 -0.05893964249105618 -0.017198592768981513 0.006493329812479686 0.09831702249102646
-0.04431687309139223 -0.06190574640562741 0.021237206506498765 0.12470122719502785 0.026651283622989828 0.058743431434532915 -0.035524153353124296 0.03505476538033483
0.017222489379919395 0.054956003958585055 0.01123289109656782 -0.042116941336810994 0.07087766840302367 0.010255823546656452 0.052590059368004316 0.11177882165545139
0.17074241365472725 -0.0546676776330223 -0.14502971179309904 -0.03788368840371717 -0.004516908163002145 0.08100411927188123 0.041513758245917506 0.10911910789316215
-0.03146758484947007 -0.058968461876338404 0.0058978770393106885 -0.02796297925925677 -0.16404457325344612 -0.018017127852670376 -0.008729353839709292 -0.008066334932615922
0.05239841383342298 0.06184472489927389 0.023554340473114117 0.05650439192203688 0.07036146621602148 -0.026861790083341157 -0.003558065422456232 0.01373384287303692
0.019877701344594004 0.027067210897650264 -0.012545370583995847 0.027625146035375647 0.07624638184475081 -0.02543651298806199 0.0534103145946306 0.03504041943529133
0.014112187126243436 0.07443599472882523 0.022991909446876603 0.006804401681328123 -0.04255868194976355 0.012973808302949232 0.07312786577994537 0.002758677795580327
0.04293530401663895 0.0726728109345282 -0.05788039285482226 0.027251273256266105 -0.0041923828362748616 0.0912699481470845 0.05151700844407575 0.025151850648019364
00000000: 0e2c 2e75 298b b9bf fdb6 881d e5d6 b9bf
00000010: 4fea e22c 32e3 bebf df14 9fcf 84df 6abf
00000020: 62cc 3da7 9b8d a73f 3984 2e4d b1c4 623f
00000030: 6f58 aaf1 3bb4 b53f 8f10 3059 d321 ae3f
00000040: e806 db87 c63d 953f 62c3 fc84 2ead 64bf
00000050: dfa2 754f 152b a7bf 9231 e9e8 4506 a6bf
00000060: 3023 1b5b 7c9e b0bf 32a0 0c16 23d9 b4bf
00000070: 01cd a6bf e1ef a2bf 0013 9988 8b0c b23f
00000080: 728c 2e42 f5b4 89bf ab68 9b24 c087 a7bf
00000090: 090f f9a7 6ea1 9c3f 9c8d af9c a485 b53f
000000a0: bef1 23b7 0c53 adbf 043b 25d5 cd03 b53f
000000b0: d2d5 c896 e796 913f aa5c 9b19 88fa a5bf
000000c0: 7bd6 47ba 8ebc b7bf 59e4 2ff8 f678 83bf
000000d0: 2738 e7c9 ded5 b13f 7b16 0ff4 2a4b a13f
000000e0: bdb5 e99f 0a25 af3f d242 526f 080e 95bf
000000f0: 98b8 6d94 0960 b5bf c835 908e db97 a4bf
00000100: c108 4cfc 6916 a0bf 8fcc 620b c644 aa3f
00000110: 0d93 60a5 f9b3 97bf 779a b52e 5fcc b73f
00000120: a809 1b39 9ea1 c33f 2be3 2fcf 4c95 9f3f
00000130: f4c6 27d9 ded1 52bf 694b 6042 eccb b33f
00000140: 3c3d bdaf 2a10 bf3f 1f76 8d18 5715 a53f
00000150: 8ea5 0eca c4ee a4bf 5086 d108 0245 76bf
00000160: 1d37 7c97 c620 c43f 2939 6969 cd6e c43f
00000170: 061e c608 ddd8 a6bf 289b 5fe9 c81c 8bbf
00000180: f43f e5a3 32c9 b1bf b23d 619b fa86 44bf
00000190: 6744 14bd 1d71 91bf 0230 2678 6d42 a9bf
000001a0: 5321 c742 f967 a0bf 6a45 cd38 a051 5a3f
000001b0: 8ef6 b920 9507 903f 18bb 6544 288f 943f
000001c0: d794 94b1 ce20 a4bf 4070 f282 0558 aebf
000001d0: 6077 8839 1697 943f 724e b604 84cf c03f
000001e0: fd4e fc6e d654 a4bf a7cb 5c48 6c9d a33f
000001f0: c0eb 4c9b 0fb7 a0bf 61c2 2cde 5494 abbf
00000200: 7c17 af52 67f0 a2bf bbfb 3371 ea0f 8bbf
00000210: 85cb 4814 11d2 643f 8173 1100 0f43 6f3f
00000220: 6a32 c62d 1eb2 ab3f 9075 63fa c1ae b2bf
00000230: 3c9b 170e fc12 a2bf 8edb 1af3 84c9 7abf
00000240: d29f 8abd 87c1 82bf 2149 f0b0 8ba7 b6bf
00000250: 381b 8993 1b92 a9bf f81c 7d02 bb7c 9c3f
00000260: 9c20 99d3 0265 aabf e10a d602 6b58 a73f
00000270: b190 5da5 6758 b6bf c383 7ff9 66bf 7abf
00000280: fe17 9a4c 7351 b0bf 317c 5f61 81ee a3bf
00000290: eaca 717d 07bb b7bf 7f2d 299a 5f2b a43f
000002a0: 65f4 4a80 7254 a4bf ed20 fdb7 8191 883f
000002b0: 270f e429 3c31 babf 0a25 64a5 f4b1 983f
000002c0: 443d bb47 6a64 b53f 8e7d 25eb f261 a93f
000002d0: 81f8 6e4d c0c1 b2bf a283 216d e751 b9bf
000002e0: 35aa b132 9786 a1bf 323f 5017 089f ae3f
000002f0: 5cee 6843 588e b33f a9b0 8213 db97 a8bf
00000300: 1732 d912 113c 8ebf b12a 9d7f d351 843f
00000310: 27dd 9b58 31da b2bf a473 2b35 d268 8bbf
00000320: ac2a 2857 56cd b0bf b181 71fa cbc0 aabf
00000330: 9b83 229e a964 88bf 622c 1e9d 8180 a4bf
00000340: 3726 0e6c 4d62 b33f 71f2 d2dc 364c b7bf
00000350: 41d9 138b 1bd8 a1bf 4342 45ee 677b b03f
00000360: 51e0 0780 f0d9 b53f 1225 c5b3 e81f b3bf
00000370: 0731 5393 aeff 84bf ca47 4e91 742c 79bf
00000380: 2336 a2ab 5698 ae3f f7c7 8ec5 d3a8 a3bf
00000390: dcfa dc01 f30e a8bf 3e87 9f90 88b1 803f
000003a0: 5784 56d6 b14b 83bf 4e6c 84fc 1885 b6bf
000003b0: 6191 9784 4059 b93f 510d f34b 421c abbf
000003c0: 953d d657 5ed3 b63f 1ed9 ee04 370c 91bf
000003d0: dc58 d508 45b1 b2bf 556c 1cdf 9612 a73f
000003e0: bc26 8bc5 ac81 bf3f c49c a9a9 9324 9e3f
000003f0: b203 ba16 aa0f b1bf b051 1fe9 8c36 99bf
00000400: 0c69 faa4 f700 97bf 48fe d5d9 ac1b 9ebf
00000410: 7dd9 62d7 d4d3 8bbf 3fc8 e4bf b0fb 90bf
00000420: 9063 57fa fff6 b43f 4817 c3af 0293 a0bf
00000430: a4cc 06c3 20b8 bfbf 6b09 923a f9cf 7d3f
00000440: 486b c7ef 4582 c33f 8c4e f309 2755 b93f
00000450: 20e0 84fe 8487 8a3f d5fd ce1e dc08 b5bf
00000460: 458d 3155 9455 ae3f 8189 847d 8b18 a8bf
00000470: b650 39e1 55e7 b7bf bdcd c86d 33c2 bf3f
00000480: d176 624c f54e 853f 90fd 29f3 dfc4 ab3f
00000490: af59 429f 2c3c 763f 07da 85cb a1b8 c2bf
000004a0: 9b94 24d9 b80e af3f 77b0 9c70 5573 8dbf
000004b0: 5325 086d bbe9 b83f 7e74 b933 27ab b43f
000004c0: e4a7 4d23 1208 913f 2d65 fb61 2943 9fbf
000004d0: 334a e621 ef13 8d3f 8193 749b 2839 b33f
000004e0: 13e3 81c4 ba68 893f 7301 46d9 d6c5 a7bf
000004f0: f81b 28aa 602b 41bf bbda 4fc4 4fad acbf
00000500: 5265 499e 8fef a13f 212a 593b adb8 b13f
00000510: 5e95 e9e2 b8a4 9ebf be46 4678 6ba5 acbf
00000520: b063 34b0 77f0 aabf 257c cb6b fb52 a53f
00000530: 25aa be89 2862 a8bf ee77 4e6b 4f1f 93bf
00000540: 8b3b a213 6d8d a8bf 71fa 4de9 fadb a23f
00000550: 990f 4819 8d20 c43f 3716 9006 a5ee b43f
00000560: fa6a f5b8 7ff8 a5bf 6062 a233 88d7 a23f
00000570: 7850 868f 1b34 98bf dd41 2633 ee1d a1bf
00000580: b241 d9c0 59e9 b63f 18bc e758 86d6 60bf
00000590: 5c93 e4d6 2594 7dbf 9ed9 5b54 7b49 833f
000005a0: a0e1 3ac9 9e31 79bf 6ace 5e19 86eb 8fbf
000005b0: 3b37 d65d 9802 b5bf fc18 6112 e747 a1bf
000005c0: 05ee cc89 01c7 a43f bf36 4dc4 9f5d 773f
000005d0: eca1 3508 3a0e bd3f 7219 4d56 187d 863f
000005e0: dcc0 df39 562d aebf 8384 eb05 829c 91bf
000005f0: 3fe5 fcf2 bf98 7a3f b732 3dec 4d2b b93f
00000600: 7351 2d81 b3b0 a6bf 8147 7e28 1cb2 afbf
00000610: 8780 9dcd 34bf 953f b0de 926c 6bec bf3f
00000620: 9988 3a5e 794a 9b3f 5776 bb79 9e13 ae3f
00000630: de50 bdc9 3830 a2bf 8346 c1bd b2f2 a13f
00000640: 54e1 91b2 c5a2 913f e522 717f 3123 ac3f
00000650: 19be 311f 4501 873f e15d 4c0b 5a90 a5bf
00000660: b0c6 cef3 0925 b23f c7bd cf55 0101 853f
00000670: 101a 2992 15ed aa3f c044 656f 899d bc3f
00000680: c6f4 572d e3da c53f 3409 2adf 66fd abbf
00000690: dac1 8c66 5590 c2bf 14dc 7da5 7d65 a3bf
000006a0: 3613 6d4d 5280 72bf f82f 1d9b afbc b43f
000006b0: de22 0094 4a41 a53f 6013 c5d7 3aef bb3f
000006c0: 5c0a a0ef 841c a0bf 1e33 823e 1d31 aebf
000006d0: 9fa4 fe4f 5f28 783f 6d3f abc5 53a2 9cbf
000006e0: a0db 9a9e 69ff c4bf 398d 94fb 1473 92bf
000006f0: fdd9 0d0a b2e0 81bf 5793 df25 1585 80bf
00000700: 19bc 8d03 f7d3 aa3f 17b8 be9d 1caa af3f
00000710: a222 0b08 a11e 983f 3862 c5c6 24ee ac3f
00000720: 41e2 4b84 3503 b23f ee0b ae37 a881 9bbf
00000730: 771b 0cd4 cd25 6dbf 029f e72f 7d20 8c3f
00000740: e45b c7f4 d15a 943f 17ba 65c6 81b7 9b3f
00000750: 3de6 fe22 63b1 89bf 539f 132b c449 9c3f
00000760: 0527 7604 e284 b33f 31cc a17d 070c 9abf
00000770: ebf0 e7c4 9858 ab3f 7d80 065f d1f0 a13f
00000780: 533e 75b1 d9e6 8c3f 986a 01c3 3c0e b33f
00000790: 6a74 96ec 308b 973f 83dc 0aab eede 7b3f
000007a0: d22b 4566 40ca a5bf 3409 ed12 0392 8a3f
000007b0: 1a7e f3ff 81b8 b23f a5e5 30dd 5d99 663f
000007c0: c4c8 30bd 9dfb a53f 3bae 4572 af9a b23f
000007d0: 6e3d c8b4 7fa2 adbf e6dc a3fd c1e7 9b3f
000007e0: ee29 c932 082c 71bf 643b 66a2 775d b73f
000007f0: c8fd e8f4 6f60 aa3f 9854 de1f 68c1 993f

base.actor.actor_fc3.bias f8 [8]
-0.02601803096446389 -0.06581304175341786 -0.05584606660583009 -0.012380354180582144 0.0163623707843127 0.000550278867004408 -0.06152343443166163 0.022772192670616934
00000000: 670e 6580 78a4 9abf b930 fb9d 1fd9 b0bf
00000010: 8953 5d0b db97 acbf 4148 8c02 df5a 89bf
00000020: 2456 9d1d 4cc1 903f 4937 65de 1208 423f
00000030: 0fa7 a4e5 ff7f afbf e431 1dfb 9751 973f
