results/Ant-3d/cmorl-ipo/2/final/EP_policy_90.pt (torch, 105481 bytes, 13 tensors)

base.actor.actor_logstd f8 [1, 8]
-2.182722192595422 -2.293724163739261 -2.284026041035684 -2.330246334081371 -2.155191856010485 -2.26367489778178 -2.2254234381874367 -2.2288513088060893
00000000: 239b 8b0d 3776 01c0 cb70 ea0d 8c59 02c0
00000010: 58af eb71 af45 02c0 eb06 a430 58a4 02c0
00000020: 565d 513a d53d 01c0 b9fd b595 011c 02c0
00000030: a622 b6cd aacd 01c0 69c0 b7fe afd4 01c0

base.actor.actor_fc1.weight f8 [64, 27]
-0.03273511069264559 0.10615622934578495 0.20258556689964355 -0.19866768129452467 -0.0356996721502438 -0.4872233334360865 0.05582982641365809 -0.012188989982093834
-0.06222544351045994 0.06355115446351824 -0.061999397582364876 -0.09849952463973102 0.1484994348255587 -0.1462102157975928 0.03572648800519283 0.19077290037159308
-0.10341595480722011 -0.1502512084205658 -0.1740468914099953 0.1981507575642284 -0.036228852304681855 -0.022193854937813836 -0.03499666271980979 -0.16174369506306704
-0.16484723090604783 0.3780380448098422 -0.16812780715967293 -0.4329894766110128 -0.025491298721762545 -0.4061984235511195 0.06998956695855696 0.18716548151612789
-0.16267010312709618 0.15241287678926935 0.021713707269806953 0.03434333662179381 -0.012187451398612895 0.10697417802537677 0.12006354533525018 -0.07721244620036168
0.026083278478607346 -0.05052851613018204 -0.2785023291643722 0.00477602409888744 -0.024499115377177326 -0.169509179778111 -0.17255313129042002 0.013123855814467142
0.15562284317379263 -0.09816027178903866 -0.043246846805952976 -0.1424494935372817 -0.09843594094087371 -0.20385854155125477 -0.002742120174729698 0.09382380048510172
-0.007913913657248722 0.1869420714109019 -0.0327925585864531 -0.1113077212912126 0.17594854212694477 -0.13036792807680025 -0.07553468375517841 -0.250122303376182
0.18108143364583884 0.04052546674209787 0.06057526379589552 -0.3926284546958625 0.015590889975903414 0.054750390270644836 0.06395106791318016 0.1236967728824467
0.0865829614468044 -0.3419064481764398 0.035678995232348125 0.07275994982849555 -0.09145237876339374 -0.04631742707719947 0.1827458897589802 -0.08615382872659542
-0.1923401209569596 -0.30726383231089927 -0.012396955620503332 -0.2287914529009855 0.09247348239195743 -0.20009769773281894 -0.06915421667094855 0.12125194411731
-0.1806974462039166 0.13600948109372085 0.09012598329150179 -0.23402067174525007 0.10583400038846398 -0.044998456111794115 -0.034180207009508475 0.12114989549332467
-0.23685172617924735 -0.007332354257396377 -0.15141592618945432 -0.10536883933696199 0.0081673130402241 -0.29063916172488824 0.09231580089859673 0.22274961976972682
-0.28984546665746613 0.02832120830352223 -0.10811315784467038 -0.22544991665549702 -0.13542962673777678 -0.10066505375792624 -0.10139812776621962 -0.022028773051049624
-0.15402894354714558 -0.24361163425453536 0.07142336456812498 -0.27378470339885735 -0.04436011913790014 -0.003926308991164171 0.04089419462941565 0.23123217033264395
-0.10236910394812203 0.04908739442149611 0.09767832281187686 -0.0951214177237866 0.06590081992911502 -0.062346128665671935 -0.03474133735665603 -0.2194840565982869
-0.3546503154889178 -0.024406858677602956 0.14407516723146885 -0.3117126568234608 -0.18506366450918724 0.07149745294057658 0.1960052632332247 0.3314889362059745
-0.14094560430188066 0.0982922441444155 -0.08690217413774853 0.23669122448389504 0.03977418373006128 0.07179791726655188 -0.1651184206842532 -0.09077046959566158
-0.08636034001025802 0.07451094838824936 -0.2930027338834866 -0.017841586386507312 0.06930652542894965 -0.07663864990993402 -0.17354907630676178 -0.21010119158996707
-0.07625507679924398 -0.007547487435019758 -0.21049404496616592 -0.0633126335009533 -0.19432823438499716 -0.1089009382075748 -0.24201476575598266 0.030590169887836548
-0.1064597205321339 -0.07627208474783274 0.05653304444569563 0.20290154045560507 -0.18030111874762242 -0.15669549690400206 0.2380103106281095 -0.076475183549568
-0.2737436023723952 0.07318077442267841 0.23430318325310104 0.1692599302363571 0.10764882968696524 0.11187877995991224 0.06697990616103101 -0.14085087457376055
0.01852037133336736 -0.0675600248365989 -0.17167120668837726 -0.025815941383292414 0.13036746636803145 -0.19603318847609216 -0.13784357359829558 0.3659302606684003
-0.036512163959023756 -0.26980995851089223 0.0989889010840728 0.07246124049912393 -0.13828066401612432 0.093808383414271 -0.23387259066299868 -0.23036595360789347
-0.033055710766987906 -0.2570510507770006 -0.20345328936639095 0.06187235348561137 0.11941352019031376 -0.1304449703572141 -0.051465312665083016 -0.2081825906007118
0.13413582407150554 -0.01055239228675508 -0.24644836387736982 -0.012463006035274254 -0.0955997579496598 0.15941078547403204 0.10547155170014492 -0.13258926358516918
0.05636818719308068 0.11510205127403421 0.035552873404154334 0.0795105726202325 0.12530740646764008 0.18854222761190848 -0.31796835078119423 -0.187575418621606
-0.02468052729755553 -0.11857819363059553 -0.11716061532118127 -0.2254099670432334 0.01648597325462106 0.14525473883255538 -0.2395580353396469 0.07059460563760489
-0.22592995950803837 0.2979130325847968 -0.018565210167682006 -0.1949776244178983 -0.3309624667361301 -0.12662059420672078 0.0911014421762452 0.24592006746913797
0.2215212168221201 -0.006379727043828212 -0.15665830238085537 -0.11004559518666969 -0.08930649021748127 0.14882661452312493 -0.09422208878141973 0.034730625742062454
-0.15404949859407915 -0.09871130283708573 0.05520111683589364 0.4426325332107361 0.4914457185003917 0.3637249447805969 0.041536786473022703 0.12534926859632317
0.08087056950031417 0.09819395114166633 0.1010515893512599 0.014091391205059258 -0.01720738483018875 -0.0049620915623664824 0.0760014082901404 -0.21431180786032059
00000000: 5432 b60b a8c2 a0bf e08b 4efd 0d2d bb3f
00000010: 1be0 3ce8 52ee c93f 2e50 f74c f16d c9bf
00000020: dbf7 b938 3a47 a2bf a830 bdc6 aa2e dfbf
00000030: c210 2d1d ba95 ac3f 4042 c18a 8af6 88bf
00000040: e789 b669 03dc afbf 193a 0b72 e344 b03f
00000050: b6d5 f991 62be afbf faca ffcc 4337 b9bf
00000060: db6e 068c 0702 c33f b68b 982f 04b7 c2bf
00000070: 5e9e 2a03 be4a a23f 3b8f 0714 3f6b c83f
00000080: 8918 c8cf 7779 babf 57e7 2c7d 6e3b c3bf
00000090: 40c7 4925 2b47 c6bf 043f b507 015d c93f
000000a0: 3ef4 a38f 968c a2bf 4f33 8564 fcb9 96bf
000000b0: 4a92 b323 15eb a1bf 1fa6 5074 04b4 c4bf
000000c0: f9ef c9cc b619 c5bf 1188 c67b c631 d83f
000000d0: 4d45 a644 3685 c5bf fd9c 637e 19b6 dbbf
000000e0: f3c1 5e19 641a 9abf 23af 35ac 27ff d9bf
000000f0: b8f0 2515 d6ea b13f 68a3 06db 09f5 c73f
00000100: b4e1 7bba 5fd2 c4bf d64b a6e0 4382 c33f
00000110: a81b 653a 1e3c 963f 4493 4027 7395 a13f
00000120: 88d6 6d09 bcf5 88bf 7fae 22e4 a862 bb3f
00000130: 561e a808 7cbc be3f 9553 46e3 31c4 b3bf
00000140: 3bfe 2630 93b5 9a3f fecd 96a8 dfde a9bf
00000150: 47bb e76e fbd2 d1bf fc3d f434 0690 733f
00000160: a6ba 4dcd 4b16 99bf 1967 c20f 7ab2 c5bf
00000170: df7c db93 3816 c6bf 2b19 2a1c aee0 8a3f
00000180: ad92 f806 73eb c33f 52b3 1915 0821 b9bf
00000190: d895 5f61 7324 a6bf 8e85 09f6 c83b c2bf
000001a0: f08f 170b 1933 b9bf de87 7c64 0918 cabf
000001b0: 93fb 1b8f a476 66bf 3e81 ab2a d604 b83f
000001c0: d0e1 ba82 2b35 80bf b468 7ac1 b7ed c73f
000001d0: 6ba9 5cad 2fca a0bf 41f0 bcae a97e bcbf
000001e0: d467 1b59 7b85 c63f eac0 c471 e5af c0bf
000001f0: 9c33 71b4 3d56 b3bf 9e0e 40fa 0002 d0bf
00000200: 58f9 b529 ad2d c73f edf8 9f04 c1bf a43f
00000210: 125f e691 b803 af3f b074 1919 d320 d9bf
00000220: 820e 7fd4 1dee 8f3f 2ab2 4f3f 3e08 ac3f
00000230: f73b 3be1 185f b03f fd9d 267a 97aa bf3f
00000240: e50a ce0b 4d2a b63f a065 4d95 cbe1 d5bf
00000250: 97a9 5a6b 8444 a23f 49d4 f864 65a0 b23f
00000260: 5820 ee4f 6c69 b7bf 7518 10f5 eab6 a7bf
00000270: 8822 ffa1 3764 c73f 4b50 ce64 2d0e b6bf
00000280: 7b02 9ce0 999e c8bf 5236 c1eb 35aa d3bf
00000290: b121 ae37 9363 89bf 0533 e8cf 0949 cdbf
000002a0: 7ae5 9e96 57ac b73f 8c38 e225 cd9c c9bf
000002b0: e772 fb3a 17b4 b1bf 986d 8f0e 5e0a bf3f
000002c0: 3851 f50a 1821 c7bf be29 9f38 c268 c13f
000002d0: 70c0 c116 7f12 b73f 2bed ddad 63f4 cdbf
000002e0: 752a 79e2 ef17 bb3f 73c5 bda2 090a a7bf
000002f0: 997d 8d6e 1180 a1bf f8c1 0ef7 ad03 bf3f
00000300: 2973 f848 2851 cebf cbae cfdb 8708 7ebf
00000310: 88e3 89d9 9861 c3bf 3b40 f8c6 73f9 babf
00000320: ba4d 3b33 06ba 803f 60e5 a2ff d499 d2bf
00000330: 1276 c321 02a2 b73f abbf 0d3e 0f83 cc3f
00000340: e002 0c00 d48c d2bf 3a8e c91d 3c00 9d3f
00000350: 12cc 35cd 4dad bbbf aeec 75f9 8adb ccbf
00000360: 47c6 df0c c255 c1bf 3989 bd59 2fc5 b9bf
00000370: caac a14a 3af5 b9bf 1412 4def b58e 96bf
00000380: e011 966d 38b7 c3bf 1830 0681 aa2e cfbf
00000390: ac89 fd36 cd48 b23f cf8f cf46 b085 d1bf
000003a0: bc4c e399 5eb6 a6bf 636c 608b 0815 70bf
000003b0: 9c27 0f79 15f0 a43f b34f ae08 0499 cd3f
000003c0: 5ff8 9391 dc34 babf ce52 5fa3 fb21 a93f
000003d0: fa50 0152 7201 b93f 6ad7 4592 e059 b8bf
000003e0: c908 604a e0de b03f 2473 4def d4eb afbf
000003f0: 9943 88d7 9dc9 a1bf 8ea1 8ab6 0d18 ccbf
00000400: 7c9f a23c 97b2 d6bf 420a 468f 1cfe 98bf
00000410: c862 b619 0e71 c23f 1596 b3a4 19f3 d3bf
00000420: 1158 5f89 2ab0 c7bf 0488 2036 a84d b23f
00000430: f61c b751 b316 c93f 3464 ff5e 1d37 d53f
00000440: 99ea 7e6c 810a c2bf 77fb 0c36 ae29 b93f
00000450: 2478 df8b 383f b6bf 814a 34e6 e54b ce3f
00000460: b400 b124 485d a43f 4cac 942a 5961 b23f
00000470: 3c2c 67b4 9922 c5bf 271e 5bc6 bb3c b7bf
00000480: b6f7 0314 b61b b6bf 617f 8546 2613 b33f
00000490: 3bc3 ea89 8ec0 d2bf 36bd 2798 1045 92bf
000004a0: 17e2 1d8c 12be b13f cc06 f92e 979e b3bf
000004b0: d188 7e2b db36 c6bf 8761 5d89 98e4 cabf
000004c0: 7cb8 01e5 7385 b3bf 7cc2 343b 1dea 7ebf
000004d0: aaf3 9007 78f1 cabf 216b 4fba 4135 b0bf
000004e0: fdbd af61 bfdf c8bf b4f1 1a90 eee0 bbbf
000004f0: 0b18 0900 57fa cebf 3647 fd8c 0753 9f3f
00000500: 56dd 06ba f140 bbbf 67f5 963d 9186 b3bf
00000510: 513d 1332 e6f1 ac3f d54c 487c adf8 c93f
00000520: 1f04 3a68 1b14 c7bf 530b 5119 990e c4bf
00000530: 9017 2132 1f77 ce3f cc0d 4dac e093 b3bf
00000540: 416f ebe2 0385 d1bf 2d63 d7a8 f9bb b23f
00000550: 97db b58e a5fd cd3f f0b6 7134 4faa c53f
00000560: ea4b f5aa df8e bb3f e850 0b75 16a4 bc3f
00000570: 2166 735a 9825 b13f 6422 f4c5 6607 c2bf
00000580: 1d11 bf14 01f7 923f 04ad 3021 9d4b b1bf
00000590: 9a1a 3275 52f9 c5bf 92a7 d37f 7e6f 9abf
000005a0: 71ac 4192 e1af c03f d7bb b792 9d17 c9bf
000005b0: ecc2 48b4 dba4 c1bf 9000 8cc1 666b d73f
000005c0: bb6b 38ec b8b1 a2bf 1d1f fcfc 9044 d1bf
000005d0: d2b4 d22c 5657 b93f 27dc 2be2 d18c b23f
000005e0: 5228 cf48 2eb3 c1bf 38dc da82 d303 b83f
000005f0: 2b08 2a7c 89ef cdbf f0ca 6dae a17c cdbf
00000600: 3468 6199 adec a0bf 7956 1f40 8673 d0bf
00000610: a0cf 0be4 c10a cabf df97 7ead bbad af3f
00000620: 04ea ea6b e291 be3f 8753 ceb8 6bb2 c0bf
00000630: bec5 8c55 a959 aabf b101 1d25 baa5 cabf
00000640: d6f7 cdd8 5c2b c13f bd20 211e 7e9c 85bf
00000650: f9c4 80b7 9e8b cfbf b09c a65a 3486 89bf
00000660: d838 e6c9 3979 b8bf 46cd 1e97 9267 c43f
00000670: 0be3 3501 2f00 bb3f 4313 735b aff8 c0bf
00000680: 90e4 0e81 4adc ac3f 83ab ecf9 5377 bd3f
00000690: 7c6e 1979 fc33 a23f de12 170d ce5a b43f
000006a0: d9cf 5cb6 120a c03f 920a c1d6 2622 c83f
000006b0: 962b f1ec 9759 d4bf 0db4 41a8 7802 c8bf
000006c0: 9c38 5d26 da45 99bf 8983 a9f7 235b bebf
000006d0: a007 2ff3 3cfe bdbf ee51 52da 3bda ccbf
000006e0: d8a3 e2ef b2e1 903f f9fa 6f10 b597 c23f
000006f0: cf8e a373 d6a9 cebf c8ce 7cf2 7c12 b23f
00000700: 4706 a3dd 45eb ccbf a53f 00d3 0111 d33f
00000710: e8e2 0d2a c202 93bf 7acf 29dc 06f5 c8bf
00000720: 5f73 b532 7d2e d5bf 1419 8f87 1a35 c0bf
00000730: cbf1 c392 6c52 b73f 48e3 9a0b 4f7a cf3f
00000740: 3781 cfa6 ce5a cc3f 369e 2bf0 a021 7abf
00000750: 16b3 af16 610d c4bf 2146 65b8 f22b bcbf
00000760: f8fb cd46 cadc b6bf 2f5b 1321 c00c c33f
00000770: 7b83 e055 f01e b8bf 14ab 766b 36c8 a13f
00000780: 55a0 36db e4b7 c3bf 384b 6ed9 2445 b9bf
00000790: ba92 061f 5243 ac3f a749 9267 1754 dc3f
000007a0: 57fa 2dbe d873 df3f ca9c a4fd 4447 d73f
000007b0: 1d13 f746 4f44 a53f ea6f 99e0 710b c03f
000007c0: 6b76 3603 efb3 b43f d387 d120 3d23 b93f
000007d0: a7f4 7857 84de b93f 6106 0c83 f2db 8c3f
000007e0: b2a2 610c d09e 91bf f993 ae4f 2153 74bf
000007f0: 545c 0e0b d474 b33f 290f f4be 916e cbbf

base.actor.actor_fc1.bias f8 [64]
0.21092285148724557 0.004046968709909398 0.13069582982372227 0.06145579246149803 0.07883796597024424 -0.19181341659663567 -0.015825275117694812 0.02891581015593671
-0.05135043448452069 0.10121383955605369 0.021449360297760324 0.011642741175553709 -0.02687578667775941 -0.032006725131921765 -0.30626010527568615 -0.008006527864341011
0.19985729786445647 0.018511634389960414 -0.10202644408394913 -0.03965020791668444 0.06746365772573003 -0.012036781357610517 0.1068722354950344 -0.09543140145168069
-0.002186453632095041 -0.040326062117831976 -0.1919636492103642 -0.03734726485551025 0.0403584878459244 -0.10193619293222574 -0.05075709149371739 0.017855775554372684
0.10369373238945596 -0.018955011327007047 -0.05830713893113273 0.20394027274511078 0.05486679774858676 -0.036472844195112396 -0.164250220706362 -0.006062799468368707
-0.14258658659673262 -0.03759190659540465 -0.1920842894383974 0.06593653215436898 -0.07254388657239833 0.11159062616932529 0.10695772301045804 -0.04352525020909161
-0.08436676011856528 0.0041810948719572735 -0.19708560764827773 -0.05348373062511378 -0.02436915462083403 -0.03862107466066951 0.02881562259348375 -0.0030642013841696604
-0.1036074677695989 0.03690950848685434 -0.0786989571772105 -0.03530521559438937 -0.017320046871662425 -0.09417469193165598 -0.0004827691411421447 0.13451888047783445
00000000: cdf2 8e1e 85ff ca3f 06a8 1ce4 8d93 703f
00000010: 0b82 6815 a4ba c03f 2236 8b35 2277 af3f
00000020: fd7d 8695 b92e b43f b1b8 9b8f 578d c8bf
00000030: 7ca3 523c 8034 90bf 2510 d42b 1b9c 9d3f
00000040: 0e29 7ea9 9a4a aabf 49bc cb72 26e9 b93f
00000050: 3afa fe33 d2f6 953f 68a9 ad44 26d8 873f
00000060: 8e4b 5783 5385 9bbf 1828 637b 2f63 a0bf
00000070: 34a1 0efc c399 d3bf d6a4 a7fa b965 80bf
00000080: 43ee 1887 ec94 c93f 2599 33c1 b6f4 923f
00000090: a1f0 aab0 671e babf d842 9034 084d a4bf
000000a0: 87bd 995b 4c45 b13f 6e85 3d72 bda6 88bf
000000b0: 8d34 4d94 fa5b bb3f 1615 3f3c 316e b8bf
000000c0: 309c 025b 53e9 61bf 72f2 f11b 9ea5 a4bf
000000d0: e78d b0cd 4392 c8bf e686 4c42 2e1f a3bf
000000e0: ba19 d422 dea9 a43f 2d33 ec86 7d18 babf
000000f0: 7add 0260 d5fc a9bf 02f7 33d0 c848 923f
00000100: 1db3 6925 ac8b ba3f 1eae fa46 f168 93bf
00000110: 2343 aaed 6eda adbf 7287 e300 b71a ca3f
00000120: 76cf ee3b 8017 ac3f 4b2d 0592 91ac a2bf
00000130: adb5 25b7 2606 c5bf 5a87 0557 4ed5 78bf
00000140: a0ff 23fb 4640 c2bf 5cd5 d712 3f3f a3bf
00000150: e84d 9bce 3796 c8bf 6ef4 3671 37e1 b03f
00000160: 4a6a 5a74 3c92 b2bf 5bfa ef09 3491 bc3f
00000170: 7971 62d2 9461 bb3f 1283 650c f148 a6bf
00000180: aa26 945b 0f99 b5bf 78d3 c81b 3220 713f
00000190: 3b4a aee7 193a c9bf cd4d ce33 3862 abbf
000001a0: 89b6 8248 3af4 98bf ea38 3539 24c6 a3bf
000001b0: 918f 9cb2 d781 9d3f 48bd 7797 181a 69bf
000001c0: e419 b1dd 0486 babf 2c96 b997 cde5 a23f
000001d0: 3d30 4e67 9d25 b4bf e056 b674 8613 a2bf
000001e0: 9b12 84ab 58bc 91bf 1214 f525 d51b b8bf
000001f0: cc9b 37ac 85a3 3fbf fc64 2c28 ea37 c13f

base.actor.actor_fc2.weight f8 [64, 64]
0.05454159661205315 0.041348353837217224 0.025211477339730375 -0.34424853199352795 -0.21331517172198552 0.11747115557731738 -0.296864915193025 0.18411659127842012
-0.23285413410464945 -0.2571168111296147 0.011043208367817981 0.13111498408082836 0.07351445920424508 0.10927666536221675 -0.29075731724423337 -0.01848619558093876
-0.09275925820352172 0.05590334703120178 -0.1586894922199826 -0.03363266288119215 0.16571625730521738 -0.07982258771523107 -0.24846127429797837 0.15116479984417758
0.10497496787614344 0.1250734161390545 0.0011615820530866143 0.1216095385635889 -0.13812626718194584 0.005097915470950659 0.11394570429113865 -0.052768521934057816
0.07600733477099793 -0.12682623352082448 -0.01171274339627385 0.02311941617909695 -0.0020236484951654168 0.19215124288667793 -0.22285384282718942 0.2351766574921188
0.03928472313605627 -0.00631611145932132 -0.038262629577964835 0.3297888152544204 0.3390739148451881 0.25189062998464984 -0.18461605445492538 0.2836854945646934
0.08020112391373733 0.16294194828430955 -0.1349637044007146 -0.041723128693117374 -0.21126034938920593 -0.07446399497537726 -0.049045733459200894 0.44791169535534353
-0.04027067909167045 -0.003933758121588827 0.09404423225666335 -0.050675096544996134 0.3414263100758668 -0.2883580052070789 0.05207134463242362 -0.03984862670464055
0.08151801658877489 0.2385420970798189 -0.07536607832399801 0.00397305821501715 0.3127218494082166 0.1265596052395393 0.011358115992025426 -0.22913232036463127
0.014694729158350663 0.09237306573501076 0.22855846844256364 0.07297725153407436 0.3717841332131481 0.14837843891694955 -0.000953884966420761 -0.09724889198326529
-0.09134743221956833 -0.11402725508852461 -0.09911760165036132 -0.13475042155040765 -0.19340234652527255 -0.2170991106379048 -0.12873521837735605 -0.23912929094478255
-0.20741926670638589 0.0560901442395561 -0.0794332969702394 0.3483215912899785 0.17562560795248666 0.21811145030720222 -0.0072245251528685606 -0.19426353814792138
0.18387103491641094 -0.15441719498555317 0.17224065259026278 -0.30875151173984744 0.13282818161791063 0.35417918016132505 0.18904422016012534 -0.16965102418011907
0.1290313529451112 0.04586096100020407 -0.1082707649062559 -0.3216678131030003 -0.03017073275659152 -0.05266793435156459 -0.031318010151369105 0.22270011499315165
-0.25805330750040795 0.004429936228619576 0.21033867947299842 0.16367264102321752 -0.02112553513723913 0.09041876185691661 0.15975326306151083 0.1805967338146552
-0.07450249977915702 0.14675252719461152 0.17626706880229737 -0.060759886665284146 -0.10762082454241274 0.17191121237836215 0.3198767414172735 -0.06479542096205985
-0.10589535329908437 -0.3436195771249258 0.059734772201484355 -0.0691459181755648 0.027152890284787422 -0.21685810909999476 0.11849669256069724 0.14007616024709701
0.055613115012804935 0.1366053006215271 0.018265170010393184 0.20008137618621505 -0.15241360648378424 -0.03289700985102089 0.2111828939806989 -0.24078774302543954
-0.28876995098406577 -0.09087748818869747 0.07162012304377327 -0.10677415254153502 0.00864771919222568 0.029974760995875118 -0.15633196781146239 -0.26031252201177674
-0.014349776196708972 0.26808495769035434 0.17144882533977504 0.06972707337105993 0.09518947663345552 0.13356695722456088 0.18817206410060952 -0.2422499541411817
-0.13166267371647974 0.13552700062911632 -0.08884372613024322 0.11156447788199769 0.06551320571898707 -0.16891773862550927 -0.1658212053830872 0.14521181958209867
0.17994955356157938 -0.27581406016702165 -0.11438008436745448 0.2386842403327277 0.2159199268066263 0.04412324958664413 -0.14291629337620726 -0.02266768444338653
-0.1640740708513574 0.16242345265962843 -0.3593503810278392 -0.02342969823386863 -0.13422487913003336 0.02916836357265846 -0.03870084174586784 0.14540731817254354
-0.06598482714428938 -0.1351232386845373 -0.11328864260009774 -0.23182426156696787 0.17579982602677022 -0.04449821544079787 -0.31721407216515174 -0.20008418528415356
-0.09826308093745063 -0.17939616168337488 -0.2711397042268196 -0.22091968692178854 0.08078034824086386 -0.04902758050238988 -0.109223424409522 -0.14035863221853664
0.10103056270304143 0.13813278438035081 0.3390114521895108 0.03032161640605094 0.020433526068759932 -0.04651236355455059 0.3870566075976942 0.09349453293633254
-0.205537191860323 -0.19779010296671054 -0.21443650289590596 0.11135908398069418 -0.2707503293810848 0.13097786338036702 -0.09046249302699162 0.02073330264633133
0.07070927857216772 0.0016083732635074678 0.017649017147515687 -0.0958765951346229 0.07909260685730131 -0.37337845965396477 -0.24567884753272404 -0.025550167975737028
-0.10558863788385356 -0.08986072363885322 0.18464710582315477 -0.15352884474600031 -0.22532372440637807 -0.08386911757223538 -0.030013070864140623 0.04442509075498135
0.16303027450313531 -0.18724162683701895 0.056469681543239426 -0.20111483997616467 0.04639071567252437 0.11881291230785204 0.1996600781974206 0.06449700520740997
0.14036673129107585 -0.16149569892313753 0.13154646669624392 0.29911954113614425 0.1610971147749171 -0.17802851988263485 0.30860765542424545 0.19448082095432784
-0.004423260376860059 -0.07422056274094271 0.13768300560459779 0.18356367478769856 -0.0854647572370225 0.07812119109306871 -0.19524150345427888 0.020711292795850173
00000000: 4fd7 704b e0ec ab3f 5dd5 f286 9c2b a53f
00000010: 5bc7 a19a 09d1 993f f3ec a6fe 2a08 d6bf
00000020: bbad 245b e94d cbbf 428b 6df3 9612 be3f
00000030: e55d 85b3 d5ff d2bf 568d 18e9 2191 c73f
00000040: 16e3 5b0d 2ace cdbf 9c6c c311 9a74 d0bf
00000050: e7f3 4256 d29d 863f 9944 5234 60c8 c03f
00000060: 5bbb 10f6 d7d1 b23f 1c58 f237 8ef9 bb3f
00000070: 5abf 2894 c49b d2bf 7a55 ca95 0bee 92bf
00000080: 01a6 621c 12bf b7bf 7cce 780e 5d9f ac3f
00000090: b7de a6f1 ef4f c4bf cfe1 4de6 4c38 a1bf
000000a0: 924d c5b8 3036 c53f f610 b8cb 406f b4bf
000000b0: b055 b73b 94cd cfbf 6e8d d13f 5e59 c33f
000000c0: 563b edb5 a3df ba3f 4747 f5db 6702 c03f
000000d0: 8704 7f3b 0708 533f cf23 037f cd21 bf3f
000000e0: 07ec 211c 1fae c1bf adab 9b43 8de1 743f
000000f0: 8c3b 73b1 8b2b bd3f 5419 eec7 7904 abbf
00000100: adf9 1879 3775 b33f 2597 9f8e d73b c0bf
00000110: 93e0 aace d9fc 87bf 1c3d 91c1 9dac 973f
00000120: ace7 5e03 e693 60bf a3c1 0a74 6998 c83f
00000130: ab87 5d87 7986 ccbf 080a 5bca 441a ce3f
00000140: 041c 3492 201d a43f 04a6 7d42 ecde 79bf
00000150: 3884 64cd 2897 a3bf 34ad 068c 421b d53f
00000160: 12f4 cb13 63b3 d53f 72fc 7ce0 f91e d03f
00000170: a9a8 19b6 7fa1 c7bf 0051 6034 e727 d23f
00000180: a7db 4f94 0f88 b43f 7989 8321 48db c43f
00000190: 8027 469c 7d46 c1bf d58d 72e2 bb5c a5bf
000001a0: e5b9 c841 940a cbbf b814 2687 1210 b3bf
000001b0: 3a63 6eba 851c a9bf f103 c3d0 95aa dc3f
000001c0: 7c74 5fc3 5b9e a4bf 1bb9 b827 d81c 70bf
000001d0: d777 eb65 4813 b83f 10ca c314 16f2 a9bf
000001e0: 7544 f1bc edd9 d53f 70de 7922 7574 d2bf
000001f0: f68f 8264 18a9 aa3f a650 f908 0a67 a4bf
00000200: 4898 485f 5dde b43f 89aa d624 8c88 ce3f
00000210: d11c a1f9 304b b3bf 86e0 93b1 0d46 703f
00000220: c3fc fc80 a203 d43f 92ce bfea 1a33 c03f
00000230: 4ae2 d685 ec42 873f 941a 3637 3554 cdbf
00000240: 3401 4529 4518 8e3f 0df6 5ce0 c2a5 b73f
00000250: e7a2 9765 6741 cd3f 44d9 b01c a3ae b23f
00000260: 939e 54ad 4fcb d73f ef37 4a8f 10fe c23f
00000270: dcf6 115e c441 4fbf b3ee a3aa 4de5 b8bf
00000280: 39e5 f499 8b62 b7bf 7f36 75e3 e330 bdbf
00000290: 88d7 8b69 c55f b9bf 0932 d776 803f c1bf
000002a0: a8d9 a578 68c1 c8bf 311a 1756 e7c9 cbbf
000002b0: c117 6348 657a c0bf 2dcf 0fe2 c99b cebf
000002c0: a838 88eb b68c cabf c70c 46ee d8b7 ac3f
000002d0: c25c b394 bd55 b4bf 5631 c5a4 e64a d63f
000002e0: 7e7e 3f61 e67a c63f 93ed f974 13eb cb3f
000002f0: a0d3 2bb4 7697 7dbf e745 93ab a0dd c8bf
00000300: 7ee6 d208 1689 c73f b495 3351 f1c3 c3bf
00000310: 345c f550 fb0b c63f 59d8 60b3 95c2 d3bf
00000320: 179e 048c 8300 c13f 0de3 ed26 dfaa d63f
00000330: b4f3 8adb 9932 c83f fa12 4bf0 1fb7 c5bf
00000340: ce68 8770 1984 c03f 7d69 517f 167b a73f
00000350: 4aa1 6202 a2b7 bbbf aa01 5d98 3496 d4bf
00000360: 1994 f199 13e5 9ebf 01fa 2c9f 4af7 aabf
00000370: 6a79 c00a ea08 a0bf e302 5bf7 6f81 cc3f
00000380: 45b0 1505 f283 d0bf 2fc6 9af3 1f25 723f
00000390: 2fce b5ba 60ec ca3f dbea 38a0 39f3 c43f
000003a0: 1e8a 19aa eea1 95bf f4c9 1e19 af25 b73f
000003b0: 08a5 2380 cb72 c43f 4fca bf34 cb1d c73f
000003c0: e08f 0588 9812 b3bf 98fe 736c c9c8 c23f
000003d0: 200f ef57 eb8f c63f e8a9 457c eb1b afbf
000003e0: 3939 c7d1 098d bbbf 108a 7dc5 2f01 c63f
000003f0: e6d8 c84b dc78 d43f f36c f6c5 6e96 b0bf
00000400: 76ca 3737 f51b bbbf fd14 81f7 dcfd d5bf
00000410: 4d2a 145a 8e95 ae3f 0748 3701 8cb3 b1bf
00000420: 2666 0f9f f7cd 9b3f f67a 3aab 01c2 cbbf
00000430: 057c 3b9b cc55 be3f e0f2 9aff 03ee c13f
00000440: 9bd8 6a7c 5279 ac3f 409a 5051 487c c13f
00000450: 60ee 66cf 1ab4 923f 7115 a13b 449c c93f
00000460: 2119 a8ff 4982 c3bf a784 e47a e0d7 a0bf
00000470: 1495 8f83 0a08 cb3f 8234 c9fc 21d2 cebf
00000480: 4cd2 e2f5 347b d2bf 898c b63f bf43 b7bf
00000490: 6660 3546 b255 b23f 9a58 3905 8d55 bbbf
000004a0: 21c0 ec38 e5b5 813f b715 bb28 b4b1 9e3f
000004b0: 33e7 8898 af02 c4bf 3fe9 31da f5a8 d0bf
000004c0: 451e c25b 6a63 8dbf 6c18 75cf 4d28 d13f
000004d0: 41cf e2fc 08f2 c53f 4c45 c62b a2d9 b13f
000004e0: 6d65 1069 565e b83f 3b88 8dd8 b818 c13f
000004f0: 919d aaae 0516 c83f 4d37 3fe7 0b02 cfbf
00000500: 6bac db8e 52da c0bf caa8 b6e1 f258 c13f
00000510: 1c26 2f62 76be b6bf cc03 e657 7d8f bc3f
00000520: 4de8 0434 79c5 b03f f32f 8eb1 189f c5bf
00000530: b044 0d17 a139 c5bf 9a83 0c08 4d96 c23f
00000540: 4007 bd43 9608 c73f f96f 0c04 f0a6 d1bf
00000550: 1e04 ac61 0348 bdbf 935b 2687 348d ce3f
00000560: d836 18a0 43a3 cb3f 3d8e ef93 5297 a63f
00000570: 9ce4 0ec3 144b c2bf e40a 718d 3236 97bf
00000580: 2cce 3610 6100 c5bf a064 a3ac 4aca c43f
00000590: 1a76 94bd 98ff d6bf 7caf ad6e f4fd 97bf
000005a0: 6126 16e5 472e c1bf f357 7dbe 4fde 9d3f
000005b0: de99 40c3 98d0 a3bf d237 13fe b49c c23f
000005c0: 84ef 9db2 61e4 b0bf 4633 8ae1 b74b c1bf
000005d0: 58c4 f906 7c00 bdbf a7bb ecda 6aac cdbf
000005e0: 43b7 b6d3 9b80 c63f abe0 1858 78c8 a6bf
000005f0: 9cf0 7140 3c4d d4bf da01 1fcc 5b9c c9bf
00000600: 39d2 07ef c427 b9bf 83a0 ba13 74f6 c6bf
00000610: 8d48 9358 5a5a d1bf ec91 2fa7 1847 ccbf
00000620: d69f da59 05ae b43f 0234 b89d 241a a9bf
00000630: 4dc8 cbfb 10f6 bbbf 1182 8b8b 45f7 c1bf
00000640: 0fbf b492 23dd b93f a8a2 b5c7 55ae c13f
00000650: 0ee6 0717 5db2 d53f 88aa 4d3b a10c 9f3f
00000660: 2343 d4b8 86ec 943f 6225 a7f0 77d0 a7bf
00000670: a04c d513 89c5 d83f ddfb 50f9 41ef b73f
00000680: 066d 93ee 0a4f cabf 8d74 dba3 2f51 c9bf
00000690: d3d5 80c3 a772 cbbf e141 cf67 0782 bc3f
000006a0: d2ab 8430 f953 d1bf 25fc dbf3 e1c3 c03f
000006b0: 59c8 10c9 8c28 b7bf 605c 3763 1c3b 953f
000006c0: 32c0 fdd6 001a b23f 9af3 41a4 015a 5a3f
000006d0: c90b d27d 9512 923f fa16 8e58 5e8b b8bf
000006e0: f5b7 cebf 693f b43f 16a8 4fc4 6ee5 d7bf
000006f0: 276b bc8b 6772 cfbf b7cf 73bf d229 9abf
00000700: 9253 8a62 db07 bbbf e848 39c5 1c01 b7bf
00000710: 43df 6730 84a2 c73f 2e9f 964b d5a6 c3bf
00000720: c54d ab65 68d7 ccbf 39fc 1d4d 7278 b5bf
00000730: 008d 4117 bfbb 9ebf 4f36 d4af e2be a63f
00000740: efda 9f10 2dde c43f a07f db9b 88f7 c7bf
00000750: f532 e316 98e9 ac3f 210d 388e 21be c9bf
00000760: ec94 4d1d 86c0 a73f de69 b4e4 856a be3f
00000770: 5c5d 1621 768e c93f c846 0e30 e082 b03f
00000780: 3eb9 2b7c 89f7 c13f a0e6 a81c e4ab c4bf
00000790: 2caf 2ebe 83d6 c03f 948d b149 c624 d33f
000007a0: d517 b88b d49e c43f 9a5a 5377 a3c9 c6bf
000007b0: 69e9 d552 3ac0 d33f 585a d95e bfe4 c83f
000007c0: a49d 90ea 1f1e 72bf a2be a969 1e00 b3bf
000007d0: a4b3 24c3 989f c13f f12e f9b5 037f c73f
000007e0: c728 4bb1 04e1 b5bf 398a de18 c0ff b33f
000007f0: 4e39 1470 acfd c8bf 053e dd54 5735 953f

base.actor.actor_fc2.bias f8 [64]
-0.021404633494077032 -0.17750066492049443 -0.040048162540516304 0.010288916421214147 -0.01714695819942633 0.0011152164296637404 0.12219961236229032 0.11578375379534826
-0.15279023018691093 0.10492917794025416 -0.054522686651618725 -0.04405045748792287 0.08320130910396648 0.02245058537890557 -0.02765835902688765 0.05515672832807401
-0.004097869310060714 0.14291217980237136 -0.02564544979971699 -0.14365581211938375 0.146613693989235 0.011453903920727579 -0.004737447623321184 0.0722942338826999
-0.030749107823495343 -0.0829737135173339 -0.02528577109531945 -0.19982635223851303 0.08855523061134704 0.029545277955357618 -0.044111786272754236 0.039614124693185204
0.1457962214097517 0.11118464618177147 0.04063240669536251 0.027373494413463453 -0.019512643205253616 0.027934172588542402 -0.024700043863454802 0.11095431301565323
0.012773015213988718 0.16413990808505874 -0.035571226774399715 -0.006997314484965337 -0.08325727961656197 -0.10328605321713688 0.0450299683855672 0.02984163177589842
0.02612528709886567 0.07517201620538609 -0.19536214669795562 0.05424793782897735 0.02972002494234006 0.08182970905241767 -0.03573954027517239 -0.06827274005096581
0.059676056321551166 -0.05357621640630119 0.0012406977455033767 0.06751456335426072 0.07571607206871178 0.001290983981958108 -0.028912222861406007 0.015062439576704344
00000000: d715 5ca3 18eb 95bf 1007 6d7f 57b8 c6bf
00000010: c9b8 c058 3181 a4bf 1bb9 52fc 5a12 853f
00000020: 7908 c5e2 f88e 91bf 4ebc f985 8e45 523f
00000030: dc0e ae4a 7948 bf3f fb89 f50b 01a4 bd3f
00000040: 438a e658 a18e c3bf 5249 a67b a3dc ba3f
00000050: 8d15 1ec8 65ea abbf aaa5 9114 c88d a6bf
00000060: 0eff 9555 ae4c b53f 28f0 e947 49fd 963f
00000070: a710 ed0d 7952 9cbf 3999 a5b0 803d ac3f
00000080: 6c4a b86a edc8 70bf c8c2 3941 f24a c23f
00000090: 8d56 b900 cd42 9abf f56e 774b 5063 c2bf
000000a0: 952d 6ace 3cc4 c23f 1827 02f6 2475 873f
000000b0: 8724 bde9 9267 73bf ac2f 37fa df81 b23f
000000c0: 35af eeb1 b17c 9fbf 3410 fce9 c33d b5bf
000000d0: 1558 a25f 83e4 99bf 6627 dfef e893 c9bf
000000e0: ae8f 5d3b 8eab b63f 9328 470a 1e41 9e3f
000000f0: deb9 d1ee d195 a6bf a8a6 0874 4d48 a43f
00000100: c1e9 6a59 73a9 c23f a704 2bd3 9876 bc3f
00000110: 2126 d453 c5cd a43f 97db 211d cc07 9c3f
00000120: 6848 b351 1ffb 93bf ac9d d596 c69a 9c3f
00000130: 7dc8 69e2 f74a 99bf d49b c079 8067 bc3f
00000140: a252 ec14 bd28 8a3f 90cd 9858 8902 c53f
00000150: 3f6b 594f 6436 a2bf 11cc f64d 37a9 7cbf
00000160: 5b68 1b5d 5950 b5bf 2e55 b36c f470 babf
00000170: 35a2 1c03 2b0e a73f eba3 2502 ce8e 9e3f
00000180: aac1 c056 96c0 9a3f 1b30 2d27 793e b33f
00000190: 69d7 7877 a001 c9bf 07a9 b3bd 62c6 ab3f
000001a0: 2395 a71c ed6e 9e3f 05a9 38b4 caf2 b43f
000001b0: 67d7 4ff9 734c a2bf 462a ba81 527a b1bf
000001c0: d2b8 822c dc8d ae3f 63f1 9d82 576e abbf
000001d0: b021 6f0f dd53 543f a53a 9c69 a248 b13f
000001e0: 0013 51e5 2062 b33f 42df db7e c726 553f
000001f0: 35de 936e 2a9b 9dbf 2614 0a6b 0ed9 8e3f

base.actor.actor_fc3.weight f8 [8, 64]
0.09258798395722591 -0.1661330554723886 -0.018001711988786893 -0.007209399369871419 -0.03587699261711192 -0.023050246887431677 0.039205917719218324 -0.054096939099021385
0.018579147450822658 0.008532276523701535 0.0360874874649398 -0.0056819138547367426 -0.08371321379668652 0.08915380171985565 -0.009628619263498579 -0.020563727620248558
-0.019376720655061914 -0.01535396262979324 0.025534704797695828 0.09118768860549353 -0.1079625494844922 0.04764433925831597 0.0142175586235371 -0.05667469795999017
-0.05860328697006739 0.0799122081989364 -0.04875494320270908 0.06593409992638 -0.08834118832964517 -0.0040177531060223365 0.09092836714994754 0.007948152915718173
0.03556067321506669 0.050068558429739306 0.010631636426193759 -0.02418454356324654 -0.029615781755576956 -0.07467397325788715 -0.01613629547957127 -0.031197739984169665
-0.0055642693512308475 -0.05328240827854083 -0.032009099700703994 0.07461004054510724 0.0952131862662041 0.02915918283406042 -0.03326359987078537 0.0020302573544209064
-0.029233272751291735 -0.054898706366973714 -0.0059822876497984895 -0.0028103888071670967 -0.11497807590047354 0.03115424189826889 0.13160866234136503 0.1035679855893774
-0.012693286335592698 -0.08341422995647825 0.016261797233448984 0.04153275167752699 -0.0655379896665846 -0.0013289652323204108 0.10018935685558442 -0.03513590123923222
0.022243560180875924 0.03750462846485872 -0.025632186876170027 0.047402838903409454 -0.009914487275123384 -0.05714949500554996 0.01814089043770941 -0.03522088743143496
-0.011349892531559895 0.04544335801911814 0.019892524733359045 0.020761214420891017 0.010705819036219442 0.013492021989231724 -0.0315767340583384 0.02737265772098816
0.06173171549083471 -0.002902526203474683 -0.046259990388960774 -0.007891556599456052 -0.034778842131956915 0.033933978457017296 0.005996102688881868 0.01980161108969025
0.05223113005868774 0.028318531544864488 -0.04199577669417538 -0.07623759166013531 -0.00802651319537247 0.13863281016838372 -0.012562246315982805 -0.019700334004422577
0.0770405844216293 0.01726114108283138 -0.015935932070541767 0.05869625902312128 -0.016663121468456173 0.01583198856120711 0.08902351871972873 -0.11034132534403233
0.05570003928401128 -0.0472702091765785 -0.05432119901567446 0.05331273021175232 0.0018136691163018167 -0.034602153519776205 0.06508263026392369 -0.1150245732719048
-0.031146701427838257 0.027775217605684955 0.06181222097041856 0.11603145448609115 0.05583636211565843 -0.04449525299574697 -0.020708356334365293 0.016179401894133208
-0.02194075045247422 -0.019507719974978223 -0.07487826749534193 -0.05707020633274189 -0.016780475444445796 0.060669050723010674 0.02903619183623672 -0.013520722325640947
0.05587584992006639 -0.07773466522059758 0.056958205164085625 0.025604328898710945 0.03226734558004835 -0.050664361872477456 -0.12080829776567555 -0.07470421818383217
-0.024197772679444517 -0.012163006675793304 0.09369777452770432 0.10780809798229009 -0.02715130123907133 -0.13594856087026655 0.06956312420733507 -0.12783711424785024
-0.02130824450222982 -0.017656779376424552 -0.009291541910044495 -0.04018917397070847 -0.020216026245094307 0.019168887102823565 -0.021846145537647906 -0.015652886055684254
-0.020222001418727032 -0.09302943339415926 0.07213450044929928 0.022751967536093046 0.04771409481895227 -0.01668654711772703 0.02485834718046779 0.005318393668131518
0.023314603627160115 -0.04148434894587642 0.029876373014055966 -0.10922920232436498 0.006379887127974009 -0.013076983903585283 0.011921748440005545 0.03727695153805119
-0.1150204836270074 -0.07597004051365013 -0.012263899357857008 0.06570089285747041 0.07927373428554073 -0.048793434300472525 0.015921127780774 -0.05087673880070216
-0.002982799326981218 -0.0441298676523956 -0.04887935633028679 0.08020972896911167 -0.03949857652028323 0.10688218676327381 -0.06391615836865984 -0.05954531205201516
0.030391681305777955 0.016782702308108993 0.05688660532148243 -0.08804871486355263 -0.02156221020193244 -0.053347941595359195 -0.12052685069347795 0.03029921063145767
0.06390940600765868 -0.014475416178894304 0.05228435664087449 -0.03666798492272097 -0.033529676620841824 0.02035334667726678 -0.07458764379608054 -0.02121919622244506
0.05910413275770885 0.06586678699432032 0.12739629958893306 -0.028782305230688306 -0.014316253430613973 -0.053278654918490945 0.03725097441393191 0.06673668387077744
-0.014352870942316015 -0.03529163136799673 -0.01717543349867308 0.06705434578325042 0.009295323772888404 -0.015405688044649172 0.04349270910522073 0.02197637132010556
-0.016525536722572412 -0.015438796061376004 -0.06023360177683157 0.05683090229188141 -0.0818741231825227 -0.03217977841341441 0.0028195373234879335 -0.031950640162779716
-0.05209771945033024 -0.002635662693577841 -0.0734137873880525 -0.006568906977987034 0.031895253747367514 0.025302377038345484 0.015368699771156154 -0.01031507533216371
0.04902201547464796 -0.05106160057943564 0.03224161942260994 -0.020926368532663334 0.04106146652333259 0.013577741391564207 -0.04217206850709631 0.0003069930448642878
-0.12060825620754935 0.06636913708517357 -0.011023138704349218 -0.03439460798614763 -0.06553091384171329 0.045169104996786 -0.07197014070528593 -0.027763538348679447
-0.05056527182347842 0.04630561586418475 0.01286355753386495 0.10653477471722923 -0.018747330120329513 0.013393826308900134 -0.041282289890144604 0.006192227811518035
00000000: c14e 199b d8b3 b73f 5aec 0414 d943 c5bf
00000010: e92e 0e71 0a6f 92bf 0346 4768 9a87 7dbf
00000020: e94b f01b 785e a2bf cf5a 2fe2 7b9a 97bf
00000030: bfd1 d34c cc12 a43f a4ed 7c10 98b2 abbf
00000040: 9b60 c17a 6906 933f 22ae 09c5 5e79 813f
00000050: 0bd8 e924 0f7a a23f a7df f422 eb45 77bf
00000060: 81f4 7fab 3a6e b5bf d06a b396 c8d2 b63f
00000070: 4a28 bd66 2bb8 83bf f286 7366 a80e 95bf
00000080: c2a1 11b6 7dd7 93bf ae2a dffa e571 8fbf
00000090: a393 1308 c525 9a3f d8c1 5b8c 1358 b73f
000000a0: 7d8a 3a03 6fa3 bbbf 2972 e8bd d664 a83f
000000b0: ef53 896a 181e 8d3f 6467 7f4c 7704 adbf
000000c0: 38f7 f201 4001 aebf b7fc c360 2075 b43f
000000d0: cadf 256d 68f6 a8bf e0ff dfa2 0ee1 b03f
000000e0: 8dfe c332 879d b6bf d9ac 1963 eb74 70bf
000000f0: 760d 30db 1447 b73f 0b64 b106 1f47 803f
00000100: 4a04 f730 0235 a23f fbf5 060a 96a2 a93f
00000110: 6718 0716 0ac6 853f a9fa b03e d5c3 98bf
00000120: 94bb 5778 9953 9ebf ef47 0161 d51d b3bf
00000130: 5912 7475 0886 90bf 08b5 c3e3 4cf2 9fbf
00000140: 5118 3c2e 8fca 76bf e453 04f2 d447 abbf
00000150: 7221 c728 7f63 a0bf 292f 18c4 a419 b33f
00000160: 274b 2931 e45f b83f abfb 99a2 e7db 9d3f
00000170: c93b 2f33 ed07 a1bf 6808 121e c2a1 603f
00000180: 62f8 afb9 53ef 9dbf 23b2 e0e8 ae1b acbf
00000190: 9977 fa1c e280 78bf e6a7 8100 d005 67bf
000001a0: d4e1 bf03 346f bdbf 84c5 56c8 e5e6 9f3f
000001b0: 2830 507a 8dd8 c03f 8fdb 0477 6e83 ba3f
000001c0: 2465 850d f0fe 89bf 0521 af8d a25a b5bf
000001d0: dad9 2abd eea6 903f bdf2 55e4 c743 a53f
000001e0: 1d79 4302 19c7 b0bf 302a 768d 15c6 55bf
000001f0: 3a1d 1a7b 02a6 b93f 99d9 7935 55fd a1bf
00000200: 8108 180e 04c7 963f d40f 6981 ce33 a33f
00000210: 90b4 6ef1 523f 9abf 4fc8 a755 2f45 a83f
00000220: 997b d3f4 0b4e 84bf da41 10d8 b242 adbf
00000230: 46e3 998c 8693 923f 95e7 4edf 7808 a2bf
00000240: 29aa e3c9 9c3e 87bf 906a 0611 5a44 a73f
00000250: 8b99 a8bc b45e 943f f014 da83 6d42 953f
00000260: ec82 19b5 eeec 853f 44f5 9a89 b4a1 8b3f
00000270: c2aa 3060 d32a a0bf 9a6f ddf6 9307 9c3f
00000280: 1677 51a6 4c9b af3f 5ea3 d4e3 09c7 67bf
00000290: cfef aab3 63af a7bf bad5 12cc 7229 80bf
000002a0: 4f58 194b 88ce a1bf b161 645f cb5f a13f
000002b0: 9c3b 3c8f 5e8f 783f 1f40 27a0 df46 943f
000002c0: c1d0 dee6 09be aa3f d67a 6c7b 88ff 9c3f
000002d0: da75 f16e 7880 a5bf 17f5 e78a 4e84 b3bf
000002e0: ea79 665d 3470 80bf 4db3 e94c b8be c13f
000002f0: 4646 bb28 3cba 89bf f5bb 1309 532c 94bf
00000300: 6f3d 8e86 eeb8 b33f 3e05 c591 e7ac 913f
00000310: 5c09 4c4c 8251 90bf 64bf cda1 6f0d ae3f
00000320: 2272 0627 2310 91bf 9374 67c4 4236 903f
00000330: 4be0 79cd 3eca b63f 6bfa bf3f 543f bcbf
00000340: 66b3 382e b784 ac3f 8b1a fa04 cd33 a8bf
00000350: c2ef 80fa fccf abbf f19c 7061 ce4b ab3f
00000360: f4f8 9362 14b7 5d3f 1a2b 7a9b 5fb7 a1bf
00000370: 286e 8558 41a9 b03f 8c6e 701c 4072 bdbf
00000380: 1e1a 0bc0 ebe4 9fbf 4dd6 054d 1b71 9c3f
00000390: f944 1ff7 d9a5 af3f 0c38 53c6 3cb4 bd3f
000003a0: 6cc1 6d6a 9596 ac3f 4051 e3f0 14c8 a6bf
000003b0: bf0d d744 9234 95bf f43d 0448 5591 903f
000003c0: fc81 92d6 a277 96bf fa8b 3fed d4f9 93bf
000003d0: a4d9 12de 382b b3bf b6d9 8c5b 4e38 adbf
000003e0: 761c fba4 e62e 91bf 132a 7889 0310 af3f
000003f0: 7c1b 59d9 a9bb 9d3f 42c8 a7a1 c0b0 8bbf
00000400: 98f5 1568 c29b ac3f 5852 e344 6be6 b3bf
00000410: 8953 d638 a029 ad3f 8f22 066d 0538 9a3f
00000420: 9975 fd73 5885 a03f ae47 a1e2 adf0 a9bf
00000430: 852f fde7 4aed bebf ed09 f9cd d01f b3bf
00000440: 9351 2d09 4dc7 98bf ca03 261f ebe8 88bf
00000450: dff1 4dcd 93fc b73f 39f1 13bf 4f99 bb3f
00000460: 6f6e 76fb 8ccd 9bbf bd22 702f c366 c1bf
00000470: 1c64 7a8f e3ce b13f 8f6b 7470 f75c c0bf
00000480: 69c8 1615 d4d1 95bf 2bd1 e567 9e14 92bf
00000490: de7e 10a5 7107 83bf 5603 b7e7 ac93 a4bf
000004a0: b99f 4f8e 82b3 94bf d451 d43c 02a1 933f
000004b0: 2fec 8202 d65e 96bf 1ce9 c966 4f07 90bf
000004c0: 2d2c 038b 13b5 94bf 804a fee5 c6d0 b7bf
000004d0: 52d1 5718 6877 b23f 91dd f2b1 4a4c 973f
000004e0: 3f7d 9c59 fb6d a83f eb7d 9d38 4716 91bf
000004f0: 4ade b070 7774 993f b636 f36d bdc8 753f
00000500: 4734 6490 c8df 973f 966a 09c4 6f3d a5bf
00000510: 19e9 1274 e997 9e3f 2a56 c0eb 71f6 bbbf
00000520: 92b1 11e9 cb21 7a3f 54da 9111 1bc8 8abf
00000530: e2a6 49fd 6d6a 883f 6c42 80ef f615 a33f
00000540: 4c50 8c7f fb71 bdbf 435f 7bc7 c572 b3bf
00000550: 0bb5 4eb5 d01d 89bf ca0d 2412 c6d1 b03f
00000560: 4f2d 3090 484b b43f dbfc 28f9 73fb a8bf
00000570: f612 89cc a04d 903f 8a63 8d12 840c aabf
00000580: 29d3 ea31 626f 68bf c40c b0a4 3098 a6bf
00000590: a9b6 c609 b706 a9bf bd4c bef2 9f88 b43f
000005a0: 924d c94c 2839 a4bf 7b58 ac88 a15c bb3f
000005b0: 211d e131 cf5c b0bf 6c7b c91f b97c aebf
000005c0: 1e76 1d35 ff1e 9f3f 6813 3516 7c2f 913f
000005d0: 1859 dfba 3d20 ad3f ab35 cb4e 5c8a b6bf
000005e0: d04c 966e 6714 96bf 5506 ece0 6b50 abbf
000005f0: 6bb3 0402 d9da bebf 3ce3 069b c106 9f3f
00000600: 96ad b5e8 5d5c b03f 9eba ac78 49a5 8dbf
00000610: 8fdb bae3 03c5 aa3f 244b 1b68 25c6 a2bf
00000620: 8f5e 1041 cd2a a1bf 4c3e 5ff9 81d7 943f
00000630: 7a34 ca02 2d18 b3bf 418e 4a27 7cba 95bf
00000640: 3d6f 819a e542 ae3f 0d80 0850 a5dc b03f
00000650: 58d5 2e9e 854e c03f ef5b adce 1b79 9dbf
00000660: 562f 4902 d751 8dbf a24a e600 5747 abbf
00000670: 7435 b449 8f12 a33f 7e21 abc2 a715 b13f
00000680: 9d5b 68ba 0965 8dbf df97 18a5 be11 a2bf
00000690: b489 afd4 6f96 91bf b098 313e 792a b13f
000006a0: 2ade e13c 6d09 833f 0fda 9772 048d 8fbf
000006b0: af56 7126 ad44 a63f c41d 6b50 f980 963f
000006c0: a4d4 16ff 11ec 90bf 07c3 6221 609e 8fbf
000006d0: 30e9 804b f0d6 aebf c6d9 7da5 f018 ad3f
000006e0: f525 75d9 b3f5 b4bf c99b c12f de79 a0bf
000006f0: edf2 0393 ff18 673f f1b9 2b95 d55b a0bf
00000700: fd7f 7862 8dac aabf f77e 4fa2 6297 65bf
00000710: 213d e8f7 3ecb b2bf db35 418a ffe7 7abf
00000720: 7831 7c1f 9354 a03f 2122 90c7 dde8 993f
00000730: f179 31f7 9f79 8f3f 8acb a8f9 1120 85bf
00000740: e8c7 7ee2 6919 a93f eee2 2301 bf24 aabf
00000750: eff9 fa39 f981 a03f 1128 e3d1 b86d 95bf
00000760: d8e0 af2f 0206 a53f c3ae d799 a5ce 8b3f
00000770: 3fd6 15ce 9397 a5bf 3f82 7916 7d1e 343f
00000780: c9fc 09c4 2ee0 bebf 919b 3e59 91fd b03f
00000790: 3728 e0a1 4c93 86bf 1822 eb88 2b9c a1bf
000007a0: 41c0 d34b a2c6 b0bf 0867 80a9 6720 a73f
000007b0: fe22 9e98 a26c b2bf cf4f ea84 0b6e 9cbf
000007c0: 2823 97f9 b0e3 a9bf f9ff 83a3 5eb5 a73f
000007d0: 9066 5877 3558 8a3f 1517 4ced dc45 bb3f
000007e0: eb3a 0407 8032 93bf e561 b8ef 386e 8b3f
000007f0: 01de f6c9 f322 a5bf d8a1 097f 055d 793f

base.actor.actor_fc3.bias f8 [8]
0.005342065258766027 0.04382699383567459 -0.034843300718540145 -0.039502789002016536 -0.01126716861508765 0.017931214625372616 -0.02480409468731902 0.02893535077376872
00000000: 8d9f 45b9 8fe1 753f 2395 69e2 7d70 a63f
00000010: f142 242a fbd6 a1bf 2099 baa5 b539 a4bf
00000020: a536 c3c5 3d13 87bf 20fa 9271 8f5c 923f
00000030: 1ca8 f49d 3e66 99bf da24 1685 3aa1 9d3f
