results/Ant-3d/cmorl-ipo/2/final/EP_policy_25.pt (torch, 105481 bytes, 13 tensors)

base.actor.actor_logstd f8 [1, 8]
0	0xbffeec331cef85f5	-1.9326659326837874
1	0xbffe1a17591eb7a9	-1.8813699227571112
2	0xbfff4adac73e2b8f	-1.9557750494884407
3	0xbffe5ebdea2f4b99	-1.8981303356019679
4	0xbffca1b389f1b7d3	-1.7894778622098684
5	0xbfffc131ac75b4d4	-1.9846665131292882
6	0xbffe53c5a740d2c6	-1.8954521687821155
7	0xc00075339e04f5b1	-2.057227358366355

base.actor.actor_fc1.weight f8 [64, 27]
0	0x3fdf1c6b064d512e	0.4861095010321773
1	0x3fce79c1d01a58a7	0.2380907312514797
2	0x3fb71cbdf980cb48	0.09028231946358034
3	0xbfc7a224e848b434	-0.18463574735634014
4	0xbfb336a82c9d8344	-0.0750527485775026
5	0xbfb9e446aa63c807	-0.10113946590334431
6	0x3f905dca29c5bedc	0.01598277931174051
7	0x3fa692391bd22d5b	0.0440843435727298
8	0xbfcc91e157b23545	-0.22320191175496454
9	0x3fcf3bb420fa4027	0.24400951013785852
10	0xbfb8db8019b3140e	-0.09709931018285564
11	0xbfa75c9a7e088af7	-0.045628383526738085
12	0x3fc7cde316e97894	0.18597067469358264
13	0x3f98b94e56443e1f	0.024144386306089168
14	0xbfa1c847a4947d63	-0.034731139030777645
15	0xbf97f4830b04efbf	-0.023393676326335596
16	0x3fb77dd6d4e3fb66	0.09176390359423933
17	0xbf87f7949333ce62	-0.01170269083238579
18	0xbfaa7a215d4ab9fb	-0.051713030470057895
19	0x3fc0475858eb0110	0.1271772798700188
20	0x3f9d4772c081ae4b	0.028592865943592376
21	0x3fd17b83883f369f	0.27316368394245133
22	0xbfc120fcac65a794	-0.13381918351961686
23	0x3fa25eded5a5d5b6	0.03588005407338406
24	0x3fc9f3ff0afb6408	0.20275867496710043
25	0xbfdabbaabfc1f8d4	-0.417704283965475
26	0xbfb0b889e9a9ca4b	-0.0653158374277975
27	0xbfbcb70b10bb05f0	-0.11216801794491693
28	0xbfd9ece7423740e9	-0.40508443323507365
29	0x3fd4c5bcbac04081	0.32456892239952856
30	0x3fd03b6298102e73	0.25362458085940104
31	0xbfc38447b1017ff3	-0.15247436659683408
32	0x3fc0393908ce489c	0.12674630098314743
33	0x3fa84521bbdfbd3f	0.04740243357070505
34	0xbf96fd39816de4d2	-0.022450350308166396
35	0xbf97787497502345	-0.022920438514151504
36	0xbfd15e904ff29cbd	-0.2713967114199923
37	0x3fcc4a57905c059a	0.22101873921205312
38	0x3fbeef7eb6a8c292	0.1208419032998427
39	0x3f8a14f5e8f6edab	0.01273529164506367
40	0xbfb0b7e776ea694d	-0.06530615475859243
41	0xbf965becc60c1c7c	-0.021835040653084267
42	0x3fb88607b4c850c6	0.09579513705859019
43	0x3fc6062df4d6a934	0.17206358389859988
44	0x3fd6734f9485ed16	0.35078801635946044
45	0x3fc3dfddfd74481f	0.15526938319868663
46	0xbfb2910da35ba459	-0.0725258373091874
47	0x3fa2e5798f6b07bd	0.036907004124727895
48	0x3f8ad1087fc906f4	0.013094011687943198
49	0xbfd35714d4fd4348	-0.3021900253270826
50	0xbfb95ebf53492cc8	-0.09910198005052273
51	0x3fbd877a770038fd	0.11534848599714916
52	0xbfcffc8c4a16671f	-0.24989465348772286
53	0xbf6bbf915573cf66	-0.003387245040011355
54	0xbfafe1fbdd9f557d	-0.06227099495269337
55	0x3fb5d429af20e614	0.08526859784696966
56	0xbfb8947e25c3f4ff	-0.09601581975944738
57	0x3fabe0c6d29ecdc3	0.054449284754265935
58	0x3fd0d029e9496ef1	0.2627053049270521
59	0xbfa60e4ee6171e3a	-0.04307791289062064
60	0xbfb04fbfc9454f7a	-0.06371687568508647
61	0xbfd0dfcda18d54ec	-0.26365986610956216
62	0x3fd0245fc4b52c55	0.25222009858834343
63	0x3fba744d1d2fd523	0.10333711588448984
64	0xbfa6a54066005fab	-0.04422951932082183
65	0xbfbb721c17c4d2df	-0.10720992641729364
66	0x3f983525410fd456	0.023640234085139454
67	0x3fc5fe0777f29cc5	0.1718148551637794
68	0x3fce1358da21b171	0.23496542597730355
69	0x3fcc5d209e3fbf71	0.22159202315333063
70	0x3fe02a5683fd6411	0.5051682069707814
71	0xbfbc053b7df856e9	-0.10945483994904816
72	0x3fc2fc62bfff4281	0.1483272016034967
73	0xbfc82011d5ee8b6c	-0.1884786886776867
74	0x3f7c7094f49e0f65	0.0069433039260536665
75	0x3fcffa9ad6724f7b	0.24983535262128584
76	0xbfcded721394373f	-0.23380876499180123
77	0xbfc1fd74add64c33	-0.14054735649242076
78	0x3f9c493b4d175106	0.02762310655619251
79	0xbfb482a8318715d8	-0.0801186676900082
80	0x3fc8fe75f921dc0f	0.19526552834187824
81	0xbfc9aab06447eb4d	-0.20052151581315983
82	0xbfccbe4e53388e54	-0.22455767692109652
83	0x3f8f15501868e0b4	0.015177369828151967
84	0x3fd7ae29751f4bc5	0.3700050014278385
85	0xbfd1b8094021c3ab	-0.2768576742446906
86	0xbfaa5d4362b2733f	-0.05149279193685751
87	0xbfa70eef6dd895f5	-0.04503582206625004
88	0x3fa7cd2f5fc52b5f	0.046487312737176316
89	0x3fb3cdd36c5748a3	0.07735940356295372
90	0xbf71df1b469a9ea9	-0.004363161607819834
91	0xbfa5e897ea2da33e	-0.04279017194386946
92	0xbfd1f120717581ee	-0.2803422077177221
93	0x3fa0f67fc2d12af6	0.03313063862932168
94	0xbfbe42f19470b6b0	-0.11820897935896357
95	0xbfd01a05063eaad1	-0.2515881119713131
96	0x3fa729a902f1b693	0.04523971711101384
97	0x3fa4957bbaee4eb5	0.04020296723242948
98	0x3fd0c1f7e08fcc33	0.2618388836846776
99	0xbfa72b1834a9d07e	-0.04525066035140045
100	0x3fc5dc84c3141bd4	0.17079219365424925
101	0xbfc962a74ec09b49	-0.19832316727953472
102	0xbfb966c4cf4d64d5	-0.09922437726108353
103	0xbfd13bc17955413a	-0.26927220200470325
104	0xbfb3f004fd8864aa	-0.07788115682378086
105	0x3fbaaf59ab3b745a	0.10423813276743613
106	0x3fd29f654d197a1b	0.2909787419247622
107	0xbfce36d1e6150798	-0.23604797110061493
108	0xbfd26b8cda484ea4	-0.2878143436111975
109	0x3f93770c0ec3ad43	0.019008816147942708
110	0xbfbdb205a5aaa837	-0.1159976510486168
111	0xbfb954550569c252	-0.09894305593639643
112	0xbf816161d02e8ef5	-0.00848652283259053
113	0xbfb68d98936f1708	-0.08809808349095871
114	0x3fc1821225a6535d	0.13678194845547412
115	0xbf9e43b6bd8ee136	-0.029555182761869157
116	0xbfc12533e61d8683	-0.13394783722019463
117	0x3fc1e56ef05fc8c8	0.13981425034541517
118	0xbfc90316b0376240	-0.1954067573958742
119	0x3fb9561e9303d1db	0.09897032822829692
120	0x3fb1bee6ebf095fa	0.06931918392418615
121	0xbfcaa0ba3e69f494	-0.20803001449158798
122	0x3fd7eea494f92316	0.373940606576569
123	0xbfd28a532f010b7a	-0.2896926840805275
124	0x3fa5c7567c81adb5	0.04253645200591497
125	0xbfccef900864c96a	-0.22606087121819068
126	0xbfbdc9a4113a6152	-0.11635804577452305
127	0xbfb3df5aecadf776	-0.07762687948522093
128	0x3fa181e96ef210ed	0.03419427375141191
129	0x3fc4723385b5b712	0.15973514584350618
130	0x3f65026ae2730954	0.0025646293248381778
131	0x3fd891b1b7ce782f	0.3838924689279137
132	0xbfc8beb167393655	-0.19331948795518153
133	0xbfa25047819f3f8c	-0.03576873261738375
134	0xbfca3b0ccf10f13e	-0.20492706404355404
135	0x3fb7d22458820527	0.09305026207768617
136	0xbfbce35eeb0b7db8	-0.11284440267944873
137	0xbfa2aca890832e01	-0.0364735294729961
138	0xbfe068d60615394a	-0.5127973669821497
139	0x3fd3bac7279894d2	0.30827502123640926
140	0xbf8d0b09fa84629b	-0.014181211431194376
141	0x3f92bd5cc4820e64	0.018300485128305857
142	0xbfa8dc22c0a7f97d	-0.04855450250396396
143	0x3fc46857f0380261	0.15943431119378018
144	0x3fd2be1adb69a889	0.2928530829145833
145	0xbfaf27637b235bcb	-0.06084738615179893
146	0x3fbd70a2baf0da7e	0.1149999338530083
147	0xbfcd6afd5a68d166	-0.22982756533168497
148	0x3fb3d4a1fe01c2d2	0.07746326876964396
149	0xbfc207536f32ed04	-0.14084856919894417
150	0x3fd1497fce7fc04b	0.2701110378830022
151	0x3fb265387adb964c	0.07185700416047175
152	0xbf7d8fcad420e1a3	-0.007217209147761502
153	0x3fc3babc954034d4	0.15413625037800804
154	0x3fc18da7525594b3	0.1371354248068762
155	0xbfc070e601f7f0cb	-0.1284453878032593
156	0xbfb20bfd59f62498	-0.07049544760060866
157	0xbfa546c89fbd247e	-0.04155566167771328
158	0x3fc8e8f2ee8034b7	0.19460903783366287
159	0x3fbced9f5022e9e2	0.11300082880453702
160	0xbfb9f7d3bde686a0	-0.10143779169313882
161	0x3fc513724daf3add	0.1646559600180443
162	0xbfbb3b57557b353e	-0.10637422406144467
163	0x3fcf990c857e4cfc	0.2468581821272905
164	0x3fe255853054fc73	0.5729394859298637
165	0x3fc5606a9609e468	0.1670048935518793
166	0x3f9b98d059be2e5c	0.026950126149627315
167	0xbfbe40a44b1016f2	-0.11817385513867487
168	0xbfc716195e86afcd	-0.1803619109681435
169	0xbfbc06c6ce55e274	-0.10947840249526469
170	0xbfbf565b092fe03b	-0.12241143202106823
171	0x3fcadaaad9e6a224	0.20979819907849262
172	0x3fc9273b3af9c7dd	0.19650974635766164
173	0xbfd4383706c8435a	-0.3159310880883389
174	0xbfc7c7877d8f4c88	-0.18577664976928454
175	0x3fc0a56d70bac0fb	0.13004844669695345
176	0xbf9b88b57f23e5e4	-0.026888690838836285
177	0x3fa259319a4dfccd	0.03583674439050242
178	0x3fc5275e607a9ff9	0.16526393614662974
179	0xbfb8e0d8a4c9ccae	-0.09718088172103265
180	0xbfb48a9fe246a78b	-0.08024024271312961
181	0xbfbc2b29882c2c0a	-0.11003360342526505
182	0x3facffdcd6fa96e7	0.05663957714322781
183	0x3fc2b93885dad5f1	0.1462774900043509
184	0xbfae5c012b381a8f	-0.059295689130569255
185	0xbfc7d7109c73b880	-0.18625075949916337
186	0xbfb0f04754cd04ef	-0.06616636104901706
187	0xbf98441e97346dd8	-0.023697355250176105
188	0xbfd4ec4327fa27e8	-0.326920308151442
189	0xbfc163f978299084	-0.13586347930243303
190	0xbfc9af8dffcc8e34	-0.20067000379741418
191	0x3fc603a1babaf51e	0.1719858323830658
192	0xbfcd63b6a62a89b5	-0.22960551370222296
193	0xbfbb11955808abc7	-0.10573705100311691
194	0xbfd14cdd7c7cab49	-0.2703164783185242
195	0xbfd1cc890a06fb0b	-0.27810884455895807
196	0x3f9903c3b5ae1cce	0.024428422893404904
197	0x3fbc7b027b3f1f8b	0.11125197895955645
198	0xbfbf9fb866b2e452	-0.12353088862700304
199	0x3fd173a36c854ad7	0.27268300626489633
200	0xbfc1b73ea54380bf	-0.13840468472972664
201	0xbfadfabe81472213	-0.05855365112399027
202	0x3f86ea98fc3697bf	0.01118964690870061
203	0x3fb4c71a99480f3d	0.0811630844328279
204	0xbfb8ef1f2d8177b9	-0.09739870892505466
205	0xbfc222798525785b	-0.14167708398139464
206	0x3fc1e1c5c36e652c	0.13970253031292523
207	0x3fa3dfb8d6277ce4	0.038816238538623954
208	0xbfb6b013a3b30f96	-0.08862421747750057
209	0x3f9ea302920ce388	0.02991870895786833
210	0x3f6589072be73cec	0.0026288166111282287
211	0xbfc2443294755c43	-0.14270622490832538
212	0xbf924e53b22cf78c	-0.01787691855428579
213	0x3fc82715f8856155	0.188692804668572
214	0x3fd10e310e2607d5	0.2664911878747465
215	0x3fc8969a4edd37e9	0.19209603167331515
216	0xbfa7d25ee2a7f9ef	-0.046526875656116455
217	0xbfa68ac19fea81dd	-0.04402737691021106
218	0x3fdf25399f5100a5	0.4866470390152336
219	0x3fb019f4bce53d20	0.06289605724054015
220	0x3f5e8264e3ea1825	0.0018621430641885342
221	0xbfb5ac13dd12ea02	-0.08465694567977525
222	0x3fc23c322bbbe3dc	0.14246203551718295
223	0x3fb029a585b98582	0.06313547625315688
224	0xbfc7310bc6415f50	-0.1811842649501565
225	0x3f6ee1fec90845fc	0.0037698723101662317
226	0x3fc7a8283c4ba10e	0.18481924957382784
227	0x3fc09cdeeb27833b	0.12978731615205583
228	0x3fcb872ea8ee503f	0.21506293533878026
229	0xbfb0eb1401b25605	-0.06608700791760931
230	0xbfb7bc7e89a5bc2b	-0.09271994457752501
231	0xbf82f162eb341489	-0.009249470522727303
232	0x3f98094c2db1ea89	0.023472967423439548
233	0xbf93056875c4efc4	-0.018575317562166807
234	0xbfc61a930d984019	-0.17268598712735253
235	0xbfe0b219531199bb	-0.521740591281563
236	0xbfd95bd553f649e0	-0.39623006057186494
237	0x3fbc70fde4037e21	0.11109911743869151
238	0x3fb215571b8dc6bd	0.07063812658978015
239	0x3fbf52809cbc743c	0.12235263659063461
240	0x3fc7626d5be2378c	0.18269125925547447
241	0x3fcd04feebbd2c01	0.22671495924655008
242	0x3fa5bfd9e7ab24e4	0.04247933342919355
243	0xbfb6f570b44f8c7c	-0.08968262102239238
244	0xbfd9131da13ad4c7	-0.391791732264505
245	0xbfb18bde0027a43c	-0.06854045394688141
246	0x3fcb5872cffacaa2	0.2136367335820824
247	0xbf95e349ee505202	-0.021374850435750055
248	0x3fd35d3313b3f52a	0.3025634472285953
249	0xbfc03222a509236e	-0.12653000887282978
250	0xbfd27254e062dfa9	-0.28822824394910157
251	0x3fcf31f3c80e0dd9	0.24371192234330755
252	0x3fb0c25a35b40651	0.06546558199991039
253	0x3fb230d3379f67f5	0.071057511405712
254	0xbf84fcda6808f12a	-0.01024790410985384
255	0xbfb11b4860094e1b	-0.06682255119931606

base.actor.actor_fc1.bias f8 [64]
0	0xbfa510cb784845d6	-0.041143759186649184
1	0x3fb48426d2c3c647	0.08014147420524252
2	0xbf9e3cfed105a979	-0.02952955389756926
3	0xbfa5b9602af6ed43	-0.042429929012963295
4	0xbf9cd040de716920	-0.028138173653453724
5	0xbfb6dbc7eff4339b	-0.08929109199762168
6	0x3fc5cc8bcdd63c01	0.17030475187900154
7	0xbfbb493072385a93	-0.10658552921845858
8	0xbf8197d468058183	-0.008590373444065552
9	0xbfc5d44feb089413	-0.17054175354238107
10	0x3fbbc4060373e4fa	0.10845983108801596
11	0x3fce40e60f00bc45	0.23635555012285372
12	0xbfa7f023809addf8	-0.04675398774037015
13	0x3fc3a205cd962258	0.1533820394363541
14	0xbfa59634fa417db7	-0.04216161303406401
15	0x3fc3a9beff8375bb	0.15361773945089205
16	0xbfcea96792766f68	-0.23954481746192902
17	0xbfca357957f4c851	-0.2047568969224494
18	0xbfc39eb769c1582f	-0.1532811418898645
19	0x3f830115bf8ec187	0.00927941313588644
20	0x3fc186e0fbd34245	0.13692867561487013
21	0x3fcbd4ae4700d460	0.21742800204234225
22	0xbfc6fbe7179e7c5f	-0.17956246045375487
23	0x3f96d225aa8d2be7	0.02228602269614646
24	0x3fc5406d08504ff7	0.16602862268393867
25	0x3fb34215cded269f	0.07522712972163469
26	0x3fd3b068a25cf503	0.3076421342446595
27	0xbfc349af9b3c4c93	-0.15068621711597938
28	0x3f6944dc0eb63090	0.0030845926282321925
29	0x3fc979a26ce6424d	0.19902448956828991
30	0x3fafc219ac904d73	0.06202774268617874
31	0xbfc1ac26145aae1e	-0.1380660628686749
32	0x3fb398edb1a19a94	0.07655225359631351
33	0xbfb8401e16e66dba	-0.09472835597119103
34	0x3fc30e4241c4eaea	0.14887264453303511
35	0x3fa2320d61191940	0.035538118460453294
36	0x3f9347bc3fff4156	0.018828336149284773
37	0xbfa88e4437adc175	-0.047960407063217504
38	0x3fa90a1ab593d19c	0.04890521494408803
39	0xbfc1658deff868e2	-0.13591169564535394
40	0xbf998595777fa430	-0.02492364446507994
41	0xbfaf9b0ee4d741ea	-0.06172987502543832
42	0xbfaa8e84e20025be	-0.05186858423992245
43	0xbfc6a77ab1903c37	-0.17698606176461038
44	0x3f9de398ed45a2ee	0.02918852756684747
45	0x3fbcfe406b7808d2	0.1132545721411902
46	0x3f9229d9d2959097	0.01773777339748558
47	0x3fb1969ea151bcc7	0.06870452345332288
48	0xbfb01ff85930f80f	-0.06298782517930611
49	0xbf745d8e24c3cb56	-0.004972033737646727
50	0x3fb1e3c176124c05	0.06988152630428608
51	0xbfa3378f60b853ff	-0.037533264691013805
52	0x3fced665a04c9bf9	0.24091787650215205
53	0xbf71dec677d29ad8	-0.004362845674370695
54	0x3fb0b05b48cac2c0	0.06519098784589072
55	0x3fbde52d49c0b5fb	0.11677821207623389
56	0xbfcc0262981e5523	-0.21882278850231626
57	0xbfbd5a3f267325be	-0.11465830506053629
58	0xbf9f821a2e149271	-0.03076973825695223
59	0x3f9a5d4b5bd4d27c	0.025746514778079974
60	0x3fbdde118b616707	0.11666974690288266
61	0x3fcac0fc3e31de57	0.2090144447026769
62	0xbfb30ec5db6860e9	-0.07444416624673846
63	0xbfb6ef9d45ecdf7d	-0.08959372479591639

base.actor.actor_fc2.weight f8 [64, 64]
0	0xbfce716ceda4bef8	-0.23783647159279275
1	0xbf87aa741b214a8c	-0.011555583074515562
2	0x3fa9bef7ec11c5f9	0.05028509861666559
3	0x3fc57bd87ca94fc0	0.16784196936589346
4	0xbfa971fe70b8e908	-0.04969782949452123
5	0xbf8c3c08feba48e6	-0.013786382936164587
6	0x3fc55451be5b977a	0.16663572115720254
7	0x3fcb61338239120b	0.21390384539167004
8	0x3f9e9e42feef774f	0.02990059548380169
9	0x3fc698aedee1da3c	0.17653451807901088
10	0xbfc3d7a11f4f2a83	-0.1550179865719948
11	0x3fd68444ea405211	0.35182307125185824
12	0xbfbe5c877f7c45dd	-0.11859938490331197
13	0xbfb363b5b9d78174	-0.07574020182756219
14	0x3fabed2ac2545651	0.054543815824371074
15	0x3fc7bf297ddee8d1	0.1855213036158774
16	0xbf9932925931ce8a	-0.024606978124622127
17	0x3fc9356bb09deda5	0.1969427692782634
18	0x3fb7676e298ed16a	0.09142197146031142
19	0xbfc9b3f02856fcc8	-0.2008037754985479
20	0xbfa4edce0d2e2d51	-0.040876807316716175
21	0xbfb7a043c3f8a580	-0.09228919538931812
22	0xbfc41cb54c0e5f88	-0.15712610448531117
23	0x3f9e2457cff8583b	0.02943551260803921
24	0x3fb047d615afacf6	0.063596134466639
25	0x3fabc3412eee2a3e	0.05422404954795866
26	0x3fd140415d74194f	0.26954683424300624
27	0xbfbfeb9aa3b468c6	-0.1246887826604591
28	0xbfd1974cf7195754	-0.2748596585346281
29	0xbfbe522810e4a717	-0.11844110882216473
30	0x3fe12ef9231a705c	0.5369840322123411
31	0xbf9609034bd636e9	-0.02151875639315551
32	0xbf749fdbd8d4708d	-0.005035265710173442
33	0xbfc45adabfdfad5e	-0.15902265900454443
34	0x3fd112e4af5dbce8	0.26677815557100226
35	0xbfd26a51270762e1	-0.28773907481585864
36	0x3fc631d53b579661	0.17339578054013585
37	0x3fc9285f1245ee5c	0.1965445365166144
38	0x3fc118ea9378066b	0.13357288551928845
39	0xbfcb100c8e450417	-0.21142727801091674
40	0xbfa845e2b9500c00	-0.04740818512075151
41	0xbfc547eee04c957d	-0.16625772430522182
42	0xbf824136e38547ed	-0.008913449114206851
43	0xbfc95e14c018b5d5	-0.19818362598145592
44	0xbf9d020a3d99151c	-0.028328094491617425
45	0xbfc09e6cc9b8fa17	-0.12983474588141128
46	0xbfc2ece617f5a205	-0.1478545777311099
47	0x3fb3d01c8974b97b	0.07739427905901224
48	0x3fd1f557a47dff56	0.28059950889290997
49	0x3fa1e7400489d906	0.03496742301369875
50	0x3fb173ab324b2a3e	0.06817121484633845
51	0xbfbcbcc85b281158	-0.11225559449673506
52	0x3fbd4d5090e8a2ce	0.11446097886858839
53	0xbfc1d89da648ca87	-0.13942309016563945
54	0xbf97cb577424827d	-0.023236624206335755
55	0x3f85f77c70a64e2c	0.010725948512834448
56	0x3f9ab526eb2cb01b	0.02608166513816466
57	0xbfbd0809cf10c45a	-0.11340390496549571
58	0x3f9ce634e1efe9be	0.02822191838274945
59	0x3fcf325f5e23cfa5	0.24372474762605836
60	0x3fb1f98e5dff3f05	0.0702141742215155
61	0xbfd172a1d0a489a3	-0.27262158751741533
62	0x3fcbba5a777fa71a	0.21662455401320174
63	0x3fc63029d0539a02	0.17334482834048975
64	0x3fd1ad028ca742a3	0.2761846898620581
65	0xbfbed4a90f681980	-0.12043244005335474
66	0x3fd4cf98045eba56	0.32517052103768174
67	0xbfac5866d90029df	-0.05536195181783276
68	0x3fbbb34a69b94d7f	0.1082045086016503
69	0xbf9e90552fb960d9	-0.029847460782861688
70	0x3fd60350a1de112e	0.34395232970588807
71	0x3fcf3df386e5bef0	0.2440781029395036
72	0xbfc4551029fdb190	-0.15884592104283657
73	0xbfa2bacd611abbce	-0.036581438163345234
74	0x3fa99f0f0e13b747	0.05004164740408484
75	0x3f8da949e740f877	0.014483048791700022
76	0xbfab1edb9d918110	-0.05296980188791356
77	0xbfbb45d5843d8ad7	-0.10653433302426706
78	0x3fc11ff4c2f81c14	0.133787722778124
79	0x3fdbf33297d78d5a	0.436718605311588
80	0x3fc2bf0ca45848b6	0.14645536446238844
81	0xbfd00867e9bcc845	-0.25051305604859336
82	0xbfc052d807b985ad	-0.12752819420988484
83	0x3f95ce9ea031eb2e	0.021296003844763316
84	0x3fbde68d6a165fa5	0.11679920043968524
85	0xbf53788473dc7058	-0.001188401554322224
86	0xbfc0848d28466181	-0.12904514757680022
87	0xbfc1d2724af993a6	-0.13923481617817152
88	0xbfd1eda24e153f41	-0.2801290285615217
89	0x3f90c1cccc88af8e	0.01636428831459074
90	0xbfd1f4c3f8344ef1	-0.28056430090622003
91	0x3fcb54b7f42cd49b	0.21352290556538808
92	0xbfbaaebc373135b6	-0.10422874782053423
93	0xbfbf9c0684883a7b	-0.12347450957916266
94	0xbf93c12ead525300	-0.01929161961432424
95	0x3fc4e264a53a598a	0.16315897052545508
96	0xbfab6540bdb55732	-0.05350687328124905
97	0x3fcafccd96d26e57	0.2108399378238228
98	0xbfd88b423e15d6ae	-0.38349968016641867
99	0x3fa51a8fcf34549a	0.0412182751116827
100	0x3fb064264d104f24	0.0640281618255441
101	0x3fa9a38ceb2c02f2	0.05007591601134277
102	0x3fb3d16b8d5c3b49	0.07741424752405836
103	0xbfb9baa9234b2233	-0.10050446616799817
104	0x3fd02ea9ff64fc71	0.25284814778201
105	0x3fa02d3ac455098e	0.03159507414467831
106	0xbfc2978ecbde41ec	-0.14525017694951659
107	0x3fc7a61d912bbefd	0.18475694263860723
108	0x3fb18458f1a5a0fb	0.0684257116278139
109	0x3fb866237fef561a	0.09530851243410901
110	0x3fbdadad3b5852bb	0.11593134592869607
111	0x3fafae8b5819265c	0.061878542427234534
112	0xbfd34de403cb15bf	-0.3016290700000716
113	0xbfa1b2111a1b824f	-0.03456166690535111
114	0xbfa10d3ab9382af4	-0.033304057225981426
115	0x3fd2a3bbc3c34d6a	0.29124349706145003
116	0x3fc5e5868cec0525	0.17106706505732308
117	0x3f88e722eeda892e	0.012159607805476282
118	0x3fc1a8984e4e5758	0.13795760940109392
119	0xbfc14c24bda53e88	-0.1351362157824847
120	0xbfd1808d9f90fead	-0.2734712656274308
121	0x3fbc79814513ba06	0.11122901855899422
122	0xbfc2a6df3798c3e5	-0.14571752752956893
123	0x3fcb6b1212f1b16b	0.21420503544812716
124	0x3fc09334d4cbf3be	0.1294923819586113
125	0xbfbe323d8cec7c28	-0.11795410814782825
126	0xbfca3412b2adf60e	-0.20471414303385455
127	0xbf969ec64bc589ce	-0.02209005200837471
128	0xbfd53f0b0ea954e0	-0.3319728511026607
129	0x3fe1493bf6d5f694	0.5401897259723278
130	0x3fba810eb027fc20	0.10353175926864866
131	0xbfc5246311bdc4e2	-0.16517294279359535
132	0xbfbb826dd80cf959	-0.10745893978762434
133	0x3fc86a00661153e3	0.19073491081022018
134	0xbf9721559a142384	-0.0225880980770259
135	0xbfbd74ae98291010	-0.1150616761670451
136	0xbfc2f49a55a5608e	-0.14808968717511956
137	0xbfcb3edfe6f0d3bc	-0.21285628105547783
138	0xbfb25144f3482f84	-0.07155257167340606
139	0x3fc9d56c5b3cd6a0	0.201825661229738
140	0xbfc01333f82dc256	-0.1255860292253767
141	0xbfcb3bd9dbc505af	-0.21276400786341074
142	0x3fc8747dba777ce9	0.19105502705404057
143	0xbf96b657205c6fb2	-0.022179948187030347
144	0xbfa9cd4634341888	-0.05039424311876056
145	0xbfbc930843ab4eaa	-0.11161853458480189
146	0xbfc35d38887443ff	-0.15128237402726083
147	0x3f9081bc52f34eb0	0.016119902193919955
148	0x3fa9dbe202ab4c2d	0.050505698037931125
149	0xbfc24c807b1d52f9	-0.1429596520562411
150	0xbfbca315c1cfc3fe	-0.11186347944000372
151	0x3f9616002df5bfdc	0.021568301015065447
152	0xbfd890eccfb0a7d5	-0.3838455227111102
153	0xbfc9a278c91bab5a	-0.20027074641924508
154	0xbfbd1568ee0cd9b8	-0.11360793887874976
155	0xbfc4046784187455	-0.156384410381096
156	0xbfbc247fbb298635	-0.10993192977323292
157	0xbfd160bbc9f20125	-0.2715291473505366
158	0xbfc86667d8ffedad	-0.19062517257394287
159	0xbfd5826033ad7fd3	-0.3360825066247319
160	0xbfc4a131c98e8dcb	-0.16116926519053573
161	0x3fd17a8bda14116b	0.2731046323463235
162	0xbfbeb4deae00c87d	-0.11994735477563441
163	0xbf9be0236c05eabc	-0.027222207515914518
164	0xbf937671bd3814fb	-0.019006516622558128
165	0xbfb93983f58d7ac6	-0.0985338663572107
166	0xbfa1bf051a8178e7	-0.03466049145275623
167	0xbfaa38ab0939e63a	-0.051213593364945756
168	0xbfbbd4815eabdf28	-0.10871132432282293
169	0xbfd14c88d3046e45	-0.27029629332694
170	0xbfd437243a6b3572	-0.3158655710693302
171	0x3fab1b0befe58809	0.05294072440553072
172	0xbfb10e3e78c10853	-0.06662359665009036
173	0x3f5243f780356602	0.0011148373603958599
174	0x3fa2c5b418bee7f4	0.03666460802146779
175	0x3fb7b3cd3d932130	0.09258730653084934
176	0x3fb5d36cceea94be	0.08525733997028603
177	0xbfc9273273bb0992	-0.1965086999026196
178	0x3fb37f9652b6827b	0.07616557616575818
179	0x3fd57fc2a3ae84b7	0.33592287048856967
180	0xbfd19c3d55c201a4	-0.27516110777653524
181	0x3fa39a132c3f5b48	0.03828487315302326
182	0x3fba60d934410005	0.10304029012422695
183	0x3fb04ba958f48d0b	0.06365450307616898
184	0xbfc714b2823c275e	-0.18031913146142647
185	0xbfadd71a4915bd87	-0.058281728192805686
186	0xbfbf777a32e26be4	-0.12291682951256139
187	0xbfacf35c47a7d120	-0.056544193026555556
188	0x3f95bbeee16f5ce5	0.0212247204870807
189	0xbfac361a51bb4f0f	-0.05510027167988884
190	0xbfc5b0df436e3f47	-0.16946020882141452
191	0xbfa738b0e5ec718d	-0.045354393069121014
192	0x3f80fe9fdaba7f43	0.008298157560886593
193	0xbfba272652acd5d1	-0.10215987699924446
194	0x3fcc003e325cb77f	0.21875741442766736
195	0xbfb1556a322cebf7	-0.06770957684504696
196	0x3fafc01bd3e3766f	0.0620125480797754
197	0xbfb76ba586dc6f88	-0.09148630659586676
198	0xbfcb1650ed926411	-0.21161853408992262
199	0x3fcb54afc11a39fb	0.21352192810850554
200	0xbfd32338f41a31ae	-0.29902480924718133
201	0x3fa8906f95b6d4ec	0.04797695829931023
202	0xbfbc3fb1f67f19b3	-0.11034691112499821
203	0xbfb6e3b7cb44ce9d	-0.08941220009438174
204	0x3f67b68f98a60e07	0.0028946690192144272
205	0xbfbbb8d6a28f5d21	-0.10828916043043481
206	0x3fb236519438096a	0.07114133709550222
207	0x3fad02e843fe5417	0.05666280584333821
208	0xbf840307c8fdd062	-0.009771405049584018
209	0xbfb4730ef79799fe	-0.07988065285426413
210	0x3fcc4e7ce54b5092	0.22114525981908578
211	0x3fb6bd6f50a68bd2	0.08882804602630692
212	0xbfc930878eea293d	-0.1967935035539287
213	0x3fc0c05f8366152f	0.1308707610698234
214	0x3fdadb78c9f76e7d	0.4196454975442306
215	0x3fd3c34124238c62	0.3087923863333285
216	0xbfcb9a114d98600b	-0.2156392697222603
217	0xbfadb93daf7d7f37	-0.05805390135969762
218	0xbfb78f9b63dc6c23	-0.09203501880658442
219	0xbf6a2a00aa4a0873	-0.00319385652466147
220	0x3fbe9918002d24c3	0.11952352527909497
221	0xbfcef582982e1b9d	-0.241867374712652
222	0xbfb8267d7b2d977d	-0.09433731324460655
223	0xbfba7f200531cfd9	-0.1035022747690272
224	0xbfb885d50a15e348	-0.09579211708286295
225	0xbfcefb3cc78c9753	-0.24204215758907796
226	0x3fb7a186165c5bdf	0.09230840726773647
227	0xbfc4a93c0cd8aa3c	-0.1614146292425448
228	0xbfd160b5f8289645	-0.2715277598784705
229	0xbfb6872edefca050	-0.08800023025526227
230	0x3fd2e927ae5b84d6	0.2954806521139067
231	0x3fba342ddb0b1fcf	0.1023586902402933
232	0x3fc1188ddd30d589	0.1335618333847999
233	0xbfbe4850f13a8fd5	-0.11829095734952884
234	0x3fa9f55bcfaf5268	0.05070006284919232
235	0x3fcbdf6b8961e9a7	0.21775573928955547
236	0xbfb814baad618d1d	-0.0940663026136019
237	0xbfd5463af9797c72	-0.3324115215563729
238	0x3fd3181e6d14defc	0.29834709789746205
239	0x3fbba534d9c621d8	0.10798960034129068
240	0x3fafbc6934320b1b	0.06198433649207954
241	0x3f9ef73673c2f462	0.030239916625522396
242	0xbfcdc17d60d30d39	-0.23246733882670315
243	0xbf983b9e945fe8ab	-0.023664930158681468
244	0x3fa3ce3f4b6c5849	0.0386829166001666
245	0x3fc0c7d62203ee0f	0.1310985246744711
246	0xbfc11b1590f69048	-0.1336390455081775
247	0x3fbddfc0c0c06cd8	0.11669544893122763
248	0x3fbc8126bc6a887c	0.1113456926346163
249	0xbfd06f99bd5a9c4a	-0.25681155673595824
250	0x3fb72e03d24c9dac	0.09054588207492625
251	0xbfa123a5eb8a5bec	-0.03347509861230677
252	0x3f849cf997db5b3a	0.010065031000903713
253	0x3fa32ab3aa4599b8	0.037435164008275235
254	0x3fbe7cbeab3572ee	0.11909095458890892
255	0x3fb98d9724a054ef	0.09981674808689765

base.actor.actor_fc2.bias f8 [64]
0	0x3faa66f971f2a928	0.05156688228574274
1	0x3fad257a59cf1236	0.05692655893611624
2	0xbfa10946003a4803	-0.033273875739851654
3	0xbfc67b24646e107e	-0.17563300041013358
4	0xbfb2259fe6e0be9f	-0.07088660608928386
5	0x3fa66e244a74ee3a	0.04380906494995114
6	0xbfa319ab51c04f3c	-0.037305215577502854
7	0xbf961ebf5971c670	-0.02160166724610807
8	0x3fb63b905a7e60f2	0.08684637269323384
9	0xbfb12e67b059e97d	-0.0671143346352547
10	0x3fc145769c9ee41c	0.13493235251897395
11	0x3fbde2d3acdb9339	0.1167423531547457
12	0x3fc66e59bd508136	0.17524263137694057
13	0xbfc2af27f7904082	-0.14597034061489828
14	0x3fa788a413911a2c	0.04596436251499755
15	0xbfc17bcbf9288e34	-0.13659047761858434
16	0x3fbcc4c417747daf	0.11237741062767868
17	0xbfc6796552c90e4c	-0.17557970564131364
18	0xbfb2bd435704739b	-0.07320042490432714
19	0xbfc49d47e1cb2730	-0.16104982876850604
20	0xbfb3cc3705c24dca	-0.0773348225650842
21	0x3fa9c4e54a167f3b	0.050330319684916046
22	0xbf7eb9fa2845abb0	-0.007501580407146699
23	0x3f6d0418f2a7c7c4	0.0035419928801667406
24	0x3fb442713952a31d	0.07913882874948937
25	0xbf8915812f80413b	-0.01224804807864698
26	0x3f7b76d949eed95b	0.006705139908197512
27	0xbf9c4a860e68e3b1	-0.02762803519201257
28	0x3fbbd00bd08e3620	0.10864328233420695
29	0xbfb5e862706720bd	-0.08557715648851434
30	0xbf96f42e88d2c848	-0.02241585455039566
31	0xbfc1d3fcfbdbb066	-0.13928186700593698
32	0x3f8889019dc63f7f	0.011980068805115483
33	0x3fc0c3e7daed1ce8	0.13097856702572774
34	0x3f90372accd12108	0.01583544612029278
35	0x3fa2198b4f0fdebc	0.03535113659012043
36	0xbf975a92feb6fdab	-0.022806450649793735
37	0xbf9791bfc914cfb0	-0.02301692642977543
38	0x3f7db73a7fc946bd	0.007254818451274123
39	0xbfcef15d9400017a	-0.24174089170993424
40	0xbfad76e44664b72a	-0.05754769667906452
41	0x3fc8d60982829f0d	0.19403189537592205
42	0xbf90acbdc9e33182	-0.016283956000550777
43	0x3f7b76a3fb95d5af	0.006704941327702426
44	0x3fb3817fed7417b2	0.07619475886539709
45	0x3fb863aea7dcb5d5	0.09527103040883074
46	0xbfaa026a0aa99ca7	-0.05079966907651939
47	0xbfb86ee4abd4633b	-0.09544209666308927
48	0x3fa8b6dda8241a1f	0.04827015569212655
49	0xbf26742d49ea117d	-0.00017130902138630033
50	0x3f86190ec965d8d9	0.010789981385397262
51	0x3fb9444fe5cee68e	0.09869860992957966
52	0x3f8e9911942a281d	0.014940392812850029
53	0x3f754c0371a6e5b9	0.005199445202771207
54	0x3f737e91779e7804	0.004759376746646286
55	0x3f74859d1d8b5278	0.005010236484583978
56	0x3f94cdb9b68ef03c	0.020316030280568706
57	0xbfb5bc4844296359	-0.08490420974829983
58	0x3fb6b7f3b14f0de8	0.08874438361004133
59	0x3fa652327004e822	0.04359586350842927
60	0xbfae178508a7ab91	-0.05877319079066646
61	0x3fb3cf2d31942380	0.07738001308838527
62	0xbfb062b3703be4e0	-0.0640060566910452
63	0xbfb0e97561c91b95	-0.06606229436248008

base.actor.actor_fc3.weight f8 [8, 64]
0	0xbfb6ae1a80ee6185	-0.08859410903676775
1	0xbfb91fc9a63c3250	-0.09814129169917263
2	0xbfbcfc77aad065b8	-0.11322734756722397
3	0xbf7c2c9c6c37f922	-0.006878481889996986
4	0x3fa72de424bf807d	0.045271996961447215
5	0xbf80671205321d26	-0.00800909117084687
6	0x3fb02ca59f7d2e91	0.06318125861906256
7	0x3f96d142a438b4de	0.022282639764104377
8	0x3f88e6940c5f5af0	0.01215854323156182
9	0xbf50b6113fb22382	-0.001019970745604421
10	0xbfa4429e1ac8f0eb	-0.03957075192417555
11	0xbf9814c39406a5d6	-0.02351670828799065
12	0xbfb588d7508d7926	-0.08411927906624736
13	0xbfb0c69a1a5469cd	-0.06553042548004058
14	0xbfa070b929a56570	-0.03211001046538342
15	0x3fa4148564cd9546	0.039219063334523116
16	0x3f62fac4a6a98df6	0.002316841205628024
17	0xbfb4c2d8bd6d6ba0	-0.08109812378590542
18	0x3f9e6f5cffba7eed	0.02972169218867198
19	0x3fb0ac270ac3d246	0.06512683880630118
20	0xbfa963b51755a01f	-0.04958883199543628
21	0x3fb7906e7f734fbf	0.09204760181029224
22	0x3f97a66a7c9ac43c	0.02309576402212009
23	0xbfa3493e71550c6a	-0.03766818173837623
24	0xbfb60c38d8dd9953	-0.0861239938218195
25	0xbf812c729b2b24fe	-0.008385558472030482
26	0x3fb27993675e9ae4	0.07216759942694356
27	0x3fa1c0e2d49836a9	0.03467472882412654
28	0x3fb419328ba6176c	0.07850948247332007
29	0x3f826d6d068b5af2	0.008997775804727468
30	0xbfb7d984a417809a	-0.09316281324527367
31	0xbfa7014f80945a2b	-0.04493187374662385
32	0xbfac8d9bca0715a0	-0.055767887507993
33	0x3fa5f58fb8f1dc18	0.04288910992266198
34	0xbf8ccd76d6d2d7d1	-0.014063766890426795
35	0x3fb95b62197fa006	0.09905064699671592
36	0x3fc3ec03ac951d5e	0.15564008643034816
37	0x3fa178013152a1d8	0.03411868788799993
38	0x3f84febb7c707e9c	0.010251488432970128
39	0x3fb3261b88f956d2	0.0748002252015241
40	0x3fbce8b40dd0ec50	0.11292577111537239
41	0x3fa6a78f41ab799f	0.04424712826379395
42	0xbfaa201e00e4d2a6	-0.051026284798728214
43	0xbf83aa7d1fe1a023	-0.009602525268022138
44	0x3fc41a76c22176e7	0.15705761412657823
45	0x3fc3dd3f97e6455a	0.15518946568458142
46	0xbfa652017909d479	-0.04359440424460898
47	0xbf91fc6a542e7a11	-0.01756445063403517
48	0xbfb0c2af84ba208f	-0.06547066679388734
49	0x3f96b849331215f8	0.022187370054345096
50	0x3f883d7b5ecf2a83	0.011836017447327101
51	0xbf9249ab96f4a283	-0.017859154785727426
52	0xbf9c8ec62cf7ff0b	-0.027888390059160034
53	0xbf7cfb94d0a18477	-0.007075864132361712
54	0xbeff23cdf9570c2e	-2.9697286285001473e-05
55	0x3fa2b8ab1dc2bc15	0.036565158255477716
56	0xbf94df6279f1119f	-0.02038339490197105
57	0xbfb1f165f4c0c691	-0.0700896952191903
58	0x3f94e3894e8d564e	0.020399232310714326
59	0x3fc15134e8df3c45	0.13529073115066317
60	0xbfa45fbf32789985	-0.03979299059965328
61	0x3fa247a22442b2c0	0.03570276920922799
62	0xbf62f0dcc07a1ab6	-0.002312117725355857
63	0xbf9f290f4636ddf9	-0.030430067692320126
64	0xbfa64563514ff6fb	-0.043498138118577466
65	0x3f61a3e6fa88a6a8	0.002153350000544691
66	0x3f8d14b0a5895da6	0.014199619342590019
67	0x3f52d6f1ad73e463	0.0011498794681854766
68	0x3fad01fac29b2205	0.05665572763024688
69	0xbfa67b58825a0512	-0.04390980330664197
70	0xbfaefb1cd268d0e9	-0.06050958698725301
71	0x3f91d462aceac119	0.01741174869920412
72	0xbf901594a715a0a4	-0.01570732374003171
73	0xbfb35862dda74699	-0.07556741630039666
74	0xbfab048bd04e8508	-0.052769059351030434
75	0x3fa1fb05e00318f5	0.03511827811739635
76	0xbfa347fc6719c7ce	-0.037658584199462206
77	0x3fa63751c4bbbf81	0.043390803590113165
78	0xbfb6e49240e39485	-0.08942522129253135
79	0x3f85fa1790ec3f37	0.010730918989366607
80	0xbfa470795028c859	-0.03992060760028044
81	0xbfa320cfc50ea681	-0.037359707646214886
82	0xbfb37ec386ba7f4d	-0.07615301169653073
83	0x3fa420f18d184ff4	0.039313839410311774
84	0xbfa32e2736cf0818	-0.03746149581958508
85	0x3f98e4a04638ebcb	0.02430963924983213
86	0xbfb4f8a376317906	-0.08191892276360954
87	0x3f983266686b10d3	0.023629760859663684
88	0x3fb8b68fc1ec78bf	0.09653566822496183
89	0x3fa87a37982a2396	0.04780744297483534
90	0xbfb1cc306f2373e3	-0.06952192986814469
91	0xbfb6b4b861b9cb77	-0.08869507203944048
92	0xbfac5a6032f1021b	-0.05537701246112566
93	0x3fb371ff45cc131b	0.07595820859939943
94	0x3fb080d8461e8878	0.06446601592918622
95	0xbfa8270823853567	-0.047172788940410375
96	0x3f906ed34b33851c	0.016047765221519503
97	0xbf50a7392579fed2	-0.0010164316244355887
98	0xbfafec116a04eb25	-0.062347931091116394
99	0xbf90d32adf4e74d6	-0.016430539969964318
100	0xbfac12cf033822a4	-0.054830998557070104
101	0xbfaa5fa75da4f74f	-0.0515110303699503
102	0xbf790971a3824e6d	-0.006112522031020623
103	0xbfa8682baab17c4d	-0.047669758402428465
104	0x3fb1c344f58a96b3	0.06938582415258558
105	0xbfb74dcf1ebed30e	-0.09103102207775413
106	0xbf7162a006697c9f	-0.004244446847763288
107	0x3fa77884175daab0	0.04584133897045228
108	0x3fb1acacb57b5dce	0.06904105597219898
109	0xbfb4041c02fa811f	-0.0781877047797974
110	0xbf9d859dd930ea92	-0.028830019360820254
111	0xbf8202c25b9fb8ac	-0.008794325276508218
112	0x3fb19c06de336b88	0.0687870304567878
113	0xbf9d93ab112e988a	-0.02888362209673593
114	0xbfa1e070e0c0a348	-0.03491547339974105
115	0x3f9f90709c956ee9	0.030824431950676
116	0xbf689a66ca086e55	-0.003003311882151564
117	0xbfae85560eab23ae	-0.059611024180021274
118	0x3fb5e475aba619e9	0.08551726761479696
119	0xbfaae9cb480352fb	-0.05256495718064077
120	0x3fb2556a8592d0db	0.07161584626266253
121	0xbf824dea052be180	-0.008937671931094071
122	0xbfaf538f5eea1187	-0.06118438752767746
123	0x3f9efd5fbd720ce7	0.030263420045696512
124	0x3fbfe10b2225bae3	0.12452764114071217
125	0x3faa4b7bec4b8e21	0.05135714778387191
126	0xbfa9b6c122f2c91c	-0.05022243072143537
127	0xbf9afb379bf40e13	-0.026348942655216655
128	0xbfa4b217a574f864	-0.04042123694169744
129	0xbf89b999c119b1b0	-0.012561036305862
130	0xbf92c608ac9b0d1f	-0.01833356431485555
131	0xbfa2003a5dbd3f79	-0.035157989447383416
132	0x3faf56c67d77ddd0	0.061208918395944445
133	0xbfa09b38e9ab5786	-0.032434252285084716
134	0xbfbfee6ee0eef110	-0.12473195067918064
135	0x3f86ec60253f7298	0.011193038117135942
136	0x3fc11dab3e3843b8	0.13371792352748257
137	0x3fb63c7d3c371c5b	0.08686049194430849
138	0x3f9296b7f1d5ab2d	0.018153070578971132
139	0xbfb46a5203685c22	-0.07974732001490328
140	0x3fb266ebf4d87568	0.07188296058344223
141	0xbfa8b1110a429b50	-0.048225910665954275
142	0xbfb8dc5fda7f0b3b	-0.0971126469076297
143	0x3fbfe9c30e14681c	0.12466067403548248
144	0x3f741255b83619ff	0.004900297967998401
145	0x3fb0bb1ae601e90a	0.06535499682823712
146	0x3f6bc90ac60fde68	0.0033917627738409457
147	0xbfc48b307b034b26	-0.1604977226876027
148	0x3fa37c6aa8af5ddb	0.03805859860556967
149	0xbf92a5e33c0b2aca	-0.018210936107417898
150	0x3fbeee3403d960c0	0.12082219213459933
151	0x3fad71daa434c93d	0.05750926260442888
152	0x3f845ce8c9eaaeed	0.00994283548546756
153	0xbf9b4cfd23427a89	-0.02666087653835317
154	0x3f8ff941ab4d8570	0.015612137832877265
155	0x3fa6ed762abcfb0b	0.04478043815332996
156	0x3f9030e355271713	0.01581149298888025
157	0xbfb14ef3126d7f8d	-0.06761092376609508
158	0x3f4aee25fc490dc2	0.0008218465305351241
159	0xbfa87112e3921713	-0.047737684516546385
160	0x3f95a6214949b27c	0.021141548250329198
161	0x3fa83959c9352554	0.04731255131862136
162	0xbfa31e8b03f37002	-0.03734239981869793
163	0xbfa60a859a8b74b6	-0.04304902564556683
164	0xbf9f54b0d8ac20b1	-0.030596507286674682
165	0x3fa673ba43ef1244	0.04385168151160149
166	0xbfa01e470a0bb0d5	-0.03148099897029658
167	0xbf91826c7668ff75	-0.017099089362317927
168	0xbfa4678d756e0c5d	-0.03985254343481224
169	0x3fa1f39538172d85	0.03506151494692759
170	0x3fbe514a159f7c93	0.11842787769227163
171	0x3fb434cede217d86	0.0789307873069359
172	0xbfa9488dd84a30cc	-0.049381668713154164
173	0x3fa4a47d298acdc9	0.04031745082957234
174	0xbf92f82a47f0a31a	-0.018524799958103612
175	0xbfa3e1db103887a0	-0.038832517366486075
176	0x3fb363dae2e49b76	0.0757424167573911
177	0x3f775db2e118849e	0.005704592463673523
178	0x3f4889cfe536959d	0.0007488503564913488
179	0x3f9b2c7c930872ed	0.026536890482122755
180	0x3f9a1c4d3a08d84c	0.02549858729090486
181	0xbf8bd50d415c93da	-0.01358995776861065
182	0xbfaf598a9a3682cc	-0.06123002178651901
183	0xbf9273fdf3ca6b44	-0.018020599369815274
184	0x3fac5b8b08f5810e	0.05538591846812056
185	0xbf48d6e460ed7b94	-0.0007580390100477724
186	0x3fba086857becd9e	0.10169078962535713
187	0x3f7fce15f466666e	0.007764898071764044
188	0xbfabd04e0a98cad6	-0.054323614877281365
189	0xbf9fb326fac72a83	-0.03095684915187259
190	0x3f80beccb1328b51	0.008176421315800349
191	0x3fb4d3a7f5bd5e61	0.08135461568360249
192	0xbf8c8e83dc354372	-0.013943700940815627
193	0xbfb1ceb0f308fd9a	-0.06956010755037881
194	0x3fa2cda4398329a9	0.03672517015509708
195	0x3fbb7bbbe21c2851	0.10735677976859505
196	0x3fa2a61f1b2a10ff	0.03642365652652479
197	0x3fab6bc47f994d27	0.053556576324491005
198	0xbfa4f6f40ba5cf81	-0.04094660417732055
199	0x3fa21adce07bce88	0.03536119690207068
200	0x3f83b889c7fbdc99	0.0096293224482749
201	0x3fb3f1d1c2f0898d	0.07790862092273283
202	0xbf88b09db3f65f52	-0.012055618338123662
203	0xbf9ef8da201a1d8e	-0.030246170243598373
204	0x3faf8c10af899a3a	0.06161548750678887
205	0x3f85c609c9152822	0.010631634186797415
206	0x3fab9b9da1377e32	0.053921628885060705
207	0x3fb731d003d685bf	0.09060382932377474
208	0x3fc3033064d2c104	0.1485348217297614
209	0xbfb216cce7087d84	-0.07066040649850974
210	0xbfc02e8683e7b68d	-0.1264198440616621
211	0xbfa2590064cce10d	-0.03583527784798166
212	0x3f6ae1473fffd096	0.003281249199057322
213	0x3fb5c1b21a9d1ba6	0.08498681211231815
214	0x3fae4807e82fb4eb	0.05914330205255588
215	0x3fbcdbdc5b9b65e6	0.11272980915546035
216	0xbfa0e235eed90dd1	-0.03297585049270036
217	0xbfa6d3c49fcfcac8	-0.04458441210581082
218	0x3f7436991060f6f5	0.0049348811208440495
219	0xbfa2dec1e3a6e322	-0.03685575393632791
220	0xbfc364bb04e8c300	-0.15151155223568225
221	0xbf716f0dddfe2eab	-0.00425630013331683
222	0x3f92fe8be762525e	0.018549142835200143
223	0xbf7a9e87a5bab19c	-0.006498842117860806
224	0x3fb1bde3857eb62e	0.06930372246889568
225	0x3fab94f5662f7825	0.05387083885555936
226	0x3fa503e832bc18a4	0.04104543322869006
227	0x3faa56f099367bc9	0.05144454832338103
228	0x3fac95d6bcbde7be	0.055830679454586626
229	0xbfa1f08d0401d4e9	-0.035038382281450904
230	0x3f785eb58c5161e2	0.005949696705180392
231	0x3fa157887a4ee53d	0.03387094967861024
232	0x3f8c6b7350b6e8a3	0.013876820469580336
233	0x3f74bb6d6b92a653	0.005061557219201501
234	0xbf68b62c5c4f44c9	-0.003016554490820587
235	0x3fa0de7d82f3ce9b	0.03294746612109841
236	0x3fafb88f0b286556	0.06195494662478988
237	0xbf92bf75ed0565be	-0.018308489410036925
238	0x3fa86676a83260a5	0.04765673449691236
239	0x3fa0d3e6b5c7e0bc	0.0328666779423101
240	0x3f7032ec262a9d44	0.003954813439725872
241	0x3fb4ab620b999168	0.08074009688568184
242	0x3fa30269df714144	0.03712778904503236
243	0x3f806314e28a4fcd	0.008001483119450281
244	0xbfafbb2aa5bb120a	-0.06197484276848193
245	0x3f98cbc776d830ff	0.02421485579365967
246	0x3fb2303099965dcc	0.07104781865779514
247	0x3f9514e56f5b1e66	0.020587525292994256
248	0x3facb52b4c0259a5	0.056069710758652115
249	0x3fb086144677dbbb	0.06454588623442607
250	0xbf8f2685d66e613a	-0.015210195166034713
251	0x3f995fc4995d8cde	0.024779388294871356
252	0x3f805886ce4b441c	0.007981351061433321
253	0x3fb45805e7cf6470	0.07946812543322479
254	0x3fa4d787a88a8d1f	0.04070686275852097
255	0x3f91207cec0d927d	0.016725494296581978

base.actor.actor_fc3.bias f8 [8]
0	0xbf7e8433dbf098e6	-0.007450296950116652
1	0xbfac48539b8aa2eb	-0.0552393081064276
2	0xbfaf7e097c2b87b1	-0.06150846138713407
3	0xbf8896244f3a9e5d	-0.012005122821690134
4	0x3f91314dc4f85238	0.016789641520590787
5	0xbf6ed8d6ea982362	-0.0037655065141319203
6	0xbfb0b48b28e4b975	-0.0652548765981232
7	0x3f805c77148f07aa	0.007988863291647014
