results/Ant-2d/cmorl-ipo/0/final/EP_policy_1.pt (torch, 104954 bytes, 13 tensors)

base.actor.actor_logstd f8 [1, 8]
00000000: 7548 2928 1f48 99bf 340e e06a b63e 8abf
00000010: 90b7 59b4 965d 89bf 5ed0 561f e4aa a6bf
00000020: e24c 3713 e493 8ebf 7c31 3a99 80a1 9fbf
00000030: 5227 c03b 3623 95bf 1c8d 4644 5579 93bf
-0.02468918497681512 -0.012814927231381203 -0.01238553750883023 -0.04427254564817028 -0.014930517040659234 -0.03088952002740218 -0.020642135044944006 -0.019017536442004532

base.actor.actor_fc1.weight f8 [64, 27]
00000000: 8cf3 fa79 051b bcbf cb32 bd65 17e0 b53f
00000010: 205b a6ae 0b73 c03f fc7a 7245 bac6 a0bf
00000020: 36d2 9d6d 4539 afbf 7c98 e519 ee5f a03f
00000030: df37 56b5 1d27 c13f b4b4 e03d f08d c13f
00000040: c9b0 ef2b b7c3 893f 8c1e 50ee 2fa5 a7bf
00000050: 836b a879 b839 a33f 4ae0 1248 3321 ca3f
00000060: 154b 4aac 7fd2 b5bf ac82 0fb2 c76f c0bf
00000070: c6b6 9ecf 00e5 c13f a2db 067c 09a1 aa3f
00000080: 23e5 e30d f40f c73f 8761 776a 6135 d4bf
00000090: f2ad 141d 4c97 c2bf c6c5 2b04 2535 ad3f
000000a0: 3849 31ad b01c c23f dc47 a708 d0da b13f
000000b0: b311 5728 9c74 b33f 99fc 414f 0840 c8bf
000000c0: 5db0 3d8e 3936 9cbf c595 8abc 99ee ba3f
000000d0: a6d8 29d5 a993 c5bf ffec fb69 a26f a8bf
000000e0: 8eda a1d0 2cd7 bdbf c721 1117 0e09 c4bf
000000f0: a605 0477 d688 bcbf 3a68 b22d 8a5d adbf
00000100: 262a 9241 08aa b8bf 0f08 cc12 0d7c bfbf
00000110: c6bd 8f64 b006 c6bf 07b6 778b 0f8d 95bf
00000120: c0dd 5604 f3c0 c03f d990 1a74 0407 cabf
00000130: f55b d6d1 9931 c4bf 2317 e1a9 3e62 ba3f
00000140: 5dd7 1bfd 2939 d43f 771e c54a e891 943f
00000150: dd32 de13 43a1 83bf d82f 1241 968e b7bf
00000160: 5729 601e 2701 a83f 3c26 c8e0 0549 c0bf
00000170: 68f6 bf28 fc79 c4bf bbc4 b9f2 66d7 b13f
00000180: 925a 4b52 5968 a5bf db4b e300 9a58 cdbf
00000190: f232 b2fd 4c79 b33f 3e42 1930 7a2f c4bf
000001a0: cb62 1d26 ae69 a93f dedf 3ef3 fd07 b23f
000001b0: a2d7 21ca 1bd8 b03f 8ad6 fa13 c43d d5bf
000001c0: 77ca 4332 f0f4 9e3f 2757 bad2 b787 a4bf
000001d0: 39da 5943 9ecf babf 00b1 bb91 002e 78bf
000001e0: e6bc 23ab 0391 b13f 4a91 ff38 7f46 b03f
000001f0: 80db 01ce f609 723f 3628 092b 3461 b53f
00000200: 4e18 1fcb 0e39 b5bf 572a 3ae2 7f1f b83f
00000210: ffcc 78fc 207c c23f 40b2 b3c7 22fb c4bf
00000220: d2e0 96c1 610a c3bf abd5 e8b8 67c5 bcbf
00000230: 8529 985a fd3e c3bf c7ec 5a94 f4ea b53f
00000240: a0fc ba11 2e2d 9c3f 2db0 bf9a b7a0 b0bf
00000250: 78c0 bbc8 5b19 963f 8ee9 a77b 8c63 cfbf
00000260: 5f7a 09ac fa50 c33f 3fb2 d2bc 0efe b43f
00000270: 7366 816d b86e d0bf 3170 60b0 7d3b c33f
00000280: ec1a f9f3 6e77 b13f 38ed 532b b603 cebf
00000290: a982 7587 2d34 343f 9a6b 85de 0952 c4bf
000002a0: 36a5 1c71 b41d 703f 4849 c1fe 5841 ce3f
000002b0: da58 9026 95a3 b23f 7282 cc7e 9bd5 ca3f
000002c0: f858 e389 7016 bebf 955c dcfc 501b d33f
000002d0: 2293 1752 5f5e 433f e5af d865 d5e5 a7bf
000002e0: be59 7598 cfb1 c8bf 9c98 3138 290c bbbf
000002f0: 733e 8ac6 0b97 9fbf c9b1 b7c2 6a00 a3bf
00000300: a3b6 6b24 8827 adbf 5e33 6014 d3e4 a93f
00000310: 14b0 566a 63d3 98bf b430 fe54 83f3 a53f
00000320: ae0f 2d1d 237c afbf c009 31c9 3d23 ad3f
00000330: 1c62 a32f a106 bbbf 844b 2c31 ca3b c1bf
00000340: 1134 5f70 7b4d c4bf 45bb 2bd9 28b4 cfbf
00000350: e954 7292 3da7 933f 9940 e04a d75b b83f
00000360: 46ec e559 32ad c4bf e68d a112 246e b9bf
00000370: 261f b0c0 18ea bcbf 00fe aeb8 7362 75bf
00000380: b8b7 48d0 58cc b83f 3dbc 98f0 068c c8bf
00000390: b7e4 f92c 50c7 b03f 1755 563b 0868 c3bf
000003a0: 141a 2791 169f b43f 1ed2 f1f1 9cbb b6bf
000003b0: f9e2 8e1c 63b4 bf3f 7b99 a536 b784 a83f
000003c0: 3de3 f7b9 f0f4 b2bf 820e 5b46 4512 b8bf
000003d0: 296a c54f 3b3b bebf 31cc 1037 801d c63f
000003e0: 3c36 9945 1f4a c63f a10b 962e 3d63 c23f
000003f0: 9935 3e81 dc72 c2bf 59fb c892 cd3d d1bf
00000400: 21a5 75c8 0d2f c7bf d253 ccb0 fceb 89bf
00000410: 0dcf 8d19 93dd 693f 8683 ddef 165a c2bf
00000420: 210f 9dd0 226b bbbf 9f81 dcae dde0 a2bf
00000430: 4323 4734 0f15 92bf 88f8 8178 3749 c43f
00000440: 3f00 b6b1 2c1d 733f 0ca5 8bb5 3955 42bf
00000450: b9bb 2b6a 3c21 c6bf bdf1 7754 6f14 b73f
00000460: 01f5 737c 4666 bcbf 5838 d3d0 9660 c0bf
00000470: 1ff1 6fb3 c704 c4bf c08c 3c9e 716f cb3f
00000480: 8b5d 92c5 1985 97bf 0ea6 91c1 56db ccbf
00000490: 82e4 e9e2 f79d b53f 92fd 42fd 6217 973f
000004a0: da09 ab85 2539 aabf 3897 224a a4cc aabf
000004b0: 5a93 8c76 e337 b03f 2d03 1fac 8693 c33f
000004c0: 4ca7 ddc3 1446 cd3f c5c8 7914 a753 b73f
000004d0: 77db 2257 7659 b03f cec4 4f32 6ec9 903f
000004e0: c295 6319 3d46 bcbf 92e7 ce85 3ffc d13f
000004f0: b8a1 17aa 5978 bd3f 17cb 1ac4 e6d0 c63f
00000500: 719f f97d d427 ca3f ad5f 9517 647c a23f
00000510: 7f46 d667 80db cd3f 4b1e bcfd 2ebe c03f
00000520: 2eee 05a8 0e38 a1bf 0362 a221 9c89 99bf
00000530: 4a33 ffd4 3dae a5bf 1e0f 9562 5302 b93f
00000540: 034e fe47 1166 903f 75af fdbd d229 c73f
00000550: 263d 2d3d 60f4 74bf cd38 6d70 1104 be3f
00000560: 91b5 1c5a 1b7f b43f 11e7 5f17 e80c b2bf
00000570: 36a9 d784 b9c4 c03f 221a 39bd 7f04 a4bf
00000580: 7287 8a47 020c bcbf 35dc 9638 215b b6bf
00000590: d746 aba3 3d6b 80bf 2f5f 012b e9d5 b0bf
000005a0: 100d 8b8c 2c36 d1bf 9f8c 2080 fa4c a6bf
000005b0: 0285 dec0 7a71 c2bf cf57 68d9 8f3d d5bf
000005c0: f737 4661 a59d bfbf 1752 5926 2cf3 b0bf
000005d0: 5a37 5c68 fce3 c03f 02b3 26ea 90c9 b2bf
000005e0: 675b 7c65 0912 d53f 778b 636d d3b7 d33f
000005f0: 6c34 ae1e 16d4 c8bf 1065 3f04 d14b b83f
00000600: 2913 4818 d976 a8bf d211 abac 7364 9fbf
00000610: 79ac 3c34 3ed3 903f 7ee5 097e c452 ccbf
00000620: 9e24 eeda 7cd0 693f 3052 0687 f0a8 693f
00000630: 438c d43b 303b cbbf 4ef4 6c11 ab97 b1bf
00000640: 8c95 607c 2adf b2bf 6c7a 31b3 f704 59bf
00000650: 4f45 1254 094b c4bf 0a0a a92a ed6d a9bf
00000660: 1fd0 372b aeac 8d3f cd53 6059 c4f0 b2bf
00000670: a4b1 3bb8 1b56 c9bf 9f98 f3b9 5fc4 8bbf
00000680: 3dc0 1ce5 e5cc 94bf 7eba d24a bacb c83f
00000690: 8c6d 7be4 4879 c93f 25a6 49d3 c231 9a3f
000006a0: 6dc1 2a83 e697 99bf 16b5 313c e3a2 9c3f
000006b0: 5b0e d47d 4cdf 953f 17f1 aa3e d9ec c33f
000006c0: 580f ea80 a1db 82bf 8759 638f cb64 c8bf
000006d0: 5b1e d414 b638 ccbf ab2f b5d6 3519 923f
000006e0: 8352 90a0 8da3 a5bf 16ac 4519 81b2 933f
000006f0: d0fe d1c3 a13b b53f 17db a9a3 dfc7 7d3f
00000700: a51a 27ae 2d96 c9bf 3f44 b413 aefd b0bf
00000710: 393b c8e3 9122 bbbf 5cbf 1587 7577 c63f
00000720: 515f c4b9 3c2c bcbf cdab a303 a009 c5bf
00000730: 0bbc 9975 6c3d a7bf bc10 ecfe 7bb6 b4bf
00000740: 2e19 3dd3 740e d33f d1a6 4743 41d3 a8bf
00000750: 3231 3221 faee 92bf 4352 eb60 b741 aebf
00000760: 4c3f 0ad0 50a3 c13f dc4a 6b72 65ca c0bf
00000770: b901 d972 d044 b8bf bef2 8d97 9848 b93f
00000780: 5b91 bb96 8b25 b3bf 2843 a161 8417 c5bf
00000790: 8243 0217 cfe6 c1bf 441e 2c2c 7e6c 8bbf
000007a0: cea4 0ed6 95ad 86bf d179 f78e 568d ac3f
000007b0: 58c6 595b 6afd a7bf 8438 76bc e444 b6bf
000007c0: a201 13c4 43a3 bdbf 9715 c4fb 9e69 923f
000007d0: ee23 bfff b7b6 c53f 5a79 035a 972a b63f
000007e0: a694 5507 9b77 bfbf 7fed a71c caa2 d8bf
000007f0: cf82 3ab5 f344 b33f bf7a 597c 6b94 bcbf
-0.10978731372865819 0.0854506133447998 0.12851091411422377 -0.03276617143386848 -0.060983819609564824 0.03198188844798808 0.13400622705779505 0.1371441175591933
0.012580328968362047 -0.04618215355008912 0.03754974827844306 0.20413819331384025 -0.08524320560745154 -0.12841125673641807 0.13980112207121048 0.052009865179051276
0.18017435720666083 -0.3157580890379212 -0.14524222774467394 0.057046086081651334 0.14150055367151437 0.06974506579652434 0.07599807724824963 -0.18945411558158723
-0.027550601298046085 0.105203255205729 -0.16856882961628122 -0.04772670310736692 -0.1165645608287866 -0.15652633787455114 -0.11146297841698657 -0.057354276731715406
-0.09634448624471101 -0.12298661908064921 -0.17207913313130357 -0.02104591644995504 0.1308883448780147 -0.20333915394906546 -0.15776369806255244 0.10306159636919836
0.31598901479389047 0.020087842525099178 -0.009584926647016651 -0.09201945389412403 0.046883795221293205 -0.12722848392177066 -0.1599726866697211 0.0696930258361758
-0.04181174401826583 -0.2292664055190404 0.07606965249778933 -0.1576988921028874 0.0496344014670221 0.07043444813359609 0.06579755482547836 -0.3318948931804263
0.03023124033729593 -0.0400979466186711 -0.10473050255118545 -0.005903246139251417 0.06861899307454031 0.06357569829521484 0.004404033738061197 0.08351446200063681
-0.0829018827344907 0.09423064492345055 0.14441311195114534 -0.16391405821868155 -0.14875432922941073 -0.11238716377632467 -0.1503597919803036 0.08561638471558118
0.027516097862414157 -0.06495234993025241 0.02158111012153127 -0.24522548711668118 0.15090878868336952 0.08200161085069001 -0.2567578381909705 0.15025302040237556
0.06822865921376903 -0.23448826900117026 0.00030828582335655025 -0.15875361790935189 0.003934578753424225 0.2363692516251581 0.0728085726881064 0.20964378062582828
-0.1175299011841594 0.29854225820003794 0.0005910840447397073 -0.04667536609881021 -0.1929263586450371 -0.10565431234280925 -0.0308496322564324 -0.037112556714280105
-0.05694222874249746 0.05057391761520223 -0.024243882527727648 0.04287348186980591 -0.061493966399694386 0.056909495172039026 -0.10556991017382028 -0.13463714028383944
-0.15861456858547787 -0.24768553356212855 0.019192659438506707 0.09515138223673815 -0.1615355433421845 -0.09933686690197127 -0.11294703201576492 -0.005220844303891692
0.09686808667240043 -0.19177328822977016 0.06554127786684459 -0.15161230943037005 0.08055249255912883 -0.08880024821139229 0.1238462395402954 0.047887540264855276
-0.07404999294511767 -0.09402878730457512 -0.11809130380189771 0.172775294196613 0.17413702867854564 0.14365353369438785 -0.1441302901334154 -0.26939715704422934
-0.1811234692388917 -0.012657140870524861 0.003157412819229216 -0.14337431633159897 -0.10710351555922816 -0.03687184104478835 -0.01765846020296925 0.15848439582982032
0.004666494928983466 -0.0005594760687845104 -0.1728892820751449 0.09015556156368283 -0.11093559778597141 -0.1279476661351875 -0.15639587651811213 0.21433849550621709
-0.02296867626554681 -0.22544369174583817 0.08444165506252158 0.02255015059267646 -0.051217243735226695 -0.052342542695710426 0.06335279125467022 0.15293963817932746
0.22870120586167741 0.09112018823524 0.06386508586261451 0.016393396206642312 -0.11044675702904441 0.28102100436410027 0.11511764910358735 0.17825016570494576
0.20434051657798194 0.03610527789959348 0.23326115675131473 0.13080394162556028 -0.033630807886734324 -0.024939002564311263 -0.04234498238620306 0.09769173771661285
0.016014356631400172 0.18096384312536498 -0.005115867551310138 0.11724957461157999 0.08006449651721527 -0.0705094391886656 0.13100356089064186 -0.03909682450153108
-0.10955824133500672 -0.08732802993368767 -0.008017045552523623 -0.0657640199655105 -0.2689315197460056 -0.043556049480934826 -0.14408811967317808 -0.33188244086465785
-0.12349923729763633 -0.06621051727535875 0.131957579571856 -0.07338815418797753 0.3292258730957002 0.3080948417902429 -0.19397236345358537 0.09490686753942534
-0.0477817384853892 -0.030656630910714196 0.016430828035634868 -0.2212758651183257 0.0031511725023319467 0.0031323144723478732 -0.21274378701591176 -0.0687205235999084
-0.07371774231486067 -0.0015270632691436704 -0.15853993039176337 -0.049666797120625786 0.014489517873677525 -0.07398631269491247 -0.19794031615982732 -0.013558147299090271
-0.020312873944192445 0.1937172761294796 0.19901381641726024 0.02558044828984953 -0.02499351668910903 0.027965117024384055 0.02135962980265869 0.15566554603527358
-0.009207975145961875 -0.19057602406855897 -0.22048069016476543 0.017674294690820307 -0.042263437128132096 0.019235627334108406 0.08294116049546152 0.0072706924353187685
-0.19989558223297368 -0.06637084942873715 -0.10599624453628288 0.1755206021875847 -0.11005000624970519 -0.16435623338415298 -0.04539050040772715 -0.08090949033436606
0.29775734547401356 -0.0484867472294589 -0.0184897501717824 -0.05909512575241085 0.13779649885372647 -0.13117664420004516 -0.09480002216242313 0.0987639780050342
-0.07479164533612474 -0.16478018538557504 -0.13985623000601427 -0.013390527461083164 -0.011073275179870026 0.055765824272146276 -0.046855281497198475 -0.08698873139494095
-0.11577247178047981 0.017981037251066558 0.16963863361004833 0.08658739039990362 -0.12291878632602735 -0.3849358825534281 0.07527087378049234 -0.11163970743062189

base.actor.actor_fc1.bias f8 [64]
00000000: b298 d1cd af21 9f3f ba5c 2ff0 a82a 87bf
00000010: 67d8 3c04 e1ff 7e3f 4c74 b549 5c0c 6c3f
00000020: fdc5 07f3 0ac9 60bf 336d 286b bc1f 94bf
00000030: 491b fd3e 0c5b 963f 142f 2fce 09d3 61bf
00000040: 4a65 3f09 a411 883f 1ba0 e669 ea32 8e3f
00000050: 581f c899 991f a0bf d8bb ce2b 6fd9 a33f
00000060: 7d2b 86bd eeb9 763f d8a5 f72c 0f74 a93f
00000070: ff60 f6d2 366a 9fbf 51a8 636a bfe8 9abf
00000080: 595b aab9 f522 583f d453 eded e540 8dbf
00000090: c039 3d52 2f3d 83bf 8d2e 042f f275 7b3f
000000a0: 95bf 0d10 911e 753f 8e14 38b0 41d8 753f
000000b0: 94f4 5093 e9d7 83bf 6261 ff72 dfb3 893f
000000c0: 687e 8564 65fc 81bf aed2 f8d7 cdbb 95bf
000000d0: 1932 8f93 6dfd 8abf 8b2d 5ad2 d8fc a03f
000000e0: 73d8 d7d2 39a7 8b3f c6d9 ee99 2d9e 90bf
000000f0: f0fb 2d7b 601c 48bf 9a63 de3d 0946 90bf
00000100: a34d b193 886e 90bf fd12 592c 9d59 9b3f
00000110: fd01 d0de ea1c 963f 0a91 6dc4 a977 923f
00000120: 9b93 a413 9eb0 8bbf c4cf d0fe 175f 7dbf
00000130: aa6a dc2b 8eea 923f 6ab8 40aa 350c 873f
00000140: 114a 17ae 9e28 4f3f 26cd 5a94 63e9 a33f
00000150: 7a09 2712 88f2 1abf 747f 7a73 588c 75bf
00000160: 7a44 843a a329 74bf 769a 5e30 9714 833f
00000170: 25d7 b825 0faa 8a3f 29e5 857a 6423 9c3f
00000180: 9080 3777 629c a1bf c941 2d94 5985 92bf
00000190: db3f a4d8 7251 83bf e796 80f4 daf3 7ebf
000001a0: 7592 5556 9778 92bf fbeb 02fc 7b24 9abf
000001b0: 856e 024c 04f8 73bf 8ac3 7945 c444 713f
000001c0: e3ae 6a44 3d7a 89bf c01f f62b 8626 743f
000001d0: b4c0 833d 14ae 58bf 841b 98f7 9b9b 84bf
000001e0: 9caf 5dab fb66 95bf 6860 15b0 4003 733f
000001f0: 0a6f 1e9b f886 9b3f bcb8 b479 25a4 99bf
0.030401942193201754 -0.011311836080422178 0.007568243952667065 0.0034238626955543135 -0.0020489896635289538 -0.01965231327095047 0.021831694931530952 -0.002175826216875518
0.011752397091117434 0.014745551449621577 -0.031491088888343455 0.038768266770936755 0.005548412875564843 0.04971358703535217 -0.030678612352489584 -0.02627848708008457
0.0014731788311672293 -0.014283939670045522 -0.009394044587364259 0.006704278974449485 0.005156103755197612 0.005333191485538026 -0.00968916397880041 0.012550111481616614
-0.00878218853966857 -0.021224228197939503 -0.01317868811192917 0.03317906921173649 0.013502551791116901 -0.01622840168030295 -0.000735804662653437 -0.01589216652027723
-0.016046651853981363 0.02670903762033826 0.021594686364553074 0.018034603704465225 -0.013520464872792284 -0.007170766574791491 0.01847288267809214 0.011253756769374419
0.0009508871846100627 0.03888999162645694 -0.00010279613028444336 -0.005260797035276588 -0.004922521220820925 0.009316617168065405 0.013019674624142727 0.027478761652195125
-0.03439624505313177 -0.018086814564698437 -0.00943269466054624 -0.007556777280148564 -0.018038143772530952 -0.025529801613384234 -0.004875199112713728 0.004215971646417746
-0.012440184259808479 0.004919551952646317 -0.0015063474330041906 -0.010062426084017202 -0.020900661787365146 0.004641773878880519 0.0268820614506771 -0.02504023127874498

base.actor.actor_fc2.weight f8 [64, 64]
00000000: db90 da4b c30f b43f 8a03 bb15 e718 c4bf
00000010: fec7 ac05 d4ac b7bf 2775 0966 78af 913f
00000020: f9f3 e16d 325c c5bf 245a c81f 8c0c c4bf
00000030: 1dbf 93a2 a050 943f 8f95 a5d6 272d cabf
00000040: 86f2 2154 828f aabf 6bc2 13bf 40ce b63f
00000050: de09 fd2e 519f 913f c813 79e0 adfa 9e3f
00000060: 4134 8dde c8c8 c1bf d14b a7c1 c631 b0bf
00000070: f2d1 dfe0 03ad bebf bdbb 6d36 9b9b b43f
00000080: 4ce5 2d9a e39e 863f c136 082b 08a6 bebf
00000090: c0ac 0f7f 0bbf b1bf 1847 fd2d 8e75 af3f
000000a0: 6c9b 8696 e4cb 9dbf 855a f187 28eb d13f
000000b0: ba5d 5517 4101 c13f 20ee 0e62 6680 983f
000000c0: 0e46 0870 b666 86bf 024c dd8b 92de bcbf
000000d0: 7d17 d99f 782b d43f 0c00 94b9 35e7 b2bf
000000e0: 67a1 c2d0 b6ea 953f cd75 90ee ce5a ce3f
000000f0: 7acc bffd 9f41 b93f 0dd0 4889 4b70 873f
00000100: d749 191e 68ac d9bf bd64 f2de 8f9b 95bf
00000110: b4c2 33b1 ab60 cfbf 2800 cca5 0b7f ba3f
00000120: c2b4 176a e86e b6bf d593 80f3 b6e0 833f
00000130: 8843 4b80 7c95 c5bf 1ea3 8fe2 d5ed 9c3f
00000140: 935f 5b47 278d a8bf c05c 9373 783b b23f
00000150: 540f c884 fcc0 b5bf d685 bd6d b26c 97bf
00000160: 8208 893d cd54 783f 5ae5 64a9 799a c23f
00000170: fb4b 2a63 43af a53f cef5 1a00 0635 c63f
00000180: fdf1 b335 109b c13f 14eb 2d30 e069 b7bf
00000190: 0a55 a7f0 fada b43f ac45 a8c4 eab8 cc3f
000001a0: 4e35 c344 98e7 c03f 2090 8e12 d660 b7bf
000001b0: e211 f6c8 256c 993f 0f9b abca 5b57 c03f
000001c0: 12f8 8433 d0b9 8d3f eea2 1ce0 6af4 9bbf
000001d0: 27f9 68ff b051 b6bf 8078 e15c ac57 94bf
000001e0: a3a8 2e8e 9e4f c7bf 6d5c d434 a759 c1bf
000001f0: c037 6971 0472 b2bf 8025 c1a5 ac88 9c3f
00000200: 6cc8 a96f 7eb1 813f 2c26 8f07 e9c5 c6bf
00000210: b53f 932e 3ad2 9cbf 50e6 0fea e764 5bbf
00000220: c3b9 2591 858e 903f 1347 2c47 ea23 b83f
00000230: 7f16 5b37 1116 b4bf ea54 d4e9 9970 c7bf
00000240: 6522 27ee 866d a03f 9e57 a385 d171 c7bf
00000250: 91a2 f498 5b65 babf 2a76 e303 32ca b03f
00000260: 4754 e196 9a49 acbf 2aa4 f07f 24e3 60bf
00000270: c645 35e4 cea0 b43f 4650 9120 674e ca3f
00000280: 6007 42de 7e88 c5bf 4fb3 3b8a 87f2 713f
00000290: 7ad9 c435 345d d1bf 2731 9d4c b6de b5bf
000002a0: d7a8 635d 49e5 b33f b084 d0dc fa83 9e3f
000002b0: 310b cfa4 9da5 b83f bf70 57c2 deb7 b5bf
000002c0: 21f1 be24 ffd3 cc3f 254d fc2a b4ae 973f
000002d0: d0bb 222e 1b9f c53f 3be3 79b2 f617 8fbf
000002e0: 6e86 6cde 0e09 b33f 9b8d 0bac 3ab1 c8bf
000002f0: 915b 64c6 29c8 943f 952c f56a e950 953f
00000300: d401 b1ca d5e8 c83f b82e 53a0 e81c b4bf
00000310: 5596 d2a8 dd90 93bf af4e c6a3 e780 993f
00000320: 187f 00e2 1f8d 61bf 15ea f93a e75a babf
00000330: 2f5c a8ea 68b6 b83f 12d1 0ba8 8ff1 c13f
00000340: 6979 0384 7add bdbf 0061 9ae6 5099 b7bf
00000350: d682 a31f 8fb6 cbbf b8b1 e9a5 b2e6 b3bf
00000360: 9e6a 9987 3f93 ce3f dfa8 23f5 7a43 a2bf
00000370: 08ba 9346 ffb6 b3bf 91e0 174f b9fe adbf
00000380: 8e4e f926 2e0f b6bf c38f 6d50 c8de bfbf
00000390: 82a5 284a f7e1 c73f a40d 33e4 4a16 ccbf
000003a0: dbe0 31ec be1a b5bf 7c95 049c 2d2e be3f
000003b0: c389 87e6 25a0 76bf 37ad 74a7 bdc2 2fbf
000003c0: 2769 802b 77dd 93bf d793 4e9d 3b86 cbbf
000003d0: b715 5a5a 2899 c53f f91d 75d7 f7df c33f
000003e0: 8930 d44b e5af d0bf 5981 cf0c 6aa6 bcbf
000003f0: fdfc bd25 8d4e b4bf 1d01 3aa6 e015 ca3f
00000400: 6336 c85c 6f38 cabf 4929 b17c b68c c0bf
00000410: 7ad0 3886 3ca3 cebf b0a9 63b6 3775 adbf
00000420: b750 ef08 0294 ad3f 19c8 a6c3 3206 99bf
00000430: 834d 5096 9d0b a7bf bf39 3830 808d b83f
00000440: d92f 9ca1 8c50 9e3f ae73 74c0 b4f7 a63f
00000450: 0e70 7932 e696 b23f 00d2 6899 a699 cbbf
00000460: f996 e7d8 4397 cabf 9641 3f40 40f8 c0bf
00000470: 37f6 e1c3 9f9b c73f f1ac adf1 ec74 ba3f
00000480: c330 41dd 7726 c83f 98e0 aa75 69f7 c1bf
00000490: ec83 13c9 ea2c 9cbf c94b 6056 01b7 c03f
000004a0: 6df4 373b 8a06 b23f 3741 76e2 970d a03f
000004b0: cd9d 05a0 6bf7 d13f fcbd d623 4f03 bebf
000004c0: 4b84 7cbc ebf0 a63f 266c 941d cd0a b5bf
000004d0: 5ff9 571d 9dec c43f e1fb a791 1657 893f
000004e0: af39 2787 0eba cbbf 8247 dc0c 3c6a 72bf
000004f0: 8440 60dd e04a 95bf 1a86 b69b 114f c93f
00000500: 0ca0 31e9 9e88 a73f 9898 7d1c 0902 c9bf
00000510: 7892 27d5 9b82 b73f 3e56 2726 e362 ba3f
00000520: d47c 6843 6478 c83f 4cf7 aac6 6f7d b9bf
00000530: c54f 42e1 6f42 97bf 9c3c d786 1b85 c8bf
00000540: 6176 78c2 fd0d 92bf bbb6 f230 7f89 a7bf
00000550: e41e 95b1 7900 ac3f fcfc 9bb5 dbed c13f
00000560: 111c bb42 8c24 9a3f bc0b 5676 889e b6bf
00000570: 096d 1d79 8a5c b13f 9b0f 32d8 6b9c c73f
00000580: b75d 91ad 48b1 abbf 4182 4d16 9323 c1bf
00000590: d524 9996 5d5c 873f 4981 03cc f62f c0bf
000005a0: 6f85 99d4 1dac b8bf bdcc 9a16 6fb2 aa3f
000005b0: 1611 0aee 4d0d c1bf 2e6d a136 2b4f b9bf
000005c0: 4bf8 340e 38fa c23f cbda 80c8 c69b abbf
000005d0: e603 7628 872b c1bf 2876 b10a bfc5 b03f
000005e0: d4a3 19e0 8bb6 c93f e65b 8324 2de7 ce3f
000005f0: 20f5 53d1 c6c2 b03f 2d45 1d09 d0c3 88bf
00000600: 9266 717e 7d2c ab3f e7a4 f741 1346 cc3f
00000610: 514e 70e5 edea 9d3f b627 7f88 9d90 a1bf
00000620: feb9 7662 a3fa 9e3f 9773 7e7e 053c c9bf
00000630: 00b6 58b6 4415 c43f c94d 1f13 65a6 b1bf
00000640: d021 6c48 0a93 b03f c97b a219 40e4 b13f
00000650: 9344 4cf1 a485 b23f 25ff a5e1 106f c1bf
00000660: 2bcd 5a7f 19e9 cb3f 08d3 424a 3c40 c23f
00000670: cd04 1e44 e62f a33f 811c 453e 65db c43f
00000680: 2867 45ef a6c5 afbf 75be 17cf bd08 cbbf
00000690: 0c8e 7400 9121 cdbf 3ca3 31a5 9fec b23f
000006a0: 52c9 37dd 346c 823f 6528 54a9 d77d b13f
000006b0: 8d8c 5197 6d2a 70bf ee9b c5e0 2199 a3bf
000006c0: a05e 0e39 16fc acbf 1f05 7b92 b575 ba3f
000006d0: 8fd9 5242 131a b5bf e822 2e13 9285 88bf
000006e0: 29d6 4bb1 1d9e a8bf 8d7f 5f5b 5806 c2bf
000006f0: 3529 a1a7 0826 a5bf 9729 4f40 3631 9bbf
00000700: 60e7 12fe 6961 8b3f 3844 56fc 04a2 b33f
00000710: 0e17 c71e 8a07 a83f d6d9 bd51 35e4 b3bf
00000720: 7e6b eb38 05f2 cb3f f4ad 3721 a9ae c6bf
00000730: 44f8 d565 e397 bbbf 0e7c a93a b91c 913f
00000740: 9e75 bfca 8678 b6bf 0d5d d612 6c78 bb3f
00000750: de52 f51f db3d bcbf 1c81 c2b1 daa2 bbbf
00000760: 2271 e782 e667 cbbf c3c1 4675 86fa bebf
00000770: ae72 1007 85b6 c93f a0e4 6b2d a288 b5bf
00000780: 0bab 8fbf eb5c c73f b7e0 ce80 1366 963f
00000790: 0b91 9717 3f5a c7bf a067 4f2b 053c b3bf
000007a0: dd08 408c 88e0 c03f 5095 b67e 41b1 acbf
000007b0: 3143 b7fb c67b a63f 8e15 8b25 41ad b53f
000007c0: a1d5 56a2 7c48 cc3f 163c 7102 2eff afbf
000007d0: dee4 e8f0 ff30 cebf e83c a5e5 3580 b63f
000007e0: dc87 ab24 2228 b43f 077a 1c02 0837 b8bf
000007f0: 6cd3 8e77 298f a1bf c375 6b62 7e76 da3f
0.07836552240275145 -0.15700996933994943 -0.0924808992247392 0.017270928600159465 -0.166876128820064 -0.15663291503797538 0.019838819430275757 -0.2045030401306289
-0.051876137514203655 0.08908466973276467 0.017209309094377782 0.030253140283338614 -0.13893996111656473 -0.06325952747219722 -0.1198275016793742 0.08049936369728435
0.011045244352987503 -0.11972094584072136 -0.06932136394577793 0.06144375144380215 -0.029098102271429324 0.2799779250685009 0.13285077704743548 0.02392730687618727
-0.010938096326785132 -0.11277118601474004 0.31515327081830674 -0.07384048252788505 0.021403175822940847 0.23714625023505534 0.09865760750817457 0.011444654585922387
-0.4011478704389026 -0.02110123441943722 -0.24513765480471295 0.1035010604646237 -0.08762981977607168 0.009705952936267007 -0.16862446083407812 0.028251020386878094
-0.047951915226519 0.0712199480216098 -0.08497598878608176 -0.02287558359910754 0.005940248222545576 0.14533921023557178 0.042352777342919944 0.17349314694540258
0.13754465696537457 -0.09145928550962551 0.08146637320836106 0.22439322092445246 0.13206771237893594 -0.0913213534645938 0.024826612845133662 0.1276659717179531
0.014514566967246654 -0.027299566200926266 -0.08718401179882972 -0.019865697068205623 -0.18211728994839857 -0.1355484970051494 -0.07205226677726184 0.02786512147603082
0.008639323980990286 -0.17791474217510606 -0.02814570340416341 -0.001672007063687881 0.01616867731484618 0.09429802167531091 -0.07846171952686552 -0.18312381665661032
0.03208562523974904 -0.18316096329971016 -0.10310909733073916 0.0655852565282308 -0.05524905292319509 -0.002061435021023535 0.08057873794066159 0.20551766481605876
-0.16822801449239488 0.004381684735318483 -0.2713137173735941 -0.08542956705531833 0.07771738557827078 0.029800338485192313 0.09627709649707296 -0.0848368858782491
0.2252196244643381 0.023127379535322085 0.16891803505629222 -0.01518242580572037 0.07435696535369526 -0.1929086055816754 0.020294811948669503 0.02081646647756637
0.19460556408922847 -0.07856611169989491 -0.019107306889642867 0.02490579545117438 -0.002142488738186798 -0.10294957342004125 0.09653335312792487 0.14018436150912145
-0.11666074488627988 -0.09218316678959937 -0.2165087608800806 -0.07773891974074487 0.23886865731295343 -0.03567108385489503 -0.07701106522629442 -0.05858401384824775
-0.08616913272390489 -0.12449314082692724 0.18658343430551488 -0.21943031446981565 -0.08243935839152831 0.11789212283163936 -0.005523822831010996 -0.0002423149596578551
-0.019399511366011837 -0.21503396206858724 0.16873649989808623 0.15527246494660554 -0.2607358208194986 -0.11191428005941385 -0.07932359858931544 0.20379264942676736
-0.2048472598111629 -0.12929421509245234 -0.23935658029370527 -0.05753492452079756 0.057769836035420345 -0.024437707130069073 -0.04501049480327437 0.0959091298793515
0.029604146350763336 0.04485859727194651 0.07261503917965248 -0.21562654963203443 -0.20774124232337224 -0.132576018686916 0.18443677010138668 0.10334664249755911
0.18867395690393182 -0.14036291356547248 -0.027515095255583974 0.13058487622819673 0.07041229196325256 0.03135370864322556 0.2807263434137582 -0.11723799347850411
0.04480683017596528 -0.08219606372988206 0.16347087796016077 0.012373138732980795 -0.21661550139692795 -0.004495844432101383 -0.020793450843541908 0.19772548773930582
0.04596420857052416 -0.19537462130682992 0.09183668092698294 0.10307140046583016 0.19117406169332318 -0.09957026100434269 -0.022714374660224985 -0.19156211933156875
-0.01763149737791137 -0.04597089264403339 0.0546911267543331 0.14007135741847054 0.025530044148379064 -0.08835652245583864 0.0678183122339996 0.18446109825538035
-0.05408694380519868 -0.13389814938547498 0.011406642111199275 -0.1264637466583827 -0.09637628975317168 0.052142592915879395 -0.1332185184766181 -0.09886427005533413
0.14826107686707454 -0.053922855353837194 -0.1341408679545843 0.06551736842217137 0.20088337366476472 0.24142994196765172 0.06547205553575397 -0.01209223296942471
0.053073808369572664 0.22088852616369722 0.02921649659044895 -0.03430645266742209 0.030252983937026905 -0.19714420963728393 0.156899060284033 -0.06894523350575023
0.06474365490078715 0.06988907457205963 0.072351750288606 -0.13620196359624362 0.2180511352395141 0.14258531213786108 0.03747481900701075 0.16294541874433224
-0.062054840762995334 -0.2112042676158016 -0.22758686563712194 0.07392308981947066 0.008995450020823501 0.06832645305635905 -0.00394671257990632 -0.03827768200681435
-0.056610769715175424 0.10335860086617686 -0.0824291264460497 -0.011973515711149088 -0.04808132924328518 -0.1408186384351179 -0.04130579992541287 -0.02655491607200985
0.01336939627286754 0.07669097099848521 0.04693252206520358 -0.07770093198437364 0.21832337645795613 -0.177205220431787 -0.10778638111330091 0.01671113415283903
-0.08777658891582127 0.10730624637504978 -0.11031884699088887 -0.10795370902861062 -0.21410828964042944 -0.12101021159356322 0.20088255734380794 -0.08411611184046075
0.18252322057318113 0.021873764740775594 -0.1824416032023993 -0.07513458545090979 0.13185221527243743 -0.05603985473434625 0.04391309569076041 0.08467490355095306
0.22096212317198385 -0.06249374179662241 -0.23587035430117614 0.0878938375146735 0.0787373866583318 -0.09458971072715637 -0.03429536423155963 0.41348228083901634

base.actor.actor_fc2.bias f8 [64]
00000000: c9f8 5ac2 0cca 343f ed7d 3275 94a1 92bf
00000010: d826 dc4e 73e9 a1bf 574d f5b2 21c1 89bf
00000020: 6e53 66bd 1c9a 85bf ee8d 57da 4ba4 88bf
00000030: 73d6 608e 2a68 8a3f ebc1 6551 4561 4a3f
00000040: 05a9 26e7 ca16 943f ca6a 09b7 2a3a 61bf
00000050: 834b 2de1 32e7 96bf 166f 10e3 f057 993f
00000060: 9286 b3cb 13c6 83bf 2ab7 bae4 c315 8d3f
00000070: e1ef 1c7c 9d15 5cbf 8b79 45cc a741 97bf
00000080: de5c 35b3 2a7e 9a3f 0494 697f 601a 9fbf
00000090: 0ad6 4cac 391a 80bf 0baa f234 5ce1 65bf
000000a0: 41a1 dbf2 0e2a 7d3f e0b1 d312 523c 86bf
000000b0: b3e9 2e35 691a 873f 0417 9174 bf4f 9fbf
000000c0: 586b c77b 3553 a33f 9ab2 d266 b472 9abf
000000d0: 0005 0553 4979 7f3f 840c 6379 98b2 9a3f
000000e0: 1db5 fe02 7486 903f 5735 6710 620d 7f3f
000000f0: 0785 fc34 6f51 88bf 8ff2 56a8 35dc 77bf
00000100: 075b 48e5 6364 77bf 4858 9438 5c9d 82bf
00000110: 3603 3df2 c160 783f 6a2f 157b a160 923f
00000120: b7e5 2f96 88b9 94bf f1df 9f10 87e0 823f
00000130: c217 b41b 25a4 753f f5e3 1067 1981 7abf
00000140: 36df 567f 839b 913f 752c 3165 eefd 843f
00000150: 38fd 978d 20e5 943f 269c 0129 fcc2 9ebf
00000160: 9e96 4b26 7c3e 853f 1042 743f a045 86bf
00000170: eb12 4c4e 12f1 803f 4c14 f27c ffe6 773f
00000180: f2ce 14a0 57f1 943f 9b6f 5c13 9696 613f
00000190: 4ea9 d999 2ba0 723f b109 addb 0eaa 9b3f
000001a0: 89ea 0739 3d4f 7ebf 4c3c 9202 41b7 89bf
000001b0: 4ccc 3e1a 140b 7abf c059 9703 2d29 9bbf
000001c0: d7fd 31f1 9172 73bf 9e64 ec7d 1409 fbbe
000001d0: e572 df01 5658 813f e602 9932 c44a 96bf
000001e0: 830d 21cb 34de 933f 596a 9976 0dac 94bf
000001f0: f23e 5906 a1fc a1bf 6159 9c96 d66f 953f
0.0003172188902275217 -0.01819450345339917 -0.034984210373364355 -0.012575400613661953 -0.010547852067966903 -0.012032120323914843 0.012893993825950667 0.0008050526110264222
0.019618196829164897 -0.0021029314305399437 -0.022366328233441656 0.02474953065767157 -0.009655146268815504 0.0142016700914059 -0.0017141378343259394 -0.02271139320634456
0.025871913135543483 -0.030374057556759496 -0.00786252076214124 -0.0026709366716961606 0.0071201881344012405 -0.010857239913513561 0.011280843673252194 -0.03057765149085069
0.037744208678950286 -0.025828188682384658 0.007684027121571235 0.026071913155430795 0.016137898142621333 0.00758112245825989 -0.011874073795811414 -0.005825242614659345
-0.005710973946881698 -0.009089203335445842 0.00595165024043425 0.01794674218881146 -0.020239004294102716 0.00921731490596753 0.00528349395177047 -0.006470774868881248
0.017194800040413592 0.010249960387360904 0.020405300752824845 -0.03004068374903226 0.010373086851767351 -0.0108749884953179 0.008272307409705934 0.005835531234997648
0.020451897759996514 0.002147000423873236 0.004547281566923479 0.027015907438234957 -0.007399787093613449 -0.012556560412376204 -0.006358221555205889 -0.02652426084918047
-0.004747934424016851 -2.578303235187663e-05 0.008469268734125854 -0.021769586170424036 0.019402336977021328 -0.020187578548169636 -0.03513053133485568 0.020934441511678673

base.actor.actor_fc3.weight f8 [8, 64]
00000000: 1c97 d885 8633 6bbf 5019 e1e0 36b2 86bf
00000010: 5399 eff8 1b76 703f 1f0a eca2 1a8e 953f
00000020: c3f6 e6e9 88b3 6bbf 9336 fafd b75e 853f
00000030: 1a24 923b ad61 7cbf 236b d5dd 670e 853f
00000040: 8906 8833 5d96 913f a05d 8a41 66bd 92bf
00000050: 19ab 1c85 df03 66bf 2845 6e5a e7a1 67bf
00000060: 2f74 dc56 47bc 71bf 4915 6184 7e67 54bf
00000070: 1d28 9197 7929 79bf eb2d 7902 cff4 993f
00000080: 6e4a 7acc d5fd 8a3f 66e9 50fa f0f1 6bbf
00000090: 70da f990 5a4c 8ebf 5f3a 13c9 6ec0 813f
000000a0: 3ad4 31f6 87d4 81bf 76d5 f6f3 8285 8cbf
000000b0: 63d8 8c45 d3d8 893f 1c3d e77a 04bf 7cbf
000000c0: 197f 72e0 fdb4 92bf 63b1 7c05 8343 9abf
000000d0: 8854 da56 a1ba 95bf d7a5 1053 0298 633f
000000e0: 8196 b9bb ee01 7d3f 71d4 9b49 93f9 7dbf
000000f0: f159 1dcb c9c0 70bf fb1a b34b c958 8bbf
00000100: cb18 d127 aa44 833f 338a b708 4a13 743f
00000110: 9ae8 0ac7 e627 943f c839 3e02 1793 7dbf
00000120: ee88 ffe2 3a11 62bf 910e 4d33 011d 9abf
00000130: 08ac 9194 bf6d 52bf f90b 0146 48a3 8dbf
00000140: 08e9 391c 0f7d a53f 4338 aae1 c968 913f
00000150: 3886 b5fd 95c7 61bf d39d f3b4 6b56 753f
00000160: c987 0aa8 5aac 7cbf 8f09 8ef8 fd23 7c3f
00000170: 9ddd 88c9 b47b 6a3f 5ab8 e9d8 010b 80bf
00000180: 36f6 d525 3232 8d3f 7c0a 966b bf6a 81bf
00000190: 4d1d 4f6c d4ba 81bf 6d35 9817 feeb 7dbf
000001a0: 0914 5801 70db 803f 99e9 3789 06e4 6dbf
000001b0: 19f5 b1c5 320d 9cbf 61ba 079b 4394 73bf
000001c0: e8dd 9a5a e79c 93bf fb6c 701b dd66 80bf
000001d0: 73d3 e388 650e 6a3f d49f 14a1 3c67 87bf
000001e0: 9131 0d79 580b 69bf d4a0 d0c6 5f59 893f
000001f0: 556b 93ed d91f 5e3f 18b6 2654 6269 88bf
00000200: 4e9f 4598 8e8d 2e3f dc60 86c6 0897 32bf
00000210: deff fda1 3bce 65bf 3005 4e14 528d 90bf
00000220: dae2 9891 f298 87bf 4f05 8f43 b30f 863f
00000230: 501d 7ad3 b7d7 813f a6fb 3598 c905 9abf
00000240: 042c fc9f a7cb 733f 2dee 5947 9ca4 99bf
00000250: 6935 21fa 83a6 733f c0ae 503c 951a 7ebf
00000260: e6be af7d 21d8 893f 648e 40ea 0d42 343f
00000270: a2f3 5b32 2824 6b3f 5eb1 7e6d cecf 7e3f
00000280: b321 7477 b163 4dbf 8e4a 9a08 64e9 863f
00000290: 0b8c 966a 3535 7fbf a171 a779 c860 91bf
000002a0: cb84 a10e 6a09 723f b3b9 43e5 7528 73bf
000002b0: ff5c a53f 41f3 95bf e2fb c7f6 9b23 95bf
000002c0: 2fa1 874f e5c9 8dbf b832 204c 2bb5 33bf
000002d0: 0ab6 9aad d283 8a3f 5d92 e0d2 c359 513f
000002e0: ebaa 009a 94c2 75bf e13d dc74 e846 6f3f
000002f0: 3860 cc2b a2fb 77bf 1bad 5ea5 4912 5b3f
00000300: 89e6 b52d 1bb0 963f 4dc1 f9b3 7e76 833f
00000310: 9478 8bdf 7e91 93bf 0dec 003f 59e8 76bf
00000320: 968d c4b6 bf9d 8a3f 1467 9fdb b752 82bf
00000330: 701f e892 5058 7abf dc8b d2c3 0bc2 7cbf
00000340: 79f8 301c a14c 68bf 0fe5 b961 2d0c 7c3f
00000350: 03e0 6eaf df51 553f acff 4f24 682c 723f
00000360: bbc8 939a 4a1e 7bbf ae93 d253 e413 75bf
00000370: f0ee 0cfe 2d57 70bf 0eee 84a9 e786 7cbf
00000380: 4d6f e17d 3ad2 89bf f2f0 56dd c041 903f
00000390: 01c8 0bb3 2d7a 8d3f df5d f19d 8ab2 58bf
000003a0: 8def 73bd 0aab 923f 5984 c946 9907 7f3f
000003b0: 22ac fe35 6af5 633f fa13 8a7d ea08 753f
000003c0: f234 5ec8 88c8 903f 6d54 27dc 166b 67bf
000003d0: 90db 1218 36b7 7f3f 00a0 3c61 a78d 773f
000003e0: 7b26 6ea9 ddd0 4d3f d8ef ba93 493f 88bf
000003f0: 4a21 c853 522d 99bf 8cff c627 fd87 773f
00000400: 1238 a8bc bbb4 83bf e08b 2df5 c48b 903f
00000410: b022 a14d 99b1 823f 6062 c4f6 a90a 843f
00000420: 6c47 ded6 327a 93bf 4ea3 fe87 6774 e33e
00000430: 48fd b69a 1249 86bf 8160 8f80 f825 68bf
00000440: c8dd 406f 93f9 893f 21da efaa 9e7c 95bf
00000450: 2dd7 6d3a 37fd 543f 3b83 cf1a 9b5f 6dbf
00000460: 7c11 f24f bf03 50bf 8a25 e6f3 f7a1 813f
00000470: ef79 371d c933 993f f206 91f3 f5b4 863f
00000480: b8f8 4ccc 71b8 82bf 82c2 bd79 6b6a 983f
00000490: 52c4 24c5 8e3b 953f 3894 c953 9010 66bf
000004a0: 5d6b a51b a4d3 52bf 2b0e 09d2 0ec2 623f
000004b0: 40d7 86eb 1dba 98bf ecf1 894e 8eeb 69bf
000004c0: 91cc 87a4 3f50 8d3f f882 efef ab55 913f
000004d0: d670 cbce 295f 713f 2191 92bb 1c9c 62bf
000004e0: 82fc a1b2 4287 433f 20d7 db0f a6ad 813f
000004f0: d808 e285 50a5 73bf 21a3 2769 fbc5 633f
00000500: 2303 c6ec ce85 6cbf eaa7 746d c5d2 733f
00000510: c99e 6480 9404 64bf 3c16 5e01 a00b 763f
00000520: ba60 5910 869d 793f 8544 218d 0d45 70bf
00000530: 04dc edbc fc3f 6a3f a139 9a81 9d26 93bf
00000540: 8322 a839 5f83 84bf 223e 5d96 058a 87bf
00000550: 6192 cda2 b7cf 7e3f cb5d 8714 38a0 743f
00000560: e785 8005 2d68 683f a753 8fef 210a 68bf
00000570: 8022 7372 e2f3 42bf 820c dfc2 c9e3 8abf
00000580: 76f0 f5d9 1bb7 8cbf 817c e75b 691b 64bf
00000590: a901 9ddb 171b 8a3f 9997 723a 8578 97bf
000005a0: 6068 b949 741d 953f fa8c 7ddf 06b2 78bf
000005b0: d537 98b0 7c09 81bf 3a48 3b68 b775 453f
000005c0: 4d9a 89bc 2e80 87bf dccb d6db a0b5 90bf
000005d0: f0c1 6898 d0c8 7cbf 3f27 ff1e 7b05 45bf
000005e0: 0dd9 ea78 f071 90bf f6ad db7a 3d64 6abf
000005f0: 3f1f d821 79b8 70bf 7cfb 5893 479a 91bf
00000600: f785 d05b 6c35 883f bb72 2211 dc94 863f
00000610: f043 7052 6d07 893f 603a ecfe feef 903f
00000620: f5f7 9c4f 24b1 77bf b03c f743 f084 893f
00000630: 5a4c ad38 0a40 64bf 1952 94e1 b48c 9cbf
00000640: e367 1ef9 a8a2 9a3f 3c51 9bde c098 98bf
00000650: 5c60 406d 580b 8fbf 61c5 54a4 37c2 73bf
00000660: b527 aaf9 b7d3 66bf aa58 e87f 53c0 8e3f
00000670: 64ac 8859 35c5 473f 2eb7 6a34 b273 90bf
00000680: 2dc7 1834 685c 73bf 0aa0 dc8d 6778 613f
00000690: c12f 7812 de61 4d3f 1737 52ff 010c 823f
000006a0: 7121 a6ec 140b 85bf b2e3 31b0 d95c 43bf
000006b0: 939f 53e5 4877 8bbf 3c52 f2d9 9c6f 833f
000006c0: b080 6668 7c67 82bf cc00 8301 8627 86bf
000006d0: 39bc 331c e608 6f3f eccb 4c71 1426 723f
000006e0: b6e0 d3aa 3f70 503f ccce e7a6 3f61 8abf
000006f0: 8baa af9b 01ac a1bf 45a2 4a26 90d2 72bf
00000700: 5b88 36dd 3b34 843f 9e8d 28ca 2a87 3dbf
00000710: 6ed4 3bb7 f818 85bf 48eb 1ed2 c9bf 83bf
00000720: 2cdf fde2 09a0 5a3f 4ce3 e299 a804 723f
00000730: 9b4c c0eb be69 55bf b062 c421 d1b2 82bf
00000740: 35d3 6412 fe8a 2d3f 3c27 240d 15a1 41bf
00000750: 4878 76d1 f9d1 783f 786b 6592 5bc8 6b3f
00000760: 2c8e a551 10e8 7cbf 09a6 a5be b261 883f
00000770: 8a8c 801f 6386 8abf 3ac0 fd62 383a 933f
00000780: ceed 9506 d0e3 793f 5ca4 7b2f c80e 9c3f
00000790: 1cf0 dad6 7251 84bf 5fb3 3aa4 1300 543f
000007a0: 7376 af45 8c27 973f 2805 4a03 b14a 623f
000007b0: 6063 9c80 341e 99bf 7c64 5d1c 9421 513f
000007c0: ac8a 6051 7a71 913f 10fc adcb db6b 7cbf
000007d0: 77a1 13a5 271b 7cbf e1a5 bd74 9e6d 833f
000007e0: d1e8 6d0d 12a6 723f b64d 10f3 60ea 67bf
000007f0: b422 3099 1080 343f 08d4 a046 fd2b 583f
-0.0033204677008765848 -0.01108210443284166 0.0040188877746685945 0.021049896425220035 -0.003381507310421168 0.010434567869448663 -0.006929089250783194 0.010281382996870264
0.01717515589735411 -0.01830062651660358 -0.002687393724860054 -0.0028848188989704267 -0.0043299471560916255 -0.0012453780668846995 -0.006143069237689172 0.025347933317147946
0.013179464628852968 -0.0034112650487518213 -0.014794070767704087 0.008667817603421555 -0.00870615215374403 -0.013926528043934221 0.012620592651370005 -0.007018105984072844
-0.018268553566144072 -0.02564816208830346 -0.021219750333859838 0.0023918195152148147 0.007081921150165039 -0.007318091718606743 -0.004090107207807212 -0.013352940199536692
0.009408311214553674 0.004901208110342159 0.01968346204623881 -0.007220353963829536 -0.0022054815417372675 -0.025501269107975736 -0.001124798860724809 -0.014471592556338552
0.04196974963720562 0.017001299284452164 -0.0021703652870861644 0.005209370355465609 -0.0070003072038690795 0.006870262216468594 0.003232815837943283 -0.007833494598539815
0.014255897311836834 -0.008504386397139678 -0.008657130770997635 -0.007305138156437391 0.008231043854729963 -0.0036487701088365296 -0.02739409762988485 -0.004780067524264271
-0.0191532277155754 -0.00800869693744354 0.0031806929683803552 -0.011427377382076921 -0.003057167814779223 0.012377498869753735 0.001838648624746771 -0.011919754212466535
0.00023310056361513582 -0.000283660547688592 -0.0026618160918019237 -0.016164095391563993 -0.011522193020128513 0.010772133349635253 0.008712230817094962 -0.02541270247956686
0.004832892212799148 -0.025042001585900465 0.004797473464419035 -0.007349570228182223 0.012619268081805978 0.00030911292765465324 0.0033131394474125867 0.007522398336657991
-0.0008968941246232848 0.01118734503987653 -0.0076191031052159726 -0.016970760750938067 0.004403509412527383 -0.0046772580428595 -0.021435756215706366 -0.020643650948837584
-0.014545241822773917 -0.00030071551384551086 0.012946744845375075 0.0010589992848589948 -0.0053125195263798814 0.0038179912725195696 -0.005855210762796097 0.0016523093413337079
0.022156166710806367 0.009503354899806605 -0.01910970916184647 -0.005592678659065886 0.012996194615488215 -0.008946834936000715 -0.006431879750841904 -0.007020994145167738
-0.002966227215011105 0.006847550651962977 0.0013012585093132862 0.004436880878529264 -0.0066206850253697725 -0.0051459235229786415 -0.003989391000512418 -0.006964592867287246
-0.01260801026017302 0.015875829228876044 0.014393193270255013 -0.0015074113541880747 0.018230598271642463 0.007575606094719489 0.0024363588745095624 0.005135456064299321
0.016389977673999696 -0.0028586813434495124 0.00774308329089636 0.005750325992075034 0.0009099085171879318 -0.011839461155766104 -0.024586950648911178 0.005744923484996788
-0.00962206525312229 0.016158177818748842 0.009127805406153072 0.009785964816317605 -0.01902083813144577 9.276726132005687e-06 -0.010881562563439431 -0.002947793346248118
0.01268305953281769 -0.02098319929424453 0.0012810744608179978 -0.003585627497600189 -0.0009774559291893794 0.008609711771685697 0.024611608894582856 0.011087342734870973
-0.009140862509977019 0.023843459420677345 0.02073500707883042 -0.0026934451000664404 -0.0011490919701688453 0.002289799638931963 -0.02414747953454044 -0.003164079611734252
0.01431321831566937 0.016928373832231863 0.004241145431219636 -0.002271705740513622 0.0005959582970404139 0.00863198982140606 -0.00479632810868421 0.0024137411467005797
-0.003481773519695601 0.00483967895642399 -0.002443590204297273 0.005382180233828356 0.006253741919486961 -0.003972104010317006 0.0032043396271848063 -0.018701993022256173
-0.010016197154088196 -0.011493724490406147 0.007522313430716383 0.005035609305614706 0.0029793624235174734 -0.0029345190818994174 -0.0005783897112446451 -0.013129783877849247
-0.014021127308972075 -0.002454477099703534 0.012746988668028108 -0.02292068642841336 0.02062017154671769 -0.00602915463227593 -0.008318876399268685 0.0006549020331141416
-0.011474957588871204 -0.01631785718718591 -0.007027449441509223 -0.0006415225197937481 -0.016059644108019678 -0.0032216263560849124 -0.004082177326843183 -0.017190092438109414
0.011820646812398456 0.011026114724068994 0.012221197202991946 0.01654051237988552 -0.005784169997978585 0.012460591386938752 -0.002471942866955551 -0.02788050295665032
0.026011123852732864 -0.024020207964740012 -0.015158358415689736 -0.0048238919746819995 -0.0027865021959927135 0.015015270558290734 0.000725413369825911 -0.016066345643302053
-0.004726798100408475 0.0021326086561153134 0.0008966764771129941 0.008811965564997899 -0.01027504298396373 -0.0005909026080096384 -0.013411111353391713 0.00949022808189525
-0.00898644631962528 -0.010817572518476835 0.0037884229983471654 0.004430847028561207 0.0010033246756489373 -0.01288079956154977 -0.034515428785956 -0.004595339855463514
0.009865253151307643 -0.00045056147260621484 -0.010301535693978372 -0.009643151020886656 0.0016250702428503667 0.004398974035375879 -0.0013069500410025972 -0.009130128710738233
0.00022539473975204954 -0.0005380013265334558 0.006059623577497737 0.0033914364350215408 -0.0070572507341668915 0.011905094569288914 -0.012951635741109042 0.018776780168480146
0.006320774651040263 0.027400138757830525 -0.00992097585855594 0.0012207214175916287 0.022611800912150714 0.002232881286830097 -0.024529285764489983 0.0010456034082919887
0.017034445969452847 -0.006938799454359504 -0.006861834395046499 0.009486425340315687 0.004552908437171336 -0.0029193776649749327 0.0003128090403952497 0.0014753316304567683

base.actor.actor_fc3.bias f8 [8]
00000000: bb4e a7c1 4204 733f 9440 eb2a c476 3f3f
00000010: 5ccb 77e2 463c 513f 4a15 5c43 933f 68bf
00000020: 99c8 cea2 a977 963f b92b a062 69d1 57bf
00000030: d6ac 7075 dd17 803f b1af 4506 e8cf 9a3f
0.004642735259455295 0.00048010148286171364 0.0010519687874619077 -0.002960002539910055 0.021940851747509347 -0.0014537362244506481 0.007858019014824452 0.026183724768472142
