results/fruit-tree-v2/cmorl-ipo/0/final/EP_policy_142.pt (torch, 78232 bytes, 13 tensors)

base.actor.actor_logstd f8 [1, 2]
0.0 0.0
00000000: 0000 0000 0000 0000 0000 0000 0000 0000

base.actor.actor_fc1.weight f8 [64, 2]
0.6112527717014204 0.2725710098006455 -0.005763811726719722 0.12601074394133868 0.07454497572808799 0.04946553759803999 0.022886674386808952 -0.1667714704626263
0.03327790681765109 -0.13929079071864275 0.08218565143645172 -0.02434218816117069 -0.051254009920186014 0.11263248670216973 0.19820959742989835 0.23884727810944065
0.08339813780815926 0.2220592993871318 0.1392130960334317 -0.29970962928786826 0.07357725743596218 0.12613133152928213 -0.08032533669693857 -0.36268336420349856
-0.24189598447581143 -0.3016496703642285 0.052209362607088944 -0.3364787460507475 -0.24093519332473412 -0.15071975914669744 -0.286480490171215 -0.061353248416689016
-0.2196045411718687 -0.0727625705141515 -0.11822479524007012 -0.41906598034461984 -0.21425313115368083 -0.2102496824643817 -0.12650658888867283 -0.12328703738519196
0.004346194322723522 -0.04309641475592486 -0.03820336293957057 -0.06447707427407094 0.009122191134303953 0.19914393869860605 0.0037142559212770326 -0.02509311054614085
-0.001298418145353207 -0.03380642787024718 0.03780992171584817 0.01381333588808581 -0.12144045529486712 -0.10266645335057585 -0.22126433956093583 0.17294639889536897
-0.11756325395689858 -0.16417862109661813 -0.005406861738585272 0.2145003483543111 -0.216584274962753 -0.19491700151223584 0.11188348538496658 -0.1405248898216933
0.09408385627802103 0.10465625634360566 0.09492093961751298 -0.3267590567259876 -0.16653519974603279 -0.06068112506032373 -0.10667503101890641 -0.1390378991744955
0.10165349325149546 0.3090622399822628 -0.06341853977202382 -0.015343123388122354 0.3567608808694874 0.24184328021789958 0.16784723660748682 0.3103564011644316
0.24284038750964665 0.014523360504493371 -0.09741079592293883 0.0009257554623997769 -0.05164060097769576 -0.17105067121823045 -0.13950266644675288 -0.3355134011737132
-0.12406592755169978 -0.25336443225609834 -0.046665112491694916 -0.2647254976685649 -0.07702228423433345 -0.0023828460408685894 -0.10083075532061585 -0.10775484405133878
0.09121889042940332 0.09652196934188552 -0.20458496501261794 -0.31097650903608043 0.33148521176028195 -0.11274593592583654 -0.17506425577895526 0.10657833651274512
-0.17307716457769737 -0.007775515243227996 -0.19914984581271283 0.14188838824065264 -0.05617976273035484 -0.27509982428900825 0.11303591798066238 0.16038043542574684
0.05557775419572164 -0.25603206198502826 -0.32150388859799256 -0.15155627246289763 0.03349487573236144 -0.06175851813912572 0.23551650500795085 0.33374658221381415
-0.13723447837842748 -0.11684306650092313 0.3143210652084968 0.10154822559358244 -0.1350109662321253 0.1012237411793794 0.06649924776989995 0.34218504237039704
00000000: a880 01f9 618f e33f 2c9d 3bad cd71 d13f
00000010: a370 dd6d cb9b 77bf 5f1a 16bc 1e21 c03f
00000020: fc4f d528 6115 b33f c578 8604 8c53 a93f
00000030: abad 05b8 9a6f 973f cc7a c57d c458 c5bf
00000040: 711b ec42 cd09 a13f 6aa1 62d7 47d4 c1bf
00000050: 57b9 1e6d 1e0a b53f b4df 4298 28ed 98bf
00000060: 2ec8 ca30 f73d aabf 7f5c da8e 7bd5 bc3f
00000070: 927c 5b9d ee5e c93f 31fd 1b30 8c92 ce3f
00000080: b5ef 6e92 9459 b53f c1f8 516a 706c cc3f
00000090: 41ba 5117 bcd1 c13f 849c 054c 712e d3bf
000000a0: 65b5 6a8a f5d5 b23f 5ca8 f54b 1225 c03f
000000b0: 634e 2786 3390 b4bf 88aa 0349 3436 d7bf
000000c0: 1dbd 2d97 72f6 cebf 1211 446b 3a4e d3bf
000000d0: 1c89 e281 2fbb aa3f 3992 8526 de88 d5bf
000000e0: 7880 e4e3 f6d6 cebf 2cb2 32fa c84a c3bf
000000f0: 048e 0e44 b255 d2bf 44f5 e766 b169 afbf
00000100: 0571 3169 001c ccbf 422e bb5c 91a0 b2bf
00000110: d0e4 21ed fa43 bebf 8690 1c1e fad1 dabf
00000120: b871 af87 a56c cbbf 54e6 162b 76e9 cabf
00000130: dcaf 002f 5e31 c0bf af12 9741 bd8f bfbf
00000140: 6b89 a6a7 50cd 713f 7131 e7b7 bb10 a6bf
00000150: bb68 d824 648f a3bf 5b51 59cd 9181 b0bf
00000160: ddb2 b7c4 a7ae 823f 391d f46f 8c7d c93f
00000170: ce5b bff6 5b6d 6e3f a633 9a24 02b2 99bf
00000180: 2dff 21de f545 55bf 98d0 317c 134f a1bf
00000190: 2ec0 7772 d25b a33f 609b 1a8f 2a4a 8c3f
000001a0: 2f1e e7bf b816 bfbf fd7a 8943 5948 babf
000001b0: 8cb6 17cf 6352 ccbf e7b8 9b8b 1b23 c63f
000001c0: f7ca f41a a018 bebf 1afb 2718 ce03 c5bf
000001d0: 6ca0 7565 8125 76bf a8c8 9456 bf74 cb3f
000001e0: 9c7d e594 08b9 cbbf bef7 7651 0af3 c8bf
000001f0: 7de0 b066 65a4 bc3f 5072 0737 b8fc c1bf
00000200: adb0 cb2d e115 b83f d94c 519e c0ca ba3f
00000210: 0de1 5c1b bd4c b83f d2d5 93d1 9ee9 d4bf
00000220: 8361 4582 0651 c5bf 0db6 3caf 9811 afbf
00000230: 30a7 8609 0e4f bbbf d4f3 ed6e fecb c1bf
00000240: 8311 0a9d f605 ba3f a6bf 49fd acc7 d33f
00000250: 37ea 478a 323c b0bf b023 5d29 376c 8fbf
00000260: 05e7 f496 2bd5 d63f f888 a579 b8f4 ce3f
00000270: 2900 faab 047c c53f 59c0 4618 e1dc d33f
00000280: 3c3e 40d1 6415 cf3f dd95 2873 6cbe 8d3f
00000290: ac2f c4f6 e9ef b8bf b15e b1b7 cc55 4e3f
000002a0: 63a2 b008 a370 aabf bfaa 6b07 fde4 c5bf
000002b0: 17fb 0b2f 39db c1bf fa4a 5a33 0d79 d5bf
000002c0: a1e8 61dd c8c2 bfbf 779c a073 1f37 d0bf
000002d0: f02f 0858 7de4 a7bf 08d8 b936 43f1 d0bf
000002e0: 8984 d97f bbb7 b3bf 1552 24ba 3085 63bf
000002f0: 3374 885c 0bd0 b9bf f4a2 2f4b d295 bbbf
00000300: 2ef4 2b07 1f5a b73f e13d abed a9b5 b83f
00000310: 81c2 fd12 d72f cabf f696 0804 0ae7 d3bf
00000320: 0f8e e7bf 0d37 d53f f4f1 8eeb eadc bcbf
00000330: e174 a26a 8168 c6bf 64c9 c8c5 b748 bb3f
00000340: dfd6 c57c 6427 c6bf 370f defa 37d9 7fbf
00000350: 0a70 62fd bd7d c9bf 1c7f 9611 6629 c23f
00000360: 9e71 3f07 98c3 acbf 8a39 1d4b 3c9b d1bf
00000370: 9112 0003 ecef bc3f 7b31 899a 5887 c43f
00000380: a0be 4ff9 af74 ac3f 4400 3d4d d462 d0bf
00000390: 532c c40b 8593 d4bf f9ab dd28 3266 c3bf
000003a0: 8249 b587 3d26 a13f 145e 50ff cf9e afbf
000003b0: 08b4 56a3 6725 ce3f 98a5 f09f 1a5c d53f
000003c0: 736d 423e e690 c1bf f8c4 625d 6de9 bdbf
000003d0: 8eeb e019 d61d d43f 0f2a e483 10ff b93f
000003e0: 51bf 4812 0a48 c1bf 4ab7 f191 cce9 b93f
000003f0: bb5c 613e 1806 b13f 9651 8a17 5ce6 d53f

base.actor.actor_fc1.bias f8 [64]
0.13070683886626394 -0.027121098248862913 -0.014777272647668345 0.029527392621455303 -0.1113400370610202 0.06677180287826197 0.0916152847636508 0.1805184776040401
0.005183326438195332 -0.04762922815881534 -0.008417712253564856 -0.004350801522441623 -0.030819509245055887 0.005234362013044089 -0.02032826748983022 -0.0760676797397559
-0.03263686679025218 -0.004568677603641549 -0.14110691380301774 0.008311335712136839 0.0328076544453511 -0.08125543119793933 0.15265956186460797 -0.061088948141585574
0.037075662440234435 0.06532612861594468 0.01149825341853462 0.008471547728753347 -0.032967518025216906 -0.020263039749291056 -0.13040254509239074 -0.07289429305678127
0.10730954201323259 0.013092087719087852 0.02290459050304384 -0.1528437223722094 -0.0057217676465354 -0.07195419756751426 0.036700887303313445 0.0031649132334579683
-0.004275009380488715 -0.05523377061703917 -0.12497424811255421 -0.04731274052353376 -0.018246379601288838 0.009580941651854831 0.03460397776616019 0.0006501740295758834
0.01439577991697812 -0.007367272814516751 0.04858331303565364 0.027706212701046926 -0.05076744446150989 0.007174189083559078 0.00879852448167902 0.14489478984044157
-0.1774596264522973 -0.06583753925530247 -0.06445702205671973 0.0220330080471509 -0.03704647401030104 0.08898722669424024 -0.045552656439742455 -0.0055769384456713375
00000000: 8ea6 256f 00bb c03f 68b8 0a18 a2c5 9bbf
00000010: b16b f7f5 8b43 8ebf 1cca 94c6 6d3c 9e3f
00000020: 3d9a e9d9 c780 bcbf 4d37 a8f5 f417 b13f
00000030: baa4 df6b 1974 b73f 2208 d1be 3a1b c73f
00000040: 23ac 9598 1c3b 753f 233a 8db2 db62 a8bf
00000050: 5f89 b036 4e3d 81bf 141f 0164 25d2 71bf
00000060: d027 2541 268f 9fbf a34b 955a a070 753f
00000070: c96f 36f0 eed0 94bf 6ecd c3e4 2b79 b3bf
00000080: 071e 0487 c7b5 a0bf 0338 4c0e 9bb6 72bf
00000090: 7b00 0396 ca0f c2bf 48c1 8e98 8805 813f
000000a0: e770 cd35 2acc a03f 4916 9eeb 27cd b4bf
000000b0: bda9 d038 598a c33f 8b8e d4f4 0c47 afbf
000000c0: 4312 51cb 94fb a23f 59d2 fa91 36b9 b03f
000000d0: 065a 2673 658c 873f 7930 88e3 8759 813f
000000e0: 1f48 7f57 1ee1 a0bf 30bb 2994 d5bf 94bf
000000f0: 7a55 3ed5 07b1 c0bf 3e71 be4c 33a9 b2bf
00000100: cedd 7e5d a378 bb3f f300 b844 06d0 8a3f
00000110: 832d 8e0c 4d74 973f ce67 7e12 6290 c3bf
00000120: 63c5 ac4e b56f 77bf 04c6 5c1d 976b b2bf
00000130: 2061 676d 75ca a23f 84da a2da 4ded 693f
00000140: 5a2e ab17 ac82 71bf a2b1 decc 9947 acbf
00000150: f150 7cf4 4ffe bfbf f325 7722 6039 a8bf
00000160: 42ba a1ce 2daf 92bf f10f 7a38 2c9f 833f
00000170: ff63 a2d1 9cb7 a13f 615f cc18 0e4e 453f
00000180: 2af9 8cdf 887b 8d3f 6df2 c83c 252d 7ebf
00000190: 3d2a 3d79 e9df a83f a9be c975 045f 9c3f
000001a0: 09ce 53c3 30fe a9bf 25ca d3b7 ae62 7d3f
000001b0: e905 37f7 f504 823f d8dc dc97 e98b c23f
000001c0: 0c8b fc3d ffb6 c6bf 2a5d f39d bada b0bf
000001d0: 6d2d bb61 4180 b0bf fce5 fa23 d28f 963f
000001e0: d1da 9c64 c1f7 a2bf 23db 69ec ddc7 b63f
000001f0: 0b2a 4f83 ad52 a7bf a181 c603 d8d7 76bf

base.actor.actor_fc2.weight f8 [64, 64]
-0.08362772939158299 0.021854463845559342 -0.016711393077133634 0.09661603428640489 0.2449086653015575 0.11314874094035633 0.004779727609503573 -0.04649089548585975
0.047596619206412526 -0.07551523116604822 -0.047165492272898984 -0.09285103575940795 0.059285116667340904 0.0401566657222601 -0.12931913483040436 0.14061700804597618
0.24424741727491267 -0.07005088207178141 -0.08589070205346205 -0.031161023735040202 0.16524520548760038 -0.16080834311183986 -0.13951859331684088 -0.16733596608541346
0.027761492263260554 0.08503058956909477 -0.07754506570391613 -0.08268571647989621 -0.2454109515548291 0.1330902748892188 -0.06493932334660038 -0.36701365858422724
0.018561187621783815 0.01646727439529158 0.08092500692130332 -0.18288855361628323 -0.13836635762461963 0.13104505847478617 0.07342974436948649 0.1515792272664138
-0.18314440204164917 -0.06057887224943795 -0.16787469524356452 -0.06845928429898564 -0.022732631687031553 0.16733769341094495 -0.06630328633159198 -0.04298934910164546
-0.007441574362387994 0.2795186501541236 0.004216990190877487 0.164107514721335 -0.10611064906212714 0.07573897555673935 0.009284876589375796 -0.07744888179820868
-0.07990284734795235 -0.10823488150096211 0.0045267458583806534 0.2384157387760172 -0.10174433596045834 0.04992428546257484 0.06859325538221718 -0.1922071269783732
-0.17111536033047928 -0.009421066863511443 0.005903740701585207 0.04190805233972069 0.04684168977303598 -0.1296012430256487 0.004182535866798808 0.30755479307719286
-0.14388345411669515 0.30060195919308713 -0.17476256176489713 -0.0025620972709452156 -0.1220831678157176 0.15494237791933763 0.23493920402694404 0.20479387713163197
-0.05143017491396821 0.03514393136935729 -0.04058332733844993 0.09727433740041663 0.0008078154806062638 0.07454596014114581 0.08655705348278428 -0.08989824104472376
0.0220407336937357 -0.12991631447614446 0.18244822851980277 -0.1621751273704846 0.3123585293020686 0.12743245463143243 0.09285484187068546 0.01537521576271063
0.03946990160339442 -0.0034009598390375094 0.16066315295795422 -0.010560669444223295 0.1030710224271489 0.09281254051499628 -0.10597624559415818 -0.03995201633453972
-0.13532158068111397 0.05930031112784602 0.03432859249321355 0.12049459522316619 0.1496599225755134 0.08356273488750227 -0.05532061218177842 0.14050323720789273
-0.1070354150299623 -0.02188258516802177 0.0325450596252786 0.16245146013667786 0.028478904363686303 0.08513834767765496 -0.06962539029220978 0.049903006320480885
-0.20862054093733748 0.04494508428407312 0.10159984234620764 0.15005129395019587 -0.14254602812794134 -0.2402369912709688 0.1110404643065758 -0.08349315740877036
-0.1630008316780183 0.11850495516578044 -0.030716474753762813 0.1275141712292108 -0.1323567917661582 -0.05013904616381343 0.2441775873296423 0.05971302037822259
0.05081985794611403 -0.009325185046567503 -0.0416118680770141 -0.012662268627337943 0.026463327104318222 0.09274186913206361 -0.012884246316691501 -0.08982493176716386
0.4129851141683414 -0.08411343556798061 0.04667296885256627 0.1705067669853326 0.062169443583006 -0.03034448092567013 0.13944952491962878 0.12486730410331086
-0.05848954066555524 -0.14822092290067188 0.1286228270768513 -0.049078749242510815 0.020671850280504812 0.12997676977408626 -0.10141073426030185 -0.16208068063464337
0.24800159048137219 -0.03251840146659075 0.011747743814312818 0.10397336727723511 -0.17821904918309714 -0.2031270771782312 0.0002144542693868751 -0.19199203474162307
0.21459738108523665 0.13973239209368976 0.06631949418264639 0.16757826527274397 -0.008167191056570721 -0.07822422533804686 0.032405022536414155 -0.1633038562921459
0.09975892685653155 0.023257488682914093 -0.2883471490696761 0.018595436372433525 0.05890594396236724 0.18740659144633176 -0.05832077158992622 -0.07117000267393137
-0.03272793196414691 -0.1359629818763211 -0.10920858071759153 0.12005918493780819 0.128674822127968 0.037058723724608604 -0.1386188320616465 0.018049185073604673
-0.21189117294501575 -0.03125980890528654 -0.008841173226604172 -0.129383501870647 -0.10793509617972533 -0.002885520923536446 0.17993600287433265 0.27014020701649477
-0.09851451142721603 -0.026688993044599405 0.2033465394570302 -0.024644434170400825 0.18693066706669562 -0.03961963488947829 -0.30441548056513124 -0.05507497938564453
-0.016486147776948703 0.04143850237964623 0.08384699477344927 0.003156330532104127 0.08631520332727934 0.01359443010421588 0.051920592966947426 -0.17274724973223798
0.17748787488436163 -0.020773159785137538 -0.06728740977675443 -0.10048983851759312 -0.08591360832367653 -0.027012395768328798 0.11458988193105991 0.17132552892284897
0.08478580121479251 0.08763999697646652 0.026083814249954745 0.007837461478258189 0.11735779982830703 0.12527829629668666 0.05324360432332523 0.21935170011461663
0.06336076207507077 -0.011301845238682414 0.04522995614973755 0.14818590160329015 0.051385209028006196 -0.03090282754015098 -0.08379215806889861 0.09841987985431581
0.15888568213745352 0.10545444891706858 -0.03713234082168597 -0.046360623442568694 -0.17086518922813865 -0.052672343908156234 0.10875054819145766 0.24382515110446729
0.34187193744461497 -0.024864447345893652 -0.015242424225396978 0.1904567878864434 0.03321705981747638 -0.17913746493079732 -0.0249879734278204 0.09731876490967224
00000000: dd8c c67a a068 b5bf c202 f43d 0461 963f
00000010: 3b93 f29a ca1c 91bf c281 8713 d4bb b83f
00000020: df14 fdc9 2a59 cf3f d922 ecdd 50f7 bc3f
00000030: c304 445c e893 733f d5d7 5897 a7cd a7bf
00000040: db8d c885 955e a83f 3a43 3558 f754 b3bf
00000050: bca9 9f4d 1326 a8bf a483 fce1 15c5 b7bf
00000060: 9c98 736a 9e5a ae3f 85ad fc1b 6a8f a43f
00000070: 20fb 6b87 878d c0bf a3cf 68f5 bcff c13f
00000080: f602 aad6 7f43 cf3f 95e3 8dc7 daee b1bf
00000090: 20a0 59dc eefc b5bf 8f52 68e7 ace8 9fbf
000000a0: f1ec b140 c126 c53f 276e 4b27 5e95 c4bf
000000b0: a368 bdc9 bedb c1bf 7005 e4d2 436b c5bf
000000c0: 4979 6f35 826d 9c3f 4dde 5b91 90c4 b53f
000000d0: 151c 2a51 fed9 b3bf b1a2 2020 e42a b5bf
000000e0: b90d 8145 a069 cfbf d54c 0825 1a09 c13f
000000f0: 1a7e ff0d dd9f b0bf 017e 33db 267d d7bf
00000100: ddee 3d37 b401 933f b89a ed13 ccdc 903f
00000110: 87d3 2752 80b7 b43f 711e 4c62 e468 c7bf
00000120: 0ea4 6e22 fdb5 c1bf 7fce 39a0 15c6 c03f
00000130: a2de 9eae 4acc b23f 875c eeb7 f266 c33f
00000140: 1c70 9b98 4671 c7bf b4a0 47a6 3104 afbf
00000150: 66d3 f202 eb7c c5bf 29f5 2b33 8c86 b1bf
00000160: 825c 9716 3947 97bf 5046 4b50 526b c53f
00000170: cf58 698e 40f9 b0bf d58f ef30 b302 a6bf
00000180: 687c 4668 0e7b 7ebf 7c2d 4231 a2e3 d13f
00000190: e364 51af d545 713f b4c3 609c 7901 c53f
000001a0: d4aa 7a47 112a bbbf 277a 0c27 a163 b33f
000001b0: f0de 630a f303 833f 2361 6f9e b0d3 b3bf
000001c0: fd7b 3754 8374 b4bf ec43 55fc 47b5 bbbf
000001d0: 0c6c b416 a38a 723f a584 722c 6884 ce3f
000001e0: 2cdf 80b3 ea0b babf ca04 ad0a ad8f a93f
000001f0: a9c1 97dc 538f b13f d911 373e 3e9a c8bf
00000200: 9538 3bae 1be7 c5bf 55e3 9330 5a4b 83bf
00000210: 2b47 cc53 852e 783f abef 79e4 f874 a53f
00000220: 2742 544b a2fb a73f 4576 2806 c696 c0bf
00000230: d92a 32ec b421 713f 5fa7 7f4c faae d33f
00000240: c1f0 eee4 c56a c2bf f142 f6ff 0f3d d33f
00000250: 8036 ac9f 9e5e c6bf adb7 9c7f 1bfd 64bf
00000260: 381c 29ad d740 bfbf 9cc9 f6de 26d5 c33f
00000270: 1108 ece2 7c12 ce3f 87c7 598e af36 ca3f
00000280: 55ec 904e 0e55 aabf 79bd c4a7 62fe a13f
00000290: 3fee 5c7f 56c7 a4bf c4f6 df91 f8e6 b83f
000002a0: e713 0389 7278 4a3f 82ea daac 7115 b33f
000002b0: b659 f261 9a28 b63f 8f48 4135 9203 b7bf
000002c0: 1ce8 9399 d891 963f 8329 f208 19a1 c0bf
000002d0: f753 5aab 765a c73f 69f3 2392 27c2 c4bf
000002e0: a1a8 fea0 aefd d33f 16a6 8be8 b44f c03f
000002f0: d61e 1cbd 55c5 b73f 4952 f586 0a7d 8f3f
00000300: a836 2021 6635 a43f b3de 1369 54dc 6bbf
00000310: 5d36 d035 9c90 c43f 822d 180f d5a0 85bf
00000320: 3d69 7dce dc62 ba3f 65ab 2b0a 90c2 b73f
00000330: 6fd2 fa5c 4221 bbbf a2d8 2137 9774 a4bf
00000340: dbf4 bbb1 3752 c1bf 3a9a df41 9c5c ae3f
00000350: c5f1 266c 8493 a13f a008 d4d9 bbd8 be3f
00000360: 9bea 7d6c 0e28 c33f 6c92 810d 5e64 b53f
00000370: a01a 3bb8 fb52 acbf b11f 6594 02fc c13f
00000380: 0a46 1147 ac66 bbbf 7f27 986e 6368 96bf
00000390: 6950 79fd bea9 a03f bbbb 3c9e 35cb c43f
000003a0: 68c6 78eb 9229 9d3f aa37 e972 a0cb b53f
000003b0: 15ba 4636 f8d2 b1bf 27b2 3c08 e38c a93f
000003c0: c3c2 4cf0 13b4 cabf e86b 3bc6 0a03 a73f
000003d0: 1edd 2780 7202 ba3f 9789 1e7c e134 c33f
000003e0: 67fa 7dc0 f23e c2bf 022d 66f2 15c0 cebf
000003f0: dab9 bada 256d bc3f c6ac 82bc ce5f b5bf
00000400: e191 a314 36dd c4bf 62d9 d93a 5756 be3f
00000410: 5d33 10ba 2374 9fbf 5b5e 9a65 6252 c03f
00000420: 4302 053e 11f1 c0bf c86b 0d37 d3ab a9bf
00000430: 9e9d ff0f 3641 cf3f 43f6 567b b492 ae3f
00000440: 965a bb77 0f05 aa3f 2ae9 6e26 1519 83bf
00000450: de50 0899 264e a5bf 2440 2eed acee 89bf
00000460: c659 d3d1 3319 9b3f 5062 e45e eebd b73f
00000470: c4a8 8244 0e63 8abf b62e 4e48 c4fe b6bf
00000480: 609f c51d 596e da3f 9b2e eb46 7588 b5bf
00000490: 8772 a8f5 84e5 a73f df6e f96d 2ad3 c53f
000004a0: 1dc2 ff5d acd4 af3f c867 c2a4 9f12 9fbf
000004b0: 477c 7c66 7bd9 c13f d3a1 76bb 4df7 bf3f
000004c0: 421c a250 57f2 adbf 477d 3838 e7f8 c2bf
000004d0: ba35 e879 b676 c03f b7af d98d d920 a9bf
000004e0: 0a3d 9c63 002b 953f 9daf b52b 14a3 c03f
000004f0: fd80 1ccb 0df6 b9bf c2d1 514b 0fbf c4bf
00000500: f19a 3c20 84be cf3f c968 a27d 40a6 a0bf
00000510: a1c3 df7b 330f 883f 3c58 1ca4 ff9d ba3f
00000520: c3ff e1bd e1cf c6bf 20cf b46c 1100 cabf
00000530: c457 a225 e41b 2c3f e864 27eb 3193 c8bf
00000540: 61bf c84e ed77 cb3f cafb 1d43 c0e2 c13f
00000550: e10a 9a7a 50fa b03f dff4 6e60 3473 c53f
00000560: c6bd e7d3 f5b9 80bf d9f3 94b9 8006 b4bf
00000570: ea42 0a20 6497 a03f 0af0 0a09 24e7 c4bf
00000580: 4136 5510 cd89 b93f 5cee 1ea5 cfd0 973f
00000590: c98a c999 4774 d2bf d93c 4c9c ae0a 933f
000005a0: 0d7d b77d eb28 ae3f d48d a86e f0fc c73f
000005b0: f1fb 4f5d 38dc adbf 28d6 f081 3238 b2bf
000005c0: 5f48 e72a b7c1 a0bf 6a0e 5028 3c67 c1bf
000005d0: dfe7 9ff2 17f5 bbbf e76d e4e0 32bc be3f
000005e0: ccda 6da4 6a78 c03f af7d db6c 5cf9 a23f
000005f0: 2441 280b 43be c1bf c83c 714e 7c7b 923f
00000600: f211 0efd 3f1f cbbf 2cd6 da21 4901 a0bf
00000610: 47aa ee2e 521b 82bf be93 967a a38f c0bf
00000620: 9aba 2e6c a2a1 bbbf 04d1 f33f 60a3 67bf
00000630: a8ee db97 2408 c73f ea1c 9e26 fa49 d13f
00000640: 49e5 c23c 3f38 b9bf e9ad 2801 5c54 9bbf
00000650: 0982 5c68 4207 ca3f 7843 29fb 633c 99bf
00000660: c5e0 d516 58ed c73f 3171 4258 0649 a4bf
00000670: 5e18 5b11 8b7b d3bf 4f14 94a6 c932 acbf
00000680: 47f4 27a6 bee1 90bf c616 0869 6d37 a53f
00000690: 217b 6b24 ff76 b53f 88e4 240d 4edb 693f
000006a0: 7d31 70cf c018 b63f 7296 a485 65d7 8b3f
000006b0: f45d 9001 5695 aa3f c875 09f6 941c c6bf
000006c0: c24d 0835 ecb7 c63f 4ca1 a527 8f45 95bf
000006d0: 5278 6c68 bf39 b1bf 1b6d 03ba b3b9 b9bf
000006e0: 4613 082a 6ffe b5bf 7c75 a531 23a9 9bbf
000006f0: e9ad 5833 c355 bd3f dec5 d8b3 feed c53f
00000700: 08f8 61b3 85b4 b53f e0e0 d528 936f b63f
00000710: 5b4c a224 b7b5 9a3f 19bb dc45 160d 803f
00000720: 8d6e 3128 290b be3f 4516 bf84 1e09 c03f
00000730: b466 94e6 be42 ab3f 423a 286d b713 cc3f
00000740: f649 f630 6938 b03f 910c 7afd 6b25 87bf
00000750: bdde ec7c 6128 a73f d4a4 8e70 c1f7 c23f
00000760: 78fc 8b80 294f aa3f aa35 8ea6 fda4 9fbf
00000770: d832 9122 6773 b5bf 1b23 4095 0b32 b93f
00000780: 36a0 4ab4 5d56 c43f f106 5111 10ff ba3f
00000790: 66f8 e79a 0203 a3bf 0819 0463 94bc a7bf
000007a0: 143e e117 e9de c5bf e177 fa94 def7 aabf
000007b0: 9e85 e76f 13d7 bb3f 0ecd f79c a935 cf3f
000007c0: 76aa afd5 3ae1 d53f fe22 bcd0 1076 99bf
000007d0: 6d8c 7a8c 6b37 8fbf 8101 a355 e360 c83f
000007e0: 43b1 2b93 d301 a13f 11dd aef8 f9ed c6bf
000007f0: f4c8 a982 7296 99bf cdfb 92f0 e1e9 b83f

base.actor.actor_fc2.bias f8 [64]
0.05549035707045203 0.01158889477755474 0.035849672765444866 -0.049542789657564236 -0.03683963158756357 -0.013070505233086541 -0.0411598891495031 -0.053312972539073925
-0.05103300545119299 0.008904167064328368 -0.03371782847081942 -0.03692018185992107 0.047095600146406305 0.01030471135220773 0.030858441601269094 -0.05344518722731047
-0.03988685814734319 -0.04267459585696083 0.052710076488588456 -0.03779134816182611 0.022526416619028527 -0.01627274305211426 0.01651515236401122 0.0005521066735839972
-0.013282789144028558 0.04932717392688198 -0.042045333540095216 0.058495700758665545 0.022688669129464843 -0.028924155535311552 -0.049788647431624464 0.04711227151780671
0.016579585389130926 -0.011841969313377191 -0.0436415108037329 0.04494785924012775 -0.047153830417378764 -0.026858588071151778 -0.003808858684799862 0.027747186386892782
0.04818393051502069 -0.04181793241379551 -0.05916446744460318 0.05765032144428318 0.04020218932694994 -0.05209471854399932 -0.027716316597182433 0.0401200214022919
0.04411860816144527 -0.021554614111298064 0.05204845251849153 -0.0065558748956819355 -0.04196792511898862 -0.01409199743238914 0.05365458359475824 0.04640952486751072
-0.03275032670397424 0.057824577346201986 0.029076315733202275 -0.033653603042285 -0.029209815853198963 -0.04544927479002109 -0.0015264188703766578 0.03696690996106601
00000000: f1ce b869 3b69 ac3f b5f3 8720 ebbb 873f
00000010: 7724 3368 e35a a23f a5e7 a92a ac5d a9bf
00000020: 3505 bbe9 a4dc a2bf 557c 2584 b5c4 8abf
00000030: 23b3 9bb3 e812 a5bf 5a07 0483 d64b abbf
00000040: a8e2 db82 ff20 aabf f11c b712 593c 823f
00000050: 950b 2695 7643 a1bf ef2c 4dbb 33e7 a2bf
00000060: 2a20 d41c ea1c a83f a005 05f2 a21a 853f
00000070: 6d91 eef5 5a99 9f3f ba2f 8ae6 2a5d abbf
00000080: 54e9 90de 0c6c a4bf 6abd 26d3 71d9 a5bf
00000090: aa54 60ad d0fc aa3f 9884 da38 6359 a3bf
000000a0: 5bfe b23a 2a11 973f 6771 e64c cda9 90bf
000000b0: f9e3 2a1d 59e9 903f 3b6d b00d 6817 423f
000000c0: f13f c9c7 0134 8bbf 2bdf a34d 6941 a93f
000000d0: 211c 0249 f786 a5bf c61d 6e03 26f3 ad3f
000000e0: 966f 9acf b23b 973f d8b4 5a38 4b9e 9dbf
000000f0: 1e9f dcc8 e57d a9bf 7e89 d182 191f a83f
00000100: d737 1c24 3dfa 903f 2f99 5e37 9a40 88bf
00000110: 1fd5 4c1b 2e58 a6bf 9b51 ece2 6703 a73f
00000120: d22b 0cff 8b24 a8bf 3382 8755 d180 9bbf
00000130: 12c7 8f6f c133 6fbf 82d3 5928 c269 9c3f
00000140: a26e 826b 90ab a83f c109 35f8 2869 a5bf
00000150: 1708 8519 ce4a aebf e106 6aca 5784 ad3f
00000160: 3c11 c6a0 6195 a43f c7b0 e1b0 28ac aabf
00000170: 60e4 6685 aa61 9cbf 44e2 ac87 9c8a a43f
00000180: bb9a 65d6 b696 a63f 3363 beaa 6912 96bf
00000190: 2da8 bf42 18a6 aa3f c1c0 6044 55da 7abf
000001a0: c1eb bbe3 d17c a5bf dc02 dce0 43dc 8cbf
000001b0: 0bd5 a313 9d78 ab3f 61c6 0e3f fdc2 a73f
000001c0: 0df7 409c a6c4 a0bf 76c3 36d9 2e9b ad3f
000001d0: 2a2b a684 2ec6 9d3f aa19 eb88 0b3b a1bf
000001e0: ea26 3f8f 2de9 9dbf c83a b399 2045 a7bf
000001f0: 707e 35c8 4302 59bf f247 a2aa 53ed a23f

base.actor.actor_fc3.weight f8 [2, 64]
-0.038422818326542166 -0.010802028474740025 -0.021775829528960296 0.008035237796692036 0.023707143951937674 -0.03079953971476852 0.012812196060232869 0.03870947520515132
0.03927951224483205 0.028311106293190474 0.03620609635975461 -0.0883765833838756 0.006213910067733011 -0.04008596486497878 0.07984185856340045 0.0020085495761426723
0.010407055218111225 0.022748661484882308 -0.009000749715818122 0.023816036632829378 -0.017298416059592807 0.010225943931619816 -0.018253564085111758 -0.02900010800676123
0.020536939104682878 -0.02677509045973663 0.015388079468201142 -0.003102393601636 -0.03822470166710165 -0.04973857603609041 0.029898191701266986 0.0004363842041028668
0.02830541655633793 0.049048623072003854 0.035870348516605886 -0.019495206301824792 0.03205491222528042 0.010111387307310923 -0.0474277699573108 -0.012414171239504609
-0.030024432767620124 0.027094368857420063 0.010252510283623088 -0.00928935568410847 0.0009747544975727822 0.03807764623454764 -0.06590538424061095 0.07711467266129367
0.0007163006474026314 -0.06446150341266021 -0.007813391630722585 -0.03379709068560926 0.014467811595686848 -0.0111088490588449 0.011801585247129756 -0.03255500718423249
-0.03522866707415464 -0.030652540857230272 -0.04057659190420249 -0.03843867955146465 0.01875108297858157 0.012343604675649445 -0.029919827070534196 -0.00015479877723624755
0.03951651205279141 0.01265692070708036 0.020493012181908306 -0.010040990261602325 -0.02352829108545216 0.03267878897335213 -0.010412363703663104 -0.04026376455089639
-0.03773031308908813 -0.025982473952214754 -0.03615547027721487 0.08940081211226 -0.007373464668896922 0.042040418772232746 -0.0790492569982217 -0.0015970094360700014
-0.01139995535882116 -0.02227729936066966 0.0078111402553343945 -0.02376030749771539 0.020280030679398774 -0.012569226040783135 0.01655944271558774 0.029836850383159443
-0.023308455594699337 0.028908465915724536 -0.015024184457581054 0.00298563838946023 0.03660443552061786 0.047556179324796395 -0.028129966009627274 -0.0005252416574038835
-0.02866061648743938 -0.04644672360863998 -0.03598447456451778 0.01895524625341393 -0.028373608152638275 -0.009645028408472357 0.04446721088031991 0.01604815229020323
0.02790431862005846 -0.029756910512911065 -0.009331602457494164 0.012054106538769632 -0.0016828863356842915 -0.04011738319462615 0.06658726752023593 -0.07659214133801612
0.002243574184154309 0.06207024881269138 0.00918202051619065 0.032642059153067476 -0.015398378901270363 0.013246573960482441 -0.01302513822945687 0.02960288414417036
0.036276918936509014 0.03274540378452254 0.03857342309705619 0.04012234219728952 -0.019995220295427368 -0.010631634391441285 0.029707460357197884 0.0011745902569806775
00000000: 72ea 43d8 27ac a3bf 555a 3cb8 5f1f 86bf
00000010: 423d ae2e 674c 96bf ca43 6b5c c774 803f
00000020: 4e0f d27f af46 983f 9325 3a1f ea89 9fbf
00000030: 3e93 8cd8 473d 8a3f 5e57 1a74 bad1 a33f
00000040: 0f20 fdb8 711c a43f c842 922e 96fd 9c3f
00000050: 64db 8fff 9a89 a23f bcaf 5d07 d99f b6bf
00000060: 29d4 56c8 c173 793f 2754 3fc8 2586 a4bf
00000070: a2b4 611b 8470 b43f 9dde bdd7 3b74 603f
00000080: f2c2 794e 4b50 853f 61df 6bd4 6c4b 973f
00000090: ccf2 592d fc6e 82bf 1e57 d529 3b63 983f
000000a0: 7e84 fe0c adb6 91bf 4b69 0ef6 56f1 843f
000000b0: 32bd 1ff3 0fb1 92bf 81c6 e04d 34b2 9dbf
000000c0: 181b 42a7 a207 953f 4df0 7ce7 ed6a 9bbf
000000d0: 1f6d 8310 c983 8f3f 00f9 dde1 306a 69bf
000000e0: 6c7e 1e27 3092 a3bf 7b67 d9aa 5577 a9bf
000000f0: 6a13 44ae a19d 9e3f aac0 96e2 4f99 3c3f
00000100: 8bf2 a259 18fc 9c3f 0f24 04b0 e61c a93f
00000110: 83c5 8c2b 995d a23f 45fe fa25 8df6 93bf
00000120: db11 5e5f 8069 a03f 1eae 6a6e 47b5 843f
00000130: d118 c7e1 7348 a8bf 3e4d d8db 996c 89bf
00000140: 2082 4593 b9be 9ebf f1f0 9750 a0be 9b3f
00000150: 8fe4 f5a2 44ff 843f 74cb e936 4c06 83bf
00000160: fa73 2758 d5f0 4f3f ca73 92ca e97e a33f
00000170: cd98 f1dd 2cdf b0bf 7f3b 1f85 c9bd b33f
00000180: e3bd 66ed c378 473f 6824 0291 8c80 b0bf
00000190: fec6 32ac 7700 80bf 97a7 632e da4d a1bf
000001a0: ea70 2fcd 4ca1 8d3f 7d44 3b7b 3cc0 86bf
000001b0: 5b45 6bf5 6d2b 883f 28ca 5ac6 0cab a0bf
000001c0: 432a eee9 7d09 a2bf 4a9d 1532 6163 9fbf
000001d0: 6162 6c7e 74c6 a4bf c361 260f 3cae a3bf
000001e0: 4d5f a1e0 7b33 933f c75f 2c93 9a47 893f
000001f0: df65 149b 4da3 9ebf 55d2 125f 2f4a 24bf
00000200: a363 d61d 823b a43f 8330 0a24 dfeb 893f
00000210: 52a7 78c4 1efc 943f 8123 58e6 5e90 84bf
00000220: ba9c f8e2 cc17 98bf 77ad d333 46bb a03f
00000230: 9e7b a6cc 1353 85bf cc7d ebbf 739d a4bf
00000240: ae29 9239 6351 a3bf 7f63 934f 269b 9abf
00000250: be03 d344 f882 a2bf 1e0c 42bc f8e2 b63f
00000260: b229 c759 a333 7ebf e048 795f 5286 a53f
00000270: 1d99 9475 923c b4bf 1920 28d3 572a 5abf
00000280: a235 891b dc58 87bf 3803 ca40 dccf 96bf
00000290: a9de 0eff 92fe 7f3f dc15 953e 9f54 98bf
000002a0: a39c 1ed2 49c4 943f 3be3 3ff6 e4bd 89bf
000002b0: 011e 9d63 f5f4 903f 87fc 7122 8d8d 9e3f
000002c0: 6c7d fff9 2bde 97bf 6d05 be4e 2e9a 9d3f
000002d0: d1b1 27e7 ffc4 8ebf 4778 b167 5675 683f
000002e0: 3e31 e60a d1bd a23f b16d d895 4859 a83f
000002f0: 871d 3210 1ace 9cbf bb9c dade 0b36 41bf
00000300: 2cac fc69 3559 9dbf 6e98 cf6d ddc7 a7bf
00000310: ac31 d69a 8e6c a2bf bef1 fb0a 0169 933f
00000320: 8d24 579c f80d 9dbf fac2 aacc c5c0 83bf
00000330: c05b f300 68c4 a63f 0f98 fd44 ed6e 903f
00000340: b8ae 8f1f f392 9c3f de8a ee75 9878 9ebf
00000350: 2962 fe7a 721c 83bf 969f eeca d2af 883f
00000360: b3da 9371 8992 5bbf b7df a401 448a a4bf
00000370: a154 54f8 dc0b b13f 5c69 2de6 8a9b b3bf
00000380: d22e e8b7 1d61 623f dc01 69f1 abc7 af3f
00000390: 3b3c a0ee 05ce 823f 0cb3 12c1 75b6 a03f
000003a0: 75c7 566e 2f89 8fbf 38f6 8d0f 0521 8b3f
000003b0: 956b c575 ecac 8abf 66e2 10ed 3750 9e3f
000003c0: 7628 dd68 e392 a23f 059b b26c 01c4 a03f
000003d0: 58ac 644d e5bf a33f 140e 2767 ea8a a43f
000003e0: 6b0f fb84 a079 94bf 2939 1dd0 09c6 85bf
000003f0: 0bbc b9ea a16b 9e3f c70c 5baf 963e 533f

base.actor.actor_fc3.bias f8 [2]
-0.041770666018425766 0.04177066601842579
00000000: f769 f6f8 f662 a5bf fa69 f6f8 f662 a53f

base.critic.critic_fc1.weight f8 [64, 2]
0.07925181371948944 0.0816790551270321 -0.10953099127608337 0.00046755362468097665 -0.3275567140732095 -0.1383408285044866 0.02780651323629308 -0.06383741804149316
0.03036377827963477 0.05001269993734149 -0.09851960485174638 0.10126934849009843 0.06664700853005223 -0.022242149744352385 0.0338848516344065 0.04244104752275758
0.007259592037445833 0.09338489381743716 0.06381655502729357 -0.10489248761018144 0.06977865517579017 -0.17200761449663424 0.04059738734653777 -0.07896985726621228
0.1553751452372691 -0.056297388081695925 -0.12748581105538748 0.0055940881196717175 0.021205736081556976 0.05095130500435585 0.11045156077192203 0.04533409252399054
0.04935611149206413 -0.003815213974432931 -0.11811222423601095 0.06321024316598857 0.10759151929793352 -0.006021186017922154 0.017159883875216587 0.11319563682804268
0.11812425229345033 0.06396094978954078 0.018007946820548806 0.06979993813573233 -0.13588580825479543 0.12270496901110327 -0.07433527877388861 -0.004864396913737826
-0.0023399198145790307 0.08681526452591146 0.2388857455273052 0.15287683022303372 0.07433101988161597 0.1646066463682591 -0.059549339791666225 -0.20617612557798864
-0.16880653438113993 0.22562671560772282 0.056494143653047245 -0.04585661811349353 0.13042566090538127 -0.02598378147822786 -0.13219767292705362 0.1179057291224037
0.10024564745479439 -0.028316764035515963 -0.005077003294601689 -0.09903214296953199 -0.03376790810859543 -0.15232610482703238 -0.11570507935858805 -0.09202575726141846
-0.034957476501919625 0.21448148625841973 0.13375393442412584 -0.06251737055533627 0.19763604986723116 -0.2705288940371018 -0.010223765026028928 0.16713386353403362
-0.14999899895152188 0.13518490568538538 0.04236583629231728 0.11464859084905908 0.051248840907944876 -0.0681649418666932 -0.01214127999623531 -0.07572361321633221
-0.010844216309062312 -0.02204281866836953 0.2195199423439719 -0.05695599447373244 0.03298131006790704 0.044134970908545276 0.011214730309896129 -0.0350075614600831
-0.020287502948362336 -0.02684027706877572 -0.12648172644758507 -0.029195745920494925 0.12603172138268984 -0.0683299030547527 0.2569075351111817 -0.04397025575500981
0.04822109362873121 0.25596669999194654 -0.0686023427649944 -0.08987549210858667 -0.036505033368406055 0.1633176676592803 0.12845041272734423 -0.21766735954922667
-0.07702856414077193 -0.36297506972883936 -0.03748460493511257 -0.3074660981611687 -0.07083602642008341 0.020259108098008606 -0.07709806109444989 -0.033682988057063365
-0.1621572833891558 0.07097027236977416 -0.10233626441005092 -0.0031956166701504257 0.06191393207545577 -0.11120752308715125 0.294627260599918 0.08790045833413018
00000000: 8aea 12cc d849 b43f bfed 8926 ebe8 b43f
00000010: a2e2 6d19 390a bcbf 8a0f f286 3fa4 3e3f
00000020: eae5 a16f b0f6 d4bf 9c6c 10fb 26b5 c1bf
00000030: 92d8 dc83 4f79 9c3f b3d1 bf26 a657 b0bf
00000040: e1ae c6aa ae17 9f3f 7228 3bbd 439b a93f
00000050: 5864 dab0 9438 b9bf c329 dabb c9ec b93f
00000060: 5847 0342 c70f b13f 0b9a fa66 a5c6 96bf
00000070: 35fd 32f3 5a59 a13f 1288 3c3e d5ba a53f
00000080: e04e 21e6 3bbc 7d3f 35e6 e288 12e8 b73f
00000090: c11d c920 4856 b03f 98be e1eb 3bda babf
000000a0: 6f5a f091 03dd b13f cf87 7673 5804 c6bf
000000b0: 66b0 e945 2ec9 a43f ee02 545a 5e37 b4bf
000000c0: 8fe1 b32f 55e3 c33f 3f7c 52e1 02d3 acbf
000000d0: 24ed 977e 7451 c0bf 441f 6698 d3e9 763f
000000e0: 45e2 d4db f4b6 953f 304d 5d19 4a16 aa3f
000000f0: 5cbc 4eb1 8d46 bc3f ec99 91b9 0736 a73f
00000100: 95aa 6e49 3445 a93f b7f5 ea67 1541 6fbf
00000110: f6fa 594c 9a3c bebf 898d 2be7 8b2e b03f
00000120: ef29 b628 1e8b bb3f a752 7bd0 aba9 78bf
00000130: 9a58 3050 5c92 913f 30f1 39a6 63fa bc3f
00000140: 96fe 7618 643d be3f 6e32 91ab be5f b03f
00000150: d442 a6da ac70 923f 7d48 8ea3 68de b13f
00000160: 9bf1 38c7 b464 c1bf 0f9a f5c4 9769 bf3f
00000170: 6bdc 4507 a307 b3bf dd5b 8c9a b0ec 73bf
00000180: ed2d 86e2 2a2b 63bf 5eb0 ee71 8639 b63f
00000190: f79a 42e0 ce93 ce3f aae1 0fcd 7791 c33f
000001a0: 2a49 7893 5b07 b33f 768e 6da1 d411 c53f
000001b0: 62a4 ce45 407d aebf d266 49b2 fa63 cabf
000001c0: f550 42d8 739b c5bf cbcc 5112 56e1 cc3f
000001d0: db8b cfe6 ccec ac3f 138a 34c6 847a a7bf
000001e0: 0eeb 12be c9b1 c03f d99b b30e 7e9b 9abf
000001f0: ab1c ea74 daeb c0bf 7f7d 97e2 112f be3f
00000200: e27a 62e1 b2a9 b93f fd27 d8dd 11ff 9cbf
00000210: f2be cab1 9fcb 74bf 5f93 4ea7 2b5a b9bf
00000220: f124 f6f9 064a a1bf f192 47fb 6b7f c3bf
00000230: 2d83 d31b d99e bdbf 3ed2 d301 008f b7bf
00000240: 4322 a744 f2e5 a1bf cae7 891c 2174 cb3f
00000250: b70e 0853 d91e c13f ba92 f76d 2301 b0bf
00000260: 785e 5859 234c c93f 30cb 206c 5850 d1bf
00000270: b225 6e83 32f0 84bf 0966 f776 a464 c53f
00000280: abfa 76cd 2a33 c3bf 0a71 6a2e bd4d c13f
00000290: f1b6 af92 f9b0 a53f 6fac 3a2c 9c59 bd3f
000002a0: cca7 50bf 493d aa3f b01a 0df4 4173 b1bf
000002b0: 198f 1f04 87dd 88bf d591 4c6a 9f62 b3bf
000002c0: 0b75 2f13 7e35 86bf 1b52 2b85 6492 96bf
000002d0: 05f5 97be 3a19 cc3f 2ed4 260b 5629 adbf
000002e0: 1ee6 3d20 ede2 a03f 8600 53e1 db98 a63f
000002f0: 68d2 509f bff7 863f 80e3 2ad7 82ec a1bf
00000300: 9d0e b946 3fc6 94bf cd64 e780 047c 9bbf
00000310: c926 519f 8d30 c0bf 28b6 a457 7de5 9dbf
00000320: 4172 ccb4 ce21 c03f e681 f58a 117e b1bf
00000330: fa80 594d 2c71 d03f f3d5 edf4 4483 a6bf
00000340: f6ba 3968 6fb0 a83f 2826 5527 c261 d03f
00000350: 3dc9 9a52 ec8f b1bf 2e7b 518b 1402 b7bf
00000360: a1d3 e9a8 c9b0 a2bf 4a51 bae4 97e7 c43f
00000370: af2b e928 1071 c03f 48d6 5527 86dc cbbf
00000380: 0dab d7db 24b8 b3bf 73ea 6fc9 fb3a d7bf
00000390: e77d 99a0 2e31 a3bf cfc7 0e49 86ad d3bf
000003a0: 6454 da50 4f22 b2bf 8a86 e8ba cdbe 943f
000003b0: 0455 fcd2 b2bc b3bf 6ef6 4588 e53e a1bf
000003c0: f078 7be2 91c1 c4bf 18ff d096 1b2b b23f
000003d0: 9e02 d69c b532 babf ced8 d7a2 b12d 6abf
000003e0: 1a98 dcd2 2eb3 af3f a37d baa2 1878 bcbf
000003f0: 9359 324c 2cdb d23f 4837 d9f9 a480 b63f

base.critic.critic_fc1.bias f8 [64]
-0.05361297056631825 0.060884529805856895 0.03472331216420759 -0.07165257785458039 -0.07042557493198863 0.0679043800632858 0.06721178034967944 0.0683338567194221
-0.0565274009411203 -0.06883768164961407 0.056559003664108806 -0.06444043521073999 -0.06257206468274937 -0.06587178031020005 -0.058501460192975044 -0.06148429450423623
0.07867266977444558 0.0675807803936778 0.05808292102953472 0.07791366843722385 -0.06278419334381745 0.0598454997391754 0.06023253280078757 -0.06601180787978533
0.07297688242434637 -0.04385250527515927 -0.05810389641535151 -0.059145449477298356 0.011559851998032089 -0.07586762742934279 0.06025309959275943 0.06869855781393547
-0.06673733613097886 0.06349186428170905 0.058627627128077994 -0.06175233380660213 -0.06125351245066873 0.05035704868960772 -0.06099583128722709 0.05746648533573559
-0.056881451383487526 0.05859158548769081 0.06410420239079001 0.05971764305155632 0.07359828156046619 -0.05395495890255375 -0.07651723612260859 -0.078226460397576
-0.06897951267489173 0.05519506928623142 0.062437209538409255 0.0215218833694201 -0.042787734777463324 0.05720000641513171 -0.06181957703570042 -0.07011795341337285
-0.003283102331797188 0.06076324509975827 -0.06160759744879175 -0.07006748493776987 0.05893333699281138 -0.06994279848301986 -0.06604522282290366 0.05429049307558726
00000000: 088f 72c6 2873 abbf 9f6d b2d0 412c af3f
00000010: 57e2 4e04 41c7 a13f 7b3c 8fc6 d257 b2bf
00000020: 0f88 2215 6907 b2bf e780 a073 2e62 b13f
00000030: bfff 818e ca34 b13f a4c8 d1df 537e b13f
00000040: 806f bdd4 28f1 acbf ace4 6aa7 589f b1bf
00000050: de39 103e 4df5 ac3f 9327 c519 2b7f b0bf
00000060: 8aa2 740b b904 b0bf 025f 2916 f9dc b0bf
00000070: 0a1a 9844 e7f3 adbf 0406 3a94 de7a afbf
00000080: 332f c55f e423 b43f 6b06 a159 f94c b13f
00000090: 5056 8e6c 0bbd ad3f 5b69 d971 26f2 b33f
000000a0: 5710 1ef9 9f12 b0bf ee93 62c0 11a4 ae3f
000000b0: 02bb 116d ccd6 ae3f e056 fe5b 26e6 b0bf
000000c0: 2d69 60eb 9cae b23f c04a 02e8 d573 a6bf
000000d0: df8a bf3d cbbf adbf aca7 6cf6 4f48 aebf
000000e0: b3a5 3912 b1ac 873f fd56 a292 0f6c b3bf
000000f0: 9891 7788 7ed9 ae3f 24dd 178b 3a96 b13f
00000100: 7fce 1ab4 b215 b1bf 30ea a6b8 0041 b03f
00000110: 8e79 50ba 7004 ae3f fb53 4d7c 009e afbf
00000120: b743 7bd1 9e5c afbf 6869 7d2a 66c8 a93f
00000130: b256 2479 d83a afbf dc1e 4446 3f6c ad3f
00000140: edd6 e1ca 901f adbf 5d18 fb5e b7ff ad3f
00000150: ccfa cd0c 2269 b03f 2b20 cd97 4f93 ae3f
00000160: 8610 5844 56d7 b23f 7011 e3ff fb9f abbf
00000170: 0517 ba32 a296 b3bf c2e4 1639 a606 b4bf
00000180: 8d5d 082f a4a8 b1bf 113a f832 8742 ac3f
00000190: 30bc 0a1a c5f7 af3f e943 e124 d509 963f
000001a0: 6e08 1423 46e8 a5bf 2599 c4b9 5149 ad3f
000001b0: c3e4 3dcb d0a6 afbf fcdb c50c 40f3 b1bf
000001c0: 0baa 9f24 2ae5 6abf af2c 012d 5c1c af3f
000001d0: 4194 74f0 078b afbf 0419 5254 f1ef b1bf
000001e0: a679 0ea6 822c ae3f 1f46 1370 c5e7 b1bf
000001f0: e5d6 14f8 56e8 b0bf e999 7ca8 f6cb ab3f

base.critic.critic_fc2.weight f8 [64, 64]
-0.2052096779773007 0.10931221065976543 -0.14637868612145996 -0.16008690405231457 -0.12553180636160433 0.037557136712481766 0.06543939099533112 0.008415957595388376
0.08670922610090713 -0.08326221371364681 -0.10077798206948335 0.16734000889812736 -0.17684898916193378 -0.28801464453403636 -0.037876271969370316 -0.07306544488041555
0.08418027063308471 -0.015397833143530472 -0.07478108186829592 0.15885586759403786 -0.24581502264073016 0.10047172576291065 -0.16015928605436427 -0.03667490597504291
-0.11400205825978676 -0.21804672318462737 0.019544545452694045 -0.00012538205875363753 -0.04820358434400676 0.03751295765991205 0.2536563270574662 -0.023369162491093307
0.042323535870203086 -0.04322697640341575 0.0019553885963600453 -0.028932796081438568 -0.14152406029929152 0.06124967690352755 -0.1599889052255866 0.15436187902191265
-0.004118251038285331 0.07894247998122507 0.2755400996904585 0.051230085657772755 0.27073602458398105 -0.20544674966699886 -0.033496076097891736 -0.067667897876773
-0.2082955781111343 -0.04008926315329336 0.010760668988804763 -0.10350873347706209 0.08839108179252045 -0.08341465888738722 0.1786659137249685 -0.016151205455727465
-0.029808640703951648 -0.1670017859014756 -0.40185361513985146 0.13519488618837777 0.07284350104712797 -0.04050733145939845 -0.07051257514046996 -0.06568530482941613
0.017473409557723387 -0.12091484398083106 -0.057953171156863936 0.17646478518242667 -0.0764123066693753 0.011767990186828507 -0.1902826000212224 -0.14561649721127395
0.0004928897793783866 -0.07009407440283937 -0.27488213004493045 0.05118189838557996 -0.02453777687524179 0.06906707152649072 -0.030995555695490486 -0.05238578270176265
-0.0343930466347478 -0.22556024833452212 -0.11559555626428077 -0.08899271633282081 0.1422922130787207 0.20973485924222426 -0.04695510764031758 0.061290824358633735
-0.06850581829070683 0.12907978770199324 -0.055270139049356355 -0.100435401999023 -0.16111707435027708 -0.08606834077180421 -0.029513286819743807 -0.07820360796330877
0.20291368803680648 -0.010671060582761085 0.009450672546665725 0.4539165192877562 0.16961245495369792 0.03985727636005332 0.018945249801241317 -0.052133418115110075
-0.15230788560764208 -0.07083644319062475 -0.19989283524922014 -0.20196435514084815 -0.07506724359146566 0.05377866927520122 -0.2586355428116746 -0.10249961592692655
-0.05187357107662008 -0.052769302355358066 -0.13064678194395826 0.08384961553362233 -0.061019485166935464 -0.11469619880968825 0.11865167594824502 -0.08385780260525509
-0.24666064836233034 -0.05600313461992868 0.11285677119199335 0.09383242682018766 -0.09784286880451937 0.13696847630871378 -0.15271648363209409 -0.14191181059139718
-0.20576853699056802 -0.01627421844311585 -0.1154189114758941 0.14865437292269243 -0.11871845215309289 -0.12996343051708237 -0.17026809676902988 0.14349663456316777
-0.016203545000196124 0.02736340429142095 -0.008369225850243186 -0.06005591801289986 -0.03421820204880881 0.03979580741091712 0.13498500818011527 -0.0059147238617759034
-0.03659697038171942 0.08576273146125805 0.042119647741491385 0.12321570138370481 -0.142918656288188 0.1567102735021572 0.07790811319827873 -0.039190926203294556
-0.13126005356057283 0.029614692958869603 0.0717962037274192 0.21397705148269708 0.36443015305320947 0.1523447811054037 0.22936285142407897 0.030679530783189662
0.11903143822827078 0.1781655173729489 0.05138244894152295 0.23729334282836242 0.05305590179388296 -0.01862517522681499 0.009735327213844396 -0.20331563642271844
-0.041680444672778504 0.04150953098880158 0.06966665401247382 -0.06627755624055924 -0.15482816270551794 0.059137142628999856 0.17439710054300364 0.2864566398600311
0.25611366240167943 0.1074045182984841 -0.09455618793097974 0.004507545777711808 0.023397707792484353 0.11747853386668689 0.052424119917623954 -0.21070721758443764
-0.1331054600856494 0.006571788122083107 0.08052296412733863 0.04400727928425824 0.028565628117104173 -0.030290813399935935 -0.04316978509364793 0.03212356065428423
-0.09585946638735154 0.17317690193713015 0.23457227302987796 0.14350271388015795 0.19621136387773172 -0.009283158231598681 0.20502105352231628 0.04113948130147436
-0.14661644473590693 0.016360471772409832 -0.1731843056942055 -0.2479140884927046 -0.06559203303750295 0.007908584455167187 0.21460184959451223 0.007723772871944813
0.023956495381414533 -0.08266714771882945 -0.048825935649875876 0.2518839757643404 0.11328776479402411 -0.1257992689953351 0.16000309795898873 0.08174478355715784
-0.0692608427994861 -0.11240469835955343 -0.034380800412953084 0.028185227830619736 0.007907446661529198 -0.16184824012769727 0.13068119338330011 0.15201897399933223
0.04404034164739457 0.046576094009361746 0.25332151002571124 -0.1994006604177945 -0.04325415180303597 0.2210007152003148 -0.049777996089874404 0.06165706399732811
-0.08115340799440886 -0.12194184293174229 -0.0760124047706845 0.1633529724093532 0.0029746928614452967 -0.13045867614999274 -0.16761650501415568 0.07979306780707164
-0.030248085853148702 -0.11691594567138475 -0.10887391787188438 0.017132458752098477 -0.06930487210325655 -0.07815360539001674 0.021560086804623388 -0.19943033837072466
0.0615936250527673 -0.007938292542230187 -0.1346159011791451 -0.07971640686783707 -0.0034180586639705646 -0.02716680945937284 -0.05939557533853787 -0.22558286951795617
00000000: f71a de8b 4f44 cabf cc4f d691 e2fb bb3f
00000010: 2f8f dc6a 89bc c2bf 2217 b648 ba7d c4bf
00000020: 9427 771d 6d11 c0bf 75b1 d263 b03a a33f
00000030: 57f2 31cc a2c0 b03f 7efe 17b5 623c 813f
00000040: d767 5d6a 9332 b63f 6686 e424 ac50 b5bf
00000050: bc32 25f9 95cc b9bf afd0 c3bc 656b c53f
00000060: 2ffd 63d8 fca2 c6bf 70bc c2f9 d46e d2bf
00000070: f741 ceca 8464 a3bf b0a4 3ac0 6ab4 b2bf
00000080: 3d68 5695 d68c b53f 74ee 3e2e e688 8fbf
00000090: 41dc fb5c da24 b3bf 6e0b 0c9a 6355 c43f
000000a0: 73c0 8ddd dd76 cfbf b10a 53d8 83b8 b93f
000000b0: bd89 e077 1980 c4bf 674d 7ea3 0dc7 a2bf
000000c0: 5408 e727 3d2f bdbf ecf9 897c f4e8 cbbf
000000d0: a855 233e 7c03 943f 7c3a 07af 1f6f 20bf
000000e0: e46e 9de4 23ae a8bf 23af a6fc e534 a33f
000000f0: b6a8 48bf e73b d03f 1960 89f2 15ee 97bf
00000100: 0ec4 d334 6eab a53f 0d4f eaa3 d821 a6bf
00000110: 3c97 5042 bf04 603f 5274 ce13 8fa0 9dbf
00000120: 4792 4add 751d c2bf 3ee7 611e 1e5c af3f
00000130: ab57 d535 847a c4bf fbf8 124b 21c2 c33f
00000140: fa1f 6b98 4cde 70bf c1d4 c809 9335 b43f
00000150: e90d 3af1 72a2 d13f ff5c f16c d43a aa3f
00000160: eafb db30 bd53 d13f 3dd3 713f 144c cabf
00000170: e000 c5ce 6526 a1bf bbab 5ef0 ae52 b1bf
00000180: 14c2 f1f3 6da9 cabf 3709 5474 9486 a4bf
00000190: 31b7 1e8b b009 863f 8d65 2261 8c7f babf
000001a0: 6293 8e45 cca0 b63f a2a6 edbf a95a b5bf
000001b0: cbe9 2d50 86de c63f a2af e40c f189 90bf
000001c0: 69c4 d803 2886 9ebf e703 6984 5060 c5bf
000001d0: a785 b339 f8b7 d9bf b6fc 61e7 104e c13f
000001e0: fe3a b926 dfa5 b23f 0192 bb7f 60bd a4bf
000001f0: 2a60 2fb4 1c0d b2bf 3ff4 118c c0d0 b0bf
00000200: c76f 66aa 8ce4 913f 07a5 7f74 46f4 bebf
00000210: e0ed a2bd 09ac adbf 3b89 a0e8 6596 c63f
00000220: eb29 28c6 c18f b3bf 42c6 efe7 d019 883f
00000230: 5364 0b24 2e5b c8bf 52e7 a3b6 8fa3 c2bf
00000240: d3b9 d1bd a826 403f 331e 346d aff1 b1bf
00000250: 140f b337 ab97 d1bf 9030 6d87 8334 aa3f
00000260: d367 c854 6e20 99bf 30d0 6f2d 61ae b13f
00000270: 1a48 2288 4cbd 9fbf 4178 f52e 4fd2 aabf
00000280: 4918 0325 f79b a1bf b3ec ef80 28df ccbf
00000290: c1cf b79d ab97 bdbf c14e 3b06 3ac8 b6bf
000002a0: 4e04 d398 a136 c23f e564 a384 97d8 ca3f
000002b0: 7901 64f7 7f0a a8bf ad96 54cc 8261 af3f
000002c0: 23f1 24e9 9889 b1bf 7c99 60bd af85 c03f
000002d0: 9920 531f 5e4c acbf 5f48 f26e 22b6 b9bf
000002e0: a3b0 94fa 7b9f c4bf 65fc d524 9308 b6bf
000002f0: 32c9 c026 bb38 9ebf 9cb1 a1d2 2605 b4bf
00000300: b6b0 0363 13f9 c93f 6895 bb81 b5da 85bf
00000310: 2be6 1acc df5a 833f ce1f 5ddf f70c dd3f
00000320: a89c 8265 dcb5 c53f 60b8 f244 2c68 a43f
00000330: d757 3e31 6266 933f 008b aa3b 3bb1 aabf
00000340: 28ca cd25 d37e c3bf cf62 de4e 5622 b2bf
00000350: 9ed0 0ca3 1696 c9bf 72d2 24ce f7d9 c9bf
00000360: f0e8 395c 9b37 b3bf abce 84b3 e088 ab3f
00000370: ff65 7d17 7c8d d0bf d63a 4232 6a3d babf
00000380: 6404 9a36 2c8f aabf f4af b2f7 9304 abbf
00000390: e772 e3a3 08b9 c0bf cec3 7f1c 2b77 b53f
000003a0: c2e6 6b2a f23d afbf c5f5 dce6 ba5c bdbf
000003b0: 9234 d0cb f45f be3f f738 b477 b477 b5bf
000003c0: 1f93 f67c 9392 cfbf 5108 555f 71ac acbf
000003d0: 29da 666d 2ee4 bc3f a83c 7fe4 6605 b83f
000003e0: dc87 a9f1 3a0c b9bf a018 2adb 2e88 c13f
000003f0: 7b46 61b7 368c c3bf 46fe b38c 2a2a c2bf
00000400: f2ca 7598 9f56 cabf a6b0 ec4f 30aa 90bf
00000410: 8ffe 2002 188c bdbf 0320 0e43 1b07 c33f
00000420: f3e4 6d1d 5564 bebf 5c98 df45 a4a2 c0bf
00000430: 346b 9651 58cb c5bf 9576 4404 195e c23f
00000440: 15a1 6b7f a997 90bf e8cf 27fa 2605 9c3f
00000450: 5e9b 8e7a e223 81bf 1ce4 9737 a6bf aebf
00000460: f681 7455 0c85 a1bf 4c13 b2b6 1d60 a43f
00000470: d4bc ca51 3047 c13f 57b5 d198 093a 78bf
00000480: 1526 d88d d6bc a2bf db7b d7de 8bf4 b53f
00000490: a532 23db b490 a53f 75f5 cb6f 108b bf3f
000004a0: fc7d 5f95 284b c2bf 1dca d10d 150f c43f
000004b0: a898 473e c9f1 b33f bfaa af44 d510 a4bf
000004c0: d92c a822 21cd c0bf 332c f566 5053 9e3f
000004d0: d578 fc6a 3c61 b23f 8039 1b9b 9963 cb3f
000004e0: 3c8c 42d9 d252 d73f bf30 48a6 0880 c33f
000004f0: 2451 e40c c35b cd3f a850 7b75 746a 9f3f
00000500: 68e2 6226 d878 be3f 6224 32af 20ce c63f
00000510: 499f 95e3 cc4e aa3f 83cf 80d5 a05f ce3f
00000520: 1e08 21a6 242a ab3f 8cfe ec59 7a12 93bf
00000530: bc9b fe7f 1df0 833f 70ba 992c 3f06 cabf
00000540: 3b30 81a5 2357 a5bf 5b6e 23bc bc40 a53f
00000550: 66f6 9a80 acd5 b13f 9b12 83e0 90f7 b0bf
00000560: a9f4 a8c3 68d1 c3bf f410 243b 3947 ae3f
00000570: f1b9 ace9 a452 c63f c2ef fa3a 4e55 d23f
00000580: 62bc 048f 2a64 d03f 0add 88cd dc7e bb3f
00000590: ef48 cc96 d534 b8bf 5a3a 351b 8176 723f
000005a0: 1291 1497 91f5 973f b47f f0bc 1213 be3f
000005b0: aeb3 2291 55d7 aa3f 5b35 4740 74f8 cabf
000005c0: a952 fe86 9909 c1bf 552b f8f0 04eb 7a3f
000005d0: a1ff 8029 279d b43f d8a7 9f42 1f88 a63f
000005e0: a1ec 35da 4e40 9d3f 2d17 b013 8e04 9fbf
000005f0: 271d 4e9e 591a a6bf 00e8 e1d4 7f72 a03f
00000600: b04b 25f9 3e8a b8bf a20c 1f25 a92a c63f
00000610: 4519 9bd8 7606 ce3f b252 8003 4c5e c23f
00000620: 4bad 7a37 741d c93f 9604 1168 0c03 83bf
00000630: 1156 ef3f 213e ca3f ed49 87ed 3b10 a53f
00000640: 4b27 99e1 53c4 c2bf 9ca9 d6ac ccc0 903f
00000650: d08b 9140 e72a c6bf c59b 251b a6bb cfbf
00000660: b933 c6b4 a3ca b0bf 85a3 bd3c 6032 803f
00000670: 84b3 d5ca 1278 cb3f 0111 307e f6a2 7f3f
00000680: 6082 c230 0d88 983f e1ed e797 ac29 b5bf
00000690: 9a29 a089 b6ff a8bf cad5 92f7 dd1e d03f
000006a0: 36c8 d34c 6d00 bd3f c00b 19c1 301a c0bf
000006b0: 950b 7f44 fb7a c43f 9e20 ffe3 39ed b43f
000006c0: c299 b71e 14bb b1bf 9dfb 5ee7 8dc6 bcbf
000006d0: 5d93 c43a 5c9a a1bf e520 0d9f 96dc 9c3f
000006e0: 7cf5 7286 c731 803f 20be 2171 71b7 c4bf
000006f0: 914a e44d 29ba c03f ee6b d994 5b75 c33f
00000700: 7113 29a6 748c a63f d85c 1761 d2d8 a73f
00000710: d2c2 3b6c 6b36 d03f 11ca a5f9 f585 c9bf
00000720: 750d d27e 6825 a6bf 77c7 165e c049 cc3f
00000730: 0c69 8862 807c a9bf b62e dfc2 8391 af3f
00000740: 9980 4b41 78c6 b4bf a2e2 67a3 9437 bfbf
00000750: 6095 9488 8c75 b3bf 90ed 190d c0e8 c43f
00000760: 6d15 c711 625e 683f 1c97 c5b1 deb2 c0bf
00000770: 831e a727 7574 c5bf 49cb ad88 516d b43f
00000780: d103 06ae 5af9 9ebf 581d 0a13 34ee bdbf
00000790: 88aa a53c 29df bbbf c64c 29d8 2b8b 913f
000007a0: 210f 23cf f6bd b1bf c3f0 36eb df01 b4bf
000007b0: 5c2c e6ee d813 963f fcf4 90ee ee86 c9bf
000007c0: 1bc9 7c1a 3389 af3f eef4 d696 f341 80bf
000007d0: eb01 8b06 183b c1bf 9eb5 7360 4b68 b4bf
000007e0: a998 ae45 3000 6cbf 329f a8b8 9dd1 9bbf
000007f0: ec55 36cb 1869 aebf d508 8f43 e6df ccbf
